hidden-32/model_epoch_2_200.pth (torch, 74803 bytes, 7 tensors)

embedding.0.weight f4 [32, 7]
0	0xbe64dbc8	-0.22349465
1	0xbe31da93	-0.17368536
2	0xbea37170	-0.31922483
3	0x3da8ad33	0.0823616
4	0x3e4bed80	0.19914818
5	0x3eae6225	0.34059253
6	0x3e509592	0.20369557
7	0xbe655afc	-0.22397989
8	0xbc089b51	-0.008337812
9	0x3e888647	0.26664945
10	0x3e811295	0.2520949
11	0xbbb6f7b6	-0.0055837287
12	0xbcf4b290	-0.029870301
13	0x3daac376	0.083380625
14	0xbe4bc317	-0.1989864
15	0xbe82e2ba	-0.25563604
16	0x3e5fc0c9	0.21850885
17	0xbdb20f98	-0.086943805
18	0xbe8e366f	-0.27775905
19	0xbe9646f4	-0.29351008
20	0xbe7fb1c4	-0.24970156
21	0x3ddc378c	0.10752782
22	0x3d062377	0.032748666
23	0xbec0d120	-0.3765955
24	0x3dd5d830	0.10441625
25	0x3dc2711d	0.09494231
26	0xbb14b0a2	-0.002268829
27	0x3d4ea6c1	0.050451998
28	0x3e21d82f	0.15805124
29	0x3e88bd66	0.26707
30	0x3e7e115c	0.2481131
31	0x3e24dbbd	0.16099449
32	0xbea28067	-0.31738588
33	0xbe1fc052	-0.15600708
34	0xbdef5c94	-0.1168758
35	0xbd761363	-0.060077082
36	0xbe6b736f	-0.22993253
37	0xbe90b769	-0.2826493
38	0xbc89c304	-0.016816624
39	0x3e8b4132	0.27198178
40	0x3eb4e82d	0.35333386
41	0xbe7f2a4a	-0.24918476
42	0x3ec12f63	0.37731466
43	0xbe9461d0	-0.28980875
44	0x3dedc3c7	0.11609607
45	0xbd113271	-0.035448495
46	0xbe48590f	-0.19565223
47	0x3ead68ed	0.33869115
48	0xbd8ecb4e	-0.06972371
49	0x3dce87ad	0.10084472
50	0x3eac0867	0.3360016
51	0x3e1dcdca	0.15410534
52	0x3eb71b3d	0.3576297
53	0xbe3c56c7	-0.18392478
54	0x3e9722fb	0.29518875
55	0xbeb89e4b	-0.36058268
56	0x3d9078fb	0.07054325
57	0x3e9231c9	0.28553608
58	0x3eb641b7	0.3559701
59	0xbdc77370	-0.09738815
60	0xbe50548c	-0.20344752
61	0xbe707db9	-0.2348546
62	0xbeb365b1	-0.35038522
63	0x3e78462d	0.2424552
64	0x3e4c1901	0.19931413
65	0x3da7d15b	0.08194228
66	0xbe99de7d	-0.30052558
67	0xbea55171	-0.32288697
68	0x3e0766af	0.13222764
69	0xbda82124	-0.08209446
70	0xbd8755da	-0.06608172
71	0xbce582c4	-0.028016455
72	0xbea22511	-0.31668904
73	0xbe7f28dc	-0.2491793
74	0x3ec1521e	0.37757963
75	0x3db89dab	0.09014448
76	0xbe9a78aa	-0.30170184
77	0x3e934777	0.2876546
78	0x3db384ce	0.08765565
79	0x3ebda90f	0.37043044
80	0x3ea9746e	0.3309664
81	0xbe04d004	-0.12969977
82	0x3e651df2	0.22374704
83	0xbdef3975	-0.11680881
84	0x3e39579e	0.1809983
85	0x3ca12835	0.019672493
86	0xbe0fc3e8	-0.14039576
87	0xbcd6a920	-0.026203692
88	0x3e633b12	0.22190502
89	0xbe914df8	-0.28379798
90	0xbccd9a38	-0.025097951
91	0xbdf986e0	-0.121839285
92	0x3ea10509	0.31449154
93	0x3dcfdf5d	0.10150025
94	0xbded8ed5	-0.11599509
95	0x3e739bf9	0.23789968
96	0x3cd96eec	0.02654215
97	0xbe9f4c02	-0.31112677
98	0xbdb08b5c	-0.08620331
99	0x3d8efd45	0.06981901
100	0x3eb4d62d	0.35319653
101	0xbdd4ff82	-0.10400297
102	0x3e0460e5	0.12927587
103	0xbe9a7677	-0.30168507
104	0xbeb06608	-0.34452844
105	0x3dcd7516	0.10032098
106	0xbc9edc87	-0.019392265
107	0x3e97c72c	0.29644144
108	0x3e9a8609	0.30180386
109	0x3ebe3088	0.371464
110	0xbe238e81	-0.1597233
111	0xbe47fe9c	-0.1953072
112	0x3e2742af	0.16334032
113	0x3dc3719c	0.09543154
114	0x3ec05404	0.375641
115	0xbc3ab564	-0.011395786
116	0x3ead3d54	0.33835852
117	0xbe3406b2	-0.17580679
118	0xbea4fb1c	-0.3222283
119	0xbe88e311	-0.26735738
120	0xbe261a44	-0.16220957
121	0xbe6dbcbd	-0.23216529
122	0x3e8a0a2d	0.26960889
123	0x3d6f7392	0.058459826
124	0x3e8e5ada	0.2780369
125	0x3d189fa2	0.037261613
126	0x3eb8fc59	0.36130026
127	0xbe8c7c12	-0.27438408
128	0x3de98405	0.11402134
129	0xbeaa210c	-0.33228338
130	0xbe9a9d3c	-0.30198085
131	0x3eb691b3	0.35658035
132	0xbc6d9274	-0.014500249
133	0xbe6e8321	-0.23292209
134	0x3e4f1038	0.2022103
135	0x3e149582	0.14510158
136	0x3b680152	0.0035401178
137	0xbe813323	-0.25234327
138	0xbe3c9518	-0.1841625
139	0x3e17686c	0.14785928
140	0x3e77d41d	0.24202009
141	0x3e054e69	0.13018192
142	0xbeae8725	-0.34087482
143	0x3e05696a	0.13028494
144	0xbeaf71d5	-0.34266534
145	0x3eabcf33	0.33556518
146	0xbe95742a	-0.2919019
147	0x3e8736f8	0.26409125
148	0xbc87a6d0	-0.016559035
149	0xbea65583	-0.32487115
150	0xbec1ac0b	-0.3782657
151	0x3cea12c0	0.028573394
152	0xbe58e654	-0.21181613
153	0x3e997b14	0.29976714
154	0xbe7379e1	-0.23776962
155	0xbe2c8d35	-0.16850741
156	0xbd4c7409	-0.049915347
157	0x3dc62aeb	0.09676155
158	0x3d6d6d4f	0.057965573
159	0xbd332dc6	-0.043744825
160	0x3ea92429	0.330354
161	0x3e94d889	0.29071453
162	0x3eaaea16	0.33381718
163	0x3eaea6c4	0.34111607
164	0xbe950ecb	-0.2911285
165	0x3e7d05bc	0.24709219
166	0xbe93a4df	-0.28836724
167	0x3b8796f7	0.0041378695
168	0x3c6a5722	0.014303001
169	0x3e762e8c	0.24041194
170	0xbe173315	-0.1476558
171	0x3dce2a45	0.10066656
172	0x3e9211a9	0.285291
173	0x3cf0c527	0.029390885
174	0x3e50f9d9	0.2040781
175	0xbe1e0274	-0.15430623
176	0xbd0be287	-0.03415158
177	0xbc923df3	-0.017851805
178	0xbdc18575	-0.09449283
179	0x3ea03e40	0.31297493
180	0x3e7aaa3d	0.24479003
181	0xbe485a22	-0.19565633
182	0xbc23a852	-0.009988861
183	0xbe290808	-0.1650697
184	0xbdf64f7f	-0.120268814
185	0x3d9627b3	0.07331791
186	0x3d9368bc	0.07197711
187	0xbc58879b	-0.013215925
188	0x3e089c7d	0.13340946
189	0xbe88b8c2	-0.2670346
190	0x3e3a5b9c	0.18199009
191	0xbe385176	-0.17999825
192	0x3db70c93	0.08937945
193	0x3e507df9	0.20360555
194	0xbeba1683	-0.363453
195	0x3e035883	0.12826733
196	0x3e34213c	0.17590803
197	0xbe5a3423	-0.21308951
198	0x3e069e42	0.13146308
199	0xbe38f7d0	-0.18063283
200	0xbd5306b3	-0.05152006
201	0x3d5f51a1	0.054521207
202	0xbe1da261	-0.15393974
203	0x3cc5747f	0.024103401
204	0xbeb97b36	-0.36226815
205	0xbeb5d13e	-0.35511202
206	0x3e78522f	0.242501
207	0x3d2d42b2	0.042299934
208	0x3d69905f	0.05702245
209	0xbe22351c	-0.15840572
210	0x3e9bae69	0.30406502
211	0x3e0d480f	0.1379702
212	0xbe9dec1a	-0.30844194
213	0x3e5229ae	0.20523712
214	0x3dbedeba	0.093198255
215	0x3da72592	0.08161463
216	0x3d8be5d8	0.068309486
217	0x3ea03518	0.31290507
218	0x3e057367	0.13032304
219	0xbe2554d5	-0.16145642
220	0x3e7ba94c	0.245763
221	0x3b7014cd	0.0036633492
222	0x3cb22a64	0.021748729
223	0xbeabf710	-0.3358693

embedding.0.bias f4 [32]
0	0xbdec64a1	-0.11542631
1	0x3e76c591	0.24098803
2	0x3e67e6df	0.22646664
3	0xbdf2a9f1	-0.1184882
4	0xbddf6376	-0.109076425
5	0xbc2abe75	-0.010421385
6	0xbe67c6ba	-0.22634402
7	0xbe20a451	-0.15687682
8	0xbeac263c	-0.3362292
9	0xbea389fe	-0.31941217
10	0x3e31bf13	0.17358045
11	0xbceb90d6	-0.028755587
12	0xbd544927	-0.051827576
13	0xbe6ad911	-0.22934367
14	0xbe32591b	-0.17416804
15	0xbe8645db	-0.2622517
16	0x3e8b6cfd	0.2723159
17	0xbe494a30	-0.19657207
18	0x3dc4d793	0.0961143
19	0xbeb421d6	-0.35182065
20	0x3e1dcca2	0.15410092
21	0x3b649fae	0.0034885216
22	0xbe7db1c4	-0.24774843
23	0x3e23f871	0.16012742
24	0x3e88b21d	0.2669839
25	0xbd3925b0	-0.045201957
26	0x3e760e06	0.24028787
27	0xbea4b02a	-0.32165653
28	0xbe9f2583	-0.31083307
29	0xbe7dfd7f	-0.24803732
30	0xbe0e176d	-0.13876124
31	0x3e78a9fb	0.24283592

layernorm.weight f4 [259, 32]
0	0x3f7f9b3a	0.9984623
1	0x3f80001b	1.0000032
2	0x3f800033	1.0000061
3	0x3f8000e6	1.0000274
4	0x3f800025	1.0000044
5	0x3f7fff8f	0.99999326
6	0x3f800047	1.0000085
7	0x3f7fffb7	0.99999565
8	0x3f7fff6b	0.9999911
9	0x3f800000	1.0
10	0x3f800000	1.0
11	0x3f7ffecc	0.99998164
12	0x3f7fffab	0.99999493
13	0x3f800009	1.0000011
14	0x3f7fffff	0.99999994
15	0x3f7fff7b	0.9999921
16	0x3f7fff5c	0.9999902
17	0x3f7fffc6	0.99999654
18	0x3f800000	1.0
19	0x3f800652	1.0001929
20	0x3f80002d	1.0000054
21	0x3f802c93	1.0013603
22	0x3f7f79ec	0.99795413
23	0x3f800012	1.0000021
24	0x3f802558	1.0011396
25	0x3f7fff84	0.9999926
26	0x3f802cae	1.0013635
27	0x3f8009bc	1.0002971
28	0x3f800000	1.0
29	0x3f7fffff	0.99999994
30	0x3f800244	1.0000691
31	0x3f800001	1.0000001
32	0x3f7f8c26	0.99823225
33	0x3f7ffbba	0.9999348
34	0x3f800039	1.0000068
35	0x3f800032	1.000006
36	0x3f801c20	1.0008583
37	0x3f7ffffd	0.9999998
38	0x3f800040	1.0000076
39	0x3f7fc8c0	0.99915695
40	0x3f7fd5d0	0.99935627
41	0x3f800018	1.0000029
42	0x3f800000	1.0
43	0x3f800b56	1.000346
44	0x3f7fffd0	0.99999714
45	0x3f800046	1.0000083
46	0x3f7fffea	0.9999987
47	0x3f7fe6c8	0.9996152
48	0x3f800024	1.0000043
49	0x3f7fffd9	0.9999977
50	0x3f800002	1.0000002
51	0x3f800025	1.0000044
52	0x3f800000	1.0
53	0x3f800a82	1.0003207
54	0x3f7f5eca	0.9975401
55	0x3f800005	1.0000006
56	0x3f8021f2	1.0010359
57	0x3f7fff80	0.9999924
58	0x3f800751	1.0002233
59	0x3f8003b4	1.000113
60	0x3f800000	1.0
61	0x3f800000	1.0
62	0x3f7ff6df	0.9998607
63	0x3f80099b	1.0002931
64	0x3f802e98	1.0014219
65	0x3f800068	1.0000124
66	0x3f800035	1.0000063
67	0x3f800095	1.0000178
68	0x3f7ff265	0.9997924
69	0x3f7fffc0	0.9999962
70	0x3f80003d	1.0000073
71	0x3f80049f	1.000141
72	0x3f80000f	1.0000018
73	0x3f800002	1.0000002
74	0x3f800000	1.0
75	0x3f7fe872	0.9996406
76	0x3f7fffb2	0.99999535
77	0x3f800009	1.0000011
78	0x3f7ffffe	0.9999999
79	0x3f80021a	1.0000641
80	0x3f7fffeb	0.99999875
81	0x3f7fffcd	0.99999696
82	0x3f800000	1.0
83	0x3f802157	1.0010175
84	0x3f800017	1.0000027
85	0x3f7fab03	0.9987032
86	0x3f804765	1.0021788
87	0x3f800002	1.0000002
88	0x3f7f76f5	0.9979089
89	0x3f7fff84	0.9999926
90	0x3f7fc5a7	0.9991097
91	0x3f7fd598	0.99935293
92	0x3f800000	1.0
93	0x3f7ffffe	0.9999999
94	0x3f802344	1.0010762
95	0x3f7ffd42	0.99995816
96	0x3f7fdcd7	0.9994635
97	0x3f7ffd8b	0.9999625
98	0x3f80003b	1.000007
99	0x3f80002a	1.000005
100	0x3f801865	1.0007445
101	0x3f800001	1.0000001
102	0x3f800038	1.0000067
103	0x3f7fd512	0.99934494
104	0x3f7fd265	0.9993041
105	0x3f800017	1.0000027
106	0x3f800000	1.0
107	0x3f8005ba	1.0001748
108	0x3f7fffcb	0.99999684
109	0x3f8000b9	1.000022
110	0x3f7fffe8	0.99999857
111	0x3f7ff78c	0.999871
112	0x3f800021	1.0000039
113	0x3f7fffdb	0.9999978
114	0x3f800002	1.0000002
115	0x3f800091	1.0000173
116	0x3f800000	1.0
117	0x3f80002b	1.0000051
118	0x3f7fcab3	0.9991867
119	0x3f800006	1.0000007
120	0x3f7ff2f6	0.99980104
121	0x3f7fff83	0.99999255
122	0x3f7ffc80	0.9999466
123	0x3f800152	1.0000403
124	0x3f7fffff	0.99999994
125	0x3f7fffff	0.99999994
126	0x3f800214	1.0000634
127	0x3f800af1	1.0003339
128	0x3f803d32	1.0018675
129	0x3f800053	1.0000099
130	0x3f800037	1.0000066
131	0x3f80006b	1.0000128
132	0x3f7fe8e1	0.9996472
133	0x3f7fffdb	0.9999978
134	0x3f80003a	1.0000069
135	0x3f8006a6	1.0002029
136	0x3f80000f	1.0000018
137	0x3f800004	1.0000005
138	0x3f800000	1.0
139	0x3f7fdeca	0.99949324
140	0x3f7fffbd	0.999996
141	0x3f80001a	1.0000031
142	0x3f7ffff7	0.99999946
143	0x3f80041d	1.0001255
144	0x3f7fffbf	0.9999961
145	0x3f7fffd8	0.9999976
146	0x3f800000	1.0
147	0x3f802055	1.0009867
148	0x3f800006	1.0000007
149	0x3f7f8c25	0.9982322
150	0x3f805a7d	1.0027615
151	0x3f800001	1.0000001
152	0x3f7f44ff	0.99714655
153	0x3f7fff87	0.9999928
154	0x3f7face6	0.998732
155	0x3f7fc156	0.9990438
156	0x3f800000	1.0
157	0x3f7ffffe	0.9999999
158	0x3f80278a	1.0012066
159	0x3f7fff07	0.99998516
160	0x3f800a51	1.0003148
161	0x3f7ffe30	0.99997234
162	0x3f80003e	1.0000074
163	0x3f800026	1.0000045
164	0x3f8011db	1.0005449
165	0x3f800001	1.0000001
166	0x3f800036	1.0000064
167	0x3f7fdd1a	0.9994675
168	0x3f7fde6b	0.9994876
169	0x3f800016	1.0000026
170	0x3f800000	1.0
171	0x3f8002bc	1.0000834
172	0x3f7fffca	0.9999968
173	0x3f800097	1.000018
174	0x3f7fffea	0.9999987
175	0x3f7ffb39	0.9999271
176	0x3f800023	1.0000042
177	0x3f7fffdf	0.99999803
178	0x3f800003	1.0000004
179	0x3f80006f	1.0000132
180	0x3f800000	1.0
181	0x3f7ff3f5	0.99981624
182	0x3f800ca2	1.0003855
183	0x3f800002	1.0000002
184	0x3f7fead0	0.9996767
185	0x3f7fff87	0.9999928
186	0x3f7ffa32	0.9999114
187	0x3f8000d4	1.0000253
188	0x3f7ffffe	0.9999999
189	0x3f7fffff	0.99999994
190	0x3f8001f9	1.0000602
191	0x3f800914	1.000277
192	0x3f804dc7	1.0023736
193	0x3f800025	1.0000044
194	0x3f80003f	1.0000075
195	0x3f80004c	1.0000091
196	0x3f7fcafa	0.9991909
197	0x3f7fffed	0.99999887
198	0x3f800033	1.0000061
199	0x3f800fe7	1.0004853
200	0x3f80045b	1.0001329
201	0x3f800005	1.0000006
202	0x3f800000	1.0
203	0x3f7fcf90	0.9992609
204	0x3f7fffc6	0.99999654
205	0x3f7ffc73	0.9999458
206	0x3f7ffff5	0.99999934
207	0x3f80044e	1.0001314
208	0x3f800003	1.0000004
209	0x3f7fffe5	0.9999984
210	0x3f800000	1.0
211	0x3f8018da	1.0007584
212	0x3f7ffe78	0.99997663
213	0x3f7f783a	0.99792826
214	0x3f80662a	1.0031178
215	0x3f7ffb09	0.99992424
216	0x3f7f4211	0.99710184
217	0x3f7fff8d	0.99999315
218	0x3f7f9ad2	0.9984561
219	0x3f7fbcf4	0.99897695
220	0x3f7ffffe	0.9999999
221	0x3f7ffffe	0.9999999
222	0x3f8020a6	1.0009964
223	0x3f7ff20a	0.999787
224	0x3f800bee	1.0003641
225	0x3f7ffe2e	0.9999722
226	0x3f800040	1.0000076
227	0x3f80001c	1.0000033
228	0x3f8002ff	1.0000914
229	0x3f800003	1.0000004
230	0x3f800030	1.0000057
231	0x3f7ff99f	0.99990267
232	0x3f7fec73	0.9997017
233	0x3f800010	1.0000019
234	0x3f800000	1.0
235	0x3f7ff0f1	0.9997702
236	0x3f7fffca	0.9999968
237	0x3f8000e8	1.0000277
238	0x3f7fffe9	0.9999986
239	0x3f80009b	1.0000185
240	0x3f800027	1.0000046
241	0x3f7fffe6	0.99999845
242	0x3f800002	1.0000002
243	0x3f80005c	1.000011
244	0x3f7ffff6	0.9999994
245	0x3f7fe006	0.9995121
246	0x3f801d91	1.0009023
247	0x3f800000	1.0
248	0x3f7fcf1c	0.999254
249	0x3f7fff8c	0.9999931
250	0x3f7fe765	0.99962455
251	0x3f800085	1.0000159
252	0x3f7ffffc	0.99999976
253	0x3f800000	1.0
254	0x3f80013d	1.0000378
255	0x3f8005f1	1.0001813

layernorm.bias f4 [259, 32]
0	0xb8839468	-6.2742096e-05
1	0xb658958d	-3.2273558e-06
2	0xb8aa21a9	-8.1125014e-05
3	0x36fe348e	7.575908e-06
4	0xb87542ec	-5.8474878e-05
5	0x3786f836	1.6089627e-05
6	0xb89bc61d	-7.4278774e-05
7	0x37a8fd3b	2.014508e-05
8	0x387a819d	5.9725357e-05
9	0xb685c872	-3.987044e-06
10	0xb74fcb82	-1.2385544e-05
11	0xb8a367a0	-7.791747e-05
12	0x37ed8051	2.8312354e-05
13	0xb8242e76	-3.9143917e-05
14	0x362c749d	2.5697875e-06
15	0x38a1a61e	7.70802e-05
16	0x389337a2	7.019869e-05
17	0xb77a3407	-1.4913275e-05
18	0x3794f71f	1.775805e-05
19	0xb696a7e9	-4.4898957e-06
20	0xb899cc8d	-7.333709e-05
21	0x38a8cce2	8.049027e-05
22	0xb85cb517	-5.262074e-05
23	0xb82541a8	-3.9400213e-05
24	0x38b6efed	8.723126e-05
25	0x3896ff30	7.20009e-05
26	0x388ba37b	6.658487e-05
27	0x38948012	7.081045e-05
28	0xb7ad93fb	-2.0692116e-05
29	0x3863a8bb	5.427816e-05
30	0xb7096fc6	-8.191861e-06
31	0xb85c2a29	-5.2491352e-05
32	0xb8b6292f	-8.686107e-05
33	0xb72a7cab	-1.0161816e-05
34	0xb8209de5	-3.8294023e-05
35	0xb808cb12	-3.261405e-05
36	0xb7bd9de8	-2.2604087e-05
37	0x382e684d	4.158197e-05
38	0xb85a65b1	-5.2069958e-05
39	0x3831c252	4.2381063e-05
40	0x3862225a	5.391459e-05
41	0x37242d83	9.785758e-06
42	0x37f45e0f	2.9130866e-05
43	0xb8a491e9	-7.847307e-05
44	0xb6208254	-2.391772e-06
45	0xb88cd7ea	-6.715937e-05
46	0x3496c9d3	2.8086524e-07
47	0x3841e8d0	4.623161e-05
48	0x38ed04d8	0.00011301943
49	0x37396de5	1.1052446e-05
50	0xb75e5cee	-1.3253868e-05
51	0x3786a0c4	1.6048907e-05
52	0xb8e680a3	-0.00010991215
53	0x38b4b5ac	8.616908e-05
54	0xb833f6ce	-4.290678e-05
55	0xb8872c47	-6.445549e-05
56	0x3607c3b8	2.023049e-06
57	0x38a0d3dd	7.668857e-05
58	0x38974bcc	7.214359e-05
59	0x39004ed0	0.00012236391
60	0xb84f0cb4	-4.9364477e-05
61	0x3888bd32	6.520226e-05
62	0xb7b8b8b8	-2.2020526e-05
63	0xb8f2706b	-0.00011560399
64	0xb838790a	-4.3981745e-05
65	0xb7f3377b	-2.8993692e-05
66	0xb8fe8688	-0.00012136722
67	0x38559e35	5.09305e-05
68	0xb905b14d	-0.00012749918
69	0xb81b072f	-3.696157e-05
70	0xb8bec6c7	-9.096931e-05
71	0x37e176bd	2.6877382e-05
72	0x38bf4948	9.1212394e-05
73	0xb864b74f	-5.4530155e-05
74	0xb8428a3b	-4.638194e-05
75	0xb8c459f1	-9.362761e-05
76	0x38cb222d	9.68616e-05
77	0xb75a038e	-1.299464e-05
78	0x38213e30	3.8443308e-05
79	0x390e67c9	0.00013580838
80	0x3841d885	4.6216435e-05
81	0xb7d1d7ba	-2.5015197e-05
82	0xb5e8f5fe	-1.735694e-06
83	0xb838a2d9	-4.4020682e-05
84	0xb6cbc12f	-6.072361e-06
85	0x379cb986	1.868304e-05
86	0xb88e57ad	-6.7874185e-05
87	0xb77b9956	-1.4996467e-05
88	0x392af4cb	0.00016303656
89	0x3816fe77	3.5999776e-05
90	0x38afdf0b	8.386195e-05
91	0xb7d82067	-2.5764295e-05
92	0x38041e98	3.1499745e-05
93	0xb7986d87	-1.8170815e-05
94	0xb7b2b697	-2.1304279e-05
95	0x370aac05	8.265492e-06
96	0xb86af4b2	-5.6017838e-05
97	0xb80d80cc	-3.373697e-05
98	0xb8b827ff	-8.7812536e-05
99	0xb7898753	-1.6394688e-05
100	0xb86d39d8	-5.6559074e-05
101	0xb5348556	-6.7249255e-07
102	0xb8828b4c	-6.224829e-05
103	0x381e2839	3.7707596e-05
104	0x388dff20	6.770925e-05
105	0xb7f0c5d9	-2.870236e-05
106	0xb6640c68	-3.398187e-06
107	0xb89ae173	-7.3852854e-05
108	0x37c66f19	2.3655173e-05
109	0xb849f007	-4.8145677e-05
110	0x37ad1417	2.0632562e-05
111	0x388e87f7	6.796413e-05
112	0x38aae753	8.149319e-05
113	0xb6eae37a	-7.000225e-06
114	0x36457782	2.942485e-06
115	0xb7300844	-1.0492342e-05
116	0xb87b9123	-5.9978232e-05
117	0x38580117	5.1499428e-05
118	0xb82a3ce8	-4.058788e-05
119	0xb84c76d4	-4.8748057e-05
120	0x3869e5d3	5.576557e-05
121	0x38452f5d	4.701257e-05
122	0x38acc3c4	8.238063e-05
123	0x3882a235	6.2290965e-05
124	0xb70d6698	-8.428142e-06
125	0x380e0a41	3.3864988e-05
126	0xb7f276c5	-2.8903954e-05
127	0xb8971168	-7.203483e-05
128	0xb7fb3489	-2.9945995e-05
129	0xb8501067	-4.960634e-05
130	0xb9170f79	-0.00014406246
131	0x3891154a	6.918104e-05
132	0xb91f2086	-0.00015175538
133	0xb8882ba6	-6.4931155e-05
134	0xb8d850d8	-0.00010314741
135	0x3810b59e	3.450142e-05
136	0x38d5099d	0.00010158422
137	0xb8a1986b	-7.705468e-05
138	0xb8738264	-5.805715e-05
139	0xb8d46cba	-0.000101292
140	0x38fb59bc	0.00011985327
141	0x361fc181	2.380548e-06
142	0x383f862b	4.5662902e-05
143	0x3921c260	0.00015426567
144	0x382d9a28	4.1389983e-05
145	0xb7a28eec	-1.9378458e-05
146	0xb6a808b6	-5.0078042e-06
147	0xb88a62b8	-6.5987406e-05
148	0x37ca2426	2.409711e-05
149	0xb5d712d0	-1.6024223e-06
150	0xb89d5078	-7.501332e-05
151	0xb6da84ae	-6.5123522e-06
152	0x393f9ec4	0.00018274324
153	0x37a56f27	1.9721292e-05
154	0x38c16870	9.22241e-05
155	0xb88296bd	-6.22696e-05
156	0x383313f6	4.2695516e-05
157	0xb82ced5e	-4.122906e-05
158	0xb81a2760	-3.6753132e-05
159	0x37ea4086	2.792502e-05
160	0xb833a05b	-4.282627e-05
161	0xb88710eb	-6.440453e-05
162	0xb8f45e47	-0.00011652387
163	0xb750e622	-1.2451348e-05
164	0xb871037b	-5.746212e-05
165	0xb8303135	-4.2007498e-05
166	0xb8acba2e	-8.236278e-05
167	0x380a669e	3.2997334e-05
168	0x38b1ed79	8.4842504e-05
169	0xb87dacf5	-6.048098e-05
170	0xb770c98b	-1.435204e-05
171	0xb88b4781	-6.641355e-05
172	0x385c3726	5.250345e-05
173	0xb82344a0	-3.892614e-05
174	0x380b90d4	3.3275064e-05
175	0x3880e020	6.145262e-05
176	0x3886bd7e	6.4249136e-05
177	0xb766556f	-1.372896e-05
178	0x37522258	1.2524972e-05
179	0xb812a979	-3.4966946e-05
180	0xb7d60d89	-2.551709e-05
181	0x384ced97	4.8858663e-05
182	0xb7990435	-1.824098e-05
183	0xb819fba1	-3.671239e-05
184	0x38a3ac0e	7.804493e-05
185	0x381c0256	3.7195474e-05
186	0x38b3c7a3	8.5725704e-05
187	0x37ef07a9	2.8494587e-05
188	0x36fe1572	7.5722864e-06
189	0x3771c359	1.4410202e-05
190	0xb82a13bc	-4.0549538e-05
191	0xb869dc29	-5.575657e-05
192	0xb6a4f881	-4.9165105e-06
193	0xb886ab55	-6.421531e-05
194	0xb91e17da	-0.0001507694
195	0x388cbc06	6.710742e-05
196	0xb93a8845	-0.00017789107
197	0xb8bacc38	-8.90721e-05
198	0xb8bed74b	-9.1000074e-05
199	0x385b389f	5.22664e-05
200	0x38ef083e	0.00011397943
201	0xb8da2534	-0.0001040198
202	0xb85fb966	-5.334001e-05
203	0xb8b20894	-8.489299e-05
204	0x390c859a	0.00013401211
205	0xb6b11f80	-5.278678e-06
206	0x388be603	6.6708795e-05
207	0x39353f1f	0.0001728502
208	0x37d2bb8d	2.5121286e-05
209	0xb80a41a7	-3.2962907e-05
210	0xb71c7946	-9.326561e-06
211	0xb88f799b	-6.841422e-05
212	0x38167597	3.58723e-05
213	0xb7d24624	-2.5066613e-05
214	0xb86f673e	-5.7078192e-05
215	0x371aa5a0	9.217678e-06
216	0x3935ea8f	0.00017348885
217	0xb410aff1	-1.3475052e-07
218	0x38dfbc54	0.000106685475
219	0xb8adbb53	-8.284175e-05
220	0x3844b667	4.6899917e-05
221	0xb89ff6b0	-7.62766e-05
222	0xb82a3558	-4.058084e-05
223	0x38476385	4.7537982e-05
224	0xb76e05ce	-1.4187257e-05
225	0xb8d44883	-0.00010122454
226	0xb93519ce	-0.00017271118
227	0x368ae886	4.13979e-06
228	0xb8bbc6d4	-8.9538895e-05
229	0xb8c60558	-9.442371e-05
230	0xb8c1543c	-9.218647e-05
231	0x3832a9c6	4.259662e-05
232	0x38da992c	0.000104235805
233	0xb8dff360	-0.00010678801
234	0xb8208913	-3.8274633e-05
235	0xb8642d4b	-5.440162e-05
236	0x38a6ff07	7.9629994e-05
237	0xb7b3cb1a	-2.143304e-05
238	0x383a6b31	4.4445685e-05
239	0x38a1ddc2	7.718384e-05
240	0x37d836ca	2.577472e-05
241	0xb78817cb	-1.6223543e-05
242	0x38449017	4.6864236e-05
243	0xb8976c34	-7.2203955e-05
244	0x3789593f	1.6373231e-05
245	0x380fafc3	3.4257548e-05
246	0x376c9392	1.4101055e-05
247	0xb80dc811	-3.3803346e-05
248	0x38e35191	0.000108393964
249	0x36a10804	4.799107e-06
250	0x38b34642	8.548472e-05
251	0xb7ed6b58	-2.8302587e-05
252	0x38173871	3.605377e-05
253	0xb736ce96	-1.0896145e-05
254	0xb87841d7	-5.9189126e-05
255	0xb7e499ff	-2.7251428e-05

fc.0.weight f4 [32, 32]
0	0xbdb678e5	-0.089097776
1	0x3e004210	0.12525201
2	0x3de2c538	0.11072773
3	0x3e02303e	0.12713715
4	0xbdaef2b6	-0.08542387
5	0xbcee0b7a	-0.029058207
6	0xbc56ab42	-0.0131023545
7	0x3e2cbe3f	0.16869448
8	0x3decd2c6	0.11563639
9	0xbbb7304d	-0.0055904747
10	0xbd795f4e	-0.060881905
11	0x3e123b22	0.1428037
12	0x3e15743d	0.14595123
13	0xbd2311d9	-0.039811943
14	0xbdde1e49	-0.1084562
15	0x3dc91ef1	0.09820355
16	0xbdc6b407	-0.09702306
17	0x3db4f72f	0.08836209
18	0x3d64c465	0.05585136
19	0xbd1872af	-0.037218746
20	0xbd724e9a	-0.05915699
21	0x3df68718	0.12037486
22	0x3e14621e	0.14490554
23	0xbcb7037c	-0.022340529
24	0xbe2da813	-0.16958646
25	0x3db1c92c	0.086809486
26	0xbe1eaaa3	-0.1549478
27	0xbe2e6f68	-0.17034686
28	0xbdd00f33	-0.10159149
29	0xbdba0410	-0.09082806
30	0xbde91375	-0.11380664
31	0xbe07435e	-0.13209292
32	0xbdd634bb	-0.10459276
33	0xbe231143	-0.15924554
34	0xbdc9308b	-0.09823712
35	0x3df5b840	0.119980335
36	0xbe2c5c51	-0.16832091
37	0xbe173510	-0.14766335
38	0x3e2b4bf1	0.16728188
39	0xbe1b523e	-0.15168092
40	0xbe2e1dcf	-0.17003559
41	0x3dc81e82	0.09771444
42	0x3e33c7a3	0.17556624
43	0xbe3239c1	-0.17404844
44	0x3d1f42a5	0.038881917
45	0xbda561d4	-0.080753
46	0xbe18d3bd	-0.14924522
47	0x3e0de9e7	0.13858758
48	0x3e078cdf	0.13237332
49	0x3e1bae3e	0.15203187
50	0x3daaf33c	0.083471745
51	0x3e0e5755	0.13900502
52	0x3e2da96e	0.16959164
53	0xbdc332c4	-0.09531167
54	0xbdbe0f38	-0.092802465
55	0xbe2f84b8	-0.17140472
56	0xbd0f02b4	-0.034914687
57	0xbdbe181c	-0.09281942
58	0xbd9a4b00	-0.07533836
59	0x3d078179	0.03308246
60	0x3c6d12cb	0.014469813
61	0x3d47adf2	0.04874987
62	0x3e34c374	0.17652684
63	0xbd784442	-0.06061197
64	0x3d00a43c	0.031406626
65	0xbdf32d69	-0.11873896
66	0x3de5bb33	0.11217346
67	0x3c24703f	0.010036527
68	0x3dad4f60	0.08462405
69	0xbe2d396f	-0.1691644
70	0x3c9abc6b	0.018888673
71	0x3e04702b	0.12933414
72	0x3cc914c6	0.024546038
73	0xbe13c0fe	-0.1442909
74	0x3d706c27	0.058696892
75	0x3ccd0d77	0.025030835
76	0x3d90f4c9	0.07077939
77	0xbd7e1fbb	-0.06204198
78	0x3de2c52d	0.110727645
79	0xbd0f76f7	-0.035025563
80	0x3bbcf5c6	0.005766603
81	0x3e057b15	0.13035233
82	0xbe2315c0	-0.15926266
83	0xbcd51314	-0.026010074
84	0x3e2f1f80	0.1710186
85	0xbdc60ddd	-0.09670613
86	0x3e23e521	0.16005374
87	0xbdc7c3fb	-0.09754177
88	0x3b57d0ad	0.0032930777
89	0xbde845aa	-0.11341412
90	0x3d42c090	0.047546923
91	0xbe152523	-0.14564948
92	0x3e24e126	0.16101512
93	0xbe09436d	-0.13404627
94	0xbe193560	-0.14961767
95	0xbe2d70f4	-0.1693762
96	0xbc9e6d99	-0.01933937
97	0xbdb16aa8	-0.08662921
98	0x3e13d9a4	0.14438492
99	0xbdf7ba18	-0.120960414
100	0xbe28ed44	-0.1649676
101	0x3e1b1d7c	0.15147966
102	0x3d83b9fe	0.064319596
103	0x3d6b5dec	0.057462618
104	0x3e26ef07	0.16302119
105	0x3e2bef4f	0.16790508
106	0x3da8970b	0.08231934
107	0xbe32ec52	-0.17472962
108	0xbe07ee88	-0.13274586
109	0x3d97424e	0.073856935
110	0x3de19d68	0.11016351
111	0xbdf8ae1c	-0.12142584
112	0xbd9b4fa2	-0.07583548
113	0x3db4033f	0.08789682
114	0xbd054bc4	-0.03254296
115	0x3e22fc76	0.15916619
116	0xbdf3f1a1	-0.119113214
117	0x3dec24f3	0.11530485
118	0x3e226c40	0.15861607
119	0xbe269a25	-0.16269739
120	0xbd71183d	-0.058861006
121	0xbdc50eb4	-0.09621945
122	0xbd968200	-0.07349014
123	0x3dbf54eb	0.09342369
124	0x3e10b641	0.14132024
125	0x3d9000bf	0.07031392
126	0xbd86a1be	-0.065738186
127	0x3d676f6f	0.056502756
128	0xbc91a934	-0.017780878
129	0x3c0a8adc	0.008455958
130	0x3e29c7f1	0.16580178
131	0x3de3c3b8	0.11121315
132	0xbdf9c162	-0.12195088
133	0x3ddd6f70	0.10812271
134	0x3dbc2a55	0.09187762
135	0xbbba6197	-0.005687903
136	0xbdc027e7	-0.09382611
137	0xbdefdb7c	-0.11711785
138	0x3db34876	0.08754055
139	0xbdc25670	-0.09489143
140	0x3d805e12	0.062679425
141	0xbd16e632	-0.036840625
142	0x3db868c7	0.0900436
143	0x3e11dcf8	0.14244449
144	0x3de30ccd	0.11086426
145	0xbe2d4e9b	-0.16924517
146	0xbe076291	-0.13221194
147	0xbc97f78c	-0.018550657
148	0xbdc8d339	-0.098059125
149	0xbc9c976a	-0.019115169
150	0x3bde0271	0.0067751934
151	0x3d93bd14	0.07213798
152	0x3d92a5c7	0.07160526
153	0x3e0c62fc	0.13709635
154	0x3d9b5794	0.075850636
155	0xbd8194a1	-0.06327177
156	0xbda133f4	-0.078712374
157	0xbdaf4166	-0.08557396
158	0x3d75e444	0.060032144
159	0x3e1fdeb4	0.15612298
160	0x3ab74054	0.0013980963
161	0xbd515153	-0.051102947
162	0xbd45da4d	-0.04830389
163	0x3e1eff7f	0.15527152
164	0xbd94fdfd	-0.07275007
165	0xbcf58b96	-0.029973786
166	0xbe2b1ec5	-0.16710956
167	0xbe0f5852	-0.13998535
168	0xbe080add	-0.13285394
169	0x3e314840	0.17312717
170	0x3d9a6bc9	0.0754009
171	0x3b75319d	0.0037413605
172	0x3e323dd6	0.17406401
173	0xbe0eb802	-0.13937381
174	0x3dd81690	0.105511785
175	0x3d942e3c	0.07235381
176	0xbe14d15e	-0.14532992
177	0x3e14f807	0.1454774
178	0x3c0925cc	0.008370828
179	0xbdc6ade6	-0.09701137
180	0x3e15d6de	0.14632747
181	0x3dcbdde0	0.09954429
182	0xbdd3c05b	-0.10339423
183	0x3c64a988	0.013956435
184	0x3e2fae67	0.17156373
185	0xbe19803e	-0.14990327
186	0xbc33ed83	-0.01098192
187	0xbcd7785f	-0.026302515
188	0xbe267cf9	-0.16258611
189	0xbd8ca9d1	-0.068683274
190	0x3e25480f	0.1614077
191	0x3d94a86c	0.072586864
192	0x3b11ca60	0.002224587
193	0x3e05945f	0.1304488
194	0x3dc29aba	0.09502168
195	0x3dfcb9b6	0.12340109
196	0xbd074e42	-0.033033617
197	0x3e2eb220	0.17060137
198	0x3e1d6dc2	0.153739
199	0x3dfd86ee	0.123792514
200	0xbd7dc39b	-0.061954122
201	0x3e014be9	0.12626614
202	0x3da55322	0.08072497
203	0xbd1a76e1	-0.037711028
204	0xbdb51fe8	-0.08843976
205	0xbd16318f	-0.036668357
206	0xbdbe8608	-0.09302908
207	0x3d91d67d	0.071209885
208	0x3dad0b25	0.08449391
209	0x3e2f45c6	0.1711646
210	0x3d23df33	0.04000778
211	0x3cb26dfa	0.021780957
212	0xbe2661a3	-0.16248183
213	0xbe090c52	-0.13383606
214	0xbe287527	-0.1645094
215	0xbddc85ad	-0.10767684
216	0xbe14647a	-0.14491454
217	0xbe2b4e47	-0.16729079
218	0xbc127b52	-0.008940535
219	0x3e20ac2b	0.15690677
220	0x3d3b760d	0.04576688
221	0x3db1603d	0.08660934
222	0x3d148afd	0.036265362
223	0xbd666623	-0.05624975
224	0xbe24f30c	-0.1610834
225	0xbde706e5	-0.11280612
226	0xbde1002e	-0.109863624
227	0xbd7f7bdb	-0.062373977
228	0xbd9876d6	-0.07444541
229	0x3e0883d9	0.13331546
230	0x3d8ad8dd	0.06779645
231	0x3c5087b8	0.01272767
232	0x3dddfdc4	0.108394176
233	0xbda67216	-0.08127229
234	0xbd933907	-0.071886115
235	0x3de69f47	0.112608485
236	0x3df7aea6	0.120938584
237	0xbe34985b	-0.17636244
238	0x3e2b5705	0.16732414
239	0xbd4c8aad	-0.04993694
240	0x3da55b20	0.08074021
241	0xbd28b3ed	-0.041187216
242	0x3e16fc28	0.14744627
243	0x3bd45942	0.006480367
244	0xbdaae177	-0.08343785
245	0xbdd364aa	-0.103219345
246	0x3e004b95	0.12528832
247	0x3c47509f	0.012165218
248	0x3d8038b8	0.06260818
249	0x3de726cd	0.112866975
250	0x3d026e8c	0.031843707
251	0xbe06a7cb	-0.13149945
252	0x3d96f500	0.07370949
253	0x3d17cca4	0.037060395
254	0x3e2bfeb0	0.16796374
255	0x3dac30f3	0.08407774

fc.0.bias f4 [32]
0	0xbe0c2cf1	-0.13689019
1	0x3e140567	0.14455186
2	0xbe170fad	-0.14752074
3	0x3e1d2d41	0.15349294
4	0xbdd0255c	-0.10163376
5	0xbd30b084	-0.04313709
6	0xbde7499b	-0.11293336
7	0xbe098521	-0.13429691
8	0xbdfdde6e	-0.12395941
9	0x3d83dd07	0.06438642
10	0x3dce1ca0	0.100640535
11	0x3e184c47	0.14872847
12	0xbd9ba614	-0.07600036
13	0x3cafdd98	0.021467969
14	0x3e2015df	0.15633343
15	0x3e1606c7	0.14651023
16	0xbcf4e709	-0.029895322
17	0xbe268879	-0.16262998
18	0x3db38c20	0.08766961
19	0x3da03837	0.07823222
20	0xbd8b9261	-0.06815029
21	0xbdd72336	-0.10504763
22	0x3daf0e0a	0.085475996
23	0x3c56023c	0.013062056
24	0xbe2b2c36	-0.16716084
25	0xbde17ee3	-0.1101053
26	0xbce32a02	-0.027729992
27	0xbe2a66ed	-0.16640826
28	0xbd16b6fb	-0.036795598
29	0xbc507f87	-0.012725717
30	0x3df3e510	0.119089246
31	0xbd85e4f8	-0.06537813

output_layer.0.weight f4 [1, 32]
0	0x3e015976	0.12631783
1	0x3da18f36	0.078886434
2	0x3e318fd5	0.17340024
3	0xbd2a7b9a	-0.041621782
4	0x3e123642	0.1427851
5	0x3d73ee0a	0.059553184
6	0x3e246bc6	0.16056737
7	0xbdd33f13	-0.10314765
8	0xbe0fb9d6	-0.14035735
9	0x3d8dbd1b	0.06920835
10	0xbbbc29bc	-0.00574228
11	0x3e0f6985	0.14005096
12	0xbde7f9b1	-0.11326922
13	0x3e0334e2	0.12813142
14	0xbd554955	-0.052071888
15	0xbe3ff57d	-0.1874599
16	0xbe04f556	-0.12984213
17	0xbc245779	-0.010030621
18	0x3aa65455	0.0012689928
19	0x3d9cbf1b	0.07653638
20	0x3dd16fff	0.1022644
21	0xbd9beca1	-0.07613493
22	0x3dc5fe39	0.0966763
23	0x3dd3436e	0.103155956
24	0xbe05522a	-0.13019624
25	0xbdcc8c4d	-0.09987698
26	0xbe2fcf7e	-0.17168996
27	0xbd07b757	-0.03313383
28	0x3c211d6c	0.009833675
29	0xbd1c5976	-0.038171254
30	0x3dbd2c83	0.092370056
31	0x3e25e56e	0.16200802
