hidden-32/model_epoch_0_40.pth (torch, 74793 bytes, 7 tensors)

embedding.0.weight f4 [32, 7]
000000 10 f8 64 be f6 dd 35 be a0 c8 a2 be dc fe c3 3d
       -0.22360253 -0.17760453 -0.3179369 0.09570095
000010 38 d1 4b 3e b8 4d ae 3e 82 bc 44 3e 0f 5a 65 be
       0.1990403 0.3404367 0.19212535 -0.22397636
000020 6d 71 72 bc d7 82 88 3e d4 f4 80 3e 32 b2 b6 bb
       -0.014797551 0.26662323 0.2518679 -0.0055754418
000030 76 9e f4 bc f7 b4 ab 3d 17 c3 4b be ba e2 82 be
       -0.029860716 0.08384126 -0.1989864 -0.25563604
000040 c9 c0 5f 3e 99 0f b2 bd 6f 36 8e be f4 46 96 be
       0.21850885 -0.08694381 -0.27775905 -0.29351008
000050 c4 b1 7f be 98 37 dc 3d 59 9b 0b 3d 27 a2 c0 be
       -0.24970156 0.10752791 0.034083698 -0.37623712
000060 b3 8b de 3d 29 71 c2 3d 95 73 14 bb 4f 9a 48 3d
       0.10866489 0.0949424 -0.00226519 0.048975285
000070 2f d8 21 3e 55 b7 89 3e ea 63 7e 3e c6 6c 26 3e
       0.15805124 0.26897684 0.24842802 0.16252431
000080 67 80 a2 be 52 c0 1f be d0 ea db bd 63 13 76 bd
       -0.31738588 -0.15600708 -0.10738146 -0.060077082
000090 6f 73 6b be 69 b7 90 be 04 c3 89 bc 32 41 8b 3e
       -0.22993253 -0.2826493 -0.016816624 0.27198178
0000a0 2d e8 b4 3e 4a 2a 7f be 63 2f c1 3e d0 61 94 be
       0.35333386 -0.24918476 0.37731466 -0.28980875
0000b0 c7 c3 ed 3d 71 32 11 bd 0f 59 48 be ed 68 ad 3e
       0.11609607 -0.035448495 -0.19565223 0.33869115
0000c0 4e cb 8e bd ad 87 ce 3d f1 b9 a9 3e d1 26 1d 3e
       -0.06972371 0.10084472 0.33149675 0.15346839
0000d0 43 6d b4 3e c7 56 3c be fb 22 97 3e 2f 40 bc be
       0.3523961 -0.18392478 0.29518875 -0.36767718
0000e0 fb 78 90 3d ee c1 8f 3e 09 f3 b6 3e f4 23 a9 bd
       0.07054325 0.28077644 0.35732296 -0.08258811
0000f0 8c 54 50 be b9 7d 70 be 47 7a b7 be 2d 46 78 3e
       -0.20344752 -0.2348546 -0.35835478 0.2424552
000100 c5 38 4a 3e af 68 a7 3d 20 f0 9a be 71 51 a5 be
       0.19748218 0.08174264 -0.30261326 -0.32288697
000110 af 66 07 3e 61 7e a7 bd da 55 87 bd c4 82 e5 bc
       0.13222764 -0.08178402 -0.06608172 -0.028016455
000120 11 25 a2 be dc 28 7f be 1e 52 c1 3e ab 9d b8 3d
       -0.31668904 -0.2491793 0.37757963 0.09014448
000130 aa 78 9a be 77 47 93 3e f9 2d b5 3d 34 cc bd 3e
       -0.30170184 0.2876546 0.08846659 0.37069857
000140 ca c5 a9 3e 04 d0 04 be f2 1d 65 3e db 2d dc bd
       0.33158714 -0.12969977 0.22374704 -0.10750934
000150 9e 57 39 3e 10 99 d4 3b 93 5e 0f be 32 02 c2 bc
       0.1809983 0.006487973 -0.14000921 -0.023682687
000160 12 3b 63 3e f8 4d 91 be 0e ad db bc e0 86 f9 bd
       0.22190502 -0.28379798 -0.026815917 -0.121839285
000170 65 b7 a1 3e be 26 ce 3d e1 5e 00 be f9 9b 73 3e
       0.3158523 0.10065983 -0.12536193 0.23789968
000180 ec 6e d9 3c 24 12 9d be 5c 8b b0 bd 40 f5 9b 3d
       0.02654215 -0.30677903 -0.08620331 0.07615137
000190 16 5b b5 3e 2b f1 bf bd e5 60 04 3e 77 76 9a be
       0.35421056 -0.09372171 0.12927587 -0.30168507
0001a0 39 23 b1 be 16 75 cd 3d a3 2c f2 bc 3b 33 97 3e
       -0.34597185 0.10032098 -0.0295623 0.29531273
0001b0 15 26 96 3e 88 30 be 3e 81 8e 23 be 6b 85 54 be
       0.2932593 0.371464 -0.1597233 -0.2075402
0001c0 af 42 27 3e 90 cb c4 3d 28 6b c0 3e e1 27 06 bc
       0.16334032 0.09609139 0.37581754 -0.008188219
0001d0 54 3d ad 3e b2 06 34 be 76 0e a9 be ed e2 88 be
       0.33835852 -0.17580679 -0.33018845 -0.2673563
0001e0 3d 39 23 be 17 a3 6d be 19 a6 8a 3e 4a b5 6f 3d
       -0.15939803 -0.23206745 0.27079847 0.0585225
0001f0 fe 5a 8e 3e 21 5b 35 3d 59 fc b8 3e 12 7c 8c be
       0.27803797 0.04427636 0.36130026 -0.27438408
000200 05 84 e9 3d 0c 21 aa be 3c 9d 9a be b3 91 b6 3e
       0.11402134 -0.33228338 -0.30198085 0.35658035
000210 74 92 6d bc c9 84 6e be bf f0 4e 3e 7b e2 14 3e
       -0.014500249 -0.23292841 0.20209025 0.1453952
000220 90 10 c3 3b 28 33 81 be c0 96 3c be 0c 67 18 3e
       0.005952902 -0.25234342 -0.18416882 0.1488306
000230 1d d4 77 3e f5 b6 07 3e 76 65 ae be bc 8e 07 3e
       0.24202009 0.13253386 -0.34061784 0.13238043
000240 d5 71 af be 33 cf ab 3e 75 3e 93 be 21 43 87 3e
       -0.34266534 0.33556518 -0.28758588 0.26418403
000250 ea f7 40 bc a5 3c a6 be ae e2 c0 be 19 87 ea 3c
       -0.011777857 -0.32468143 -0.37672943 0.028628873
000260 91 d4 58 be 2e 1c 9d 3e c2 8f 73 be 35 5e 2c be
       -0.21174838 0.30685562 -0.23785308 -0.16832812
000270 92 c2 44 bd dd b8 ed 3d 9d 1f 6d 3d 78 7b 33 bd
       -0.04803712 0.116075255 0.057891477 -0.04381892
000280 62 d0 a5 3e 82 d8 94 3e a2 d0 a7 3e 64 32 ae 3e
       0.32385546 0.29071432 0.32776362 0.3402282
000290 e3 db 99 be 91 ff 7c 3e e6 a4 93 be 42 f1 f9 bb
       -0.30050573 0.24706866 -0.28836745 -0.007627637
0002a0 38 f3 6b 3c 30 3d 77 3e b8 8f 17 be 6a 04 cb 3d
       0.01440125 0.24144435 -0.14800918 0.09912951
0002b0 f3 23 92 3e eb 93 f1 3c d3 d8 51 3e 74 02 1e be
       0.28543052 0.029489478 0.20492868 -0.15430623
0002c0 87 e2 0b bd f3 3d 92 bc 75 85 c1 bd 40 3e a0 3e
       -0.03415158 -0.017851805 -0.09449283 0.31297493
0002d0 3d aa 7a 3e 22 5a 48 be 65 af 21 bc 88 6e 26 be
       0.24479003 -0.19565633 -0.0098684775 -0.16253102
0002e0 b5 fe f9 bd bd 6c 5e 3d 2d a8 93 3d ae 8e 56 bc
       -0.12206785 0.05430292 0.07209811 -0.013095541
0002f0 33 fd 14 3e da b2 88 be 56 1f 39 3e be 79 38 be
       0.14549713 -0.26698953 0.1807836 -0.18015191
000300 cc 97 b3 3d b0 90 50 3e 9b 10 ba be 34 47 08 3e
       0.08769187 0.20367694 -0.36340794 0.13308412
000310 3c 21 34 3e 23 34 5a be 42 9e 06 3e d0 f7 38 be
       0.17590803 -0.21308951 0.13146308 -0.18063283
000320 b3 06 53 bd a1 51 5f 3d 61 a2 1d be 7f 74 c5 3c
       -0.05152006 0.054521207 -0.15393974 0.024103401
000330 62 59 ba be 23 2c b6 be a7 fa 70 3e b2 42 2d 3d
       -0.3639632 -0.3558055 0.23533116 0.042299934
000340 5f 90 69 3d 30 20 23 be 4c a8 9b 3e e5 cb 08 3e
       0.05702245 -0.15930247 0.30401838 0.1335903
000350 5d de 9d be e2 b4 52 3e b1 b2 be 3d 89 f9 a6 3d
       -0.30833712 0.20576814 0.093114264 0.08153064
000360 99 e7 82 3d 18 35 a0 3e 17 c1 08 3e ac 26 25 be
       0.0639183 0.31290507 0.13354908 -0.16128033
000370 28 3b 7c 3e cd 14 70 3b 64 2a b2 3c c0 48 a8 be
       0.24631941 0.0036633492 0.021748729 -0.32868004

embedding.0.bias f4 [32]
000000 7b ad eb bd f2 28 78 3e 9b ef 69 3e 88 06 f2 bd
       -0.11507698 0.2423437 0.22845308 -0.11817652
000010 89 61 e0 bd 75 be 2a bc ba c6 67 be 4f 4f 20 be
       -0.10956103 -0.010421385 -0.22634402 -0.15655254
000020 db a6 ab be 4a 8f a3 be ca 01 32 3e f6 cd ef bc
       -0.33525738 -0.31945258 0.17383495 -0.029273015
000030 87 b1 52 bd 33 75 6b be 2b d0 31 be 5e 05 86 be
       -0.051438835 -0.22993927 -0.17364566 -0.2617597
000040 44 a8 8a 3e 99 41 49 be be f6 c3 3d 97 37 b4 be
       0.270815 -0.1965393 0.09568547 -0.35198662
000050 a3 95 1e 3e 1f 52 16 3b 31 29 7d be 4a 2b 25 3e
       0.1548677 0.0022937132 -0.24722745 0.16129795
000060 1a ee 87 3e b0 25 39 bd 89 af 73 3e a1 ab a4 be
       0.26548845 -0.045201957 0.2379743 -0.32162192
000070 83 25 9f be 70 2d 7e be 43 68 0e be a8 d5 7a 3e
       -0.31083307 -0.2482202 -0.1390696 0.24495566

layernorm.weight f4 [259, 32]
000000 06 db 7f 3f 17 f8 7f 3f 33 00 80 3f e7 00 80 3f
       0.9994358 0.9998793 1.0000061 1.0000275
000010 25 00 80 3f 8e ff 7f 3f 47 00 80 3f b5 ff 7f 3f
       1.0000044 0.9999932 1.0000085 0.9999955
000020 68 ff 7f 3f 00 00 80 3f 00 00 80 3f be fe 7f 3f
       0.99999094 1.0 1.0 0.9999808
000030 ab ff 7f 3f 09 00 80 3f ff ff 7f 3f 78 ff 7f 3f
       0.99999493 1.0000011 0.99999994 0.9999919
000040 5e ff 7f 3f d0 ff 7f 3f 00 00 80 3f a3 fc 7f 3f
       0.99999034 0.99999714 1.0 0.9999487
000050 2d 00 80 3f 52 17 80 3f 3a cc 7f 3f 0f 00 80 3f
       1.0000054 1.0007117 0.99921 1.0000018
000060 ac 24 80 3f 83 ff 7f 3f 2c 12 80 3f 36 0e 80 3f
       1.0011191 0.99999255 1.0005546 1.0004337
000070 00 00 80 3f ff ff 7f 3f b1 f1 7f 3f 6d fd 7f 3f
       1.0 0.99999994 0.99978167 0.9999607
000080 87 ed 7f 3f 55 fb 7f 3f 39 00 80 3f 32 00 80 3f
       0.9997181 0.9999288 1.0000068 1.000006
000090 d9 fa 7f 3f fd ff 7f 3f 40 00 80 3f b4 02 80 3f
       0.9999214 0.9999998 1.0000076 1.0000825
0000a0 fc 00 80 3f 18 00 80 3f 00 00 80 3f 34 f5 7f 3f
       1.00003 1.0000029 1.0 0.99983525
0000b0 d0 ff 7f 3f 21 ff 7f 3f ea ff 7f 3f 8a 01 80 3f
       0.99999714 0.9999867 0.9999987 1.000047
0000c0 27 00 80 3f db ff 7f 3f 02 00 80 3f 96 fd 7f 3f
       1.0000046 0.9999978 1.0000002 0.99996316
0000d0 40 ff 7f 3f d1 07 80 3f 47 e6 7f 3f 6c ff 7f 3f
       0.99998856 1.0002385 0.9996075 0.9999912
0000e0 46 12 80 3f 7f ff 7f 3f 87 06 80 3f b0 03 80 3f
       1.0005577 0.9999923 1.0001992 1.0001125
0000f0 00 00 80 3f 00 00 80 3f ff f8 7f 3f 34 f8 7f 3f
       1.0 1.0 0.9998931 0.999881
000100 f0 04 80 3f ac fe 7f 3f 35 00 80 3f 96 00 80 3f
       1.0001507 0.99997973 1.0000063 1.0000179
000110 e1 f0 7f 3f be ff 7f 3f 3d 00 80 3f b7 04 80 3f
       0.9997693 0.99999607 1.0000073 1.0001439
000120 54 00 80 3f 02 00 80 3f 00 00 80 3f 7a ed 7f 3f
       1.00001 1.0000002 1.0 0.99971735
000130 b3 ff 7f 3f 4e ff 7f 3f fe ff 7f 3f d2 01 80 3f
       0.9999954 0.9999894 0.9999999 1.0000556
000140 ff ff 7f 3f d5 ff 7f 3f 00 00 80 3f 93 01 80 3f
       0.99999994 0.99999744 1.0 1.000048
000150 16 00 80 3f f1 f6 7f 3f f3 06 80 3f c1 ff 7f 3f
       1.0000026 0.9998618 1.0002121 0.99999624
000160 ac ff 7f 3f 82 ff 7f 3f 44 fb 7f 3f 11 fe 7f 3f
       0.999995 0.9999925 0.99992776 0.9999705
000170 00 00 80 3f fe ff 7f 3f a1 00 80 3f c5 f6 7f 3f
       1.0 0.9999999 1.0000192 0.99985915
000180 8c fd 7f 3f 0f fd 7f 3f 3b 00 80 3f 2a 00 80 3f
       0.99996257 0.9999551 1.000007 1.000005
000190 88 f8 7f 3f 01 00 80 3f 38 00 80 3f 40 03 80 3f
       0.99988604 1.0000001 1.0000067 1.0000992
0001a0 bb 00 80 3f 17 00 80 3f 00 00 80 3f 1b f3 7f 3f
       1.0000223 1.0000027 1.0 0.99980325
0001b0 cc ff 7f 3f 7a ff 7f 3f e8 ff 7f 3f c5 02 80 3f
       0.9999969 0.999992 0.99999857 1.0000845
0001c0 21 00 80 3f dd ff 7f 3f 02 00 80 3f 28 ff 7f 3f
       1.0000039 0.9999979 1.0000002 0.9999871
0001d0 54 ff 7f 3f 9e 01 80 3f 4e fc 7f 3f 7f ff 7f 3f
       0.99998975 1.0000494 0.9999436 0.9999923
0001e0 fb 04 80 3f 82 ff 7f 3f ca 01 80 3f 5b 01 80 3f
       1.000152 0.9999925 1.0000546 1.0000414
0001f0 ff ff 7f 3f ff ff 7f 3f 21 fd 7f 3f 09 fa 7f 3f
       0.99999994 0.99999994 0.9999562 0.999909
000200 31 0d 80 3f 12 00 80 3f 37 00 80 3f 6c 00 80 3f
       1.0004026 1.0000021 1.0000066 1.0000129
000210 f3 eb 7f 3f da ff 7f 3f 3a 00 80 3f 07 08 80 3f
       0.99969405 0.99999774 1.0000069 1.000245
000220 c6 00 80 3f 04 00 80 3f 00 00 80 3f ee e8 7f 3f
       1.0000236 1.0000005 1.0 0.999648
000230 be ff 7f 3f 69 fe 7f 3f f7 ff 7f 3f cc 03 80 3f
       0.99999607 0.99997574 0.99999946 1.0001159
000240 00 00 80 3f df ff 7f 3f 00 00 80 3f 71 02 80 3f
       1.0 0.99999803 1.0 1.0000745
000250 04 00 80 3f 1f e4 7f 3f c0 11 80 3f 4a ff 7f 3f
       1.0000005 0.9995746 1.0005417 0.99998915
000260 0d e2 7f 3f 85 ff 7f 3f 4b ed 7f 3f a4 f3 7f 3f
       0.999543 0.99999267 0.99971455 0.9998114
000270 00 00 80 3f fe ff 7f 3f f6 02 80 3f 57 f5 7f 3f
       1.0 0.9999999 1.0000904 0.99983734
000280 ee 00 80 3f a9 fd 7f 3f 3e 00 80 3f 26 00 80 3f
       1.0000284 0.9999643 1.0000074 1.0000045
000290 f7 f5 7f 3f 01 00 80 3f 36 00 80 3f 3c 04 80 3f
       0.9998469 1.0000001 1.0000064 1.0001292
0002a0 25 01 80 3f 16 00 80 3f 00 00 80 3f b2 f1 7f 3f
       1.0000349 1.0000026 1.0 0.9997817
0002b0 ca ff 7f 3f 70 fe 7f 3f ea ff 7f 3f fe 02 80 3f
       0.9999968 0.99997616 0.9999987 1.0000913
0002c0 24 00 80 3f e3 ff 7f 3f 03 00 80 3f 5a ff 7f 3f
       1.0000043 0.9999983 1.0000004 0.9999901
0002d0 47 ff 7f 3f a4 ff 7f 3f 4d 02 80 3f bd fe 7f 3f
       0.999989 0.9999945 1.0000702 0.99998075
0002e0 96 00 80 3f 85 ff 7f 3f 8d 00 80 3f e1 00 80 3f
       1.0000179 0.99999267 1.0000168 1.0000268
0002f0 fe ff 7f 3f 00 00 80 3f 47 fe 7f 3f ce f9 7f 3f
       0.9999999 1.0 0.9999737 0.99990547
000300 e3 0d 80 3f 0d 00 80 3f 3f 00 80 3f 4c 00 80 3f
       1.0004238 1.0000015 1.0000075 1.0000091
000310 0b e8 7f 3f ed ff 7f 3f 33 00 80 3f d5 0a 80 3f
       0.99963444 0.99999887 1.0000061 1.0003306
000320 76 03 80 3f 05 00 80 3f 00 00 80 3f 4e e7 7f 3f
       1.0001056 1.0000006 1.0 0.9996232
000330 c6 ff 7f 3f 85 fa 7f 3f f5 ff 7f 3f 82 04 80 3f
       0.99999654 0.9999164 0.99999934 1.0001376
000340 05 00 80 3f e7 ff 7f 3f 00 00 80 3f c1 01 80 3f
       1.0000006 0.9999985 1.0 1.0000535
000350 90 fe 7f 3f 84 e1 7f 3f 31 12 80 3f 62 fc 7f 3f
       0.99997807 0.99953485 1.0005552 0.9999448
000360 ab df 7f 3f 8b ff 7f 3f 07 ec 7f 3f 00 f3 7f 3f
       0.99950665 0.999993 0.99969524 0.99980164
000370 fe ff 7f 3f fe ff 7f 3f 6d 02 80 3f f5 f2 7f 3f
       0.9999999 0.9999999 1.000074 0.999801
000380 4b 01 80 3f f5 fd 7f 3f 40 00 80 3f 1c 00 80 3f
       1.0000395 0.9999688 1.0000076 1.0000033
000390 c7 f2 7f 3f 03 00 80 3f 30 00 80 3f 93 05 80 3f
       0.99979824 1.0000004 1.0000057 1.0001701
0003a0 3d 02 80 3f 10 00 80 3f 00 00 80 3f e4 ef 7f 3f
       1.0000683 1.0000019 1.0 0.9997542
0003b0 cc ff 7f 3f e7 fc 7f 3f e9 ff 7f 3f 74 03 80 3f
       0.9999969 0.99995273 0.9999986 1.0001054
0003c0 2a 00 80 3f e7 ff 7f 3f 02 00 80 3f 9c ff 7f 3f
       1.000005 0.9999985 1.0000002 0.99999404
0003d0 02 ff 7f 3f 34 fb 7f 3f 52 03 80 3f 64 fd 7f 3f
       0.99998486 0.9999268 1.0001013 0.9999602
0003e0 e1 fc 7f 3f 89 ff 7f 3f 19 00 80 3f 90 00 80 3f
       0.9999524 0.9999929 1.000003 1.0000172
0003f0 fc ff 7f 3f 00 00 80 3f 08 ff 7f 3f 9e f8 7f 3f
       0.99999976 1.0 0.9999852 0.99988735

layernorm.bias f4 [259, 32]
000000 ea cd d1 b7 37 14 01 b7 38 fb f9 b7 be ce ce 36
       -2.5010628e-05 -7.693706e-06 -2.9800096e-05 6.1633464e-06
000010 7a 91 e0 b7 49 2c 32 b6 08 78 0b b8 31 86 b2 37
       -2.6770624e-05 -2.6549844e-06 -3.325197e-05 2.1281741e-05
000020 45 08 06 38 87 c6 29 b7 77 57 dd b5 b0 88 16 b8
       3.195579e-05 -1.0119408e-05 -1.6491239e-06 -3.5890087e-05
000030 55 52 84 37 df 4f ca b7 15 d6 22 37 87 e4 17 38
       1.5773965e-05 -2.411747e-05 9.705797e-06 3.6214038e-05
000040 64 33 08 38 be 8c 5e b6 cb 21 4c b6 57 ef 96 36
       3.2472788e-05 -3.31625e-06 -3.041804e-06 4.498211e-06
000050 6d 37 d2 b7 3b 2a 0d 38 bd 1d 9c b7 bd 9f c6 b7
       -2.505976e-05 3.365635e-05 -1.8610497e-05 -2.3677823e-05
000060 f3 74 2e 38 bc 34 fa 37 54 14 1e 38 a3 c7 ed 37
       4.159375e-05 2.9826879e-05 3.7689068e-05 2.8345565e-05
000070 8e ab 30 b6 f5 2b 84 37 40 22 44 b7 70 bc 14 b8
       -2.6325902e-06 1.5756095e-05 -1.1690485e-05 -3.5461446e-05
000080 e6 00 08 b8 98 a2 6d b7 2b 11 00 b8 6f 65 84 36
       -3.2425763e-05 -1.4164158e-05 -3.0533567e-05 3.945715e-06
000090 0e 7b ef b7 ed 6c 3b b6 b6 84 14 b8 5e da a6 37
       -2.8548322e-05 -2.7928575e-06 -3.5409546e-05 1.9890427e-05
0000a0 ce 27 13 38 11 40 7b b7 2a ce 65 b5 1f c9 2b b8
       3.5084602e-05 -1.49756825e-05 -8.5609156e-07 -4.0956886e-05
0000b0 89 1e ad 37 28 b7 c1 b7 a3 16 54 37 d4 ab 18 38
       2.0637426e-05 -2.3092682e-05 1.2641455e-05 3.639965e-05
0000c0 58 fb 1f 38 50 36 9b b6 94 11 f3 b6 c4 06 27 b6
       3.8142636e-05 -4.625683e-06 -7.2440107e-06 -2.4888877e-06
0000d0 27 96 d6 b7 f6 ff 06 38 51 2c ac b7 80 bb ce b7
       -2.5580708e-05 3.218647e-05 -2.0524634e-05 -2.4644425e-05
0000e0 c4 c4 26 38 c3 8b 10 38 97 fd 1e 38 0e 9d bc 37
       3.9760736e-05 3.446244e-05 3.790631e-05 2.248448e-05
0000f0 ba 68 ab b6 57 7f 3b 37 7c 99 74 b7 e9 6a 11 b8
       -5.108389e-06 1.1175717e-05 -1.4579269e-05 -3.467026e-05
000100 e7 6e ae b7 b3 17 95 b7 4e f0 38 b8 12 c5 9c 37
       -2.079406e-05 -1.777322e-05 -4.409282e-05 1.8688417e-05
000110 63 ea 45 b8 9c 36 a1 b7 10 6a 23 b8 c9 56 be 37
       -4.718675e-05 -1.9218125e-05 -3.8961007e-05 2.2690178e-05
000120 ca fc 34 38 83 48 d9 b7 9f b3 51 b7 fe ba 2f b8
       4.3150772e-05 -2.5902182e-05 -1.2499192e-05 -4.18974e-05
000130 9d a5 1a 38 49 7d 86 b7 d4 77 b3 37 fb 2f 64 38
       3.68707e-05 -1.6032385e-05 2.1394262e-05 5.440412e-05
000140 07 2e d4 37 92 1d f5 b6 2e 43 15 b7 56 b7 2d b7
       2.5293803e-05 -7.3050114e-06 -8.896734e-06 -1.035429e-05
000150 0b 0e 8f b6 00 e7 76 37 36 00 c5 b7 f2 34 8a b7
       -4.263367e-06 1.47165265e-05 -2.3484328e-05 -1.6475537e-05
000160 11 13 87 38 fd 29 c3 37 e2 fe 37 38 98 9f 40 b6
       6.440853e-05 2.3265364e-05 4.3867978e-05 -2.8703125e-06
000170 13 87 41 37 52 4b d0 b6 d9 12 8c b7 9d 3f 8f b7
       1.1535146e-05 -6.2076515e-06 -1.6698077e-05 -1.707655e-05
000180 09 f7 cb b7 1f e2 b2 b7 91 33 35 b8 2b ab f7 36
       -2.431452e-05 -2.132455e-05 -4.3201788e-05 7.3811e-06
000190 71 a4 12 b8 3a 30 8e b7 b4 6b 24 b8 65 bb a0 37
       -3.496226e-05 -1.6950176e-05 -3.9200953e-05 1.9160749e-05
0001a0 29 dd 2b 38 87 7a d3 b7 2e 81 13 b7 76 50 22 b8
       4.097555e-05 -2.5210216e-05 -8.79196e-06 -3.8698745e-05
0001b0 d4 2b fb 37 8d 79 9f b7 f4 57 9c 37 0b 38 24 38
       2.994194e-05 -1.9010879e-05 1.8637606e-05 3.915284e-05
0001c0 0e 8f fd 37 b8 df 07 b7 14 58 87 b6 0d eb 36 b7
       3.0226565e-05 -8.098716e-06 -4.033567e-06 -1.0902772e-05
0001d0 9a 9e 35 b7 28 55 b2 37 07 08 a0 b7 a9 e1 a4 b7
       -1.0825368e-05 2.1258908e-05 -1.9077224e-05 -1.9655405e-05
0001e0 81 52 55 38 34 a5 d3 37 3f 22 2a 38 2b 94 cd 36
       5.0859995e-05 2.5230089e-05 4.0563053e-05 6.126725e-06
0001f0 30 ac f4 36 bb 2c e4 35 51 ed 9a b7 bc 9d d6 b7
       7.291812e-06 1.7000342e-06 -1.846874e-05 -2.5584239e-05
000200 f6 71 89 b7 e1 66 ba b7 3b 94 58 b8 c0 7e c8 37
       -1.638474e-05 -2.2220835e-05 -5.1636463e-05 2.390088e-05
000210 1b 6a 71 b8 f4 74 f2 b7 55 73 2c b8 40 9c d2 37
       -5.7557696e-05 -2.8903109e-05 -4.1115407e-05 2.510671e-05
000220 78 49 4c 38 83 66 0c b8 81 6c 95 b7 56 13 33 b8
       4.8705813e-05 -3.3474073e-05 -1.781271e-05 -4.2694934e-05
000230 bb 4f 40 38 b0 92 4e b7 c9 6a d9 37 62 79 82 38
       4.5850622e-05 -1.231271e-05 2.5918142e-05 6.2214924e-05
000240 71 48 b1 37 45 d6 09 b7 13 95 2f b7 a2 66 8e b7
       2.1133777e-05 -8.215725e-06 -1.0465522e-05 -1.6975511e-05
000250 8c a6 b6 36 9c 87 b1 36 09 8b d9 b7 06 df 4a b7
       5.4434113e-06 5.290798e-06 -2.593316e-05 -1.2092065e-05
000260 c9 0b 95 38 b0 52 97 37 c6 39 43 38 61 a2 8f b7
       7.107069e-05 1.8039107e-05 4.654543e-05 -1.7122542e-05
000270 85 6d 90 37 46 1c 8b b7 63 42 ac b7 03 5d 0d b7
       1.7217137e-05 -1.6583257e-05 -2.0534912e-05 -8.425911e-06
000280 3b 13 a9 b7 b0 54 c5 b7 84 63 4d b8 f2 23 39 37
       -2.0155325e-05 -2.3523666e-05 -4.896849e-05 1.1035228e-05
000290 64 03 22 b8 6e aa d3 b7 e0 f7 2b b8 9a d7 a6 37
       -3.8626968e-05 -2.5232523e-05 -4.100043e-05 1.988914e-05
0002a0 aa 33 3a 38 5e e3 fe b7 b9 ca 5d b7 c0 e7 1f b8
       4.439397e-05 -3.0385036e-05 -1.32198265e-05 -3.8124388e-05
0002b0 be 6c 15 38 a6 f5 8a b7 e4 2c b2 37 33 8e 2b 38
       3.5625642e-05 -1.6565271e-05 2.1240157e-05 4.090201e-05
0002c0 1c eb d4 37 27 2c 07 b7 19 6f 59 b6 79 86 86 b7
       2.538185e-05 -8.056907e-06 -3.2400187e-06 -1.6036664e-05
0002d0 63 23 55 b6 8b 91 88 37 b4 8e a2 b7 ab 33 93 b7
       -3.176007e-06 1.6280237e-05 -1.9378356e-05 -1.7547825e-05
0002e0 3e 18 68 38 0d 2c a5 37 7b 7f 2c 38 9e 35 18 b6
       5.5335688e-05 1.9690046e-05 4.112672e-05 -2.2680974e-06
0002f0 59 5c 61 37 f2 ae 8a b6 26 da b5 b7 32 05 b0 b7
       1.3432546e-05 -4.133087e-06 -2.1678465e-05 -2.0983254e-05
000300 af 93 81 b7 6b 73 ab b7 29 57 5d b8 8b 81 ca 37
       -1.5446769e-05 -2.0438534e-05 -5.277168e-05 2.41406e-05
000310 26 e6 7e b8 94 6b f1 b7 08 09 2a b8 0a 8f de 37
       -6.077266e-05 -2.8779534e-05 -4.053957e-05 2.653107e-05
000320 ba 05 57 38 50 0b 0a b8 e0 be a4 b7 a7 1e 28 b8
       5.1265328e-05 -3.29123e-05 -1.9639207e-05 -4.008287e-05
000330 7c 98 49 38 b4 43 5b b7 d8 dd da 37 c1 82 84 38
       4.8064147e-05 -1.3069181e-05 2.609093e-05 6.318605e-05
000340 e1 dd a2 37 06 8e 21 b7 c2 ef 07 b7 7a 12 94 b7
       1.9415225e-05 -9.629415e-06 -8.10245e-06 -1.7651579e-05
000350 89 06 ac 36 8c a7 0a 36 0c 73 df b7 58 91 29 b7
       5.1267602e-06 2.0661128e-06 -2.6637244e-05 -1.0107025e-05
000360 ac ee 8d 38 df 69 7e 37 1d b6 3d 38 81 fd a0 b7
       6.76786e-05 1.516423e-05 4.5230718e-05 -1.9191533e-05
000370 d8 c4 97 37 4a c6 a4 b7 1f 41 aa b7 a9 59 f9 b6
       1.8092265e-05 -1.9642659e-05 -2.0295904e-05 -7.431216e-06
000380 fd a5 94 b7 2a 22 ce b7 ff 56 5f b8 b2 7e 52 37
       -1.772027e-05 -2.4573023e-05 -5.3248365e-05 1.2546474e-05
000390 4e 41 30 b8 d3 65 f1 b7 bf 38 2d b8 fd ac a8 37
       -4.202249e-05 -2.8776854e-05 -4.1299263e-05 2.0107715e-05
0003a0 0d 20 46 38 53 91 09 b8 a3 b7 83 b7 8d d2 1b b8
       4.723673e-05 -3.279869e-05 -1.570193e-05 -3.715097e-05
0003b0 f9 85 25 38 6c 77 83 b7 7b 09 be 37 a0 d8 31 38
       3.9463837e-05 -1.5672027e-05 2.265418e-05 4.2401836e-05
0003c0 64 e6 bb 37 5c 33 1d b7 7f f9 a0 b5 58 ef 9b b7
       2.2399421e-05 -9.369887e-06 -1.1993542e-06 -1.8588893e-05
0003d0 a6 7c dc b4 cb a7 5c 37 67 da 9e b7 49 2d 80 b7
       -4.1068887e-07 1.3152089e-05 -1.893677e-05 -1.5279877e-05
0003e0 b6 16 6b 38 9e f6 88 37 72 ba 2c 38 26 d2 cd b6
       5.6049517e-05 1.6327303e-05 4.1181636e-05 -6.1339406e-06
0003f0 33 d2 84 37 f6 c6 03 b7 07 39 ba b7 12 72 95 b7
       1.5833508e-05 -7.854533e-06 -2.2199483e-05 -1.7815302e-05

fc.0.weight f4 [32, 32]
000000 56 e4 b6 bd a2 fb 01 3e bb 87 e1 3d 59 37 02 3e
       -0.089302704 0.12693647 0.11012217 0.12716426
000010 74 72 ad bd 3d fb f2 bc d4 8a 60 bc d6 54 2e 3e
       -0.08469096 -0.029660815 -0.013704974 0.1702455
000020 5b 63 ea 3d a0 67 cc bb ef d6 7b bd 22 3d 14 3e
       0.11444732 -0.006237939 -0.061484274 0.14476445
000030 ae d6 14 3e da 6c 27 bd 19 74 df bd 5b bf cb 3d
       0.14535019 -0.040875293 -0.10910816 0.099486075
000040 76 c1 c8 bd ab 3c b7 3d db 4c 62 3d 28 a2 18 bd
       -0.09802525 0.08947118 0.055249076 -0.03726402
000050 01 1f 74 bd a8 21 f5 3d bb ec 14 3e 27 62 ba bc
       -0.05959988 0.1196931 0.1454343 -0.02275188
000060 a1 e9 2c be 63 8d b0 3d aa f2 1e be ee 26 2e be
       -0.16885997 0.086207174 -0.15522256 -0.17007038
000070 fd 4a d1 bd e4 8a b9 bd 48 2b e7 bd 86 ca 06 be
       -0.10219381 -0.090596944 -0.11287552 -0.13163194
000080 04 37 d6 bd 0d b8 22 be 56 d4 c8 bd 02 c6 f5 3d
       -0.10459712 -0.15890522 -0.09806125 0.120006576
000090 2d 38 2c be 4b 37 17 be a8 49 2b 3e 30 14 1b be
       -0.16818304 -0.14767186 0.16727316 -0.1514442
0000a0 d7 19 2e be 93 19 c8 3d eb ea 33 3e 19 06 32 be
       -0.17002045 0.09770503 0.17570083 -0.17385139
0000b0 e2 38 1f 3d ea 5d a5 bd 33 d5 18 be 77 10 0e 3e
       0.038872607 -0.08074553 -0.14925079 0.13873468
0000c0 7d cd 07 3e db c4 1b 3e e5 16 ab 3d f5 61 0e 3e
       0.13261981 0.15211813 0.08353976 0.13904555
0000d0 8e da 2d 3e 3c 38 c3 bd 7c 05 be bd c4 5e 2f be
       0.16977903 -0.0953221 -0.0927839 -0.17125994
0000e0 58 bc 0d bd dc 1e be bd c3 e1 99 bd 34 c0 07 3d
       -0.034603447 -0.0928323 -0.07513764 0.033142284
0000f0 56 e8 6c 3c 13 d6 47 3d 66 df 34 3e d5 ec 76 bd
       0.01445969 0.04878814 0.17663345 -0.060284454
000100 06 68 10 3d b9 6e ec bd e1 aa e3 3d ad 0a 30 3c
       0.035255454 -0.11544556 0.11116577 0.010744733
000110 9c e5 ac 3d a8 3f 2e be 04 3f 92 3c 44 e6 04 3e
       0.08442232 -0.1701647 0.017852314 0.12978464
000120 b8 fa c0 3c 39 c6 14 be 6e 3d 6c 3d 41 59 cf 3c
       0.023557052 -0.14528741 0.05767577 0.025311114
000130 19 db 8e 3d 38 18 81 bd 69 ad e0 3d f7 5c 0f bd
       0.06975383 -0.063034475 0.10970575 -0.035000768
000140 9a 1d a1 3b 12 31 07 3e f0 19 24 be 4a 75 be bc
       0.004916859 0.13202313 -0.1602552 -0.023249287
000150 2c 83 2e 3e e8 36 be bd 0b 3b 2b 3e c0 ca c9 bd
       0.17042226 -0.09287816 0.16721742 -0.098531246
000160 6c 79 05 3c 5d 5f ea bd 27 d2 4c 3d 37 63 12 be
       0.008146625 -0.1144397 0.050005104 -0.1429566
000170 f1 da 23 3e 74 e4 09 be 59 e3 16 be 28 9f 2d be
       0.16001488 -0.13466054 -0.14735164 -0.16955245
000180 2b 07 9c bc 95 0f b1 bd 6e 71 13 3e a5 82 f7 bd
       -0.019046387 -0.0864555 0.14398739 -0.12085465
000190 6d 37 29 be 4f db 1a 3e 8a 35 83 3d 5b 09 6a 3d
       -0.1652505 0.15122722 0.06406696 0.05713783
0001a0 3d b2 26 3e f9 ab 2b 3e 86 d8 a7 3d b8 42 33 be
       0.1627893 0.16764821 0.081955954 -0.1750592
0001b0 b2 31 08 be e0 c8 96 3d a1 19 e1 3d 82 59 f9 bd
       -0.13300207 0.073625326 0.109912165 -0.121752754
0001c0 ae 30 9c bd 42 76 b3 3d cc 94 06 bd 19 ec 23 3e
       -0.076264724 0.0876279 -0.032856748 0.16008033
0001d0 4d b3 f4 bd 40 8d ed 3d 86 61 23 3e 2b bd 26 be
       -0.119482614 0.11599207 0.15955171 -0.162831
0001e0 df 50 6c bd 3e 93 c5 bd 2a bc 96 bd 8b 01 c1 3d
       -0.057694312 -0.09647225 -0.07360108 0.094241224
0001f0 0e 74 10 3e 8d 6c 8f 3d c3 8b 85 bd 11 95 65 3d
       0.14106771 0.07003126 -0.06520798 0.056050364
000200 2c d5 9e bc 6e 43 e3 3b 5f ef 29 3e 65 0f e2 3d
       -0.019388758 0.0069355285 0.16595219 0.110380925
000210 59 27 f9 bd e6 bc dd 3d c6 77 bc 3d f7 d2 ac bb
       -0.12165708 0.10827045 0.092025325 -0.0052741724
000220 82 d7 bf bd 05 8e ef bd eb 95 b3 3d 1d 91 c1 bd
       -0.09367277 -0.1169701 0.08768829 -0.09451506
000230 7d ab 80 3d 10 4c 16 bd 36 b6 b8 3d 63 34 12 3e
       0.06282709 -0.036693633 0.09019129 0.14277796
000240 b5 6b e3 3d b6 53 2d be 1f 3b 07 be e7 f7 af bc
       0.11104528 -0.16926464 -0.13206147 -0.021480514
000250 5e 5b c8 bd 07 6e b1 bc 53 7f 5b 3b e2 ff 92 3d
       -0.09783052 -0.02165891 0.003349264 0.07177712
000260 96 4f 8a 3d 65 8a 0c 3e f4 8d 99 3d 3f 0d 87 bd
       0.06753461 0.13724668 0.074977785 -0.06594323
000270 81 e6 a0 bd 8b d0 ae bd 77 02 6e 3d cf 2e 20 3e
       -0.07856465 -0.0853587 0.05810782 0.15642856
000280 94 7e 5c 3a 7f 24 50 bd e7 91 46 bd 27 d2 1e 3e
       0.00084111956 -0.050816055 -0.048478987 0.15509854
000290 92 96 93 bd d0 f9 f6 bc 12 4c 2b be 32 20 0e be
       -0.072064534 -0.030148417 -0.16728237 -0.13879469
0002a0 8f 46 08 be 5e 1c 31 3e 0d 11 9a 3d 58 cc 9e 3b
       -0.13308166 0.17295977 0.075227834 0.004846137
0002b0 9a 10 32 3e 50 f2 0e be b9 ba d7 3d e7 a4 95 3d
       0.17389145 -0.13959622 0.105336614 0.07306843
0002c0 db 05 15 be 91 70 15 3e 63 4b 06 3c 46 58 c8 bd
       -0.14553015 0.14593722 0.0081966845 -0.09782462
0002d0 56 f3 15 3e 3d c0 c9 3d 03 8a d5 bd 75 97 5f 3c
       0.14643607 0.0985112 -0.10426714 0.01364695
0002e0 8d de 2e 3e 8e ad 19 be a2 13 3a bc 10 48 dc bc
       0.17077084 -0.15007612 -0.01135722 -0.02688983
0002f0 40 aa 26 be 08 ad 8c bd 7b 35 25 3e f6 c1 95 3d
       -0.16275883 -0.068689406 0.16133682 0.07312386
000300 3b 70 06 3b b7 7e 08 3e 40 06 c1 3d 74 52 fd 3d
       0.0020513672 0.13329588 0.0942502 0.12369242
000310 fe 7b ff bc 98 e8 2d 3e 47 a4 1c 3e cc dc 01 3e
       -0.031187054 0.16983259 0.15297042 0.12681884
000320 a5 8b 81 bd 38 b1 00 3e 63 c1 a3 3d a2 da 0c bd
       -0.06325463 0.12567604 0.0799587 -0.034388192
000330 f0 a8 b6 bd 76 73 1a bd fb 95 c0 bd 93 de 95 3d
       -0.08918941 -0.03770777 -0.094036065 0.07317843
000340 f6 04 aa 3d 69 03 31 3e 1a bc 20 3d d3 a3 b8 3c
       0.083017275 0.17286457 0.039241888 0.022539055
000350 6a f1 26 be 1c f3 09 be 0c 92 27 be 05 23 dc bd
       -0.1630303 -0.13471645 -0.16364306 -0.10748867
000360 5f 52 12 be cd 17 2c be 17 bc 16 bc c7 dd 21 3e
       -0.14289235 -0.16805954 -0.009200118 0.15807258
000370 e4 52 38 3d 2d 62 b2 3d 5f a4 1c 3d ee 01 63 bd
       0.045000926 0.08710132 0.038242694 -0.055421762
000380 25 71 25 be c4 50 e1 bd 0a ec e1 bd 95 1b 7c bd
       -0.16156442 -0.11001733 -0.11031349 -0.06154974
000390 84 dc 8c bd 92 08 08 3e 60 ed 89 3d a6 a8 b1 3c
       -0.068779975 0.1328452 0.06734729 0.021686863
0003a0 0b 2c e4 3d b1 9b a7 bd 7d 24 94 bd bc 71 f1 3d
       0.11141213 -0.08183993 -0.07233522 0.11789271
0003b0 7c c2 f6 3d a4 b0 31 be 28 42 2b 3e 9b 9f 3f bd
       0.12048814 -0.1735254 0.16724455 -0.04678307
0003c0 3a 77 a8 3d 9b 93 28 bd e0 80 16 3e ce 12 14 3c
       0.08225866 -0.041156393 0.146976 0.0090376865
0003d0 91 20 a5 bd f9 43 d4 bd 56 ac ff 3d 20 26 5d 3c
       -0.08062852 -0.10364527 0.12484042 0.013497859
0003e0 ea 9b 88 3d 65 3b e6 3d f3 ba 00 3d d4 ad 03 be
       0.06670363 0.11241797 0.03142829 -0.12859279
0003f0 8f 09 96 3d d6 2b 16 3d 07 a8 2f 3e 91 53 b5 3d
       0.07326042 0.0366629 0.17153941 0.0885383

fc.0.bias f4 [32]
000000 46 df 09 be 52 0b 16 3e 2f 1a 15 be e8 91 1c 3e
       -0.13464078 0.14652756 -0.1456077 0.15290034
000010 4c c5 d0 bd 41 68 2d bd 9b 0c e1 bd ce e7 07 be
       -0.101938814 -0.042335752 -0.109887324 -0.1327202
000020 47 07 fb bd 5c f4 87 3d 76 31 cd 3d b2 e1 1b 3e
       -0.122572474 0.06638405 0.100191996 0.15222815
000030 6f 3e 97 bd 33 f4 98 3c df 72 1c 3e a1 a2 0f 3e
       -0.07384955 0.01867113 0.15278195 0.14026882
000040 2b f9 01 bd ef 3e 26 be ad 0d b3 3d b9 1f a5 3d
       -0.031731766 -0.16234945 0.08742843 0.08062691
000050 31 64 8b bd 61 ce d5 bd 7a 1b b7 3d 5f ff 9f 3c
       -0.06806219 -0.10439754 0.089407876 0.01953095
000060 43 2a 2a be 41 b3 e6 bd 77 77 f0 bc b7 cb 2a be
       -0.16617684 -0.11264659 -0.02935384 -0.16679274
000070 3e b8 16 bd fe 36 6c bc 9f d0 f7 3d f2 a8 8a bd
       -0.0367968 -0.014417408 0.12100338 -0.06770505

output_layer.0.weight f4 [1, 32]
000000 5b 9c f8 3d 2f fe ab 3d d0 8c 32 3e 42 ea 42 bd
       0.121391974 0.08398091 0.17436528 -0.047586687
000010 70 5f 18 3e b5 8e 63 3d 3d 90 25 3e 07 87 d2 bd
       0.14880157 0.055556018 0.16168304 -0.10279661
000020 63 86 17 be 10 46 bc 3d 6f 15 ba 3a 35 ab 19 3e
       -0.14797358 0.09193051 0.0014197062 0.15006717
000030 9f d3 e7 bd 2d 7f 01 3e ec 51 45 bd 8c 3d 40 be
       -0.113196604 0.1264617 -0.04817383 -0.18773478
000040 28 96 0d be 18 12 56 3c 2c b9 76 3b 44 25 8a 3d
       -0.13826811 0.013065837 0.0037646992 0.06745389
000050 7d c5 bb 3d ae 7c cb bd dc 78 c3 3d c9 20 02 3e
       0.09168527 -0.0993589 0.095445365 0.12707819
000060 bf 4d 0f be 4d 64 d2 bd 8c b8 2d be b0 c5 27 bd
       -0.13994502 -0.10273037 -0.1696493 -0.040960014
000070 fc d6 e3 3b 0c 90 c3 bc 4e b8 ab 3d 49 15 17 3e
       0.0069531184 -0.023872398 0.08384763 0.14754213
