hidden-32/model_epoch_1_80.pth (torch, 74793 bytes, 7 tensors)

embedding.0.weight f4 [32, 7]
-0.22352295 -0.1758205 -0.31919444 0.08358219 0.19911988 0.34052664 0.20084083 -0.2239798
-0.007880983 0.26646256 0.25072235 -0.0055795456 -0.029864885 0.0834058 -0.1989864 -0.25563604
0.21850885 -0.08694381 -0.27775905 -0.29351008 -0.24970156 0.107527725 0.03373241 -0.37651324
0.105407126 0.09494221 -0.0022677083 0.049608476 0.15805124 0.26803228 0.2479179 0.15973265
-0.31738588 -0.15600708 -0.11214412 -0.060077082 -0.22993253 -0.2826493 -0.016816624 0.27198178
0.35333386 -0.24918476 0.37731466 -0.28980875 0.11609607 -0.035448495 -0.19565223 0.33869115
-0.06972371 0.10084472 0.3349666 0.1540656 0.35675177 -0.18392478 0.29518875 -0.36409023
0.07054325 0.28399673 0.35645717 -0.09278091 -0.20344752 -0.2348546 -0.35465574 0.2424552
0.19856063 0.08189707 -0.300943 -0.32288697 0.13222764 -0.08200801 -0.06608172 -0.028016455
-0.31668904 -0.2491793 0.37757963 0.09014448 -0.30170184 0.2876546 0.088882156 0.37044325
0.33144218 -0.12969977 0.22374704 -0.112121485 0.1809983 0.018935261 -0.14004049 -0.023196355
0.22190502 -0.28379798 -0.026062572 -0.121839285 0.31572634 0.101584114 -0.11562628 0.23789968
0.02654215 -0.30866143 -0.08620331 0.0742048 0.3535411 -0.100584134 0.12927587 -0.30168507
-0.34525552 0.10032098 -0.021319136 0.29630584 0.29974076 0.371464 -0.1597233 -0.20142876
0.16334032 0.09514169 0.3759047 -0.009377943 0.33835852 -0.17580679 -0.32624424 -0.26735693
-0.16268045 -0.23233339 0.26808283 0.05848231 0.27803734 0.039429292 0.36130026 -0.27438408
0.11402134 -0.33228338 -0.30198085 0.35658035 -0.014500249 -0.23292533 0.20314884 0.14513995
0.0043188357 -0.25234342 -0.18416573 0.14921647 0.24202009 0.13019758 -0.34088567 0.13043793
-0.34266534 0.33556518 -0.28956854 0.26413104 -0.014907828 -0.32483244 -0.37795383 0.02858475
-0.21179423 0.30122998 -0.23779503 -0.16802375 -0.049476154 0.101991914 0.05794864 -0.043761756
0.32947332 0.29071444 0.33270964 0.34105003 -0.29210123 0.24708654 -0.28836733 0.0009817135
0.0143323345 0.2389649 -0.14766926 0.09982421 0.2853531 0.029420227 0.20185637 -0.15430623
-0.03415158 -0.017851805 -0.09449283 0.31297493 0.24479003 -0.19565633 -0.009956529 -0.16279952
-0.120042466 0.07366525 0.072009236 -0.013183593 0.13621198 -0.26701802 0.18355198 -0.1800478
0.08895174 0.20363685 -0.36343643 0.12938628 0.17590803 -0.21308951 0.13146308 -0.18063283
-0.05152006 0.054521207 -0.15393974 0.024103401 -0.36274216 -0.355232 0.24085928 0.042299934
0.05702245 -0.15881413 0.30403757 0.13751906 -0.30848458 0.20537862 0.093176715 0.08159309
0.06871414 0.31290507 0.13144767 -0.16149175 0.24565718 0.0036633492 0.021748729 -0.33204827
00000000: 33e3 64be 4a0a 34be 746d a3be 242d ab3d
00000010: 15e6 4b3e 8259 ae3e 38a9 4d3e f65a 65be
00000020: 3d1f 01bc c86d 883e ae5e 803e 9fd4 b6bb
00000030: 34a7 f4bc a9d0 aa3d 17c3 4bbe bae2 82be
00000040: c9c0 5f3e 990f b2bd 6f36 8ebe f446 96be
00000050: c4b1 7fbe 7f37 dc3d ff2a 0a3d 58c6 c0be
00000060: b1df d73d 1071 c23d d59d 14bb 4232 4b3d
00000070: 2fd8 213e 873b 893e 31de 7d3e f590 233e
00000080: 6780 a2be 52c0 1fbe d1ab e5bd 6313 76bd
00000090: 6f73 6bbe 69b7 90be 04c3 89bc 3241 8b3e
000000a0: 2de8 b43e 4a2a 7fbe 632f c13e d061 94be
000000b0: c7c3 ed3d 7132 11bd 0f59 48be ed68 ad3e
000000c0: 4ecb 8ebd ad87 ce3d be80 ab3e 5fc3 1d3e
000000d0: 2ba8 b63e c756 3cbe fb22 973e 096a babe
000000e0: fb78 903d 0568 913e 8e81 b63e eb03 bebd
000000f0: 8c54 50be b97d 70be 7095 b5be 2d46 783e
00000100: 7a53 4b3e a7b9 a73d 3315 9abe 7151 a5be
00000110: af66 073e d1f3 a7bd da55 87bd c482 e5bc
00000120: 1125 a2be dc28 7fbe 1e52 c13e ab9d b83d
00000130: aa78 9abe 7747 933e d907 b63d bdaa bd3e
00000140: cab2 a93e 04d0 04be f21d 653e f39f e5bd
00000150: 9e57 393e 1f1e 9b3c c666 0fbe 4806 bebc
00000160: 123b 633e f84d 91be 2d81 d5bc e086 f9bd
00000170: e2a6 a13e 550b d03d 79cd ecbd f99b 733e
00000180: ec6e d93c df08 9ebe 5c8b b0bd b0f8 973d
00000190: 5703 b53e 0eff cdbd e560 043e 7776 9abe
000001a0: 55c5 b0be 1675 cd3d 78a5 aebc 66b5 973e
000001b0: 9f77 993e 8830 be3e 818e 23be 5743 4ebe
000001c0: af42 273e a5d9 c23d 9576 c03e f2a5 19bc
000001d0: 543d ad3e b206 34be 7c09 a7be 02e3 88be
000001e0: b495 26be cee8 6dbe 2742 893e 268b 6f3d
000001f0: e95a 8e3e 9c80 213d 59fc b83e 127c 8cbe
00000200: 0584 e93d 0c21 aabe 3c9d 9abe b391 b63e
00000210: 7492 6dbc fa83 6ebe 4006 503e 919f 143e
00000220: 0585 8d3b 2833 81be f195 3cbe 34cc 183e
00000230: 1dd4 773e 8452 053e 9188 aebe 8591 053e
00000240: d571 afbe 33cf ab3e 5442 94be 2f3c 873e
00000250: f63f 74bc 7050 a6be 2a83 c1be 912a ea3c
00000260: 96e0 58be d13a 9a3e 8a80 73be 6b0e 2cbe
00000270: 82a7 4abd 23e1 d03d 8e5b 6d3d 873f 33bd
00000280: bab0 a83e 86d8 943e eb58 aa3e 1c9e ae3e
00000290: 4b8e 95be 4104 7d3e e2a4 93be d7ac 803a
000002a0: 2bd2 6a3c 37b3 743e 9c36 17be a370 cc3d
000002b0: cd19 923e b002 f13c 70b3 4e3e 7402 1ebe
000002c0: 87e2 0bbd f33d 92bc 7585 c1bd 403e a03e
000002d0: 3daa 7a3e 225a 48be b620 23bc ebb4 26be
000002e0: d3d8 f5bd cedd 963d 9479 933d ffff 57bc
000002f0: 277b 0b3e 96b6 88be 0df5 3b3e 735e 38be
00000300: 542c b63d 2e86 503e 5714 babe d67d 043e
00000310: 3c21 343e 2334 5abe 429e 063e d0f7 38be
00000320: b306 53bd a151 5f3d 61a2 1dbe 7f74 c53c
00000330: 57b9 b9be f8e0 b5be d1a3 763e b242 2d3d
00000340: 5f90 693d 2ca0 22be d0aa 9b3e ccd1 0c3e
00000350: b1f1 9dbe c64e 523e 6fd3 be3d 471a a73d
00000360: 00ba 8c3d 1835 a03e 389a 063e 185e 25be
00000370: 8e8d 7b3e cd14 703b 642a b23c 3b02 aabe

embedding.0.bias f4 [32]
-0.115364105 0.241212 0.2266791 -0.118372746 -0.109322324 -0.010421385 -0.22634402 -0.15669723
-0.33584163 -0.31941307 0.17371006 -0.028969267 -0.05157752 -0.2295153 -0.1739496 -0.26196235
0.2726154 -0.19661179 0.09599742 -0.3518974 0.15388593 0.0036014782 -0.24758197 0.1601513
0.2670427 -0.045201957 0.24022195 -0.3216321 -0.31083307 -0.24808921 -0.13889529 0.24286826
00000000: 0444 ecbd 4700 773e 911e 683e 696d f2bd
00000010: 62e4 dfbd 75be 2abc bac6 67be 3d75 20be
00000020: 6ff3 abbe 1c8a a3be 0de1 313e f550 edbc
00000030: f342 53bd 0f06 6bbe d81f 32be ee1f 86be
00000040: 3f94 8b3e 9a54 49be 4c9a c43d e52b b4be
00000050: 4694 1d3e c706 6c3b 2186 7dbe b4fe 233e
00000060: d2b9 883e b025 39bd befc 753e f6ac a4be
00000070: 8325 9fbe 190b 7ebe 913a 0ebe 75b2 783e

layernorm.weight f4 [259, 32]
0.99861467 0.9999129 1.0000061 1.0000275 1.0000044 0.9999932 1.0000085 0.9999955
0.99999094 1.0 1.0 0.99998075 0.99999493 1.0000011 0.99999994 0.9999917
0.99999005 0.99999714 1.0 0.9999442 1.0000054 1.0013235 0.998081 1.0000018
1.0015097 0.99999255 1.0012264 1.0005423 1.0 0.99999994 0.9998115 0.99997145
0.9986692 0.9999263 1.0000068 1.000006 1.0003676 0.9999998 1.0000076 0.9995929
0.99971473 1.0000029 1.0 0.9999987 0.99999714 1.0000043 0.9999987 0.9998961
1.0000046 0.9999978 1.0000002 0.9999388 0.999992 1.0003481 0.9981506 1.0000001
1.0010653 0.9999923 1.000303 1.0001136 1.0 1.0 0.99979144 1.0000153
1.0008885 1.0000072 1.0000063 1.0000179 0.9996744 0.99999607 1.0000073 1.0001817
1.0000057 1.0000002 1.0 0.9995418 0.9999954 1.0000002 0.9999999 1.0000668
0.99999946 0.99999744 1.0 1.0005335 1.0000026 0.9991464 1.0013908 1.0
0.99882525 0.9999925 0.99945843 0.9996057 1.0 0.9999999 1.0005549 0.99984443
0.9995515 0.99995667 1.000007 1.000005 1.0002894 1.0000001 1.0000067 0.9997018
0.99968207 1.0000027 1.0 0.99992436 0.9999969 1.0000129 0.99999857 1.0000192
1.000004 0.9999979 1.0000002 1.0000073 0.9999959 1.0000311 0.9993529 1.0000001
1.0000281 0.9999925 1.000035 1.0000408 0.99999994 0.99999994 1.0000088 1.0000768
1.0015113 1.0000074 1.0000066 1.0000129 0.9994367 0.99999774 1.0000069 1.0003643
1.0000181 1.0000005 1.0 0.9993709 0.99999607 1.0000005 0.99999946 1.0001386
0.9999981 0.999998 1.0 1.0005955 1.0000005 0.9985254 1.0022644 0.9999944
0.99791825 0.99999267 0.998948 0.99926203 1.0 0.9999999 1.0007417 0.9998095
1.0001398 0.99996775 1.0000074 1.0000045 1.0001442 1.0000001 1.0000064 0.9997989
0.99982566 1.0000026 1.0 0.9998999 0.9999968 1.0000081 0.9999987 1.0000439
1.0000043 0.9999983 1.0000004 1.0000066 0.99999326 0.9999404 1.0001421 1.0
0.99980164 0.99999267 0.9999947 1.000026 0.9999999 1.0 1.0000188 1.000062
1.0017694 1.0000033 1.0000075 1.0000091 0.99919236 0.99999887 1.0000061 1.0006592
1.0001692 1.0000006 1.0 0.9992765 0.99999654 0.99984974 0.99999934 1.0001584
1.0000005 0.9999985 1.0 1.000464 0.99997365 0.9983439 1.0024637 0.99990654
0.9978214 0.999993 0.99878645 0.9992193 0.9999999 0.9999999 1.0006113 0.9996982
1.0002127 0.9999708 1.0000076 1.0000033 0.99990237 1.0000004 1.0000057 0.99999547
0.9999896 1.0000019 1.0 0.99976283 0.99999684 1.0000081 0.9999986 1.0000874
1.0000049 0.9999985 1.0000002 1.0000068 0.9999892 0.9996657 1.0005583 0.9999762
0.9994616 0.99999297 0.99979824 1.0000163 0.99999976 1.0 1.0000151 1.0000197
00000000: 36a5 7f3f 4bfa 7f3f 3300 803f e700 803f
00000010: 2500 803f 8eff 7f3f 4700 803f b5ff 7f3f
00000020: 68ff 7f3f 0000 803f 0000 803f bdfe 7f3f
00000030: abff 7f3f 0900 803f ffff 7f3f 75ff 7f3f
00000040: 59ff 7f3f d0ff 7f3f 0000 803f 58fc 7f3f
00000050: 2d00 803f 5e2b 803f 3d82 7f3f 0f00 803f
00000060: 7831 803f 83ff 7f3f 3028 803f c511 803f
00000070: 0000 803f ffff 7f3f a5f3 7f3f 21fe 7f3f
00000080: c9a8 7f3f 2cfb 7f3f 3900 803f 3200 803f
00000090: 0c0c 803f fdff 7f3f 4000 803f 52e5 7f3f
000000a0: 4eed 7f3f 1800 803f 0000 803f eaff 7f3f
000000b0: d0ff 7f3f 2400 803f eaff 7f3f 31f9 7f3f
000000c0: 2700 803f dbff 7f3f 0200 803f fdfb 7f3f
000000d0: 7aff 7f3f 680b 803f cc86 7f3f 0100 803f
000000e0: e822 803f 7fff 7f3f ee09 803f b903 803f
000000f0: 0000 803f 0000 803f 55f2 7f3f 8000 803f
00000100: 1d1d 803f 3c00 803f 3500 803f 9600 803f
00000110: a9ea 7f3f beff 7f3f 3d00 803f f405 803f
00000120: 3000 803f 0200 803f 0000 803f f9e1 7f3f
00000130: b3ff 7f3f 0200 803f feff 7f3f 3002 803f
00000140: f7ff 7f3f d5ff 7f3f 0000 803f 7b11 803f
00000150: 1600 803f 0fc8 7f3f 932d 803f 0000 803f
00000160: 03b3 7f3f 82ff 7f3f 82dc 7f3f 29e6 7f3f
00000170: 0000 803f feff 7f3f 2f12 803f cef5 7f3f
00000180: 9be2 7f3f 29fd 7f3f 3b00 803f 2a00 803f
00000190: 7c09 803f 0100 803f 3800 803f 75ec 7f3f
000001a0: 2aeb 7f3f 1700 803f 0000 803f 0bfb 7f3f
000001b0: ccff 7f3f 6c00 803f e8ff 7f3f a100 803f
000001c0: 2200 803f ddff 7f3f 0200 803f 3d00 803f
000001d0: bbff 7f3f 0501 803f 97d5 7f3f 0100 803f
000001e0: ec00 803f 82ff 7f3f 2601 803f 5601 803f
000001f0: ffff 7f3f ffff 7f3f 4a00 803f 8402 803f
00000200: 8631 803f 3e00 803f 3700 803f 6c00 803f
00000210: 15db 7f3f daff 7f3f 3a00 803f f00b 803f
00000220: 9800 803f 0400 803f 0000 803f c5d6 7f3f
00000230: beff 7f3f 0400 803f f7ff 7f3f 8b04 803f
00000240: e0ff 7f3f deff 7f3f 0000 803f 8313 803f
00000250: 0400 803f 5c9f 7f3f 334a 803f a2ff 7f3f
00000260: 9277 7f3f 85ff 7f3f 0ebb 7f3f a3cf 7f3f
00000270: 0000 803f feff 7f3f 4e18 803f 84f3 7f3f
00000280: 9504 803f e3fd 7f3f 3e00 803f 2600 803f
00000290: ba04 803f 0100 803f 3600 803f d2f2 7f3f
000002a0: 93f4 7f3f 1600 803f 0000 803f 71f9 7f3f
000002b0: caff 7f3f 4400 803f eaff 7f3f 7001 803f
000002c0: 2400 803f e3ff 7f3f 0300 803f 3700 803f
000002d0: 8fff 7f3f 18fc 7f3f a804 803f 0000 803f
000002e0: 00f3 7f3f 85ff 7f3f a7ff 7f3f da00 803f
000002f0: feff 7f3f 0000 803f 9e00 803f 0802 803f
00000300: fb39 803f 1c00 803f 3f00 803f 4c00 803f
00000310: 12cb 7f3f edff 7f3f 3300 803f 9a15 803f
00000320: 8b05 803f 0500 803f 0000 803f 96d0 7f3f
00000330: c6ff 7f3f 27f6 7f3f f5ff 7f3f 3105 803f
00000340: 0400 803f e7ff 7f3f 0000 803f 340f 803f
00000350: 46fe 7f3f 7793 7f3f bb50 803f e0f9 7f3f
00000360: 3971 7f3f 8bff 7f3f 78b0 7f3f d6cc 7f3f
00000370: feff 7f3f feff 7f3f 0814 803f 39ec 7f3f
00000380: f806 803f 16fe 7f3f 4000 803f 1c00 803f
00000390: 9af9 7f3f 0300 803f 3000 803f b4ff 7f3f
000003a0: 52ff 7f3f 1000 803f 0000 803f 75f0 7f3f
000003b0: cbff 7f3f 4400 803f e9ff 7f3f dd02 803f
000003c0: 2900 803f e7ff 7f3f 0200 803f 3900 803f
000003d0: 4bff 7f3f 17ea 7f3f 4b12 803f 71fe 7f3f
000003e0: b7dc 7f3f 8aff 7f3f c7f2 7f3f 8900 803f
000003f0: fcff 7f3f 0000 803f 7f00 803f a500 803f

layernorm.bias f4 [259, 32]
-5.8795304e-05 -7.2785106e-06 -7.2087474e-05 8.477349e-06 -5.5029694e-05 8.027223e-06 -7.008445e-05 2.7983893e-05
5.9368682e-05 -1.009976e-05 -8.411897e-06 -7.31637e-05 2.9419412e-05 -4.2314015e-05 8.304895e-06 7.4958625e-05
6.796118e-05 -1.032111e-05 9.345861e-06 -4.380052e-06 -6.402285e-05 7.2138064e-05 -4.7345977e-05 -4.1419884e-05
8.152403e-05 6.635002e-05 6.801428e-05 6.104911e-05 -1.4992697e-05 4.6094254e-05 -1.4881823e-05 -5.7145557e-05
-7.719801e-05 -8.790608e-06 -4.633314e-05 -1.5279245e-05 -3.5902183e-05 2.3581591e-05 -5.6776837e-05 3.947577e-05
5.4943423e-05 -1.006384e-06 1.7452987e-05 -7.6616714e-05 9.7423035e-06 -5.57261e-05 4.9986616e-06 5.9862115e-05
9.459946e-05 3.3202723e-06 -1.0824437e-05 5.526488e-06 -9.023618e-05 7.910505e-05 -4.9140155e-05 -5.516622e-05
2.6846566e-05 7.426353e-05 7.049602e-05 9.188536e-05 -4.023205e-05 5.390302e-05 -2.3757615e-05 -9.129434e-05
-4.3766566e-05 -3.1973017e-05 -0.00010546538 4.174155e-05 -0.000107274886 -3.5793837e-05 -8.230096e-05 3.622231e-05
8.5800944e-05 -5.2671585e-05 -3.499201e-05 -8.49402e-05 8.21507e-05 -2.2319835e-05 3.7056467e-05 0.0001216109
4.8555652e-05 -1.6157474e-05 -5.5542623e-06 -3.6922906e-05 -9.31736e-06 2.3575856e-05 -5.5207616e-05 -2.5088195e-05
0.00013994191 4.153882e-05 8.38967e-05 -1.690174e-05 2.5476142e-05 -1.0425231e-05 -2.8466056e-05 -1.3287101e-05
-5.647043e-05 -2.5366518e-05 -7.7481636e-05 -1.4407095e-06 -5.974572e-05 -6.466613e-06 -6.329706e-05 4.154272e-05
6.828189e-05 -2.828572e-05 -4.329683e-06 -7.119048e-05 3.3159387e-05 -4.581295e-05 2.0085221e-05 7.487424e-05
7.3773546e-05 -6.1405694e-06 -1.5158878e-07 -1.4525265e-05 -5.4128555e-05 5.021298e-05 -4.4029865e-05 -4.416099e-05
5.9173337e-05 5.011928e-05 7.650823e-05 4.6738252e-05 -8.329938e-06 2.8251532e-05 -3.108212e-05 -6.590128e-05
-3.3776607e-05 -4.5696568e-05 -0.00012599885 5.817839e-05 -0.00013460679 -5.722347e-05 -9.133498e-05 4.1600964e-05
9.9178586e-05 -7.0634254e-05 -4.8515387e-05 -9.07189e-05 0.00010761227 -1.0823192e-05 4.6164223e-05 0.00014164887
4.1294363e-05 -1.5484975e-05 -7.214921e-06 -5.590978e-05 1.5438252e-05 1.3154074e-06 -6.13791e-05 -1.5232007e-05
0.0001596371 2.6070973e-05 8.891367e-05 -5.2048978e-05 3.9113173e-05 -3.600235e-05 -3.7560247e-05 7.4321215e-06
-4.256295e-05 -4.431075e-05 -9.864105e-05 2.7119913e-06 -6.493141e-05 -3.724266e-05 -7.697234e-05 3.836682e-05
8.114365e-05 -5.063572e-05 -1.6102565e-05 -6.641699e-05 5.5539113e-05 -3.8007962e-05 2.9934543e-05 7.296894e-05
5.9757705e-05 -1.1653916e-05 5.4105194e-06 -3.2660744e-05 -2.665277e-05 4.0925977e-05 -3.1805594e-05 -3.344261e-05
7.798956e-05 3.698199e-05 7.837522e-05 1.8905863e-05 8.772246e-06 9.602811e-06 -4.09818e-05 -5.154085e-05
-1.972388e-05 -4.968764e-05 -0.00012909787 6.018654e-05 -0.000149395 -6.98334e-05 -8.7878405e-05 5.209107e-05
0.00010873576 -8.054257e-05 -4.910696e-05 -8.239373e-05 0.00011866449 -1.31927e-05 5.432475e-05 0.00015209071
3.1266758e-05 -1.9789828e-05 -8.400268e-06 -6.016887e-05 2.366818e-05 -1.4552227e-05 -5.588666e-05 -6.2465506e-06
0.00015256989 1.0398393e-05 9.284374e-05 -6.499155e-05 4.403465e-05 -5.7795183e-05 -4.2580014e-05 1.4872754e-05
-2.6527656e-05 -6.540277e-05 -0.00012960179 1.1613623e-05 -8.4040104e-05 -6.8920715e-05 -8.162333e-05 4.4198558e-05
9.5152085e-05 -7.919461e-05 -3.0853174e-05 -5.863219e-05 7.5803546e-05 -2.9928706e-05 3.9731716e-05 8.18062e-05
3.8594335e-05 -1.2713456e-05 2.1827744e-05 -5.4442997e-05 -2.0291998e-06 2.8940003e-05 -1.2981757e-05 -2.9871228e-05
9.448925e-05 1.6759897e-05 7.9260535e-05 -1.6081134e-05 2.7280208e-05 -1.0013428e-05 -5.190288e-05 -3.503085e-05
00000000: fa9a 76b8 ee39 f4b6 ab2d 97b8 f039 0e37
00000010: afcf 66b8 a9ac 0637 4dfa 92b8 f4be ea37
00000020: a302 7938 2472 29b7 d320 0db7 766f 99b8
00000030: b5c9 f637 547a 31b8 4155 0b37 1b33 9d38
00000040: 6186 8e38 d428 2db7 2bcc 1c37 5cf8 92b6
00000050: 0244 86b8 d448 9738 5b95 46b8 43ba 2db8
00000060: e1f7 aa38 6525 8b38 e3a2 8e38 7e07 8038
00000070: 2589 7bb7 5455 4138 f1ac 79b7 93af 6fb8
00000080: 5ee5 a1b8 607b 13b7 d555 42b8 ee2b 80b7
00000090: ad95 16b8 15d1 c537 aa23 6eb8 c992 2538
000000a0: 0d73 6638 1713 87b5 0168 9237 49ad a0b8
000000b0: e072 2337 72bb 69b8 2dba a736 7514 7b38
000000c0: b363 c638 d8d1 5e36 9a9a 35b7 2c70 b936
000000d0: 2e3d bdb8 33e5 a538 d71b 4eb8 4762 67b8
000000e0: 9034 e137 eebd 9b38 43d7 9338 94b2 c038
000000f0: d6be 28b8 ed15 6238 174b c7b7 4775 bfb8
00000100: fe91 37b8 c41a 06b8 4b2d ddb8 a613 2f38
00000110: c4f8 e0b8 5721 16b8 fe98 acb8 69ed 1738
00000120: 08f0 b338 afeb 5cb8 62c4 12b8 ec21 b2b8
00000130: 5248 ac38 7b3b bbb7 146d 1b38 5b09 ff38
00000140: 3ca8 4b38 e989 87b7 c05e bab6 abdd 1ab8
00000150: c251 1cb7 c4c4 c537 ba8e 67b8 7d74 d2b7
00000160: 5fbd 1239 f839 2e38 b3f1 af38 36c8 8db7
00000170: 99b5 d537 07e8 2eb7 64ca eeb7 aaeb 5eb7
00000180: aada 6cb8 2fca d4b7 a37d a2b8 675e c1b5
00000190: 7a97 7ab8 c8fb d8b6 5abe 84b8 283e 2e38
000001a0: 9032 8f38 1f47 edb7 b247 91b6 194c 95b8
000001b0: 9f14 0b38 4827 40b8 af7c a837 cd05 9d38
000001c0: dfb6 9a38 170b ceb6 68c4 22b4 8ab1 73b7
000001d0: 1808 63b8 c79b 5238 b5ac 38b8 8039 39b8
000001e0: e330 7838 2b37 5238 0b73 a038 d108 4438
000001f0: d0c0 0bb7 b4fd ec37 2c5e 02b8 7b34 8ab8
00000200: 5bab 0db8 51aa 3fb8 8f1e 04b9 9204 7438
00000210: 3c25 0db9 3c03 70b8 188b bfb8 b27c 2e38
00000220: 19fe cf38 7a21 94b8 007d 4bb8 5740 beb8
00000230: e6ad e138 4195 35b7 75a0 4138 9487 1439
00000240: 7c33 2d38 bbe5 81b7 b317 f2b6 ab80 6ab8
00000250: 6581 8137 0e8d b035 a7b8 80b8 f98c 7fb7
00000260: 4264 2739 fdb2 da37 2a77 ba38 2a4f 5ab8
00000270: 730d 2438 3b01 17b8 028a 1db8 7061 f936
00000280: 9f85 32b8 4eda 39b8 83dd ceb8 a8ff 3536
00000290: c92b 88b8 0035 1cb8 366c a1b8 0fec 2038
000002a0: aa2b aa38 b161 54b8 ff13 87b7 5a49 8bb8
000002b0: abf2 6838 bd6a 1fb8 f11b fb37 e706 9938
000002c0: 59a4 7a38 3085 43b7 028c b536 35fd 08b8
000002d0: 6394 dfb7 efa7 2b38 ff66 05b8 bb44 0cb8
000002e0: 548e a338 1c1d 1b38 605d a438 0898 9e37
000002f0: 822c 1337 c21b 2137 dfe3 2bb8 912d 58b8
00000300: b674 a5b7 b267 50b8 725e 07b9 ce70 7c38
00000310: eaa6 1cb9 8573 92b8 5c4b b8b8 5c7c 5a38
00000320: 1109 e438 f7e8 a8b8 32f8 4db8 ccca acb8
00000330: 83db f838 3756 5db7 c2da 6338 8a7a 1f39
00000340: 6d24 0338 5502 a6b7 e0ee 0cb7 d55d 7cb8
00000350: 088b c637 5725 74b7 d867 6ab8 7699 d1b6
00000360: 2bfb 1f39 c274 2e37 1ab5 c238 134c 88b8
00000370: d8b1 3838 1b69 72b8 f197 32b8 fe85 7937
00000380: b587 deb7 d828 89b8 b7e5 07b9 22d8 4237
00000390: b03e b0b8 8789 90b8 312d abb8 d761 3938
000003a0: 638c c738 4815 a6b8 5868 01b8 d6eb 75b8
000003b0: b8f8 9e38 680f fbb7 9ba5 2638 5f8f ab38
000003c0: 5ae0 2138 e14b 55b7 b91a b737 b959 64b8
000003d0: 632d 08b6 2fc4 f237 39cc 59b7 f993 fab7
000003e0: 8828 c638 9b97 8c37 ad38 a638 f9e5 86b7
000003f0: cdd7 e437 59ff 27b7 4bb2 59b8 17ee 12b8

fc.0.weight f4 [32, 32]
-0.089135475 0.12529059 0.110623226 0.1271992 -0.085175365 -0.02916044 -0.013204595 0.1688556
0.11567564 -0.0057483595 -0.06098401 0.14281836 0.14584991 -0.039729834 -0.10858772 0.09793617
-0.097333774 0.08809273 0.05574929 -0.036869902 -0.05929585 0.12024081 0.14490806 -0.02225429
-0.16905315 0.086706914 -0.15505475 -0.16999511 -0.10169401 -0.09123284 -0.11352855 -0.13224837
-0.10451523 -0.1590983 -0.09815862 0.12007241 -0.16817653 -0.14758568 0.1673593 -0.15148996
-0.16994783 0.097790636 0.17564614 -0.17387627 0.038958013 -0.08066906 -0.14916596 0.13873814
0.13246615 0.15215337 0.08354869 0.13910419 0.1697009 -0.09523711 -0.0927148 -0.17131545
-0.034790304 -0.092745 -0.07525174 0.033189546 0.014545774 0.048849482 0.17665628 -0.060471497
0.03251494 -0.11775385 0.111649275 0.010096927 0.084440805 -0.169683 0.01834227 0.12942551
0.02403306 -0.14480804 0.058161095 0.02501213 0.07024314 -0.062563166 0.11019276 -0.03514931
0.0053100907 0.13073666 -0.15977582 -0.025248395 0.17067769 -0.09560423 0.16227607 -0.0980609
0.004809814 -0.113950364 0.04818696 -0.14489473 0.16049659 -0.13443226 -0.1489942 -0.16952993
-0.019307466 -0.08656255 0.14431386 -0.12093523 -0.16509779 0.15141375 0.06425264 0.057304006
0.1629104 0.1678043 0.0822479 -0.17484471 -0.1328145 0.073741436 0.11008376 -0.121518984
-0.075929016 0.08777356 -0.032611974 0.15941058 -0.119216084 0.115470745 0.15880921 -0.1627413
-0.058516633 -0.0962866 -0.07353351 0.09363954 0.14125434 0.07023733 -0.065598994 0.05638734
-0.01811227 0.008078747 0.1658527 0.11098516 -0.12184286 0.10817049 0.09192536 -0.0055329604
-0.09377622 -0.11707008 0.08758833 -0.09475292 0.06272717 -0.036792826 0.09009135 0.14256644
0.11092539 -0.16912319 -0.13216098 -0.019434258 -0.09797817 -0.019770706 0.005965735 0.07198898
0.070396766 0.13714723 0.07572806 -0.06407277 -0.0786646 -0.085501954 0.059456117 0.15623409
0.0013296294 -0.051411252 -0.048265908 0.15521102 -0.072839834 -0.029935172 -0.16706878 -0.1402805
-0.132852 0.1731692 0.07544117 0.0034723643 0.17410485 -0.13935396 0.10554838 0.07205993
-0.14542258 0.14535384 0.008409682 -0.09722119 0.1462386 0.09935313 -0.10362396 0.013933982
0.17123494 -0.14986251 -0.0110244695 -0.02651755 -0.16254519 -0.068882965 0.16116485 0.07237558
0.0021124166 0.13134731 0.094783455 0.12374237 -0.031235391 0.17036597 0.15350366 0.1261135
-0.061287705 0.12606682 0.08049014 -0.03635435 -0.08866543 -0.03592878 -0.093359455 0.0715487
0.084202476 0.17092793 0.03977301 0.023134938 -0.16220841 -0.13411316 -0.16452855 -0.10696662
-0.14289086 -0.16752616 -0.009141298 0.15831962 0.045532033 0.0860562 0.037673198 -0.05558991
-0.161145 -0.111771405 -0.10996449 -0.062115945 -0.07296773 0.13319422 0.0676958 0.015185932
0.108965054 -0.08131406 -0.07198675 0.11429249 0.120837316 -0.17580803 0.16729894 -0.04875468
0.08111105 -0.040753048 0.14732504 0.007038559 -0.08271074 -0.10331683 0.12535772 0.012461759
0.06360426 0.112766415 0.031824768 -0.13078855 0.073608875 0.03723805 0.16897276 0.08536463
00000000: a98c b6bd 2d4c 003e 6e8e e23d 8240 023e
00000010: 6c70 aebd e0e1 eebc 1658 58bc 7be8 2c3e
00000020: 5ae7 ec3d bc5c bcbb 5fca 79bd fa3e 123e
00000030: ae59 153e c0bb 22bd 3d63 debd c292 c83d
00000040: ee56 c7bd f669 b43d 5e59 643d e504 17bd
00000050: 35e0 72bd d040 f63d c762 143e a14e b6bc
00000060: 451c 2dbe 6593 b13d acc6 1ebe 3313 2ebe
00000070: f344 d0bd 49d8 babd a881 e8bd 1e6c 07be
00000080: 150c d6bd aaea 22be 6307 c9bd 86e8 f53d
00000090: 7836 2cbe b320 17be 3d60 2b3e 2f20 1bbe
000000a0: ce06 2ebe 7546 c83d 95dc 333e 9f0c 32be
000000b0: 7092 1f3d d235 a5bd f6be 18be 5f11 0e3e
000000c0: 35a5 073e 18ce 1b3e 931b ab3d 5471 0e3e
000000d0: 13c6 2d3e ad0b c3bd 42e1 bdbd 516d 2fbe
000000e0: 4780 0ebd 17f1 bdbd 961d 9abd c3f1 073d
000000f0: 6651 6e3c 6516 483d 62e5 343e f6b0 77bd
00000100: 632e 053d ee28 f1bd 60a8 e43d 956d 253c
00000110: 4def ac3d 61c1 2dbe 8742 963c 1f88 043e
00000120: fbe0 c43c 8f48 14be 543a 6e3d 3de6 cc3c
00000130: a3db 8f3d 1e21 80bd beac e13d b9f8 0fbd
00000140: 4500 ae3b d5df 053e 469c 23be b9d5 cebc
00000150: 22c6 2e3e 27cc c3bd b32b 263e 27d4 c8bd
00000160: a59b 9d3b cf5e e9bd b15f 453d 495f 14be
00000170: 3859 243e 9ca8 09be f091 18be 4199 2dbe
00000180: b12a 9ebc b547 b1bd 03c7 133e e4ac f7bd
00000190: 650f 29be 350c 1b3e e396 833d 9bb7 6a3d
000001a0: fcd1 263e e4d4 2b3e 9671 a83d 7e0a 33be
000001b0: 8600 08be c005 973d 9873 e13d f2de f8bd
000001c0: ac80 9bbd a0c2 b33d 2294 05bd 873c 233e
000001d0: 9027 f4bd ed7b ec3d e29e 223e a8a5 26be
000001e0: 23af 6fbd e931 c5bd bd98 96bd 16c6 bf3d
000001f0: faa4 103e 97d8 8f3d c458 86bd 69f6 663d
00000200: 2f60 94bc b95c 043c 4ad5 293e 304c e33d
00000210: c088 f9bd 7d88 dd3d 5d43 bc3d d64d b5bb
00000220: bf0d c0bd 70c2 efbd 8361 b33d d20d c2bd
00000230: 1a77 803d 13b4 16bd d081 b83d f0fc 113e
00000240: da2c e33d a12e 2dbe 3555 07be 9834 9fbc
00000250: c7a8 c8bd 2df6 a1bc 367c c33b f56e 933d
00000260: 2e2c 903d 5370 0c3e 5017 9b3d 9638 83bd
00000270: e81a a1bd a61b afbd 4288 733d d4fb 1f3e
00000280: f646 ae3a 9b94 52bd 79b2 45bd a3ef 1e3e
00000290: 0d2d 95bd 9b3a f5bc 1414 2bbe b1a5 0fbe
000002a0: 5b0a 08be 4453 313e e680 9a3d 9b90 633b
000002b0: 8b48 323e ceb2 0ebe c029 d83d 2894 933d
000002c0: a8e9 14be a3d7 143e c3c8 093c e71b c7bd
000002d0: 92bf 153e a779 cb3d cc38 d4bd 5b4b 643c
000002e0: 3658 2f3e 8f75 19be fa9f 34bc 553b d9bc
000002f0: 3f72 26be 8312 8dbd 6608 253e a639 943d
00000300: 7870 0a3b e97f 063e d41d c23d a46c fd3d
00000310: 5de1 ffbc 6b74 2e3e 1030 1d3e e623 013e
00000320: d108 7bbd a917 013e 04d8 a43d 4de8 14bd
00000330: 3996 b5bd 0e2a 13bd 3e33 bfbd 2088 923d
00000340: 5972 ac3d bb07 2f3e 06e9 223d 7b85 bd3c
00000350: f619 26be f654 09be 2c7a 28be 5111 dbbd
00000360: fb51 12be fa8b 2bbe 62c5 15bc 8a1e 223e
00000370: cc7f 3a3d 3c3e b03d 364f 1a3d 3fb2 63bd
00000380: 3203 25be 68e8 e4bd 1035 e1bd 4a6d 7ebd
00000390: 1b70 95bd 1164 083e 18a4 8a3d 6ace 783c
000003a0: 1229 df3d fc87 a6bd ca6d 93bd 2e12 ea3d
000003b0: 8e79 f73d 0507 34be 6a50 2b3e fdb2 47bd
000003c0: 8d1d a63d abec 26bd 60dc 163e b6a3 e63b
000003d0: 4064 a9bd c697 d3bd c65d 003e 682c 4c3c
000003e0: f342 823d 14f2 e63d b05a 023d 6fed 05be
000003f0: 40c0 963d ed86 183d 3207 2d3e a7d3 ae3d

fc.0.bias f4 [32]
-0.13634078 0.14473224 -0.14657632 0.15349127 -0.10170921 -0.04309485 -0.11180012 -0.13393292
-0.123749815 0.064606436 0.100601904 0.1490151 -0.07579092 0.020407349 0.15514475 0.14567207
-0.030013315 -0.16248867 0.08766757 0.07819183 -0.06823815 -0.1045433 0.08573722 0.014951373
-0.16732301 -0.11069824 -0.02806661 -0.16652527 -0.03679498 -0.012878559 0.1191994 -0.06553549
00000000: eb9c 0bbe b034 143e 1a18 16be d12c 1d3e
00000010: eb4c d0bd 3a84 30bd 76f7 e4bd b625 09be
00000020: 8b70 fdbd 6150 843d 5f08 ce3d 6a97 183e
00000030: 4538 9bbd 502d a73c 44de 1e3e 0f2b 153e
00000040: 7cde f5bc 6e63 26be 0e8b b33d 0a23 a03d
00000050: 71c0 8bbd cc1a d6bd ff96 af3d 9bf6 743c
00000060: b956 2bbe c2b5 e2bd f3eb e5bc 9a85 2abe
00000070: 55b6 16bd 9700 53bc d11e f43d 7937 86bd

output_layer.0.weight f4 [1, 32]
0.12511761 0.08056441 0.17496471 -0.040436897 0.14498386 0.059784953 0.16122216 -0.10586154
-0.14367095 0.07385224 -0.00409651 0.1415136 -0.11305216 0.1261051 -0.052884333 -0.19052859
-0.13555448 -0.004165621 0.0026799517 0.080180004 0.09704208 -0.08264549 0.097675964 0.107204765
-0.12765124 -0.098716296 -0.17040598 -0.03033951 0.011231558 -0.03952712 0.09192793 0.15373936
00000000: d51e 003e f4fe a43d f329 333e 29a1 25bd
00000010: a676 143e 11e1 743d 6c17 253e efcd d8bd
00000020: 7a1e 13be d83f 973d 043c 86bb f1e8 103e
00000030: e487 e7bd b221 013e 3e9d 58bd ed19 43be
00000040: cbce 0abe c37f 88bb 21a2 2f3b 6a35 a43d
00000050: ffbd c63d 0a42 a9bd 560a c83d 2c8e db3d
00000060: 02b7 02be c52b cabd e87e 2ebe 908a f8bc
00000070: 9204 383c 30e7 21bd b644 bc3d da6d 1d3e
