hidden-32/model_epoch_1_100.pth (torch, 74803 bytes, 7 tensors)

embedding.0.weight f4 [32, 7]
00000000: a3e2 64be 89e8 33be 1170 a3be 68b7 aa3d
00000010: a5e6 4b3e fd59 ae3e 15d4 4d3e f55a 65be
00000020: e1cd ffbb 306f 883e 8067 803e 8cd5 b6bb
00000030: 60a7 f4bc 9bd7 aa3d 17c3 4bbe bae2 82be
00000040: c9c0 5f3e 990f b2bd 6f36 8ebe f446 96be
00000050: c4b1 7fbe 8037 dc3d 2df8 093d 5cc7 c0be
00000060: 32a9 d73d 1171 c23d c19e 14bb f56e 4b3d
00000070: 2fd8 213e 0a2f 893e 2bdf 7d3e 239b 233e
00000080: 6780 a2be 52c0 1fbe 1455 e6bd 6313 76bd
00000090: 6f73 6bbe 69b7 90be 04c3 89bc 3241 8b3e
000000a0: 2de8 b43e 4a2a 7fbe 632f c13e d061 94be
000000b0: c7c3 ed3d 7132 11bd 0f59 48be ed68 ad3e
000000c0: 4ecb 8ebd ad87 ce3d 9d8f ab3e 8ac5 1d3e
000000d0: beb2 b63e c756 3cbe fb22 973e a74a babe
000000e0: fb78 903d 8379 913e f27b b63e 2ce8 bebd
000000f0: 8c54 50be b97d 70be 0f70 b5be 2d46 783e
00000100: fd61 4b3e 9abb a73d 9f0f 9abe 7151 a5be
00000110: af66 073e d2f7 a7bd da55 87bd c482 e5bc
00000120: 1125 a2be dc28 7fbe 1e52 c13e ab9d b83d
00000130: aa78 9abe 7747 933e ddce b53d 80aa bd3e
00000140: 55b2 a93e 04d0 04be f21d 653e 6a44 e6bd
00000150: 9e57 393e dca7 9b3c 166f 0fbe 7f4c c0bc
00000160: 123b 633e f84d 91be 29f8 d4bc e086 f9bd
00000170: 989a a13e d40e d03d 5f97 ecbd f99b 733e
00000180: ec6e d93c 891d 9ebe 5c8b b0bd 8590 973d
00000190: 3200 b53e 5881 cebd e560 043e 7776 9abe
000001a0: 58be b0be 1675 cd3d 63eb abbc 5ab8 973e
000001b0: 288e 993e 8830 be3e 818e 23be edd6 4dbe
000001c0: af42 273e 92f4 c23d d374 c03e 9a0f 1cbc
000001d0: 543d ad3e b206 34be 40e6 a6be 02e3 88be
000001e0: 1e8d 26be e7e5 6dbe 2a4f 893e 5e89 6f3d
000001f0: e95a 8e3e 33d3 203d 59fc b83e 127c 8cbe
00000200: 0584 e93d 0c21 aabe 3c9d 9abe b391 b63e
00000210: 7492 6dbc e483 6ebe a0f7 4f3e ab9d 143e
00000220: 5c46 8b3b 2833 81be db95 3cbe 0eb6 183e
00000230: 1dd4 773e a23e 053e 4b89 aebe f983 053e
00000240: d571 afbe 33cf ab3e cc55 94be d33b 873e
00000250: 8a35 76bc b250 a6be 1a85 c1be 6429 ea3c
00000260: f5e0 58be e631 9a3e 1280 73be 561b 2cbe
00000270: f7d6 4abd dce1 cf3d 865c 6d3d 8f3e 33bd
00000280: 28b4 a83e 87d8 943e 3e69 aa3e 0ba0 ae3e
00000290: b978 95be 6804 7d3e e1a4 93be fc06 a23a
000002a0: 38cb 6a3c 9fc3 743e 5035 17be 5785 cc3d
000002b0: 5719 923e 05ff f03c 67e2 4e3e 7402 1ebe
000002c0: 87e2 0bbd f33d 92bc 7585 c1bd 403e a03e
000002d0: 3daa 7a3e 225a 48be 3b29 23bc ffd1 26be
000002e0: 2fd0 f5bd db5f 973d 9378 933d 8408 58bc
000002f0: 7a50 0b3e c0b6 88be 93f0 3b3e d95c 38be
00000300: 3b4a b63d bc85 503e 8114 babe bc72 043e
00000310: 3c21 343e 2334 5abe 429e 063e d0f7 38be
00000320: b306 53bd a151 5f3d 61a2 1dbe 7f74 c53c
00000330: 9fb3 b9be e6de b5be 2ed2 763e b242 2d3d
00000340: 5f90 693d 7298 22be 0bab 9b3e a2d8 0c3e
00000350: c5f1 9dbe 2b4c 523e 4dd4 be3d 251b a73d
00000360: 17b8 8c3d 1835 a03e b67c 063e f45d 25be
00000370: ec91 7b3e cd14 703b 642a b23c 9422 aabe
-0.2235208 -0.17569174 -0.31921437 0.08335763 0.19912203 0.3405303 0.20100434 -0.22397979
-0.007806525 0.2664733 0.25078964 -0.005579656 -0.029864967 0.08341905 -0.1989864 -0.25563604
0.21850885 -0.08694381 -0.27775905 -0.29351008 -0.24970156 0.10752773 0.033683944 -0.376521
0.10530318 0.09494222 -0.0022677633 0.049666364 0.15805124 0.267937 0.24792163 0.15977149
-0.31738588 -0.15600708 -0.11246696 -0.060077082 -0.22993253 -0.2826493 -0.016816624 0.27198178
0.35333386 -0.24918476 0.37731466 -0.28980875 0.11609607 -0.035448495 -0.19565223 0.33869115
-0.06972371 0.10084472 0.33508006 0.15407386 0.35683244 -0.18392478 0.29518875 -0.3638508
0.07054325 0.2841302 0.35641438 -0.09321627 -0.20344752 -0.2348546 -0.35437056 0.2424552
0.19861598 0.08190079 -0.30090043 -0.32288697 0.13222764 -0.08201565 -0.06608172 -0.028016455
-0.31668904 -0.2491793 0.37757963 0.09014448 -0.30170184 0.2876546 0.08877347 0.37044144
0.3314387 -0.12969977 0.22374704 -0.11243518 0.1809983 0.01900094 -0.1400722 -0.023473976
0.22190502 -0.28379798 -0.025997238 -0.121839285 0.31563258 0.10159078 -0.11552309 0.23789968
0.02654215 -0.3088191 -0.08620331 0.07400612 0.35351712 -0.10083264 0.12927587 -0.30168507
-0.3452022 0.10032098 -0.020986265 0.29632837 0.2999127 0.371464 -0.1597233 -0.20101519
0.16334032 0.09519304 0.3758913 -0.009525204 0.33835852 -0.17580679 -0.32597542 -0.26735693
-0.1626477 -0.23232232 0.2681821 0.058480613 0.27803734 0.039263915 0.36130026 -0.27438408
0.11402134 -0.33228338 -0.30198085 0.35658035 -0.014500249 -0.232925 0.20309305 0.1451327
0.004250331 -0.25234342 -0.1841654 0.14913198 0.24202009 0.13012174 -0.3408912 0.13038625
-0.34266534 0.33556518 -0.28971708 0.2641283 -0.015027413 -0.3248344 -0.3779686 0.02858419
-0.21179564 0.30116194 -0.23779324 -0.16807303 -0.049521413 0.10150501 0.057949565 -0.043760832
0.32949948 0.29071447 0.33283418 0.34106478 -0.29193667 0.24708712 -0.2883673 0.0012361701
0.014330678 0.23902749 -0.14766431 0.0998637 0.28534958 0.029418478 0.20203553 -0.15430623
-0.03415158 -0.017851805 -0.09449283 0.31297493 0.24479003 -0.19565633 -0.009958561 -0.16291045
-0.120025985 0.0739133 0.07200732 -0.013185624 0.13604918 -0.26701927 0.1835349 -0.18004169
0.08900877 0.20363516 -0.36343768 0.12934393 0.17590803 -0.21308951 0.13146308 -0.18063283
-0.05152006 0.054521207 -0.15393974 0.024103401 -0.36269853 -0.3552162 0.24103615 0.042299934
0.05702245 -0.15878466 0.30403933 0.13754514 -0.30848518 0.20536868 0.09317837 0.08159474
0.0687105 0.31290507 0.13133511 -0.16149122 0.24567384 0.0036633492 0.021748729 -0.33229506

embedding.0.bias f4 [32]
00000000: a447 ecbd 77fa 763e 1c17 683e 4172 f2bd
00000010: 28db dfbd 75be 2abc bac6 67be 8c78 20be
00000020: 96f7 abbe 108a a3be f1de 313e a02e edbc
00000030: 1958 53bd 2802 6bbe b423 32be 1f22 86be
00000040: e093 8b3e 2a54 49be b69e c43d 212b b4be
00000050: 5495 1d3e 2c4f 6c3b c289 7dbe 9efb 233e
00000060: f6ba 883e b025 39bd 7d03 763e 1ead a4be
00000070: 8325 9fbe c109 7ebe ef37 0ebe c4ac 783e
-0.11537102 0.24118982 0.22665066 -0.118381985 -0.109304726 -0.010421385 -0.22634402 -0.15670985
-0.3358733 -0.3194127 0.17370202 -0.028952897 -0.05159769 -0.22950041 -0.17396432 -0.26197907
0.27261257 -0.19661012 0.09600584 -0.35189155 0.15388995 0.0036057932 -0.24759582 0.16013953
0.2670514 -0.045201957 0.24024768 -0.32163328 -0.31083307 -0.24808408 -0.13888524 0.24284655

layernorm.weight f4 [259, 32]
00000000: 30a4 7f3f e0fa 7f3f 3300 803f e700 803f
00000010: 2500 803f 8eff 7f3f 4700 803f b5ff 7f3f
00000020: 68ff 7f3f 0000 803f 0000 803f befe 7f3f
00000030: abff 7f3f 0900 803f ffff 7f3f 76ff 7f3f
00000040: 59ff 7f3f d0ff 7f3f 0000 803f e4fc 7f3f
00000050: 2d00 803f b32b 803f 0a81 7f3f 0f00 803f
00000060: dd30 803f 83ff 7f3f 9f28 803f 5311 803f
00000070: 0000 803f ffff 7f3f 94f4 7f3f 46fe 7f3f
00000080: aba6 7f3f 37fb 7f3f 3900 803f 3200 803f
00000090: 070d 803f fdff 7f3f 4000 803f 72e3 7f3f
000000a0: d2eb 7f3f 1800 803f 0000 803f 9500 803f
000000b0: d0ff 7f3f 2700 803f eaff 7f3f fdf7 7f3f
000000c0: 2700 803f dbff 7f3f 0200 803f 69fc 7f3f
000000d0: 83ff 7f3f 510b 803f 9b83 7f3f 0200 803f
000000e0: 1023 803f 7fff 7f3f ce09 803f b803 803f
000000f0: 0000 803f 0000 803f 8ef2 7f3f ee00 803f
00000100: 4d1e 803f 3e00 803f 3500 803f 9600 803f
00000110: 31eb 7f3f beff 7f3f 3d00 803f db05 803f
00000120: 2d00 803f 0200 803f 0000 803f 56e2 7f3f
00000130: b3ff 7f3f 0200 803f feff 7f3f 2e02 803f
00000140: f5ff 7f3f d5ff 7f3f 0000 803f b112 803f
00000150: 1600 803f 28c6 7f3f 572f 803f 0000 803f
00000160: 17af 7f3f 82ff 7f3f f1da 7f3f 13e5 7f3f
00000170: 0000 803f feff 7f3f 6113 803f 2ef6 7f3f
00000180: e0e1 7f3f 2dfd 7f3f 3b00 803f 2a00 803f
00000190: 810a 803f 0100 803f 3800 803f c0ea 7f3f
000001a0: 64e9 7f3f 1700 803f 0000 803f 05fc 7f3f
000001b0: ccff 7f3f 7100 803f e8ff 7f3f 6d00 803f
000001c0: 2200 803f ddff 7f3f 0200 803f 4500 803f
000001d0: c5ff 7f3f f500 803f 58d4 7f3f 0200 803f
000001e0: 3700 803f 82ff 7f3f f400 803f 5601 803f
000001f0: ffff 7f3f ffff 7f3f 6500 803f 0b03 803f
00000200: 3e32 803f 4100 803f 3700 803f 6c00 803f
00000210: d5db 7f3f daff 7f3f 3a00 803f 960b 803f
00000220: 9000 803f 0400 803f 0000 803f 46d7 7f3f
00000230: beff 7f3f 0400 803f f7ff 7f3f 7f04 803f
00000240: deff 7f3f deff 7f3f 0000 803f 4714 803f
00000250: 0400 803f 3b9e 7f3f 474b 803f afff 7f3f
00000260: 9d74 7f3f 85ff 7f3f 39ba 7f3f e5ce 7f3f
00000270: 0000 803f feff 7f3f 4c19 803f 23f4 7f3f
00000280: e904 803f e6fd 7f3f 3e00 803f 2600 803f
00000290: a605 803f 0100 803f 3600 803f 2af1 7f3f
000002a0: 04f3 7f3f 1600 803f 0000 803f 3bfa 7f3f
000002b0: caff 7f3f 4800 803f eaff 7f3f 3101 803f
000002c0: 2400 803f e3ff 7f3f 0300 803f 3c00 803f
000002d0: 98ff 7f3f aafb 7f3f fe04 803f 0000 803f
000002e0: 65f2 7f3f 85ff 7f3f a1ff 7f3f da00 803f
000002f0: feff 7f3f 0000 803f b300 803f 7302 803f
00000300: 3c3b 803f 1e00 803f 3f00 803f 4c00 803f
00000310: 09cb 7f3f edff 7f3f 3300 803f 4b15 803f
00000320: 7b05 803f 0500 803f 0000 803f 86d0 7f3f
00000330: c6ff 7f3f 74f6 7f3f f5ff 7f3f 2505 803f
00000340: 0400 803f e7ff 7f3f 0000 803f e70f 803f
00000350: 47fe 7f3f 7a91 7f3f 2952 803f eff9 7f3f
00000360: ec6d 7f3f 8bff 7f3f f3ae 7f3f d2cb 7f3f
00000370: feff 7f3f feff 7f3f df14 803f 92ec 7f3f
00000380: 4d07 803f 17fe 7f3f 4000 803f 1c00 803f
00000390: 53fa 7f3f 0300 803f 3000 803f 16ff 7f3f
000003a0: 22fe 7f3f 1000 803f 0000 803f 61f0 7f3f
000003b0: cbff 7f3f 4b00 803f e9ff 7f3f ba02 803f
000003c0: 2900 803f e7ff 7f3f 0200 803f 3f00 803f
000003d0: 52ff 7f3f 62e9 7f3f 1c13 803f 98fe 7f3f
000003e0: 95db 7f3f 8aff 7f3f 12f2 7f3f 8900 803f
000003f0: fcff 7f3f 0000 803f 8d00 803f e900 803f
0.99859905 0.9999218 1.0000061 1.0000275 1.0000044 0.9999932 1.0000085 0.9999955
0.99999094 1.0 1.0 0.9999808 0.99999493 1.0000011 0.99999994 0.9999918
0.99999005 0.99999714 1.0 0.99995255 1.0000054 1.0013336 0.99806273 1.0000018
1.0014912 0.99999255 1.0012397 1.0005287 1.0 0.99999994 0.9998257 0.99997365
0.9986369 0.999927 1.0000068 1.000006 1.0003976 0.9999998 1.0000076 0.9995643
0.9996921 1.0000029 1.0 1.0000178 0.99999714 1.0000046 0.9999987 0.99987775
1.0000046 0.9999978 1.0000002 0.9999452 0.99999255 1.0003453 0.9981019 1.0000002
1.00107 0.9999923 1.0002992 1.0001135 1.0 1.0 0.99979484 1.0000284
1.0009247 1.0000074 1.0000063 1.0000179 0.9996825 0.99999607 1.0000073 1.0001787
1.0000054 1.0000002 1.0 0.99954736 0.9999954 1.0000002 0.9999999 1.0000665
0.99999934 0.99999744 1.0 1.0005704 1.0000026 0.9991174 1.0014447 1.0
0.9987654 0.9999925 0.99943453 0.99958915 1.0 0.9999999 1.0005914 0.99985015
0.9995403 0.9999569 1.000007 1.000005 1.0003206 1.0000001 1.0000067 0.99967575
0.999655 1.0000027 1.0 0.99993926 0.9999969 1.0000135 0.99999857 1.000013
1.000004 0.9999979 1.0000002 1.0000082 0.9999965 1.0000292 0.99933386 1.0000002
1.0000066 0.9999925 1.0000291 1.0000408 0.99999994 0.99999994 1.000012 1.0000929
1.0015333 1.0000077 1.0000066 1.0000129 0.9994481 0.99999774 1.0000069 1.0003536
1.0000172 1.0000005 1.0 0.99937856 0.99999607 1.0000005 0.99999946 1.0001372
0.999998 0.999998 1.0 1.0006188 1.0000005 0.99850816 1.0022973 0.9999952
0.9978731 0.99999267 0.9989353 0.9992507 1.0 0.9999999 1.000772 0.999819
1.0001498 0.99996793 1.0000074 1.0000045 1.0001724 1.0000001 1.0000064 0.9997736
0.9998019 1.0000026 1.0 0.99991196 0.9999968 1.0000086 0.9999987 1.0000364
1.0000043 0.9999983 1.0000004 1.0000072 0.9999938 0.99993384 1.0001523 1.0
0.9997924 0.99999267 0.99999434 1.000026 0.9999999 1.0 1.0000213 1.0000747
1.0018077 1.0000036 1.0000075 1.0000091 0.9991918 0.99999887 1.0000061 1.0006498
1.0001673 1.0000006 1.0 0.99927557 0.99999654 0.9998543 0.99999934 1.000157
1.0000005 0.9999985 1.0 1.0004853 0.9999737 0.99831355 1.0025073 0.99990743
0.997771 0.999993 0.99876326 0.9992038 0.9999999 0.9999999 1.0006369 0.9997035
1.0002228 0.99997085 1.0000076 1.0000033 0.9999134 1.0000004 1.0000057 0.99998605
0.9999715 1.0000019 1.0 0.99976164 0.99999684 1.000009 0.9999986 1.0000832
1.0000049 0.9999985 1.0000002 1.0000075 0.9999896 0.9996549 1.0005832 0.99997854
0.9994443 0.99999297 0.99978745 1.0000163 0.99999976 1.0 1.0000168 1.0000278

layernorm.bias f4 [259, 32]
00000000: 1a19 7ab8 3983 eab6 b08a 99b8 7220 0f37
00000010: 186d 6ab8 b1f5 1037 94bf 94b8 3bd5 e937
00000020: 1b35 7b38 5848 24b7 aa1f 11b7 145d 9bb8
00000030: c029 f837 75ce 32b8 68cf 0737 ba4e 9f38
00000040: 9940 9038 f061 34b7 da00 2637 8a83 97b6
00000050: 4501 89b8 fc80 9938 6e8f 4ab8 8a51 2eb8
00000060: 44ed ac38 217d 8d38 1700 9038 4435 8238
00000070: 752d 83b7 fa6c 4538 dd96 75b7 4d47 70b8
00000080: 7aa7 a4b8 298d 13b7 ba5b 42b8 ef6c 89b7
00000090: 9c42 15b8 98b8 cf37 7238 6fb8 6cbe 2738
000000a0: b864 6838 2f71 bbb4 93f1 9837 5349 a2b8
000000b0: f2b4 1a37 99f1 6eb8 0351 a236 93b1 7a38
000000c0: 6a3f ca38 5c59 8136 c13c 39b7 336f ca36
000000d0: f677 c1b8 0fff a738 ec28 4fb8 81ab 6bb8
000000e0: 9fe8 d737 173f 9d38 c769 9538 edd8 c538
000000f0: 5417 2cb8 c6b0 6638 0e3b c8b7 0908 c4b8
00000100: 8c24 3ab8 0129 06b8 dbd4 e0b8 bc7d 3138
00000110: aee5 e4b8 d1d4 16b8 6d02 afb8 1f0b 1738
00000120: 12e4 b538 b9ce 5eb8 a40a 16b8 ca6a b4b8
00000130: b5dd ae38 ee7c bab7 dfcd 1c38 1b43 0139
00000140: 1abc 4d38 f941 8db7 3cce afb6 39b2 1db8
00000150: 13b0 22b7 45d0 c737 a65a 6cb8 a20a d0b7
00000160: adee 1439 65c3 2f38 b183 b138 4f87 90b7
00000170: bf99 d737 8659 30b7 da68 edb7 6556 50b7
00000180: 9e29 70b8 97b3 d7b7 bb73 a4b8 363a 14b6
00000190: d3c1 7bb8 bfc0 c3b6 eca3 85b8 1ae3 2f38
000001a0: 3939 9038 9533 ecb7 5883 8ab6 ad07 97b8
000001b0: 0657 0938 5b54 43b8 606d a837 84d4 9d38
000001c0: 3083 9d38 75a9 c3b6 e6f2 f4b2 79ce 71b7
000001d0: c95a 68b8 2a35 5538 b98b 3ab8 fd01 3db8
000001e0: d4d5 7738 17b8 5338 1370 a238 2cb8 4a38
000001f0: 14f2 10b7 0317 f437 ec33 03b8 d019 8db8
00000200: de1a 10b8 95ca 40b8 4c04 06b9 2635 7738
00000210: adcd 0eb9 d3bf 70b8 fe8a c2b8 8e36 2e38
00000220: f3e8 d138 5fd6 94b8 a59f 4eb8 dff4 c0b8
00000230: 6e20 e438 f02b 31b7 62c5 4138 d714 1639
00000240: b915 3038 5122 83b7 c3f4 e6b6 7950 6eb8
00000250: fc5c 8037 00ac d435 e44a 83b8 0e27 80b7
00000260: e174 2939 f152 db37 e7e9 bb38 d65c 5bb8
00000270: 504b 2538 eaf2 16b8 104b 1eb8 f331 0337
00000280: b75c 35b8 7ed6 3fb8 4f5a d2b8 4152 dd35
00000290: 3103 88b8 a00e 1db8 f285 a3b8 2fdf 2038
000002a0: 66d6 ab38 4e72 57b8 4979 85b7 d3af 8cb8
000002b0: 8101 6938 87da 21b8 4c9a fd37 8ad6 9838
000002c0: c845 7f38 2235 46b7 93b6 c236 fb52 0ab8
000002d0: f63a e5b7 1b43 3038 9ae0 03b8 77c8 0eb8
000002e0: cf7c a438 e23d 1e38 a0cd a638 0b7c a837
000002f0: 0925 0d37 e978 2d37 47ed 2cb8 1712 5cb8
00000300: 0848 a4b7 4502 54b8 3b6c 09b9 a99c 7f38
00000310: 4d42 1fb9 6acb 94b8 2977 bab8 f340 5c38
00000320: 1f1c e638 e0f1 abb8 15ed 4fb8 1ad6 aeb8
00000330: eb02 fc38 9e97 5bb7 f570 6738 e8ca 2139
00000340: 5174 0438 da07 abb7 654b 0eb7 f43d 80b8
00000350: 0cb9 c837 1ecf 78b7 08e1 6db8 c2b4 bfb6
00000360: 3238 2239 d92d 2c37 0d94 c538 0164 8ab8
00000370: 8ead 3938 45e1 75b8 46db 33b8 4fda 8837
00000380: 5285 ddb7 544e 8eb8 7f52 0bb9 10c7 3a37
00000390: e73f b2b8 3981 93b8 f69b adb8 ba95 3b38
000003a0: 7540 ca38 e911 aab8 8aad 03b8 016c 77b8
000003b0: 533e a038 ccc2 fcb7 be76 2938 65c1 ac38
000003c0: f7b0 2138 98c0 57b7 719a c337 5726 6ab8
000003d0: 8797 bab5 ebe9 f637 ca04 40b7 3873 00b8
000003e0: daeb c838 7fc7 8937 bf6d a838 d070 8cb7
000003f0: ea2d ea37 c73b 26b7 b85e 5db8 ebfc 14b8
-5.9628022e-05 -6.9890198e-06 -7.321441e-05 8.5310185e-06 -5.589155e-05 8.640273e-06 -7.092874e-05 2.7875058e-05
5.989252e-05 -9.792006e-06 -8.650046e-06 -7.408313e-05 2.9583345e-05 -4.2630785e-05 8.094918e-06 7.596375e-05
6.878487e-05 -1.0751639e-05 9.894569e-06 -4.515464e-06 -6.5329055e-05 7.319634e-05 -4.8294132e-05 -4.1560772e-05
8.245793e-05 6.746711e-05 6.866472e-05 6.2088046e-05 -1.5637585e-05 4.7069952e-05 -1.4638264e-05 -5.7286863e-05
-7.851324e-05 -8.794749e-06 -4.633863e-05 -1.6382399e-05 -3.5586403e-05 2.4762281e-05 -5.703461e-05 3.9993247e-05
5.5406912e-05 -3.4913816e-07 1.8232304e-05 -7.73842e-05 9.221245e-06 -5.6968627e-05 4.8374072e-06 5.9770024e-05
9.6439224e-05 3.8549024e-06 -1.1041005e-05 6.0330144e-06 -9.2253016e-05 8.010689e-05 -4.9390757e-05 -5.618809e-05
2.573832e-05 7.498095e-05 7.124576e-05 9.4340976e-05 -4.102972e-05 5.5000906e-05 -2.3869357e-05 -9.347505e-05
-4.4379893e-05 -3.1986277e-05 -0.000107208 4.2317188e-05 -0.000109146684 -3.5960988e-05 -8.345102e-05 3.6011563e-05
8.673234e-05 -5.312145e-05 -3.5772697e-05 -8.60296e-05 8.338263e-05 -2.2231103e-05 3.738503e-05 0.00012327397
4.9050992e-05 -1.683923e-05 -5.2394153e-06 -3.75977e-05 -9.696948e-06 2.3819632e-05 -5.6351208e-05 -2.4800484e-05
0.00014203294 4.1905227e-05 8.464547e-05 -1.7229146e-05 2.570159e-05 -1.0511261e-05 -2.8301427e-05 -1.2417881e-05
-5.7259218e-05 -2.5713625e-05 -7.841686e-05 -2.2087602e-06 -6.0023576e-05 -5.8338915e-06 -6.372467e-05 4.1934756e-05
6.8771136e-05 -2.8157412e-05 -4.128011e-06 -7.201671e-05 3.2744392e-05 -4.6570185e-05 2.0078092e-05 7.5259275e-05
7.510779e-05 -5.8311803e-06 -2.8515796e-08 -1.4412793e-05 -5.539766e-05 5.083267e-05 -4.4475983e-05 -4.5062963e-05
5.9088532e-05 5.0477767e-05 7.7456374e-05 4.8332076e-05 -8.639432e-06 2.9097782e-05 -3.128119e-05 -6.728212e-05
-3.4357297e-05 -4.5965036e-05 -0.00012780837 5.8938887e-05 -0.00013618795 -5.739911e-05 -9.27653e-05 4.153564e-05
0.00010009287 -7.09712e-05 -4.9262908e-05 -9.200884e-05 0.00010877928 -1.0560252e-05 4.6198613e-05 0.00014312878
4.19819e-05 -1.5632397e-05 -6.883028e-06 -5.6818568e-05 1.5302088e-05 1.584529e-06 -6.260516e-05 -1.5276975e-05
0.00016160637 2.6145457e-05 8.9604226e-05 -5.230013e-05 3.9409206e-05 -3.598902e-05 -3.7740043e-05 7.819838e-06
-4.324011e-05 -4.573771e-05 -0.000100304016 1.6489722e-06 -6.48558e-05 -3.7445338e-05 -7.797395e-05 3.835483e-05
8.19385e-05 -5.136645e-05 -1.5911313e-05 -6.70847e-05 5.555293e-05 -3.858891e-05 3.02318e-05 7.287886e-05
6.0861727e-05 -1.1814091e-05 5.802905e-06 -3.2979045e-05 -2.7326383e-05 4.2024167e-05 -3.144201e-05 -3.4042136e-05
7.843377e-05 3.772777e-05 7.9537975e-05 2.0084923e-05 8.412878e-06 1.0339755e-05 -4.1228977e-05 -5.2468935e-05
-1.9583866e-05 -5.0546852e-05 -0.00013105657 6.094264e-05 -0.0001518812 -7.095079e-05 -8.8913665e-05 5.2512576e-05
0.000109724926 -8.198968e-05 -4.9573446e-05 -8.336846e-05 0.0001201684 -1.3088718e-05 5.517989e-05 0.00015429745
3.157958e-05 -2.0388445e-05 -8.481414e-06 -6.115055e-05 2.3928027e-05 -1.4830175e-05 -5.671478e-05 -5.7132866e-06
0.00015470458 1.0262674e-05 9.4212686e-05 -6.59898e-05 4.4269073e-05 -5.862235e-05 -4.288114e-05 1.6314121e-05
-2.6407335e-05 -6.7856774e-05 -0.00013286805 1.1132812e-05 -8.499604e-05 -7.033576e-05 -8.278333e-05 4.4723718e-05
9.644117e-05 -8.109568e-05 -3.1394455e-05 -5.8989976e-05 7.641003e-05 -3.013145e-05 4.0403327e-05 8.237622e-05
3.8550203e-05 -1.285984e-05 2.3317729e-05 -5.5825654e-05 -1.390218e-06 2.9434412e-05 -1.1445207e-05 -3.0624884e-05
9.580674e-05 1.642457e-05 8.031306e-05 -1.6741833e-05 2.7916354e-05 -9.908289e-06 -5.277872e-05 -3.5521498e-05

fc.0.weight f4 [32, 32]
00000000: c589 b6bd 0746 003e 2a95 e23d d93f 023e
00000010: 5e7a aebd b8c7 eebc b623 58bc d3e1 2c3e
00000020: 77ef ec3d fcde bbbb 5cbd 79bd 4838 123e
00000030: cf5c 153e 93ae 22bd c05b debd 0490 c83d
00000040: f548 c7bd 5a68 b43d 6166 643d 5b13 17bd
00000050: 07d3 72bd 4348 f63d 8661 143e 8146 b6bc
00000060: 7224 2dbe 139a b13d 9bc4 1ebe 0518 2ebe
00000070: 463e d0bd 2ad0 babd a98d e8bd d16b 07be
00000080: 0b0d d6bd 19ed 22be 1b09 c9bd 02e7 f53d
00000090: 5c38 2cbe 4221 17be b25f 2b3e 1023 1bbe
000000a0: 7207 2ebe 9145 c83d d7db 333e 1c0f 32be
000000b0: d490 1f3d 0f37 a5bd 8bbf 18be 620f 0e3e
000000c0: f5a3 073e b6cc 1b3e 581a ab3d 6170 0e3e
000000d0: d1c4 2d3e 760c c3bd aae2 bdbd 326e 2fbe
000000e0: fc87 0ebd e5f1 bdbd d21f 9abd 7ced 073d
000000f0: 694a 6e3c c212 483d d2e3 343e d2b9 77bd
00000100: c5be 043d af5b f1bd 3ebc e43d 8e2f 253c
00000110: ebf2 ac3d cdb7 2dbe a793 963c 7484 043e
00000120: 8e2c c53c 073f 14be 4062 6e3d 2cd3 cc3c
00000130: d6ef 8f3d e00d 80bd e3c0 e13d 29f8 0fbd
00000140: 9e04 af3b 04d4 053e c992 23be fc76 cfbc
00000150: b9cb 2e3e 6904 c4bd c1f5 253e 8ac0 c8bd
00000160: 3cf6 983b 9c4a e9bd eb19 453d 5a73 14be
00000170: cc62 243e 4da2 09be eea2 18be cf97 2dbe
00000180: 344d 9ebc 6d50 b1bd b8c4 133e 3ab6 f7bd
00000190: c611 29be 1e09 1b3e 7790 833d fcb0 6a3d
000001a0: 4acf 263e 2ad2 2b3e 686c a83d 970c 33be
000001b0: 9403 08be cf00 973d b76d e13d 47e4 f8bd
000001c0: 5c84 9bbd 01bf b33d 7c9f 05bd ca33 233e
000001d0: dd2b f4bd 1a6e ec3d ed97 223e e6a8 26be
000001e0: 9dd4 6fbd 4b38 c5bd 8a9d 96bd b8b5 bf3d
000001f0: e8a1 103e cad2 8f3d 6966 86bd 6bf0 663d
00000200: 0c25 94bc 65db 043c 63d4 293e ad55 e33d
00000210: b78c f9bd b486 dd3d 9341 bc3d 67ac b5bb
00000220: 940f c0bd 39c4 efbd ba5f b33d 0613 c2bd
00000230: 5075 803d cbb7 16bd 0680 b83d 8bfa 113e
00000240: a72a e33d 4b30 2dbe 1c56 07be 02a8 9ebc
00000250: d2ab c8bd b088 a1bc 79a6 c53b 8474 933d
00000260: 2f5c 903d 6c6f 0c3e e11d 9b3d d618 83bd
00000270: b21c a1bd 791e afbd 07b6 733d b7f9 1f3e
00000280: 8603 af3a 9b92 52bd f9b0 45bd 40f0 1e3e
00000290: c731 95bd c237 f5bc d613 2bbe 20a8 0fbe
000002a0: b609 08be 8953 313e 9381 9a3d b608 633b
000002b0: ca48 323e 60b2 0ebe 792a d83d bc93 933d
000002c0: f6e7 14be 5dd6 143e 73ce 093c 1615 c7bd
000002d0: d2bf 153e 0a82 cb3d 5132 d4bd 0961 643c
000002e0: ae5b 2f3e 4f75 19be 8e93 34bc 1a26 d9bc
000002f0: 0172 26be 0c0e 8dbd b609 253e fe38 943d
00000300: 21f9 0a3b 276d 063e 9328 c23d 3264 fd3d
00000310: b450 00bd cf79 2e3e 7235 1d3e 7803 013e
00000320: 490e 7bbd 2d1b 013e a6e2 a43d 674a 15bd
00000330: 2a8c b5bd bb35 13bd e424 bfbd 3f76 923d
00000340: a084 ac3d 1604 2f3e c4fd 223d 19ff bc3c
00000350: 8219 26be f94e 09be db7c 28be cd20 dbbd
00000360: b76d 12be 9386 2bbe cd9c 15bc e70b 223e
00000370: 8b94 3a3d f646 b03d 7efb 193d e7d2 63bd
00000380: 1901 25be 130f e5bd 2331 e1bd 9584 7ebd
00000390: e0b6 95bd 3166 083e 01a8 8a3d a447 753c
000003a0: 3604 df3d 3288 a6bd e169 93bd f8cc e93d
000003b0: 7e7d f73d 7419 34be df4f 2b3e cb0a 48bd
000003c0: 5709 a63d 07ff 26bd 80de 163e 28ad e43b
000003d0: 1888 a9bd 2894 d3bd df5d 003e 2680 4b3c
000003e0: c910 823d faf5 e63d 985f 023d bcff 05be
000003f0: 29c4 963d 1583 183d 56f0 2c3e 289a ae3d
-0.08912996 0.12526713 0.11063607 0.12719668 -0.085194334 -0.029147968 -0.013192108 0.1688302
0.11569112 -0.005733369 -0.060971603 0.14279282 0.14586185 -0.03971727 -0.10857344 0.09793094
-0.09730712 0.08808966 0.0557617 -0.036883693 -0.059283283 0.120255016 0.14490327 -0.022250416
-0.16908434 0.086719655 -0.15504687 -0.1700135 -0.10168128 -0.091217354 -0.113551445 -0.13224722
-0.104517065 -0.15910758 -0.0981619 0.12006952 -0.16818374 -0.1475878 0.16735724 -0.15150094
-0.16995028 0.09778894 0.17564331 -0.17388576 0.03895648 -0.08067142 -0.14916818 0.13873056
0.13246138 0.1521481 0.08354634 0.13910057 0.16969611 -0.09523861 -0.09271748 -0.1713188
-0.034797654 -0.09274653 -0.075256005 0.033185467 0.014544108 0.048846014 0.17665032 -0.060479946
0.032408495 -0.117850654 0.11168717 0.010082139 0.084447704 -0.16964646 0.018380953 0.12941152
0.024069097 -0.14477168 0.058199167 0.025003038 0.07028167 -0.062526464 0.11023118 -0.035148773
0.0053411266 0.13069159 -0.15973963 -0.02532529 0.17069902 -0.09571154 0.16207029 -0.09802349
0.0046680253 -0.11391184 0.04812042 -0.14497128 0.16053313 -0.13440819 -0.14905903 -0.16952442
-0.019323923 -0.08657918 0.14430511 -0.12095304 -0.16510686 0.15140197 0.06424039 0.05729769
0.16290012 0.1677939 0.08223802 -0.17485271 -0.13282615 0.07373201 0.110072546 -0.121529154
-0.07593605 0.087766655 -0.0326228 0.15937725 -0.11922429 0.11544438 0.15878268 -0.16275367
-0.058552373 -0.09629878 -0.07354267 0.09360832 0.14124262 0.07022627 -0.06562502 0.056381624
-0.018084072 0.008108948 0.16584925 0.11100326 -0.12185042 0.10816708 0.09192195 -0.0055442336
-0.09377971 -0.117073484 0.08758493 -0.09476285 0.062723756 -0.036796372 0.090087935 0.14255731
0.1109212 -0.16912954 -0.13216442 -0.019367222 -0.09798397 -0.019718498 0.006031808 0.07199958
0.070488326 0.13714379 0.07574058 -0.064012215 -0.07866801 -0.08550734 0.059499767 0.15622602
0.001335249 -0.051409345 -0.048264477 0.15521336 -0.07284885 -0.029933814 -0.16706786 -0.14028978
-0.13284954 0.17317022 0.075442456 0.0034642643 0.1741058 -0.13935232 0.10554976 0.072059125
-0.14541611 0.14534898 0.008411038 -0.09720819 0.14623955 0.09936912 -0.103611596 0.013939151
0.17124817 -0.14986156 -0.011021508 -0.026507426 -0.16254427 -0.06887445 0.16116986 0.07237433
0.0021205621 0.13127576 0.09480395 0.12372626 -0.031326964 0.17038654 0.15352419 0.1259898
-0.06129292 0.12608023 0.08051042 -0.03644791 -0.08864625 -0.035939913 -0.09333208 0.0715146
0.08423734 0.17091402 0.03979279 0.023070859 -0.16220668 -0.13409032 -0.16453879 -0.10699616
-0.14299665 -0.16750555 -0.0091316225 0.15824853 0.045551818 0.08607285 0.037593357 -0.055621054
-0.161137 -0.11184516 -0.109957 -0.06213816 -0.07310271 0.13320233 0.067703255 0.014970694
0.10889475 -0.08131446 -0.07197929 0.11416048 0.120844826 -0.17587835 0.16729687 -0.048838418
0.0810725 -0.040770557 0.14733315 0.0069786496 -0.08277911 -0.10330993 0.12535809 0.01242069
0.06350858 0.11277385 0.031829447 -0.13085836 0.07361633 0.037234385 0.16888556 0.08525497

fc.0.bias f4 [32]
00000000: 66ab 0bbe 492a 143e 0d2a 16be 753c 1d3e
00000010: f449 d0bd 6d94 30bd 0d27 e5bd 7b2d 09be
00000020: 9278 fdbd ad3b 843d dd0d ce3d 4084 183e
00000030: 2f49 9bbd 588d a73c e8f1 1e3e 3f4f 153e
00000040: 9254 f5bc 7f63 26be a88d b33d d5f1 9f3d
00000050: ebbe 8bbd e121 d6bd fe84 af3d 374b 723c
00000060: e657 2bbe b7b0 e2bd cc86 e5bc 6b81 2abe
00000070: 56b6 16bd 0a67 52bc 840a f43d e728 86bd
-0.13639602 0.14469256 -0.14664479 0.15355094 -0.101703554 -0.0431103 -0.11189089 -0.13396256
-0.123765126 0.06456695 0.10061238 0.148942 -0.07582318 0.02045314 0.15521967 0.14581011
-0.029947553 -0.16248892 0.08767253 0.07809798 -0.06823524 -0.10455681 0.08570288 0.01478844
-0.1673275 -0.11068862 -0.028018378 -0.16650932 -0.036794983 -0.012841949 0.11916068 -0.0655077

output_layer.0.weight f4 [1, 32]
00000000: 2734 003e d1b7 a43d 2e2b 333e 139c 25bd
00000010: d250 143e 5b3e 753d 811f 253e 1e82 d8bd
00000020: 0be1 12be 952a 963d 2cc2 89bb ecc2 103e
00000030: ef7c e7bd 4436 013e 87b8 58bd 80e3 42be
00000040: 9369 0abe 7e34 99bb 3a56 2c3b c0d9 a33d
00000050: 9198 c73d 7f37 a8bd 10a5 c73d 7797 da3d
00000060: 2ed9 02be 9a0b cabd f391 2ebe eec6 f9bc
00000070: d493 383c 1652 22bd 9163 bc3d 9606 1e3e
0.12519895 0.08042873 0.1749694 -0.040432047 0.14483956 0.05987392 0.16125299 -0.10571693
-0.1434366 0.07332341 -0.0042040553 0.14136857 -0.11303126 0.12618357 -0.052910354 -0.19032097
-0.13516836 -0.004675447 0.0026296512 0.08000517 0.097458966 -0.0821371 0.0974828 0.10673421
-0.1277816 -0.09865494 -0.17047863 -0.030490365 0.011265714 -0.039629065 0.09198678 0.154322
