hidden-32/model_epoch_2_180.pth (torch, 74803 bytes, 7 tensors)

embedding.0.weight f4 [32, 7]
-0.2234964 -0.1738123 -0.3192275 0.082411505 0.19914642 0.34058827 0.20352906 -0.22397989
-0.008283669 0.26663852 0.25201523 -0.0055833613 -0.029869627 0.08339308 -0.1989864 -0.25563604
0.21850885 -0.086943805 -0.27775905 -0.29351008 -0.24970156 0.107527815 0.032788616 -0.37659067
0.1044499 0.0949423 -0.0022687705 0.05040308 0.15805124 0.26714814 0.24809907 0.16092803
-0.31738588 -0.15600708 -0.11660888 -0.060077082 -0.22993253 -0.2826493 -0.016816624 0.27198178
0.35333386 -0.24918476 0.37731466 -0.28980875 0.11609607 -0.035448495 -0.19565223 0.33869115
-0.06972371 0.10084472 0.33592832 0.15410458 0.35757446 -0.18392478 0.29518875 -0.3607826
0.07054325 0.28543264 0.3560013 -0.09710899 -0.20344752 -0.2348546 -0.35062814 0.2424552
0.19925341 0.081939206 -0.30055118 -0.32288697 0.13222764 -0.08208884 -0.06608172 -0.028016455
-0.31668904 -0.2491793 0.37757963 0.09014448 -0.30170184 0.2876546 0.08772632 0.3704319
0.33102456 -0.12969977 0.22374704 -0.11653818 0.1809983 0.019610818 -0.14037862 -0.026066588
0.22190502 -0.28379798 -0.025153974 -0.121839285 0.3145776 0.101508446 -0.1159324 0.23789968
0.02654215 -0.31098095 -0.08620331 0.07015536 0.3532195 -0.103783004 0.12927587 -0.30168507
-0.34456572 0.10032098 -0.019393556 0.2964403 0.30169052 0.371464 -0.1597233 -0.19565587
0.16334032 0.09542711 0.37565687 -0.011298861 0.33835852 -0.17580679 -0.32246175 -0.26735732
-0.16225615 -0.23217614 0.2695077 0.058460996 0.27803695 0.03735676 0.36130026 -0.27438408
0.11402134 -0.33228338 -0.30198085 0.35658035 -0.014500249 -0.23292221 0.20228457 0.14510052
0.0035798054 -0.25234327 -0.18416262 0.14793853 0.24202009 0.13015155 -0.34087616 0.1302873
-0.34266534 0.33556518 -0.29175758 0.26409343 -0.016465299 -0.32486776 -0.37824336 0.028574139
-0.21181458 0.2998676 -0.23777145 -0.1684771 -0.049891964 0.09705358 0.05796434 -0.043746058
0.3302868 0.29071453 0.3338022 0.34111643 -0.29113558 0.24709196 -0.28836724 0.0039773746
0.014304751 0.24027114 -0.14765652 0.10058221 0.28529453 0.029392613 0.20395541 -0.15430623
-0.03415158 -0.017851805 -0.09449283 0.31297493 0.24479003 -0.19565633 -0.009987093 -0.16492657
-0.12024788 0.07339822 0.07197897 -0.013214156 0.1335591 -0.26703393 0.18212672 -0.18000008
0.08936625 0.20360775 -0.36345235 0.12834904 0.17590803 -0.21308951 0.13146308 -0.18063283
-0.05152006 0.054521207 -0.15393974 0.024103401 -0.36229563 -0.35511672 0.24242133 0.042299934
0.05702245 -0.15842825 0.30406317 0.13793859 -0.3084459 0.20525163 0.093197085 0.08161346
0.06836348 0.31290507 0.13041127 -0.16145769 0.24578515 0.0036633492 0.021748729 -0.33564323
00000000: 3edc 64be dafb 31be c971 a3be 5dc7 a83d
00000010: 0aed 4b3e 9661 ae3e ec69 503e fc5a 65be
00000020: 3ab8 07bc d884 883e 2408 813e a1f4 b6bb
00000030: 26b1 f4bc fec9 aa3d 17c3 4bbe bae2 82be
00000040: c9c0 5f3e 980f b2bd 6f36 8ebe f446 96be
00000050: c4b1 7fbe 8b37 dc3d 5b4d 063d 7ed0 c0be
00000060: d4e9 d53d 1c71 c23d a7af 14bb 7673 4e3d
00000070: 2fd8 213e a4c7 883e af0d 7e3e 51ca 243e
00000080: 6780 a2be 52c0 1fbe a3d0 eebd 6313 76bd
00000090: 6f73 6bbe 69b7 90be 04c3 89bc 3241 8b3e
000000a0: 2de8 b43e 4a2a 7fbe 632f c13e d061 94be
000000b0: c7c3 ed3d 7132 11bd 0f59 48be ed68 ad3e
000000c0: 4ecb 8ebd ad87 ce3d ccfe ab3e 97cd 1d3e
000000d0: 0014 b73e c756 3cbe fb22 973e 7fb8 b8be
000000e0: fb78 903d 3a24 923e cd45 b63e 14e1 c6bd
000000f0: 8c54 50be b97d 70be 8885 b3be 2d46 783e
00000100: 1609 4c3e becf a73d d8e1 99be 7151 a5be
00000110: af66 073e 321e a8bd da55 87bd c482 e5bc
00000120: 1125 a2be dc28 7fbe 1e52 c13e ab9d b83d
00000130: aa78 9abe 7747 933e dba9 b33d 40a9 bd3e
00000140: 0d7c a93e 04d0 04be f21d 653e 92ab eebd
00000150: 9e57 393e dea6 a03c 6abf 0fbe 9989 d5bc
00000160: 123b 633e f84d 91be b50f cebc e086 f9bd
00000170: 5110 a13e a9e3 cf3d f76d edbd f99b 733e
00000180: ec6e d93c e538 9fbe 5c8b b0bd 9dad 8f3d
00000190: 30d9 b43e 2f8c d4bd e560 043e 7776 9abe
000001a0: eb6a b0be 1675 cd3d 3cdf 9ebc 06c7 973e
000001b0: 2e77 9a3e 8830 be3e 818e 23be 035a 48be
000001c0: af42 273e 4a6f c33d 1956 c03e dc1e 39bc
000001d0: 543d ad3e b206 34be b519 a5be 0fe3 88be
000001e0: 7a26 26be 95bf 6dbe eafc 893e cc74 6f3d
000001f0: dc5a 8e3e 6703 193d 59fc b83e 127c 8cbe
00000200: 0584 e93d 0c21 aabe 3c9d 9abe b391 b63e
00000210: 7492 6dbc 2983 6ebe b023 4f3e 3b95 143e
00000220: 2b9b 6a3b 2333 81be 2095 3cbe 337d 173e
00000230: 1dd4 773e 7346 053e 5287 aebe 096a 053e
00000240: d571 afbe 33cf ab3e 4061 95be 4137 873e
00000250: 3ce2 86bc 1155 a6be 1da9 c1be 5014 ea3c
00000260: ece5 58be 3f88 993e 5c7a 73be 4385 2cbe
00000270: 845b 4cbd 07c4 c63d 046c 6d3d 112f 33bd
00000280: 5a1b a93e 89d8 943e 1fe8 aa3e d0a6 ae3e
00000290: b90f 95be ad05 7d3e dfa4 93be a354 823b
000002a0: 795e 6a3c a309 763e 4533 17be 0cfe cd3d
000002b0: 2012 923e c7c8 f03c b0d9 503e 7402 1ebe
000002c0: 87e2 0bbd f33d 92bc 7585 c1bd 403e a03e
000002d0: 3daa 7a3e 225a 48be e7a0 23bc 83e2 28be
000002e0: 8544 f6bd ce51 963d b669 933d 3080 58bc
000002f0: b7c3 083e acb8 88be 6d7f 3a3e f151 38be
00000300: a705 b73d 8d7e 503e 6d16 babe ee6d 033e
00000310: 3c21 343e 2334 5abe 429e 063e d0f7 38be
00000320: b306 53bd a151 5f3d 61a2 1dbe 7f74 c53c
00000330: d07e b9be dcd1 b5be 4c3d 783e b242 2d3d
00000340: 5f90 693d 043b 22be 2bae 9b3e c63f 0d3e
00000350: 9fec 9dbe 7c2d 523e 1dde be3d f524 a73d
00000360: 2702 8c3d 1835 a03e 888a 053e 2a55 25be
00000370: 1aaf 7b3e cd14 703b 642a b23c 6ed9 abbe

embedding.0.bias f4 [32]
-0.115422875 0.2409976 0.22647461 -0.11848245 -0.10908967 -0.010421385 -0.22634402 -0.15686662
-0.336208 -0.3194123 0.17358741 -0.028766908 -0.051814333 -0.22935267 -0.17415449 -0.26223528
0.27233794 -0.19657446 0.096107945 -0.3518231 0.15408479 0.0034985815 -0.24773894 0.16012599
0.26699215 -0.045201957 0.24029048 -0.3216538 -0.31083307 -0.24803978 -0.13876897 0.24283251
00000000: d462 ecbd 13c8 763e f6e8 673e eda6 f2bd
00000010: 686a dfbd 75be 2abc bac6 67be a5a1 20be
00000020: 7423 acbe 028a a3be e6c0 313e 94a8 ebbc
00000030: 443b 54bd 6ddb 6abe 8e55 32be b443 86be
00000040: e16f 8b3e d14a 49be 3ed4 c43d 2822 b4be
00000050: 67c8 1d3e 7548 653b 47af 7dbe 11f8 233e
00000060: 32b3 883e b025 39bd b50e 763e cfaf a4be
00000070: 8325 9fbe 24fe 7dbe 7419 0ebe 16a9 783e

layernorm.weight f4 [259, 32]
0.99847084 1.0000025 1.0000061 1.0000274 1.0000044 0.99999326 1.0000085 0.99999565
0.9999911 1.0 1.0 0.9999817 0.99999493 1.0000011 0.99999994 0.9999921
0.9999902 0.99999654 1.0 1.0001744 1.0000054 1.0013636 0.99795514 1.0000021
1.0011617 0.9999926 1.0013568 1.0003139 1.0 0.99999994 1.00005 1.0000001
0.99825805 0.9999346 1.0000068 1.000006 1.0008287 0.9999998 1.0000076 0.99918383
0.9993765 1.0000029 1.0 1.0003241 0.99999714 1.0000082 0.9999987 0.99963224
1.0000043 0.9999977 1.0000002 1.0000038 1.0 1.0003213 0.9975754 1.0000006
1.0010439 0.9999924 1.0002272 1.000113 1.0 1.0 0.99985546 1.0002729
1.0013862 1.0000119 1.0000063 1.0000178 0.9997868 0.9999962 1.0000073 1.000143
1.000002 1.0000002 1.0 0.9996346 0.99999535 1.0000011 0.9999999 1.0000646
0.9999988 0.9999971 1.0 1.0009911 1.0000027 0.9987293 1.002129 1.0000002
0.99796206 0.9999926 0.99912965 0.99937016 1.0 0.9999999 1.0010464 0.9999511
0.9994658 0.9999622 1.000007 1.000005 1.0007193 1.0000001 1.0000067 0.99936616
0.99932414 1.0000027 1.0 1.0001576 0.99999684 1.0000217 0.99999857 0.99987906
1.0000039 0.9999978 1.0000002 1.000017 1.0 1.0000066 0.99919206 1.0000007
0.99981624 0.99999255 0.99995095 1.0000404 0.99999994 0.99999994 1.0000606 1.0003175
1.0018427 1.0000098 1.0000066 1.0000128 0.999633 0.9999978 1.0000069 1.000212
1.0000033 1.0000005 1.0 0.9994872 0.999996 1.0000027 0.99999946 1.0001266
0.9999963 0.9999976 1.0 1.0009655 1.0000007 0.9982496 1.0027316 1.0000001
0.9971947 0.9999928 0.9987444 0.9990585 1.0 0.9999999 1.0011835 0.9999748
1.0003036 0.9999722 1.0000074 1.0000045 1.0005215 1.0000001 1.0000064 0.99948555
0.99950683 1.0000026 1.0 1.0000651 0.9999968 1.0000178 0.9999987 0.9999341
1.0000042 0.99999803 1.0000004 1.0000132 1.0 0.99982196 1.0003732 1.0000002
0.99968517 0.9999928 0.9999198 1.0000253 0.9999999 0.99999994 1.0000587 1.0002617
1.0023406 1.0000043 1.0000075 1.0000091 0.9991889 0.99999887 1.0000061 1.0004979
1.0001355 1.0000006 1.0 0.9992612 0.99999654 0.99993926 0.99999934 1.0001327
1.0000004 0.99999845 1.0 1.0007418 0.99997634 0.9979513 1.0030832 0.9999231
0.9971436 0.99999315 0.9984764 0.9989911 0.9999999 0.9999999 1.0009736 0.9997829
1.0003545 0.99997216 1.0000076 1.0000033 1.000072 1.0000004 1.0000057 0.99990386
0.9997187 1.0000019 1.0 0.99977237 0.9999968 1.0000266 0.9999986 1.0000224
1.0000046 0.99999845 1.0000002 1.0000111 0.9999986 0.9995207 1.0008805 1.0
0.999263 0.9999931 0.99963665 1.0000159 0.99999976 1.0 1.0000372 1.000169
00000000: c99b 7f3f 1500 803f 3300 803f e600 803f
00000010: 2500 803f 8fff 7f3f 4700 803f b7ff 7f3f
00000020: 6bff 7f3f 0000 803f 0000 803f cdfe 7f3f
00000030: abff 7f3f 0900 803f ffff 7f3f 7bff 7f3f
00000040: 5cff 7f3f c6ff 7f3f 0000 803f b705 803f
00000050: 2d00 803f af2c 803f fd79 7f3f 1200 803f
00000060: 1126 803f 84ff 7f3f 762c 803f 490a 803f
00000070: 0000 803f ffff 7f3f a301 803f 0100 803f
00000080: d78d 7f3f b7fb 7f3f 3900 803f 3200 803f
00000090: 281b 803f fdff 7f3f 4000 803f 83ca 7f3f
000000a0: 23d7 7f3f 1800 803f 0000 803f 9f0a 803f
000000b0: d0ff 7f3f 4500 803f eaff 7f3f e6e7 7f3f
000000c0: 2400 803f d9ff 7f3f 0200 803f 2000 803f
000000d0: 0000 803f 870a 803f 1a61 7f3f 0500 803f
000000e0: 3522 803f 80ff 7f3f 7207 803f b403 803f
000000f0: 0000 803f 0000 803f 87f6 7f3f f108 803f
00000100: 6c2d 803f 6400 803f 3500 803f 9500 803f
00000110: 07f2 7f3f c0ff 7f3f 3d00 803f b004 803f
00000120: 1100 803f 0200 803f 0000 803f 0ee8 7f3f
00000130: b2ff 7f3f 0900 803f feff 7f3f 1e02 803f
00000140: ecff 7f3f cfff 7f3f 0000 803f 7a20 803f
00000150: 1700 803f b9ac 7f3f c345 803f 0200 803f
00000160: 717a 7f3f 84ff 7f3f f6c6 7f3f b9d6 7f3f
00000170: 0000 803f feff 7f3f 4a22 803f ccfc 7f3f
00000180: fedc 7f3f 86fd 7f3f 3b00 803f 2a00 803f
00000190: 9217 803f 0100 803f 3800 803f 76d6 7f3f
000001a0: b5d3 7f3f 1700 803f 0000 803f 2a05 803f
000001b0: cbff 7f3f b600 803f e8ff 7f3f 13f8 7f3f
000001c0: 2100 803f dbff 7f3f 0200 803f 8f00 803f
000001d0: 0000 803f 3700 803f 0dcb 7f3f 0600 803f
000001e0: f5f3 7f3f 83ff 7f3f c9fc 7f3f 5301 803f
000001f0: ffff 7f3f ffff 7f3f fc01 803f 670a 803f
00000200: 623c 803f 5200 803f 3700 803f 6b00 803f
00000210: f3e7 7f3f dbff 7f3f 3a00 803f f206 803f
00000220: 1c00 803f 0400 803f 0000 803f 65de 7f3f
00000230: bdff 7f3f 1700 803f f7ff 7f3f 2604 803f
00000240: c2ff 7f3f d8ff 7f3f 0000 803f a31f 803f
00000250: 0600 803f 498d 7f3f 8259 803f 0100 803f
00000260: 2748 7f3f 87ff 7f3f b7ad 7f3f 4cc2 7f3f
00000270: 0000 803f feff 7f3f c826 803f 59fe 7f3f
00000280: f309 803f 2efe 7f3f 3e00 803f 2600 803f
00000290: 1711 803f 0100 803f 3600 803f 49de 7f3f
000002a0: aedf 7f3f 1600 803f 0000 803f 2202 803f
000002b0: caff 7f3f 9500 803f eaff 7f3f aefb 7f3f
000002c0: 2300 803f dfff 7f3f 0300 803f 6f00 803f
000002d0: 0000 803f 55f4 7f3f 3b0c 803f 0200 803f
000002e0: 5eeb 7f3f 87ff 7f3f befa 7f3f d400 803f
000002f0: feff 7f3f ffff 7f3f ec01 803f 9308 803f
00000300: b24c 803f 2400 803f 3f00 803f 4c00 803f
00000310: d8ca 7f3f edff 7f3f 3300 803f 5110 803f
00000320: 7104 803f 0500 803f 0000 803f 95cf 7f3f
00000330: c6ff 7f3f 05fc 7f3f f5ff 7f3f 5904 803f
00000340: 0300 803f e6ff 7f3f 0000 803f 4f18 803f
00000350: 73fe 7f3f bd79 7f3f 0865 803f f6fa 7f3f
00000360: ce44 7f3f 8dff 7f3f 269c 7f3f e1bd 7f3f
00000370: feff 7f3f feff 7f3f e71f 803f c6f1 7f3f
00000380: 9e0b 803f 2dfe 7f3f 4000 803f 1c00 803f
00000390: 5c02 803f 0300 803f 3000 803f b3f9 7f3f
000003a0: 91ed 7f3f 1000 803f 0000 803f 15f1 7f3f
000003b0: caff 7f3f df00 803f e9ff 7f3f bc00 803f
000003c0: 2700 803f e6ff 7f3f 0200 803f 5d00 803f
000003d0: e9ff 7f3f 97e0 7f3f da1c 803f 0000 803f
000003e0: b3cf 7f3f 8cff 7f3f 30e8 7f3f 8500 803f
000003f0: fcff 7f3f 0000 803f 3801 803f 8a05 803f

layernorm.bias f4 [259, 32]
-6.270649e-05 -3.2805785e-06 -8.096047e-05 7.6190736e-06 -5.8516387e-05 1.5936059e-05 -7.421962e-05 2.0398444e-05
5.9770206e-05 -4.1070325e-06 -1.2280237e-05 -7.784127e-05 2.8327902e-05 -3.929074e-05 2.7167378e-06 7.7158256e-05
7.020068e-05 -1.4875973e-05 1.7579736e-05 -4.487975e-06 -7.3229734e-05 8.031416e-05 -5.2672043e-05 -3.9428094e-05
8.7071305e-05 7.199227e-05 6.670333e-05 7.0611015e-05 -2.066264e-05 5.4141474e-05 -8.351505e-06 -5.258378e-05
-8.642867e-05 -9.937163e-06 -3.8616225e-05 -3.1576175e-05 -2.3485609e-05 4.0331397e-05 -5.2292926e-05 4.2225685e-05
5.390778e-05 8.965998e-06 2.8610822e-05 -7.851963e-05 -1.5711788e-06 -6.658193e-05 6.8957024e-07 4.721012e-05
0.0001122008 1.0609626e-05 -1.3378451e-05 1.542036e-05 -0.00010906656 8.584688e-05 -4.360626e-05 -6.3871485e-05
3.5971311e-06 7.66085e-05 7.227488e-05 0.0001207354 -4.8921836e-05 6.4571715e-05 -2.211793e-05 -0.00011405794
-4.4102442e-05 -2.915202e-05 -0.00012064564 5.032607e-05 -0.0001264252 -3.6839483e-05 -9.0546535e-05 2.7441114e-05
9.097116e-05 -5.4438387e-05 -4.573159e-05 -9.31942e-05 9.595403e-05 -1.3622453e-05 3.8349288e-05 0.00013510382
4.6479618e-05 -2.4593528e-05 -1.8339629e-06 -4.359211e-05 -6.523711e-06 1.9218975e-05 -6.7210894e-05 -1.5621234e-05
0.00016174246 3.65801e-05 8.400007e-05 -2.5059438e-05 3.0966017e-05 -1.7488985e-05 -2.1704433e-05 6.967519e-06
-5.6306042e-05 -3.3042805e-05 -8.6978194e-05 -1.5529846e-05 -5.6673616e-05 -1.0309216e-06 -6.2347615e-05 3.8078248e-05
6.771892e-05 -2.8607832e-05 -3.2852906e-06 -7.3809664e-05 2.4196263e-05 -4.8157515e-05 2.052806e-05 6.845073e-05
8.133864e-05 -6.703956e-06 2.547551e-06 -1.0669863e-05 -5.9991147e-05 5.1689636e-05 -4.1056057e-05 -4.8614816e-05
5.5802997e-05 4.7353868e-05 8.212262e-05 6.167644e-05 -8.658521e-06 3.3728982e-05 -2.9153469e-05 -7.197314e-05
-3.0397183e-05 -4.9249276e-05 -0.00014319623 6.8529924e-05 -0.00015081793 -6.414079e-05 -0.0001026651 3.4935212e-05
0.00010163156 -7.639253e-05 -5.762821e-05 -0.000100835845 0.0001191173 1.5320004e-06 4.5506942e-05 0.00015362156
4.1498104e-05 -1.9107969e-05 -4.932736e-06 -6.54312e-05 2.3342096e-05 -1.2478479e-06 -7.429511e-05 -7.2353128e-06
0.00018141411 2.0173176e-05 9.196259e-05 -6.140443e-05 4.247859e-05 -4.076193e-05 -3.6813708e-05 2.6370679e-05
-4.2916035e-05 -6.3110005e-05 -0.000115369614 -1.1607076e-05 -5.779509e-05 -4.182734e-05 -8.2081606e-05 3.335709e-05
8.460495e-05 -5.9906648e-05 -1.4266527e-05 -6.664805e-05 5.2618176e-05 -3.8920596e-05 3.3035296e-05 6.223558e-05
6.4212974e-05 -1.3521632e-05 1.1876101e-05 -3.4818764e-05 -2.5828745e-05 4.856463e-05 -1.9345058e-05 -3.6580685e-05
7.803206e-05 3.727279e-05 8.545886e-05 2.8297016e-05 7.53115e-06 1.4291932e-05 -4.0689847e-05 -5.5667108e-05
-6.1033275e-06 -6.3184845e-05 -0.00014953854 6.6835964e-05 -0.0001763219 -8.775403e-05 -9.100858e-05 5.2271414e-05
0.000113753806 -0.00010246686 -5.3149808e-05 -8.5011874e-05 0.00013321142 -5.7981138e-06 6.591336e-05 0.0001718315
2.5686502e-05 -3.207423e-05 -9.271938e-06 -6.8049965e-05 3.4914574e-05 -2.4295063e-05 -5.7342462e-05 8.197224e-06
0.0001724762 7.028707e-07 0.000105893945 -8.1663806e-05 4.6691464e-05 -7.497578e-05 -4.0738196e-05 4.5497058e-05
-1.5110054e-05 -9.907029e-05 -0.00017018871 4.545204e-06 -8.93328e-05 -9.271894e-05 -9.156103e-05 4.2921034e-05
0.00010385492 -0.0001051156 -3.7881855e-05 -5.4817676e-05 7.942969e-05 -2.2186581e-05 4.42931e-05 7.770642e-05
2.6730995e-05 -1.5952268e-05 4.5296034e-05 -7.118366e-05 1.5164687e-05 3.383414e-05 1.2505577e-05 -3.3710065e-05
0.00010761892 5.5548785e-06 8.521572e-05 -2.756847e-05 3.5652385e-05 -1.080931e-05 -5.889498e-05 -2.809088e-05
00000000: 4a81 83b8 e927 5cb6 52c9 a9b8 58a7 ff36
00000010: 7e6f 75b8 6dae 8537 5ba6 9bb8 531d ab37
00000020: c5b1 7a38 24cf 89b6 3707 4eb7 b73e a3b8
00000030: b5a1 ed37 1ccc 24b8 3351 3636 06d0 a138
00000040: b438 9338 d193 79b7 3278 9337 6997 96b6
00000050: ea92 99b8 566e a838 2dec 5cb8 985f 25b8
00000060: 0d9a b638 8efa 9638 14e3 8b38 0015 9438
00000070: ae54 adb7 f715 6338 711d 0cb7 678d 5cb8
00000080: 0a41 b5b8 cab7 26b7 dbf7 21b8 a970 04b8
00000090: f602 c5b7 8229 2938 1a55 5bb8 7c1b 3138
000000a0: 0a1b 6238 ab6c 1637 4601 f037 e8aa a4b8
000000b0: 4be1 d2b5 e7a1 8bb8 e81a 3935 7b03 4638
000000c0: 594d eb38 ffff 3137 0274 60b7 f95a 8137
000000d0: aaba e4b8 b108 b438 dde5 36b8 bef2 85b8
000000e0: 3e66 7136 e0a8 a038 4892 9738 5333 fd38
000000f0: 6c31 4db8 ad6a 8738 e589 b9b7 6432 efb8
00000100: a3fa 38b8 7c8b f4b7 2303 fdb8 3515 5338
00000110: 0291 04b9 1884 1ab8 cde3 bdb8 5831 e637
00000120: c5c7 be38 c654 64b8 eccf 3fb8 4171 c3b8
00000130: ed3a c938 fd8b 64b7 3cd9 2038 a8aa 0d39
00000140: 1cf3 4238 334e ceb7 7c26 f6b5 acd6 36b8
00000150: 40e6 dab6 6f38 a137 93f3 8cb8 580a 83b7
00000160: 6999 2939 956d 1938 3229 b038 bc36 d2b7
00000170: 82e1 0138 4fb5 92b7 ea11 b6b7 88ca e936
00000180: 272a 6cb8 7197 0ab8 1068 b6b8 1746 82b7
00000190: d5b4 6db8 325e 8ab5 9fc0 82b8 35b6 1f38
000001a0: 5104 8e38 dafa efb7 dd78 5cb6 43ca 9ab8
000001b0: 14f9 ca37 bdfc 49b8 ac33 ac37 358d 8f38
000001c0: 5a94 aa38 8bf2 e0b6 98f6 2a36 b602 33b7
000001d0: 019f 7bb8 53cd 5838 9b33 2cb8 c3e7 4bb8
000001e0: 030e 6a38 d49d 4638 3f39 ac38 4958 8138
000001f0: 1144 11b7 3878 0d38 998e f4b7 49f0 96b8
00000200: 74fd feb7 0291 4eb8 f226 16b9 b9b7 8f38
00000210: e124 1eb9 5383 86b8 e84d d7b8 6687 1238
00000220: 0723 d538 ed34 a0b8 d2b5 71b8 d577 d3b8
00000230: 9dce f938 229f cd35 b5de 3e38 7915 2139
00000240: 400e 2e38 0d4a a0b7 e183 a5b6 1c38 89b8
00000250: c5ce c337 ba7b a7b5 e2ce 9bb8 ddc6 f2b6
00000260: fb39 3e39 9139 a937 0adc c038 41c6 80b8
00000270: 0a2b 3238 caf7 2ab8 6b68 1ab8 9a36 dd37
00000280: be00 34b8 ed59 84b8 97f2 f1b8 03bc 42b7
00000290: 0169 72b8 c46f 2fb8 3a23 acb8 e7e8 0b38
000002a0: f06d b138 4644 7bb8 445a 6fb7 66c5 8bb8
000002b0: 56b2 5c38 ac3e 23b8 618f 0a38 7984 8238
000002c0: 14aa 8638 f8da 62b7 773f 4737 5d0a 12b8
000002d0: cfaa d8b7 e0b1 4b38 3247 a2b7 366e 19b8
000002e0: 25a5 a338 5b55 1c38 6038 b338 615f ed37
000002f0: 16b4 fc36 61c7 6f37 64aa 2ab8 1a7c 69b8
00000300: 2fcb ccb6 1b82 84b8 72cd 1cb9 492a 8c38
00000310: 0de3 38b9 9608 b8b8 dcdb beb8 013e 5b38
00000320: 1c8f ee38 7ae3 d6b8 2ced 5eb8 6748 b2b8
00000330: abae 0b39 6b8d c2b6 f73a 8a38 ab2d 3439
00000340: 5879 d737 7187 06b8 ac8e 1bb7 0cb6 8eb8
00000350: 3d71 1238 40cd cbb7 0083 70b8 cf86 0937
00000360: bada 3439 e8ac 3c35 6113 de38 ec42 abb8
00000370: 94d6 4338 513c 9db8 4ede 2ab8 18d4 3e38
00000380: 3081 7db7 f5c3 cfb8 af74 32b9 0183 9836
00000390: 2f58 bbb8 1a72 c2b8 7404 c0b8 1c06 3438
000003a0: b0cc d938 8271 dcb8 55e3 1eb8 08ec 65b8
000003b0: 7d93 a638 521d bab7 5bc7 3938 51f6 a238
000003c0: 603c e037 3cd1 85b7 3ffc 3d38 7048 95b8
000003d0: d66b 7e37 22e9 0d38 0bcf 5137 e863 0db8
000003e0: 78b1 e138 0b64 ba36 d7b5 b238 d742 e7b7
000003f0: 7589 1538 a259 35b7 0106 77b8 b5a4 ebb7

fc.0.weight f4 [32, 32]
-0.08909879 0.125245 0.11072328 0.12714054 -0.08541431 -0.029062213 -0.013106347 0.1686927
0.11564345 -0.005598329 -0.06088606 0.14279269 0.14594686 -0.039802447 -0.10846166 0.098178074
-0.09703969 0.08833902 0.055847213 -0.037198063 -0.059165258 0.12036835 0.14490406 -0.022331253
-0.16955759 0.08680518 -0.15495367 -0.17032716 -0.10159578 -0.09085383 -0.113794744 -0.13210763
-0.10458839 -0.15923752 -0.098232955 0.119985655 -0.16831303 -0.14765902 0.1672862 -0.15167026
-0.1700304 0.09771877 0.1755704 -0.17403921 0.038886566 -0.08074852 -0.14924072 0.13859592
0.13237852 0.15203859 0.083475925 0.13901052 0.16959716 -0.09530723 -0.09279752 -0.17140022
-0.034908134 -0.092815086 -0.07533349 0.033088725 0.014474427 0.048755873 0.17653424 -0.060604505
0.03143682 -0.11870856 0.112148285 0.010031928 0.084614515 -0.16918986 0.018862385 0.12933713
0.024521386 -0.14431636 0.058671247 0.025028637 0.07075373 -0.062066924 0.11070206 -0.03503228
0.005744468 0.13036081 -0.15928788 -0.025991207 0.1710018 -0.09667724 0.16012157 -0.09756667
0.0033397325 -0.11343978 0.047560867 -0.14563002 0.16098967 -0.13406567 -0.14960109 -0.16938454
-0.01934513 -0.08663224 0.14437523 -0.12096638 -0.16498342 0.15146771 0.064308666 0.057445034
0.16300575 0.16789064 0.082308605 -0.17474374 -0.13275789 0.07384222 0.110151425 -0.12143904
-0.07584709 0.08788208 -0.0325539 0.15917264 -0.11912577 0.115306765 0.15861948 -0.1627077
-0.05884801 -0.09623032 -0.07349916 0.09342792 0.14130832 0.07030213 -0.065738186 0.056489367
-0.017793713 0.008439779 0.16580431 0.11120204 -0.121944286 0.10812531 0.09188022 -0.005677903
-0.09382328 -0.11711525 0.08754315 -0.0948829 0.06268201 -0.03683832 0.09004618 0.14245246
0.11086776 -0.16923527 -0.13220939 -0.018595623 -0.09805481 -0.019145742 0.006739941 0.07212974
0.07154426 0.1370989 0.075848736 -0.06331235 -0.07870979 -0.08557005 0.06000345 0.15613012
0.001395618 -0.051128883 -0.048300143 0.1552673 -0.07276397 -0.029970042 -0.16710573 -0.14001729
-0.1328547 0.17313078 0.07540463 0.0037132825 0.17406784 -0.13937314 0.10551525 0.072326966
-0.14533538 0.14546585 0.00837465 -0.09702481 0.14631906 0.09953585 -0.10340659 0.013956228
0.17153956 -0.1498995 -0.010983285 -0.026317444 -0.1625823 -0.06869622 0.16138828 0.07256681
0.0022192532 0.13048989 0.09501088 0.12342219 -0.03293012 0.17059056 0.15372825 0.12392373
-0.061906032 0.12625362 0.0807144 -0.037642814 -0.088450015 -0.03661644 -0.09304551 0.071221255
0.08448177 0.17113967 0.039996866 0.02186194 -0.16246168 -0.13385 -0.16451402 -0.10763089
-0.14479604 -0.1673016 -0.00895206 0.15698934 0.045755964 0.0865736 0.03634505 -0.05621313
-0.16108395 -0.112755015 -0.10986925 -0.06236188 -0.07437916 0.13331015 0.06779082 0.012839753
0.10841585 -0.08127551 -0.07189173 0.11268865 0.12093301 -0.17634255 0.16732228 -0.049879022
0.08075536 -0.041162923 0.14744097 0.0065041147 -0.08340598 -0.10322489 0.12529302 0.012175553
0.06265244 0.11286136 0.03184389 -0.13146798 0.07370387 0.037070293 0.16801086 0.084136866
00000000: 6d79 b6bd 3a40 003e e3c2 e23d 2131 023e
00000010: b3ed aebd e113 eebc 01bc 56bc c7bd 2c3e
00000020: 79d6 ec3d 3072 b7bb a963 79bd 3f38 123e
00000030: 1873 153e e407 23bd 2621 debd 9611 c93d
00000040: bfbc c6bd 17eb b43d 0cc0 643d ff5c 18bd
00000050: 4557 72bd ae83 f63d bb61 143e 08f0 b6bc
00000060: 81a0 2dbe eac6 b13d 2dac 1ebe 3e6a 2ebe
00000070: 7311 d0bd 9311 babd 380d e9bd 3947 07be
00000080: 7032 d6bd 290f 23be 5c2e c9bd 0abb f53d
00000090: 405a 2cbe ed33 17be 134d 2b3e 734f 1bbe
000000a0: 731c 2ebe c720 c83d bac8 333e 5637 32be
000000b0: 8547 1f3d 7b5f a5bd 8fd2 18be 17ec 0d3e
000000c0: 3c8e 073e 01b0 1b3e 6df5 aa3d c658 0e3e
000000d0: e1aa 2d3e 7030 c3bd a00c bebd 8a83 2fbe
000000e0: d5fb 0ebd d615 bebd 7248 9abd 0b88 073d
000000f0: 2626 6d3c 3db4 473d 64c5 343e 6e3c 78bd
00000100: e5c3 003d 791d f3bd 00ae e53d f55c 243c
00000110: 604a ad3d 1b40 2dbe 4a85 9a3c f470 043e
00000120: 13e1 c83c abc7 13be 4351 703d db08 cd3c
00000130: 55e7 903d e339 7ebd c3b7 e23d 027e 0fbd
00000140: 173c bc3b 4e7d 053e 5d1c 23be 83eb d4bc
00000150: 191b 2f3e b8fe c5bd e9f6 233e 09d1 c7bd
00000160: 6adf 5a3b 1e53 e8bd 2fcf 423d 0920 15be
00000170: 7ada 243e 8348 09be 0731 19be 2473 2dbe
00000180: ae79 9ebc 3e6c b1bd 1ad7 133e 39bd f7bd
00000190: 6af1 28be 5a1a 1b3e 43b4 833d 7c4b 6b3d
000001a0: fbea 263e 86eb 2b3e 6a91 a83d 06f0 32be
000001b0: aff1 07be 973a 973d 1297 e13d 08b5 f8bd
000001c0: b855 9bbd 85fb b33d 3d57 05bd 27fe 223e
000001d0: 36f8 f3bd f425 ec3d 256d 223e d99c 26be
000001e0: 9c0a 71bd 6714 c5bd ba86 96bd 2357 bf3d
000001f0: 21b3 103e 90fa 8f3d bea1 86bd 6561 673d
00000200: 1fc4 91bc 0047 0a3c 9bc8 293e e5bd e33d
00000210: edbd f9bd cd70 dd3d b22b bc3d b40d babb
00000220: 6b26 c0bd 1fda efbd d349 b33d f751 c2bd
00000230: 6d5f 803d c7e3 16bd 226a b83d 0fdf 113e
00000240: a30e e33d 034c 2dbe e661 07be d955 98bc
00000250: f6d0 c8bd 88d7 9cbc b9da dc3b c2b8 933d
00000260: cc85 923d a763 0c3e 9556 9b3d e8a9 81bd
00000270: 9932 a1bd 5a3f afbd 2dc6 753d 93e0 1f3e
00000280: 2bed b63a 856c 51bd 5fd6 45bd 64fe 1e3e
00000290: 4705 95bd bc83 f5bc c41d 2bbe b160 0fbe
000002a0: 100b 08be 3249 313e be6d 9a3d 8b5a 733b
000002b0: d73e 323e d5b7 0ebe 6118 d83d 2920 943d
000002c0: ccd2 14be 00f5 143e d435 093c f2b4 c6bd
000002d0: aad4 153e 74d9 cb3d d6c6 d3bd aaa8 643c
000002e0: 11a8 2f3e 417f 19be 3cf3 33bc ae97 d7bc
000002f0: f97b 26be 9bb0 8cbd f842 253e e89d 943d
00000300: e470 113b 249f 053e 1095 c23d c6c4 fc3d
00000310: bce1 06bd 4baf 2e3e f06a 1d3e b9cb fd3d
00000320: 2e91 7dbd a148 013e 974d a53d 5a2f 1abd
00000330: 4825 b5bd 1ffb 15bd a58e bebd 73dc 913d
00000340: c704 ad3d 3d3f 2f3e c1d3 233d d017 b33c
00000350: 5b5c 26be f90f 09be 5d76 28be 966d dcbd
00000360: 6a45 14be 1c51 2bbe a9ab 12bc d0c1 203e
00000370: 9b6a 3b3d 804d b13d 8cde 143d bd3f 66bd
00000380: 31f3 24be 1aec e6bd 2103 e1bd 2c6f 7fbd
00000390: 1a54 98bd 7582 083e ead5 8a3d d45d 523c
000003a0: 2109 de3d c673 a6bd f93b 93bd 4fc9 e63d
000003b0: baab f73d 2493 34be 8856 2b3e f24d 4cbd
000003c0: 1163 a53d 749a 28bd c4fa 163e 7820 d53b
000003d0: c1d0 aabd 9267 d3bd d04c 003e f87b 473c
000003e0: ec4f 803d db23 e73d bd6e 023d 8b9f 06be
000003f0: 0ef2 963d 05d7 173d 0a0b 2c3e f34f ac3d

fc.0.bias f4 [32]
-0.1368641 0.14455655 -0.14747761 0.15351672 -0.10163704 -0.043139726 -0.112876505 -0.13428126
-0.12395571 0.06439412 0.10063963 0.14873284 -0.07599517 0.021388363 0.15626574 0.14648011
-0.02989677 -0.16261679 0.08767063 0.07822186 -0.06815663 -0.10503085 0.085491896 0.013158773
-0.16717744 -0.11017037 -0.027744027 -0.16640949 -0.036795467 -0.0127279125 0.11908904 -0.06538095
00000000: 1a26 0cbe a206 143e 5f04 17be 7d33 1d3e
00000010: 1527 d0bd 48b3 30bd cc2b e7bd 0781 09be
00000020: 7edc fdbd 10e1 833d 261c ce3d 6c4d 183e
00000030: 5ba3 9bbd a636 af3c 2004 203e e2fe 153e
00000040: 12ea f4bc 0485 26be a98c b33d c832 a03d
00000050: b495 8bbd 6a1a d7bd 6016 af3d e597 573c
00000060: 9030 2bbe 01a1 e1bd 7147 e3bc 4067 2abe
00000070: d8b6 16bd bc88 50bc f4e4 f33d 73e6 85bd

output_layer.0.weight f4 [1, 32]
0.12623774 0.07899385 0.17349742 -0.041528594 0.1429241 0.059576295 0.1605907 -0.10327152
-0.14054689 0.06937254 -0.0056628846 0.1401394 -0.11326203 0.12799288 -0.052160315 -0.18762054
-0.13018797 -0.009747596 0.0013511466 0.076789655 0.10198083 -0.07648369 0.09672151 0.10333986
-0.13000691 -0.09979027 -0.17160384 -0.032927357 0.009933754 -0.038309027 0.09237289 0.16156255
00000000: 7744 013e 87c7 a13d 4fa9 313e e319 2abd
00000010: b25a 123e 4606 743d e371 243e 0580 d3bd
00000020: 86eb 0fbe 3113 8e3d b88f b9bb b480 0f3e
00000030: ecf5 e7bd 9110 033e 0ea6 55bd 991f 40be
00000040: ff4f 05be 62b4 1fbc f518 b13a e543 9d3d
00000050: 53db d03d 7ba3 9cbd ed15 c63d d9a3 d33d
00000060: 8820 05be d75e ccbd ebb8 2fbe d6de 06bd
00000070: 2fc1 223c ede9 1cbd ff2d bd3d a770 253e
