no-mask/model_epoch_0_140.pth (torch, 154675 bytes, 7 tensors)

embedding.0.weight f4 [64, 7]
0	0x3e03f6ed	0.12887163
1	0x3cf87a3b	0.030331722
2	0xbe73c0fe	-0.2380409
3	0xbe8a3ab1	-0.26997903
4	0xbeb84ca5	-0.35995975
5	0xbea8fe89	-0.33006695
6	0x3b2b7967	0.002616489
7	0x3d2f0b0b	0.04273514
8	0xbe8a86e6	-0.27056044
9	0xbe98d5de	-0.29850668
10	0xbebcedb7	-0.36900112
11	0xbe9512a7	-0.29115793
12	0x3e587a34	0.21140367
13	0xbe3d0df3	-0.18462352
14	0xbe9c57b8	-0.30535674
15	0x3d92ec72	0.071740046
16	0xbc31b1e3	-0.010845634
17	0xbead8e7a	-0.33897763
18	0xbddfc3b6	-0.10926001
19	0xbe144e5d	-0.14483018
20	0x3d996bc1	0.074912556
21	0xbe377c65	-0.17918546
22	0xbea2ed9e	-0.31821913
23	0xbd9a9133	-0.07547226
24	0x3db3ea3c	0.08784911
25	0x3e3b16b3	0.18270378
26	0x3d928bb1	0.0715555
27	0xbe466863	-0.19375758
28	0xbe69d220	-0.22834063
29	0xbc9bd152	-0.01902071
30	0x3b61dad0	0.0034462698
31	0xbe9c9384	-0.30581295
32	0xbe00c63f	-0.12575625
33	0xbe5c8701	-0.21535875
34	0x3e8d41d5	0.27589288
35	0x3e882b0e	0.26595348
36	0xbe999e70	-0.3000369
37	0x3e8217a3	0.25408658
38	0x3d8798cb	0.0662094
39	0xbd1aa4c1	-0.037754778
40	0xbeb2d907	-0.34931204
41	0xbebd98ac	-0.37030542
42	0x3e1c7c1c	0.15281719
43	0x3e9450e0	0.28967953
44	0xbe552345	-0.20814236
45	0xbe33f5a3	-0.17574172
46	0x3c4e14a9	0.012578168
47	0xbeab6b4f	-0.33480307
48	0xbd24c408	-0.040226012
49	0x3e27c7f1	0.16384865
50	0xbe2ab324	-0.16669899
51	0x3dcefc89	0.10106761
52	0x3d7e1ddd	0.0620402
53	0x3e00292f	0.1251571
54	0x3e6c7e63	0.23095088
55	0x3e66deed	0.22545977
56	0x3e189b99	0.14903106
57	0x3d2f6b3e	0.042826883
58	0x3e861e44	0.26194966
59	0x3ddee9ce	0.108844385
60	0x3e4024ee	0.18764088
61	0x3dae4520	0.08509278
62	0x3ca7d394	0.02048663
63	0xbea84158	-0.32862353
64	0x3e4b2a46	0.19840345
65	0xbe97d0c8	-0.29651475
66	0xbd835d85	-0.06414322
67	0xbeb4cbda	-0.35311776
68	0xbeb2c54c	-0.3491615
69	0xbe9b6bd0	-0.30355692
70	0x3dc88cda	0.0979249
71	0x3e96088d	0.293034
72	0xbe88c443	-0.26712236
73	0xbea30f73	-0.31847724
74	0xbe91eaef	-0.28499553
75	0x3e858317	0.26076576
76	0x3e667443	0.22505288
77	0xbe8609ce	-0.26179355
78	0x3e6098dd	0.21933313
79	0x3dd6bc1d	0.104850985
80	0x3ebdf48b	0.37100634
81	0xbe83f2d9	-0.25771216
82	0xbe90b2f6	-0.28261536
83	0x3e943bd8	0.28951907
84	0x3e26ccff	0.16289137
85	0xbdb15cad	-0.086602546
86	0x3e925ecf	0.28587958
87	0xbe307b65	-0.17234571
88	0x3de3b240	0.11117983
89	0xbb18fa45	-0.0023342532
90	0x3db76237	0.0895428
91	0xbeb05844	-0.3444234
92	0xbe8009e3	-0.25007543
93	0xbe008553	-0.12550859
94	0xbe7fda87	-0.24985705
95	0x3e9b1d2d	0.30295697
96	0x3c4551b7	0.012043408
97	0x3ddd6e09	0.10812003
98	0x3e66f621	0.22554828
99	0x3e4b56d7	0.19857346
100	0xbd83d038	-0.06436199
101	0x3e8b55af	0.2721381
102	0x3dbb652b	0.09150156
103	0xbeae1075	-0.3399693
104	0x3eace2de	0.33766836
105	0xbd94fb31	-0.072744735
106	0xbb9da406	-0.004810813
107	0x3e268eae	0.16265365
108	0xbe9738f7	-0.29535648
109	0x3ead5d76	0.33860368
110	0xbd4262c1	-0.04745746
111	0xbe404065	-0.18774565
112	0x3d7da8a0	0.06192839
113	0xbe4d3b3e	-0.2004213
114	0xbe0afa9d	-0.13572164
115	0x3d7cfc48	0.06176403
116	0xbeb44e3d	-0.3521594
117	0x3df8b3db	0.1214368
118	0x3dfbb8e1	0.12291122
119	0xbe9d5d7c	-0.30735385
120	0xbd7ccbc6	-0.06171777
121	0xbea2b14f	-0.317759
122	0x3d2ea9ed	0.042642523
123	0xbb96d8a1	-0.004603461
124	0x3e5cb14d	0.2155201
125	0xbebd99ee	-0.37031502
126	0x3e889920	0.26679325
127	0x3e37392a	0.178929
128	0xbe363ffc	-0.17797846
129	0x3eb322d6	0.34987515
130	0xbe035b35	-0.12827761
131	0x3e0ce632	0.13759688
132	0x3e596f92	0.21233967
133	0x3ea99049	0.33117893
134	0xbe9a8922	-0.3018275
135	0x3e81cc25	0.25351062
136	0x3ea5c121	0.32373908
137	0xbe8c758a	-0.27433425
138	0xbe3a4c17	-0.18193088
139	0x3d4ae7e7	0.049537566
140	0xbe12575a	-0.14291134
141	0xbe3a2245	-0.18177135
142	0x3e4d280d	0.2003481
143	0x3dbba1fa	0.09161754
144	0x3c895275	0.016762951
145	0x3d9609f0	0.07326114
146	0x3d6c63b8	0.057712287
147	0xbb80df2d	-0.0039328546
148	0xbd6ba666	-0.057531737
149	0x3eb87e4a	0.3603385
150	0xbea91453	-0.3302332
151	0xbea05fbe	-0.31323045
152	0x3ebe6323	0.3718501
153	0x3e839dcd	0.2570633
154	0x3ebab8df	0.3646917
155	0xbe2a8ce2	-0.16655305
156	0x3e4e0560	0.20119238
157	0xbe8bf610	-0.27336168
158	0x3d4f7aec	0.050654337
159	0xbebad481	-0.36490253
160	0x3bf85723	0.007578747
161	0x3ea26900	0.31720734
162	0x3e964382	0.2934838
163	0x3e5158a0	0.20443964
164	0x3dfc75a3	0.12327125
165	0x3ea34aec	0.31893098
166	0x3decea1e	0.11568092
167	0x3dfcab6e	0.12337385
168	0x3d57f2e1	0.05272186
169	0xba8eb60c	-0.0010887994
170	0xbe78db02	-0.24302295
171	0xbe6490a2	-0.22320798
172	0xbe9f23da	-0.3108204
173	0x3e592198	0.21204221
174	0x3d302911	0.043007914
175	0x3e23cb76	0.15995583
176	0x3da84ccb	0.08217772
177	0xbc230874	-0.009950746
178	0x3d946072	0.07244958
179	0xbe86c17c	-0.26319492
180	0x3e05c8dc	0.13064903
181	0xbdbb6f1f	-0.09152054
182	0xbe02b8c3	-0.12765794
183	0x3e873231	0.2640548
184	0x3eacf4cd	0.33780518
185	0xbe81b448	-0.25332856
186	0x3cc6e5dc	0.024279527
187	0x3e4a8edc	0.19781059
188	0xbd3412f8	-0.043963403
189	0xbdd54919	-0.10414333
190	0xbdda36df	-0.10654997
191	0xbe1fd696	-0.15609202
192	0x3e57943a	0.21052638
193	0xbe9d5573	-0.30729255
194	0xbd63b5b4	-0.055593207
195	0xbcbec046	-0.023285042
196	0xbe39cbd8	-0.18144166
197	0xbdad8117	-0.084718876
198	0xbe415641	-0.1888056
199	0xbb9be6a1	-0.0047577177
200	0x3cdc0711	0.026858838
201	0xbea283fa	-0.31741315
202	0x3e58e54f	0.21181224
203	0xbe13e291	-0.14441897
204	0x3d076205	0.033052463
205	0x3e7ad062	0.24493554
206	0x3e1ff44e	0.15620539
207	0x3db14b27	0.08656912
208	0xbddea4b0	-0.108712554
209	0x3d8c04ce	0.06836854
210	0xbdfb710d	-0.12277422
211	0xbdef9fc8	-0.11700398
212	0x3e13674e	0.14394876
213	0x3ebc4117	0.3676841
214	0x3e0c0cc1	0.1367674
215	0xbdae5f1e	-0.08514236
216	0xbe389ed5	-0.1802934
217	0xbe3f14a7	-0.18660222
218	0xbe6c556b	-0.2307946
219	0xbeb01e1a	-0.34397966
220	0xbc671a42	-0.014105381
221	0xbdd6ed22	-0.10494448
222	0xbdc94b4b	-0.09828814
223	0x3e6e3679	0.23262967
224	0xbe8592b1	-0.2608848
225	0xbe8953b1	-0.26821664
226	0xbebb7aa0	-0.36616993
227	0xbe58145a	-0.21101514
228	0xbcb1f169	-0.021721559
229	0xbea2945b	-0.3175381
230	0xbe182555	-0.14857991
231	0xbe20a825	-0.15689142
232	0x3e9db086	0.3079874
233	0xbd3a5847	-0.045494344
234	0x3e2452be	0.16047189
235	0xbe25888d	-0.16165371
236	0x3eaf278e	0.34209865
237	0xbe8b0cd4	-0.27158225
238	0x3e96291e	0.29328245
239	0x3e9d8d53	0.30771884
240	0x3e9055cb	0.28190455
241	0xbe78f0d9	-0.24310626
242	0x3d8c5947	0.06852966
243	0x3dc71894	0.09721485
244	0xbe89d989	-0.2692378
245	0xbc0f2e87	-0.00873912
246	0x3e5aab30	0.21354365
247	0xbdb02b35	-0.08601991
248	0x3ca3af37	0.01998101
249	0x3b0a05f3	0.0021060675
250	0x3e84caa5	0.25935856
251	0x3daba410	0.08380902
252	0x3e07aca5	0.13249452
253	0xbead83cf	-0.33889624
254	0xbe8464bf	-0.25858113
255	0xbe85854b	-0.26078257

embedding.0.bias f4 [64]
0	0xbdc90e04	-0.098171264
1	0x3e282d61	0.1642356
2	0x3e94bf48	0.29052186
3	0xbe655c97	-0.22398601
4	0x3d936f68	0.071989834
5	0xbea72d60	-0.32651806
6	0xbd8917a3	-0.066939615
7	0x3e0fb5ae	0.14034149
8	0xbe8b4017	-0.27197334
9	0x3d2e1592	0.04250104
10	0x3d98a152	0.074526444
11	0x3e8d4920	0.27594852
12	0x3e83b788	0.2572596
13	0xbd1b1629	-0.03786293
14	0xbe955657	-0.29167435
15	0x3c60ed82	0.013728501
16	0xbdc6e6aa	-0.097119644
17	0xbeb9e2fc	-0.36305988
18	0x3c636633	0.013879347
19	0x3e84241b	0.25808796
20	0x3e0ea7e9	0.1393124
21	0xbd4fa8d8	-0.05069813
22	0xbe9ad257	-0.30238602
23	0x3e0c2c3f	0.13688754
24	0xbe48c892	-0.19607762
25	0xbebbf27c	-0.36708438
26	0x3cd81128	0.026375368
27	0xbebc5243	-0.3678151
28	0x3e39e464	0.1815353
29	0xbd98b083	-0.07455542
30	0x3e5070c1	0.20355512
31	0x3de5e8c6	0.11226039
32	0xbdc60e1d	-0.09670661
33	0xbe0f6941	-0.14004995
34	0x3d12d53d	0.03584789
35	0xbde38ea4	-0.11111191
36	0x3e90861d	0.2822732
37	0x3de768ee	0.112993106
38	0x3d6bc10a	0.057557143
39	0x3e591e43	0.2120295
40	0xbdf88f85	-0.12136749
41	0x3dc42f40	0.09579325
42	0xbe405f0f	-0.18786262
43	0x3e5b4438	0.21412742
44	0xbeb0b6fe	-0.34514612
45	0xbe1c95ca	-0.15291515
46	0x3d09cc79	0.033642266
47	0x3d26e70a	0.04074768
48	0xbe9aaf51	-0.3021188
49	0x3e36ca04	0.178505
50	0x3e1b678e	0.15176222
51	0x3e33ac68	0.17546237
52	0xbe127d68	-0.14305651
53	0x3de90fd0	0.11379969
54	0x3eaaaa95	0.3333327
55	0xbe707e40	-0.2348566
56	0xbea5cc3e	-0.32382387
57	0xbebf39cf	-0.37348792
58	0x3cd8f245	0.02648271
59	0x3e249f9c	0.16076511
60	0x3e2879eb	0.16452758
61	0x3d99f831	0.07518042
62	0xbead0b0b	-0.33797488
63	0xbea346b3	-0.31889877

layernorm.weight f4 [259, 64]
0	0x3f7fffc6	0.99999654
1	0x3f80005b	1.0000108
2	0x3f7fffdc	0.99999785
3	0x3f7fffec	0.9999988
4	0x3f7ffbb1	0.99993426
5	0x3f800003	1.0000004
6	0x3f7ffff0	0.99999905
7	0x3f7ffb84	0.9999316
8	0x3f7fff6a	0.99999106
9	0x3f80004e	1.0000093
10	0x3f7ffa3f	0.9999122
11	0x3f80013a	1.0000374
12	0x3f7ffffa	0.99999964
13	0x3f800032	1.000006
14	0x3f8001fe	1.0000608
15	0x3f7fff58	0.99999
16	0x3f800001	1.0000001
17	0x3f7ffe88	0.9999776
18	0x3f7ff3a7	0.9998116
19	0x3f800006	1.0000007
20	0x3f800001	1.0000001
21	0x3f7ffae8	0.9999223
22	0x3f800009	1.0000011
23	0x3f800591	1.0001699
24	0x3f7ffe19	0.999971
25	0x3f800026	1.0000045
26	0x3f7ffff8	0.9999995
27	0x3f7fffc7	0.9999966
28	0x3f80005a	1.0000107
29	0x3f800018	1.0000029
30	0x3f7fff56	0.99998987
31	0x3f80019f	1.0000495
32	0x3f800028	1.0000048
33	0x3f80002a	1.000005
34	0x3f800025	1.0000044
35	0x3f800237	1.0000676
36	0x3f800311	1.0000936
37	0x3f7ffc8b	0.99994725
38	0x3f80001a	1.0000031
39	0x3f7ffcda	0.99995196
40	0x3f7fffaf	0.9999952
41	0x3f7ffe74	0.9999764
42	0x3f7ffff1	0.9999991
43	0x3f7fffcb	0.99999684
44	0x3f800009	1.0000011
45	0x3f7fffbc	0.99999595
46	0x3f7fffe1	0.99999815
47	0x3f800005	1.0000006
48	0x3f7ffffd	0.9999998
49	0x3f800359	1.0001022
50	0x3f800045	1.0000082
51	0x3f7fffc7	0.9999966
52	0x3f7fff29	0.9999872
53	0x3f7ffbbf	0.9999351
54	0x3f800012	1.0000021
55	0x3f7ffffd	0.9999998
56	0x3f7fff09	0.9999853
57	0x3f80002c	1.0000052
58	0x3f800049	1.0000087
59	0x3f800040	1.0000076
60	0x3f800455	1.0001322
61	0x3f7ffe36	0.9999727
62	0x3f800079	1.0000144
63	0x3f7fffbd	0.999996
64	0x3f7fff9a	0.9999939
65	0x3f80004c	1.0000091
66	0x3f80000f	1.0000018
67	0x3f7fffb9	0.99999577
68	0x3f7fff4c	0.9999893
69	0x3f800001	1.0000001
70	0x3f7fffd3	0.9999973
71	0x3f7fff1f	0.9999866
72	0x3f7fffc6	0.99999654
73	0x3f800043	1.000008
74	0x3f7fff02	0.99998486
75	0x3f800042	1.0000079
76	0x3f7ffffe	0.9999999
77	0x3f80003d	1.0000073
78	0x3f800081	1.0000154
79	0x3f7fff6d	0.99999124
80	0x3f800000	1.0
81	0x3f7ffe30	0.99997234
82	0x3f7ff7d3	0.99987525
83	0x3f7ffff7	0.99999946
84	0x3f7fffef	0.999999
85	0x3f7ffe59	0.9999748
86	0x3f80000d	1.0000015
87	0x3f80023a	1.000068
88	0x3f7ffe0a	0.9999701
89	0x3f80001f	1.0000037
90	0x3f7fffed	0.99999887
91	0x3f7fffc9	0.9999967
92	0x3f800011	1.000002
93	0x3f80000d	1.0000015
94	0x3f7fffb0	0.99999523
95	0x3f800016	1.0000026
96	0x3f800041	1.0000077
97	0x3f80000f	1.0000018
98	0x3f80001e	1.0000036
99	0x3f800028	1.0000048
100	0x3f80006e	1.0000131
101	0x3f7fff3d	0.9999884
102	0x3f800010	1.0000019
103	0x3f7fff87	0.9999928
104	0x3f7fffe2	0.9999982
105	0x3f7fff9f	0.9999942
106	0x3f7fffaf	0.9999952
107	0x3f7fffbf	0.9999961
108	0x3f800016	1.0000026
109	0x3f80000e	1.0000017
110	0x3f800011	1.000002
111	0x3f800007	1.0000008
112	0x3f800010	1.0000019
113	0x3f80009e	1.0000188
114	0x3f800010	1.0000019
115	0x3f7fffb5	0.9999955
116	0x3f7fffa0	0.9999943
117	0x3f7ffea5	0.9999793
118	0x3f80001d	1.0000035
119	0x3f7ffff4	0.9999993
120	0x3f7fff0c	0.99998546
121	0x3f800026	1.0000045
122	0x3f800017	1.0000027
123	0x3f800046	1.0000083
124	0x3f8000e1	1.0000268
125	0x3f7fff6f	0.99999136
126	0x3f800066	1.0000122
127	0x3f7fffaf	0.9999952
128	0x3f7fffb5	0.9999955
129	0x3f800057	1.0000104
130	0x3f7ffff1	0.9999991
131	0x3f7fffde	0.999998
132	0x3f7fffed	0.99999887
133	0x3f800002	1.0000002
134	0x3f7fffe6	0.99999845
135	0x3f800053	1.0000099
136	0x3f7fff90	0.9999933
137	0x3f80004c	1.0000091
138	0x3f7fffcd	0.99999696
139	0x3f8000da	1.000026
140	0x3f7ffffa	0.99999964
141	0x3f800032	1.000006
142	0x3f800146	1.0000389
143	0x3f7fff5e	0.99999034
144	0x3f7fffff	0.99999994
145	0x3f7ffe30	0.99997234
146	0x3f8001b7	1.0000523
147	0x3f800004	1.0000005
148	0x3f7ffffc	0.99999976
149	0x3f800159	1.0000411
150	0x3f80000a	1.0000012
151	0x3f7ffe7d	0.99997693
152	0x3f7ffe5f	0.99997514
153	0x3f800024	1.0000043
154	0x3f7ffff6	0.9999994
155	0x3f7fffc6	0.99999654
156	0x3f80003e	1.0000074
157	0x3f800013	1.0000023
158	0x3f7fff74	0.99999166
159	0x3f800044	1.0000081
160	0x3f800030	1.0000057
161	0x3f800023	1.0000042
162	0x3f800025	1.0000044
163	0x3f800096	1.0000179
164	0x3f7ff6b3	0.9998581
165	0x3f7fffd6	0.9999975
166	0x3f800014	1.0000024
167	0x3f7fffd8	0.9999976
168	0x3f7fffc1	0.99999624
169	0x3f7ffffe	0.9999999
170	0x3f7fffd9	0.9999977
171	0x3f7fffc9	0.9999967
172	0x3f80000d	1.0000015
173	0x3f7fffd3	0.9999973
174	0x3f7ffff5	0.99999934
175	0x3f800006	1.0000007
176	0x3f800006	1.0000007
177	0x3f80012c	1.0000358
178	0x3f800032	1.000006
179	0x3f7fffc3	0.99999636
180	0x3f7fff67	0.9999909
181	0x3f80013c	1.0000377
182	0x3f800017	1.0000027
183	0x3f7ffffb	0.9999997
184	0x3f7ffefe	0.9999846
185	0x3f800029	1.0000049
186	0x3f800033	1.0000061
187	0x3f800044	1.0000081
188	0x3f7ffbca	0.99993575
189	0x3f800001	1.0000001
190	0x3f800073	1.0000137
191	0x3f7fffb9	0.99999577
192	0x3f7fff97	0.99999374
193	0x3f80004d	1.0000092
194	0x3f80000e	1.0000017
195	0x3f7fffbc	0.99999595
196	0x3f7fff49	0.9999891
197	0x3f800001	1.0000001
198	0x3f7fffd4	0.9999974
199	0x3f7fff2a	0.99998724
200	0x3f7fffc6	0.99999654
201	0x3f800046	1.0000083
202	0x3f7ffeea	0.99998343
203	0x3f80004a	1.0000088
204	0x3f7ffffe	0.9999999
205	0x3f80003d	1.0000073
206	0x3f800081	1.0000154
207	0x3f7fff70	0.9999914
208	0x3f800000	1.0
209	0x3f7ffe3f	0.99997324
210	0x3f7ffb2d	0.9999264
211	0x3f7ffff7	0.99999946
212	0x3f7fffef	0.999999
213	0x3f7ffe91	0.9999781
214	0x3f80000d	1.0000015
215	0x3f80020d	1.0000626
216	0x3f7ffe1a	0.99997103
217	0x3f800020	1.0000038
218	0x3f7fffee	0.9999989
219	0x3f7fffc5	0.9999965
220	0x3f800012	1.0000021
221	0x3f80000c	1.0000014
222	0x3f7fffa6	0.99999464
223	0x3f800019	1.000003
224	0x3f800041	1.0000077
225	0x3f800013	1.0000023
226	0x3f80001e	1.0000036
227	0x3f800027	1.0000046
228	0x3f80006b	1.0000128
229	0x3f7fff40	0.99998856
230	0x3f800010	1.0000019
231	0x3f7fff82	0.9999925
232	0x3f7fffe0	0.9999981
233	0x3f7fff9b	0.999994
234	0x3f7fffae	0.9999951
235	0x3f7fffc0	0.9999962
236	0x3f800015	1.0000025
237	0x3f80000d	1.0000015
238	0x3f800010	1.0000019
239	0x3f800007	1.0000008
240	0x3f800010	1.0000019
241	0x3f80009d	1.0000187
242	0x3f800011	1.000002
243	0x3f7fffb5	0.9999955
244	0x3f7fff98	0.9999938
245	0x3f7ffebb	0.9999806
246	0x3f80001c	1.0000033
247	0x3f7ffff5	0.99999934
248	0x3f7fff0b	0.9999854
249	0x3f800026	1.0000045
250	0x3f800015	1.0000025
251	0x3f800044	1.0000081
252	0x3f8000cb	1.0000242
253	0x3f7fff6a	0.99999106
254	0x3f800067	1.0000123
255	0x3f7fffb2	0.99999535

layernorm.bias f4 [259, 64]
0	0x37136c85	8.787149e-06
1	0xb746399d	-1.1815134e-05
2	0x3467f542	2.1602776e-07
3	0x3723c480	9.761308e-06
4	0xb6b8d84c	-5.5088076e-06
5	0xb57ead31	-9.48744e-07
6	0x36dd7e35	6.6010057e-06
7	0xb7200cd0	-9.539726e-06
8	0xb7395eec	-1.104896e-05
9	0xb7367eed	-1.0877598e-05
10	0xb6f2f8eb	-7.24114e-06
11	0x36fce863	7.5372386e-06
12	0x35394ce5	6.9029767e-07
13	0xb7114722	-8.659235e-06
14	0x3739e105	1.1079251e-05
15	0x3701dc56	7.7403e-06
16	0x35884647	1.0153243e-06
17	0x375885ec	1.2905784e-05
18	0xb764f93d	-1.3647889e-05
19	0x35b9fa25	1.3856376e-06
20	0x362e3cf2	2.5963495e-06
21	0xb6c05c3f	-5.7327848e-06
22	0xb64289e0	-2.8988507e-06
23	0x37940708	1.7646249e-05
24	0x377e7756	1.5167365e-05
25	0xb69859d8	-4.540412e-06
26	0x3691556d	4.3312816e-06
27	0x36b0b73a	5.266539e-06
28	0x36c1cf90	5.7760117e-06
29	0x36b0611b	5.2565133e-06
30	0x36ead6b9	6.9987404e-06
31	0x37210cbf	9.5993155e-06
32	0xb7207f42	-9.566373e-06
33	0xb6ae4a3c	-5.194246e-06
34	0xb6b2bdd7	-5.3269137e-06
35	0x3781ba10	1.546464e-05
36	0x3783bdad	1.5704742e-05
37	0xb650e346	-3.1126706e-06
38	0x36119b9d	2.1697263e-06
39	0x348d17c1	2.628058e-07
40	0x355f3681	8.315329e-07
41	0x3638d719	2.754334e-06
42	0x37339d2b	1.0705825e-05
43	0x3726a82d	9.9335275e-06
44	0xb655531c	-3.178785e-06
45	0xb712270f	-8.711372e-06
46	0xb6e53f8c	-6.8321297e-06
47	0xb607daf9	-2.0244026e-06
48	0xb6bb4ac3	-5.5817377e-06
49	0x3753f258	1.2633005e-05
50	0x36b64c04	5.432872e-06
51	0x368a17d2	4.1154935e-06
52	0x372e58d6	1.0391892e-05
53	0xb685f61c	-3.99236e-06
54	0xb6fab1d0	-7.4712807e-06
55	0x362dc2e4	2.589245e-06
56	0x372767d7	9.978153e-06
57	0xb7071966	-8.052541e-06
58	0x372ae90a	1.0187048e-05
59	0xb758b99f	-1.2917822e-05
60	0x3775d784	1.4653317e-05
61	0x356f58c9	8.916364e-07
62	0xb78688f1	-1.6037813e-05
63	0x37028a28	7.780771e-06
64	0x3718e025	9.112094e-06
65	0xb76e3ec0	-1.4200516e-05
66	0xb6b5b99b	-5.4158277e-06
67	0x368662e8	4.0050254e-06
68	0xb71d20a6	-9.365531e-06
69	0x343922d5	1.724214e-07
70	0x36ab29eb	5.101077e-06
71	0xb750dbda	-1.2448954e-05
72	0xb72d72a4	-1.0338295e-05
73	0xb72effc0	-1.0430755e-05
74	0xb7281c8f	-1.002023e-05
75	0x36ea6f43	6.986696e-06
76	0xb47a6cb1	-2.3322606e-07
77	0xb732eb47	-1.0664407e-05
78	0x365e6030	3.3136566e-06
79	0x370045f7	7.6456845e-06
80	0xb5e314df	-1.6918892e-06
81	0x3755344c	1.2707966e-05
82	0xb7784421	-1.4797814e-05
83	0x364d5c64	3.060116e-06
84	0x36891b87	4.0861228e-06
85	0xb7271692	-9.959231e-06
86	0x353f3f07	7.124476e-07
87	0x377da0d5	1.5117422e-05
88	0x3774d969	1.4594153e-05
89	0xb6991f9f	-4.5634365e-06
90	0x35fc21c2	1.8785288e-06
91	0x372e03a6	1.0372058e-05
92	0x36b83a62	5.490424e-06
93	0xb53f04a9	-7.1159826e-07
94	0x373045bf	1.05066565e-05
95	0x36b53f93	5.4016214e-06
96	0xb73b78e7	-1.1174218e-05
97	0xb7165eb6	-8.962748e-06
98	0xb6bbc59d	-5.5960395e-06
99	0x37870d09	1.6099324e-05
100	0x37358d86	1.0821392e-05
101	0xb6f41d4b	-7.275177e-06
102	0x360f9ad1	2.1398776e-06
103	0xb6491364	-2.996262e-06
104	0x3605f0c3	1.9958686e-06
105	0xb6ce109d	-6.1412125e-06
106	0x3710dfe3	8.6351965e-06
107	0x370b7722	8.312783e-06
108	0xb6d12f09	-6.234161e-06
109	0xb7310b60	-1.0552671e-05
110	0xb72b3ee9	-1.0207042e-05
111	0xb4c76369	-3.713897e-07
112	0xb6afe6ff	-5.242298e-06
113	0x37365c28	1.0869502e-05
114	0x36c3dee1	5.8373994e-06
115	0x36ab2253	5.100193e-06
116	0x37619369	1.3445367e-05
117	0xb72fe5f4	-1.0484353e-05
118	0xb7327063	-1.0635794e-05
119	0x35053586	4.962425e-07
120	0x3710ce50	8.631105e-06
121	0xb6d8da28	-6.4626984e-06
122	0x3776a41e	1.4700954e-05
123	0xb768c527	-1.3874181e-05
124	0x37560b96	1.27580915e-05
125	0xb6dcf5be	-6.585119e-06
126	0xb78eb038	-1.7009777e-05
127	0x36c7c78a	5.9538916e-06
128	0x36de01f4	6.616343e-06
129	0x36b62f62	5.4295388e-06
130	0xb7158aa1	-8.913369e-06
131	0x37a6d4d2	1.9887844e-05
132	0xb504660b	-4.9322324e-07
133	0xb69816d5	-4.532611e-06
134	0x372009e8	9.53905e-06
135	0xb6b549d2	-5.402814e-06
136	0xb75fe070	-1.3344092e-05
137	0xb7b5ee79	-2.1687929e-05
138	0xb71af194	-9.235362e-06
139	0xb68403da	-3.934355e-06
140	0xb7096ae3	-8.190723e-06
141	0x35dee952	1.6608194e-06
142	0x372d664b	1.03354205e-05
143	0x3601591f	1.9274373e-06
144	0x374e290f	1.22881165e-05
145	0x37dcfdec	2.6344285e-05
146	0xb7f93d2c	-2.9711598e-05
147	0x36bce23a	5.629173e-06
148	0x3709e39a	8.218829e-06
149	0x37560ccf	1.2758376e-05
150	0xb73292e7	-1.064383e-05
151	0x375741f0	1.2830351e-05
152	0x376eb938	1.422903e-05
153	0x36d46640	6.329996e-06
154	0x374182b6	1.153413e-05
155	0xb5fef526	-1.8995822e-06
156	0xb681a23c	-3.863386e-06
157	0x378fcc76	1.7142138e-05
158	0xb44e4b0c	-1.9212547e-07
159	0x370fab40	8.563336e-06
160	0xb73c0983	-1.1207888e-05
161	0x36179e94	2.2593058e-06
162	0xb72ec2e7	-1.0416587e-05
163	0x369acfa2	4.6137293e-06
164	0x37814279	1.5408952e-05
165	0xb741e400	-1.1556782e-05
166	0x37bd9571	2.2600145e-05
167	0xb609640c	-2.0472826e-06
168	0xb58b9e36	-1.0402352e-06
169	0x372c56d7	1.0272218e-05
170	0x37a200f4	1.9312349e-05
171	0x37990d03	1.824508e-05
172	0x36c81b20	5.9636222e-06
173	0xb7366cd8	-1.08733875e-05
174	0xb6a235c4	-4.8342354e-06
175	0xb7393d0a	-1.1041071e-05
176	0xb711b153	-8.68396e-06
177	0x377b76e1	1.49884445e-05
178	0xb70c0cc7	-8.347625e-06
179	0x37494122	1.19956985e-05
180	0xb4c2052c	-3.613908e-07
181	0x36651e03	3.4141128e-06
182	0xb6e7702f	-6.8973964e-06
183	0x36551c50	3.1755953e-06
184	0x373addab	1.1138075e-05
185	0xb7381acf	-1.09734965e-05
186	0xb68c01d6	-4.172539e-06
187	0xb6fe6304	-7.581317e-06
188	0x3701a21f	7.726746e-06
189	0x37440550	1.1683747e-05
190	0xb788d28a	-1.6310503e-05
191	0x374c20ac	1.2166955e-05
192	0x374bf65c	1.2157103e-05
193	0xb7853196	-1.5877926e-05
194	0xb709f33d	-8.22247e-06
195	0x36bdf2e0	5.6609133e-06
196	0xb74f0e6a	-1.23415175e-05
197	0xb5cd8af4	-1.5314131e-06
198	0x366a3c38	3.490377e-06
199	0xb75d2a4b	-1.3182474e-05
200	0xb75860c7	-1.2897136e-05
201	0xb72f0f9f	-1.043445e-05
202	0xb73e5550	-1.1344746e-05
203	0x37181ac6	9.06614e-06
204	0xb59af568	-1.1545317e-06
205	0xb737fb48	-1.0966156e-05
206	0x364d6731	3.0607446e-06
207	0x371e80df	9.447539e-06
208	0xb54b0abd	-7.563902e-07
209	0x374780c8	1.18913085e-05
210	0xb76c9e9d	-1.4103626e-05
211	0x360d6079	2.1066792e-06
212	0x368cbe8e	4.1945086e-06
213	0xb748947b	-1.19555e-05
214	0x3689043c	4.083411e-06
215	0x37995d26	1.8282397e-05
216	0x37708592	1.4336214e-05
217	0xb6e4d6d1	-6.8199374e-06
218	0x359c6743	1.1652959e-06
219	0x37475173	1.1880288e-05
220	0x36bba8fa	5.5927057e-06
221	0xb5efa615	-1.7855224e-06
222	0x37825b80	1.5539816e-05
223	0x36cf1b4d	6.172259e-06
224	0xb7341526	-1.073376e-05
225	0xb7024ce4	-7.766506e-06
226	0xb7129dbb	-8.739003e-06
227	0x379b4872	1.8511175e-05
228	0x374900b1	1.1980695e-05
229	0xb7144b5e	-8.839035e-06
230	0xb42e4133	-1.6228732e-07
231	0xb692154c	-4.3536184e-06
232	0x35e3c3d9	1.6969817e-06
233	0xb71bc60b	-9.28483e-06
234	0x371aae6c	9.219726e-06
235	0x36ef4afe	7.1314853e-06
236	0xb6f6ab22	-7.351294e-06
237	0xb7576d82	-1.2840495e-05
238	0xb713b967	-8.80505e-06
239	0xb609912c	-2.0499092e-06
240	0xb66ca8f3	-3.5265082e-06
241	0x376076f3	1.3379135e-05
242	0x36bda912	5.6523213e-06
243	0x36882405	4.057309e-06
244	0x374dd865	1.22693355e-05
245	0xb73e839f	-1.1355528e-05
246	0xb71c3459	-9.310513e-06
247	0xb5fd446c	-1.8869882e-06
248	0x371a1d60	9.185955e-06
249	0xb6924bb8	-4.359954e-06
250	0x3787e5b6	1.6200222e-05
251	0xb7849495	-1.5804815e-05
252	0x374a7356	1.2066992e-05
253	0xb71fbf2a	-9.521647e-06
254	0xb7950644	-1.7765102e-05
255	0x369bfab5	4.648546e-06

fc.0.weight f4 [64, 64]
0	0xbd1aebc6	-0.037822507
1	0xbd7c0582	-0.06152869
2	0xbd32bcfc	-0.04363726
3	0x3dce66aa	0.10078175
4	0xbdc4ca2b	-0.09608873
5	0xbc5d764d	-0.013516975
6	0x3dba083d	0.090836026
7	0x3d133653	0.03594048
8	0xbdfd1677	-0.123578005
9	0x3d875e6b	0.06609806
10	0xbd276980	-0.040872097
11	0x3df3e075	0.11908046
12	0x3daae915	0.08345238
13	0x3daa4fff	0.08316039
14	0x3d84687c	0.06465241
15	0x3db5bf08	0.08874327
16	0x3d3f522d	0.04670923
17	0x3dd000fa	0.10156436
18	0x3d9efc43	0.07762959
19	0xbcdef373	-0.027215695
20	0xbd2b6bb4	-0.04185076
21	0xbda8703a	-0.082245305
22	0xbc0fdabe	-0.00878018
23	0x3d2f4def	0.042798933
24	0x3c3db84b	0.011579583
25	0xbb3f5392	-0.00291941
26	0x3d92d7e6	0.071700856
27	0xbdba0b7f	-0.09084224
28	0x3d98a611	0.0745355
29	0xbd14d4cb	-0.036335748
30	0xbb6e1d0f	-0.0036333238
31	0x3d1a30cc	0.037644193
32	0xbc92c784	-0.017917402
33	0x3dde4a91	0.10854066
34	0x3d476e52	0.048689194
35	0xbdd1bbdb	-0.10240909
36	0x3d25e6cf	0.04050332
37	0x3dfdb5a3	0.1238816
38	0xbdf88650	-0.12134993
39	0x3db9227e	0.09039782
40	0x3db2d9e7	0.08732968
41	0x3d7584fb	0.059941273
42	0xbdbe19d2	-0.092822686
43	0x3d436904	0.047707573
44	0xbd41fc6e	-0.047359876
45	0x3d300482	0.04297305
46	0x3d26f3cd	0.04075985
47	0xb99fdcc4	-0.00030491326
48	0x3dedf65f	0.11619257
49	0xbc74f7ae	-0.01495163
50	0x3d1cedee	0.038312845
51	0xbdb63b10	-0.08897984
52	0xbd58f1d2	-0.052964993
53	0x3cd84c57	0.02640359
54	0x3dc9fe70	0.09862983
55	0x3db09c1c	0.086235255
56	0x3dfde09d	0.12396357
57	0xbd4de37c	-0.050265774
58	0x3d648800	0.055793762
59	0xbd8f08cf	-0.06984102
60	0xbcd1d133	-0.02561245
61	0xbdc06a7a	-0.09395309
62	0x3d9e9085	0.07742409
63	0x3d85d900	0.0653553
64	0x3dfc9be6	0.12334423
65	0x3ba99d9a	0.0051762583
66	0x3dd8fa8f	0.10594665
67	0x3bf30c28	0.0074172206
68	0xbd43f0b0	-0.04783696
69	0x3d848f48	0.06472641
70	0xbcf560e6	-0.029953431
71	0x3db4bfa2	0.088256136
72	0xbc28283c	-0.010263499
73	0x3ddc89f6	0.107685015
74	0x3d792f1d	0.060835946
75	0xbdaf374f	-0.08555471
76	0xbdecdfb6	-0.11566107
77	0x3d3b0e47	0.045667913
78	0xbbf75b73	-0.0075487434
79	0x3ca23f88	0.019805685
80	0xbdde2d55	-0.1084849
81	0x3cb9be3b	0.022673717
82	0x39ef06a4	0.0004559058
83	0xbb3296e5	-0.0027250585
84	0x3dda7c3c	0.10668227
85	0xbdd8913a	-0.10574575
86	0xbc24ad4c	-0.010051083
87	0xbc350529	-0.011048594
88	0x3d91839d	0.07105181
89	0x3d7a112d	0.061051536
90	0x3d971b60	0.07378268
91	0xbdd1c5ec	-0.10242829
92	0x3dbe485d	0.09291146
93	0xbda4a2ee	-0.08038889
94	0xbd437b3f	-0.04772496
95	0xbdd09d73	-0.10186281
96	0xbd204885	-0.03913166
97	0x3d87ddf2	0.066341296
98	0x3d9cc970	0.07655609
99	0x3db8f2f7	0.09030717
100	0xbd92fe01	-0.07177354
101	0x3d09795c	0.033563003
102	0xbd9a8f68	-0.07546884
103	0xbd9774a8	-0.07395297
104	0x3c0ac4d8	0.008469783
105	0x3db0490b	0.08607682
106	0xbde14e9f	-0.11001324
107	0x3dfb162e	0.1226009
108	0xbc5adeb6	-0.0133587625
109	0x3dba7913	0.09105124
110	0xb98518f9	-0.00025386343
111	0x3dbf09b2	0.09328021
112	0xbc0b1f97	-0.008491418
113	0x3dd2e6f6	0.102979586
114	0x3def5475	0.11686031
115	0xbbd1b634	-0.006399894
116	0x3b872329	0.0041240645
117	0x3cbfb2e3	0.02340073
118	0x3c809e69	0.015700536
119	0x3d9da517	0.07697504
120	0x3d8889d7	0.06666916
121	0xbdda8b8d	-0.106711484
122	0x3d1f73c0	0.038928747
123	0xbdb675c5	-0.089091815
124	0x3ce23206	0.027611744
125	0xbdb33f61	-0.08752323
126	0x3d8bc2dc	0.06824276
127	0xbd56f3d7	-0.052478638
128	0x3dedf225	0.11618451
129	0xbc13052e	-0.008973403
130	0xbd7cb233	-0.06169338
131	0x3dc6f732	0.097151175
132	0xbd3ff803	-0.04686738
133	0xbd66c461	-0.056339625
134	0xbcf86364	-0.03032083
135	0x3de27c2c	0.1105884
136	0xbac41ed6	-0.0014962803
137	0x3c31ce9b	0.010852481
138	0x3dc26dfe	0.094936356
139	0x3dde6d0c	0.10860643
140	0x3d72c0b4	0.059265807
141	0x3d9dbdfc	0.07702252
142	0x3dce15f2	0.100627795
143	0x3dde4930	0.10853803
144	0xbde88ba8	-0.11354762
145	0x3de01851	0.10942138
146	0xbcf19924	-0.029491968
147	0xbb18f443	-0.002333895
148	0xbcf57326	-0.029962134
149	0xbdfd1215	-0.123569645
150	0x3d99bfa1	0.075072534
151	0x3b72c851	0.0037045667
152	0xbceb17a2	-0.028697792
153	0xbdd6b568	-0.10483819
154	0xbc25f610	-0.010129467
155	0x3dadb954	0.08482614
156	0x3d135014	0.03596504
157	0xbdfde855	-0.123978294
158	0x3d851876	0.06498806
159	0x3d3860b9	0.045014117
160	0xbb723631	-0.003695857
161	0xbd879aaf	-0.066213004
162	0x3d5d4f11	0.05403048
163	0x3c984f25	0.018592427
164	0x3de03fdc	0.1094968
165	0x3ddb1f94	0.106993824
166	0xbda769ea	-0.081744984
167	0x3d10aa25	0.035318512
168	0xbb3e17d1	-0.0029005895
169	0x3d36e834	0.04465504
170	0x3d56243b	0.052280646
171	0x3d27a99e	0.040933244
172	0xbde10c05	-0.10988621
173	0x3ca627f7	0.020282729
174	0x3d92602e	0.07147251
175	0xbdf100ab	-0.117677055
176	0xbcc1c66e	-0.023654189
177	0xbc9d668f	-0.019213943
178	0xbd5efeab	-0.05444209
179	0x3dcf5a7b	0.1012468
180	0xbdf74475	-0.12073604
181	0x3c2bb261	0.010479541
182	0x3c4af7cb	0.01238818
183	0xbdac6ca2	-0.084191576
184	0x3df56a25	0.11983136
185	0xbca8aebb	-0.02059113
186	0xbddc508d	-0.10757551
187	0xbde59875	-0.112107195
188	0x3dc1e1f6	0.09466927
189	0x3d2bfb69	0.04198781
190	0xbd0c2dbb	-0.0342233
191	0xbd69214c	-0.05691652
192	0x3d083567	0.033254053
193	0x3be21e64	0.0069005955
194	0x3db373d9	0.087623306
195	0xbcbb6e77	-0.022879822
196	0x3dddb725	0.10825948
197	0x3dde2abf	0.10847997
198	0xbd19a331	-0.037509147
199	0x3d89b7d1	0.06724513
200	0x3da4cbed	0.08046708
201	0xbdc67bb4	-0.09691563
202	0xbd192e9e	-0.037397973
203	0xbdea3939	-0.114366956
204	0xbde78665	-0.113049306
205	0x3d840021	0.06445337
206	0x3dbddd31	0.092707045
207	0xbde0118e	-0.10940848
208	0xbde698b8	-0.112595975
209	0xbc9f119f	-0.019417582
210	0xbc89c05f	-0.016815362
211	0xbd8ee20c	-0.06976709
212	0x3de2d3f4	0.11075583
213	0xbc80d90f	-0.015728502
214	0xbdf7c8a1	-0.12098814
215	0xbde07322	-0.1095946
216	0x3dfdf7d7	0.12400787
217	0x3cb398e9	0.0219235
218	0x3c7f4e1d	0.0155825885
219	0xbd7cd52b	-0.06172673
220	0xbcad1cd7	-0.021131916
221	0x3de5b40a	0.1121598
222	0xbdc61014	-0.096710354
223	0xbda68dec	-0.08132538
224	0xbda7c7ab	-0.081923805
225	0xbcedb9c2	-0.02901924
226	0xbdebc573	-0.1151227
227	0x3cf4a0f7	0.02986191
228	0x3ddc0510	0.10743153
229	0x3df7b518	0.12095088
230	0x3dfc3717	0.12315195
231	0x3dee5859	0.11637945
232	0xbd9f9103	-0.07791331
233	0x3cc1e77b	0.023669949
234	0x3c5ed456	0.0136004295
235	0xbc4cd24c	-0.012501311
236	0x3df3fbd1	0.119132645
237	0x3cb6716f	0.022270886
238	0x3dea21ab	0.11432203
239	0xbc8b63bc	-0.01701533
240	0xbde59f72	-0.112120524
241	0xbd94084f	-0.07228147
242	0x3d405532	0.04695625
243	0xbdb5bc05	-0.088737525
244	0x3cb7db39	0.0224434
245	0x3d64d3c8	0.055866033
246	0xbd1365f9	-0.03598592
247	0x3d76695e	0.06015908
248	0x3deec71e	0.11659072
249	0xbdfce249	-0.12347848
250	0xbc372df0	-0.011180386
251	0x3d1a45df	0.03766429
252	0xbce42409	-0.027849214
253	0x3d5c3ebb	0.053770762
254	0x3ce50119	0.027954625
255	0xbdcf510e	-0.10122882

fc.0.bias f4 [64]
0	0x3da65ede	0.08123563
1	0x3d153133	0.036423873
2	0x3be0b492	0.006857463
3	0x3d29e6a4	0.04147972
4	0x3dc702c0	0.097173214
5	0x3b8c8ea0	0.004289463
6	0x3a55ad7c	0.00081511564
7	0xbd10ffe5	-0.03540029
8	0x3db2dbc2	0.08733322
9	0xbd0a2e6c	-0.033735678
10	0x3dbf7cc0	0.09349966
11	0x3a16e66d	0.0005756382
12	0xbc33f4ac	-0.010983627
13	0x3d343ac7	0.044001367
14	0xbdc22072	-0.09478845
15	0x3d0aa799	0.03385124
16	0x3d52d968	0.051476866
17	0x3c8294ed	0.015940154
18	0x3dbe2afe	0.09285544
19	0xbdd6da56	-0.10490863
20	0x3d31819e	0.043336503
21	0x3dcbea63	0.09956815
22	0x3d3bee04	0.045881286
23	0xbd5d1df0	-0.05398363
24	0x3dc0cb2e	0.094137534
25	0xbce8cdd8	-0.028418466
26	0xbd34dfd9	-0.04415879
27	0x3cd543c5	0.026033292
28	0xbd8c4168	-0.06848413
29	0x3d176320	0.036959767
30	0x3de0555b	0.1095378
31	0x3dcb69ec	0.09932312
32	0xbdee8e03	-0.1164818
33	0x3de91492	0.113808766
34	0xbd628558	-0.055302948
35	0x3d4e1262	0.0503105
36	0x3dfef39b	0.12448808
37	0x3c437e90	0.01193203
38	0xbdfd8f28	-0.123808205
39	0x3dbc14f9	0.09183688
40	0xbc4bff4d	-0.012451005
41	0x3b4b2254	0.0030995803
42	0x3ac07d6c	0.0014685816
43	0x3dee3978	0.11632055
44	0x3d3e053a	0.046391703
45	0x3d4f2752	0.05057461
46	0xbc4ffac2	-0.012694063
47	0x3cbf7bc0	0.023374438
48	0xbc42068e	-0.011842383
49	0x3de6c7ea	0.11268599
50	0x3d906102	0.07049753
51	0x3dbdb92d	0.09263835
52	0xbde21c2c	-0.110405296
53	0xbbbf40e6	-0.005836594
54	0x3c89068e	0.016726758
55	0xbd17b778	-0.037040204
56	0x3d184d1e	0.03718292
57	0xbd3bf570	-0.045888364
58	0x3d5de374	0.054171994
59	0xbb30f192	-0.0026999456
60	0x3daf2204	0.0855141
61	0xbdde4eee	-0.108548984
62	0xbd717887	-0.058952834
63	0x3dd2c3ad	0.102912284

output_layer.0.weight f4 [1, 64]
0	0xbd8ae6e2	-0.06782319
1	0x3df24222	0.1182902
2	0x3cf335fa	0.029688824
3	0xbd8d1206	-0.06888203
4	0x3db18740	0.08668375
5	0x3b6e7257	0.003638407
6	0xbd78a2c7	-0.06070211
7	0x3ded4984	0.115862876
8	0x3decb800	0.11558533
9	0x3dd62810	0.1045686
10	0x3da519e9	0.080615826
11	0xbcc1a8ee	-0.023640122
12	0xbc61cdb5	-0.013781955
13	0x3dc922d3	0.09821095
14	0x3b584a6e	0.0033003348
15	0xbdba6e17	-0.09103029
16	0xbb2558aa	-0.002522985
17	0xbde3f022	-0.11129786
18	0x3e005177	0.12531076
19	0xbc515f2f	-0.012779041
20	0x3ba69ab3	0.0050843596
21	0x3da477e3	0.08030679
22	0xbc8944e3	-0.01675648
23	0xbdfd0735	-0.1235489
24	0xbddcee88	-0.10787684
25	0x3d9e341b	0.07724782
26	0xbcf177fa	-0.029476155
27	0xbd3ab642	-0.04558397
28	0xbd4d7451	-0.050159756
29	0x3b8bd70f	0.0042675803
30	0xbdb26692	-0.0871097
31	0xbdb70505	-0.08936504
32	0x3d97c5a2	0.07410742
33	0x3d6a2038	0.057159632
34	0x3d0a5248	0.033769876
35	0xbdf4cfcc	-0.119536966
36	0xbe098312	-0.13428906
37	0x3d35eeab	0.044417065
38	0xbb68cc51	-0.0035522173
39	0x3d3496f0	0.044089258
40	0x3c9e1c85	0.019300709
41	0x3b0e4fab	0.0021714966
42	0xbdee44b4	-0.11634198
43	0xbd9d4d81	-0.07680798
44	0x3d5a3d96	0.05328139
45	0x3e049dae	0.12950775
46	0x3d60315f	0.054734584
47	0x3b0fd805	0.0021948826
48	0x3d584d81	0.05280829
49	0xbd9c852b	-0.07642587
50	0xbcaa7dac	-0.020811878
51	0xbd0024b3	-0.031285
52	0xbd871490	-0.06595719
53	0x3d70bc1f	0.058773156
54	0x3cf09061	0.02936572
55	0xbb1c6ca0	-0.0023868456
56	0xbdc53870	-0.09629905
57	0x3d27ea09	0.040994678
58	0xbdc96a80	-0.098347664
59	0x3dbd72e3	0.092504285
60	0xbdacf3b7	-0.084449224
61	0x3d76111e	0.060074918
62	0x3e13a482	0.14418224
63	0xbd028062	-0.031860717
