hiddensize-128/model_epoch_0_120.pth (torch, 338995 bytes, 7 tensors)

embedding.0.weight f4 [128, 7]
00000000: 834b 743a 247a b8be b88b 84be 2c29 1f3e
00000010: b9d5 093e caf4 913d 1982 78be a6b2 56be
00000020: 328d 81bd 42eb 9bbe 4ed0 413e 1874 c13e
00000030: af17 6ebc 51d2 7cbe a2b7 4cbe 7015 95be
00000040: 6d94 95be e67a 13bd 3704 403e 64e3 123e
00000050: 0e15 e23c d316 8abe 398c abbe b11b cdbd
00000060: 9842 25be 706b 35be c52c 9e3d 3731 de3d
00000070: 1f7c 05be 532b 843e eede 7b3e 53ad 58be
00000080: ac8b 583d be3d f7bc de7d a6be 8e79 69be
00000090: 0b58 88be fee1 6b3e 679f 663d 0000 643e
000000a0: 12ae 823e f923 bd3e 0fad a73e f24c 3e3e
000000b0: 0a5b bd3e a724 8c3d 41eb a2be d8ab c3ba
000000c0: 4be3 873e 0ef0 a83e ef22 adbe 77b0 9a3c
000000d0: 1bc5 46bd 9561 993e e807 5e3e 3852 8b3e
000000e0: a96a 51bc 02a4 a93e e181 15be 18f2 c53c
000000f0: 303f 27be 8789 173c 6d25 5a3e 6c5c b7be
00000100: a811 19bd 4f5b 833c 7632 9bbe 34e2 b1be
00000110: 8031 c53c 1686 80be ef60 b53b 74ce 583e
00000120: c96b b0be bef7 a5be b23f 0d3e 2d1b 933d
00000130: cf53 eebc 3fdf df3d 2578 bdbe ce97 a53d
00000140: 558e ce3d a2b4 99bd 07e6 873e 466e b23e
00000150: 040e 2abe 87bd edbd 5e1c 9d3e d899 0f3d
00000160: 1e27 2dbe ad9e 543e 0b01 7e3d 99c6 103e
00000170: edf8 98be fd4d ae3e bee4 a4bd 688f a6be
00000180: 821e 9bbe 08c4 db3d ae5e 85bd 621e 733d
00000190: 8915 8f3e 6041 d73d 9117 3c3d 013b 593e
000001a0: 9b0f 253d b763 743e efbc 22be 4000 4ebe
000001b0: 8146 d6bd fb9d 67be c3db bcbe e62c b4be
000001c0: 6c5a c1be 8570 79be 58a6 b63e 687e 53be
000001d0: 0dec d1bd 844a 173e b155 d0bd 8773 6f3e
000001e0: d34c 3ebe d584 ff3d a794 66be a8a6 c6bc
000001f0: 8eaa 52bd 15fc a43e fce1 a6bc 4655 633e
00000200: 932a 64be 417e 2d3e d662 9ebe 7763 f53d
00000210: f61f f9bd 3095 b6bd 6110 24be 670f 4f3e
00000220: 0161 a9bd 2cc7 a9be fad0 853e 536c 86be
00000230: 5af9 47bd b175 66be 070f bfbe d034 edbd
00000240: e2c7 363e ff70 a93d b3f0 8abd b18e 8dbd
00000250: 7959 04be 19f3 b4be 281f 663d 1ab5 a83d
00000260: fd16 913e c5a0 12be 3e54 953e bb8b 8ebe
00000270: 09e3 abbe 2954 7ebe 5338 a33e 1940 9c3e
00000280: 9d17 f53c 666e 69bd badf 85be 62dd e73d
00000290: 8fe0 fabd 45b5 1d3e 354b 713e f8bb a93e
000002a0: 65ca 813e 8cbe 563d dd56 94bd 66f0 bebe
000002b0: 2f9f 62be 4f79 82be 7110 b9be 5812 683c
000002c0: b7c1 a93e 3bbb a7be cf8d b1be 4a88 9bbc
000002d0: 21e3 0dbe ad1b edbc d204 7bbe 721b a63e
000002e0: a1c8 a03e 92da 29be 2529 01be 2cc6 be3e
000002f0: 0a77 7d3e 3143 a63d 0d28 28be 627c a7be
00000300: f247 9abe 0ca1 9d3e fe7b ab3e cd3e 54be
00000310: ae4a 80bd c93b a6be 30df 783d b1ce 10be
00000320: dc5e d83d c764 a2be f8cf bf3e fd5e bfbe
00000330: c135 4ebe a9b6 a4bd 5990 d6bd 6b61 b63e
00000340: ef4b 37be 623c acbe d23f 70be 8e26 aa3e
00000350: b3de 113d 8c93 2fbe 9607 a4be 530e 803e
00000360: d838 563e 81fb ff3d 727f 84be 7799 b13d
00000370: cb8a 9fbe e769 84be 45cd 33bd 1fac 813d
00000380: af15 bb3e f89f bc3e 3186 7bbd 2cfb f3bc
00000390: 06fd bbbe 8fb4 a13e 5ab1 3bbe 1457 7b3e
000003a0: 7bac 3f3e 4f5c 96be b7d9 a13e c1b6 2d3e
000003b0: 590e 903e 6dd2 7dbd 5949 543e 09da 0fbe
000003c0: 781a ce3d d1cb 59be 3934 b4be e488 303e
000003d0: 8c49 11be a38f 923d 8746 6bbe 52b8 84be
000003e0: ff03 8abe 7f94 ac3e a21f 7c3e ca5d bebe
000003f0: 691f 353e 4147 a5bd 8627 223d 354d 55be
0.00093191135 -0.36030686 -0.25887847 0.1554305 0.13460435 0.07126768 -0.24268378 -0.20966586
-0.06325759 -0.30452925 0.18927118 0.37783885 -0.014532014 -0.24689604 -0.19991925 -0.29117918
-0.29214802 -0.036005877 0.18751608 0.14344555 0.02759793 -0.26970538 -0.3350542 -0.10015047
-0.16138685 -0.17716765 0.07723383 0.10849231 -0.1303563 0.25814304 0.2459676 -0.21159868
0.052867576 -0.030180808 -0.32517904 -0.22800276 -0.2662967 0.23035428 0.05630436 0.22265625
0.2552343 0.36941507 0.3274922 0.1858404 0.3698352 0.068429284 -0.3182011 -0.0014928533
0.26540598 0.32995647 -0.33815715 0.018882973 -0.04852782 0.29957262 0.21682703 0.27211165
-0.012781777 0.3313294 -0.14600326 0.02416329 -0.16332698 0.009249098 0.2130334 -0.358127
-0.037370354 0.01603475 -0.30311936 -0.34742892 0.024071455 -0.251023 0.005535237 0.21172506
-0.34457234 -0.32415575 0.13793829 0.07182918 -0.029092697 0.10931253 -0.37005726 0.08085595
0.100857414 -0.07505156 0.26542684 0.34849757 -0.16606909 -0.11608415 0.30685705 0.035058826
-0.16909453 0.20763655 0.062012713 0.14138259 -0.29877415 0.34043875 -0.080514416 -0.32531285
-0.30296713 0.10730749 -0.06512199 0.059355147 0.27946118 0.10510516 0.045920912 0.21213914
0.040298086 0.23866163 -0.15892385 -0.20117283 -0.10462666 -0.22618859 -0.36886415 -0.35190505
-0.377643 -0.24359329 0.35673785 -0.20653689 -0.10250101 0.14774519 -0.10172594 0.23383914
-0.18583994 0.124765076 -0.22517644 -0.02424939 -0.051432185 0.32223573 -0.02037143 0.22200498
-0.22281866 0.16942693 -0.3093478 0.11981862 -0.12164299 -0.08915174 -0.16021873 0.2022072
-0.08270455 -0.3315977 0.26136 -0.2625452 -0.048821785 -0.22505833 -0.37316152 -0.11582339
0.17849687 0.082735054 -0.06784191 -0.06911982 -0.12924756 -0.3534172 0.056182057 0.082376674
0.2833785 -0.14319141 0.29165834 -0.2784098 -0.33571652 -0.24836792 0.3187891 0.30517653
0.029918486 -0.05699005 -0.26147252 0.11321522 -0.122498624 0.1540118 0.23563845 0.3315122
0.25349727 0.052427813 -0.0724313 -0.37292784 -0.22131036 -0.25483176 -0.36145356 0.01416453
0.33155605 -0.32760033 -0.34678504 -0.018985886 -0.13856174 -0.02894386 -0.24513558 0.32442814
0.31403068 -0.16587284 -0.12613352 0.37260568 0.24752441 0.081182845 -0.16421528 -0.32712084
-0.30133015 0.30786932 0.33493036 -0.20727082 -0.06264244 -0.32467487 0.060759723 -0.14141347
0.10564968 -0.31717512 0.37463355 -0.37377158 -0.20137693 -0.08042652 -0.10476751 0.356212
-0.1790006 -0.33639818 -0.23461846 0.3323254 0.035612773 -0.17146128 -0.32037038 0.2501093
0.20920122 0.124991424 -0.25878483 0.08671849 -0.31160578 -0.25862047 -0.043896932 0.063316576
0.3653998 0.36840796 -0.06140727 -0.029782854 -0.3671648 0.31583068 -0.18329373 0.24544936
0.1871814 -0.293673 0.31611416 0.16964246 0.28135946 -0.061968256 0.20731105 -0.14048018
0.10063642 -0.21269156 -0.35196093 0.1723972 -0.14188212 0.07156303 -0.22976123 -0.25921875
-0.26956174 0.33707044 0.24621442 -0.3718093 0.17687763 -0.08070231 0.039588474 -0.20830233

embedding.0.bias f4 [128]
00000000: 8aac b6be 8929 7abe a511 b7be 704b 1a3e
00000010: 959a 11be 95d9 8e3e bad9 0a3e 7a40 893d
00000020: 59b7 49be 5b22 ab3d e8af 8dbe 3976 bd3d
00000030: 6449 51be 914b a73d eb63 b93e d60f acbe
00000040: 7d72 3dbe 789a 613d 133f b43e b426 b73d
00000050: 8230 1ebe b189 0f3e d6cf 98be eefd 393e
00000060: 1104 593e 70d2 af3e 7417 913e 7fb9 48bd
00000070: 36fc 9fbe f162 b8bc 6dac 22be 2595 71bd
00000080: ae22 ed3c 23e6 9dbe 3756 b0be f952 a2bd
00000090: 92d1 763e d8e7 9ebe 37cc afbe bd9c d83c
000000a0: 2330 c0bc 7bf1 05be 1557 80be d098 2f3d
000000b0: efcc 463e 6ad7 9abe dbdf 26bd 7799 3cbe
000000c0: 014f 8e3e d316 6e3e 4ca7 013e c832 793e
000000d0: 93f5 703e 58cf 983e 5580 9c3e 4f62 8ebd
000000e0: e26b 963e 7c41 7abe 5465 243e 0d4e 83be
000000f0: 0616 a63e 1888 2ebd 8851 813e 421d a53e
00000100: 8a13 903e b782 a4be c5ff dc3d c7c5 873e
00000110: be1f c13e e191 343e 7ef4 263d 0618 a33e
00000120: dfda a43e 3b17 84be e088 e43d 47fd 863e
00000130: c8f2 0fbe 4eff 50be 80c5 823e 9f81 843e
00000140: 9b53 ce3d c4ce 13be 5d45 a3be 019f afbe
00000150: fff2 9d3d 9550 f73d dd90 92be de76 67be
00000160: 35db 8a3e 4b80 45be 8dd1 a23e 4682 b23e
00000170: d02c 6cbe 0b92 923e 62e6 f4bc a121 773d
00000180: 443c f6bc 61a3 053e 0cb2 c23d 3e51 8bbb
00000190: d5ad 9cbd f7be 853e 2f7c d73d 01b9 9abe
000001a0: 6ded 013e 668a 8dbd 4fc6 65be d0a8 2dbe
000001b0: 3e9f 903e f348 5e3e bcdb f63d 4a58 7a3d
000001c0: 74a9 453e f352 97bd 613a 04be 1d55 943e
000001d0: b56c bbbe 8be8 283e c072 debd daa2 e2bd
000001e0: 3676 bebe 8af0 3b3e 91bd 863e 5099 ba3d
000001f0: ccf4 b5be b884 ae3e 9936 363e d198 97be
-0.35678512 -0.24429907 -0.3575565 0.1506784 -0.14219125 0.27900377 0.13559619 0.06701751
-0.19698848 0.08356162 -0.27673268 0.09251065 -0.20438153 0.0816871 0.36209044 -0.33605832
-0.18500705 0.055078954 0.35204372 0.08942929 -0.15448192 0.14017369 -0.29846066 0.18163273
0.21192957 0.3434024 0.28338206 -0.049005028 -0.3124711 -0.022508116 -0.15886088 -0.058980126
0.0289472 -0.30839643 -0.34440777 -0.07925982 0.24103382 -0.31036258 -0.3433549 0.026441926
-0.023460453 -0.13080399 -0.25066438 0.042870343 0.19414113 -0.30242473 -0.04074083 -0.18417917
0.2779465 0.23250894 0.12661475 0.24335778 0.23531179 0.2984569 0.3056666 -0.069523446
0.29379183 -0.24439043 0.16054279 -0.25645486 0.32438678 -0.042610258 0.25257516 0.32248884
0.28139907 -0.32130978 0.10790972 0.2651808 0.3771953 0.17633773 0.04076051 0.31854266
0.32198235 -0.25798973 0.11158919 0.2636511 -0.14057457 -0.20409891 0.25541306 0.25880143
0.1007454 -0.14434344 -0.31888857 -0.34300998 0.077123635 0.12075917 -0.28626147 -0.22603938
0.27120367 -0.19287221 0.318005 0.34865016 -0.2306397 0.28627047 -0.029895011 0.060334805
-0.030058034 0.13050605 0.09506616 -0.004251628 -0.07650343 0.26122257 0.10521733 -0.30219272
0.12688227 -0.06911163 -0.2243893 -0.16958928 0.28246492 0.21707515 0.1205363 0.061119355
0.19302922 -0.07388868 -0.12912895 0.28971186 -0.36606374 0.16494958 -0.108617306 -0.11066218
-0.37199563 0.18353477 0.26316503 0.09111273 -0.35538328 0.3408563 0.17794265 -0.29608777

layernorm.weight f4 [259, 128]
00000000: 0000 803f 0000 803f d1ff 7f3f adff 7f3f
00000010: f7ff 7f3f a3de 7f3f 7d00 803f c6fb 7f3f
00000020: ceff 7f3f 0000 803f efff 7f3f 2200 803f
00000030: 8900 803f afff 7f3f 62ff 7f3f 1600 803f
00000040: 0000 803f 8efa 7f3f 0000 803f 0000 803f
00000050: 0000 803f 0000 803f 0000 803f ffff 7f3f
00000060: 93ff 7f3f 0000 803f d800 803f 0000 803f
00000070: cceb 7f3f 0000 803f 0500 803f 0000 803f
00000080: 0000 803f ecff 7f3f 0000 803f 0000 803f
00000090: 0500 803f 0000 803f 0000 803f faff 7f3f
000000a0: 3900 803f feff 7f3f e3fd 7f3f d1f2 7f3f
000000b0: 0000 803f 0000 803f 1500 803f 84ff 7f3f
000000c0: f3ff 7f3f 65f7 7f3f f7ff 7f3f 6b00 803f
000000d0: 4600 803f 0000 803f 1000 803f 0000 803f
000000e0: faff 7f3f deff 7f3f 0000 803f 5700 803f
000000f0: 0000 803f 0000 803f 0000 803f 0000 803f
00000100: b200 803f 3e00 803f 0000 803f 7900 803f
00000110: 0000 803f bfff 7f3f b400 803f 1405 803f
00000120: ffff 7f3f 1a00 803f ee10 803f 0600 803f
00000130: 0000 803f 0000 803f 0000 803f 0000 803f
00000140: 2b00 803f 0700 803f fcff 7f3f 0000 803f
00000150: feff 7f3f 00ff 7f3f 43fb 7f3f 0000 803f
00000160: 4000 803f 0dfd 7f3f b502 803f 0000 803f
00000170: 0000 803f d8ff 7f3f 9eff 7f3f 3cff 7f3f
00000180: 3cff 7f3f 4c00 803f 27fe 7f3f 2009 803f
00000190: f9f4 7f3f b1ee 7f3f f4ff 7f3f 0000 803f
000001a0: 6af2 7f3f 4500 803f 2eed 7f3f 0a00 803f
000001b0: 0000 803f 44ff 7f3f 3500 803f 0000 803f
000001c0: 0000 803f 250b 803f 0000 803f 7703 803f
000001d0: 6800 803f 0000 803f 0000 803f 0000 803f
000001e0: 24fd 7f3f 0000 803f 0000 803f 0000 803f
000001f0: 2d00 803f 0000 803f 0000 803f 74e9 7f3f
00000200: 0000 803f 0000 803f f6ff 7f3f faff 7f3f
00000210: 0000 803f 45f4 7f3f 4c00 803f fdfe 7f3f
00000220: 0100 803f 0000 803f 0000 803f 0f00 803f
00000230: 4000 803f efff 7f3f 62ff 7f3f 0000 803f
00000240: 0000 803f c6fe 7f3f 0900 803f 0000 803f
00000250: 0000 803f 0000 803f 0000 803f 0000 803f
00000260: f1ff 7f3f 0000 803f 7a00 803f 0000 803f
00000270: 35fa 7f3f 0000 803f 0000 803f 0000 803f
00000280: 0000 803f ecff 7f3f 0000 803f 0000 803f
00000290: 0000 803f 0000 803f 0000 803f 0000 803f
000002a0: 0700 803f 0000 803f 5dff 7f3f 1dfd 7f3f
000002b0: 0000 803f 0c00 803f 0000 803f 58ff 7f3f
000002c0: 0000 803f 0900 803f deff 7f3f 1d00 803f
000002d0: 1e00 803f 0000 803f 0000 803f 0000 803f
000002e0: f5ff 7f3f fdff 7f3f 1600 803f 1d00 803f
000002f0: 0000 803f f5ff 7f3f 0000 803f 0000 803f
00000300: 2700 803f 2100 803f 0000 803f 1300 803f
00000310: 0000 803f f6ff 7f3f 3c00 803f 5500 803f
00000320: 0000 803f 0100 803f 9d02 803f 0000 803f
00000330: 0000 803f 0000 803f 0000 803f 0000 803f
00000340: 0a00 803f 0000 803f 0000 803f 0000 803f
00000350: 0000 803f 6cff 7f3f 6bff 7f3f 0000 803f
00000360: 1200 803f 7bfe 7f3f 8200 803f 0000 803f
00000370: 0000 803f f2ff 7f3f efff 7f3f a4ff 7f3f
00000380: 81ff 7f3f 1400 803f 13ff 7f3f 8a01 803f
00000390: c8fe 7f3f c2fc 7f3f 0000 803f f0ff 7f3f
000003a0: 5efe 7f3f 3700 803f 02fa 7f3f 2100 803f
000003b0: 0700 803f baff 7f3f 0700 803f 0000 803f
000003c0: 0000 803f ef00 803f 0900 803f 4500 803f
000003d0: 1c00 803f 0000 803f 0000 803f 0000 803f
000003e0: 9cfe 7f3f 0000 803f 0000 803f 0000 803f
000003f0: 1f00 803f 0000 803f 0000 803f 97f9 7f3f
1.0 1.0 0.9999972 0.99999505 0.99999946 0.9994909 1.0000149 0.9999355
0.999997 1.0 0.999999 1.000004 1.0000163 0.9999952 0.9999906 1.0000026
1.0 0.9999169 1.0 1.0 1.0 1.0 1.0 0.99999994
0.9999935 1.0 1.0000257 1.0 0.9996917 1.0 1.0000006 1.0
1.0 0.9999988 1.0 1.0 1.0000006 1.0 1.0 0.99999964
1.0000068 0.9999999 0.99996775 0.99979883 1.0 1.0 1.0000025 0.9999926
0.9999992 0.9998687 0.99999946 1.0000128 1.0000083 1.0 1.0000019 1.0
0.99999964 0.999998 1.0 1.0000104 1.0 1.0 1.0 1.0
1.0000212 1.0000074 1.0 1.0000144 1.0 0.9999961 1.0000215 1.000155
0.99999994 1.0000031 1.0005167 1.0000007 1.0 1.0 1.0 1.0
1.0000051 1.0000008 0.99999976 1.0 0.9999999 0.99998474 0.9999277 1.0
1.0000076 0.999955 1.0000826 1.0 1.0 0.9999976 0.99999416 0.9999883
0.9999883 1.0000091 0.9999718 1.0002785 0.99983174 0.9997359 0.9999993 1.0
0.9997927 1.0000082 0.9997128 1.0000012 1.0 0.9999888 1.0000063 1.0
1.0 1.0003401 1.0 1.0001057 1.0000124 1.0 1.0 1.0
0.99995637 1.0 1.0 1.0 1.0000054 1.0 1.0 0.99965596
1.0 1.0 0.9999994 0.99999964 1.0 0.999821 1.0000091 0.99998456
1.0000001 1.0 1.0 1.0000018 1.0000076 0.999999 0.9999906 1.0
1.0 0.9999813 1.0000011 1.0 1.0 1.0 1.0 1.0
0.9999991 1.0 1.0000145 1.0 0.9999116 1.0 1.0 1.0
1.0 0.9999988 1.0 1.0 1.0 1.0 1.0 1.0
1.0000008 1.0 0.9999903 0.99995595 1.0 1.0000014 1.0 0.99999
1.0 1.0000011 0.999998 1.0000035 1.0000036 1.0 1.0 1.0
0.99999934 0.9999998 1.0000026 1.0000035 1.0 0.99999934 1.0 1.0
1.0000046 1.0000039 1.0 1.0000023 1.0 0.9999994 1.0000072 1.0000101
1.0 1.0000001 1.0000798 1.0 1.0 1.0 1.0 1.0
1.0000012 1.0 1.0 1.0 1.0 0.9999912 0.9999911 1.0
1.0000021 0.9999768 1.0000155 1.0 1.0 0.99999917 0.999999 0.9999945
0.99999243 1.0000024 0.9999859 1.000047 0.9999814 0.9999505 1.0 0.99999905
0.9999751 1.0000066 0.99990857 1.0000039 1.0000008 0.9999958 1.0000008 1.0
1.0 1.0000285 1.0000011 1.0000082 1.0000033 1.0 1.0 1.0
0.9999788 1.0 1.0 1.0 1.0000037 1.0 1.0 0.9999022

layernorm.bias f4 [259, 128]
00000000: 4a16 a8b4 9643 bf36 c06d 43b6 c667 29b7
00000010: a0fe 6833 eebb 3db7 321c c636 b868 16b6
00000020: 2450 58b6 c2a8 6fb7 9ad2 70b6 cd38 6836
00000030: cf44 0937 b674 54b6 6b14 0fb7 d226 1b37
00000040: 8b73 8936 4134 84b6 096b 3b37 df0d 60b6
00000050: 8ad3 1137 735c 8a36 36fb 4b37 7a8c b134
00000060: 8354 13b7 02ec 3bb7 573e b436 7abc 99b6
00000070: b79f 10b7 eee9 f136 822c c236 7451 4d36
00000080: 2a7b b0b6 f95f 70b6 cb89 b9b3 3d19 8137
00000090: 68d1 5236 9f01 e5b5 03d9 adb6 875a a4b6
000000a0: eb4f 0b37 f2b2 81b7 d3d5 0eb7 39bc 04b7
000000b0: b81f 00b7 e7ce 2437 ff50 fc36 a6ae c835
000000c0: 478b 56b6 e869 4fb7 c315 04b7 20f3 6336
000000d0: 5724 3236 816f 34b7 4fe5 1436 7f4d eb35
000000e0: 5e95 13b7 570d 7ab5 a445 5a37 61b0 8636
000000f0: 3570 33b7 632e 32b7 cfd2 8336 6410 d436
00000100: 4aa5 1a37 59b2 0437 96f3 1037 89c7 0db7
00000110: 52aa 76b6 d708 4ab7 2373 8036 8ef5 1c37
00000120: fdbf 8937 5cfe b136 ca2a 8437 ce3a 34b7
00000130: abe2 15b7 4a0d 52b7 64e6 b82f 9446 4b36
00000140: e03e 0037 09c5 0537 1daa 37b6 acf3 e5b6
00000150: d6d6 0736 e4dc 43b7 77d4 03b7 699e b436
00000160: 3f06 4b36 17e2 d4b5 01ce 1737 ffec e436
00000170: bb83 4436 951d 30b7 8206 84b7 018f bfb6
00000180: 8390 e3b6 bc40 6a36 a5ab 0db6 52d6 8837
00000190: a789 95b6 c719 04b7 399b 5cb7 3264 a1b6
000001a0: 8f18 44b7 a49e a636 f1c8 95b6 f848 2837
000001b0: f3b6 8037 5b31 28b5 9108 3737 4ff5 00b6
000001c0: c25f 3e37 f89f 7b37 43df d136 435d 1a37
000001d0: d8a8 1a36 42f0 a336 baee bcb6 68a0 1a37
000001e0: 674f 48b7 8632 6337 7312 9936 5069 1db6
000001f0: 3077 7837 ce58 d2b6 f284 cb36 04f7 43b7
00000200: 58b8 8435 1f4e ab36 49c2 a4b6 5bd8 08b7
00000210: 60d1 8eb4 dc6c 1eb7 f4c0 b936 b9e2 7db6
00000220: 1f2f 6cb6 544e 88b7 1cee ccb5 f68c 0d36
00000230: 224a 2737 1e0b 03b7 8f77 16b7 3a8e 3d37
00000240: 75ff b836 afdf e2b6 e130 3337 1191 f7b6
00000250: 95fc 1e37 2e09 4436 1502 4737 e9c2 7e36
00000260: 08cf 19b7 9587 05b7 248b 8236 f7af 3eb6
00000270: 3253 50b7 8d0f dd36 6299 7a36 327e 2536
00000280: e845 f7b6 2061 5cb6 6816 19b6 554a 4b37
00000290: 8dfd 8736 4515 42b6 f1b2 8ab6 0bcf 70b6
000002a0: 7a12 bb36 97b1 6fb7 e138 0cb7 c581 28b7
000002b0: a915 b1b6 8a5f 5637 5595 0137 9fbd 5cb6
000002c0: c35c 8eb6 dc78 5cb7 db6b 0eb7 dcfe 8836
000002d0: 8136 c835 72e8 22b7 285a 1d36 e4c5 0a36
000002e0: c264 06b7 1aef 08b6 da42 5337 1133 3d36
000002f0: 65d0 f0b6 e587 38b7 4b89 cb36 7f57 d236
00000300: c4a1 fb36 fddb b936 70d0 1e37 7bbe 13b7
00000310: 07fd 6a35 824f 3eb7 2569 8f36 ad46 4037
00000320: bb91 8c37 a7b6 9636 4182 6137 f1e2 4db7
00000330: e739 52b7 3656 67b7 1bac ceb5 3365 ce36
00000340: fdd7 7f36 50d1 1a37 08a5 a6b6 bcb5 05b7
00000350: d8d0 4536 a628 4eb7 797f 95b6 9f1f e236
00000360: 3933 7036 22fd eeb5 194c 2f37 41d9 9036
00000370: c5a2 af36 5ad8 48b7 a4a0 71b7 3274 fbb6
00000380: 4043 00b7 07ca c636 8da3 56b6 9eca 8137
00000390: 7ffa 42b6 5614 c7b6 f2bc 65b7 d48b d1b6
000003a0: 688c 31b7 e4c1 d536 2ffc bdb6 1d57 6037
000003b0: 2e4c 6237 2cb2 f9b2 a67c 5737 ff49 46b6
000003c0: 30ae 5d37 3ec3 6c37 e8f2 f436 c761 c936
000003d0: e2b6 be36 ed3b a136 e741 c7b6 f2cf 2e37
000003e0: 4822 3eb7 7148 9037 2861 6b36 d5c9 9db6
000003f0: 50d1 9437 a848 e3b6 3d04 0c37 ffe6 4ab7
-3.1308656e-07 5.7001116e-06 -2.9121147e-06 -1.0097347e-05 5.424829e-08 -1.1309034e-05 5.904142e-06 -2.2412696e-06
-3.2233156e-06 -1.4284802e-05 -3.5885373e-06 3.4603756e-06 8.181857e-06 -3.1658396e-06 -8.528218e-06 9.2477585e-06
4.096369e-06 -3.9399897e-06 1.117099e-05 -3.3386675e-06 8.691926e-06 4.123483e-06 1.21582325e-05 3.307103e-07
-8.78156e-06 -1.1201018e-05 5.3716753e-06 -4.581697e-06 -8.620255e-06 7.2095927e-06 5.786832e-06 3.0594792e-06
-5.259547e-06 -3.581865e-06 -8.639798e-08 1.538975e-05 3.141433e-06 -1.7062301e-06 -5.1810653e-06 -4.8981196e-06
8.303653e-06 -1.5461326e-05 -8.513644e-06 -7.911637e-06 -7.63678e-06 9.823335e-06 7.5196144e-06 1.4951991e-06
-3.1969555e-06 -1.236282e-05 -7.87288e-06 3.3967153e-06 2.654522e-06 -1.0754798e-05 2.2187194e-06 1.7531419e-06
-8.79666e-06 -9.315167e-07 1.3010027e-05 4.0140444e-06 -1.0695357e-05 -1.0620427e-05 3.9286456e-06 6.3200005e-06
9.2176e-06 7.909338e-06 8.639783e-06 -8.450713e-06 -3.6755996e-06 -1.2042196e-05 3.828101e-06 9.355497e-06
1.6421074e-05 5.3046224e-06 1.5755551e-05 -1.0742528e-05 -8.933867e-06 -1.25200695e-05 3.3633107e-10 3.029044e-06
7.644034e-06 7.973294e-06 -2.7368144e-06 -6.853099e-06 2.0241619e-06 -1.1674336e-05 -7.857677e-06 5.3828594e-06
3.0252993e-06 -1.5861032e-06 9.048265e-06 6.8225195e-06 2.9282953e-06 -1.0497305e-05 -1.5738657e-05 -5.7088914e-06
-6.7819506e-06 3.4906398e-06 -2.1110548e-06 1.6312264e-05 -4.456571e-06 -7.873815e-06 -1.3149162e-05 -4.809838e-06
-1.1688228e-05 4.9656537e-06 -4.4639387e-06 1.003057e-05 1.5343981e-05 -6.26567e-07 1.09096445e-05 -1.9216275e-06
1.1347178e-05 1.49980115e-05 6.2546765e-06 9.2008295e-06 2.3046068e-06 4.8857482e-06 -5.630628e-06 9.216463e-06
-1.1939416e-05 1.3542018e-05 4.561903e-06 -2.3456123e-06 1.4809702e-05 -6.268826e-06 6.0653483e-06 -1.16804185e-05
9.888417e-07 5.1052916e-06 -4.9101986e-06 -8.156606e-06 -2.6601901e-07 -9.44288e-06 5.5358923e-06 -3.7831908e-06
-3.5194169e-06 -1.6248938e-05 -1.5268483e-06 2.1092687e-06 9.971236e-06 -7.810797e-06 -8.968534e-06 1.1298393e-05
5.5133664e-06 -6.761365e-06 1.0680612e-05 -7.3780616e-06 9.476343e-06 2.921162e-06 1.1861809e-05 3.7962402e-06
-9.167714e-06 -7.958985e-06 3.8905e-06 -2.8414631e-06 -1.24171365e-05 6.5881236e-06 3.7342184e-06 2.4660371e-06
-7.369312e-06 -3.2839089e-06 -2.2811819e-06 1.211705e-05 4.0528307e-06 -2.8920633e-06 -4.133552e-06 -3.5883302e-06
5.5751852e-06 -1.42868585e-05 -8.357893e-06 -1.0043795e-05 -5.2775326e-06 1.2777638e-05 7.723768e-06 -3.2892929e-06
-4.2427287e-06 -1.3141162e-05 -8.488972e-06 4.0827854e-06 1.4917024e-06 -9.710073e-06 2.34473e-06 2.067879e-06
-8.010482e-06 -2.0404755e-06 1.2592145e-05 2.819292e-06 -7.1768177e-06 -1.0998895e-05 6.0658544e-06 6.2686736e-06
7.499215e-06 5.5390396e-06 9.4660645e-06 -8.8062325e-06 8.7539996e-07 -1.1343394e-05 4.2739725e-06 1.1460547e-05
1.6757162e-05 4.491612e-06 1.3441372e-05 -1.2271791e-05 -1.2530457e-05 -1.37887455e-05 -1.5398285e-06 6.1510596e-06
3.8123683e-06 9.22785e-06 -4.9663977e-06 -7.969731e-06 2.947685e-06 -1.2288021e-05 -4.455386e-06 6.739006e-06
3.5792602e-06 -1.7806053e-06 1.0448531e-05 4.316826e-06 5.2343553e-06 -1.1971302e-05 -1.4402121e-05 -7.49391e-06
-7.645052e-06 5.924379e-06 -3.1983684e-06 1.547235e-05 -2.905406e-06 -5.9330296e-06 -1.3693456e-05 -6.2449635e-06
-1.0582713e-05 6.3704665e-06 -5.661997e-06 1.3371723e-05 1.3488387e-05 -2.9068438e-08 1.2844021e-05 -2.954737e-06
1.3213183e-05 1.41121545e-05 7.3000447e-06 6.0016496e-06 5.6837316e-06 4.80515e-06 -5.938334e-06 1.0419624e-05
-1.1332864e-05 1.719987e-05 3.5074281e-06 -4.702461e-06 1.7740444e-05 -6.7735855e-06 8.345637e-06 -1.2093921e-05

fc.0.weight f4 [128, 128]
00000000: a1f9 7fbd 38b3 9dbc 7f89 aa3d 09e5 1bbd
00000010: 1819 283c dadd 9cbd c372 28bb c916 693d
00000020: 5cf4 04bd b27e 4dbc 2c61 533d 3217 7ebd
00000030: 256d 83bd b5a3 423d 99f1 86bd b21d 2dbc
00000040: 172d b23d 0903 ac3d 7792 6bbd 7546 af3d
00000050: b2fb cd3c ae6d bbbc 666e 61bd 4ce3 d0bc
00000060: 0a89 0abc bc4f 063d b760 b4bc ea18 0dbd
00000070: 0adb a1bb dfbc 44bc df4b f73a 3102 92bc
00000080: b189 24bd 1f6d 933d 8472 ffbc eb8f 07bd
00000090: 0c33 76bd 3ce9 923d fec5 0f3d 2427 243c
000000a0: 99d5 833d 3cc3 f1bb 879e 5abd 6f64 a03d
000000b0: d98e dcbc 765e 0f3b 6805 8d3c 880b b2bd
000000c0: 0700 283d c6e9 323d d5da 3b3d b216 1c3d
000000d0: df1b ab3c fd9b 903c 81dd 513d 6071 883d
000000e0: 7618 9abc d857 86bd 97b6 a63d bc4e 33bc
000000f0: e60b 123d ef4b 9bbd 5fee 043b 11db 283c
00000100: 4ad7 95bd ab62 89bd d7fe 45bd ffc6 82bd
00000110: 64a8 43bd a832 a3bd 02b2 483c 33f9 8bbd
00000120: 2f55 83bb 6d98 633d 1d0a d73c c22f 2a3d
00000130: 7b87 00bc e1e2 823c 6201 93bd dc91 a8bd
00000140: 5f00 e93b 82d7 923d bb42 fabc 8db8 fbbc
00000150: 8829 883c b3f6 91bd 4eba 85bd 198c 753c
00000160: 8838 f93b 12d2 77bb 3fa9 83bd ff26 7dbd
00000170: 0468 6f3d 937d c73c 3a99 293d cc91 9a3b
00000180: 734e 4fbd 526e a33d 72a7 70bd cd06 0c3d
00000190: 20f5 9c3c 3dcc ad3d dd02 86bb c371 9a3d
000001a0: f2c9 8cbc 9796 293d 24b7 a03d 9ece 3b3d
000001b0: 44d6 60bd 52e9 a5bd 8d98 9d3d 05bc 773d
000001c0: 2e9e 193c efcc 273d c2d1 94bd 2be4 0ebd
000001d0: 86e6 69bc 8923 23bd ce4b af3c feec 5c3d
000001e0: 38c9 b43d 71b8 0fbc fb5e e7bb c094 983d
000001f0: 8ed4 b63c 37e2 8d3d 9d29 82bc 0276 6e3d
00000200: d463 a7bc 269b 6a3b 6c10 a43d ff7d 873d
00000210: 59df 05bd 8921 7a3d 3546 773b 4a27 9abd
00000220: a3ef 31bd e52d 4a3d abf1 ad39 8afb fe3c
00000230: b41f 34bd 56de 30bd 9135 7a3d 512d 923d
00000240: 59fc 81bd f2ae 6e3b 7502 a93d ef91 8cbd
00000250: 8607 aa3d 71f5 ae3b 5850 9f3d 7996 a6bd
00000260: 80b3 953d 573e 56bc 3328 f8bb f120 b4bc
00000270: 6a75 873d d996 20bd 46ee 373d 5d78 51bd
00000280: 524d 9f3d 7450 4c3d c787 f4bb 0b53 e43c
00000290: 150d 95bd d83c 243d 2b51 393d 161d 1cbd
000002a0: 10e6 dbbc e01f b63c c8ab 6b3c 64d6 1b3d
000002b0: 7ce4 5d3c 4aef b0bd 8bc1 0b3b b5f6 75bd
000002c0: 2d04 6b3c f1b8 8b3d 5389 2f3d 3f39 87bd
000002d0: 776b cfba f260 9b3d 52e4 5bbd 3d1c ad3d
000002e0: 3238 173d 16f1 573d 276c 9e3d 5328 91bd
000002f0: c1d0 14bd b4a6 a6bc d3ab 823c 872d 4fbd
00000300: 0caa 9c3c da5f 84bd dff7 553c f9f1 973d
00000310: 42a7 af3d c2bc b4bb e481 92bc fe14 463c
00000320: 4d1c a13d bea2 cd3c a3b9 c1bc 203a 833d
00000330: 11b1 2b3c aacd debc de96 8dbc f0af 413d
00000340: 33d6 f63c efda 483d dfdb ac3d 00ab 44bc
00000350: 5fde 6d3d 0dfe 6dbd 23cc e4bc 014b 443d
00000360: a8bb adbc 60db 4ebc 040f 4b3d 6ae1 3cbd
00000370: 6b56 ab3d 7cf3 5c3c 7960 5a3d c2ee 0cba
00000380: 0230 033d 4fa2 81bd 33cf 013d 93a2 0ebd
00000390: 89bf 87bd 1544 b5bd 0bc3 14bd c637 3b3d
000003a0: 708f 653d 38ca 223d cf7c 97bc 802d 6fbd
000003b0: 6b89 bf3c fa8d 25bc 1318 913c 3215 58bd
000003c0: 8baf 9bbd 5691 b2bd b29a 2f3b 3d7c fb3c
000003d0: a672 acbc 9828 cfbb 634c d13b b980 9bbd
000003e0: e379 febc b406 5b3d 0d0d a4bc 387d 623c
000003f0: b397 233d a849 88ba f215 943d ed0a 15bd
-0.062493924 -0.019250497 0.083270065 -0.03806022 0.010259889 -0.07659502 -0.002570317 0.056906495
-0.0324596 -0.012542414 0.051606342 -0.06203384 -0.06417302 0.047519404 -0.0658905 -0.010566162
0.087000065 0.083990164 -0.057512727 0.085583605 0.025144432 -0.022879448 -0.055036925 -0.025499009
-0.008455524 0.032790884 -0.022018773 -0.034447588 -0.0049394416 -0.012007921 0.0018867216 -0.01782331
-0.040170375 0.071985476 -0.031182535 -0.033096235 -0.060107276 0.07173392 0.03510093 0.0100190975
0.06437225 -0.00737801 -0.05337384 0.07831656 -0.026923584 0.0021876371 0.017214492 -0.08693606
0.04101565 0.043679975 0.04586299 0.03810758 0.020887313 0.017652506 0.051236633 0.066622496
-0.018810492 -0.065597236 0.08140295 -0.010944065 0.03565588 -0.075828426 0.0020283682 0.010306136
-0.07316454 -0.067082725 -0.048338737 -0.06385612 -0.04776801 -0.07968646 0.012249472 -0.0683464
-0.0040079574 0.055565286 0.02624994 0.04154945 -0.007844801 0.015977325 -0.07177998 -0.082309455
0.00711064 0.07170011 -0.030549398 -0.03072765 0.016621366 -0.07127132 -0.065296754 0.014987015
0.007605616 -0.003781442 -0.064287655 -0.061804768 0.058448806 0.02435187 0.041405894 0.0047170874
-0.050611924 0.07980026 -0.05875344 0.034186173 0.019159853 0.08486221 -0.004089697 0.075412296
-0.017186139 0.04140338 0.07847431 0.045851342 -0.05489184 -0.08101143 0.076951124 0.060482044
0.009376092 0.040966924 -0.07266571 -0.034885567 -0.0142761525 -0.03982881 0.021398451 0.05393695
0.08827442 -0.008772002 -0.007060883 0.07450247 0.02231815 0.06927913 -0.015888983 0.05821801
-0.020433344 0.0035798042 0.08010945 0.06615829 -0.032683704 0.061067138 0.0037731056 -0.07527025
-0.043441426 0.049360175 0.00033177188 0.031125803 -0.043975547 -0.043180786 0.06108624 0.0713755
-0.063469596 0.0036420194 0.08252422 -0.06863772 0.08302216 0.0053393175 0.07778996 -0.08134169
0.073096275 -0.013076386 -0.0075731515 -0.021988364 0.06614192 -0.03920636 0.04490497 -0.051140178
0.077784196 0.049881414 -0.007462475 0.02787163 -0.07277886 0.040097088 0.045243423 -0.038113676
-0.0268431 0.022231996 0.014384218 0.038046256 0.013543244 -0.08639391 0.0021325077 -0.06004973
0.014344257 0.06822384 0.042855572 -0.06602716 -0.0015824874 0.0758685 -0.05368454 0.08452652
0.036918826 0.05272015 0.07735472 -0.07087769 -0.036331896 -0.020343162 0.015951073 -0.050580528
0.019124053 -0.06463595 0.013059585 0.074191995 0.08576824 -0.0055156657 -0.017884202 0.012089966
0.07866726 0.025102016 -0.023648089 0.06407571 0.010479228 -0.027197678 -0.017283853 0.047286928
0.030131435 0.049036916 0.084403746 -0.01200366 0.058073398 -0.05810361 -0.027929371 0.04792309
-0.021207646 -0.012625545 0.049574867 -0.04611341 0.08366092 0.013485786 0.05331466 -0.0005376154
0.032028206 -0.06329786 0.03169174 -0.03482301 -0.06628329 -0.08850876 -0.03631882 0.045707487
0.056044996 0.039743632 -0.01849213 -0.058393 0.023380956 -0.010104651 0.017711675 -0.05275459
-0.076018415 -0.08719127 0.0026795086 0.03069889 -0.021050762 -0.006321978 0.00638728 -0.07592911
-0.03106398 0.05347319 -0.020025754 0.0138238 0.039939594 -0.0010397928 0.07230748 -0.036387373

fc.0.bias f4 [128]
00000000: 53ed 863d 443e 9f3d dc3c 36bd 4eee 00bd
00000010: a9d6 153d 53e4 053d 1cee 75bd ae70 223d
00000020: 32b1 f23c ff69 a1bd efed 67bd 9d79 b3bd
00000030: 0461 883d bf40 1cbd 5f8f a1bd dca9 4abd
00000040: 9de3 f1bc 1760 6bbc 7a20 933d d2f0 c2bc
00000050: 7db3 8abd 5f38 433c 6292 603d 0e33 8abd
00000060: 884f 7f3d 98a7 82bd 0e60 783a 0be5 783d
00000070: bc7c 1f3d 7b46 963d 2391 c4bc e690 59bd
00000080: a8c3 0d3d 2d82 7a3d 883b b13d c869 003c
00000090: 6dcc 8e3b dffc 57bd 7dc6 5c3d f54e dfbc
000000a0: afb6 4a3d 33da a7bd 2c45 823d e886 f03a
000000b0: 20ea 303d 6457 90bc ce94 4e3c 4a64 8d3d
000000c0: 5aa7 2e3d 3eb6 69bd d52d 7f3d afca 1ebd
000000d0: f3ce 54bd 2517 9c3d cbea 50bd 5b84 0c3d
000000e0: 741f 93bc fd8b ef3c 6b2d 7d3d 35e8 91bd
000000f0: 3825 35bd 6511 723d f16d d3bc 45c0 053a
00000100: 9f24 acbd 1cef e23c 0989 14bd f019 523d
00000110: a93e a73d 8db1 8f3d 9d28 b13d 09cd 5f3d
00000120: f8eb b43d ea48 adbc 32f9 d139 9fb9 4c3d
00000130: 21d1 b1bd 196f 83bd f6a6 a53d b5f6 86bd
00000140: 7a6a acbc 1549 69bd a019 9cbd d34d fbbc
00000150: 76c2 9c3d 9bc0 443d aa7e ffbc 1c25 87bd
00000160: 3405 0bbd 95f9 d1bc 2524 923d 1694 7a3b
00000170: 0815 abbd fde8 3b3d 7e15 1d37 a06c a33d
00000180: 6257 993a 2e85 a2bd 08b4 9cbd f4bd 6e3d
00000190: a685 a7bd 7a87 abbc b4bd 0ebb e44c 2abc
000001a0: 186b 7b3c 8b09 39bd eafa 35bd cfcd 253c
000001b0: 151a 86bd f0ff 97bd 36cb b3bd 2803 523d
000001c0: c1ea 3a3d 7840 49bd 9a03 92bd e68c f4bc
000001d0: eacd 42bd 8bd9 19bd ac92 4fbd 3d90 873c
000001e0: 613b ae3d 0d4c 0f3c 809f 19bd 39d0 98bd
000001f0: e0c4 63bd 2d11 6abc 0ae8 993d 61b3 f9ba
0.06588235 0.07775548 -0.044491634 -0.031477265 0.03658167 0.03268845 -0.060041532 0.03965824
0.029625509 -0.07881545 -0.056623396 -0.0876343 0.06659129 -0.038147684 -0.07888674 -0.049478397
-0.02952748 -0.014366171 0.07183929 -0.023796473 -0.06772516 0.011915295 0.0548271 -0.06748019
0.062331706 -0.06379622 0.00094747625 0.060765307 0.038937315 0.07337662 -0.023994988 -0.0531167
0.03461042 0.0611593 0.08653933 0.00783772 0.0043578655 -0.05273139 0.05390023 -0.02725933
0.049490627 -0.08195915 0.0636085 0.0018350752 0.04319203 -0.017619796 0.01260872 0.06903894
0.042640068 -0.057058565 0.06229957 -0.038767513 -0.051955175 0.07621602 -0.051005166 0.03430591
-0.017959334 0.029241556 0.061810892 -0.07124368 -0.044224948 0.05909862 -0.02580926 0.0005102198
-0.084054224 0.027701907 -0.0362635 0.051294267 0.08166248 0.07016287 0.086503245 0.054638896
0.0883407 -0.021152932 0.0004004925 0.04998171 -0.08682466 -0.064176746 0.08088486 -0.065900244
-0.021046866 -0.056954462 -0.07622075 -0.030676758 0.07654278 0.048035245 -0.031188328 -0.06598875
-0.03394051 -0.025631705 0.071358 0.0038235239 -0.08353621 0.04587649 9.362933e-06 0.07979703
0.0011699016 -0.07935558 -0.07651526 0.058286622 -0.08179788 -0.020938624 -0.0021780552 -0.010394309
0.015345357 -0.045175117 -0.044428743 0.010119869 -0.065479435 -0.07421863 -0.08778994 0.05127254
0.045634035 -0.049133748 -0.07129593 -0.029852342 -0.047559656 -0.03756098 -0.050676987 0.01654827
0.085074194 0.008746159 -0.037505627 -0.0746159 -0.055607677 -0.014286322 0.07514961 -0.0019050651

output_layer.0.weight f4 [1, 128]
00000000: 0ea3 a43b 74c3 a2bc 04e0 743c b2c1 5f3d
00000010: 0761 f83c 2d28 7a3d 636b 01bd b2ff ea3c
00000020: f958 ee3c 0443 aa3d 02f0 ed3c f990 bebc
00000030: 6082 8abd 398e 3a3d 4f9b 413d 6944 56bd
00000040: 314a 15bd 4e67 f53c a45b 88bd ac56 ea3c
00000050: 24f0 b2bc 8d3c b7bc d9a6 76bd 6936 d93b
00000060: d89b 793d c77e 7b3d 1570 72bc 10a7 b03c
00000070: ac85 4b3d d73b 4abd ecc3 113c b608 a3bc
00000080: 7cc5 483d 30d1 053d 0e86 843c e42d a5bd
00000090: feda dcbc a1e0 893c 2aa1 393d b24f 3d3d
000000a0: c12d 19bd af38 a83d 9868 393d d0b5 713d
000000b0: 6160 783d 5d49 65bd a73f 3abd 0c2b 34bc
000000c0: a8e9 1c3d 6a79 973d c959 3f3d 271c 5ebc
000000d0: ecbf bebc ae3d 8d3d 7398 9a39 a2d1 743a
000000e0: da5d 453d e7fb 8d3c f0ba 8dbd b1e7 bebc
000000f0: 36ff 7b3d ce9b b43d f8b9 25bd 7cda d939
00000100: 9521 80bd eb9b 36bd df55 85bd 2973 993d
00000110: 8cd6 923c 2ded 793d 2f60 b1bc c0a3 84bd
00000120: 9063 aebd 275e 0bbd b6c3 98bd b76e 973d
00000130: 27e2 503d 2661 913d 4b5c 50bc bc55 dcbc
00000140: 25e6 2fbd b378 6ebd 3d04 8b3c 923d 7f3d
00000150: d7b8 103c 5288 a23d ed01 613d b348 50bc
00000160: ab22 fd3b 2e7e 5b3c b129 8bbd 9653 69bd
00000170: 0939 9bbc b462 963d 64b6 b03d b157 4f3c
00000180: b2e7 603d 9422 0dbd 22d1 9c3c e427 c0bd
00000190: 71cb 1a3d d510 693d 0203 9e3d b94e c73c
000001a0: 0c63 ad3d a047 0abd 127d 273d 3724 9dbd
000001b0: 8bc4 bdbd 8e24 6dbb fefe b1bd 1e6d 053d
000001c0: c58c 31bd 56cd 9ebd a129 71bd 8a7f f1bc
000001d0: ecfe 3b3c 56c5 b4bc fde6 493d ab87 4dbd
000001e0: ba8f 833d 0ebd 92bd 94c7 6f39 323f 9d3c
000001f0: b2c6 a2bd a95f 333d 8c4a 10bd d466 b03d
0.0050243204 -0.01986859 0.014945988 0.05462808 0.030319704 0.06107347 -0.031596553 0.028686378
0.02909516 0.083135635 0.029045109 -0.023262488 -0.06763148 0.04554579 0.047267254 -0.052311335
-0.036447708 0.029956486 -0.06658104 0.028605781 -0.021843024 -0.02236774 -0.060217712 0.0066288006
0.06093964 0.0614002 -0.01479723 0.021564037 0.049688026 -0.049373474 0.008896809 -0.019901615
0.04901646 0.0326702 0.016177204 -0.080653936 -0.026959892 0.016830744 0.045319714 0.04621858
-0.03739715 0.082139365 0.045265764 0.05901128 0.06063879 -0.055978168 -0.04547086 -0.010996591
0.03830877 0.07396205 0.046716485 -0.013556517 -0.023284875 0.0689653 0.00029486752 0.0009339099
0.048185207 0.01733203 -0.06920421 -0.023303838 0.061522685 0.0881878 -0.040460557 0.0004155225
-0.06256405 -0.04458229 -0.06510519 0.07492668 0.01792457 0.061017204 -0.02165231 -0.06476545
-0.08515084 -0.034025338 -0.07459204 0.07394164 0.050996926 0.07098608 -0.012717317 -0.02689635
-0.042944092 -0.058220576 0.016969794 0.062314577 0.008833132 0.07936157 0.054933477 -0.012712645
0.00772508 0.013396783 -0.067950614 -0.05696448 -0.018948095 0.07343045 0.08628538 0.012655185
0.054908462 -0.034456804 0.019142691 -0.093826085 0.037791673 0.056900818 0.077154174 0.02432953
0.08466157 -0.033759713 0.04089076 -0.07672923 -0.09266003 -0.0036185118 -0.08691214 0.032574765
-0.04334714 -0.077540085 -0.05887759 -0.02947976 0.011474352 -0.022066753 0.049292553 -0.05017821
0.06423898 -0.071649656 0.00022867165 0.019195173 -0.079480544 0.0437924 -0.035227343 0.08613363
