hiddensize-128/model_epoch_1_40.pth (torch, 338985 bytes, 7 tensors)

embedding.0.weight f4 [128, 7]
0	0x3a744b83	0.00093191135
1	0xbeb876d5	-0.36028162
2	0xbe848c0d	-0.258881
3	0x3e1efbbd	0.15525718
4	0x3e09d5b9	0.13460435
5	0x3d91f4ca	0.07126768
6	0xbe788213	-0.2426837
7	0xbe56b2a6	-0.20966586
8	0xbd8603be	-0.065436825
9	0xbe9bf2c4	-0.30458653
10	0x3e41114f	0.18854259
11	0x3ec17418	0.37783885
12	0xbc6e17af	-0.014532014
13	0xbe7cb53b	-0.24678509
14	0xbe4cb7a2	-0.19991925
15	0xbe951570	-0.29117918
16	0xbe95946d	-0.29214802
17	0xbd138703	-0.03601743
18	0x3e400437	0.18751608
19	0x3e12e364	0.14344555
20	0x3ce1a738	0.027545556
21	0xbe8a16d3	-0.26970538
22	0xbeab92ce	-0.3351044
23	0xbdcd2333	-0.10016479
24	0xbe2561ae	-0.16150543
25	0xbe356b69	-0.17716755
26	0x3d9e2dd2	0.07723583
27	0x3ddd144a	0.107948855
28	0xbe057c1f	-0.1303563
29	0x3e84671b	0.25859913
30	0x3e7bdf28	0.24596846
31	0xbe589baa	-0.21153131
32	0x3d588bac	0.052867576
33	0xbcf73dbe	-0.030180808
34	0xbea68e19	-0.32530287
35	0xbe6976fa	-0.22799292
36	0xbe882c44	-0.26596272
37	0x3e6c0289	0.23047842
38	0x3d6a9a6c	0.057276174
39	0x3e640294	0.22266608
40	0x3e82ae56	0.25523633
41	0x3ebd4d51	0.3697305
42	0x3ea7ad0e	0.32749218
43	0x3e3de16c	0.18543023
44	0x3ebd5664	0.36979973
45	0x3d8b6fe8	0.06808454
46	0xbea2eb42	-0.31820112
47	0xbac3edb7	-0.0014948164
48	0x3e87dc28	0.26535153
49	0x3ea8f00e	0.32995647
50	0xbead1c0e	-0.33810467
51	0x3c9ab3a3	0.018884486
52	0xbd46b91f	-0.04851639
53	0x3e996195	0.29957262
54	0x3e5e07e8	0.21682703
55	0x3e8b5b26	0.27217978
56	0xbc516d58	-0.012782417
57	0x3ea9aadb	0.33138165
58	0xbe158629	-0.1460196
59	0x3cc450e1	0.023964347
60	0xbe273f2f	-0.16332696
61	0x3c1786d8	0.009248458
62	0x3e59ffc2	0.2128897
63	0xbeb75c6c	-0.358127
64	0xbd1911a8	-0.037370354
65	0x3c835b4f	0.01603475
66	0xbe9b3276	-0.30311936
67	0xbeb1e234	-0.34742892
68	0x3cc53180	0.024071455
69	0xbe808616	-0.251023
70	0x3bb560ef	0.005535237
71	0x3e59d2de	0.21271846
72	0xbeb0656a	-0.34452373
73	0xbea5b7e9	-0.32366875
74	0x3e0d3fb2	0.13793829
75	0x3d931b2d	0.07182918
76	0xbceeaf0c	-0.029136203
77	0x3ddfdf3e	0.10931252
78	0xbebd7f2c	-0.37011087
79	0x3da570dc	0.08078167
80	0x3dcd4f1a	0.10024853
81	0xbd99b4a3	-0.07505157
82	0x3e87e607	0.26542684
83	0x3eb273ff	0.34854123
84	0xbe2a0ff7	-0.16607653
85	0xbdedafbb	-0.116057836
86	0x3e9d11ff	0.30677792
87	0x3d0d5e82	0.034513958
88	0xbe2d2911	-0.16910197
89	0x3e549cba	0.20762911
90	0x3d7d0bc9	0.061778817
91	0x3e10c699	0.14138259
92	0xbe98f0d8	-0.2987125
93	0x3eae4dfe	0.34043878
94	0xbda4d357	-0.080481224
95	0xbea68f68	-0.32531285
96	0xbe9b1e82	-0.30296713
97	0x3ddc15f7	0.10746377
98	0xbd855ce5	-0.06511859
99	0x3d735752	0.059409447
100	0x3e8f1972	0.279491
101	0x3dd7ad80	0.105311394
102	0x3d3c1948	0.045922548
103	0x3e593c5f	0.21214436
104	0x3d24eb65	0.040263552
105	0x3e7463b7	0.23866163
106	0xbe22bcef	-0.15892385
107	0xbe4e0040	-0.20117283
108	0xbdd64681	-0.10462666
109	0xbe679dfb	-0.22618859
110	0xbebcdbc3	-0.36886415
111	0xbeb42ce6	-0.35190505
112	0xbec15a6c	-0.377643
113	0xbe797085	-0.24359329
114	0x3eb6a658	0.35673785
115	0xbe537e68	-0.20653689
116	0xbdd1ec0d	-0.10250101
117	0x3e174a84	0.14774519
118	0xbdd055b1	-0.10172594
119	0x3e6f73a8	0.23383963
120	0xbe3e2b31	-0.18571164
121	0x3dff87a5	0.12477044
122	0xbe668a0a	-0.22513595
123	0xbcc6a3b3	-0.02424798
124	0xbd52a8d2	-0.05143053
125	0x3ea51575	0.32242933
126	0xbca6e1fc	-0.02037143
127	0x3e63ea93	0.22257452
128	0xbe6424dd	-0.22279687
129	0x3e2dc3a3	0.1696916
130	0xbe9e62d6	-0.3093478
131	0x3df56377	0.11981862
132	0xbdf894a2	-0.121377245
133	0xbdb69530	-0.08915174
134	0xbe241061	-0.16021873
135	0x3e4f0f67	0.2022072
136	0xbda96101	-0.08270455
137	0xbea9c72c	-0.3315977
138	0x3e85d0fa	0.26136
139	0xbe866c53	-0.2625452
140	0xbd47f95a	-0.048821785
141	0xbe6675b1	-0.22505833
142	0xbebf0f07	-0.37316152
143	0xbded34d0	-0.11582339
144	0x3e36c7e2	0.17849687
145	0x3da970ff	0.082735054
146	0xbd8af0b3	-0.06784191
147	0xbd8d8eb1	-0.06911982
148	0xbe045560	-0.12923193
149	0xbeb4f96b	-0.3534654
150	0x3d64c253	0.055849385
151	0x3da8b51a	0.082376674
152	0x3e9116fd	0.2833785
153	0xbe12a10a	-0.14319244
154	0x3e95543e	0.29165834
155	0xbe8e8bbb	-0.2784098
156	0xbeabe309	-0.33571652
157	0xbe7e5429	-0.24836792
158	0x3ea33853	0.3187891
159	0x3e9c4019	0.30517653
160	0x3cf5179d	0.029918486
161	0xbd6970d4	-0.056992367
162	0xbe85e6e2	-0.26152712
163	0x3de7dcde	0.11321424
164	0xbdfae502	-0.12250711
165	0x3e1db544	0.15401179
166	0x3e714b34	0.23563844
167	0x3ea9b728	0.3314755
168	0x3e81ca65	0.25349727
169	0x3d571e63	0.052519213
170	0xbd945649	-0.0724302
171	0xbebeef37	-0.3729188
172	0xbe629f2f	-0.22131036
173	0xbe82794f	-0.25483176
174	0xbeb91071	-0.36145356
175	0x3c681258	0.01416453
176	0x3ea9f0d3	0.33191547
177	0xbea7bad6	-0.32759732
178	0xbeb180e5	-0.3466865
179	0xbc9b884a	-0.018985886
180	0xbe0de321	-0.13856174
181	0xbcee75d0	-0.029108912
182	0xbe7b04f5	-0.2451361
183	0x3ea63da2	0.32468897
184	0x3ea0d2f4	0.31410944
185	0xbe293490	-0.16523957
186	0xbe012948	-0.12613404
187	0x3ebec62b	0.37260565
188	0x3e7d6c7f	0.24748419
189	0x3da64331	0.081182845
190	0xbe28280d	-0.16421528
191	0xbea77c62	-0.32712084
192	0xbe9a47f2	-0.30133015
193	0x3e9da10c	0.30786932
194	0x3eab7bfe	0.33493036
195	0xbe543ecd	-0.20727082
196	0xbd80488d	-0.06263838
197	0xbea62a90	-0.32454348
198	0x3d78e372	0.060763784
199	0xbe10c56c	-0.1413781
200	0x3dd860fd	0.10565374
201	0xbea264c6	-0.3171751
202	0x3ebfe5bd	0.37479964
203	0xbebf5efd	-0.37377158
204	0xbe4e35c1	-0.20137693
205	0xbda4b6a9	-0.08042652
206	0xbdd69059	-0.10476751
207	0x3eb6616b	0.356212
208	0xbe374bef	-0.1790006
209	0xbeac3c62	-0.33639818
210	0xbe703fd1	-0.23461844
211	0x3eaa20f4	0.33228266
212	0x3d11aff0	0.035568178
213	0xbe30039f	-0.17188881
214	0xbea40796	-0.32037038
215	0x3e800e53	0.2501093
216	0x3e56609d	0.20935293
217	0x3dfffb81	0.124991424
218	0xbe847f72	-0.25878483
219	0x3db19977	0.08671849
220	0xbe9f8acb	-0.31160578
221	0xbe8469e7	-0.25862047
222	0xbd33cd45	-0.043896932
223	0x3d81ac1f	0.063316576
224	0x3ebb15af	0.3653998
225	0x3ebc8c8e	0.36825985
226	0xbd7bafbc	-0.06144689
227	0xbcf7ba73	-0.030240273
228	0xbebbfd06	-0.3671648
229	0x3ea1b48f	0.31583068
230	0xbe3be879	-0.183504
231	0x3e7b5714	0.24544936
232	0x3e3fc12c	0.18726033
233	0xbe965aa3	-0.29366025
234	0x3ea1e30c	0.31618536
235	0x3e2db6c1	0.16964246
236	0x3e900e59	0.28135946
237	0xbd7e3f57	-0.062072124
238	0x3e544959	0.20731105
239	0xbe0fda09	-0.14048018
240	0x3dce1a78	0.10063642
241	0xbe59cbd1	-0.21269156
242	0xbeb43439	-0.35196093
243	0x3e3088e4	0.1723972
244	0xbe11498c	-0.14188212
245	0x3d928fa3	0.07156303
246	0xbe6b4687	-0.22976123
247	0xbe84b852	-0.25921875
248	0xbe8a03ff	-0.26956174
249	0x3eac947f	0.33707044
250	0x3e7c1fa2	0.24621442
251	0xbebe5dca	-0.3718093
252	0x3e351f67	0.1768776
253	0xbda52c13	-0.08065047
254	0x3d2236f9	0.039603207
255	0xbe552f28	-0.2081877

embedding.0.bias f4 [128]
0	0xbeb6ac89	-0.3567851
1	0xbe7a3324	-0.24433571
2	0xbeb711a5	-0.3575565
3	0x3e1a4f92	0.15069416
4	0xbe1190cb	-0.1421539
5	0x3e8edda8	0.27903485
6	0x3e0ac94e	0.13553354
7	0x3d894442	0.06702472
8	0xbe49b45a	-0.19697705
9	0x3dab3472	0.083596125
10	0xbe8dafa7	-0.27673075
11	0x3dbd76a6	0.09251146
12	0xbe514ab9	-0.2043866
13	0x3da74810	0.08168042
14	0x3eb96f4e	0.3621773
15	0xbeac0fd6	-0.33605832
16	0xbe3d727d	-0.18500705
17	0x3d61943b	0.055073004
18	0x3eb43b22	0.35201365
19	0x3db73262	0.08945157
20	0xbe1e3082	-0.15448192
21	0x3e0f7df4	0.14012891
22	0xbe98cfd6	-0.29846066
23	0x3e3a0a59	0.1816801
24	0x3e590e07	0.21196757
25	0x3eafd99a	0.34345704
26	0x3e9112bb	0.28334603
27	0xbd48b97f	-0.049005028
28	0xbe9ffc36	-0.3124711
29	0xbcb862f1	-0.022508116
30	0xbe22a94c	-0.15884894
31	0xbd719525	-0.058980126
32	0x3cee0d88	0.029059187
33	0xbe9de60c	-0.30839574
34	0xbeb05637	-0.34440777
35	0xbda252f9	-0.07925982
36	0x3e76d10a	0.2410318
37	0xbe9ee7d8	-0.31036258
38	0xbeafcc32	-0.34335476
39	0x3cd8ea41	0.026478888
40	0xbcc0406c	-0.023468219
41	0xbe05e51d	-0.13075681
42	0xbe805681	-0.25065997
43	0x3d2fb012	0.042892523
44	0x3e46e247	0.19422255
45	0xbe9ade74	-0.30247843
46	0xbd26e03f	-0.0407412
47	0xbe3c983c	-0.18417448
48	0x3e8e5333	0.2779785
49	0x3e6e2633	0.2325676
50	0x3e01a9a0	0.12662363
51	0x3e792fd5	0.24334653
52	0x3e70efeb	0.23529021
53	0x3e98d038	0.29846358
54	0x3e9c83a9	0.305692
55	0xbd8e5884	-0.06950477
56	0x3e96718f	0.29383513
57	0xbe7a417c	-0.24439043
58	0x3e244a32	0.16043928
59	0xbe834e74	-0.25645792
60	0x3ea61710	0.3243947
61	0xbd2e5ac4	-0.04256703
62	0x3e814c21	0.25253394
63	0x3ea5210d	0.32251778
64	0x3e900d73	0.2813526
65	0xbea4876e	-0.32134575
66	0x3ddce036	0.10784952
67	0x3e87ca0a	0.2652133
68	0x3ec121de	0.3772115
69	0x3e34a083	0.17639355
70	0x3d26da44	0.040735498
71	0x3ea30ce3	0.3184577
72	0x3ea4d5bd	0.3219432
73	0xbe84173b	-0.25798973
74	0x3de44683	0.111462615
75	0x3e870611	0.26371816
76	0xbe0ff2c8	-0.14057457
77	0xbe50ff4e	-0.20409891
78	0x3e82c976	0.25544327
79	0x3e8480ca	0.25879508
80	0x3dce5093	0.10073962
81	0xbe13d43b	-0.14436428
82	0xbea3455d	-0.31888857
83	0xbeaf9f01	-0.34300998
84	0x3d9e01e4	0.07715204
85	0x3df774e6	0.120828435
86	0xbe9290dd	-0.28626147
87	0xbe677aec	-0.22605485
88	0x3e8ad8a5	0.27118412
89	0xbe457f1c	-0.1928677
90	0x3ea2ce25	0.317979
91	0x3eb275a8	0.3485539
92	0xbe6c2cd0	-0.2306397
93	0x3e92938a	0.28628188
94	0xbcf4e662	-0.029895011
95	0x3d77316f	0.060349878
96	0xbcf61530	-0.0300394
97	0x3e05a568	0.13051379
98	0x3dc2b466	0.095070645
99	0xbb8dcb27	-0.004327196
100	0xbd9c9e4f	-0.076473825
101	0x3e85c4e9	0.26126793
102	0x3dd79301	0.10526086
103	0xbe9ab7bf	-0.30218312
104	0x3e01f91e	0.12692687
105	0xbd8d95c8	-0.06913334
106	0xbe65c643	-0.22438912
107	0xbe2db3d6	-0.16963133
108	0x3e909d9b	0.28245243
109	0x3e5e488a	0.21707359
110	0x3df6bd42	0.12047817
111	0x3d7a5a44	0.06112124
112	0x3e459dff	0.19298552
113	0xbd97890c	-0.073991865
114	0xbe0446ee	-0.12917683
115	0x3e945101	0.2896805
116	0xbebb6d62	-0.3660689
117	0x3e28eea3	0.16497283
118	0xbdde6cda	-0.108606055
119	0xbde2a8fc	-0.110673875
120	0xbebe7ba6	-0.3720371
121	0x3e3bcf15	0.18340714
122	0x3e86c487	0.26321813
123	0x3dba9054	0.0910956
124	0xbeb5f692	-0.3553968
125	0x3eae887b	0.340885
126	0x3e362f25	0.17791422
127	0xbe979525	-0.29605976

layernorm.weight f4 [259, 128]
0	0x3f800000	1.0
1	0x3f800000	1.0
2	0x3f7fffd2	0.99999726
3	0x3f7fffae	0.9999951
4	0x3f7ffff7	0.99999946
5	0x3f7fe175	0.99953395
6	0x3f7ffde9	0.9999681
7	0x3f7ffe7d	0.99997693
8	0x3f8000c4	1.0000234
9	0x3f800000	1.0
10	0x3f7fffef	0.999999
11	0x3f7ffe85	0.9999774
12	0x3f800034	1.0000062
13	0x3f7fffaf	0.9999952
14	0x3f800001	1.0000001
15	0x3f800016	1.0000026
16	0x3f800000	1.0
17	0x3f7ffd96	0.99996316
18	0x3f800000	1.0
19	0x3f800000	1.0
20	0x3f800000	1.0
21	0x3f800000	1.0
22	0x3f800000	1.0
23	0x3f7ffffa	0.99999964
24	0x3f7fff97	0.99999374
25	0x3f800000	1.0
26	0x3f800076	1.0000141
27	0x3f800000	1.0
28	0x3f7feda9	0.99972016
29	0x3f800000	1.0
30	0x3f800006	1.0000007
31	0x3f800000	1.0
32	0x3f800000	1.0
33	0x3f7fffed	0.99999887
34	0x3f800000	1.0
35	0x3f800000	1.0
36	0x3f800005	1.0000006
37	0x3f800000	1.0
38	0x3f800000	1.0
39	0x3f7ffffa	0.99999964
40	0x3f800037	1.0000066
41	0x3f7ffffe	0.9999999
42	0x3f7fffff	0.99999994
43	0x3f7ff40e	0.9998177
44	0x3f800000	1.0
45	0x3f800000	1.0
46	0x3f800015	1.0000025
47	0x3f7ffff8	0.9999995
48	0x3f7ffff3	0.9999992
49	0x3f7ffb05	0.999924
50	0x3f7ffff7	0.99999946
51	0x3f80006a	1.0000126
52	0x3f800042	1.0000079
53	0x3f800000	1.0
54	0x3f800010	1.0000019
55	0x3f800000	1.0
56	0x3f7ffffb	0.9999997
57	0x3f7fffde	0.999998
58	0x3f800000	1.0
59	0x3f800057	1.0000104
60	0x3f800000	1.0
61	0x3f800000	1.0
62	0x3f800000	1.0
63	0x3f800000	1.0
64	0x3f80009c	1.0000186
65	0x3f80003c	1.0000072
66	0x3f800000	1.0
67	0x3f800129	1.0000354
68	0x3f800000	1.0
69	0x3f7fffc1	0.99999624
70	0x3f8000aa	1.0000203
71	0x3f800341	1.0000993
72	0x3f7fffff	0.99999994
73	0x3f80001a	1.0000031
74	0x3f800e45	1.0004355
75	0x3f80001a	1.0000031
76	0x3f800000	1.0
77	0x3f800000	1.0
78	0x3f800000	1.0
79	0x3f800000	1.0
80	0x3f80002a	1.000005
81	0x3f800007	1.0000008
82	0x3f800000	1.0
83	0x3f800000	1.0
84	0x3f7ffffb	0.9999997
85	0x3f7fff3f	0.9999885
86	0x3f7ffdb2	0.99996483
87	0x3f800000	1.0
88	0x3f800040	1.0000076
89	0x3f800003	1.0000004
90	0x3f7fffef	0.999999
91	0x3f800000	1.0
92	0x3f800000	1.0
93	0x3f7fffd8	0.9999976
94	0x3f7fffa0	0.9999943
95	0x3f7fff3d	0.9999884
96	0x3f7fff57	0.9999899
97	0x3f800049	1.0000087
98	0x3f7ffe6c	0.9999759
99	0x3f800690	1.0002003
100	0x3f7ff7e2	0.99987614
101	0x3f7ff2ae	0.99979675
102	0x3f7ffff4	0.9999993
103	0x3f800000	1.0
104	0x3f7ff3e7	0.9998154
105	0x3f800042	1.0000079
106	0x3f7fefce	0.9997529
107	0x3f80000a	1.0000012
108	0x3f800000	1.0
109	0x3f7fff44	0.9999888
110	0x3f800034	1.0000062
111	0x3f800000	1.0
112	0x3f800000	1.0
113	0x3f800834	1.0002503
114	0x3f800000	1.0
115	0x3f800082	1.0000155
116	0x3f80005b	1.0000108
117	0x3f800000	1.0
118	0x3f800000	1.0
119	0x3f800000	1.0
120	0x3f7fffb1	0.9999953
121	0x3f800000	1.0
122	0x3f800000	1.0
123	0x3f800000	1.0
124	0x3f80002c	1.0000052
125	0x3f800000	1.0
126	0x3f800000	1.0
127	0x3f7fed31	0.999713
128	0x3f800000	1.0
129	0x3f800000	1.0
130	0x3f7ffff6	0.9999994
131	0x3f7ffffa	0.99999964
132	0x3f800000	1.0
133	0x3f7ff822	0.99987996
134	0x3f7ffe5f	0.99997514
135	0x3f7fff62	0.9999906
136	0x3f800003	1.0000004
137	0x3f800000	1.0
138	0x3f800000	1.0
139	0x3f80000e	1.0000017
140	0x3f80003e	1.0000074
141	0x3f7fffef	0.999999
142	0x3f7fff6a	0.99999106
143	0x3f800000	1.0
144	0x3f800000	1.0
145	0x3f800000	1.0
146	0x3f800009	1.0000011
147	0x3f800000	1.0
148	0x3f800000	1.0
149	0x3f800000	1.0
150	0x3f800000	1.0
151	0x3f800000	1.0
152	0x3f7ffff1	0.9999991
153	0x3f800000	1.0
154	0x3f800078	1.0000143
155	0x3f800000	1.0
156	0x3f7ffd6d	0.9999607
157	0x3f800000	1.0
158	0x3f800000	1.0
159	0x3f800000	1.0
160	0x3f800000	1.0
161	0x3f7fffed	0.99999887
162	0x3f800000	1.0
163	0x3f800000	1.0
164	0x3f800000	1.0
165	0x3f800000	1.0
166	0x3f800000	1.0
167	0x3f800000	1.0
168	0x3f800007	1.0000008
169	0x3f800003	1.0000004
170	0x3f7fff68	0.99999094
171	0x3f80000a	1.0000012
172	0x3f800000	1.0
173	0x3f80000c	1.0000014
174	0x3f800000	1.0
175	0x3f7fff58	0.99999
176	0x3f800000	1.0
177	0x3f8001a9	1.0000507
178	0x3f7fffdf	0.99999803
179	0x3f80001d	1.0000035
180	0x3f80001d	1.0000035
181	0x3f800000	1.0
182	0x3f800000	1.0
183	0x3f800000	1.0
184	0x3f800001	1.0000001
185	0x3f7ffffd	0.9999998
186	0x3f800016	1.0000026
187	0x3f80001d	1.0000035
188	0x3f800000	1.0
189	0x3f800000	1.0
190	0x3f800000	1.0
191	0x3f800000	1.0
192	0x3f800027	1.0000046
193	0x3f800020	1.0000038
194	0x3f800000	1.0
195	0x3f800027	1.0000046
196	0x3f800000	1.0
197	0x3f7ffff6	0.9999994
198	0x3f80003b	1.000007
199	0x3f7ffd1f	0.9999561
200	0x3f800000	1.0
201	0x3f800001	1.0000001
202	0x3f7ffe45	0.9999736
203	0x3f800003	1.0000004
204	0x3f800000	1.0
205	0x3f800000	1.0
206	0x3f800000	1.0
207	0x3f800000	1.0
208	0x3f80000a	1.0000012
209	0x3f800000	1.0
210	0x3f800000	1.0
211	0x3f800000	1.0
212	0x3f800000	1.0
213	0x3f7fff72	0.99999154
214	0x3f7fffc0	0.9999962
215	0x3f800000	1.0
216	0x3f800012	1.0000021
217	0x3f7fff98	0.9999938
218	0x3f800018	1.0000029
219	0x3f800000	1.0
220	0x3f800000	1.0
221	0x3f7ffff2	0.99999917
222	0x3f7fffef	0.999999
223	0x3f7fffa4	0.9999945
224	0x3f7fffc0	0.9999962
225	0x3f800014	1.0000024
226	0x3f7fff16	0.99998605
227	0x3f7ffd6a	0.99996054
228	0x3f800218	1.0000639
229	0x3f800130	1.0000362
230	0x3f800000	1.0
231	0x3f7ffff0	0.99999905
232	0x3f800010	1.0000019
233	0x3f800035	1.0000063
234	0x3f7ffdbc	0.9999654
235	0x3f800020	1.0000038
236	0x3f800007	1.0000008
237	0x3f7fffba	0.9999958
238	0x3f800007	1.0000008
239	0x3f800000	1.0
240	0x3f800000	1.0
241	0x3f7ffc48	0.99994326
242	0x3f800009	1.0000011
243	0x3f7ffd47	0.99995846
244	0x3f80001c	1.0000033
245	0x3f800000	1.0
246	0x3f800000	1.0
247	0x3f800000	1.0
248	0x3f7ffef4	0.999984
249	0x3f800000	1.0
250	0x3f800000	1.0
251	0x3f800000	1.0
252	0x3f80001e	1.0000036
253	0x3f800000	1.0
254	0x3f800000	1.0
255	0x3f7ffe0a	0.9999701

layernorm.bias f4 [259, 128]
0	0x3421dd1d	1.5074734e-07
1	0x36d161fb	6.240092e-06
2	0xb6366dcb	-2.7184021e-06
3	0xb7470d9e	-1.1864495e-05
4	0x3474d10a	2.2800319e-07
5	0xb743456e	-1.1639071e-05
6	0x36bbce50	5.597052e-06
7	0xb622d3c6	-2.426315e-06
8	0xb68ccb56	-4.1959966e-06
9	0xb771314a	-1.4376195e-05
10	0xb69a30fe	-4.595261e-06
11	0x3683ac64	3.924173e-06
12	0x3705b0eb	7.96861e-06
13	0xb61463f0	-2.211189e-06
14	0xb7105d6f	-8.604823e-06
15	0x37189fd2	9.097117e-06
16	0x3686fb17	4.022742e-06
17	0xb6519451	-3.1229758e-06
18	0x374fb55d	1.2380388e-05
19	0xb63f421b	-2.8499696e-06
20	0x371a78ee	9.207271e-06
21	0x3697cc43	4.52393e-06
22	0x375d0d24	1.3175686e-05
23	0xb2da80fe	-2.5437199e-08
24	0xb717761b	-9.0278e-06
25	0xb75b4cb7	-1.3071279e-05
26	0x36b21672	5.3074264e-06
27	0xb6b7a1cc	-5.4726606e-06
28	0xb70a7141	-8.25181e-06
29	0x3708c9c9	8.1532135e-06
30	0x36e67ad2	6.8688323e-06
31	0x363964d5	2.762584e-06
32	0xb6b8f5be	-5.5122355e-06
33	0xb68b7bf4	-4.156953e-06
34	0x347122be	2.2457513e-07
35	0x378c6899	1.6738008e-05
36	0x3648493b	2.9844948e-06
37	0xb60e39ee	-2.1193368e-06
38	0xb6a3e025	-4.8838724e-06
39	0xb6b22849	-5.309503e-06
40	0x3723268e	9.724534e-06
41	0xb790e6f4	-1.7273684e-05
42	0xb7197d0a	-9.148624e-06
43	0xb712cade	-8.749512e-06
44	0xb716310e	-8.952118e-06
45	0x371a961f	9.214068e-06
46	0x3701bc77	7.73288e-06
47	0x361fdb5b	2.3820528e-06
48	0xb654a19f	-3.1684538e-06
49	0xb768fab9	-1.38866535e-05
50	0xb709cabe	-8.213041e-06
51	0x36713fa2	3.5948838e-06
52	0x363ceeca	2.8153177e-06
53	0xb73c467b	-1.1222083e-05
54	0x35d166a5	1.5601587e-06
55	0x3613213c	2.1924052e-06
56	0xb722d2d7	-9.705042e-06
57	0xb5572144	-8.014215e-07
58	0x3765dbde	1.37006555e-05
59	0x369cab2b	4.669089e-06
60	0xb749d69b	-1.20305e-05
61	0xb73c5fd9	-1.12279895e-05
62	0x36859211	3.9807132e-06
63	0x36ea4b97	6.9825433e-06
64	0x37213b0b	9.610095e-06
65	0x3713c05b	8.806669e-06
66	0x3716327f	8.952454e-06
67	0xb717bc6b	-9.044171e-06
68	0xb69d4458	-4.686921e-06
69	0xb76a8a9e	-1.3979761e-05
70	0x366580cd	3.419863e-06
71	0x3728568c	1.0033731e-05
72	0x3795601e	1.7806942e-05
73	0x36b89a86	5.501616e-06
74	0x37910def	1.7291835e-05
75	0xb73e52ed	-1.134419e-05
76	0xb7228d83	-9.688901e-06
77	0xb7657593	-1.36768385e-05
78	0x34bfdb3f	3.5736045e-07
79	0x3625a509	2.468298e-06
80	0x370ffe42	8.582663e-06
81	0x3711d664	8.69259e-06
82	0xb6778415	-3.688275e-06
83	0xb6ecc0ea	-7.0558062e-06
84	0x3603a282	1.9615113e-06
85	0xb74a4df6	-1.205829e-05
86	0xb71ef577	-9.474686e-06
87	0x36b83f5c	5.4910033e-06
88	0x3637b794	2.7375982e-06
89	0xb5b8619b	-1.3737475e-06
90	0x3726da77	9.945236e-06
91	0x3704917f	7.901689e-06
92	0x35ffe93d	1.9066862e-06
93	0xb733f3a3	-1.07259575e-05
94	0xb798ee22	-1.8230701e-05
95	0xb6c5791b	-5.885156e-06
96	0xb6f2110b	-7.214146e-06
97	0x365232b8	3.132196e-06
98	0xb5bb5fe5	-1.3960495e-06
99	0x378cc5f8	1.6781487e-05
100	0xb6be5be4	-5.6731387e-06
101	0xb7166bf5	-8.965832e-06
102	0xb75fcf36	-1.3340081e-05
103	0xb6a3002a	-4.8577976e-06
104	0xb74bb6e9	-1.214233e-05
105	0x369c1b19	4.652317e-06
106	0xb6892196	-4.086828e-06
107	0x37208012	9.566562e-06
108	0x378ffe29	1.7165281e-05
109	0xb4d0f66b	-3.8922312e-07
110	0x3743a036	1.1660208e-05
111	0xb5b176bf	-1.3222087e-06
112	0x37435936	1.1643677e-05
113	0x377b9717	1.4995944e-05
114	0x36c7bad9	5.952414e-06
115	0x3720b20a	9.578196e-06
116	0x360cad97	2.0962668e-06
117	0x36b83247	5.4894804e-06
118	0xb6e01fc2	-6.6794173e-06
119	0x37180b5f	9.0625535e-06
120	0xb7515ae0	-1.2478529e-05
121	0x376ac32c	1.3992929e-05
122	0x36ab98f8	5.114005e-06
123	0xb5c78e56	-1.4868081e-06
124	0x377babaf	1.5000739e-05
125	0xb6d0567c	-6.208951e-06
126	0x36b89253	5.5006617e-06
127	0xb754af46	-1.2676994e-05
128	0x35be2a25	1.4168369e-06
129	0x36d09a2e	6.216832e-06
130	0xb6d7da0e	-6.432884e-06
131	0xb71a8625	-9.210348e-06
132	0xb561ece8	-8.4163776e-07
133	0xb7156792	-8.905206e-06
134	0x36c5f37c	5.899403e-06
135	0xb646d762	-2.9629668e-06
136	0xb691472f	-4.3296236e-06
137	0xb796ab63	-1.7961202e-05
138	0xb4965eae	-2.8008566e-07
139	0x362e372a	2.596013e-06
140	0x3735b02e	1.0829461e-05
141	0xb72b729a	-1.0219077e-05
142	0xb71af28c	-9.235588e-06
143	0x37514fb4	1.2475928e-05
144	0x36a409c9	4.88872e-06
145	0xb6d9a1a5	-6.485922e-06
146	0x37320bbc	1.0612359e-05
147	0xb6fed7b7	-7.5949024e-06
148	0x3728ffc8	1.0073134e-05
149	0x366c9007	3.5250575e-06
150	0x37539fdd	1.2613801e-05
151	0x36a89b2c	5.0248545e-06
152	0xb7343409	-1.0740951e-05
153	0xb716fc0b	-8.99938e-06
154	0x3659dfdb	3.246582e-06
155	0xb6280de7	-2.5042043e-06
156	0xb75ecc20	-1.3279758e-05
157	0x36f10885	7.1833515e-06
158	0x369fbd01	4.760572e-06
159	0x364519ad	2.9370233e-06
160	0xb7198ad2	-9.151832e-06
161	0xb67e12e9	-3.7859957e-06
162	0xb65c6066	-3.2838666e-06
163	0x3757d041	1.28634865e-05
164	0x366d1561	3.5328196e-06
165	0xb6806379	-3.8262774e-06
166	0xb6776bcd	-3.6868616e-06
167	0xb6844e47	-3.9430192e-06
168	0x36e82218	6.918108e-06
169	0xb772bae0	-1.4467834e-05
170	0xb72f9116	-1.0464593e-05
171	0xb730826d	-1.0520785e-05
172	0xb6a585ed	-4.932974e-06
173	0x3763e575	1.3583679e-05
174	0x371b801c	9.268548e-06
175	0xb661a59e	-3.3624015e-06
176	0xb681ca7f	-3.8680732e-06
177	0xb773987b	-1.4519431e-05
178	0xb71271f8	-8.728814e-06
179	0x369f73a1	4.7520302e-06
180	0x3582a277	9.733038e-07
181	0xb723887a	-9.747333e-06
182	0x362454c3	2.4487242e-06
183	0x35b69923	1.3604625e-06
184	0xb70d1d23	-8.411039e-06
185	0xb6093044	-2.0442685e-06
186	0x37602fc1	1.3362559e-05
187	0x36460237	2.9505588e-06
188	0xb6fdcece	-7.564063e-06
189	0xb7480879	-1.1922902e-05
190	0x36d21ae3	6.2616177e-06
191	0x36d42cf9	6.323328e-06
192	0x370cf76b	8.402257e-06
193	0x36a23478	4.8340844e-06
194	0x372cfdf3	1.0311126e-05
195	0xb72551c9	-9.8538085e-06
196	0x362705ec	2.4888386e-06
197	0xb7580b31	-1.2877209e-05
198	0x3678db31	3.7082466e-06
199	0x37490e67	1.1983887e-05
200	0x37a039ce	1.9100404e-05
201	0x36b09729	5.262806e-06
202	0x37747189	1.4569968e-05
203	0xb762e0d0	-1.3522993e-05
204	0xb760e9ea	-1.3405903e-05
205	0xb77f6d2b	-1.5224602e-05
206	0xb626b327	-2.4840208e-06
207	0x36e25ac4	6.7458914e-06
208	0x3664e1a0	3.4105979e-06
209	0x37340c89	1.0731755e-05
210	0xb6eea290	-7.1118775e-06
211	0xb72b3d5e	-1.0206682e-05
212	0x3664e344	3.4106934e-06
213	0xb760f301	-1.3408019e-05
214	0xb691659a	-4.3331647e-06
215	0x36f82647	7.395432e-06
216	0x367882b2	3.7030954e-06
217	0xb55cb1eb	-8.221529e-07
218	0x37474f8d	1.1879846e-05
219	0x36a3bf6c	4.880063e-06
220	0x36cd9d42	6.1277833e-06
221	0xb7666d43	-1.3734508e-05
222	0xb7821b98	-1.5510057e-05
223	0xb7176a25	-9.025015e-06
224	0xb71c52c2	-9.317593e-06
225	0x36b9476e	5.521745e-06
226	0xb6520409	-3.1294787e-06
227	0x3782ce88	1.5593381e-05
228	0xb664970b	-3.4062566e-06
229	0xb6c3f00a	-5.839397e-06
230	0xb76a8547	-1.3978518e-05
231	0xb6f05f9d	-7.163688e-06
232	0xb739371e	-1.1039692e-05
233	0x36fc3961	7.516865e-06
234	0xb6a3c7e2	-4.881048e-06
235	0x377d274b	1.5089124e-05
236	0x377ccbd3	1.5067827e-05
237	0x3582578e	9.711237e-07
238	0x376b2a77	1.4016979e-05
239	0xb6290750	-2.5187219e-06
240	0x37637d36	1.3559407e-05
241	0x377289db	1.4456421e-05
242	0x36ddd6cc	6.611319e-06
243	0x36c28bc1	5.79792e-06
244	0x36eb7d80	7.018156e-06
245	0x36aa1b32	5.0695608e-06
246	0xb6eb8027	-7.0184647e-06
247	0x373058df	1.0511109e-05
248	0xb73b517e	-1.1165042e-05
249	0x37a1cfbd	1.9289431e-05
250	0x3686e0b8	4.019672e-06
251	0xb6c4ff2d	-5.8709616e-06
252	0x37a1b0f5	1.9275098e-05
253	0xb6ffff98	-7.6293472e-06
254	0x371ca94d	9.337743e-06
255	0xb7582943	-1.288421e-05

fc.0.weight f4 [128, 128]
0	0xbd7ff78a	-0.06249193
1	0xbc9dac51	-0.019247206
2	0x3daa87bb	0.0832667
3	0xbd1be376	-0.03805872
4	0x3c283857	0.010267339
5	0xbd9cdeff	-0.07659721
6	0xbb280866	-0.0025639771
7	0x3d6918bd	0.056908358
8	0xbd04eb65	-0.032451052
9	0xbc4d70a3	-0.012539062
10	0x3d53620a	0.05160717
11	0xbd7e1591	-0.062032286
12	0xbd836ee8	-0.06417638
13	0x3d42a5ae	0.047521286
14	0xbd86ef73	-0.0658864
15	0xbc2d0ed2	-0.0105626155
16	0x3db22b53	0.0869967
17	0x3dac016e	0.0839871
18	0xbd6b88ea	-0.05750362
19	0x3daf44f5	0.085580744
20	0x3cce034c	0.025148056
21	0xbcbb6702	-0.022876266
22	0xbd616c3a	-0.055034854
23	0xbcd0dd0e	-0.025496032
24	0xbc0a7b99	-0.00845232
25	0x3d0654ac	0.032795593
26	0xbcb452f2	-0.022012208
27	0xbd0d16bf	-0.03444552
28	0xbba1bcd1	-0.0049358387
29	0xbc44adff	-0.0120043745
30	0x3af8334d	0.0018936187
31	0xbc91fa96	-0.017819684
32	0xbd247e88	-0.040159732
33	0x3d937211	0.07199491
34	0xbcff6aeb	-0.031178912
35	0xbd078dc0	-0.033094168
36	0xbd7631d2	-0.060106106
37	0x3d92e778	0.071730554
38	0x3d0fc6f9	0.035101864
39	0x3c2435e5	0.010022615
40	0x3d83d3d4	0.064368874
41	0xbbf17194	-0.007368276
42	0xbd5a9cc7	-0.05337217
43	0x3da062b3	0.078313254
44	0xbcdc8db5	-0.02692304
45	0x3b0fef72	0.002196279
46	0x3c8d0d02	0.017218117
47	0xbdb20797	-0.08692854
48	0x3d27fffa	0.041015603
49	0x3d32efa9	0.04368559
50	0x3d3bd9d9	0.045862053
51	0x3d1c1c45	0.038112897
52	0x3cab30ef	0.020897357
53	0x3c90a195	0.017655173
54	0x3d51e19b	0.051240545
55	0x3d887481	0.06662846
56	0xbc99fd58	-0.018797562
57	0xbd86599c	-0.065600604
58	0x3da6bcd7	0.08141487
59	0xbc33396f	-0.010938986
60	0x3d120cbe	0.035656683
61	0xbd9b465f	-0.075817816
62	0x3b0523f1	0.0020315612
63	0x3c290022	0.010314973
64	0xbd95d861	-0.073166616
65	0xbd8960d9	-0.06707925
66	0xbd45fcfe	-0.048336975
67	0xbd82c2ea	-0.06384833
68	0xbd439d17	-0.047757234
69	0xbda3331a	-0.07968731
70	0x3c48c831	0.012254761
71	0xbd8bf9bd	-0.06834743
72	0xbb833eee	-0.0040053045
73	0x3d639a99	0.055567358
74	0x3cd71088	0.026253
75	0x3d2a36ca	0.041556157
76	0xbc00789c	-0.0078412555
77	0x3c82ea7d	0.015980953
78	0xbd930291	-0.07178224
79	0xbda892f9	-0.08231158
80	0x3be91bff	0.007113933
81	0x3d92d5bb	0.07169672
82	0xbcfa4016	-0.030548137
83	0xbcfbb0e9	-0.030724006
84	0x3c882f8c	0.016624235
85	0xbd91f240	-0.07126284
86	0xbd85bc12	-0.06530012
87	0x3c75a622	0.014993222
88	0x3bf970d2	0.007612326
89	0xbb778b9c	-0.0037772423
90	0xbd83aa49	-0.06428964
91	0xbd7d203d	-0.061798323
92	0x3d6f6a30	0.058450878
93	0x3cc7832f	0.024354545
94	0x3d299b65	0.04140796
95	0x3b9ac53e	0.00472322
96	0xbd4f3fdd	-0.050598014
97	0x3da36cea	0.07979758
98	0xbd70a9a5	-0.058755536
99	0x3d0c0dd2	0.034192868
100	0x3c9d0ef7	0.019172175
101	0x3dadd021	0.08486963
102	0xbb85e72e	-0.0040863967
103	0x3d9a76d4	0.07542196
104	0xbc8cc33a	-0.017182935
105	0x3d29a2c9	0.04141501
106	0x3da0b560	0.078470945
107	0x3d3bd9d2	0.045862027
108	0xbd60d8a1	-0.054894093
109	0xbda5ea8a	-0.081013754
110	0x3d9d971c	0.076948375
111	0x3d77bd38	0.060483187
112	0x3c19c57a	0.009385461
113	0x3d27ceb0	0.040968597
114	0xbd94d1db	-0.07266589
115	0xbd0edf96	-0.034881197
116	0xbc69d7bf	-0.014272629
117	0xbd2321ba	-0.039827086
118	0x3caf53a8	0.021402195
119	0x3d5cf72c	0.05394666
120	0x3db4c754	0.08827081
121	0xbc0f9fc9	-0.008766123
122	0xbbe7471d	-0.007058038
123	0x3d989341	0.074499615
124	0x3cb6dbe2	0.022321645
125	0x3d8de134	0.0692772
126	0xbc821d56	-0.01588313
127	0x3d6e7430	0.058216274
128	0xbca7a0b5	-0.020462373
129	0x3b68cd0c	0.0035522608
130	0x3da412bc	0.08011386
131	0x3d87825b	0.0661666
132	0xbd05c730	-0.032660663
133	0x3d7a0d47	0.06104782
134	0x3b79f7ce	0.0038142088
135	0xbd9a241e	-0.0752642
136	0xbd318a71	-0.04334492
137	0x3d4a3415	0.049366076
138	0x39d25342	0.00040116353
139	0x3cfebeb0	0.031096786
140	0xbd343881	-0.0439992
141	0xbd30d833	-0.043174934
142	0x3d7a3312	0.06108386
143	0x3d922fa2	0.071379915
144	0xbd81fa08	-0.06346518
145	0x3b6f0926	0.0036473959
146	0x3da91189	0.08255298
147	0xbd8c8e8e	-0.06863128
148	0x3daa09d7	0.08302658
149	0x3baf1ba0	0.0053438693
150	0x3d9f52a9	0.07779438
151	0xbda6917b	-0.08133217
152	0x3d95b9fd	0.07310865
153	0xbc55722f	-0.013027712
154	0xbbf54b35	-0.007485772
155	0xbcb4188d	-0.021984363
156	0x3d8777b8	0.066146314
157	0xbd20930a	-0.039202727
158	0x3d3835b9	0.04497311
159	0xbd51748f	-0.05113655
160	0x3d9f7be3	0.077873014
161	0x3d4c4938	0.049874514
162	0xbbf46836	-0.007458712
163	0x3ce45b74	0.02787564
164	0xbd95071d	-0.072767474
165	0x3d2440aa	0.04010073
166	0x3d395d31	0.04525489
167	0xbd1c188d	-0.03810935
168	0xbcdbf29a	-0.02684908
169	0x3cb5c68a	0.022189397
170	0x3c6a6883	0.014307144
171	0x3d1b9cbf	0.03799128
172	0x3c5f08e1	0.013612957
173	0xbdb0e9f2	-0.086383715
174	0x3b0c0186	0.0021363213
175	0xbd75f65b	-0.060049396
176	0x3c6aca4d	0.014330459
177	0x3d8bd66c	0.06828007
178	0x3d2f3dc4	0.042783514
179	0xbd87159f	-0.06595921
180	0xbac96624	-0.0015365523
181	0x3d9b67d7	0.07588165
182	0xbd5bca1f	-0.053659555
183	0x3dad3ead	0.0845922
184	0x3d1756df	0.03694808
185	0x3d57f4e7	0.05272379
186	0x3d9e8204	0.07739642
187	0xbd910fae	-0.07083069
188	0xbd14c2f8	-0.03631875
189	0xbca624d3	-0.020281231
190	0x3c82c942	0.015965108
191	0xbd4ef51a	-0.050526716
192	0x3c9cc22f	0.019135563
193	0xbd846812	-0.06465162
194	0x3c5614d5	0.01306649
195	0x3d981eed	0.074277736
196	0x3dafc5ca	0.08582647
197	0xbbb3a75a	-0.0054825963
198	0xbc92233e	-0.01783907
199	0x3c45de07	0.012076861
200	0x3da1236a	0.07868083
201	0x3ccdab21	0.025106015
202	0xbcc16273	-0.023606515
203	0x3d835b41	0.0641389
204	0x3c2bc0a4	0.010482941
205	0xbcdec54e	-0.027193692
206	0xbc8d7f57	-0.017272634
207	0x3d415d06	0.047207855
208	0x3cf6e48c	0.030138277
209	0x3d48d535	0.049031455
210	0x3dacf680	0.08445454
211	0xbc45a6ff	-0.012063741
212	0x3d6dec89	0.058086906
213	0xbd6dfb30	-0.05810088
214	0xbce4c3c3	-0.027925378
215	0x3d4470de	0.0479592
216	0xbcad31a9	-0.021141844
217	0xbc4f45f5	-0.012650956
218	0x3d4b1d62	0.04958857
219	0xbd3d2195	-0.046174604
220	0x3dab58bc	0.08366534
221	0x3c5d2574	0.013497699
222	0x3d5a6446	0.053318284
223	0xba1d03ce	-0.00059896416
224	0x3d0348f3	0.03205199
225	0xbd819e43	-0.06329014
226	0x3d0188aa	0.031624474
227	0xbd0eb2ca	-0.034838475
228	0xbd87a8dc	-0.06624004
229	0xbdb51748	-0.08842331
230	0xbd14bc24	-0.036312237
231	0x3d3b2405	0.045688648
232	0x3d659702	0.056052215
233	0x3d22cccf	0.039746102
234	0xbc97746d	-0.018488133
235	0xbd6ee464	-0.05832328
236	0x3cbefa68	0.023312762
237	0xbc266696	-0.010156294
238	0x3c9127f8	0.017719254
239	0xbd581b90	-0.05276066
240	0xbd9b8d48	-0.07595307
241	0xbdb272d7	-0.0871331
242	0x3b2c393d	0.0026279234
243	0x3cfbf4f9	0.03075646
244	0xbcace0ce	-0.021103289
245	0xbbcdb4f2	-0.006277674
246	0x3bd01e2e	0.006351254
247	0xbd9b6320	-0.07587266
248	0xbcfecb7d	-0.03110289
249	0x3d5b2477	0.053501572
250	0xbca41858	-0.02003114
251	0x3c629869	0.013830283
252	0x3d2336fa	0.03984735
253	0xba8685cf	-0.0010263267
254	0x3d941da3	0.07232215
255	0xbd14e8b0	-0.03635472

fc.0.bias f4 [128]
0	0x3d86e4a4	0.065865785
1	0x3d9f5614	0.0778009
2	0xbd36112e	-0.044449978
3	0xbd00c6df	-0.03143966
4	0x3d15abd7	0.036540832
5	0x3d052ffb	0.03251646
6	0xbd761f6f	-0.06008857
7	0x3d223540	0.039601564
8	0x3cf0c785	0.029392013
9	0xbda173fd	-0.07883451
10	0xbd67d1da	-0.056596614
11	0xbdb38ce3	-0.087671064
12	0x3d8898aa	0.06669743
13	0xbd1bc41a	-0.038028814
14	0xbda1cc4f	-0.07900297
15	0xbd4b2c3a	-0.049602725
16	0xbcf1cf04	-0.029517658
17	0xbc6a7abd	-0.01431149
18	0x3d9392bd	0.072057225
19	0xbcc236ac	-0.02370771
20	0xbd8ae2ea	-0.06781562
21	0x3c441e2b	0.011970083
22	0x3d5eff71	0.054442827
23	0xbd8a34bc	-0.067483395
24	0x3d7e7a93	0.062128615
25	0xbd824ad1	-0.06361926
26	0x3a863266	0.0010238409
27	0x3d796538	0.060887545
28	0x3d1ee273	0.038790178
29	0x3d966460	0.07343364
30	0xbcc4a8f1	-0.024006339
31	0xbd596cd7	-0.053082313
32	0x3d0cf5ff	0.034414288
33	0x3d7a0097	0.06103572
34	0x3db13357	0.086523704
35	0x3c02909a	0.007969046
36	0x3b8afc8b	0.0042415312
37	0xbd57c53a	-0.052678324
38	0x3d5c8e3b	0.05384658
39	0xbce0cdf0	-0.027441949
40	0x3d4b7c3d	0.04967903
41	0xbda83ed6	-0.0821511
42	0x3d81df6f	0.06341445
43	0x3af062ff	0.001834005
44	0x3d309d96	0.043119036
45	0xbc8ce975	-0.017201165
46	0x3c4fde05	0.012687211
47	0x3d8d7081	0.06906224
48	0x3d2c3eee	0.042052202
49	0xbd69ab9c	-0.057048425
50	0x3d7e255d	0.06204735
51	0xbd1eb0a8	-0.03874269
52	0xbd54dbf6	-0.051967584
53	0x3d9b0b4b	0.07570513
54	0xbd50ed86	-0.05100777
55	0x3d0c98ee	0.034325533
56	0xbc9350bf	-0.017982839
57	0x3cef5cc9	0.029219048
58	0x3d7de6c2	0.061987646
59	0xbd92b614	-0.07163635
60	0xbd33e61f	-0.043920632
61	0x3d70aabf	0.058756586
62	0xbcd4186f	-0.025890557
63	0x3a03e55b	0.000503143
64	0xbdac249f	-0.084054224
65	0x3ce41c21	0.027845444
66	0xbd12442a	-0.035709538
67	0x3d51aabc	0.051188216
68	0x3da7182f	0.081589095
69	0x3d8f855c	0.07007858
70	0x3db12b42	0.08650829
71	0x3d5faed6	0.054610096
72	0x3db57cf3	0.08861723
73	0xbcac5511	-0.021036657
74	0x39c95539	0.00038401203
75	0x3d4c329f	0.049852964
76	0xbdb1d22f	-0.086826675
77	0xbd83e51c	-0.064401835
78	0x3da5b723	0.08091571
79	0xbd86f515	-0.065897144
80	0xbcacd281	-0.02109647
81	0xbd696443	-0.056980383
82	0xbd9c6d8e	-0.076380834
83	0xbcfc39ca	-0.030789275
84	0x3d9cb934	0.07652512
85	0x3d44b3ba	0.048022963
86	0xbcfd3749	-0.030910151
87	0xbd873eb0	-0.066037536
88	0xbd0af239	-0.033922408
89	0xbcd21528	-0.025644854
90	0x3d928692	0.071545735
91	0x3b7821ba	0.00378619
92	0xbdab167f	-0.083539
93	0x3d3b77a2	0.045768388
94	0x3964e902	0.00021830577
95	0x3da36045	0.07977346
96	0x3a8d47bb	0.0010778824
97	0xbda28060	-0.07934642
98	0xbd9c95e6	-0.07645778
99	0x3d6febd6	0.05857452
100	0xbda763ff	-0.081733696
101	0xbcab7145	-0.020928035
102	0xbb116a32	-0.0022188541
103	0xbc2a4ce4	-0.010394309
104	0x3c79691d	0.015222815
105	0xbd3774bd	-0.044789065
106	0xbd35ad08	-0.04435447
107	0x3c27bc9d	0.01023784
108	0xbd865da2	-0.06560828
109	0xbd980b1a	-0.074239925
110	0xbdb44820	-0.08802819
111	0x3d51cec5	0.05122258
112	0x3d3acd42	0.045605905
113	0xbd494673	-0.04913945
114	0xbd91c8ee	-0.071184024
115	0xbcf391ee	-0.02973267
116	0xbd42dcff	-0.04757404
117	0xbd19e3c5	-0.037570734
118	0xbd4f92ad	-0.05067699
119	0x3c887e86	0.016661894
120	0x3dad9558	0.08475751
121	0x3c2098f6	0.009802094
122	0xbd198fd1	-0.03749067
123	0xbd98d039	-0.0746159
124	0xbd63cbd8	-0.055614322
125	0xbc6db701	-0.014508964
126	0x3d9a352d	0.07529674
127	0xbb12a29c	-0.0022374755

output_layer.0.weight f4 [1, 128]
0	0x3bbedeed	0.0058249147
1	0xbca191dc	-0.019722871
2	0x3c6644cd	0.014054489
3	0x3d600a20	0.054697156
4	0x3d02c22e	0.031923465
5	0x3d7e72b2	0.0621211
6	0xbd025063	-0.031814944
7	0x3ce2db31	0.02769241
8	0x3ceb5ea9	0.02873166
9	0x3da9457a	0.08265205
10	0x3cd89d4d	0.026442194
11	0xbcacbd42	-0.021086339
12	0xbd8b679d	-0.06806872
13	0x3d36f18f	0.044663962
14	0x3d49e1f4	0.04928775
15	0xbd556e4c	-0.05210714
16	0xbd16606c	-0.03671305
17	0x3cfa3e14	0.03054718
18	0xbd889e55	-0.066708244
19	0x3ce7cf63	0.028297132
20	0xbcb4d807	-0.022075666
21	0xbcb8be4f	-0.022551684
22	0xbd783610	-0.060598433
23	0x3be1bb81	0.0068888073
24	0x3d788ee0	0.06068313
25	0x3d804484	0.06263068
26	0xbc70e64e	-0.014703346
27	0x3cb21aa0	0.021741211
28	0x3d4dafd0	0.050216496
29	0xbd4a5c6a	-0.04940454
30	0x3c1951ce	0.009357883
31	0xbca4a416	-0.020097774
32	0x3d483529	0.048878822
33	0x3d079af8	0.033106774
34	0x3c83df2c	0.016097628
35	0xbda5dd1f	-0.08098816
36	0xbce649aa	-0.028111298
37	0x3c89e5ec	0.016833268
38	0x3d362a26	0.04447379
39	0x3d39b21e	0.04533588
40	0xbd1c55db	-0.038167816
41	0x3da8c3f4	0.082405
42	0x3d3f3448	0.04668072
43	0x3d75e045	0.060028333
44	0x3d72d6e6	0.059286974
45	0xbd68ab92	-0.056804247
46	0xbd3c6e9b	-0.04600392
47	0xbc3c2ac5	-0.011484806
48	0x3d1dc60e	0.038518958
49	0x3d960b8f	0.073264234
50	0x3d43edff	0.047834393
51	0xbc50e50b	-0.012749921
52	0xbcbff75b	-0.023433378
53	0x3d8c9c51	0.068657525
54	0xba23854c	-0.00062378193
55	0xb9976259	-0.0002887424
56	0x3d44a006	0.048004173
57	0x3c87f8ee	0.016598191
58	0xbd8ec5b5	-0.069713034
59	0xbcb71f34	-0.022353746
60	0x3d7b19b8	0.061303824
61	0x3db33a61	0.08751369
62	0xbd25e618	-0.040502638
63	0x3b0146bf	0.0019726006
64	0xbd81474e	-0.063124284
65	0xbd37c1ea	-0.044862665
66	0xbd862863	-0.06550672
67	0x3d98c59e	0.074595675
68	0x3c8e0d52	0.017340336
69	0x3d78f3d8	0.060779423
70	0xbcb16c5b	-0.021658113
71	0xbd882d59	-0.066492744
72	0xbdaea931	-0.085283644
73	0xbd10da45	-0.035364408
74	0xbd9733ed	-0.07382951
75	0x3d976812	0.07392897
76	0x3d4f7673	0.05065007
77	0x3d90aec2	0.070645824
78	0xbc5609b1	-0.013063834
79	0xbccdc4ec	-0.025118314
80	0xbd33c8b3	-0.043892574
81	0xbd6a1175	-0.057145555
82	0x3c82c027	0.015960766
83	0x3d83dae3	0.06438234
84	0x3c17d325	0.009266649
85	0x3da2fbb7	0.07958167
86	0x3d62a3d6	0.055332027
87	0xbc49303f	-0.012279569
88	0x3c1a678c	0.009424102
89	0x3c561e32	0.013068723
90	0xbd8a4e8a	-0.067532614
91	0xbd649c9a	-0.05581341
92	0xbc9b7724	-0.01897771
93	0x3d953f24	0.07287434
94	0x3db06a05	0.086139716
95	0x3c4b5528	0.01241044
96	0x3d616b34	0.055033877
97	0xbd10d319	-0.03535757
98	0x3c9c922b	0.019112667
99	0xbdc1d1c1	-0.094638355
100	0x3d192ecb	0.03739814
101	0x3d6647b2	0.056220718
102	0x3d9d905c	0.0769355
103	0x3cc51e99	0.024062442
104	0x3daff2a7	0.08591204
105	0xbd06c91c	-0.032906637
106	0x3d26ea13	0.040750574
107	0xbd9e8c41	-0.07741595
108	0xbdbe421d	-0.09289954
109	0xbb2f0d0b	-0.0026710655
110	0xbdb432fc	-0.08798787
111	0x3d03f83c	0.032219157
112	0xbd2e1d7b	-0.042508584
113	0xbda06864	-0.07832411
114	0xbd6e3d27	-0.05816379
115	0xbceb5582	-0.028727297
116	0x3c54eb9d	0.012995628
117	0xbcbda0c7	-0.023147954
118	0x3d49eb8a	0.049296893
119	0xbd4a7350	-0.049426377
120	0x3d7e50a2	0.062088616
121	0xbd9017b2	-0.070357695
122	0x399190bc	0.0002776439
123	0x3c9adb78	0.018903479
124	0xbd9dc2b6	-0.07703154
125	0x3d308c5a	0.0431026
126	0xbd089fdd	-0.033355583
127	0x3daf867c	0.08570573
