hiddensize-128/model_epoch_0_80.pth (torch, 338985 bytes, 7 tensors)

embedding.0.weight f4 [128, 7]
0	0x3a744b83	0.00093191135
1	0xbeb87c64	-0.36032403
2	0xbe848bb0	-0.25887823
3	0x3e1f3950	0.15549207
4	0x3e09d5b9	0.13460435
5	0x3d91f4ca	0.07126768
6	0xbe78821a	-0.2426838
7	0xbe56b2a6	-0.20966586
8	0xbd80763a	-0.0627255
9	0xbe9be991	-0.30451635
10	0x3e41f8b9	0.18942536
11	0x3ec17418	0.37783885
12	0xbc6e17af	-0.014532014
13	0xbe7cde02	-0.24694064
14	0xbe4cb7a2	-0.19991925
15	0xbe951570	-0.29117918
16	0xbe95946d	-0.29214802
17	0xbd136db7	-0.035993304
18	0x3e400437	0.18751608
19	0x3e12e364	0.14344555
20	0x3ce28f7c	0.02765631
21	0xbe8a16d3	-0.26970538
22	0xbeab8717	-0.33501503
23	0xbdcd14a9	-0.10013706
24	0xbe2526b2	-0.16128042
25	0xbe356b73	-0.1771677
26	0x3d9e2ce9	0.0772341
27	0x3ddf3354	0.10898462
28	0xbe057c1f	-0.1303563
29	0x3e8417b8	0.25799346
30	0x3e7be1ff	0.2459793
31	0xbe589606	-0.2115098
32	0x3d588bac	0.052867576
33	0xbcf73dbe	-0.030180808
34	0xbea677df	-0.3251333
35	0xbe697a8f	-0.22800659
36	0xbe887ba8	-0.26656842
37	0x3e6bcbbf	0.23026942
38	0x3d63b47c	0.055592045
39	0x3e63feff	0.22265242
40	0x3e82adfe	0.2552337
41	0x3ebd107e	0.36926645
42	0x3ea7ad10	0.32749224
43	0x3e3e80e2	0.18603852
44	0x3ebd5c50	0.3698449
45	0x3d8c5c54	0.06853548
46	0xbea2eb40	-0.31820107
47	0xbac38c83	-0.0014919195
48	0x3e87ea32	0.26545864
49	0x3ea8f00e	0.32995647
50	0xbead292f	-0.33820483
51	0x3c9aac04	0.018880852
52	0xbd46d6e4	-0.04854478
53	0x3e996195	0.29957262
54	0x3e5e07e8	0.21682703
55	0x3e8b4754	0.27202857
56	0xbc5167c1	-0.0127810845
57	0x3ea9a00e	0.33129925
58	0xbe157f67	-0.14599381
59	0x3cc6e198	0.024277493
60	0xbe273f31	-0.163327
61	0x3c178c6f	0.009249791
62	0x3e5a42bd	0.21314521
63	0xbeb75c6c	-0.358127
64	0xbd1911a8	-0.037370354
65	0x3c835b4f	0.01603475
66	0xbe9b3276	-0.30311936
67	0xbeb1e234	-0.34742892
68	0x3cc53180	0.024071455
69	0xbe808616	-0.251023
70	0x3bb560ef	0.005535237
71	0x3e585fb9	0.21130265
72	0xbeb06e42	-0.3445912
73	0xbea610e2	-0.32434756
74	0x3e0d3fb2	0.13793829
75	0x3d931b2d	0.07182918
76	0xbcee3302	-0.029077057
77	0x3ddfdf40	0.109312534
78	0xbebd71de	-0.37000936
79	0x3da5b221	0.08090616
80	0x3dcf6e3a	0.10128446
81	0xbd99b4a1	-0.07505155
82	0x3e87e607	0.26542684
83	0x3eb26ab5	0.34847036
84	0xbe2a0d4b	-0.16606633
85	0xbded9046	-0.115997836
86	0x3e9d25a9	0.30692795
87	0x3d11fada	0.03563962
88	0xbe2d2665	-0.16909178
89	0x3e549f66	0.2076393
90	0x3d7e959f	0.06215441
91	0x3e10c699	0.14138259
92	0xbe98fe04	-0.298813
93	0x3eae4dfc	0.34043872
94	0xbda4ee82	-0.08053304
95	0xbea68f68	-0.32531285
96	0xbe9b1e82	-0.30296713
97	0x3ddb9740	0.10722208
98	0xbd855f1b	-0.065122806
99	0x3d730c3a	0.059337832
100	0x3e8f1290	0.2794385
101	0x3dd6f683	0.10496237
102	0x3d3c1681	0.0459199
103	0x3e593a88	0.21213734
104	0x3d250ac5	0.040293474
105	0x3e7463b7	0.23866163
106	0xbe22bcef	-0.15892385
107	0xbe4e0040	-0.20117283
108	0xbdd64681	-0.10462666
109	0xbe679dfb	-0.22618859
110	0xbebcdbc3	-0.36886415
111	0xbeb42ce6	-0.35190505
112	0xbec15a6c	-0.377643
113	0xbe797085	-0.24359329
114	0x3eb6a658	0.35673785
115	0xbe537e68	-0.20653689
116	0xbdd1ec0d	-0.10250101
117	0x3e174a84	0.14774519
118	0xbdd055b1	-0.10172594
119	0x3e6f737b	0.23383896
120	0xbe3e65a1	-0.18593456
121	0x3dff8325	0.12476186
122	0xbe669ad0	-0.22519994
123	0xbcc6a842	-0.024250153
124	0xbd52ab5f	-0.051432963
125	0x3ea4edfd	0.3221282
126	0xbca6e1fc	-0.02037143
127	0x3e6301db	0.22168677
128	0xbe642b6f	-0.22282194
129	0x3e2d68d7	0.16934524
130	0xbe9e62d6	-0.3093478
131	0x3df56377	0.11981862
132	0xbdf950c2	-0.121736065
133	0xbdb69530	-0.08915174
134	0xbe241061	-0.16021873
135	0x3e4f0f67	0.2022072
136	0xbda96101	-0.08270455
137	0xbea9c72c	-0.3315977
138	0x3e85d0fa	0.26136
139	0xbe866c53	-0.2625452
140	0xbd47f95a	-0.048821785
141	0xbe6675b1	-0.22505833
142	0xbebf0f07	-0.37316152
143	0xbded34d0	-0.11582339
144	0x3e36c7e2	0.17849687
145	0x3da970ff	0.082735054
146	0xbd8af0b3	-0.06784191
147	0xbd8d8eb1	-0.06911982
148	0xbe0459c8	-0.12924874
149	0xbeb4ef77	-0.35338947
150	0x3d6705ab	0.05640189
151	0x3da8b51a	0.082376674
152	0x3e9116fd	0.2833785
153	0xbe12a0aa	-0.14319101
154	0x3e95543e	0.29165834
155	0xbe8e8bbb	-0.2784098
156	0xbeabe309	-0.33571652
157	0xbe7e5429	-0.24836792
158	0x3ea33853	0.3187891
159	0x3e9c4019	0.30517653
160	0x3cf5179d	0.029918486
161	0xbd696dab	-0.056989353
162	0xbe85db03	-0.26143655
163	0x3de7dd17	0.113214664
164	0xbdfae3e7	-0.122505
165	0x3e1db546	0.15401182
166	0x3e714b36	0.23563847
167	0x3ea9b81f	0.33148286
168	0x3e81ca65	0.25349727
169	0x3d567448	0.05235699
170	0xbd9456fc	-0.072431535
171	0xbebef0dc	-0.37293136
172	0xbe629f2f	-0.22131036
173	0xbe82794f	-0.25483176
174	0xbeb91071	-0.36145356
175	0x3c681258	0.01416453
176	0x3ea99b9d	0.33126536
177	0xbea7bbde	-0.3276052
178	0xbeb195de	-0.34684652
179	0xbc9b884a	-0.018985886
180	0xbe0de321	-0.13856174
181	0xbcec9c30	-0.02888307
182	0xbe7b04c7	-0.24513541
183	0x3ea6076a	0.3242753
184	0x3ea0c1c1	0.31397822
185	0xbe2a5472	-0.16633776
186	0xbe01291a	-0.12613335
187	0x3ebec62c	0.37260568
188	0x3e7d7fc9	0.24755777
189	0x3da64331	0.081182845
190	0xbe28280d	-0.16421528
191	0xbea77c62	-0.32712084
192	0xbe9a47f2	-0.30133015
193	0x3e9da10c	0.30786932
194	0x3eab7bfe	0.33493036
195	0xbe543ecd	-0.20727082
196	0xbd804b4e	-0.06264363
197	0xbea648c5	-0.32477394
198	0x3d78ddc5	0.06075837
199	0xbe10d19b	-0.14142458
200	0x3dd85e3c	0.10564849
201	0xbea264c8	-0.31717515
202	0x3ebfc92d	0.37458172
203	0xbebf5efd	-0.37377158
204	0xbe4e35c1	-0.20137693
205	0xbda4b6a9	-0.08042652
206	0xbdd69059	-0.10476751
207	0x3eb6616b	0.356212
208	0xbe374bef	-0.1790006
209	0xbeac3c62	-0.33639818
210	0xbe703fd2	-0.23461846
211	0x3eaa26ae	0.33232635
212	0x3d11f85c	0.035637245
213	0xbe2f5616	-0.17122683
214	0xbea40796	-0.32037038
215	0x3e800e53	0.2501093
216	0x3e560e0a	0.20903793
217	0x3dfffb81	0.124991424
218	0xbe847f72	-0.25878483
219	0x3db19977	0.08671849
220	0xbe9f8acb	-0.31160578
221	0xbe8469e7	-0.25862047
222	0xbd33cd45	-0.043896932
223	0x3d81ac1f	0.063316576
224	0x3ebb15af	0.3653998
225	0x3ebcad71	0.36851075
226	0xbd7b6d8e	-0.061383776
227	0xbcf1cc37	-0.029516323
228	0xbebbfd06	-0.3671648
229	0x3ea1b48f	0.31583068
230	0xbe3b9c25	-0.18321283
231	0x3e7b5714	0.24544936
232	0x3e3fab22	0.18717626
233	0xbe965d40	-0.2936802
234	0x3ea1d3c2	0.3160687
235	0x3e2db6c1	0.16964246
236	0x3e900e59	0.28135946
237	0xbd7d8d8b	-0.061902564
238	0x3e544959	0.20731105
239	0xbe0fda09	-0.14048018
240	0x3dce1a78	0.10063642
241	0xbe59cbd1	-0.21269156
242	0xbeb43439	-0.35196093
243	0x3e3088e4	0.1723972
244	0xbe11498c	-0.14188212
245	0x3d928fa3	0.07156303
246	0xbe6b4687	-0.22976123
247	0xbe84b852	-0.25921875
248	0xbe8a03ff	-0.26956174
249	0x3eac947f	0.33707044
250	0x3e7c1fa2	0.24621442
251	0xbebe5dca	-0.3718093
252	0x3e351f6c	0.17687768
253	0xbda55af5	-0.08073989
254	0x3d221aea	0.03957645
255	0xbe5565d9	-0.20839633

embedding.0.bias f4 [128]
0	0xbeb6ac8a	-0.35678512
1	0xbe7a270e	-0.2442896
2	0xbeb711a5	-0.3575565
3	0x3e1a4cf0	0.15068412
4	0xbe119ce5	-0.14220007
5	0x3e8ed880	0.2789955
6	0x3e0adf8a	0.13561836
7	0x3d894231	0.06702078
8	0xbe49b82e	-0.19699165
9	0x3dab284f	0.08357298
10	0xbe8db005	-0.27673355
11	0x3dbd750d	0.09250841
12	0xbe5146f4	-0.20437223
13	0x3da74efd	0.08169363
14	0x3eb96102	0.36206824
15	0xbeac0fd6	-0.33605832
16	0xbe3d727d	-0.18500705
17	0x3d61a220	0.055086255
18	0x3eb43de5	0.35203472
19	0x3db72779	0.08943076
20	0xbe1e3082	-0.15448192
21	0x3e0f8ac0	0.14017773
22	0xbe98cfd6	-0.29846066
23	0x3e39f963	0.1816154
24	0x3e5903a0	0.21192789
25	0x3eafd15c	0.34339416
26	0x3e9116d1	0.2833772
27	0xbd48b97f	-0.049005028
28	0xbe9ffc36	-0.3124711
29	0xbcb862f1	-0.022508116
30	0xbe22acdd	-0.15886255
31	0xbd719525	-0.058980126
32	0x3cecfc6d	0.02892896
33	0xbe9de630	-0.30839682
34	0xbeb05637	-0.34440777
35	0xbda252f9	-0.07925982
36	0x3e76cf5f	0.24102543
37	0xbe9ee7d8	-0.31036258
38	0xbeafcc39	-0.34335497
39	0x3cd89778	0.026439413
40	0xbcc021e5	-0.023453662
41	0xbe05f5cb	-0.13082044
42	0xbe8057b9	-0.25066927
43	0x3d2fa564	0.04288234
44	0x3e46c7ba	0.19412127
45	0xbe9ad4dd	-0.30240527
46	0xbd26dfcd	-0.040740777
47	0xbe3c9a45	-0.18418224
48	0x3e8e4d91	0.27793553
49	0x3e6e1853	0.23251466
50	0x3e01ab11	0.12662913
51	0x3e79305d	0.24334855
52	0x3e70f5b1	0.23531224
53	0x3e98d126	0.29847068
54	0x3e9c7ff4	0.3056637
55	0xbd8e65c4	-0.06953004
56	0x3e966bd3	0.29379138
57	0xbe7a417c	-0.24439043
58	0x3e246a0f	0.16056083
59	0xbe834df1	-0.25645402
60	0x3ea61705	0.32439438
61	0xbd2e960a	-0.042623557
62	0x3e815196	0.25257558
63	0x3ea51d2f	0.32248828
64	0x3e90138f	0.28139922
65	0xbea48134	-0.32129824
66	0x3ddd03f8	0.107917726
67	0x3e87c775	0.2651936
68	0x3ec11ed0	0.3771882
69	0x3e349046	0.17633161
70	0x3d26f759	0.040763233
71	0x3ea3195a	0.3185528
72	0x3ea4d9c6	0.32197398
73	0xbe84173b	-0.25798973
74	0x3de49352	0.111609116
75	0x3e86fcfe	0.26364893
76	0xbe0ff2c8	-0.14057457
77	0xbe50ff4e	-0.20409891
78	0x3e82c439	0.2554033
79	0x3e8480e7	0.25879595
80	0x3dce50f6	0.10074036
81	0xbe13cae7	-0.1443287
82	0xbea3455d	-0.31888857
83	0xbeaf9f01	-0.34300998
84	0x3d9dedc0	0.07711363
85	0x3df74afe	0.120748505
86	0xbe9290dd	-0.28626147
87	0xbe6775db	-0.22603552
88	0x3e8adb8b	0.27120623
89	0xbe457ffa	-0.192871
90	0x3ea2cf79	0.31798914
91	0x3eb28545	0.34867302
92	0xbe6c2cd0	-0.2306397
93	0x3e9293a2	0.2862826
94	0xbcf4e662	-0.029895011
95	0x3d7723c2	0.060336836
96	0xbcf644e4	-0.030062146
97	0x3e05a0f3	0.13049679
98	0x3dc2ae5e	0.09505914
99	0xbb8a7757	-0.004225652
100	0xbd9cb2cc	-0.0765129
101	0x3e85bdd8	0.26121402
102	0x3dd78178	0.10522741
103	0xbe9ab980	-0.3021965
104	0x3e01edcf	0.12688373
105	0xbd8d8730	-0.069105506
106	0xbe65c654	-0.22438937
107	0xbe2da57e	-0.16957662
108	0x3e909d2d	0.28244916
109	0x3e5e4809	0.21707167
110	0x3df6d8ac	0.12053046
111	0x3d7a5895	0.061119635
112	0x3e45a7d6	0.19302306
113	0xbd973eba	-0.07385011
114	0xbe04366c	-0.12911385
115	0x3e9453d9	0.2897022
116	0xbebb6c38	-0.36606002
117	0x3e28e632	0.16494063
118	0xbdde741a	-0.10861988
119	0xbde2a0bc	-0.11065814
120	0xbebe7429	-0.37197998
121	0x3e3bf9cd	0.1835701
122	0x3e86bb7d	0.26314917
123	0x3dba9d88	0.09112078
124	0xbeb5f316	-0.35537022
125	0x3eae8522	0.34085947
126	0x3e36352b	0.1779372
127	0xbe9798d9	-0.296088

layernorm.weight f4 [259, 128]
0	0x3f800000	1.0
1	0x3f800000	1.0
2	0x3f7fffd0	0.99999714
3	0x3f7fffad	0.99999505
4	0x3f7ffff7	0.99999946
5	0x3f7fdef9	0.99949604
6	0x3f80017c	1.0000453
7	0x3f7ffb28	0.9999261
8	0x3f7ffed8	0.99998236
9	0x3f800000	1.0
10	0x3f7fffef	0.999999
11	0x3f800034	1.0000062
12	0x3f8000a1	1.0000192
13	0x3f7fffaf	0.9999952
14	0x3f7fff25	0.99998695
15	0x3f800016	1.0000026
16	0x3f800000	1.0
17	0x3f7ff994	0.999902
18	0x3f800000	1.0
19	0x3f800000	1.0
20	0x3f800000	1.0
21	0x3f800000	1.0
22	0x3f800000	1.0
23	0x3f800000	1.0
24	0x3f7fff92	0.99999344
25	0x3f800000	1.0
26	0x3f8000fd	1.0000302
27	0x3f800000	1.0
28	0x3f7febea	0.9996935
29	0x3f800000	1.0
30	0x3f800005	1.0000006
31	0x3f800000	1.0
32	0x3f800000	1.0
33	0x3f7fffec	0.9999988
34	0x3f800000	1.0
35	0x3f800000	1.0
36	0x3f800005	1.0000006
37	0x3f800000	1.0
38	0x3f800000	1.0
39	0x3f7ffffa	0.99999964
40	0x3f80003a	1.0000069
41	0x3f7ffffe	0.9999999
42	0x3f7ffd6e	0.9999608
43	0x3f7ff2fc	0.9998014
44	0x3f800000	1.0
45	0x3f800000	1.0
46	0x3f800015	1.0000025
47	0x3f7fff46	0.9999889
48	0x3f7ffff3	0.9999992
49	0x3f7ff643	0.9998514
50	0x3f7ffff7	0.99999946
51	0x3f80006c	1.0000129
52	0x3f800047	1.0000085
53	0x3f800000	1.0
54	0x3f800010	1.0000019
55	0x3f800000	1.0
56	0x3f7ffffa	0.99999964
57	0x3f7fffde	0.999998
58	0x3f800000	1.0
59	0x3f800057	1.0000104
60	0x3f800000	1.0
61	0x3f800000	1.0
62	0x3f800000	1.0
63	0x3f800000	1.0
64	0x3f8000b6	1.0000217
65	0x3f80003f	1.0000075
66	0x3f800000	1.0
67	0x3f80003c	1.0000072
68	0x3f800000	1.0
69	0x3f7fffbe	0.99999607
70	0x3f8000b8	1.0000219
71	0x3f8005af	1.0001734
72	0x3f7fffff	0.99999994
73	0x3f80001a	1.0000031
74	0x3f8010fc	1.0005183
75	0x3f800000	1.0
76	0x3f800000	1.0
77	0x3f800000	1.0
78	0x3f800000	1.0
79	0x3f800000	1.0
80	0x3f80002b	1.0000051
81	0x3f800007	1.0000008
82	0x3f7ffff8	0.9999995
83	0x3f800000	1.0
84	0x3f800000	1.0
85	0x3f7ffef2	0.9999839
86	0x3f7ffb0e	0.99992454
87	0x3f800000	1.0
88	0x3f800040	1.0000076
89	0x3f7ffbed	0.99993783
90	0x3f800371	1.000105
91	0x3f800000	1.0
92	0x3f800000	1.0
93	0x3f7fffd8	0.9999976
94	0x3f7fff9d	0.9999941
95	0x3f7fff3c	0.9999883
96	0x3f7fff35	0.9999879
97	0x3f80004c	1.0000091
98	0x3f7ffe1a	0.99997103
99	0x3f8009ec	1.0003028
100	0x3f7ff45c	0.9998224
101	0x3f7fedd7	0.9997229
102	0x3f7ffff4	0.9999993
103	0x3f800000	1.0
104	0x3f7ff277	0.99979347
105	0x3f800047	1.0000085
106	0x3f7fed1c	0.99971175
107	0x3f80000a	1.0000012
108	0x3f800000	1.0
109	0x3f7fff45	0.99998885
110	0x3f800035	1.0000063
111	0x3f800000	1.0
112	0x3f800000	1.0
113	0x3f800c0b	1.0003675
114	0x3f800000	1.0
115	0x3f800477	1.0001363
116	0x3f80006d	1.000013
117	0x3f800000	1.0
118	0x3f800000	1.0
119	0x3f800000	1.0
120	0x3f7ffc87	0.999947
121	0x3f800000	1.0
122	0x3f800000	1.0
123	0x3f800000	1.0
124	0x3f80002d	1.0000054
125	0x3f800000	1.0
126	0x3f800000	1.0
127	0x3f7fe8de	0.999647
128	0x3f800000	1.0
129	0x3f800000	1.0
130	0x3f7ffff6	0.9999994
131	0x3f7ffffa	0.99999964
132	0x3f800000	1.0
133	0x3f7ff337	0.9998049
134	0x3f800077	1.0000142
135	0x3f7ffed3	0.99998206
136	0x3f800000	1.0
137	0x3f800000	1.0
138	0x3f800000	1.0
139	0x3f800010	1.0000019
140	0x3f800041	1.0000077
141	0x3f7fffef	0.999999
142	0x3f7fff60	0.99999046
143	0x3f800000	1.0
144	0x3f800000	1.0
145	0x3f7ffe6e	0.99997604
146	0x3f800009	1.0000011
147	0x3f800000	1.0
148	0x3f800000	1.0
149	0x3f800000	1.0
150	0x3f800000	1.0
151	0x3f800000	1.0
152	0x3f7ffff1	0.9999991
153	0x3f800000	1.0
154	0x3f80007c	1.0000148
155	0x3f800000	1.0
156	0x3f7ff9af	0.9999036
157	0x3f800000	1.0
158	0x3f800000	1.0
159	0x3f800000	1.0
160	0x3f800000	1.0
161	0x3f7fffec	0.9999988
162	0x3f800000	1.0
163	0x3f800000	1.0
164	0x3f800000	1.0
165	0x3f800000	1.0
166	0x3f800000	1.0
167	0x3f800000	1.0
168	0x3f800007	1.0000008
169	0x3f7fffb1	0.9999953
170	0x3f7fff5b	0.99999017
171	0x3f7ffc3f	0.9999427
172	0x3f800000	1.0
173	0x3f80000c	1.0000014
174	0x3f800000	1.0
175	0x3f7fff58	0.99999
176	0x3f800000	1.0
177	0x3f7ffe61	0.99997526
178	0x3f7fffde	0.999998
179	0x3f80001d	1.0000035
180	0x3f80001e	1.0000036
181	0x3f800000	1.0
182	0x3f800000	1.0
183	0x3f800000	1.0
184	0x3f7fffdb	0.9999978
185	0x3f7ffffd	0.9999998
186	0x3f800016	1.0000026
187	0x3f80001d	1.0000035
188	0x3f800000	1.0
189	0x3f7fffe9	0.9999986
190	0x3f800000	1.0
191	0x3f800000	1.0
192	0x3f800027	1.0000046
193	0x3f800021	1.0000039
194	0x3f800000	1.0
195	0x3f80000a	1.0000012
196	0x3f800000	1.0
197	0x3f7ffff6	0.9999994
198	0x3f80003c	1.0000072
199	0x3f800100	1.0000305
200	0x3f800000	1.0
201	0x3f800001	1.0000001
202	0x3f800416	1.0001247
203	0x3f7fffde	0.999998
204	0x3f800000	1.0
205	0x3f800000	1.0
206	0x3f800000	1.0
207	0x3f800000	1.0
208	0x3f80000a	1.0000012
209	0x3f800000	1.0
210	0x3f800000	1.0
211	0x3f800000	1.0
212	0x3f800000	1.0
213	0x3f7fff6a	0.99999106
214	0x3f7fff53	0.9999897
215	0x3f800000	1.0
216	0x3f800012	1.0000021
217	0x3f7ffe2c	0.9999721
218	0x3f8000a0	1.0000191
219	0x3f800000	1.0
220	0x3f800000	1.0
221	0x3f7ffff2	0.99999917
222	0x3f7fffef	0.999999
223	0x3f7fffa4	0.9999945
224	0x3f7fff6e	0.9999913
225	0x3f800014	1.0000024
226	0x3f7fff12	0.9999858
227	0x3f8002f5	1.0000902
228	0x3f7ffd1f	0.9999561
229	0x3f7ffb06	0.99992406
230	0x3f800000	1.0
231	0x3f7ffff0	0.99999905
232	0x3f7ffd82	0.999962
233	0x3f800039	1.0000068
234	0x3f7ff8d2	0.99989045
235	0x3f800021	1.0000039
236	0x3f800007	1.0000008
237	0x3f7fffba	0.9999958
238	0x3f800007	1.0000008
239	0x3f800000	1.0
240	0x3f800000	1.0
241	0x3f80022c	1.0000663
242	0x3f800009	1.0000011
243	0x3f800080	1.0000153
244	0x3f80001c	1.0000033
245	0x3f800000	1.0
246	0x3f800000	1.0
247	0x3f800000	1.0
248	0x3f7ffe7c	0.9999769
249	0x3f800000	1.0
250	0x3f800000	1.0
251	0x3f800000	1.0
252	0x3f80001f	1.0000037
253	0x3f800000	1.0
254	0x3f800000	1.0
255	0x3f7ff7f4	0.9998772

layernorm.bias f4 [259, 128]
0	0xb5367807	-6.7974946e-07
1	0x36b11737	5.2777136e-06
2	0xb6503e7b	-3.1030784e-06
3	0xb7191463	-9.124257e-06
4	0xb494b6b4	-2.7700082e-07
5	0xb73c575b	-1.1226012e-05
6	0x36cf4f0a	6.178282e-06
7	0xb627ee65	-2.5023703e-06
8	0xb6310d22	-2.63827e-06
9	0xb7719639	-1.4399696e-05
10	0xb65cfb34	-3.2928774e-06
11	0x36525f6b	3.134798e-06
12	0x370eef82	8.519624e-06
13	0xb679eabe	-3.724053e-06
14	0xb7100bce	-8.585817e-06
15	0x371ca4b8	9.336676e-06
16	0x36927759	4.365033e-06
17	0xb6967f97	-4.4852018e-06
18	0x37316079	1.0572484e-05
19	0xb680b05d	-3.8352287e-06
20	0x37107ba8	8.61186e-06
21	0x3685d014	3.9879324e-06
22	0x37430c08	1.1625707e-05
23	0x34be29c7	3.5420655e-07
24	0xb70f00ca	-8.523648e-06
25	0xb728cab5	-1.0060777e-05
26	0x36b7b1ca	5.4745224e-06
27	0xb68da7ef	-4.2216775e-06
28	0xb71548e2	-8.898061e-06
29	0x36e437e6	6.801437e-06
30	0x36a392dd	4.8748757e-06
31	0x36629250	3.376179e-06
32	0xb6aac79a	-5.0896315e-06
33	0xb657506e	-3.2084313e-06
34	0xb4395d70	-1.726346e-07
35	0x37764a05	1.4679977e-05
36	0x365d7663	3.3000476e-06
37	0xb5b42872	-1.3422816e-06
38	0xb6bc8ad1	-5.618997e-06
39	0xb6a1fc76	-4.827564e-06
40	0x36f37546	7.2556168e-06
41	0xb778f532	-1.4839041e-05
42	0xb7051056	-7.931221e-06
43	0xb7049c7b	-7.904247e-06
44	0xb6f11363	-7.1846166e-06
45	0x372cc2e8	1.0297379e-05
46	0x36f23be3	7.2191337e-06
47	0x35681bf2	8.64674e-07
48	0xb668b57b	-3.467633e-06
49	0xb744f998	-1.1740623e-05
50	0xb70385a3	-7.839323e-06
51	0x366100d6	3.35281e-06
52	0x36360746	2.7124347e-06
53	0xb7337340	-1.0696065e-05
54	0x36233450	2.4319343e-06
55	0x35ca6bff	1.5081604e-06
56	0xb70c67f6	-8.368856e-06
57	0xb58ad9f6	-1.0345236e-06
58	0x37543b41	1.2649981e-05
59	0x367e0080	3.784924e-06
60	0xb7268162	-9.924495e-06
61	0xb731075a	-1.0551734e-05
62	0x368a0d93	4.1143007e-06
63	0x36c056cd	5.732151e-06
64	0x3716e4cc	8.993968e-06
65	0x36fb1398	7.482664e-06
66	0x3712904b	8.735874e-06
67	0xb70ad880	-8.275849e-06
68	0xb655a573	-3.1835777e-06
69	0xb7360ca0	-1.0850985e-05
70	0x368baba5	4.162505e-06
71	0x3719d504	9.169107e-06
72	0x3783f0ad	1.572849e-05
73	0x36ae55f4	5.1956104e-06
74	0x377a49f7	1.49183825e-05
75	0xb72e8255	-1.04015535e-05
76	0xb7117935	-8.670894e-06
77	0xb748f043	-1.1976869e-05
78	0xb48da493	-2.638304e-07
79	0x3669bde1	3.483023e-06
80	0x36eed46b	7.1176814e-06
81	0x37017f7c	7.718681e-06
82	0xb6065dc2	-2.002213e-06
83	0xb6e1cbcf	-6.729249e-06
84	0x35f5e617	1.8320887e-06
85	0xb7412208	-1.151162e-05
86	0xb6ee681e	-7.1050736e-06
87	0x36b4d390	5.389047e-06
88	0x36617ad2	3.3599104e-06
89	0xb601159b	-1.9235074e-06
90	0x37116f53	8.668593e-06
91	0x36d21671	6.2611e-06
92	0x366a0910	3.4873992e-06
93	0xb72de0c4	-1.0363936e-05
94	0xb77429a7	-1.4553231e-05
95	0xb6b790ea	-5.470695e-06
96	0xb6deeb62	-6.6435177e-06
97	0x36895bb9	4.093596e-06
98	0xb6347f85	-2.6896316e-06
99	0x378889d0	1.6276637e-05
100	0xb688f7ff	-4.0819864e-06
101	0xb6f66ed7	-7.3442748e-06
102	0xb75e7a0d	-1.3260648e-05
103	0xb69d7cca	-4.693492e-06
104	0xb74412f7	-1.1686926e-05
105	0x36b276a0	5.318623e-06
106	0xb6aa4f60	-5.0756353e-06
107	0x372ea7ad	1.0410248e-05
108	0x3770319c	1.4316665e-05
109	0xb52ce7e2	-6.4412427e-07
110	0x37368e78	1.0881216e-05
111	0xb6217b77	-2.4062736e-06
112	0x373d69e0	1.1289929e-05
113	0x377e7465	1.516668e-05
114	0x36e04252	6.683441e-06
115	0x3717740c	9.027321e-06
116	0x36220328	2.4141718e-06
117	0x369a4d1e	4.5985353e-06
118	0xb6b117ca	-5.2777805e-06
119	0x371b6b6d	9.263732e-06
120	0xb746a345	-1.1839734e-05
121	0x37615c8d	1.3432594e-05
122	0x36854303	3.97151e-06
123	0xb64ac67d	-3.021588e-06
124	0x37769ba0	1.4698977e-05
125	0xb6d632ee	-6.383626e-06
126	0x36d81a8f	6.4403935e-06
127	0xb7406060	-1.1466531e-05
128	0x351cacb2	5.8365833e-07
129	0x3698e766	4.5568913e-06
130	0xb6926dec	-4.3639357e-06
131	0xb7013e97	-7.703572e-06
132	0xb4fc8204	-4.7033257e-07
133	0xb7285a06	-1.00345405e-05
134	0x36bceaf5	5.630189e-06
135	0xb68da29d	-4.221058e-06
136	0xb642d6a2	-2.9033185e-06
137	0xb782be49	-1.5585816e-05
138	0xb60de420	-2.1143424e-06
139	0x35fe7784	1.8959258e-06
140	0x3725d25e	9.883746e-06
141	0xb6e8ed88	-6.941791e-06
142	0xb715af08	-8.921845e-06
143	0x37315bd1	1.05714e-05
144	0x36c37c1e	5.825902e-06
145	0xb6e22f2a	-6.7408155e-06
146	0x372ffa4e	1.0489091e-05
147	0xb6eeea76	-7.1202476e-06
148	0x371b59d7	9.259637e-06
149	0x36404b2e	2.865399e-06
150	0x373c72d3	1.1232408e-05
151	0x36454e41	2.9400837e-06
152	0xb70f3d8c	-8.537794e-06
153	0xb6f780ad	-7.3761535e-06
154	0x3695e433	4.467112e-06
155	0xb64d66db	-3.060725e-06
156	0xb741d4cc	-1.1553242e-05
157	0x36d56c7e	6.360525e-06
158	0x363bf7d3	2.8009424e-06
159	0x363490ad	2.6906303e-06
160	0xb6dd2741	-6.590883e-06
161	0xb64a4864	-3.0142483e-06
162	0xb5e05f6b	-1.6717071e-06
163	0x37499a62	1.2016479e-05
164	0x3692c489	4.3740188e-06
165	0xb616adf4	-2.2452996e-06
166	0xb69fa896	-4.7581952e-06
167	0xb67e1bf3	-3.7865218e-06
168	0x36a77e77	4.9917103e-06
169	0xb76f61df	-1.42682975e-05
170	0xb6f8982a	-7.40869e-06
171	0xb7271b64	-9.960353e-06
172	0xb6be972c	-5.68004e-06
173	0x3750ee3a	1.2453233e-05
174	0x36eac51e	6.996691e-06
175	0xb6417d3e	-2.8832142e-06
176	0xb69994f5	-4.577096e-06
177	0xb751f6aa	-1.2514802e-05
178	0xb70e33f4	-8.475956e-06
179	0x36836e84	3.91697e-06
180	0x3607dd10	2.0245243e-06
181	0xb72909aa	-1.0075435e-05
182	0x36194aa2	2.2842219e-06
183	0x3603a2b4	1.9615227e-06
184	0xb701b656	-7.731453e-06
185	0xb60911d7	-2.0424975e-06
186	0x374e5cb9	1.23001455e-05
187	0x364bcbbf	3.0367953e-06
188	0xb6f17469	-7.1959116e-06
189	0xb733a068	-1.0706579e-05
190	0x36cb10fb	6.0518482e-06
191	0x36c00a73	5.7232623e-06
192	0x36f57b87	7.3159495e-06
193	0x36c9d4bb	6.015032e-06
194	0x371c62e4	9.321349e-06
195	0xb70f4b0e	-8.540939e-06
196	0x323bed15	1.0938739e-08
197	0xb72b6175	-1.0215085e-05
198	0x369d9b21	4.697024e-06
199	0x3738c29a	1.1012564e-05
200	0x3781e71a	1.5485613e-05
201	0x368d7781	4.2160395e-06
202	0x3758ef6d	1.2930349e-05
203	0xb742f03e	-1.1619237e-05
204	0xb7445c57	-1.170401e-05
205	0xb756b4cd	-1.279749e-05
206	0xb58f1671	-1.0660862e-06
207	0x36c956de	6.0003795e-06
208	0x368c01ae	4.1725207e-06
209	0x370d94a1	8.43886e-06
210	0xb663dda4	-3.3954648e-06
211	0xb6ec14d1	-7.0357714e-06
212	0x362359ed	2.4341236e-06
213	0xb7473d6a	-1.1875623e-05
214	0xb69edede	-4.734712e-06
215	0x36d48a87	6.334219e-06
216	0x36791bf7	3.712017e-06
217	0xb626b53a	-2.4841415e-06
218	0x37244867	9.792019e-06
219	0x368d3c49	4.2091456e-06
220	0x36aa89fe	5.082459e-06
221	0xb73c1764	-1.1211119e-05
222	0xb766b11a	-1.3750303e-05
223	0xb6da38be	-6.503512e-06
224	0xb6eba567	-7.022801e-06
225	0x36d2c6e0	6.28164e-06
226	0xb66d26f8	-3.5338435e-06
227	0x37836916	1.5665351e-05
228	0xb64c3735	-3.0430504e-06
229	0xb6cc8d2c	-6.0961083e-06
230	0xb7660587	-1.3710355e-05
231	0xb6bfa626	-5.711586e-06
232	0xb735709a	-1.0814658e-05
233	0x36ca3e11	6.0272946e-06
234	0xb6d62ab8	-6.38267e-06
235	0x375656a2	1.2775565e-05
236	0x37565bb5	1.2776746e-05
237	0xb4e2d075	-4.2247453e-07
238	0x3752f8e9	1.2574929e-05
239	0xb6600027	-3.337869e-06
240	0x37562e2b	1.2766143e-05
241	0x376dd532	1.4175939e-05
242	0x3704c690	7.9140445e-06
243	0x36d2540c	6.268272e-06
244	0x369a50df	4.5989723e-06
245	0x369dfd0b	4.7084227e-06
246	0xb6bc0ac8	-5.6040917e-06
247	0x372abac3	1.01762735e-05
248	0xb7430741	-1.1624595e-05
249	0x37854a00	1.5889294e-05
250	0x3642a2e6	2.9003072e-06
251	0xb69b52d1	-4.629001e-06
252	0x378cdac8	1.6791178e-05
253	0xb6df445d	-6.6538764e-06
254	0x37041fc2	7.875207e-06
255	0xb74a5c91	-1.20616905e-05

fc.0.weight f4 [128, 128]
0	0xbd7ff90a	-0.06249336
1	0xbc9db31a	-0.019250441
2	0x3daa898b	0.083270155
3	0xbd1be497	-0.038059797
4	0x3c2812d2	0.010258393
5	0xbd9cddd4	-0.07659498
6	0xbb2884b5	-0.0025713865
7	0x3d69174e	0.05690699
8	0xbd04f618	-0.032461256
9	0xbc4d805e	-0.012542812
10	0x3d53615e	0.05160653
11	0xbd7e16b1	-0.06203336
12	0xbd836d19	-0.06417293
13	0x3d42a43a	0.0475199
14	0xbd86f1ac	-0.06589064
15	0xbc2d1f88	-0.0105666
16	0x3db22d23	0.087000154
17	0x3dac0315	0.08399025
18	0xbd6b9400	-0.05751419
19	0x3daf4680	0.08558369
20	0x3ccdfb38	0.025144204
21	0xbcbb6e14	-0.022879638
22	0xbd616dd7	-0.055036392
23	0xbcd0e3ba	-0.025499213
24	0xbc0a8ac5	-0.008455937
25	0x3d064e61	0.03278959
26	0xbcb46398	-0.022020146
27	0xbd0d185b	-0.034447055
28	0xbba1dec3	-0.0049398853
29	0xbc44beb5	-0.012008359
30	0x3af71b5f	0.0018852762
31	0xbc9202ab	-0.017823538
32	0xbd248c17	-0.040172663
33	0x3d936c17	0.07198351
34	0xbcff72fe	-0.031182762
35	0xbd078f5c	-0.033095703
36	0xbd7632a2	-0.06010688
37	0x3d92e948	0.07173401
38	0x3d0fc6a2	0.03510154
39	0x3c242558	0.010018669
40	0x3d83d5a5	0.06437234
41	0xbbf1d03c	-0.00737956
42	0xbd5a9de9	-0.05337325
43	0x3da0647a	0.078316644
44	0xbcdc8e86	-0.02692343
45	0x3b0f460e	0.0021861824
46	0x3c8d04ee	0.017214265
47	0xbdb20c5a	-0.08693762
48	0x3d280055	0.04101594
49	0x3d32e87c	0.043678746
50	0x3d3bdb66	0.04586353
51	0x3d1c1586	0.038106464
52	0x3cab1822	0.02088553
53	0x3c909bc1	0.017652394
54	0x3d51dd31	0.051236335
55	0x3d8870e3	0.066621564
56	0xbc9a1d7e	-0.018812891
57	0xbd8657cc	-0.06559715
58	0x3da6b55b	0.081400596
59	0xbc3352e2	-0.010945054
60	0x3d120c3e	0.035656206
61	0xbd9b4d37	-0.07583087
62	0x3b04e73d	0.002027943
63	0x3c28d330	0.010304257
64	0xbd95d742	-0.07316448
65	0xbd8962bc	-0.06708285
66	0xbd45fe5f	-0.04833829
67	0xbd82c811	-0.06385816
68	0xbd43aae5	-0.0477704
69	0xbda332a6	-0.07968645
70	0x3c48adac	0.012248438
71	0xbd8bf931	-0.06834639
72	0xbb8357fe	-0.004008292
73	0x3d6398fc	0.05556582
74	0x3cd70908	0.026249424
75	0x3d2a2e49	0.041548047
76	0xbc008952	-0.00784524
77	0x3c82e266	0.015977096
78	0xbd93015a	-0.07177992
79	0xbda891d6	-0.08230941
80	0x3be8fd1f	0.0071102525
81	0x3d92d78e	0.0717002
82	0xbcfa421e	-0.030549105
83	0xbcfbb8f2	-0.030727837
84	0x3c882965	0.016621301
85	0xbd91f744	-0.0712724
86	0xbd85ba42	-0.065296665
87	0x3c7586b6	0.014985731
88	0x3bf92bc5	0.0076040947
89	0xbb77d902	-0.0037818556
90	0xbd83a939	-0.06428761
91	0xbd7d27a6	-0.06180539
92	0x3d6f6893	0.05844934
93	0x3cc77d4f	0.024351744
94	0x3d2999c9	0.041406427
95	0x3b9a8bc1	0.004716367
96	0xbd4f512d	-0.050614525
97	0x3da36e5d	0.079800345
98	0xbd70a6d8	-0.058752865
99	0x3d0c0571	0.034184877
100	0x3c9cf088	0.019157663
101	0x3dadcb6f	0.084860675
102	0xbb86062a	-0.0040900903
103	0x3d9a70c0	0.075410366
104	0xbc8cca61	-0.017186346
105	0x3d299440	0.041401148
106	0x3da0b730	0.0784744
107	0x3d3bcc32	0.045849033
108	0xbd60d5da	-0.054891445
109	0xbda5e94d	-0.08101139
110	0x3d9d9898	0.076951206
111	0x3d77bc9c	0.060482606
112	0x3c199632	0.009374188
113	0x3d27cced	0.040966917
114	0xbd94d1c1	-0.0726657
115	0xbd0ee512	-0.034886427
116	0xbc69e885	-0.014276628
117	0xbd232387	-0.039828803
118	0x3caf4c39	0.02139865
119	0x3d5ceb12	0.053935118
120	0x3db4c93f	0.08827447
121	0xbc0fbdbc	-0.008773264
122	0xbbe761df	-0.0070612277
123	0x3d9894cb	0.07450255
124	0x3cb6d430	0.022317976
125	0x3d8de23d	0.06927917
126	0xbc822b9a	-0.015889931
127	0x3d6e7649	0.058218274
128	0xbca731fa	-0.020409573
129	0x3b6c0da9	0.0036018884
130	0x3da41276	0.08011334
131	0x3d877e3b	0.066158734
132	0xbd05dace	-0.03267937
133	0x3d7a33a9	0.061084423
134	0x3b767a73	0.0037609607
135	0xbd9a2618	-0.07526797
136	0xbd3216b0	-0.043478668
137	0x3d4a305d	0.04936253
138	0x39a76eee	0.0003193537
139	0x3cff2f20	0.0311504
140	0xbd3409a4	-0.043954507
141	0xbd30dbd6	-0.043178402
142	0x3d7a3997	0.06109008
143	0x3d922f5c	0.07137939
144	0xbd81fa4e	-0.0634657
145	0x3b6ede24	0.0036448324
146	0x3da8fbec	0.08251175
147	0xbd8c90fe	-0.068635926
148	0x3daa0991	0.08302606
149	0x3baf0b0c	0.005341893
150	0x3d9f5263	0.07779386
151	0xbda696a3	-0.081342004
152	0x3d95b2d7	0.073095016
153	0xbc564bcb	-0.013079594
154	0xbbf92c15	-0.007604132
155	0xbcb41892	-0.021984372
156	0x3d877773	0.0661458
157	0xbd209269	-0.039202128
158	0x3d37dd50	0.044888794
159	0xbd5173eb	-0.05113594
160	0x3d9f39e2	0.07774712
161	0x3d4c5ab2	0.04989118
162	0xbbf465e1	-0.007458434
163	0x3ce45b6a	0.02787562
164	0xbd950de2	-0.072780386
165	0x3d244149	0.040101323
166	0x3d395326	0.045245312
167	0xbd1c1956	-0.0381101
168	0xbcdbcffc	-0.026832573
169	0x3cb6570f	0.02225831
170	0x3c6c910b	0.014438878
171	0x3d1c0204	0.03808786
172	0x3c5da0f2	0.013527142
173	0xbdb0ee92	-0.08639254
174	0x3b0c05c8	0.002136575
175	0xbd75eca5	-0.060040135
176	0x3c6b2ca7	0.014353908
177	0x3d8baee2	0.068204656
178	0x3d2fbe32	0.042905994
179	0xbd87447e	-0.06604861
180	0xbad19843	-0.0015990812
181	0x3d9b5fa9	0.07586605
182	0xbd5bec13	-0.053691935
183	0x3dad107f	0.08450412
184	0x3d172c7d	0.03690766
185	0x3d57f587	0.052724387
186	0x3d9e633c	0.07733771
187	0xbd912b47	-0.070883326
188	0xbd14d43f	-0.036335226
189	0xbca6da1d	-0.020367676
190	0x3c82a678	0.01594852
191	0xbd4f3b44	-0.05059363
192	0x3c9ca5c9	0.019122021
193	0xbd845889	-0.06462199
194	0x3c55fe94	0.013061184
195	0x3d97e10f	0.074159734
196	0x3daf99f5	0.08574287
197	0xbbb4efcf	-0.0055217515
198	0xbc9296c3	-0.017894154
199	0x3c465a15	0.012106438
200	0x3da11ab3	0.078664206
201	0x3ccdab1c	0.025106005
202	0xbcc1c806	-0.023654949
203	0x3d832c5f	0.064049475
204	0x3c2bc246	0.01048333
205	0xbcdec54d	-0.02719369
206	0xbc8d9a79	-0.017285572
207	0x3d41e7ac	0.04734008
208	0x3cf6d9d8	0.030133173
209	0x3d48e4f4	0.04904647
210	0x3dacd7da	0.08439608
211	0xbc43f686	-0.011960631
212	0x3d6dde79	0.058073495
213	0xbd6dfbc9	-0.05810145
214	0xbce4c3c7	-0.027925385
215	0x3d444d28	0.047925144
216	0xbcadd93d	-0.021221751
217	0xbc4e80b6	-0.012603929
218	0x3d4b0b7c	0.0495715
219	0xbd3cc1a1	-0.046083096
220	0x3dab5876	0.08366482
221	0x3c5ce90d	0.013483298
222	0x3d5a64ea	0.053318895
223	0xba03b62e	-0.00050244003
224	0x3d032844	0.032020822
225	0xbd81a1d9	-0.06329698
226	0x3d0205a2	0.031743653
227	0xbd0e9291	-0.034807745
228	0xbd87c527	-0.06629401
229	0xbdb55648	-0.088543475
230	0xbd14c105	-0.03631689
231	0x3d3b4760	0.045722365
232	0x3d6590fe	0.05604648
233	0x3d22cf56	0.039748512
234	0xbc977474	-0.018488146
235	0xbd6f4a19	-0.058420274
236	0x3cbff2a7	0.023431135
237	0xbc24e192	-0.010063546
238	0x3c911a82	0.017712835
239	0xbd580b11	-0.05274493
240	0xbd9bbcde	-0.07604383
241	0xbdb2953a	-0.08719869
242	0x3b31806c	0.0027084602
243	0x3cfb56d3	0.03068105
244	0xbcac204b	-0.021011492
245	0xbbcf61b3	-0.0063287853
246	0x3bd21e23	0.006412284
247	0xbd9b8a53	-0.075947426
248	0xbcfe30c3	-0.03102911
249	0x3d5b0972	0.053475805
250	0xbca3fd20	-0.02001816
251	0x3c6285ad	0.013825816
252	0x3d23d8f1	0.040001813
253	0xba88c589	-0.0010434847
254	0x3d9415a2	0.07230689
255	0xbd151110	-0.036393225

fc.0.bias f4 [128]
0	0x3d86edbb	0.06588312
1	0x3d9f1e2d	0.077694274
2	0xbd3651ca	-0.044511594
3	0xbd00fc53	-0.031490635
4	0x3d15e483	0.03659488
5	0x3d06606c	0.0328068
6	0xbd7612b0	-0.060076416
7	0x3d228886	0.03968098
8	0x3cf338a2	0.02969009
9	0xbda1788b	-0.0788432
10	0xbd67f8f8	-0.05663392
11	0xbdb36690	-0.087597966
12	0x3d884dc9	0.06655461
13	0xbd1bf055	-0.038070995
14	0xbda188f1	-0.078874476
15	0xbd4a53cb	-0.049396317
16	0xbcf1f1d6	-0.029534262
17	0xbc6b87a6	-0.014375603
18	0x3d92fafc	0.07176778
19	0xbcc35510	-0.023844272
20	0xbd8ab304	-0.06772426
21	0x3c42d10a	0.011890659
22	0x3d616eb5	0.05503722
23	0xbd8a30de	-0.06747602
24	0x3d7f8286	0.062380336
25	0xbd82ca7c	-0.06386277
26	0x3a71d7c5	0.00092255726
27	0x3d78c91d	0.06073867
28	0x3d1fa204	0.03897287
29	0x3d963026	0.07333402
30	0xbcc48871	-0.023990842
31	0xbd5980d7	-0.053101387
32	0x3d0dec63	0.034649264
33	0x3d7abea7	0.061216976
34	0x3db13df6	0.08654396
35	0x3bff26f5	0.0077866265
36	0x3b903ffd	0.0044021592
37	0xbd580f76	-0.05274912
38	0x3d5cdb55	0.05392011
39	0xbcdedf69	-0.02720614
40	0x3d4a8101	0.049439434
41	0xbda7f7a4	-0.082015306
42	0x3d826d02	0.06368448
43	0x3af698e8	0.001881388
44	0x3d3106f3	0.043219518
45	0xbc91c7ff	-0.01779556
46	0x3c4e1f5d	0.01258072
47	0x3d8d61b2	0.069033995
48	0x3d2f613e	0.042817347
49	0xbd69bed9	-0.057066772
50	0x3d7fa919	0.062417123
51	0xbd1ed0ee	-0.03877347
52	0xbd54c91f	-0.051949617
53	0x3d9c9c4e	0.07647
54	0xbd50e99e	-0.051004045
55	0x3d0c7ec5	0.034300584
56	0xbc931c14	-0.017957725
57	0x3cef9e82	0.029250387
58	0x3d7cde86	0.061735652
59	0xbd91a974	-0.07112399
60	0xbd35e5da	-0.044408657
61	0x3d7278ff	0.059197422
62	0xbcd29351	-0.025705012
63	0x3a065193	0.000512385
64	0xbdac249f	-0.084054224
65	0x3ce27e4c	0.027648114
66	0xbd1598fb	-0.036522847
67	0x3d52402c	0.05133073
68	0x3da74b34	0.08168641
69	0x3d8fd4da	0.0702302
70	0x3db110cb	0.08645781
71	0x3d5fda9b	0.054651838
72	0x3db4a645	0.08820776
73	0xbcadaa71	-0.021199437
74	0x39d73aff	0.0004105195
75	0x3d4ce309	0.050021205
76	0xbdb1cf35	-0.086821
77	0xbd837cf0	-0.06420314
78	0x3da5a14f	0.08087408
79	0xbd86f7d1	-0.06590236
80	0xbcac93c3	-0.021066552
81	0xbd693bf9	-0.05694196
82	0xbd9bf7a6	-0.076155946
83	0xbcfaf5a7	-0.030634714
84	0x3d9cc76e	0.07655226
85	0x3d44c345	0.048037786
86	0xbd003f68	-0.03131047
87	0xbd8715b3	-0.06595936
88	0xbd0b0b9a	-0.03394661
89	0xbcd1f782	-0.025630716
90	0x3d91ef17	0.07125681
91	0x3b7c2115	0.0038471867
92	0xbdab140a	-0.083534315
93	0x3d3c10bc	0.045914397
94	0xb8ea34c7	-0.0001116782
95	0x3da36e97	0.07980078
96	0x3a9d9b2b	0.0012024393
97	0xbda2896e	-0.07936369
98	0xbd9cbe5b	-0.07653495
99	0x3d6e43d8	0.05817017
100	0xbda79358	-0.081824005
101	0xbcab9726	-0.020946097
102	0xbb0fa696	-0.0021919361
103	0xbc2a4ce4	-0.010394309
104	0x3c7d18ab	0.015447776
105	0xbd39965b	-0.045309406
106	0xbd36167c	-0.044455037
107	0x3c252115	0.010078688
108	0xbd85fac4	-0.0654197
109	0xbd97fb06	-0.07420926
110	0xbdb39615	-0.0876886
111	0x3d521839	0.05129263
112	0x3d3afac4	0.045649305
113	0xbd493607	-0.04912379
114	0xbd9218d6	-0.07133643
115	0xbcf4dd13	-0.029890573
116	0xbd42c90c	-0.047555014
117	0xbd19d503	-0.03755666
118	0xbd4f92ac	-0.050676987
119	0x3c8739c1	0.016507031
120	0x3dae7b68	0.085196316
121	0x3c0c3012	0.008556383
122	0xbd19a2bc	-0.03750871
123	0xbd98d039	-0.0746159
124	0xbd63bc5b	-0.05559955
125	0xbc689ce3	-0.014197561
126	0x3d99c12d	0.075075485
127	0xbaeeaa97	-0.0018208799

output_layer.0.weight f4 [1, 128]
0	0x3b918093	0.004440376
1	0xbca48907	-0.020084871
2	0x3c780398	0.015137576
3	0x3d61201c	0.054962263
4	0x3cee6d62	0.029104892
5	0x3d794909	0.060860667
6	0xbd00e91c	-0.03147231
7	0x3cf4c12a	0.029877264
8	0x3cf0cb35	0.029393772
9	0x3daae60e	0.08344661
10	0x3cf1db55	0.029523531
11	0xbcc487fe	-0.023990627
12	0xbd8a5a17	-0.067554645
13	0x3d3dea38	0.046365947
14	0x3d3cf412	0.0461312
15	0xbd561ece	-0.05227547
16	0xbd13ee41	-0.03611589
17	0x3cf75adb	0.03019469
18	0xbd877f93	-0.0661613
19	0x3ced164f	0.028941302
20	0xbcb13eeb	-0.021636447
21	0xbcb575fe	-0.02215099
22	0xbd7639a2	-0.060113557
23	0x3be87da2	0.0070950547
24	0x3d7aee01	0.061262134
25	0x3d77707e	0.060410015
26	0xbc78e1ec	-0.015190583
27	0x3cb0b968	0.021572784
28	0x3d4b17e0	0.049583316
29	0xbd4adc0c	-0.04952626
30	0x3c09ee2b	0.0084186
31	0xbca17f98	-0.019714162
32	0x3d49f909	0.049309764
33	0x3d03fa60	0.032221198
34	0x3c844487	0.016145958
35	0xbda4c993	-0.0804626
36	0xbcd966bb	-0.026538244
37	0x3c88cbca	0.016698737
38	0x3d3c335b	0.045947414
39	0x3d3f4e01	0.04670525
40	0xbd175803	-0.03694917
41	0x3da7f64b	0.082012735
42	0x3d351f2b	0.044219177
43	0x3d6e81e0	0.058229327
44	0x3d798080	0.060913563
45	0xbd635e39	-0.05550978
46	0xbd3845c0	-0.044988394
47	0xbc336c23	-0.010951075
48	0x3d1d5be2	0.038417704
49	0x3d987bba	0.07445474
50	0x3d38cf97	0.045119848
51	0xbc63da81	-0.013907076
52	0xbcbd3605	-0.023097048
53	0x3d8de44e	0.06928311
54	0x3a3a5a62	0.0007108805
55	0x3ac27cc9	0.0014838214
56	0x3d46085c	0.048347816
57	0x3c932a2f	0.01796445
58	0xbd8c63c6	-0.06854968
59	0xbcc67a70	-0.024228305
60	0x3d7cf53a	0.061757304
61	0x3db61246	0.08890204
62	0xbd251e3d	-0.04031204
63	0xb9dd8761	-0.0004225327
64	0xbd7d6c42	-0.06187082
65	0xbd362c4e	-0.044475846
66	0xbd84896d	-0.064715244
67	0x3d99c94e	0.07509099
68	0x3c986595	0.018603126
69	0x3d791deb	0.060819548
70	0xbcb464f1	-0.022020789
71	0xbd835c65	-0.06414107
72	0xbdad810e	-0.08471881
73	0xbd07d87e	-0.033165447
74	0xbd9a1bf9	-0.075248666
75	0x3d97dffd	0.07415769
76	0x3d51e6e7	0.051245596
77	0x3d91e0d1	0.071229585
78	0xbc4bdff8	-0.012443535
79	0xbce7b7fa	-0.028285969
80	0xbd2e21d4	-0.04251273
81	0xbd70cdca	-0.058790006
82	0x3c8c3282	0.017113928
83	0x3d798838	0.060920924
84	0x3c120388	0.008911975
85	0x3da34c68	0.07973558
86	0x3d61d946	0.05513885
87	0xbc5c0548	-0.0134289935
88	0x3bd27e1c	0.006423725
89	0x3c59784b	0.013273309
90	0xbd8ad0d1	-0.0677811
91	0xbd6af288	-0.057360202
92	0xbc9a074a	-0.018802304
93	0x3d979723	0.07401874
94	0x3db0c9e4	0.086322576
95	0x3c522f75	0.012828697
96	0x3d6202fe	0.055178635
97	0xbd097c89	-0.03356603
98	0x3c97eb01	0.018544676
99	0xbdbf080f	-0.09327709
100	0x3d1af391	0.03782994
101	0x3d6a2a4c	0.057169244
102	0x3d9e5ced	0.07732568
103	0x3cc994e1	0.024607124
104	0x3dad46d3	0.08460774
105	0xbd0b5190	-0.03401333
106	0x3d28ef37	0.041243758
107	0xbd9ba958	-0.07600659
108	0xbdbf46cf	-0.093396775
109	0xbb95403a	-0.0045547755
110	0xbdb11cc1	-0.086480625
111	0x3d06064a	0.03272084
112	0xbd31a0cc	-0.04336624
113	0xbd9f1aaf	-0.07768761
114	0xbd7162c1	-0.05893207
115	0xbcf60910	-0.030033618
116	0x3c308884	0.010774735
117	0xbcb18fe8	-0.021675065
118	0x3d4985bb	0.0491998
119	0xbd4e17f7	-0.050315823
120	0x3d844bf3	0.06459799
121	0xbd947880	-0.07249546
122	0x392429a9	0.00015655778
123	0x3c9f3643	0.019435054
124	0xbda69cc3	-0.08135369
125	0x3d344cd6	0.04401859
126	0xbd13e5cb	-0.03610782
127	0x3db029a9	0.08601696
