hiddensize-128/model_epoch_0_140.pth (torch, 338995 bytes, 7 tensors)

embedding.0.weight f4 [128, 7]
0.00093191135 -0.36030158 -0.25887862 0.15539995 0.13460435 0.07126768 -0.24268375 -0.20966586
-0.06358635 -0.30453834 0.18916507 0.37783885 -0.014532014 -0.24687502 -0.19991925 -0.29117918
-0.29214802 -0.03600919 0.18751608 0.14344555 0.027582495 -0.26970538 -0.33506823 -0.10015465
-0.16142233 -0.17716761 0.07723403 0.108330205 -0.1303563 0.25822175 0.24596606 -0.21160534
0.052867576 -0.030180808 -0.3252015 -0.22800137 -0.26621094 0.23038317 0.056540065 0.22265764
0.25523496 0.36947393 0.3274922 0.18575765 0.3698287 0.06836754 -0.3182011 -0.0014932655
0.26538795 0.32995647 -0.33814213 0.018883668 -0.048522547 0.29957262 0.21682703 0.272138
-0.012782006 0.33133477 -0.14600769 0.024112586 -0.16332698 0.0092488695 0.2129911 -0.358127
-0.037370354 0.01603475 -0.30311936 -0.34742892 0.024071455 -0.251023 0.005535237 0.2119171
-0.34456262 -0.32406473 0.13793829 0.07182918 -0.02910053 0.10931253 -0.37007216 0.08083861
0.100713335 -0.07505156 0.26542684 0.34851176 -0.16607079 -0.11609312 0.3068357 0.034900423
-0.16909623 0.20763485 0.061959647 0.14138259 -0.29875952 0.34043875 -0.08050621 -0.32531285
-0.30296713 0.10734658 -0.06512178 0.059363797 0.27946877 0.1051542 0.045921233 0.21214038
0.040295705 0.23866163 -0.15892385 -0.20117283 -0.10462666 -0.22618859 -0.36886415 -0.35190505
-0.377643 -0.24359329 0.35673785 -0.20653689 -0.10250101 0.14774519 -0.10172594 0.23383929
-0.18580629 0.124765955 -0.22516727 -0.024249 -0.05143188 0.3222816 -0.02037143 0.22213626
-0.2228152 0.16947757 -0.3093478 0.11981862 -0.12159544 -0.08915174 -0.16021873 0.2022072
-0.08270455 -0.3315977 0.26136 -0.2625452 -0.048821785 -0.22505833 -0.37316152 -0.11582339
0.17849687 0.082735054 -0.06784191 -0.06911982 -0.12924542 -0.35342622 0.056102887 0.082376674
0.2833785 -0.1431916 0.29165834 -0.2784098 -0.33571652 -0.24836792 0.3187891 0.30517653
0.029918486 -0.05699026 -0.2614852 0.11321552 -0.12249794 0.1540118 0.23563845 0.3315165
0.25349727 0.052453823 -0.07243116 -0.37292564 -0.22131036 -0.25483176 -0.36145356 0.01416453
0.33165213 -0.32760015 -0.34675586 -0.018985886 -0.13856174 -0.028973 -0.24513568 0.32448804
0.31404907 -0.16571419 -0.12613362 0.37260568 0.24751958 0.081182845 -0.16421528 -0.32712084
-0.30133015 0.30786932 0.33493036 -0.20727082 -0.06264205 -0.3246419 0.060760353 -0.14140676
0.10565007 -0.31717512 0.37466344 -0.37377158 -0.20137693 -0.08042652 -0.10476751 0.356212
-0.1790006 -0.33639818 -0.23461846 0.33231992 0.035603434 -0.17155166 -0.32037038 0.2501093
0.20925269 0.124991424 -0.25878483 0.08671849 -0.31160578 -0.25862047 -0.043896932 0.063316576
0.3653998 0.36836877 -0.061416417 -0.029886993 -0.3671648 0.31583068 -0.1833329 0.24544936
0.18718828 -0.2936719 0.31612983 0.16964246 0.28135946 -0.061992764 0.20731105 -0.14048018
0.10063642 -0.21269156 -0.35196093 0.1723972 -0.14188212 0.07156303 -0.22976123 -0.25921875
-0.26956174 0.33707044 0.24621442 -0.3718093 0.17687762 -0.08068849 0.039592754 -0.20827033
00000000: 834b 743a 7379 b8be bd8b 84be 2a21 1f3e
00000010: b9d5 093e caf4 913d 1782 78be a6b2 56be
00000020: 8f39 82bd 73ec 9bbe 7db4 413e 1874 c13e
00000030: af17 6ebc cecc 7cbe a2b7 4cbe 7015 95be
00000040: 6d94 95be 5f7e 13bd 3704 403e 64e3 123e
00000050: aff4 e13c d316 8abe 108e abbe e21d cdbd
00000060: e54b 25be 6d6b 35be e02c 9e3d 3adc dd3d
00000070: 1f7c 05be a435 843e 87de 7b3e 12af 58be
00000080: ac8b 583d be3d f7bc d080 a6be 3179 69be
00000090: cd4c 88be 91e9 6b3e 8e96 673d 5d00 643e
000000a0: 28ae 823e b02b bd3e 0fad a73e 4137 3e3e
000000b0: 305a bd3e 4804 8c3d 41eb a2be adb9 c3ba
000000c0: eee0 873e 0ef0 a83e f720 adbe ecb1 9a3c
000000d0: 94bf 46bd 9561 993e e807 5e3e ac55 8b3e
000000e0: 9e6b 51bc b6a4 a93e 0a83 15be c287 c53c
000000f0: 303f 27be 9288 173c 571a 5a3e 6c5c b7be
00000100: a811 19bd 4f5b 833c 7632 9bbe 34e2 b1be
00000110: 8031 c53c 1686 80be ef60 b53b cc00 593e
00000120: 836a b0be d0eb a5be b23f 0d3e 2d1b 933d
00000130: 3c64 eebc 3fdf df3d 197a bdbe b78e a53d
00000140: cb42 ce3d a2b4 99bd 07e6 873e 2270 b23e
00000150: 760e 2abe 3bc2 edbd 9219 9d3e bff3 0e3d
00000160: 9027 2dbe 3b9e 543e 66c9 7d3d 99c6 103e
00000170: 02f7 98be fd4d ae3e 71e0 a4bd 688f a6be
00000180: 821e 9bbe 86d8 db3d 915e 85bd 7427 733d
00000190: 8816 8f3e 165b d73d e717 3c3d 543b 593e
000001a0: 1c0d 253d b763 743e efbc 22be 4000 4ebe
000001b0: 8146 d6bd fb9d 67be c3db bcbe e62c b4be
000001c0: 6c5a c1be 8570 79be 58a6 b63e 687e 53be
000001d0: 0dec d1bd 844a 173e b155 d0bd 9173 6f3e
000001e0: 0144 3ebe 4b85 ff3d 4092 66be d7a5 c6bc
000001f0: 3caa 52bd 1802 a53e fce1 a6bc b077 633e
00000200: ab29 64be 878b 2d3e d662 9ebe 7763 f53d
00000210: 0807 f9bd 3095 b6bd 6110 24be 670f 4f3e
00000220: 0161 a9bd 2cc7 a9be fad0 853e 536c 86be
00000230: 5af9 47bd b175 66be 070f bfbe d034 edbd
00000240: e2c7 363e ff70 a93d b3f0 8abd b18e 8dbd
00000250: e958 04be 48f4 b4be 24cc 653d 1ab5 a83d
00000260: fd16 913e d2a0 12be 3e54 953e bb8b 8ebe
00000270: 09e3 abbe 2954 7ebe 5338 a33e 1940 9c3e
00000280: 9d17 f53c 9e6e 69bd 63e1 85be 8add e73d
00000290: 33e0 fabd 45b5 1d3e 354b 713e 88bc a93e
000002a0: 65ca 813e d2d9 563d ca56 94bd 1cf0 bebe
000002b0: 2f9f 62be 4f79 82be 7110 b9be 5812 683c
000002c0: 4fce a93e 35bb a7be fc89 b1be 4a88 9bbc
000002d0: 21e3 0dbe c958 edbc d904 7bbe 4c23 a63e
000002e0: 0acb a03e fbb0 29be 2c29 01be 2cc6 be3e
000002f0: c675 7d3e 3143 a63d 0d28 28be 627c a7be
00000300: f247 9abe 0ca1 9d3e fe7b ab3e cd3e 54be
00000310: 7a4a 80bd 7737 a6be d9df 783d efcc 10be
00000320: 105f d83d c764 a2be e3d3 bf3e fd5e bfbe
00000330: c135 4ebe a9b6 a4bd 5990 d6bd 6b61 b63e
00000340: ef4b 37be 623c acbe d23f 70be d625 aa3e
00000350: e8d4 113d 3dab 2fbe 9607 a4be 530e 803e
00000360: 5646 563e 81fb ff3d 727f 84be 7799 b13d
00000370: cb8a 9fbe e769 84be 45cd 33bd 1fac 813d
00000380: af15 bb3e d59a bc3e c88f 7bbd 91d5 f4bc
00000390: 06fd bbbe 8fb4 a13e 9fbb 3bbe 1457 7b3e
000003a0: 49ae 3f3e 2a5c 96be c5db a13e c1b6 2d3e
000003b0: 590e 903e 20ec 7dbd 5949 543e 09da 0fbe
000003c0: 781a ce3d d1cb 59be 3934 b4be e488 303e
000003d0: 8c49 11be a38f 923d 8746 6bbe 52b8 84be
000003e0: ff03 8abe 7f94 ac3e a21f 7c3e ca5d bebe
000003f0: 681f 353e 0240 a5bd 032c 223d d144 55be

embedding.0.bias f4 [128]
-0.35678512 -0.2443044 -0.3575565 0.15068144 -0.14218621 0.2790102 0.13558425 0.06701881
-0.1969873 0.08356924 -0.27673218 0.09250924 -0.20438384 0.08168696 0.36210608 -0.33605832
-0.18500705 0.055078078 0.3520378 0.08943393 -0.15448192 0.14016435 -0.29846066 0.18164258
0.21193764 0.34341264 0.2833744 -0.049005028 -0.3124711 -0.022508116 -0.15885967 -0.058980126
0.028967422 -0.30839625 -0.34440777 -0.07925982 0.24103326 -0.31036258 -0.3433549 0.026448837
-0.023462543 -0.13079678 -0.2506635 0.042874917 0.19415653 -0.3024348 -0.040740922 -0.18417774
0.27795345 0.23251736 0.12661745 0.2433566 0.23530735 0.2984602 0.30567217 -0.06951994
0.29379869 -0.24439043 0.16052519 -0.2564556 0.32438895 -0.0426033 0.252569 0.32249478
0.28139007 -0.32131588 0.10789828 0.26518553 0.37719986 0.17634742 0.040755857 0.3185269
0.32197425 -0.25798973 0.11156814 0.26366428 -0.14057457 -0.20409891 0.25542027 0.2587989
0.100742914 -0.14434785 -0.31888857 -0.34300998 0.07712872 0.12077102 -0.28626147 -0.22604182
0.2711989 -0.1928724 0.3179995 0.3486308 -0.2306397 0.28627306 -0.029895011 0.06033805
-0.030055312 0.13050714 0.0950685 -0.0042644907 -0.07649853 0.2612321 0.10522602 -0.3021907
0.12689199 -0.069115326 -0.22438926 -0.16959624 0.28246143 0.2170752 0.120524704 0.06112016
0.19302224 -0.07390723 -0.12913646 0.28970787 -0.36606517 0.16495365 -0.10861581 -0.11066397
-0.37200278 0.18350998 0.26317498 0.09110993 -0.35538602 0.3408634 0.1779394 -0.29608613
00000000: 8aac b6be ef2a 7abe a511 b7be 3c4c 1a3e
00000010: 4399 11be 6dda 8e3e 99d6 0a3e 2841 893d
00000020: 0ab7 49be 5a26 ab3d d7af 8dbe 7c75 bd3d
00000030: ff49 51be 7e4b a73d f865 b93e d60f acbe
00000040: 7d72 3dbe 8d99 613d 4c3e b43e 2329 b73d
00000050: 8230 1ebe 3e87 0f3e d6cf 98be 8300 3a3e
00000060: 2e06 593e c8d3 af3e 7316 913e 7fb9 48bd
00000070: 36fc 9fbe f162 b8bc 1cac 22be 2595 71bd
00000080: 164d ed3c 1de6 9dbe 3756 b0be f952 a2bd
00000090: 6cd1 763e d8e7 9ebe 37cc afbe 3bab d83c
000000a0: 8534 c0bc 97ef 05be f756 80be 9c9d 2f3d
000000b0: f8d0 463e bcd8 9abe f4df 26bd 1799 3cbe
000000c0: ea4f 8e3e 0819 6e3e 01a8 013e 7932 793e
000000d0: 69f4 703e c6cf 983e 1081 9c3e 7860 8ebd
000000e0: c86c 963e 7c41 7abe b760 243e 264e 83be
000000f0: 4f16 a63e cc80 2ebd b950 813e 091e a53e
00000100: 5c12 903e 8483 a4be c6f9 dc3d 66c6 873e
00000110: 5720 c13e 6b94 343e 9def 263d f515 a33e
00000120: cfd9 a43e 3b17 84be d67d e43d 01ff 863e
00000130: c8f2 0fbe 4eff 50be 72c6 823e 4a81 843e
00000140: 4d52 ce3d eccf 13be 5d45 a3be 019f afbe
00000150: aaf5 9d3d cc56 f73d dd90 92be 8277 67be
00000160: 95da 8a3e 5880 45be d5d0 a23e bc7f b23e
00000170: d02c 6cbe 6292 923e 62e6 f4bc 0825 773d
00000180: 8f36 f6bc aaa3 053e 46b3 c23d 24bd 8bbb
00000190: 43ab 9cbd 37c0 853e bd80 d73d bdb8 9abe
000001a0: f9ef 013e 568c 8dbd 4cc6 65be a3aa 2dbe
000001b0: c99e 903e f648 5e3e a8d5 f63d 2259 7a3d
000001c0: 9fa7 453e ac5c 97bd 593c 04be 9754 943e
000001d0: e56c bbbe 9ce9 283e f771 debd cba3 e2bd
000001e0: 2677 bebe 0aea 3b3e dfbe 863e d897 ba3d
000001f0: 28f5 b5be a685 ae3e bf35 363e 9a98 97be

layernorm.weight f4 [259, 128]
1.0 1.0 0.9999972 0.99999505 0.99999946 0.999497 1.0000026 0.9999429
1.0000031 1.0 0.999999 1.0000025 1.0000138 0.9999952 0.9999935 1.0000026
1.0 0.99992514 1.0 1.0 1.0 1.0 1.0 0.9999999
0.9999935 1.0 1.000022 1.0 0.9996964 1.0 1.0000006 1.0
1.0 0.9999988 1.0 1.0 1.0000006 1.0 1.0 0.99999964
1.0000068 0.9999999 0.9999734 0.9998016 1.0 1.0 1.0000025 0.999995
0.9999992 0.9998791 0.99999946 1.0000128 1.0000083 1.0 1.0000019 1.0
0.99999964 0.999998 1.0 1.0000104 1.0 1.0 1.0 1.0
1.0000205 1.0000074 1.0 1.0000193 1.0 0.9999961 1.0000211 1.0001457
0.99999994 1.0000031 1.0005043 1.0000013 1.0 1.0 1.0 1.0
1.0000051 1.0000008 0.9999998 1.0 0.9999999 0.99998546 0.9999336 1.0
1.0000076 0.9999638 1.0000685 1.0 1.0 0.9999976 0.99999416 0.9999883
0.99998873 1.0000091 0.99997294 1.0002637 0.99983877 0.99974936 0.9999993 1.0
0.999796 1.0000082 0.9997196 1.0000012 1.0 0.9999888 1.0000063 1.0
1.0 1.000323 1.0 1.0000917 1.0000119 1.0 1.0 1.0
0.9999634 1.0 1.0 1.0 1.0000054 1.0 1.0 0.99966806
1.0 1.0 0.9999994 0.99999964 1.0 0.99983066 1.0000054 0.9999862
1.0000001 1.0 1.0 1.0000018 1.0000076 0.999999 0.9999907 1.0
1.0 0.99998546 1.0000011 1.0 1.0 1.0 1.0 1.0
0.9999991 1.0 1.0000145 1.0 0.9999189 1.0 1.0 1.0
1.0 0.9999988 1.0 1.0 1.0 1.0 1.0 1.0
1.0000008 1.0 0.9999904 0.9999648 1.0 1.0000014 1.0 0.99999
1.0 1.0000112 0.999998 1.0000035 1.0000036 1.0 1.0 1.0
1.0 0.9999998 1.0000026 1.0000035 1.0 0.9999995 1.0 1.0
1.0000046 1.0000039 1.0 1.0000029 1.0 0.9999994 1.0000072 0.9999967
1.0 1.0000001 1.0000585 1.0 1.0 1.0 1.0 1.0
1.0000012 1.0 1.0 1.0 1.0 0.9999912 0.9999922 1.0
1.0000021 0.99998057 1.0000128 1.0 1.0 0.99999917 0.999999 0.9999945
0.9999938 1.0000024 0.9999859 1.0000271 0.99999315 0.99996424 1.0 0.99999905
0.9999833 1.0000066 0.99991685 1.0000039 1.0000008 0.9999958 1.0000008 1.0
1.0 1.0000085 1.0000011 1.0000029 1.0000033 1.0 1.0 1.0
0.9999798 1.0 1.0 1.0 1.0000037 1.0 1.0 0.9999158
00000000: 0000 803f 0000 803f d1ff 7f3f adff 7f3f
00000010: f7ff 7f3f 09df 7f3f 1600 803f 42fc 7f3f
00000020: 1a00 803f 0000 803f efff 7f3f 1500 803f
00000030: 7400 803f afff 7f3f 93ff 7f3f 1600 803f
00000040: 0000 803f 18fb 7f3f 0000 803f 0000 803f
00000050: 0000 803f 0000 803f 0000 803f feff 7f3f
00000060: 93ff 7f3f 0000 803f b900 803f 0000 803f
00000070: 1aec 7f3f 0000 803f 0500 803f 0000 803f
00000080: 0000 803f ecff 7f3f 0000 803f 0000 803f
00000090: 0500 803f 0000 803f 0000 803f faff 7f3f
000000a0: 3900 803f feff 7f3f 42fe 7f3f fff2 7f3f
000000b0: 0000 803f 0000 803f 1500 803f acff 7f3f
000000c0: f3ff 7f3f 14f8 7f3f f7ff 7f3f 6b00 803f
000000d0: 4600 803f 0000 803f 1000 803f 0000 803f
000000e0: faff 7f3f deff 7f3f 0000 803f 5700 803f
000000f0: 0000 803f 0000 803f 0000 803f 0000 803f
00000100: ac00 803f 3e00 803f 0000 803f a200 803f
00000110: 0000 803f bfff 7f3f b100 803f c604 803f
00000120: ffff 7f3f 1a00 803f 8610 803f 0b00 803f
00000130: 0000 803f 0000 803f 0000 803f 0000 803f
00000140: 2b00 803f 0700 803f fdff 7f3f 0000 803f
00000150: feff 7f3f 0cff 7f3f a6fb 7f3f 0000 803f
00000160: 4000 803f a1fd 7f3f 3f02 803f 0000 803f
00000170: 0000 803f d8ff 7f3f 9eff 7f3f 3cff 7f3f
00000180: 43ff 7f3f 4c00 803f 3afe 7f3f a408 803f
00000190: 6ff5 7f3f 93ef 7f3f f4ff 7f3f 0000 803f
000001a0: a1f2 7f3f 4500 803f a0ed 7f3f 0a00 803f
000001b0: 0000 803f 44ff 7f3f 3500 803f 0000 803f
000001c0: 0000 803f 960a 803f 0000 803f 0103 803f
000001d0: 6400 803f 0000 803f 0000 803f 0000 803f
000001e0: 9afd 7f3f 0000 803f 0000 803f 0000 803f
000001f0: 2d00 803f 0000 803f 0000 803f 3fea 7f3f
00000200: 0000 803f 0000 803f f6ff 7f3f faff 7f3f
00000210: 0000 803f e7f4 7f3f 2d00 803f 18ff 7f3f
00000220: 0100 803f 0000 803f 0000 803f 0f00 803f
00000230: 4000 803f efff 7f3f 64ff 7f3f 0000 803f
00000240: 0000 803f 0cff 7f3f 0900 803f 0000 803f
00000250: 0000 803f 0000 803f 0000 803f 0000 803f
00000260: f1ff 7f3f 0000 803f 7a00 803f 0000 803f
00000270: affa 7f3f 0000 803f 0000 803f 0000 803f
00000280: 0000 803f ecff 7f3f 0000 803f 0000 803f
00000290: 0000 803f 0000 803f 0000 803f 0000 803f
000002a0: 0700 803f 0000 803f 5fff 7f3f b1fd 7f3f
000002b0: 0000 803f 0c00 803f 0000 803f 58ff 7f3f
000002c0: 0000 803f 5e00 803f deff 7f3f 1d00 803f
000002d0: 1e00 803f 0000 803f 0000 803f 0000 803f
000002e0: 0000 803f fdff 7f3f 1600 803f 1d00 803f
000002f0: 0000 803f f8ff 7f3f 0000 803f 0000 803f
00000300: 2700 803f 2100 803f 0000 803f 1800 803f
00000310: 0000 803f f6ff 7f3f 3c00 803f c9ff 7f3f
00000320: 0000 803f 0100 803f eb01 803f 0000 803f
00000330: 0000 803f 0000 803f 0000 803f 0000 803f
00000340: 0a00 803f 0000 803f 0000 803f 0000 803f
00000350: 0000 803f 6cff 7f3f 7dff 7f3f 0000 803f
00000360: 1200 803f bafe 7f3f 6b00 803f 0000 803f
00000370: 0000 803f f2ff 7f3f efff 7f3f a4ff 7f3f
00000380: 98ff 7f3f 1400 803f 13ff 7f3f e300 803f
00000390: 8dff 7f3f a8fd 7f3f 0000 803f f0ff 7f3f
000003a0: e8fe 7f3f 3700 803f 8dfa 7f3f 2100 803f
000003b0: 0700 803f baff 7f3f 0700 803f 0000 803f
000003c0: 0000 803f 4700 803f 0900 803f 1800 803f
000003d0: 1c00 803f 0000 803f 0000 803f 0000 803f
000003e0: adfe 7f3f 0000 803f 0000 803f 0000 803f
000003f0: 1f00 803f 0000 803f 0000 803f 7bfa 7f3f

layernorm.bias f4 [259, 128]
-1.6016936e-07 5.824205e-06 -2.849576e-06 -1.047538e-05 1.5743639e-07 -1.1329e-05 5.7823695e-06 -2.18007e-06
-3.4454672e-06 -1.4190968e-05 -3.7412337e-06 3.5667163e-06 8.043376e-06 -2.9233104e-06 -8.493463e-06 9.181407e-06
4.0046502e-06 -3.6987701e-06 1.1393191e-05 -3.1512843e-06 8.722967e-06 4.190372e-06 1.2328036e-05 3.0155817e-07
-8.847131e-06 -1.1596461e-05 5.363313e-06 -4.750505e-06 -8.481693e-06 7.3808274e-06 6.0900616e-06 2.9396665e-06
-5.299881e-06 -3.7008413e-06 -5.2570876e-08 1.5610343e-05 3.0866029e-06 -1.8354401e-06 -5.00877e-06 -4.919755e-06
8.66856e-06 -1.5735533e-05 -8.695837e-06 -7.962636e-06 -7.849099e-06 9.599737e-06 7.578185e-06 1.7255677e-06
-3.1308632e-06 -1.2613362e-05 -7.883706e-06 3.4256761e-06 2.664712e-06 -1.0760504e-05 2.075679e-06 1.8588908e-06
-8.962824e-06 -8.940205e-07 1.3115607e-05 4.13798e-06 -1.0961684e-05 -1.0636151e-05 3.8728085e-06 6.5135555e-06
9.271372e-06 8.075879e-06 8.620062e-06 -8.487745e-06 -3.8771445e-06 -1.2472515e-05 3.6944539e-06 9.430074e-06
1.6655098e-05 5.3022063e-06 1.6069205e-05 -1.0853244e-05 -9.06559e-06 -1.2692941e-05 9.2610605e-08 2.8742743e-06
7.828419e-06 8.073766e-06 -2.9936298e-06 -6.875169e-06 2.0386365e-06 -1.17132495e-05 -8.159367e-06 5.3725676e-06
2.9122893e-06 -1.4710957e-06 9.2165365e-06 7.024377e-06 2.6903292e-06 -1.0497783e-05 -1.620627e-05 -5.7835837e-06
-6.8373315e-06 3.2928672e-06 -1.8957852e-06 1.6287879e-05 -4.653086e-06 -8.058681e-06 -1.3068346e-05 -4.8201573e-06
-1.1680734e-05 4.8221723e-06 -4.2450174e-06 9.876484e-06 1.5701797e-05 -5.8723504e-07 1.0963286e-05 -1.7350485e-06
1.1339436e-05 1.4885099e-05 6.1002443e-06 9.213074e-06 2.238292e-06 4.9955806e-06 -5.8112364e-06 9.184933e-06
-1.1950098e-05 1.3546377e-05 4.7171875e-06 -2.0996229e-06 1.47870105e-05 -6.2046884e-06 5.8730843e-06 -1.1791696e-05
1.1445826e-06 5.294171e-06 -5.15713e-06 -8.336121e-06 -2.6588563e-07 -9.1892825e-06 5.5137175e-06 -3.5728096e-06
-3.716788e-06 -1.6477781e-05 -1.2914643e-06 2.213691e-06 1.0003349e-05 -8.1650505e-06 -8.960875e-06 1.15231105e-05
5.3565573e-06 -6.7197793e-06 1.0699501e-05 -7.4184873e-06 9.56073e-06 2.980035e-06 1.2032806e-05 4.08623e-06
-9.418372e-06 -8.184651e-06 3.721466e-06 -2.7559784e-06 -1.2656228e-05 6.6901894e-06 4.054535e-06 2.4366182e-06
-7.631477e-06 -3.3582032e-06 -2.5093746e-06 1.21534695e-05 3.883831e-06 -3.1209186e-06 -3.927884e-06 -3.5662817e-06
5.807154e-06 -1.4277958e-05 -8.74765e-06 -1.0056018e-05 -5.1432085e-06 1.2856923e-05 8.0004365e-06 -3.3650738e-06
-4.118457e-06 -1.3389063e-05 -8.492453e-06 4.167011e-06 1.3221096e-06 -9.600623e-06 2.329363e-06 2.0337582e-06
-8.1108055e-06 -2.02012e-06 1.2696416e-05 2.7806368e-06 -7.1866607e-06 -1.11139725e-05 6.0554153e-06 6.4045507e-06
7.584108e-06 5.368235e-06 9.503629e-06 -8.906257e-06 1.1931452e-06 -1.1707479e-05 4.09536e-06 1.1555329e-05
1.7233284e-05 4.581893e-06 1.3629633e-05 -1.248749e-05 -1.2775238e-05 -1.4106251e-05 -1.7277226e-06 6.209846e-06
3.7101097e-06 9.528684e-06 -5.5143355e-06 -8.372605e-06 3.0638423e-06 -1.2423304e-05 -4.383638e-06 6.8805484e-06
3.569586e-06 -1.5274454e-06 1.0694599e-05 4.369923e-06 5.3089175e-06 -1.224885e-05 -1.4612303e-05 -7.852312e-06
-7.916848e-06 5.775841e-06 -3.1085356e-06 1.5389272e-05 -2.9268788e-06 -5.8798473e-06 -1.3629065e-05 -6.423051e-06
-1.0531291e-05 6.5310383e-06 -5.406587e-06 1.3616317e-05 1.3745753e-05 1.3625048e-07 1.2987549e-05 -2.8134093e-06
1.3310192e-05 1.4071122e-05 7.059814e-06 5.886797e-06 6.032858e-06 4.854622e-06 -6.099847e-06 1.0458927e-05
-1.11957725e-05 1.7642975e-05 3.663083e-06 -4.7971275e-06 1.8019917e-05 -6.865533e-06 8.514617e-06 -1.2110972e-05
00000000: 05fb 2bb4 8a6d c336 583b 3fb6 6abf 2fb7
00000010: c90b 2934 af11 3eb7 2d06 c236 514d 12b6
00000020: ad38 67b6 be15 6eb7 e811 7bb6 b85b 6f36
00000030: 09f2 0637 172e 44b6 257f 0eb7 d809 1a37
00000040: af5f 8636 6338 78b6 6225 3f37 a77a 53b6
00000050: dc58 1237 059b 8c36 83d4 4e37 d7e5 a134
00000060: 236e 14b7 6c8e 42b7 82f6 b336 8766 9fb6
00000070: 984c 0eb7 d3a8 f736 3b59 cc36 1647 4536
00000080: a2d5 b1b6 f85b 78b6 4aca 61b3 f5f2 8237
00000090: 6f23 4f36 3e59 f6b5 0211 a8b6 6014 a5b6
000000a0: 2f6f 1137 cdff 83b7 56e4 11b7 4397 05b7
000000b0: a0af 03b7 8e0e 2137 1d48 fe36 0e9a e735
000000c0: d21b 52b6 fa9d 53b7 4244 04b7 abe4 6536
000000d0: 67d3 3236 0388 34b7 e54b 0b36 007f f935
000000e0: 095f 16b7 9ffc 6fb5 1a0b 5c37 fad8 8a36
000000f0: 13e8 37b7 ec71 32b7 2cf3 8136 048f da36
00000100: 3d8c 1b37 a37d 0737 e29e 1037 9666 0eb7
00000110: 6b18 82b6 0b41 51b7 3cee 7736 dc35 1e37
00000120: 8db6 8b37 9be9 b136 5bcc 8637 5416 36b7
00000130: 6a18 18b7 c4f3 54b7 38e1 c633 a8e3 4036
00000140: ce56 0337 9074 0737 2be6 48b6 41b1 e6b6
00000150: 82cf 0836 0684 44b7 37e4 08b7 0146 b436
00000160: c070 4336 7772 c5b5 b9a0 1a37 f0b2 eb36
00000170: 818b 3436 a21f 30b7 b3f2 87b7 9b10 c2b6
00000180: 3b6c e5b6 07fb 5c36 af72 feb5 f4a1 8837
00000190: b421 9cb6 c533 07b7 1e40 5bb7 d6bc a1b6
000001a0: 5ff8 43b7 25ce a136 6c70 8eb6 2db3 2537
000001b0: 5ab7 8337 7ca2 1db5 f4ee 3737 d0df e8b5
000001c0: 823e 3e37 03bb 7937 b3b0 cc36 da91 1a37
000001d0: 9035 1636 b69f a736 24fe c2b6 fd18 1a37
000001e0: 487d 48b7 3f45 6337 5548 9e36 3fe7 0cb6
000001f0: ba15 7837 de31 d0b6 6911 c536 f3d4 45b7
00000200: 8f9f 9935 95a4 b136 690b adb6 5edb 0bb7
00000210: 0bbf 8eb4 ab2b 1ab7 7902 b936 67c4 6fb6
00000220: ee6d 79b6 c439 8ab7 6056 adb5 ec8e 1436
00000230: 0fd4 2737 a0fc 08b7 aa56 16b7 6253 4137
00000240: 7abc b336 777a e1b6 0282 3337 52ec f8b6
00000250: 0667 2037 9dfc 4736 82e0 4937 731c 8936
00000260: 9a03 1eb7 cf50 09b7 4dbe 7936 59f3 38b6
00000270: 1656 54b7 4a7c e036 310c 8836 c884 2336
00000280: f208 00b7 7e5d 61b6 ba66 28b6 c1e6 4b37
00000290: db51 8236 f970 51b6 44cc 83b6 4154 6fb6
000002a0: 13db c236 5d8b 6fb7 dfc2 12b7 45b6 28b7
000002b0: d393 acb6 10b4 5737 9d39 0637 87d3 61b6
000002c0: 4731 8ab6 96a1 60b7 cf7a 0eb7 5ad2 8b36
000002d0: 5773 b135 5d12 21b7 2752 1c36 b37b 0836
000002e0: a513 08b7 6691 07b6 b102 5537 fa9a 3a36
000002f0: f224 f1b6 2676 3ab7 9f2f cb36 ace6 d636
00000300: fe7a fe36 ca20 b436 c771 1f37 156c 15b7
00000310: 2824 a035 3d6b 44b7 e06a 8936 c3dd 4137
00000320: 3290 9037 29be 9936 d4aa 6437 5c81 51b7
00000330: 3b55 56b7 e3a9 6cb7 19e4 e7b5 2c5e d036
00000340: 33fb 7836 63dd 1f37 c807 b9b6 1178 0cb7
00000350: 699c 4d36 af6d 50b7 2a17 93b6 76df e636
00000360: 058d 6f36 a002 cdb5 f46c 3337 5aa1 9236
00000370: 4123 b236 6980 4db7 5d27 75b7 6cbd 03b7
00000380: 9ad2 04b7 19ce c136 3c9c 50b6 3618 8137
00000390: 656b 44b6 814b c5b6 63a8 64b7 9785 d7b6
000003a0: 8daf 30b7 3125 db36 3b6a b5b6 a371 6437
000003b0: 8f9d 6637 3f4c 1234 19e5 5937 01ce 3cb6
000003c0: d74e 5f37 0213 6c37 57e3 ec36 3487 c536
000003d0: db6d ca36 e3e4 a236 49ad ccb6 c078 2f37
000003e0: 7ad5 3bb7 0000 9437 49d3 7536 03f7 a0b6
000003f0: 7a29 9737 7b5e e6b6 00da 0e37 3b30 4bb7

fc.0.weight f4 [128, 128]
-0.06249405 -0.019250216 0.08326972 -0.0380604 0.010260898 -0.07659516 -0.0025694955 0.056906376
-0.032458536 -0.012542042 0.05160619 -0.062034037 -0.06417337 0.04751928 -0.065890156 -0.010565769
0.08699972 0.08398985 -0.05751157 0.08558332 0.025144847 -0.022879109 -0.05503703 -0.025498692
-0.008455143 0.03279171 -0.022017855 -0.034447696 -0.004939051 -0.012007528 0.0018876697 -0.017822895
-0.040168982 0.071986414 -0.03118212 -0.03309634 -0.060107466 0.07173358 0.03510065 0.010019477
0.064371906 -0.0073767873 -0.053373985 0.07831627 -0.026923595 0.0021887636 0.017214907 -0.08693526
0.04101543 0.04368077 0.04586261 0.0381083 0.020888643 0.017652784 0.05123699 0.0666231
-0.018808719 -0.06559758 0.08140444 -0.010943356 0.03565568 -0.07582712 0.002028745 0.010307421
-0.07316469 -0.06708261 -0.048338883 -0.06385493 -0.047766544 -0.07968646 0.012250157 -0.06834641
-0.004007649 0.055565182 0.026250346 0.041550346 -0.007844409 0.01597774 -0.07178016 -0.08230957
0.007111015 0.07169977 -0.030549364 -0.030727226 0.016621668 -0.071270205 -0.0652971 0.014987835
0.007606587 -0.0037809806 -0.064287774 -0.06180409 0.058448702 0.024352146 0.04140579 0.004717809
-0.050609976 0.07980002 -0.05875392 0.034186948 0.019161541 0.08486317 -0.0040893154 0.07541336
-0.017185781 0.041404977 0.07847397 0.045852784 -0.05489226 -0.08101152 0.07695086 0.06048178
0.009377393 0.040967006 -0.0726657 -0.03488497 -0.014275759 -0.039828733 0.021398742 0.053938292
0.08827424 -0.008771213 -0.007060553 0.074502185 0.022318538 0.06927901 -0.015888194 0.05821773
-0.020441508 0.0035727406 0.08010873 0.066158816 -0.032679558 0.061061032 0.003783251 -0.07527049
-0.043419026 0.049359992 0.00034287263 0.031117577 -0.043982357 -0.04318097 0.06108677 0.07137479
-0.063470304 0.0036416303 0.08253378 -0.06863779 0.083021455 0.0053387815 0.077789254 -0.0813409
0.07309732 -0.0130680725 -0.007554422 -0.02198896 0.0661412 -0.03920709 0.04491892 -0.05114091
0.07780559 0.049883574 -0.007463238 0.027871039 -0.07277763 0.04009636 0.04524421 -0.038114276
-0.026846135 0.022227144 0.014365427 0.038032573 0.013554639 -0.086389475 0.002131765 -0.060046438
0.014340702 0.068235375 0.04283876 -0.0660132 -0.0015684073 0.07587014 -0.053679485 0.08454026
0.036931224 0.052719425 0.077368975 -0.070869744 -0.036330488 -0.020326303 0.01595253 -0.05056869
0.019124944 -0.064638555 0.013059553 0.07421147 0.08578464 -0.005510876 -0.017875675 0.0120855225
0.078669 0.02510142 -0.023641268 0.0640902 0.010478477 -0.027198277 -0.017283022 0.04726823
0.030131329 0.049033985 0.08441158 -0.012018531 0.058074545 -0.05810117 -0.027929971 0.047928922
-0.021194378 -0.012630343 0.049576353 -0.046124212 0.083660215 0.013486842 0.053313933 -0.0005487123
0.032038584 -0.06329758 0.031675696 -0.034824394 -0.066267975 -0.088487886 -0.03631895 0.04570757
0.05604502 0.039749276 -0.018492728 -0.058374934 0.023364564 -0.010117718 0.017711695 -0.052757196
-0.07600287 -0.087182395 0.002669685 0.030710118 -0.021064123 -0.0063149794 0.006379018 -0.07591578
-0.031074196 0.053477623 -0.02002849 0.0138236685 0.039917808 -0.0010383697 0.07231025 -0.036382265
00000000: c3f9 7fbd a1b2 9dbc 5189 aa3d 39e5 1bbd
00000010: 531d 283c ecdd 9cbd fb64 28bb a916 693d
00000020: 3ef3 04bd 237d 4dbc 0361 533d 6717 7ebd
00000030: 546d 83bd 94a3 423d 6bf1 86bd 0c1c 2dbc
00000040: e92c b23d df02 ac3d 4191 6bbd 4f46 af3d
00000050: 91fc cd3c f86c bbbc 826e 61bd a2e2 d0bc
00000060: 7187 0abc 9a50 063d ca5e b4bc 0719 0dbd
00000070: c3d7 a1bb 39bb 44bc af6b f73a 5201 92bc
00000080: 3b88 24bd 9d6d 933d a571 ffbc 0790 07bd
00000090: 3f33 76bd 0ee9 923d b3c5 0f3d bc28 243c
000000a0: 6bd5 833d fab8 f1bb ae9e 5abd 4864 a03d
000000b0: df8e dcbc 5c71 0f3b 4706 8d3c 1d0b b2bd
000000c0: ccff 273d 9bea 323d 6fda 3b3d 7317 1c3d
000000d0: a91e ab3c 929c 903c e1dd 513d b171 883d
000000e0: be14 9abc 0658 86bd 5fb7 a63d c34b 33bc
000000f0: b10b 123d 404b 9bbd b1f4 043b 75e0 283c
00000100: 5ed7 95bd 9c62 89bd fefe 45bd 60c6 82bd
00000110: daa6 43bd a832 a3bd e2b4 483c 34f9 8bbd
00000120: 9952 83bb 5198 633d f70a d73c b230 2a3d
00000130: d685 00bc c0e3 823c 7a01 93bd eb91 a8bd
00000140: 8403 e93b 54d7 923d a942 fabc aab7 fbbc
00000150: 2a2a 883c 1df6 91bd 7cba 85bd 898f 753c
00000160: ad40 f93b 54ca 77bb 4fa9 83bd 4926 7dbd
00000170: e867 6f3d 277e c73c 1e99 293d da97 9a3b
00000180: 684c 4fbd 316e a33d f3a7 70bd 9d07 0c3d
00000190: aaf8 9c3c becc ad3d aaff 85bb 5272 9a3d
000001a0: 32c9 8cbc 4498 293d f6b6 a03d 21d0 3b3d
000001b0: b5d6 60bd 5ee9 a5bd 6a98 9d3d bebb 773d
000001c0: a3a3 193c 05cd 273d c1d1 94bd 8be3 0ebd
000001d0: e0e4 69bc 7423 23bd 6a4c af3c 66ee 5c3d
000001e0: 20c9 b43d 22b5 0fbc 365c e7bb 9a94 983d
000001f0: 5ed5 b63c 27e2 8d3d f527 82bc b775 6e3d
00000200: f374 a7bc a424 6a3b 0c10 a43d 467e 873d
00000210: 00db 05bd 221b 7a3d 6bf0 773b 6a27 9abd
00000220: 26d8 31bd b42d 4a3d 96c3 b339 4aea fe3c
00000230: d826 34bd 87de 30bd 1f36 7a3d f22c 923d
00000240: b8fc 81bd 6ba8 6e3b 7807 a93d f891 8cbd
00000250: 2707 aa3d f2f0 ae3b f94f 9f3d 0f96 a6bd
00000260: 0cb4 953d 781b 56bc 168b f7bb 3122 b4bc
00000270: 0a75 873d 9d97 20bd e7fc 373d 2179 51bd
00000280: 8a58 9f3d b852 4c3d 2e8e f4bb ce51 e43c
00000290: 700c 95bd 153c 243d fe51 393d b71d 1cbd
000002a0: 6dec dbbc b315 b63c f85c 6b3c 0bc8 1b3d
000002b0: 4714 5e3c f7ec b0bd 15b5 0b3b 41f3 75bd
000002c0: 44f5 6a3c fdbe 8b3d b277 2f3d ee31 87bd
000002d0: 0493 cdba ce61 9b3d 05df 5bbd 7223 ad3d
000002e0: 3245 173d 53f0 573d a073 9e3d 2824 91bd
000002f0: 47cf 14bd 5983 a6bc e1ae 823c 1d21 4fbd
00000300: eaab 9c3c 3861 84bd bcf7 553c 2ffc 973d
00000310: dbaf af3d 9494 b4bb 0270 92bc 5b02 463c
00000320: 361d a13d 7ea1 cd3c 55ab c1bc b941 833d
00000330: ebad 2b3c ecce debc 2095 8dbc 559c 413d
00000340: fad5 f63c dcd7 483d fadf ac3d 5fe9 44bc
00000350: 93df 6d3d 7efb 6dbd 65cd e4bc 1e51 443d
00000360: d59f adbc 80ef 4ebc 9310 4b3d beec 3cbd
00000370: 0c56 ab3d eaf7 5c3c b65f 5a3d 76d7 0fba
00000380: e43a 033d 29a2 81bd 60be 013d 06a4 0ebd
00000390: 81b7 87bd 2339 b5bd 2ec3 14bd dc37 3b3d
000003a0: 778f 653d 23d0 223d 107e 97bc 8e1a 6fbd
000003b0: 0b67 bf3c c9c4 25bc 1e18 913c ee17 58bd
000003c0: 65a7 9bbd af8c b2bd e2f5 2e3b c993 fb3c
000003d0: ab8e acbc e3ed cebb 1507 d13b bc79 9bbd
000003e0: 508f febc 5a0b 5b3d ca12 a4bc ab7c 623c
000003f0: db80 233d e819 88ba 6517 943d 9205 15bd

fc.0.bias f4 [128]
0.06588085 0.07777143 -0.044483636 -0.031465232 0.036576297 0.032651052 -0.060029276 0.039649248
0.02959545 -0.07881355 -0.056619264 -0.08764461 0.066605434 -0.03816199 -0.07890178 -0.04950742
-0.029521119 -0.014359677 0.07186894 -0.023778267 -0.067722514 0.011923674 0.054717176 -0.067480996
0.062306028 -0.063757375 0.00095915905 0.060784537 0.038914658 0.073393114 -0.023996608 -0.053110935
0.034584425 0.061136156 0.08653768 0.007854205 0.0043372232 -0.05272235 0.053893447 -0.027284186
0.049516995 -0.08199104 0.0635787 0.0018259543 0.043182626 -0.017547214 0.0126173105 0.069043055
0.042550534 -0.05705762 0.06225283 -0.038764447 -0.051957235 0.07611709 -0.051005643 0.03430871
-0.017963389 0.029238533 0.061841313 -0.071297996 -0.044159796 0.059051078 -0.025834663 0.0005090762
-0.084054224 0.027725503 -0.036140397 0.051280253 0.081650846 0.07014638 0.086509354 0.05463559
0.08839165 -0.021132994 0.00039873662 0.049970124 -0.08682569 -0.0642155 0.0808888 -0.0658989
-0.021047046 -0.056957897 -0.076256946 -0.03069935 0.07653981 0.04803326 -0.031142639 -0.066000156
-0.033937298 -0.025633462 0.071394555 0.0038161573 -0.0835365 0.045861956 5.171147e-05 0.07979448
0.001153301 -0.07935326 -0.07650461 0.058333233 -0.08178816 -0.020937238 -0.002177625 -0.010394309
0.015320608 -0.045087352 -0.04441709 0.010135396 -0.06550368 -0.07422284 -0.08783268 0.05126554
0.045621075 -0.049134966 -0.07127419 -0.029830761 -0.0475613 -0.03756218 -0.050676987 0.016563468
0.08502147 0.008905684 -0.037503492 -0.0746159 -0.055607963 -0.014325426 0.0751791 -0.0019526221
00000000: 8aec 863d a146 9f3d 7934 36bd b0e1 00bd
00000010: 07d1 153d 1cbd 053d 42e1 75bd 4067 223d
00000020: 2872 f23c 0069 a1bd 9ae9 67bd 047f b3bd
00000030: 6e68 883d bf4f 1cbd 4297 a1bd 4bc8 4abd
00000040: 46d6 f1bc da44 6bbc 0630 933d a4ca c2bc
00000050: 1ab2 8abd 835b 433c 1e1f 603d 7a33 8abd
00000060: 9b34 7f3d 3a93 82bd 1370 7b3a 35f9 783d
00000070: fa64 1f3d 214f 963d 8994 c4bc da8a 59bd
00000080: 66a8 0d3d e869 7a3d ab3a b13d ecae 003c
00000090: 441f 8e3b 64f3 57bd 60bf 5c3d 1683 dfbc
000000a0: 55d2 4a3d ebea a7bd 8d35 823d dc54 ef3a
000000b0: 44e0 303d 2dbf 8fbc d6b8 4e3c 7266 8d3d
000000c0: 7849 2e3d 40b5 69bd d3fc 7e3d 78c7 1ebd
000000d0: 1cd1 54bd 47e3 9b3d 4beb 50bd 4a87 0c3d
000000e0: f527 93bc a685 ef3c 514d 7d3d af04 92bd
000000f0: e7e0 34bd 8bdf 713d 37a3 d3bc 8773 053a
00000100: 9f24 acbd 9820 e33c f407 14bd 3e0b 523d
00000110: 8f38 a73d e8a8 8f3d d12b b13d 92c9 5f3d
00000120: ae06 b53d 1a1f adbc 860d d139 79ad 4c3d
00000130: abd1 b1bd 6b83 83bd 07a9 a53d 01f6 86bd
00000140: db6a acbc af4c 69bd 9a2c 9cbd 347d fbbc
00000150: e7c0 9c3d 86be 443d d91e ffbc 172b 87bd
00000160: d601 0bbd 44fd d1bc 4f37 923d 7f18 7a3b
00000170: 2f15 abbd bfd9 3b3d c5e4 5838 4a6b a33d
00000180: 5c2a 973a f683 a2bd 73ae 9cbd d4ee 6e3d
00000190: 8d80 a7bd 9284 abbc 7cb6 0ebb e44c 2abc
000001a0: 4a03 7b3c 84ad 38bd b2ee 35bd ef0e 263c
000001b0: cb26 86bd 2502 98bd 9fe1 b3bd d1fb 513d
000001c0: 2add 3a3d bf41 49bd 34f8 91bd a45f f4bc
000001d0: a3cf 42bd cdda 19bd ac92 4fbd 1cb0 873c
000001e0: bd1f ae3d 25e9 113c 439d 19bd 39d0 98bd
000001f0: 2dc5 63bd 31b5 6abc 80f7 993d 20ef ffba

output_layer.0.weight f4 [1, 128]
0.005243772 -0.019792544 0.014810916 0.054589104 0.030698465 0.061245907 -0.03165683 0.028346669
0.02898731 0.08303728 0.02862662 -0.022880962 -0.06769323 0.045309145 0.04771916 -0.052279387
-0.0365226 0.029985957 -0.06667177 0.028514812 -0.021891212 -0.022407304 -0.06027186 0.006577393
0.06088707 0.061707955 -0.01472597 0.021606881 0.04975371 -0.049344394 0.009007934 -0.019944288
0.04893155 0.032766957 0.016189285 -0.08071888 -0.027157411 0.016864458 0.045126583 0.046020713
-0.037560474 0.08216674 0.04561832 0.05925541 0.060442816 -0.056177545 -0.045612313 -0.011094376
0.038335666 0.073796034 0.04712586 -0.013399301 -0.023350073 0.06890786 0.00012196415 0.00067808933
0.048111893 0.017128417 -0.069403484 -0.023022579 0.061475724 0.08796178 -0.040466607 0.0007427707
-0.06273217 -0.04463765 -0.065203495 0.07486339 0.017727597 0.061041404 -0.02159394 -0.06508057
-0.08520911 -0.034328204 -0.07439595 0.07392007 0.05093032 0.07091144 -0.01277413 -0.02642181
-0.04312127 -0.0579795 0.016817221 0.06280968 0.0088773705 0.079314254 0.054939765 -0.012542336
0.008148501 0.01335382 -0.0679104 -0.056738753 -0.018983295 0.073276296 0.08627535 0.012592958
0.054823864 -0.034709137 0.019221425 -0.09403248 0.037677333 0.056741145 0.07711735 0.024231752
0.08482138 -0.033647683 0.0407942 -0.07697486 -0.092559166 -0.0033555012 -0.08710005 0.03252746
-0.04324659 -0.077616915 -0.058785684 -0.029288951 0.011760977 -0.022266442 0.0493196 -0.05008737
0.06390727 -0.07135188 0.00026257345 0.019141233 -0.07886236 0.043679193 -0.03486151 0.0860945
00000000: f3d3 ab3b f923 a2bc 7ca9 723c d398 5f3d
00000010: 597b fb3c fddc 7a3d 98aa 01bd 4637 e83c
00000020: cc76 ed3c 730f aa3d 6082 ea3c db70 bbbc
00000030: c0a2 8abd 1596 393d 2a75 433d e922 56bd
00000040: b998 15bd 1ca5 f53c 358b 88bd e597 e93c
00000050: 3355 b3bc 868f b7bc a0df 76bd 2c87 d73b
00000060: b864 793d 7bc1 7c3d 3245 71bc ea00 b13c
00000070: 8cca 4b3d 591d 4abd 0396 133c 3462 a3bc
00000080: 736c 483d a536 063d 649f 843c f14f a5bd
00000090: 3879 debc 5527 8a3c a7d6 383d 3780 3c3d
000000a0: 03d9 19bd 0947 a83d 47da 3a3d cdb5 723d
000000b0: e392 773d 6d1a 66bd fad3 3abd 30c5 35bc
000000c0: dc05 1d3d 6022 973d 0c07 413d be88 5bbc
000000d0: a748 bfbc 901f 8d3d 01c7 ff38 cec1 313a
000000e0: fa10 453d e550 8c3c 6a23 8ebd d999 bcbc
000000f0: f8cd 7b3d 4e25 b43d 50c0 25bd 7fb6 423a
00000100: b979 80bd f8d5 36bd 6989 85bd fa51 993d
00000110: 7739 913c 8d06 7a3d c6e5 b0bc f648 85bd
00000120: 1d82 aebd bb9b 0cbd e75c 98bd 6863 973d
00000130: 509c 503d 043a 913d 964a 51bc 8d72 d8bc
00000140: ee9f 30bd ea7b 6dbd 45c4 893c 5da2 803d
00000150: 6472 113c 836f a23d 8508 613d 5f7e 4dbc
00000160: 4a81 053c fbc9 5a3c 9c14 8bbd e566 68bd
00000170: db82 9bbc e211 963d 21b1 b03d b252 4e3c
00000180: fd8e 603d 2b2b 0ebd 4076 9d3c 1a94 c0bd
00000190: 8c53 1a3d 6769 683d b4ef 9d3d ab81 c63c
000001a0: d5b6 ad3d 27d2 09bd d217 273d ffa4 9dbd
000001b0: a98f bdbd f8e7 5bbb 8361 b2bd 843b 053d
000001c0: 5623 31bd 9ef5 9ebd 42c9 70bd 62ef efbc
000001d0: 1db1 403c 1d68 b6bc 5903 4a3d 6a28 4dbd
000001e0: d1e1 823d ef20 92bd 03aa 8939 13ce 9c3c
000001f0: 9782 a1bd f4e8 323d f1ca 0ebd 5052 b03d
