blocksize-2/model_epoch_4_120.pth (torch, 171967 bytes, 9 tensors)

embedding.0.weight f4 [64, 7]
0.19742693 -0.26181522 -0.02247582 0.036460374 0.23624356 -0.36798978 -0.3264788 0.02695816
0.112549014 -0.15113682 -0.048845522 -0.013956548 -0.3529337 -0.24595782 -0.3469851 0.12558256
0.15121171 0.04098435 0.25994933 -0.1398897 -0.31753543 -0.31656405 0.23257871 0.06242593
0.11889426 0.14938267 0.37227926 -0.04521118 0.0046182848 0.25223324 -0.17041738 -0.15166551
0.30711457 0.27970904 -0.2943027 -0.2798272 -0.35549888 0.12321277 0.02446907 0.2553385
-0.256025 -0.13657686 -0.074658304 -0.27253246 -0.36404166 0.17102455 0.101211205 -0.28523022
0.20050997 -0.21658881 0.019680362 0.18108855 -0.00026543037 -0.15799256 0.25551897 0.3145902
-0.37663588 0.21490023 0.15499435 0.28165478 -0.105255574 0.0921113 0.035794456 -0.035303142
0.16257022 -0.05693544 -0.15698615 0.02658716 -0.23008086 -0.23712178 -0.04303463 -0.01890821
0.1812431 0.061063837 0.21133725 0.28539205 -0.30144104 -0.37065008 0.17410122 0.33517545
-0.25022125 -0.23496066 0.071596146 0.35427696 -0.24620777 -0.36827594 -0.25355697 -0.013506131
0.2375233 0.3300354 0.05845832 -0.2686021 -0.08011612 0.114922956 -0.030451708 -0.011603088
0.0642568 0.3818839 -0.16650876 0.24530989 -0.3023183 -0.24043928 0.26280954 0.37474647
-0.32268047 0.3106528 -0.08094456 0.24475999 -0.052903492 -0.35801116 0.049617995 0.1746791
-0.2035414 -0.3303684 -0.057315197 0.3508749 0.32086605 0.26899365 0.08673589 -0.030287541
-0.16364951 -0.22555147 0.2618634 -0.23880245 0.34360954 0.3216468 -0.014963839 0.17737994
0.03212315 0.108849615 0.16690122 0.1297715 -0.31400436 0.04589016 0.19223994 0.06337762
0.13006552 -0.109428726 0.0013792233 0.30910128 0.031921398 -0.112865895 0.066982836 -0.016477773
-0.15426631 0.33284914 0.107438646 0.35164008 -0.061780773 -0.36832294 0.055154976 0.17601676
0.2988171 -0.17638582 0.25115198 -0.16586743 0.19419305 0.10499191 0.33716983 -0.008131193
0.36666137 0.09622527 0.2744494 -0.3680322 0.32449389 -0.33162537 -0.25944534 -0.04693326
0.28871354 0.04162947 -0.15144844 0.08528312 -0.3321858 0.13274847 0.16491838 0.19402568
0.009376111 -0.2581056 0.23188353 -0.0072870036 0.34583676 -0.17817746 0.076371215 -0.34098098
-0.029349826 0.14963897 -0.28801402 -0.12616836 0.24115448 0.32588518 -0.106582105 0.29110986
0.3618725 0.26941687 0.13515927 0.19771595 0.18418187 -0.18218082 0.045220606 0.051630765
0.13390246 0.13771273 -0.11126949 0.2741356 0.22365952 0.10631087 0.09702044 0.37768078
0.20906107 0.2801151 0.33267027 -0.0071442174 0.13730152 -0.032812517 -0.18431902 -0.07207307
0.22301385 0.34220836 0.103061214 -0.15118535 -0.1599626 0.30240422 0.17299065 -0.01827808
0.111036405 0.29117784 -0.28412485 0.16227634 -0.05417152 0.25366634 -0.17773308 -0.15256312
-0.27359784 0.13898623 -0.21275334 -0.28340086 0.23345004 -0.2614692 0.3089677 0.1487227
-0.20675613 0.10506378 -0.24056956 0.15809403 -0.31244212 0.026522372 -0.071817674 0.3141767
-0.095904656 -0.2883256 0.22732304 0.15716405 -0.029944304 -2.2258097e-05 0.18828389 -0.30778402
00000000: 492a 4a3e a50c 86be 361f b8bc 7957 153d
00000010: d5e9 713e 2869 bcbe 3b28 a7be 5cd7 dc3c
00000020: 1980 e63d 9cc3 1abe 3e12 48bd 01aa 64bc
00000030: bab3 b4be 5edc 7bbe 08a8 b1be b798 003e
00000040: 3ed7 1a3e 35df 273d 1418 853e 3f3f 0fbe
00000050: 0194 a2be af14 a2be 1d29 6e3e 55b2 7f3d
00000060: d57e f33d c5f7 183e 639b be3e 5c2f 39bd
00000070: fb54 973b b724 813e e581 2ebe 344e 1bbe
00000080: 1f3e 9d3e 0636 8f3e d8ae 96be 8345 8fbe
00000090: f303 b6be fa56 fc3d 5c73 c83c babb 823e
000000a0: b515 83be ceda 0bbe 74e6 98bd 6089 8bbe
000000b0: ab63 babe 0f21 2f3e d247 cf3d b209 92be
000000c0: 7c52 4d3e 75c9 5dbe b638 a13c 476f 393e
000000d0: 7629 8bb9 cdc8 21be 62d3 823e f711 a13e
000000e0: 6bd6 c0be ce0e 5c3e d7b6 1e3e 0e35 903e
000000f0: 3c90 d7bd d9a4 bc3d 359d 123d 079a 10bd
00000100: cf78 263e 2335 69bd fac0 20be 51cd d93c
00000110: 519a 6bbe 0dd0 72be 1545 30bd 64e5 9abc
00000120: cb97 393e 131e 7a3d cb68 583e e81e 923e
00000130: 7b56 9abe d9c5 bdbe 9747 323e 1e9c ab3e
00000140: 001d 80be 8799 70be 00a1 923d ca63 b53e
00000150: e41d 7cbe aa8e bcbe 38d2 81be d248 5dbc
00000160: 4f39 733e 66fa a83e fe71 6f3d 3786 89be
00000170: ec13 a4bd ba5c eb3d dc75 f9bc e11a 3ebc
00000180: 1299 833d 4986 c33e 4681 2abe 8432 7b3e
00000190: 77c9 9abe b735 76be f98e 863e c5de bf3e
000001a0: 6036 a5be e20d 9f3e 43c6 a5bd 5da2 7a3e
000001b0: 55b1 58bd 3d4d b7be 3d3c 4b3d 14df 323e
000001c0: 286d 50be 0c26 a9be 57c3 6abd e0a5 b33e
000001d0: 8e48 a43e 89b9 893e 96a2 b13d 941d f8bc
000001e0: bd93 27be f7f6 66be f612 863e a188 74be
000001f0: 97ed af3e e4ae a43e e42a 75bc 16a3 353e
00000200: 9093 033d 8cec de3d 27e8 2a3e d2e2 043e
00000210: 2ec5 a0be 52f7 3b3d 8cda 443e 20cc 813d
00000220: e52f 053e 2b1c e0bd 0ec7 b43a 8642 9e3e
00000230: 03c0 023d 3c26 e7bd 4c2e 893d 65fc 86bc
00000240: fdf7 1dbe 346b aa3e cb08 dc3d 2b0a b43e
00000250: d60d 7dbd d394 bcbe 2fea 613d bd3d 343e
00000260: 8efe 983e 7c9e 34be fe96 803e 27d9 29be
00000270: 8bda 463e 0006 d73d 86a1 ac3e b238 05bc
00000280: 0abb bb3e c111 c53d a284 8c3e b76e bcbe
00000290: 1024 a63e cdca a9be 05d6 84be 173d 40bd
000002a0: 43d2 933e aa83 2a3d 4d15 1bbe eba8 ae3d
000002b0: 4214 aabe 37ef 073e 5de0 283e abae 463e
000002c0: 439e 193c 6b26 84be e072 6d3e d1c7 eebb
000002d0: 8411 b13e 2774 36be 8368 9c3d 0f95 aebe
000002e0: 0c6f f0bc f53a 193e 9376 93be 4732 01be
000002f0: 33f1 763e 6cda a63e b847 dabd 5a0c 953e
00000300: 5a47 b93e 02f1 893e 3167 0a3e 0d76 4a3e
00000310: 2c9a 3c3e 9c8d 3abe 3e39 393d c87a 533d
00000320: ba1d 093e 9104 0d3e 42e1 e3bd 805b 8c3e
00000330: 0007 653e 83b9 d93d a7b2 c63d 605f c13e
00000340: 1b14 563e 3f6b 8f3e c253 aa3e 0a1a eabb
00000350: c598 0c3e 6b66 06bd 20be 3cbe 0c9b 93bd
00000360: be5d 643e ef35 af3e c211 d33d 55d0 1abe
00000370: 3ccd 23be bad4 9a3e 7624 313e e9bb 95bc
00000380: 0e67 e33d 4315 953e d078 91be c52b 263e
00000390: f5e2 5dbd 8ee0 813e a9ff 35be 8239 1cbe
000003a0: 0415 8cbe 6852 0e3e 03dc 59be eb19 91be
000003b0: 870d 6f3e 4adf 85be 0431 9e3e c34a 183e
000003c0: e1b7 53be ae2b d73d de57 76be 67e3 213e
000003d0: 6af8 9fbe 7245 d93c 2515 93bd c5db a03e
000003e0: a969 c4bd 6a9f 93be 5fc7 683e 9def 203e
000003f0: c24d f5bc e6b6 bab7 7ecd 403e de95 9dbe

embedding.0.bias f4 [64]
-0.14470969 0.090684436 0.114652455 -0.19849052 -0.3452915 -0.20910294 -0.29244542 0.052147765
-0.1053138 -0.36688924 0.13885413 -0.34294647 -0.10140839 0.23122482 0.048068296 -0.088404946
-0.043311197 -0.10499608 0.367202 -0.16478828 0.011284778 -0.14117481 0.31424162 -0.3011553
0.08682914 -0.16527899 -0.21621978 0.24742694 -0.17558987 -0.32975623 -0.28258646 -0.3449405
0.12161805 -0.15566011 0.12770696 -0.30333462 0.22665375 -0.2613331 -0.21163595 0.21958362
0.0482111 -0.2737767 -0.05753362 -0.23368728 -0.14967008 -0.34666324 0.34843597 -0.18652248
-0.2143605 -0.24130872 -0.27651525 0.27293622 0.2421124 -0.035949472 0.029151399 -0.16285199
0.34702098 -0.34878364 0.32046098 0.16806209 -0.27911535 0.09604648 -0.24832056 -0.022508577
00000000: c72e 14be c3b8 b93d e8ce ea3d 1941 4bbe
00000010: 0cca b0be 151f 56be 68bb 95be e598 553d
00000020: c3ae d7bd e8d8 bbbe c72f 0e3e ae96 afbe
00000030: 34af cfbd 33c6 6c3e 43e3 443d a70d b5bd
00000040: 1567 31bd 2f08 d7bd e701 bc3e 42be 28be
00000050: cae3 383c 2190 10be 47e4 a03e 0731 9abe
00000060: 7ad3 b13d e53e 29be b868 5dbe 7d5d 7d3e
00000070: d5cd 33be cfd5 a8be 2caf 90be 0b9c b0be
00000080: e212 f93d 5d65 1fbe 9dc5 023e ad4e 9bbe
00000090: ec17 683e 74cd 85be 18b7 58be 87da 603e
000000a0: 0179 453d 762c 8cbe 60a8 6bbd b84b 6fbe
000000b0: 1d43 19be d87d b1be 3366 b23e c0ff 3ebe
000000c0: 5281 5bbe a219 77be 6893 8dbe 4cbe 8b3e
000000d0: 50ec 773e c13f 13bd eace ee3c acc2 26be
000000e0: bcac b13e c593 b2be 7613 a43e 7818 2c3e
000000f0: 35e8 8ebe 04b4 c43d bf47 7ebe e863 b8bc

layernorm.weight f4 [259, 64]
1.0001215 0.9999896 1.0 1.0000559 0.9999981 1.0000108 1.0000587 0.9992281
0.99983996 0.99996024 1.0000468 1.0002917 1.0000162 1.0012488 1.0000001 0.99954844
1.0001904 1.0002013 0.9999823 0.9989823 0.9997955 1.0000657 1.0001944 1.0000049
0.99973 0.99999994 0.9997784 0.9994506 0.9998833 1.0007627 0.99917287 0.99999464
1.0 1.0000534 0.9999906 1.0000502 1.0000008 0.99999 1.0000564 1.000041
1.0004233 1.000792 0.9999847 1.0000352 0.9998455 0.99973947 1.0001166 0.9997077
1.0 1.0001458 1.0000014 0.99999857 0.99990433 0.9999995 1.0000402 0.9998328
1.0000334 1.000008 0.99994105 0.99999964 0.999781 0.99997824 0.99999225 1.0000013
0.99999565 1.0000135 1.0000628 1.0000976 1.0000007 1.0000085 1.0000616 1.0000038
1.0003625 0.999977 1.0000204 1.0001333 1.0000079 0.9994174 0.99997056 0.9998712
0.999925 0.9994585 1.000191 1.0000592 0.9998902 1.0000137 1.0000019 1.0001286
0.99988264 1.0000111 0.9999158 1.0000038 0.99998796 0.99938595 0.99986404 0.99999255
1.0000107 1.0000393 1.0000035 1.0000008 1.0 1.0001328 1.0000325 0.9999887
1.0001575 0.9992266 1.000004 1.0000486 1.0 1.0000091 1.0000167 1.0000571
0.99996823 1.0000482 1.000034 1.0 0.9999738 1.0000404 1.0000312 1.0000707
0.99989647 1.0000017 0.99959004 0.99999934 1.0001249 1.0000066 0.9999973 0.9999804
1.0000857 0.9999945 1.0000056 1.0000709 0.99999905 1.0000101 1.0003434 0.9987038
0.9993631 0.9999665 1.0000399 1.0008168 1.000012 1.0019422 1.0000014 0.99926543
1.000181 1.0008256 1.0000206 0.9983433 0.99967974 1.0000744 0.9998746 0.9996485
0.99960744 1.0000006 0.999674 0.9994164 0.9999124 1.0013745 0.9987283 0.999995
1.0000005 1.0000373 1.0000001 1.000034 1.0000005 1.0000128 1.0000502 1.0000077
1.0007952 1.0016353 0.9999928 1.0000312 0.9995325 0.9992505 1.0000641 0.99985737
0.9999876 0.99976695 1.0000049 0.9999988 0.9995729 1.0000031 1.0000327 0.999943
0.9998951 1.0000066 1.0002652 0.99999964 0.99986655 0.99998975 0.9999943 1.0000001
0.9999953 1.0000128 1.0000526 1.0001001 1.0000002 1.0000083 1.0000702 1.0000087
0.99988735 0.99998033 1.0000167 1.0000333 1.0000056 0.9996058 1.0000037 0.9999823
0.9999325 0.9996683 1.0001736 1.0000176 0.99993104 1.0000086 0.99996024 0.99986243
0.99991316 1.0000097 0.99995786 0.99993706 0.99999183 0.99966854 0.99999493 0.99999326
1.0000082 1.0000237 1.0000086 1.0000008 1.0 1.000124 1.0000342 0.99992615
1.0000688 0.999658 1.0000054 1.0000389 0.999972 1.000004 1.0000056 1.0000477
0.9999834 1.0000082 1.0000291 1.0 0.9999774 1.0000383 1.0000267 1.0000448
0.99991816 1.0000015 0.999855 0.9999996 1.0000968 1.000007 0.9999982 0.99998224
00000000: fb03 803f 52ff 7f3f 0000 803f d501 803f
00000010: e0ff 7f3f 5b00 803f ec01 803f 6acd 7f3f
00000020: 83f5 7f3f 65fd 7f3f 8901 803f 8f09 803f
00000030: 8800 803f ec28 803f 0100 803f 68e2 7f3f
00000040: 3d06 803f 9906 803f d7fe 7f3f 4ebd 7f3f
00000050: 99f2 7f3f 2702 803f 5f06 803f 2900 803f
00000060: 4eee 7f3f ffff 7f3f 7af1 7f3f ffdb 7f3f
00000070: 5af8 7f3f fe18 803f cbc9 7f3f a6ff 7f3f
00000080: 0000 803f c001 803f 62ff 7f3f a501 803f
00000090: 0700 803f 58ff 7f3f d901 803f 5801 803f
000000a0: df0d 803f f419 803f fffe 7f3f 2701 803f
000000b0: e0f5 7f3f edee 7f3f d203 803f d8ec 7f3f
000000c0: 0000 803f c704 803f 0c00 803f e8ff 7f3f
000000d0: bbf9 7f3f f8ff 7f3f 5101 803f 0bf5 7f3f
000000e0: 1801 803f 4300 803f 23fc 7f3f faff 7f3f
000000f0: a6f1 7f3f 93fe 7f3f 7eff 7f3f 0b00 803f
00000100: b7ff 7f3f 7100 803f 0f02 803f 3303 803f
00000110: 0600 803f 4700 803f 0502 803f 2000 803f
00000120: e10b 803f 7efe 7f3f ab00 803f 5e04 803f
00000130: 4200 803f d2d9 7f3f 12fe 7f3f 8ff7 7f3f
00000140: 16fb 7f3f 83dc 7f3f 4206 803f f101 803f
00000150: cef8 7f3f 7300 803f 1000 803f 3704 803f
00000160: 4ff8 7f3f 5d00 803f 7bfa 7f3f 2000 803f
00000170: 36ff 7f3f c2d7 7f3f 17f7 7f3f 83ff 7f3f
00000180: 5a00 803f 4a01 803f 1d00 803f 0700 803f
00000190: 0000 803f 5a04 803f 1101 803f 42ff 7f3f
000001a0: 2905 803f 51cd 7f3f 2200 803f 9801 803f
000001b0: 0000 803f 4c00 803f 8c00 803f df01 803f
000001c0: ebfd 7f3f 9401 803f 1d01 803f 0000 803f
000001d0: 48fe 7f3f 5301 803f 0601 803f 5102 803f
000001e0: 37f9 7f3f 0e00 803f 22e5 7f3f f5ff 7f3f
000001f0: 1804 803f 3700 803f d3ff 7f3f b7fe 7f3f
00000200: cf02 803f a4ff 7f3f 2f00 803f 5302 803f
00000210: f0ff 7f3f 5500 803f 410b 803f 0dab 7f3f
00000220: 43d6 7f3f cefd 7f3f 4f01 803f c41a 803f
00000230: 6500 803f a43f 803f 0c00 803f dccf 7f3f
00000240: ee05 803f 0e1b 803f ad00 803f 6d93 7f3f
00000250: 03eb 7f3f 7002 803f c8f7 7f3f f7e8 7f3f
00000260: 46e6 7f3f 0500 803f a3ea 7f3f c1d9 7f3f
00000270: 42fa 7f3f 0a2d 803f a8ac 7f3f acff 7f3f
00000280: 0400 803f 3901 803f 0100 803f 1d01 803f
00000290: 0400 803f 6b00 803f a501 803f 4100 803f
000002a0: 0f1a 803f 9635 803f 87ff 7f3f 0601 803f
000002b0: 5de1 7f3f e1ce 7f3f 1a02 803f a7f6 7f3f
000002c0: 30ff 7f3f baf0 7f3f 2900 803f ecff 7f3f
000002d0: 02e4 7f3f 1a00 803f 1201 803f 44fc 7f3f
000002e0: 20f9 7f3f 3700 803f b108 803f faff 7f3f
000002f0: 41f7 7f3f 54ff 7f3f a0ff 7f3f 0100 803f
00000300: b1ff 7f3f 6b00 803f b901 803f 4803 803f
00000310: 0200 803f 4600 803f 4d02 803f 4900 803f
00000320: 9ef8 7f3f b6fe 7f3f 8c00 803f 1701 803f
00000330: 2f00 803f 2ae6 7f3f 1f00 803f d7fe 7f3f
00000340: 94fb 7f3f 43ea 7f3f b005 803f 9400 803f
00000350: 7bfb 7f3f 4800 803f 65fd 7f3f fcf6 7f3f
00000360: 4ffa 7f3f 5100 803f 3dfd 7f3f e0fb 7f3f
00000370: 77ff 7f3f 47ea 7f3f abff 7f3f 8fff 7f3f
00000380: 4500 803f c700 803f 4800 803f 0700 803f
00000390: 0000 803f 1004 803f 1f01 803f 29fb 7f3f
000003a0: 4102 803f 96e9 7f3f 2d00 803f 4601 803f
000003b0: 2afe 7f3f 2200 803f 2f00 803f 9001 803f
000003c0: e9fe 7f3f 4500 803f f400 803f 0000 803f
000003d0: 85fe 7f3f 4101 803f e000 803f 7801 803f
000003e0: a3fa 7f3f 0d00 803f 7ff6 7f3f f9ff 7f3f
000003f0: 2c03 803f 3b00 803f e2ff 7f3f d6fe 7f3f

layernorm.bias f4 [259, 64]
7.1588656e-05 7.664868e-05 7.508905e-05 0.00010589547 1.7261911e-05 -9.308913e-05 8.9652676e-05 -7.420536e-05
-9.7368444e-05 -2.684341e-05 0.0001284766 7.0580405e-05 4.6167215e-06 0.00012499001 -7.621104e-05 -9.849615e-05
-5.6594723e-05 7.4833e-05 0.00013772344 -7.2263334e-05 -0.000110582594 7.323289e-05 -1.250658e-05 -0.000108824745
-5.20995e-05 1.7430242e-05 -5.7694713e-05 -5.5332235e-05 -5.0443276e-05 0.000106813364 -0.00011101436 4.595225e-05
6.5186077e-06 5.5684373e-05 -6.861207e-05 2.0821193e-05 -3.7893173e-05 6.621086e-05 0.000112805974 -1.5876401e-05
0.00013697275 0.00012431273 -0.000101669066 5.2649182e-05 -2.1024342e-05 -5.5289693e-05 2.6272266e-05 1.496453e-05
8.970339e-06 -3.1945176e-05 9.240761e-05 1.8070164e-06 -4.3420016e-05 1.875278e-05 0.00011391538 0.00014449895
-4.0701114e-05 -9.375685e-05 6.793997e-05 1.9339632e-05 5.683468e-05 -9.9607954e-05 -4.375494e-05 -3.982929e-05
2.948513e-05 4.5008735e-05 4.482072e-05 1.7923441e-05 6.6758985e-05 -3.4446184e-05 -1.2344799e-05 -4.147919e-05
4.0376128e-07 2.227001e-05 -6.3846815e-06 2.446083e-05 -2.4895875e-05 2.5881816e-05 1.5248742e-06 -5.6111745e-05
-2.4638874e-05 1.2764773e-05 3.236636e-05 -4.369209e-05 -5.4180844e-05 1.4133498e-05 -3.1160685e-05 -9.020731e-06
-2.6796431e-05 2.0098129e-05 -3.924849e-05 -4.4655157e-05 -3.543943e-05 3.9084283e-05 -6.399198e-05 2.8393068e-05
3.4120105e-05 -1.8428538e-05 -7.414691e-06 -4.9527866e-06 -2.4018576e-05 4.9206734e-05 4.1521478e-05 -2.8335858e-06
1.1608101e-05 2.2500722e-05 -1.954013e-05 5.507974e-06 -3.4092805e-05 -1.0521692e-05 -2.0088275e-05 -1.3114956e-05
2.283942e-05 3.144876e-05 2.1681299e-05 -4.9770915e-05 -3.7887774e-05 4.4216966e-05 3.4852266e-05 1.3141014e-05
-3.9204435e-05 -2.7478942e-05 4.955925e-06 2.8666062e-05 -8.285804e-06 -1.6524284e-05 1.0113966e-05 5.215343e-07
7.787828e-05 7.709452e-05 8.2769264e-05 0.00011623787 1.0515504e-05 -9.63137e-05 8.691674e-05 -8.871825e-05
-9.737134e-05 -5.0252715e-05 0.0001257049 7.4454954e-05 6.5901345e-06 0.00013408593 -9.524608e-05 -0.00010738908
-6.11665e-05 9.289988e-05 0.00014390229 -9.194707e-05 -0.0001235424 8.496381e-05 -1.6253562e-05 -0.00012084962
-6.8602625e-05 1.7805805e-05 -6.547568e-05 -5.729416e-05 -5.5850014e-05 0.00011708713 -0.00012144522 5.2234605e-05
2.3083799e-06 7.392203e-05 -9.089017e-05 1.9824325e-05 -2.9865916e-05 7.521914e-05 0.00010972869 -2.4873112e-05
0.00014859853 0.0001393624 -0.00011781299 5.760156e-05 -2.5434781e-05 -7.3771575e-05 1.6742197e-05 2.4002606e-05
1.5918162e-05 -3.8663937e-05 9.858709e-05 3.3016022e-06 -5.3080214e-05 2.4538329e-05 0.00011362096 0.00016040936
-4.9005725e-05 -0.0001038172 6.879093e-05 1.3563993e-05 5.9298593e-05 -0.000104904175 -4.6285677e-05 -3.3530236e-05
7.0789334e-05 4.94907e-05 4.719606e-05 7.776461e-05 2.429752e-05 -5.2090872e-05 2.5438325e-05 -6.309356e-05
-5.669084e-05 -1.803529e-05 4.5778517e-05 3.7433852e-05 -1.1434285e-05 3.911776e-05 -5.2942993e-05 -7.70448e-05
-2.9109557e-05 3.4920024e-05 8.548365e-05 -5.6812998e-05 -6.518601e-05 3.037974e-05 -4.457508e-05 -6.0837418e-05
-3.3271343e-05 2.4542758e-05 -3.781259e-05 -6.589214e-05 -6.667788e-05 7.10652e-05 -9.453032e-05 5.889118e-05
2.6485857e-05 1.823258e-05 -5.5766333e-05 -4.2233974e-06 -2.099295e-05 7.1955976e-05 6.44369e-05 -4.262981e-05
5.6678222e-05 6.365489e-05 -4.1331175e-05 5.0628136e-05 -4.458882e-05 -3.7190224e-05 -1.2957647e-05 1.3752792e-05
2.1201677e-06 2.112509e-06 4.0216102e-05 -4.4441986e-05 -4.727391e-05 3.7252656e-05 6.7353816e-05 8.0449914e-05
-7.093466e-05 -4.529939e-05 3.625484e-05 1.709068e-05 2.2537391e-05 -5.1171475e-05 8.375025e-06 -1.3107741e-05
00000000: de21 9638 72be a038 2079 9d38 3314 de38
00000010: accd 9037 d938 c3b8 ea03 bc38 b39e 9bb8
00000020: 4932 ccb8 c92d e1b7 adb7 0639 9104 9438
00000030: 56e9 9a36 c00f 0339 7ed3 9fb8 b88f ceb8
00000040: 1f60 6db8 a9ef 9c38 db69 1039 158c 97b8
00000050: 94e8 e7b8 9c94 9938 5ad3 51b7 d738 e4b8
00000060: 6a85 5ab8 2937 9237 3afd 71b8 8914 68b8
00000070: 0e93 53b8 fd00 e038 61d0 e8b8 dabc 4038
00000080: 6aba da36 a48e 6938 d3e3 8fb8 2ca9 ae37
00000090: 7cef 1eb8 afda 8a38 3f92 ec38 502e 85b7
000000a0: 58a0 0f39 f259 0239 2a37 d5b8 a1d3 5c38
000000b0: 6e5d b0b7 dbe6 67b8 4363 dc37 2b10 7b37
000000c0: 507f 1637 dffc 05b8 f5ca c138 9c88 f235
000000d0: e31d 36b8 4a4f 9d37 dbe5 ee38 a484 1739
000000e0: 7db6 2ab8 539f c4b8 fe7a 8e38 8b3b a237
000000f0: c661 6e38 9de4 d0b8 8285 37b8 600e 27b8
00000100: d656 f737 c3c7 3c38 e2fd 3b38 4c5a 9637
00000110: f500 8c38 4f7a 10b8 821c 4fb7 f1f9 2db8
00000120: 87c4 d834 7bd0 ba37 ff3b d6b6 3c31 cd37
00000130: 7cd7 d0b7 c71c d937 47aa cc35 8759 6bb8
00000140: 94af ceb7 4828 5637 1dc1 0738 0642 37b8
00000150: 3d40 63b8 e91e 6d37 88b2 02b8 bf57 17b7
00000160: e6c8 e0b7 6798 a837 bf9e 24b8 1c4c 3bb8
00000170: cca4 14b8 6eee 2338 6f33 86b8 a62d ee37
00000180: 2f1c 0f38 fc96 9ab7 b6cb f8b6 1d30 a6b6
00000190: 807b c9b7 5463 4e38 5927 2e38 a228 3eb6
000001a0: 6ac0 4237 efbf bc37 1cea a3b7 23d1 b836
000001b0: dffe 0eb8 5386 30b7 3e83 a8b7 4f08 5cb7
000001c0: 4897 bf37 d9e7 0338 3ce0 b537 1dc1 50b8
000001d0: b0e9 1eb8 9b75 3938 562e 1238 3a78 5c37
000001e0: 716f 24b8 9482 e6b7 124b a636 e677 f037
000001f0: 4203 0bb7 a19d 8ab7 27af 2937 90ff 0b35
00000200: 9552 a338 cead a138 6994 ad38 bbc4 f338
00000210: bf6b 3037 06fc c9b8 1247 b638 3f0e bab8
00000220: d733 ccb8 71c6 52b8 a7cf 0339 b324 9c38
00000230: d320 dd36 6b99 0c39 dabe c7b8 1336 e1b8
00000240: 8446 80b8 3ed3 c238 7ae4 1639 b5d3 c0b8
00000250: 298b 01b9 992e b238 4258 88b7 a570 fdb8
00000260: c1de 8fb8 ad5d 9537 fd4f 89b8 234f 70b8
00000270: 7f40 6ab8 ad8c f538 68b0 feb8 7b16 5b38
00000280: aae9 1a36 9606 9b38 4a9c beb8 6a4c a637
00000290: 9188 fab7 f8be 9d38 241e e638 9aa6 d0b7
000002a0: 1dd1 1b39 cf21 1239 5e12 f7b8 3499 7138
000002b0: c75c d5b7 d0b5 9ab8 9871 8c37 3459 c937
000002c0: fe87 8537 162b 22b8 8ac0 ce38 1891 5d36
000002d0: 72a2 5eb8 a9d7 cd37 ca47 ee38 8f33 2839
000002e0: 7f8b 4db8 6fb8 d9b8 d943 9038 e890 6337
000002f0: 61b7 7838 0000 dcb8 de22 42b8 d1a2 0cb8
00000300: bc74 9438 3c94 4f38 62f4 4538 8f15 a338
00000310: 87d2 cb37 267c 5ab8 6364 d537 1951 84b8
00000320: 53c7 6db8 7e4a 97b7 4f02 4038 4b02 1d38
00000330: e1d5 3fb7 6012 2438 1b0f 5eb8 1d93 a1b8
00000340: 4c30 f4b7 1777 1238 af45 b338 7e4a 6eb8
00000350: 79b4 88b8 ffd7 fe37 21f6 3ab8 ae2b 7fb8
00000360: d58c 0bb8 2ce1 cd37 f698 1eb8 932f 8ab8
00000370: 6ad5 8bb8 d708 9538 943e c6b8 ec01 7738
00000380: f22d de37 2bf2 9837 a5e6 69b8 b5b6 8db6
00000390: 041a b0b7 12e7 9638 4c22 8738 69cd 32b8
000003a0: c7b9 6d38 757e 8538 035b 2db8 8c59 5438
000003b0: e204 3bb8 b3fc 1bb8 ac64 59b7 cbbb 6637
000003c0: 3448 0e36 a1c4 0d36 b6ad 2838 3867 3ab8
000003d0: f947 46b8 bc3f 1c38 4e40 8d38 38b7 a838
000003e0: c1c2 94b8 daff 3db8 5710 1838 f55d 8f37
000003f0: ae0e bd37 f4a0 56b8 7582 0c37 52e9 5bb7

fc0.0.weight f4 [64, 64]
-0.09927608 0.07721066 0.105806656 -0.07265139 0.08188609 0.12084335 -0.024825536 -0.10741897
0.022177879 0.06322443 0.083642006 0.06380333 -0.02048602 0.05766224 -0.06907666 0.0279484
-0.034245573 -0.07506717 -0.051826134 -0.06253644 0.029865155 -0.03202083 0.013187664 -0.04141639
-0.06444239 0.087191105 0.027512796 0.05396754 0.06410448 0.024534095 -0.038887378 0.109446235
-0.055229638 -0.05061056 -0.041970402 0.07371046 -0.11640066 0.012877909 0.11792023 -0.12122141
-0.10686741 0.11641131 -0.08162451 -0.07905102 -0.002046538 -0.04281829 0.07851686 0.058206532
-0.11181429 -0.055352267 -0.012400335 0.104021244 -0.086714536 -0.024327815 -0.110869914 -0.11117835
-0.018121453 -0.089514285 -0.023135973 0.08889875 -0.05158826 0.08843846 -0.0392493 -0.018367713
0.041109443 0.122540824 0.06958709 0.09547406 0.01999082 -0.051111795 0.071530886 0.00552181
0.055941533 -0.10031568 -0.0019759478 0.050055534 0.04855367 0.039752215 0.06809785 0.008795567
-0.04712711 -0.11075205 0.11660865 -0.11418534 -0.009214491 -0.007423764 -0.042019814 0.014432577
-0.026923988 0.04066936 -0.120269015 -0.070983194 0.05744526 0.051653363 -0.008594104 0.111784555
-0.053619556 -0.0894896 0.07750127 -0.092967756 -0.09476174 0.0678939 -0.0904702 -0.04990564
-0.035343837 0.030953545 -0.0319732 0.06428209 0.020295033 -0.030231422 0.015759127 0.09015969
0.011125626 0.06597187 -0.050921354 -0.12217192 -0.062616184 -0.11495777 -0.10679931 -0.069060475
-0.0359879 0.09531262 -0.062435094 0.023019902 0.021961277 0.114413455 0.10851534 0.049970113
-0.09323774 0.06359824 -0.059325896 0.11665212 -0.08836721 -0.05437561 -0.05130651 0.030511396
-0.084940456 -0.046586055 0.08679002 0.11432629 -0.06291432 0.0193173 -0.10456339 -0.0916104
-0.039428063 0.058803618 0.1212108 0.031741776 -0.0752278 0.085419 -0.06023397 0.03758388
-0.091161236 0.0488236 0.048666757 -0.09821707 -0.12085606 -0.09491648 0.08207024 0.09514268
-0.0077169864 -0.07431174 -0.0066918386 0.102488905 -0.085132554 -0.097827666 -0.012618111 -0.0018447929
0.04429358 0.063571304 -0.05085193 -0.058378536 -0.11924404 0.083856665 0.0581942 -0.11239986
0.015815796 0.08700625 -0.005222604 0.01878928 0.08047025 -0.10959167 0.1220255 -0.028162455
-0.106140755 -0.00021699973 0.08361408 -0.04849657 -0.007924118 0.05789137 0.03331688 0.12192173
-0.08834352 -0.07824203 0.08833878 0.0065409387 -0.045577694 -0.09092324 0.055985402 -0.07372219
0.113659814 0.011052752 0.08429078 -0.117748484 0.109117016 -0.09320244 0.054547537 0.04110896
0.08421847 -0.03269346 0.0015715065 0.044491094 0.019061472 0.027698396 0.050301157 0.12381208
0.044467185 0.017919306 0.11157456 -0.10371566 0.016997682 -0.10155998 0.120011516 0.08120781
0.03357041 -0.030133115 -0.0049631842 0.12078514 0.10151771 0.049513973 -0.07530765 -0.040839374
-0.017884778 0.06996757 0.03441971 -0.022124896 -0.05926257 0.07644298 0.10372929 -0.055724844
-0.093066186 -0.036614686 -0.0008668933 0.10579624 0.022561809 0.012888684 -0.02435792 -0.08619588
0.12152245 -0.09073307 -0.062722564 0.12116916 -0.020722305 -0.078781635 -0.11254817 -0.112921
00000000: 4251 cbbd 9f20 9e3d 29b1 d83d 41ca 94bd
00000010: e5b3 a73d b87c f73d ec5e cbbc 7afe dbbd
00000020: 62ae b53c cf7b 813d 804c ab3d 52ab 823d
00000030: 4cd2 a7bc 3e2f 6c3d 1078 8dbd 0bf4 e43c
00000040: 1645 0cbd d1bc 99bd a447 54bd 1b13 80bd
00000050: c5a7 f43c 4628 03bd 1211 583c 3ca4 29bd
00000060: 5ffa 83bd 4091 b23d 8462 e13c 110d 5d3d
00000070: 3649 833d bafb c83c 5f48 1fbd 5925 e03d
00000080: 7938 62bd 054d 4fbd 28e9 2bbd 82f5 963d
00000090: 7863 eebd ddfd 523c 2980 f13d ee42 f8bd
000000a0: 4ddd dabd 0e69 ee3d c02a a7bd 80e5 a1bd
000000b0: 361f 06bb 3b62 2fbd 73cd a03d f969 6e3d
000000c0: e4fe e4bd 0fb9 62bd c62a 4bbc 1709 d53d
000000d0: 6497 b1bd 204b c7bc c40f e3bd 7ab1 e3bd
000000e0: 7173 94bc 4453 b7bd a787 bdbc 8c10 b63d
000000f0: 364e 53bd 391f b53d e0c3 20bd e377 96bc
00000100: 6062 283d aff6 fa3d ad83 8e3d e787 c33d
00000110: cac3 a33c 9a5a 51bd c97e 923d 4df0 b43b
00000120: f322 653d 4f72 cdbd e77e 01bb 0807 4d3d
00000130: 37e0 463d 38d3 223d e376 8b3d 481b 103c
00000140: 5b08 41bd f9d1 e2bd 84d0 ee3d 01da e9bd
00000150: 60f8 16bc 0c43 f3bb f81c 2cbd 9e76 6c3c
00000160: b28f dcbc ea94 263d 9a4f f6bd a35f 91bd
00000170: b94b 6b3d 7a92 533d 49ce 0cbc 4def e43d
00000180: 2ea0 5bbd 5346 b7bd fcb8 9e3d e165 bebd
00000190: 7112 c2bd f50b 8b3d 7148 b9bd db69 4cbd
000001a0: b3c4 10bd 4a92 fd3c 55f6 02bd 54a6 833d
000001b0: c541 a63c e3a7 f7bc 4919 813c a5a5 b83d
000001c0: 4248 363c 431c 873d e992 50bd 4635 fabd
000001d0: ea3c 80bd fb6e ebbd 99b9 dabd 946f 8dbd
000001e0: 0c68 13bd 4333 c33d f1bb 7fbd 3c94 bc3c
000001f0: 23e8 b33c 9a51 ea3d 4a3d de3d 76ad 4c3d
00000200: 6ef3 bebd cb3f 823d b6ff 72bd 4fe7 ee3d
00000210: def9 b4bd f6b8 5ebd c626 52bd 09f3 f93c
00000220: 43f5 adbd 05d1 3ebd f7be b13d e723 ea3d
00000230: 39d9 80bd 503f 9e3c 5525 d6bd 3c9e bbbd
00000240: 527f 21bd 10dc 703d 5e3d f83d aa03 023d
00000250: 0811 9abd 28f0 ae3d e5b7 76bd 8ef1 193d
00000260: beb2 babd 41fb 473d cb56 473d 0826 c9bd
00000270: 6283 f7bd 9263 c2bd 7114 a83d 2ada c23d
00000280: c6de fcbb c130 98bd 3647 dbbb b4e5 d13d
00000290: fa59 aebd df59 c8bd 32bc 4ebc facc f1ba
000002a0: 2f6d 353d ac31 823d 1d4a 50bd 551e 6fbd
000002b0: 3836 f4bd 0bbd ab3d 0b5d 6e3d e631 e6bd
000002c0: 2190 813c 5530 b23d 6122 abbb faeb 993c
000002d0: 96cd a43d 9971 e0bd 81e8 f93d f3b4 e6bc
000002e0: 5360 d9bd 6c8a 63b9 dc3d ab3d 57a4 46bd
000002f0: 29d4 01bc 801f 6d3d 4877 083d 1ab2 f93d
00000300: 73ed b4bd 5c3d a0bd f6ea b43d 5f55 d63b
00000310: adaf 3abd f735 babd f350 653d a9fb 96bd
00000320: 7ac6 e83d 9a16 353c a5a0 ac3d 1e26 f1bd
00000330: be78 df3d ece0 bebd 3d6d 5f3d de61 283d
00000340: bc7a ac3d 94e9 05bd 02fb cd3a 4b3c 363d
00000350: ce26 9c3c bfe7 e23c 9608 4e3d 3091 fd3d
00000360: 3923 363d 82cb 923c 3481 e43d e068 d4bd
00000370: b93e 8b3c aefe cfbd 99c8 f53d 4850 a63d
00000380: 2081 093d b9d9 f6bc 35a2 a2bb 335e f73d
00000390: 84e8 cf3d 2acf 4a3d e63a 9abd 3047 27bd
000003a0: 1983 92bc 284b 8f3d affb 0c3d 453f b5bc
000003b0: 4fbd 72bd 238e 9c3d 0670 d43d bc3f 64bd
000003c0: 7c99 bebd 48f9 15bd 3940 63ba b3ab d83d
000003d0: 8bd3 b83c 0f2b 533c 438a c7bc 7787 b0bd
000003e0: c3e0 f83d 43d2 b9bd b074 80bd 8927 f83d
000003f0: d3c1 a9bc 4458 a1bd a87f e6bd 2043 e7bd

fc0.0.bias f4 [64]
0.048009336 -0.09524658 0.043646492 -0.005008031 -0.08777656 0.078181244 0.11689516 -0.048815206
-0.043393847 -0.06411088 0.0423296 -0.05432513 -0.04913809 0.025142897 0.092029855 -0.07876349
0.05017841 0.06929953 -0.028662037 0.1109729 -0.051237904 -0.0091678 -0.0042721867 0.12341823
0.015364708 -0.12245133 0.09037627 0.028238377 -0.015751269 -0.041539162 0.08338458 0.007372079
0.028335074 0.09404387 -0.07967556 0.037860002 -0.03027789 0.09999807 0.10442109 -0.092864536
0.03186104 -0.072581865 0.044864986 -0.10542413 0.07558652 -0.11237689 0.02867544 0.020342471
-0.105945095 -0.016156383 0.0663696 0.12241969 -0.08580254 0.030069103 0.02951248 0.119096085
0.043078616 0.069476485 0.112002835 0.084140375 0.015722472 0.0018470135 -0.004232829 -0.12160649
00000000: 70a5 443d a410 c3bd aac6 323d 691a a4bb
00000010: 32c4 b3bd 7d1d a03d bb66 ef3d 74f2 47bd
00000020: bfbd 31bd 914c 83bd cd61 2d3d 0784 5ebd
00000030: 0645 49bd 7af8 cd3c 267a bc3d c14e a1bd
00000040: e087 4d3d e9ec 8d3d a6cc eabc c345 e33d
00000050: d6de 51bd 8a34 16bc b3fd 8bbb b2c2 fc3d
00000060: 42bc 7b3c c3c7 fabd 3217 b93d 2b54 e73c
00000070: ce08 81bc f824 2abd 89c5 aa3d 7b91 f13b
00000080: f51e e83c 139a c03d f12c a3bd 1713 1b3d
00000090: 5609 f8bc cacb cc3d b9da d53d c32f bebd
000000a0: b980 023d cda5 94bd 59c4 373d 9be8 d7bd
000000b0: 1bcd 9a3d db25 e6bd c2e8 ea3c 41a5 a63c
000000c0: bef9 d8bd 645a 84bc c9ec 873d 2db7 fa3d
000000d0: 3eb9 afbd 7b53 f63c 28c4 f13c a6e8 f33d
000000e0: 3473 303d b049 8e3d be61 e53d ca51 ac3d
000000f0: 6acc 803c 7d17 f23a 8bb3 8abb d30c f9bd

fc1.0.weight f4 [64, 64]
-0.018583026 0.07803109 -0.06908341 0.016786145 -0.09288906 0.015917411 0.11543622 0.051629726
-0.05836441 0.06793721 0.12360119 -0.032250904 0.022824373 -0.03273885 0.0846318 0.033240333
0.12002899 -0.05426758 -0.021364013 0.020791145 0.035251793 -0.10927227 0.10104082 -0.046218507
0.059850387 -0.013595951 0.071824364 0.057900626 -0.069238015 -0.05541119 -0.025004819 -0.09604908
0.12236265 -0.034761824 0.043925665 0.031016896 0.048919324 0.008196095 0.042745706 -0.05351149
0.06303344 -0.12041998 0.07121091 -0.045390032 -0.086998776 -0.007768232 0.12461486 -0.08178655
-0.12335486 0.017421119 -0.062253684 0.06264061 0.09875593 -0.047503173 -0.024225993 0.057903443
0.018854002 0.049410377 0.06033403 0.03815461 0.066264324 -0.07881476 0.028214972 0.00020046969
0.0009731133 0.10501874 0.10752442 0.053264413 -0.047133323 0.047983926 -0.017319389 0.113455646
0.01573883 0.057941392 -0.066460274 -0.111232944 0.012379673 -0.016617114 0.03156747 0.117978826
0.043525066 -0.037496172 0.093301035 -0.030253986 0.09380121 0.105789065 0.037790142 -0.012707397
0.019220704 0.083214715 0.012946426 -0.07167307 -0.029048087 0.010206799 0.0058116717 -0.08271941
0.008022646 0.0681246 0.11080838 -0.04570348 0.055561136 0.05504787 -0.04805418 -0.06458539
-0.093573816 0.018311298 -0.11985647 -0.035323944 0.10377359 -0.120855495 0.06674044 0.0641064
-0.060754173 0.06794621 -0.01329701 -0.11603855 -0.023153298 0.1229422 0.062263075 -0.046315968
-0.042693865 0.11604135 -0.08833449 -0.056457795 -0.014769496 -0.049638204 0.11090848 0.04022339
-0.047303922 -0.043960277 -0.030350024 -0.0757999 0.050864056 0.1214036 -0.021108659 -0.07783455
-0.06651278 0.055488933 0.028938523 0.021105843 0.06665602 -0.009599297 -0.104007356 -0.107918836
-0.119478464 0.1258947 -0.031823795 0.06300772 -0.0859108 -0.032242667 -0.0120740095 0.09650754
-0.10406425 -0.054158483 -0.001282879 0.0859503 -0.038776744 0.06467328 0.07572184 0.0677091
0.048972968 0.1002141 -0.09119538 -0.11008553 0.07960179 0.106890276 -0.119653724 -0.10901613
-0.030894315 0.12457801 0.024335658 -0.1233169 0.060650542 -0.11803056 0.0036753714 0.10103863
-0.08704324 -0.12399037 -0.03022274 -0.097346514 -0.082726605 0.084462404 -0.10099125 0.015714653
0.033828482 0.019962717 -0.031658433 0.03685455 -0.031363368 -0.041023247 -0.049624596 -0.06168247
-0.039003972 0.11739225 0.07825328 0.05796695 -0.016621556 0.08330713 0.0067004 0.09051956
-0.04928828 -0.001198478 0.0992279 -0.05318092 -0.04047635 0.101092175 -0.0840371 -0.062324908
-0.025290407 -0.054133795 -0.039528694 -0.020957014 -0.0012807089 -0.06966846 -0.016848937 -0.0932796
-0.059420817 0.07716404 -0.093375124 0.07412335 -0.087721534 0.09110567 0.02247662 0.120150335
0.11051714 -0.06785335 0.091265514 0.101890914 0.103757314 -0.08323744 0.00972296 -0.03336528
0.09928917 0.11039929 -0.0996425 0.077167876 -0.08380387 -0.11511536 -0.09504214 -0.107722975
0.02935528 0.064417705 -0.09700941 0.0046778726 0.0069313254 0.018202107 -0.09738921 0.0706212
-0.11989972 0.0096966745 0.003698823 0.04283315 -0.08102659 0.11041488 0.055309422 0.11705334
00000000: 6e3b 98bc c4ce 9f3d 9a7b 8dbd 1983 893c
00000010: 9f3c bebd 3b65 823c d369 ec3d b179 533d
00000020: 850f 6fbd aa22 8b3d 9f22 fd3d 8619 04bd
00000030: 2efa ba3c 2c19 06bd 7053 ad3d 0427 083d
00000040: c2d1 f53d af47 5ebd 9503 afbc 3152 aa3c
00000050: 2f64 103d 24ca dfbd 7dee ce3d 9e4f 3dbd
00000060: ae25 753d 8dc1 5ebc a718 933d 3529 6d3d
00000070: a9cc 8dbd d8f6 62bd e8d6 ccbc 61b5 c4bd
00000080: 4599 fa3d 6a62 0ebd 66eb 333d 2517 fe3c
00000090: a15f 483d ea48 063c 1f16 2f3d dd2e 5bbd
000000a0: ad17 813d c09e f6bd 07d7 913d e6ea 39bd
000000b0: 6a2c b2bd a78c febb 1336 ff3d b57f a7bd
000000c0: 79a1 fcbd bcb6 8e3c b8fd 7ebd b849 803d
000000d0: 8d40 ca3d b092 42bd 9775 c6bc 292c 6d3d
000000e0: b573 9a3c 8962 4a3d d120 773d 0248 1c3d
000000f0: 97b5 873d a269 a1bd 1623 e73c 2c35 5239
00000100: 8718 7f3a 1114 d73d c335 dc3d c92b 5a3d
00000110: df0e 41bd cb8a 443d 64e1 8dbc 6f5b e83d
00000120: b8ee 803c f453 6d3d 531c 88bd 19ce e3bd
00000130: 1dd4 4a3c 9d20 88bc e44c 013d e29e f13d
00000140: 5747 323d 9695 19bd 9d14 bf3d 35d7 f7bc
00000150: d91a c03d f0a7 d83d d6c9 1a3d b032 50bc
00000160: bd74 9d3c 7a6c aa3d 3f1d 543c 55c9 92bd
00000170: 41f6 edbc 6b3a 273c d66f be3b cb68 a9bd
00000180: 6b71 033c e984 8b3d 81ef e23d 9233 3bbd
00000190: 1394 633d e079 613d 76d4 44bd 5845 84bd
000001a0: a1a3 bfbd 9301 963c 4f77 f5bd d7af 10bd
000001b0: 3f87 d43d 1683 f7bd 36af 883d 374a 833d
000001c0: 5ed9 78bd 6227 8b3d b4db 59bc 9fa5 edbd
000001d0: fcab bdbc 1fc9 fb3d 9107 7f3d d0b5 3dbd
000001e0: c3df 2ebd 16a7 ed3d b7e8 b4bd 4a40 67bd
000001f0: c2fb 71bc 6e51 4bbd fc23 e33d 48c1 243d
00000200: c2c1 41bd b10f 34bd 9da0 f8bc fa3c 9bbd
00000210: d456 503d 73a2 f83d 11ec acbc b867 9fbd
00000220: da37 88bd 5d48 633d 7b10 ed3c 29e6 ac3c
00000230: f482 883d 5f46 1dbc cf01 d5bd 8d04 ddbd
00000240: 20b1 f4bd 8aea 003e ab59 02bd 310a 813d
00000250: 00f2 afbd e310 04bd 11d2 45bc bfa5 c53d
00000260: a31f d5bd 49d5 5dbd 4726 a8ba b606 b03d
00000270: 5dd4 1ebd 6d73 843d 0d14 9b3d 12ab 8a3d
00000280: e197 483d 0d3d cd3d a5c4 babd 8674 e1bd
00000290: 4306 a33d 4ae9 da3d 030d f5bd d943 dfbd
000002a0: 1316 fdbc c122 ff3d 935b c73c 928d fcbd
000002b0: b46c 783d 02ba f1bd 80de 703b 57ed ce3d
000002c0: ba43 b2bd aaee fdbd ae95 f7bc 9c5d c7bd
000002d0: 916c a9bd a0fa ac3d 80d4 cebd 04bc 803c
000002e0: bc8f 0a3d da88 a33c 46ac 01bd ccf4 163d
000002f0: e076 00bd fe07 28bd 2943 4bbd c2a6 7cbd
00000300: a1c2 1fbd 596b f03d 4143 a03d c16e 6d3d
00000310: ee29 88bc ee9c aa3d 078f db3b 5262 b93d
00000320: 82e2 49bd 4016 9dba ff37 cb3d 3dd4 59bd
00000330: 87ca 25bd 6a09 cf3d a51b acbd 6748 7fbd
00000340: d42d cfbc 66bb 5dbd d7e8 21bd 0bae abbc
00000350: 76dd a7ba 56ae 8ebd c806 8abc 6009 bfbd
00000360: 3e63 73bd 2e08 9e3d 753b bfbd fccd 973d
00000370: 59a7 b3bd 9c95 ba3d e320 b83c 6111 f63d
00000380: cf56 e23d b2f6 8abd 6ae9 ba3d 2fac d03d
00000390: b77e d43d 6478 aabd 0d4d 1f3c 08aa 08bd
000003a0: 1f58 cb3d 0619 e23d 5e11 ccbd 310a 9e3d
000003b0: 5da1 abbd 9ac1 ebbd 74a5 c2bd dd9d dcbd
000003c0: 7c7a f03c 6eed 833d dfac c6bd d748 993b
000003d0: 2c20 e33b 961c 953c fe73 c7bd d9a1 903d
000003e0: fc8d f5bd cdde 1e3c f467 723b d071 2f3d
000003f0: 45f1 a5bd 3221 e23d 228c 623d a9b9 ef3d

fc1.0.bias f4 [64]
0.018737687 -0.1000234 -0.11739241 0.075806335 0.046875134 0.03341538 0.0414519 0.09501744
-0.009017122 -0.010812571 0.012435182 0.0853258 -0.05440709 0.0026092618 0.087064 -0.117681995
-0.033236932 0.024255807 0.06605676 0.09520515 -0.004887011 0.038435366 -0.0026170493 -0.02935419
0.043113284 0.017850095 0.028804362 -0.024042115 0.04774691 -0.10238569 0.002339793 0.07524344
0.0027771492 -0.121870644 -0.088684 -0.06190242 0.080092855 -0.055493616 0.114490435 -0.09319437
-0.028070893 -0.05657365 0.00022233852 0.105628915 0.03075125 0.046730578 0.063228086 0.07886846
-0.051396944 -0.07457926 -0.010851873 -0.101161376 0.09840947 -0.012877753 0.0069332686 0.028640268
0.097637385 0.065820135 -0.015720122 -0.0041514854 -0.0393966 0.02143353 0.045671906 -0.116483934
00000000: c77f 993c 11d9 ccbd 6f6b f0bd 5a40 9b3d
00000010: 2400 403d 91de 083d 78c9 293d 8198 c23d
00000020: 8dbc 13bc 3627 31bc efbc 4b3c 4bbf ae3d
00000030: f8d9 5ebd 2600 2b3b 9c4e b23d 4203 f1bd
00000040: 7323 08bd 1db4 c63c c448 873d ebfa c23d
00000050: 3823 a0bb 676e 1d3d cd82 2bbb 3378 f0bc
00000060: 8e97 303d 5d3a 923c 20f7 eb3c f8f3 c4bc
00000070: 4492 433d 97af d1bd 3657 193b 3c19 9a3d
00000080: d500 363b 5197 f9bd f59f b5bd 648d 7dbd
00000090: b907 a43d 464d 63bd f679 ea3d b1dc bebd
000000a0: eef4 e5bc c6b9 67bd 8b23 6939 f953 d83d
000000b0: 0cea fb3c 9068 3f3d ba7d 813d ca85 a13d
000000c0: 9a85 52bd 03bd 98bd 0ecc 31bc b22d cfbd
000000d0: e78a c93d 36fd 52bc 7930 e33b ff9e ea3c
000000e0: 1cf6 c73d b5cc 863d 7cc7 80bc 2f09 88bb
000000f0: 545e 21bd 5f95 af3c 7712 3b3d 218f eebd

output_layer.0.weight f4 [1, 64]
-0.11592659 -0.041051436 -0.064766966 -0.07590295 0.0012360852 0.08825714 -0.066412136 0.075738646
0.1070426 0.08934005 -0.083935596 -0.070984595 0.0030772549 -0.07560603 0.15538235 0.1091698
0.07516364 -0.09243281 -0.08051115 0.0803439 0.11881912 -0.11829423 0.061578076 0.117497176
0.029189838 -0.018167228 0.0912156 0.06393709 0.039321188 -0.07443408 0.08228738 -0.05356364
0.02434229 -0.07994156 0.14094105 -0.0061714225 -0.005006082 -0.064700596 -0.086235516 0.0072196764
-0.09756398 -0.10991297 0.07623195 -0.0641905 0.07018218 0.054959465 0.03083876 -0.07489793
0.0030753056 0.033123907 -0.046766188 -0.015388502 0.04631834 0.011644804 -0.06574414 -0.120505534
0.07673234 0.10928062 -0.07653489 0.0043560653 -0.070594594 0.089928746 0.036445685 0.03244206
00000000: ec6a edbd 8d25 28bd 8ba4 84bd 0173 9bbd
00000010: 2304 a23a 29c0 b43d 1603 88bd dd1c 9b3d
00000020: 2739 db3d ebf7 b63d 6de6 abbd 5f60 91bd
00000030: c5ab 493b 56d7 9abd 8d1c 1f3e 6b94 df3d
00000040: 65ef 993d 6a4d bdbd 08e3 a4bd 588b a43d
00000050: 7057 f33d 3f44 f2bd 4b39 7c3d 5ca2 f03d
00000060: 871f ef3c 70d3 94bc 3fcf ba3d 73f1 823d
00000070: 410f 213d e570 98bd 4986 a83d 8c65 5bbd
00000080: 7b69 c73c 67b8 a3bd da52 103e a539 cabb
00000090: 0f0a a4bb bf81 84bd 3f9c b0bd 0993 ec3b
000000a0: a0cf c7bd 0d1a e1bd 7f1f 9c3d 4f76 83bd
000000b0: adbb 8f3d 2d1d 613d 91a1 fc3c 1664 99bd
000000c0: 118b 493b efac 073d e78d 3fbd 0e20 7cbc
000000d0: 4db8 3d3d d9c9 3e3c dda4 86bd 9bcb f6bd
000000e0: d825 9d3d 85ce df3d 53be 9cbd 53bd 8e3b
000000f0: e693 90bd 902c b83d 1248 153d f7e1 043d
