blocksize-2/model_epoch_2_100.pth (torch, 171967 bytes, 9 tensors)

embedding.0.weight f4 [64, 7]
00000000: 492a 4a3e b806 86be 8d50 b5bc ea2a 223d
00000010: d5e9 713e 2869 bcbe 2c28 a7be 5cd7 dc3c
00000020: cf42 e53d b1c3 1abe be92 48bd 01aa 64bc
00000030: bab3 b4be 8396 7cbe 08a8 b1be 230a ff3d
00000040: c3bf 1a3e 7220 243d 1418 853e 3f3f 0fbe
00000050: 0557 a3be 9c13 a2be 442a 6f3e 770f 803d
00000060: f397 f53d 2309 193e 769c be3e 7df6 2abd
00000070: fb54 973b d546 813e 347e 2ebe 4839 1bbe
00000080: 1f3e 9d3e 0636 8f3e 602b 96be 8345 8fbe
00000090: 2704 b6be 2434 fc3d 9002 c33c babb 823e
000000a0: b515 83be 21ac 0bbe f6dc 98bd bbc5 8abe
000000b0: f445 babe 347c 313e 5051 cf3d 5909 92be
000000c0: d1b3 4e3e abd0 5dbe a931 963c d167 393e
000000d0: 2483 04ba 03d0 21be 4bd3 823e f99f a03e
000000e0: 7edb c0be 3032 593e d99f 1e3e cab5 8f3e
000000f0: 4b9c d7bd ca98 bc3d d099 183d 079a 10bd
00000100: 52c4 293e c330 68bd 1ba5 1dbe 51cd d93c
00000110: 519a 6bbe 05b0 71be 1545 30bd a121 96bc
00000120: 41da 393e 7efe 823d cb68 583e e81e 923e
00000130: b5ac 9bbe cac5 bdbe 4562 303e e27c ab3e
00000140: aa91 81be e394 70be cea8 923d 4370 b53e
00000150: e31d 7cbe dc7f bcbe 19d2 81be a79f 5ebc
00000160: 5039 733e 66fa a83e a1e8 6d3d 1284 89be
00000170: 8d9c a4bd ac3b ea3d 4eb4 11bd 81c7 3dbc
00000180: 8aa3 833d 1f49 c43e 4681 2abe 581f 7f3e
00000190: 42a6 9abe cd69 72be f98e 863e c5de bf3e
000001a0: ef5f a4be 430d 9f3e 10c2 a7bd a8ad 7a3e
000001b0: 54f8 56bd dc4d b7be ee27 4b3d 13a3 303e
000001c0: 2771 50be 20a3 aabe 7654 6cbd 649a b13e
000001d0: 8448 a43e 7fb9 893e 51e3 ae3d aefc f7bc
000001e0: b5ca 28be 2b43 67be da39 853e e982 74be
000001f0: a9ed af3e 20b4 a43e e42a 75bc 258b 353e
00000200: d9e5 033d 8dc6 e03d 27e8 2a3e d2e2 043e
00000210: e9ca a2be cde6 3b3d 52e7 453e c0ee 813d
00000220: cbe7 053e aa28 e0bd d4b7 b23a 17fc 9d3e
00000230: 54a9 023d 5274 e9bd 3f6e 893d 3e8f 7bbc
00000240: 0102 1ebe 9a6a aa3e 78f6 d63d 2b0a b43e
00000250: c4c3 7cbd 5f72 bcbe ecdb 6b3d bd3d 343e
00000260: 8efe 983e 6a9e 34be fe96 803e ed5b 2abe
00000270: 95c0 463e 250a d53d 86a1 ac3e 466a 05bc
00000280: 0c40 bb3e 8003 c53d 8f45 8b3e 9886 bcbe
00000290: fa4b a53e b9d0 a9be f1db 84be cad5 3fbd
000002a0: 43d2 933e d336 2b3d 2b00 1bbe 5968 b03d
000002b0: 4214 aabe 5bee 073e 9b0a 283e abae 463e
000002c0: df90 093c 0d25 84be 4683 6d3e d1c7 eebb
000002d0: 8411 b13e 1370 36be 1560 9c3d e1ed aebe
000002e0: 45b5 f0bc 65db 183e 9476 93be 8433 01be
000002f0: 70ba 763e 6cda a63e 5f37 d7bd 7e09 953e
00000300: 8224 b93e 02f1 893e 2d67 0a3e 688d 4a3e
00000310: 2c9a 3c3e 2084 3abe 0d76 393d fb86 553d
00000320: ba1d 093e 9104 0d3e 5cee e2bd eb5b 8c3e
00000330: 2fcf 623e 479b d93d 21f1 c53d cb5f c13e
00000340: 821d 563e e413 8f3e 8a51 aa3e 71ec 9e3a
00000350: d09e 0d3e af56 bfbc 7cc7 3cbe f4a4 93bd
00000360: bfd9 633e ef35 af3e a274 ce3d 98cd 1abe
00000370: 975d 24be bad4 9a3e 7624 313e 4eff 9abc
00000380: 0e67 e33d 4b41 953e 8770 91be 8db0 263e
00000390: f5e2 5dbd 8ee0 813e 5cba 34be 8239 1cbe
000003a0: 0415 8cbe 6852 0e3e 03dc 59be eb19 91be
000003b0: 870d 6f3e 4adf 85be 0431 9e3e 0769 193e
000003c0: 928a 53be 3499 da3d de57 76be 67e3 213e
000003d0: 15bc 9dbe fd4f d93c cda1 92bd d0db a03e
000003e0: e125 c4bd 6a9f 93be 5fc7 683e 8a87 213e
000003f0: c24d f5bc e6b6 bab7 7ecd 403e de95 9dbe
0.19742693 -0.26177 -0.022133136 0.039591707 0.23624356 -0.36798978 -0.32647836 0.02695816
0.11194383 -0.15113713 -0.04896807 -0.013956548 -0.3529337 -0.2466679 -0.3469851 0.12453105
0.15112214 0.040070005 0.25994933 -0.1398897 -0.31902328 -0.31655586 0.23355967 0.0625295
0.11991873 0.14944892 0.37228745 -0.041738976 0.0046182848 0.25249353 -0.1704033 -0.1515857
0.30711457 0.27970904 -0.29329967 -0.2798272 -0.35550043 0.123146325 0.023804933 0.2553385
-0.256025 -0.1363988 -0.0746402 -0.2710398 -0.36381495 0.17332536 0.10122931 -0.28522757
0.20185782 -0.21661632 0.018334227 0.18106009 -0.0005054942 -0.15802006 0.2555183 0.3137205
-0.3766746 0.21210551 0.15490665 0.28068382 -0.105278574 0.0920883 0.037256062 -0.035303142
0.16578797 -0.056687128 -0.15395014 0.02658716 -0.23008086 -0.23602302 -0.04303463 -0.018326582
0.18149664 0.06396197 0.21133725 0.28539205 -0.30405203 -0.37064964 0.17224987 0.33493716
-0.25306445 -0.23494296 0.07161103 0.3543721 -0.24620776 -0.368163 -0.25355604 -0.013587869
0.23752332 0.3300354 0.05808318 -0.26858574 -0.08037672 0.11437163 -0.035572343 -0.01158321
0.06427677 0.38337037 -0.16650876 0.249143 -0.3020497 -0.23673172 0.26280954 0.37474647
-0.32104442 0.31064805 -0.08191311 0.24480307 -0.052482918 -0.3580159 0.049598627 0.17249708
-0.20355664 -0.3332758 -0.057697736 0.34688103 0.32086575 0.26899335 0.08539451 -0.030271854
-0.16483577 -0.22584216 0.260207 -0.23878063 0.34361008 0.32168674 -0.014963839 0.1772886
0.03220162 0.109753706 0.16690122 0.1297715 -0.31795433 0.045874406 0.19326523 0.06344366
0.13076703 -0.10945256 0.0013635107 0.30856392 0.031899765 -0.113991395 0.06710481 -0.015353976
-0.15430452 0.33284456 0.10496229 0.35164008 -0.061710134 -0.36806008 0.05758278 0.17601676
0.2988171 -0.17638555 0.25115198 -0.1663663 0.19409402 0.104023255 0.33716983 -0.008143013
0.365723 0.09619808 0.27201506 -0.36821437 0.32284528 -0.33167055 -0.25949052 -0.046834745
0.28871354 0.04180033 -0.15136783 0.08613653 -0.3321858 0.13274519 0.16410296 0.19402568
0.008396356 -0.25809518 0.23194608 -0.0072870036 0.34583676 -0.1781619 0.07635514 -0.34165862
-0.029383311 0.14927442 -0.28801405 -0.12617308 0.24094558 0.32588518 -0.10508608 0.29108804
0.36160666 0.26941687 0.13515921 0.19780505 0.18418187 -0.18214464 0.045278598 0.05213068
0.13390246 0.13771273 -0.1108062 0.27413878 0.22149347 0.1062532 0.09665132 0.37768397
0.20909694 0.27944863 0.33265334 0.0012124908 0.13830113 -0.023356764 -0.18435472 -0.07209197
0.22251032 0.34220836 0.1008084 -0.1511749 -0.16051327 0.30240422 0.17299065 -0.018920567
0.111036405 0.29151377 -0.28406164 0.16278286 -0.05417152 0.25366634 -0.17649215 -0.15256312
-0.27359784 0.13898623 -0.21275334 -0.28340086 0.23345004 -0.2614692 0.3089677 0.14981471
-0.20658329 0.106737524 -0.24056956 0.15809403 -0.30807558 0.0265274 -0.07159767 0.31417704
-0.09577537 -0.2883256 0.22732304 0.1577436 -0.029944304 -2.2258097e-05 0.18828389 -0.30778402

embedding.0.bias f4 [64]
00000000: 6020 14be e2d3 ba3d 6bd0 eb3d 12e6 4abe
00000010: 7ddc b0be 2722 56be e2b3 95be 4942 533d
00000020: 5478 d8bd 3be6 bbbe bd82 0f3e 568d afbe
00000030: 33af cfbd 397e 6d3e 9258 403d 6c09 b5bd
00000040: 00d6 31bd 8a0a d7bd 52ad bc3e a4de 28be
00000050: f0fc 283c c27f 10be 8485 a03e 8b61 9abe
00000060: 0647 b03d e23e 29be 5b6a 5dbe 15db 7c3e
00000070: b2cb 33be 95b6 a8be 9ca3 90be 1f8f b0be
00000080: c4ad f73d 5d65 1fbe 0792 013e ad4e 9bbe
00000090: 6c3d 683e fbba 85be a19a 58be a8d5 603e
000000a0: d0a4 483d ef00 8cbe 62ed 6bbd 6243 6fbe
000000b0: 394b 19be 4d7d b1be bb57 b23e 21d9 3ebe
000000c0: 5281 5bbe cc60 77be 1477 8dbe fde4 8b3e
000000d0: 93a3 773e 0a59 13bd 0465 f63c a382 26be
000000e0: 3561 b13e b3b1 b2be 8177 a43e 76e7 2b3e
000000f0: 56e4 8ebe 4307 c43d bf47 7ebe 8e79 b9bc
-0.14465475 0.09122445 0.11514362 -0.19814327 -0.3454322 -0.20911466 -0.29238802 0.051576886
-0.10569826 -0.3669909 0.14014716 -0.34287518 -0.101408385 0.23192681 0.046959467 -0.08839688
-0.043416977 -0.10500057 0.36850983 -0.1649118 0.010314211 -0.14111236 0.31351864 -0.30152544
0.08607297 -0.16527894 -0.21622603 0.24692948 -0.17558172 -0.329518 -0.28249824 -0.34484193
0.1209369 -0.15566011 0.12653361 -0.30333462 0.2267968 -0.26119217 -0.21152736 0.21956503
0.048985302 -0.27344462 -0.057599433 -0.23365548 -0.14970101 -0.3466591 0.34832558 -0.18637516
-0.2143605 -0.24158019 -0.27629912 0.27323142 0.24183492 -0.035973586 0.030077465 -0.16260771
0.34644476 -0.349012 0.32122424 0.16787514 -0.27908581 0.095716976 -0.24832056 -0.02264097

layernorm.weight f4 [259, 64]
00000000: fe03 803f 52ff 7f3f 0000 803f d901 803f
00000010: dfff 7f3f 5b00 803f 5813 803f 9896 7f3f
00000020: 91ca 7f3f 65fd 7f3f 8901 803f 3422 803f
00000030: 8800 803f e250 803f 4bfc 7f3f 69c2 7f3f
00000040: 9efd 7f3f f223 803f d6fe 7f3f 5283 7f3f
00000050: b0de 7f3f 7a04 803f fdeb 7f3f 67df 7f3f
00000060: 7ed7 7f3f ffff 7f3f 0bdf 7f3f ebc9 7f3f
00000070: 52f8 7f3f f339 803f 9198 7f3f a6ff 7f3f
00000080: 0000 803f c001 803f 63ff 7f3f a501 803f
00000090: 0700 803f 58ff 7f3f d901 803f edf2 7f3f
000000a0: d921 803f 6a41 803f fffe 7f3f 2701 803f
000000b0: f2e1 7f3f 6dbf 7f3f d203 803f 32fe 7f3f
000000c0: 1aff 7f3f fde9 7f3f 0c00 803f e8ff 7f3f
000000d0: 80d5 7f3f f8ff 7f3f 5101 803f 6f04 803f
000000e0: 2bf2 7f3f 4300 803f ad11 803f faff 7f3f
000000f0: ca01 803f 8ffe 7f3f 7eff 7f3f 0b00 803f
00000100: b7ff 7f3f 7100 803f 0f02 803f e705 803f
00000110: 0600 803f 4700 803f 4704 803f 42f8 7f3f
00000120: b7e7 7f3f 7efe 7f3f ab00 803f 7f04 803f
00000130: 4200 803f e601 803f c0fd 7f3f d2f6 7f3f
00000140: 95fa 7f3f a4ff 7f3f 5f06 803f 49e6 7f3f
00000150: 7cf8 7f3f 7300 803f a5f6 7f3f 11de 7f3f
00000160: a6f7 7f3f 5d00 803f 42f8 7f3f 05f5 7f3f
00000170: 36ff 7f3f 7605 803f 74f4 7f3f 83ff 7f3f
00000180: 5a00 803f 4a01 803f fff9 7f3f 0700 803f
00000190: 0000 803f 5b04 803f 1101 803f c2f9 7f3f
000001a0: 0e06 803f 1808 803f 2200 803f 9801 803f
000001b0: 4cf1 7f3f 58fc 7f3f 8c00 803f e101 803f
000001c0: ebfd 7f3f 16fc 7f3f 1d01 803f 0000 803f
000001d0: b5f5 7f3f 5301 803f 0601 803f 5102 803f
000001e0: bdf7 7f3f 0e00 803f 2501 803f f5ff 7f3f
000001f0: 2704 803f 3700 803f d3ff 7f3f b7fe 7f3f
00000200: d302 803f a4ff 7f3f 2f00 803f 6302 803f
00000210: f0ff 7f3f 5500 803f bc12 803f 839a 7f3f
00000220: 2ac4 7f3f cdfd 7f3f 4f01 803f ae22 803f
00000230: 6500 803f 114d 803f 77fd 7f3f ecc5 7f3f
00000240: 8b00 803f cd24 803f af00 803f da83 7f3f
00000250: d3e2 7f3f 9c03 803f 08ea 7f3f c9d8 7f3f
00000260: b9db 7f3f 0500 803f e2e1 7f3f a7d0 7f3f
00000270: 3cfa 7f3f 3a38 803f 759d 7f3f acff 7f3f
00000280: 0400 803f 3901 803f fbfe 7f3f 1d01 803f
00000290: 0400 803f 6c00 803f a501 803f d3f4 7f3f
000002a0: 4b20 803f 0343 803f 87ff 7f3f 0601 803f
000002b0: a2d9 7f3f e7bf 7f3f 1a02 803f c6ff 7f3f
000002c0: a7fe 7f3f 9de3 7f3f 2900 803f ecff 7f3f
000002d0: 13d5 7f3f 1a00 803f 1201 803f 8703 803f
000002e0: 2ef2 7f3f 3700 803f 8612 803f faff 7f3f
000002f0: 5400 803f 53ff 7f3f a0ff 7f3f 0100 803f
00000300: b1ff 7f3f 6b00 803f b901 803f ea04 803f
00000310: 0200 803f 4600 803f 2103 803f 7cfb 7f3f
00000320: 77e1 7f3f b2fe 7f3f 8c00 803f e201 803f
00000330: 2f00 803f 4500 803f 70ff 7f3f b4fc 7f3f
00000340: 63fb 7f3f c0fd 7f3f cd05 803f 63eb 7f3f
00000350: 6efb 7f3f 4800 803f 3cf8 7f3f 50dd 7f3f
00000360: 29fa 7f3f 5100 803f 78fb 7f3f a1f3 7f3f
00000370: 77ff 7f3f 9403 803f b5fb 7f3f 8fff 7f3f
00000380: 4500 803f c700 803f 5ffc 7f3f 0700 803f
00000390: 0000 803f 1204 803f 2001 803f e3f9 7f3f
000003a0: d602 803f 4c07 803f 2d00 803f 4601 803f
000003b0: 36f2 7f3f 2dfd 7f3f 2f00 803f 9101 803f
000003c0: e9fe 7f3f a0ff 7f3f f400 803f 0000 803f
000003d0: 3ffa 7f3f 4101 803f e000 803f 7801 803f
000003e0: 3bfa 7f3f 0d00 803f ad01 803f f9ff 7f3f
000003f0: 3103 803f 3b00 803f e2ff 7f3f d6fe 7f3f
1.0001218 0.9999896 1.0 1.0000564 0.99999803 1.0000108 1.0005903 0.9983916
0.99918467 0.99996024 1.0000468 1.0010438 1.0000162 1.0024683 0.99994344 0.9990602
0.99996364 1.001097 0.99998224 0.99809754 0.9994917 1.0001366 0.99969465 0.9995026
0.9993819 0.99999994 0.9994971 0.9991748 0.9998828 1.0017685 0.9984217 0.99999464
1.0 1.0000534 0.99999064 1.0000502 1.0000008 0.99999 1.0000564 0.9998005
1.001033 1.0019963 0.9999847 1.0000352 0.9995414 0.9990147 1.0001166 0.99997246
0.9999863 0.9996641 1.0000014 0.99999857 0.9993515 0.9999995 1.0000402 1.0001353
0.99978894 1.000008 1.0005394 0.99999964 1.0000546 0.999978 0.99999225 1.0000013
0.99999565 1.0000135 1.0000628 1.0001801 1.0000007 1.0000085 1.0001305 0.99988186
0.99962944 0.999977 1.0000204 1.0001372 1.0000079 1.0000579 0.99996567 0.9998599
0.9999173 0.9999945 1.0001944 0.9996076 0.9998853 1.0000137 0.99985725 0.9994822
0.99987257 1.0000111 0.99988186 0.99983245 0.99998796 1.0001667 0.9998238 0.99999255
1.0000107 1.0000393 0.9999084 1.0000008 1.0 1.0001329 1.0000325 0.99990475
1.0001848 1.000247 1.000004 1.0000486 0.99977565 0.9999442 1.0000167 1.0000573
0.99996823 0.9999403 1.000034 1.0 0.99984294 1.0000404 1.0000312 1.0000707
0.99987394 1.0000017 1.0000349 0.99999934 1.0001267 1.0000066 0.9999973 0.9999804
1.0000862 0.9999945 1.0000056 1.0000728 0.99999905 1.0000101 1.0005717 0.9984514
0.999087 0.99996644 1.0000399 1.0010583 1.000012 1.0023519 0.9999613 0.9991138
1.0000166 1.0011231 1.0000209 0.99810565 0.9995548 1.0001101 0.9996648 0.9994016
0.99944645 1.0000006 0.99954045 0.99927753 0.999912 1.0017159 0.99849635 0.999995
1.0000005 1.0000373 0.99998444 1.000034 1.0000005 1.0000129 1.0000502 0.9998295
1.0009855 1.002045 0.9999928 1.0000312 0.99941456 0.99902195 1.0000641 0.99999654
0.99997944 0.99956685 1.0000049 0.9999988 0.999345 1.0000031 1.0000327 1.0001076
0.9997891 1.0000066 1.0005653 0.99999964 1.00001 0.9999897 0.9999943 1.0000001
0.9999953 1.0000128 1.0000526 1.00015 1.0000002 1.0000083 1.0000955 0.9999311
0.9995341 0.9999801 1.0000167 1.0000575 1.0000056 1.0000082 0.9999914 0.9999497
0.9999296 0.99996567 1.000177 0.99968547 0.99993026 1.0000086 0.9998815 0.9994707
0.9999109 1.0000097 0.99993086 0.99981123 0.99999183 1.0001092 0.9999345 0.99999326
1.0000082 1.0000237 0.9999446 1.0000008 1.0 1.0001242 1.0000343 0.9999067
1.0000865 1.0002227 1.0000054 1.0000389 0.9997896 0.9999569 1.0000056 1.0000478
0.9999834 0.9999943 1.0000291 1.0 0.9999122 1.0000383 1.0000267 1.0000448
0.99991196 1.0000015 1.0000511 0.9999996 1.0000974 1.000007 0.9999982 0.99998224

layernorm.bias f4 [259, 64]
00000000: 6a0d 9538 ce44 b638 a443 a638 7bb5 0139
00000010: 7747 8636 b71a ccb8 83a7 c638 9818 beb8
00000020: 49c5 dab8 32a1 3cb8 6447 1239 8ede 9e38
00000030: db31 0a37 7a02 0f39 1699 c8b8 642d e8b8
00000040: d331 83b8 988b b138 fcb1 1a39 296d b9b8
00000050: a9fa 05b9 b3c4 aa38 e699 97b7 c8e4 04b9
00000060: 230a 8cb8 266c 9337 1203 80b8 74e4 6fb8
00000070: 5690 7eb8 edf0 f738 c71d 08b9 166d 4f38
00000080: 0664 ec36 0936 9538 a74e bbb8 e4de c737
00000090: 8962 12b8 2ecc 9538 afd8 e938 43cc ddb7
000000a0: 7fdc 2139 ddd8 0b39 98ad ecb8 3a41 6738
000000b0: 17a3 91b7 e6be a1b8 900d f737 8cd9 9d37
000000c0: f1db 1537 47be 3cb8 4d72 db38 431b 5f36
000000d0: 3d71 54b8 cc5a be37 e3e0 f838 d6ce 3139
000000e0: 808c 40b8 b87b d4b8 9656 9938 af78 7a37
000000f0: 409f 8138 8e8d f3b8 199c 4eb8 1ae7 25b8
00000100: c54d 5e38 6f2b 9638 1500 8438 6bd5 bc38
00000110: 990f f737 6742 81b8 2790 0738 c7d5 8fb8
00000120: 6ca1 66b8 a99e e2b7 240f a238 2e03 3c38
00000130: 6da0 23b7 5bcb 9e38 f7cd 82b8 d4a5 c4b8
00000140: 8e57 73b8 50f2 6038 5d5e c838 1dea abb8
00000150: 9f86 d7b8 b476 6f38 b2c5 3cb8 b9d3 a6b8
00000160: 589c 7cb8 ee7f b837 a84b 69b8 ed0d 78b8
00000170: 27b3 74b8 3884 b638 95c9 dab8 155c 8138
00000180: 0ddf a937 46d3 4538 ea19 98b8 e66b 8d36
00000190: 5137 ebb7 a888 8738 91e8 9738 c06a 21b8
000001a0: 74e3 a838 7818 b638 1d70 b0b8 f145 1e38
000001b0: a7b2 10b8 fea1 84b8 a594 c333 47ae 8b37
000001c0: fc70 1637 dbd1 0cb8 5dc7 9538 d22f 22b8
000001d0: cee2 8cb8 698e 2238 5ece 9338 238b cd38
000001e0: c840 91b8 eafd 93b8 3c3b f037 9c91 9a37
000001f0: f530 cb37 bd92 90b8 8243 58b7 d1a5 c1b7
00000200: 1877 9b38 8bfc ad38 cc1f ac38 91e4 0339
00000210: 6bcf 6036 c839 c7b8 ad32 bd38 2e9a c1b8
00000220: 6c71 d9b8 2ec1 5bb8 5a22 1139 1327 9c38
00000230: d2f4 1c37 fa87 0d39 6585 d4b8 5584 edb8
00000240: df4f 89b8 71eb bc38 edf8 1b39 b2d5 c4b8
00000250: 561f 07b9 3004 b038 8b1d b5b7 cdd4 05b9
00000260: 728c 96b8 d181 9937 b2af 89b8 5dd1 75b8
00000270: 40ba 7fb8 710b fd38 ed7a 07b9 da69 6f38
00000280: 4044 9336 2e4a a538 7c4d cab8 d27e a337
00000290: c161 f9b7 c19d 9d38 edee e438 f586 0db8
000002a0: f229 2139 ba7a 1239 1eb0 f7b8 517d 7038
000002b0: cd3a c3b7 49f2 aab8 5bf6 af37 d841 cf37
000002c0: a42e 2a37 b382 4db8 c86b d438 36d8 9235
000002d0: 4715 70b8 117e c437 c9cb f138 da1f 3239
000002e0: 9577 5fb8 ea90 dbb8 9bcc 9238 c220 7537
000002f0: d0d9 7b38 e81d eeb8 6851 48b8 89a2 1fb8
00000300: 8804 9b38 c803 9238 f942 8038 61e5 e638
00000310: da52 4d37 715c 89b8 2506 4c38 5f60 a3b8
00000320: 2697 a9b8 f82d 2ab8 1789 ca38 185e 4038
00000330: fbfe eeb5 567c a038 635f abb8 6dd8 d4b8
00000340: 8094 65b8 5ac1 7338 e553 f838 18a0 abb8
00000350: 851f d2b8 a85a 7f38 0f1d 4eb8 e889 d0b8
00000360: 1fac 75b8 9415 c837 9a8e 62b8 b2eb 90b8
00000370: b71a 94b8 b7ff c638 c7e4 edb8 54f0 9938
00000380: 03ea 8737 5235 7738 1886 bab8 4bda 5336
00000390: 4437 cbb7 4bc3 9f38 be1e aa38 666e 68b8
000003a0: 5083 cd38 0ca2 d138 7c90 b6b8 388f 7838
000003b0: b403 31b8 4b91 92b8 0b31 0135 be3e e237
000003c0: 1d69 27b5 d81a 2bb8 3484 9a38 c743 13b8
000003d0: 98c6 8cb8 a8c4 1838 61ef ab38 cff4 0039
000003e0: f9ca a9b8 ae9d 9cb8 17c6 2d38 e101 8137
000003f0: b534 2038 44a4 a7b8 e2c8 61b7 e456 eeb7
7.107372e-05 8.691252e-05 7.928096e-05 0.00012370005 4.001831e-06 -9.732454e-05 9.472577e-05 -9.064487e-05
-0.00010431797 -4.4972818e-05 0.0001395024 7.575481e-05 8.237049e-06 0.00013638465 -9.565258e-05 -0.00011071077
-6.255847e-05 8.466019e-05 0.00014752889 -8.84182e-05 -0.00012777247 8.14287e-05 -1.8072267e-05 -0.00012673729
-6.677608e-05 1.7574126e-05 -6.1040875e-05 -5.7194804e-05 -6.0692742e-05 0.00011822754 -0.00012981064 4.945424e-05
7.0449923e-06 7.1149385e-05 -8.931505e-05 2.382644e-05 -3.490088e-05 7.142905e-05 0.00011150666 -2.644037e-05
0.00015436298 0.00013336861 -0.00011285691 5.513544e-05 -1.7361292e-05 -7.712636e-05 2.945101e-05 1.8817162e-05
8.932301e-06 -4.4999902e-05 0.00010464024 3.3245458e-06 -5.06502e-05 2.2692046e-05 0.0001186745 0.00016957088
-4.5907218e-05 -0.00010131992 7.3117364e-05 1.492926e-05 6.180862e-05 -0.000116135096 -4.9259605e-05 -3.9554296e-05
5.3001353e-05 7.1606475e-05 6.294266e-05 9.004291e-05 2.9451958e-05 -6.163568e-05 3.232076e-05 -6.8585905e-05
-5.498661e-05 -2.7015181e-05 7.727582e-05 4.4825654e-05 -9.752909e-06 7.571905e-05 -6.237247e-05 -9.376896e-05
-5.8017256e-05 5.3631433e-05 9.55432e-05 -8.1975224e-05 -0.00010277074 5.709259e-05 -4.500681e-05 -7.954933e-05
-6.022709e-05 2.1994081e-05 -5.562199e-05 -5.9140777e-05 -5.8340982e-05 8.703064e-05 -0.000104325976 6.168351e-05
2.0250236e-05 4.7165224e-05 -7.252752e-05 4.2146885e-06 -2.8039942e-05 6.462756e-05 7.24356e-05 -3.848481e-05
8.053231e-05 8.682994e-05 -8.413217e-05 3.7735274e-05 -3.449866e-05 -6.324424e-05 9.1074334e-08 1.6651245e-05
8.967003e-06 -3.3574044e-05 7.142008e-05 -3.8668346e-05 -6.717966e-05 3.875644e-05 7.047945e-05 9.801078e-05
-6.926205e-05 -7.0568014e-05 2.8637813e-05 1.8426035e-05 2.4222283e-05 -6.893787e-05 -1.2890321e-05 -2.3084607e-05
7.413159e-05 8.2963226e-05 8.207522e-05 0.00012578281 3.3499334e-06 -9.499822e-05 9.0216614e-05 -9.231675e-05
-0.00010368493 -5.239358e-05 0.00013841075 7.445938e-05 9.355326e-06 0.00013497463 -0.000101337944 -0.000113256894
-6.547546e-05 9.008393e-05 0.00014874684 -9.385812e-05 -0.00012886277 8.393114e-05 -2.1590638e-05 -0.00012763143
-7.178717e-05 1.8299472e-05 -6.565395e-05 -5.8607537e-05 -6.0970197e-05 0.00012066111 -0.00012920397 5.7080622e-05
4.3888867e-06 7.88163e-05 -9.646543e-05 1.949017e-05 -2.9728633e-05 7.515727e-05 0.000109163906 -3.374271e-05
0.00015369782 0.00013969364 -0.00011810682 5.733717e-05 -2.3273193e-05 -8.151361e-05 2.0976344e-05 2.4706984e-05
1.0143649e-05 -4.8997532e-05 0.000101290236 1.0940773e-06 -5.7240275e-05 2.3423725e-05 0.000115297335 0.00016987268
-5.3278713e-05 -0.00010469726 6.999933e-05 1.4610765e-05 6.0045917e-05 -0.00011354295 -4.775953e-05 -3.8059927e-05
7.39182e-05 6.962527e-05 6.11599e-05 0.0001100998 1.2238243e-05 -6.5498876e-05 4.8643113e-05 -7.790396e-05
-8.0867016e-05 -4.057397e-05 9.6576456e-05 4.5864e-05 -1.7806591e-06 7.652554e-05 -8.1716826e-05 -0.0001014926
-5.4736156e-05 5.8115787e-05 0.00011841188 -8.183735e-05 -0.00010019451 6.0881168e-05 -4.914129e-05 -9.9439e-05
-5.8572852e-05 2.3851906e-05 -5.4015407e-05 -6.910357e-05 -7.062166e-05 9.489006e-05 -0.00011343654 7.340373e-05
1.6202224e-05 5.8939047e-05 -8.894148e-05 3.1568513e-06 -2.422522e-05 7.618087e-05 8.111958e-05 -5.5415927e-05
9.7996206e-05 9.99608e-05 -8.7053486e-05 5.926119e-05 -4.2203537e-05 -6.9888854e-05 4.812761e-07 2.6970516e-05
-6.236531e-07 -4.0794577e-05 7.367917e-05 -3.5110654e-05 -6.712711e-05 3.6422774e-05 8.198503e-05 0.0001229823
-8.0963546e-05 -7.46803e-05 4.14309e-05 1.5378873e-05 3.819606e-05 -7.9937774e-05 -1.3457817e-05 -2.8412273e-05

fc0.0.weight f4 [64, 64]
00000000: 1f6e cbbd dad8 9d3d a662 d83d 187a 95bd
00000010: ea1a a73d a45f f73d 0bd1 cbbc 673b dcbd
00000020: 90e3 b23c 9316 813d 734b ab3d 552b 823d
00000030: ad44 a8bc 0910 6c3d effb 8dbd 5781 e43c
00000040: b862 0cbd 78d5 99bd ec09 55bd f3c3 80bd
00000050: a337 f43c 3d61 03bd fbb7 573c 3d45 2bbd
00000060: 003a 84bd 6970 b23d bded e03c 9402 5d3d
00000070: 9c2b 833d faf8 c53c 7b8a 1fbd 2fdc df3d
00000080: f2b9 63bd 1a86 4fbd 84a4 2cbd 75d8 963d
00000090: a072 eebd 8f98 503c 54d4 f03d 2752 f8bd
000000a0: 56f7 dabd 2ec3 ed3d c447 a7bd 46fd a1bd
000000b0: 3b18 25bb 169b 2fbd 4c09 a03d 8216 6e3d
000000c0: eb1b e5bd ad27 64bd bd47 51bc 32fd d43d
000000d0: f3a3 b1bd 7934 cabc 2292 e3bd 2cf4 e3bd
000000e0: 9793 94bc d981 b7bd 337a bfbc d9b6 b53d
000000f0: 6171 53bd 2a08 b53d ebfc 20bd bb61 97bc
00000100: 3e56 283d f0d8 fa3d 236e 8e3d 994f c33d
00000110: 4aa6 a23c b466 51bd af78 923d 1dba b33b
00000120: 43ce 643d 78a2 cdbd c587 00bb d081 4c3d
00000130: 16d4 463d ddc6 223d 4633 8b3d 6deb 0f3c
00000140: df06 41bd 17d5 e2bd 77b2 ee3d 2f13 eabd
00000150: 2e28 17bc cfa2 f3bb 2e27 2cbd 18b5 6a3c
00000160: e2d1 dcbc a6a7 263d b555 f6bd 6942 91bd
00000170: 953f 6b3d ad0e 533d 490b 0dbc e4d6 e43d
00000180: b61e 5cbd 7f4c b7bd b19e 9e3d 0e6c bebd
00000190: 9d18 c2bd 7d07 8b3d 059f b9bd f874 4cbd
000001a0: ddd0 10bd b5e5 fc3c 6d02 03bd 64a0 833d
000001b0: 140f a53c abba f7bc 258d 7f3c 3bad b83d
000001c0: 7f18 363c a8ce 863d 923e 51bd 743b fabd
000001d0: 9a42 80bd aa9a ebbd 90fa dabd 6675 8dbd
000001e0: 3774 13bd 3829 c33d cedd 7fbd 19b3 bb3c
000001f0: beeb b33c 6f4b ea3d 1c37 de3d 07a1 4c3d
00000200: 551f bfbd 6c30 823d 1001 73bd a010 ef3d
00000210: 45f8 b4bd 7c11 5fbd 30f6 51bd b495 fb3c
00000220: a691 adbd b6f6 3ebd cf9f b13d 10a5 ea3d
00000230: c709 81bd bb37 a03c b127 d6bd 3d8c bbbd
00000240: a690 21bd acaa 713d 125e f83d 106e 033d
00000250: 711b 9abd 43c4 ae3d abb1 75bd e390 1a3d
00000260: ad76 babd 9fcc 473d 8b9d 473d 2cc0 c8bd
00000270: 26af f7bd d8b2 c1bd b647 a83d 1fb8 c23d
00000280: 7610 fabb c35c 98bd fbbd dabb a4ee d13d
00000290: 2678 aebd 6158 c8bd c4a0 4ebc a0fd e0ba
000002a0: feb8 353d bcde 823d 6aa2 50bd 9074 6fbd
000002b0: c345 f3bd 5400 ac3d b5b2 6f3d db1c e6bd
000002c0: ff50 813c 1b75 b23d d7e6 a9bb b978 993c
000002d0: 8a36 a53d e244 e0bd dde0 f93d e543 e7bc
000002e0: c72e d9bd 391a 97b9 87d3 ab3d 95b9 46bd
000002f0: e878 01bc d4ca 6c3d bb1e 083d 58a1 f93d
00000300: bdf5 b4bd 9399 a0bd 68dc b43d c8bb d13b
00000310: 4c78 3cbd 6d3f babd e606 673d 59a9 95bd
00000320: 5a76 e93d 1a86 303c a600 ad3d f627 f0bd
00000330: e45e df3d ce28 bdbd 7dd1 5d3d 1dc7 293d
00000340: e07b ad3d 78e4 01bd 20d6 c93a 9ded 383d
00000350: 257e 9d3c d9b3 e23c b8c8 513d 8eb4 fd3d
00000360: 96c7 373d 70e8 943c 127d e53d 9f25 d2bd
00000370: b537 8b3c 4eea cebd 6ac7 f63d b4e5 a53d
00000380: 2b75 083d 601c f7bc 5fbd a3bb 8df3 f73d
00000390: 00d8 cf3d dfc3 4b3d bb49 9bbd 68e2 24bd
000003a0: 44e9 8ebc 8cda 903d 65e5 0c3d 61fe b3bc
000003b0: 2fb5 6fbd 24f4 9d3d e8bd d43d f43c 62bd
000003c0: 4252 bebd 0ea9 16bd 58e6 b4ba 309b d83d
000003d0: e1ec bf3c ac58 533c 11b5 cabc 12e4 b0bd
000003e0: dfb3 f93d 7e07 babd dbb2 7dbd c58b f73d
000003f0: 6e46 a5bc 4e6e a1bd 2490 e6bd de0c e7bd
-0.09933113 0.07707377 0.10565691 -0.07298678 0.0815943 0.12078789 -0.024879953 -0.107535176
0.021837026 0.06303134 0.08364 0.06355921 -0.02054056 0.05763248 -0.06932818 0.027893705
-0.034273833 -0.07511419 -0.052011415 -0.06287374 0.029811686 -0.032075156 0.013166423 -0.041814078
-0.06456375 0.08712847 0.027457112 0.053957537 0.06404802 0.024166573 -0.038950425 0.109306686
-0.055597253 -0.050665 -0.04214908 0.07365505 -0.11642957 0.012731685 0.117592484 -0.12125044
-0.10691707 0.11609493 -0.08167985 -0.07909636 -0.0025191444 -0.04287251 0.07814273 0.058126934
-0.111869656 -0.0557019 -0.012773451 0.10399856 -0.08673849 -0.024683224 -0.11111857 -0.111305565
-0.018136783 -0.08960313 -0.023373699 0.08872766 -0.0516218 0.08839448 -0.0393037 -0.018479219
0.041097872 0.12248409 0.06954601 0.095366664 0.019854683 -0.051123336 0.07151925 0.005484833
0.05586077 -0.10040754 -0.0019612175 0.049928486 0.048542105 0.039740432 0.06796889 0.008784157
-0.047125693 -0.110758 0.11655133 -0.1142944 -0.009225888 -0.00743518 -0.042029552 0.014325403
-0.026955549 0.040687226 -0.12028066 -0.07092745 0.057433683 0.051527668 -0.008608648 0.111738
-0.053740226 -0.08950137 0.07745112 -0.092979535 -0.09477351 0.06788538 -0.09063534 -0.049916238
-0.035355438 0.030871252 -0.031984735 0.064270765 0.020148791 -0.030240377 0.015597616 0.09017416
0.011114239 0.06582385 -0.051085062 -0.12218371 -0.06262703 -0.11504109 -0.10692322 -0.069071576
-0.035999503 0.09529346 -0.06246739 0.022912549 0.021962997 0.11440169 0.10850355 0.049958255
-0.09332148 0.06356892 -0.059327185 0.11673093 -0.08836416 -0.054460034 -0.051260173 0.030711032
-0.08475046 -0.046622 0.08673059 0.114572644 -0.06300693 0.019557824 -0.10456789 -0.09157608
-0.039444588 0.059000656 0.121273175 0.032087386 -0.07524765 0.08533528 -0.05998389 0.03773583
-0.09104667 0.048779126 0.04873423 -0.09802279 -0.12093954 -0.0945794 0.08216803 0.095077746
-0.007631357 -0.07439568 -0.0066754795 0.10250595 -0.0851901 -0.09782482 -0.012611572 -0.001716543
0.044365875 0.063901395 -0.05093614 -0.058460772 -0.1187854 0.083985 0.058520038 -0.112359725
0.015785692 0.08713742 -0.005184989 0.018734323 0.08067043 -0.10950638 0.122010924 -0.028230617
-0.10604625 -0.00028820502 0.08389955 -0.04851683 -0.007902361 0.05781062 0.03323243 0.12188977
-0.08835933 -0.07841792 0.08831102 0.006400559 -0.04601316 -0.09094129 0.056403063 -0.07307691
0.11399527 0.01077416 0.08447389 -0.11726372 0.10906771 -0.092362985 0.05415486 0.041449655
0.08470893 -0.031712025 0.0015398897 0.04514848 0.01922519 0.027673649 0.05121681 0.12387954
0.044868074 0.018177241 0.11205496 -0.10261082 0.016994337 -0.10103284 0.12049754 0.08100453
0.033314865 -0.030164897 -0.00499694 0.121070005 0.101486206 0.049747344 -0.07582422 -0.04025498
-0.017445214 0.070729345 0.034398455 -0.021971883 -0.0585224 0.07712582 0.10387784 -0.05523391
-0.09293033 -0.036782317 -0.0013801558 0.10576475 0.023428382 0.012899559 -0.024744542 -0.08637251
0.12192511 -0.0908346 -0.061938148 0.12087206 -0.020175185 -0.07882367 -0.112579614 -0.11281751

fc0.0.bias f4 [64]
00000000: 92e7 453d 07f6 c2bd 9a28 343d 6848 9cbb
00000010: 51d3 b2bd dd34 9f3d 22fe ef3d 3a8a 49bd
00000020: 2a38 31bd f5d8 83bd b008 313d 3cc1 5cbd
00000030: f9ed 48bd fb5b cf3c 5ae8 ba3d 6f7d a1bd
00000040: 0f8f 4c3d 562b 8e3d 04b2 e4bc b1ca e13d
00000050: 561f 52bd 1552 15bc 5b88 8bbb 0c6b fb3d
00000060: be49 733c 9cc5 fabd cd74 b83d 3174 e43c
00000070: 41f6 7fbc 8a0f 27bd ea07 aa3d 5696 f53b
00000080: 37f6 e43c 052f c13d f298 a3bd 4d11 1b3d
00000090: e6cd f7bc 2555 cd3d 4029 d73d ea2f bebd
000000a0: 3794 043d 8b44 95bd faa2 363d 8fdd d7bd
000000b0: 97a7 9a3d 4824 e6bd 876c ea3c cf21 a73c
000000c0: 8506 d9bd 174d 86bc 43c9 883d 09f6 fa3d
000000d0: 3eb9 afbd b528 f63c e022 f63c fa25 f73d
000000e0: 1f65 2e3d a3bf 8c3d 1d4e e63d cb32 ac3d
000000f0: 81d9 813c 181a cb3a 8fb5 94bb 8d1a f9bd
0.048316546 -0.09519582 0.043984033 -0.0047693737 -0.08731712 0.07773755 0.11718394 -0.04920409
-0.043266453 -0.06437866 0.043221176 -0.05389522 -0.049055073 0.025312414 0.09126349 -0.07885253
0.04994112 0.069418594 -0.027916916 0.110249884 -0.051299416 -0.009113808 -0.004258198 0.12276277
0.0148491245 -0.12244722 0.09006653 0.027887436 -0.015622676 -0.040786304 0.08302291 0.007494728
0.027949436 0.094327964 -0.079881564 0.037858296 -0.030249547 0.10026006 0.10505915 -0.09286483
0.03236791 -0.07288464 0.04458902 -0.10540306 0.075514965 -0.11237389 0.028616203 0.020401863
-0.105969466 -0.016394181 0.066790126 0.12253959 -0.08580254 0.030048708 0.030045927 0.1206779
0.042576905 0.06872489 0.11245368 0.084081255 0.015850784 0.0015495447 -0.004538245 -0.12163267

fc1.0.weight f4 [64, 64]
00000000: fee8 96bc 4ae4 9f3d 427a 8cbd d139 8e3c
00000010: 56d7 bdbd 3b4f 833c 67e8 ec3d 2973 553d
00000020: 6e4f 6bbd 8538 8b3d 0703 fe3d 6351 00bd
00000030: bca7 bb3c 942e 03bd 8696 ad3d bc57 093d
00000040: 6765 f63d 5dae 5bbd 8868 aabc 5e3a b23c
00000050: 5d4f 113d 8492 dfbd 6836 d03d beb5 39bd
00000060: b514 773d bcd6 55bc 4930 933d 4392 703d
00000070: 0981 8dbd 5638 5fbd 322e c9bc 8e97 c4bd
00000080: 2092 fb3d 274b 0dbd 7c31 363d 5634 003d
00000090: 7991 483d 132b 113c 3956 2f3d 68f8 59bd
000000a0: 7c91 813d cb73 f4bd f21f 923d 9e3b 38bd
000000b0: 8b67 afbd b1e7 f1bb 777a 003e 6f81 a6bd
000000c0: 74e3 fbbd 53e2 933c 7377 7ebd 9269 803d
000000d0: 48dd ca3d 53ab 3fbd e2e6 c5bc d096 6d3d
000000e0: cab8 9c3c 7e9c 4a3d 47bf 7b3d 1584 1c3d
000000f0: 9096 883d 468e a1bd 66a9 e73c b581 1d3a
00000100: 5d4c 4e3a c8f5 d63d d78e dc3d ae54 593d
00000110: 5009 41bd e4a7 433d 4e34 8ebc 3189 e73d
00000120: a7fd 7e3c 4614 6d3d c0ec 87bd 411e e4bd
00000130: 7667 483c e42b 88bc f4be 013d fc55 f13d
00000140: 5ace 323d 0a70 19bd 7a73 bf3d 291a fbbc
00000150: ccda bf3d 5b37 d83d 50bd 1a3d 911a 53bc
00000160: 8040 9b3c 7587 aa3d 7523 523c 84ba 92bd
00000170: 1a86 efbc 0c9a 203c 26c3 ba3b 11c0 a9bd
00000180: e159 023c 0d43 8b3d 6050 e33d 8bcc 3bbd
00000190: 3b95 623d ee24 623d 6dc6 44bd 4276 84bd
000001a0: 91d3 bfbd be45 933c 58e6 f5bd 6d9c 10bd
000001b0: 4bd0 d33d 8cae f7bd 09ff 873d 8bd5 823d
000001c0: 554b 79bd 5e8d 8a3d 4403 5fbc e80a eebd
000001d0: 6ecd bdbc 6ae3 fb3d 7bb8 7e3d 9d31 3ebd
000001e0: fb3c 2fbd de88 ed3d 2516 b5bd 2ee2 66bd
000001f0: 2706 71bc 9e2f 4cbd 7bb4 e23d c7c7 243d
00000200: 5822 43bd 0563 34bd 8691 f5bc 1b36 9cbd
00000210: e65a 503d e9e2 f73d fe88 aebc 93a2 a0bd
00000220: 6668 89bd a1e0 623d b1c4 ee3c e4f6 ac3c
00000230: dfba 873d c8e8 19bc 508a d4bd 4c7f ddbd
00000240: bb20 f5bd bebc 003e 566c 00bd eb5e 7f3d
00000250: 037b b0bd bdec 05bd b143 44bc 3daa c43d
00000260: f10f d6bd 50bb 5ebd ec29 d1ba 10a3 af3d
00000270: e993 20bd bc2f 833d 5bf2 9a3d a021 8a3d
00000280: de12 483d f983 cc3d 3c18 babd 5cfa e1bd
00000290: 3a56 a23d fc2f db3d 77c8 f4bd 4c6e dfbd
000002a0: f725 fdbc ebab fd3d e5ee c33c 9913 fdbd
000002b0: fad1 753d aa52 f2bd 06d6 6f3b 3b9a cd3d
000002c0: a5cb b2bd 2dbc febd 57d8 fabc ed9a c7bd
000002d0: f48b a9bd d6c2 ac3d 2208 cfbd e93f 7d3c
000002e0: 8b57 0b3d 6ca2 a23c baed 02bd 6322 183d
000002f0: 4884 01bd 635e 29bd 3eff 4cbd 4864 7dbd
00000300: b76d 1fbd 0eb0 f03d 480f a13d 5cb1 6e3d
00000310: 09f8 87bc 8ec6 aa3d 32c5 e03b 1099 b93d
00000320: d8aa 47bd bd9d 92ba 3d0a cc3d c07f 59bd
00000330: 1284 25bd 55a1 cf3d 55dc abbd 7806 7fbd
00000340: d01d ccbc 292c 5cbd db55 1fbd e545 a9bc
00000350: 2581 9dba bf9e 8ebd e3bd 86bc 3fc1 bdbd
00000360: 1273 72bd cde8 9e3d c3f4 bebd e754 993d
00000370: 2295 b3bd 722e bb3d 7b30 ba3c 2b48 f63d
00000380: 3053 e33d 19c7 8abd 74d3 bb3d 71c8 d03d
00000390: 77db d43d f025 a9bd 63fd 1f3c d55d 07bd
000003a0: d3ba cb3d e0fe e23d 7dfc cbbd eb40 9e3d
000003b0: 2a8e aabd 516b ebbd 16cf c1bd d6f2 dbbd
000003c0: 53f5 f03c 72df 833d afb6 c6bd b610 a33b
000003d0: f601 ee3b c825 9b3c e25c c7bd 9ba5 903d
000003e0: abce f4bd 1244 203c a2cc 973b bc40 303d
000003f0: 4713 a5bd 0378 e23d 7cd5 623d 865d f03d
-0.018421646 0.078072146 -0.06859256 0.017361553 -0.09269588 0.016028991 0.11567765 0.05211178
-0.057448797 0.067978896 0.12402921 -0.031327616 0.02290713 -0.032026842 0.08475976 0.033530936
0.1203106 -0.053633083 -0.020801798 0.021756347 0.035476077 -0.109166175 0.10166627 -0.04533934
0.060322482 -0.013051685 0.07186944 0.058733236 -0.06909377 -0.054497086 -0.02455816 -0.09599219
0.122837305 -0.0344955 0.044480786 0.03129991 0.04896686 0.008860367 0.042806838 -0.053215414
0.06326577 -0.11936148 0.07134999 -0.04497873 -0.08564671 -0.007382356 0.12546717 -0.08130156
-0.122992426 0.018052256 -0.062125634 0.06270136 0.09905487 -0.046794247 -0.024157945 0.058005154
0.019131083 0.04946565 0.061461713 0.0382119 0.066693425 -0.07888465 0.028279018 0.00060084026
0.00078696554 0.10496098 0.10769432 0.053059272 -0.04712802 0.047767535 -0.017358925 0.11305464
0.015563405 0.057880662 -0.06636953 -0.11138583 0.012231698 -0.016622491 0.031676248 0.11783978
0.043653823 -0.037460364 0.09348197 -0.030652123 0.09367904 0.10557433 0.0377782 -0.012884752
0.018951654 0.08326618 0.012825836 -0.07164481 -0.02923875 0.009802353 0.005699533 -0.08288587
0.007955999 0.06799898 0.11099315 -0.045849364 0.0553181 0.055211 -0.048040796 -0.064678684
-0.09366525 0.017977592 -0.12006825 -0.03530543 0.10342463 -0.12093839 0.06640441 0.06388386
-0.060862858 0.06765245 -0.013611618 -0.11623174 -0.023169246 0.12299235 0.062187653 -0.046434034
-0.042782765 0.11598371 -0.08842114 -0.056368046 -0.0147109395 -0.0498501 0.1106958 0.040229585
-0.047640175 -0.044039745 -0.029976618 -0.07627507 0.050867938 0.121038266 -0.021305557 -0.078435086
-0.067093655 0.055390004 0.029146524 0.02111382 0.0662744 -0.009393878 -0.103779435 -0.108152956
-0.119691335 0.12572 -0.031353317 0.06234638 -0.086172126 -0.032696474 -0.0119790295 0.09602783
-0.10452259 -0.054377854 -0.0015957928 0.085760236 -0.039203558 0.06405589 0.07565757 0.06744695
0.04884612 0.09986109 -0.090866536 -0.110340804 0.07926603 0.10702512 -0.11952298 -0.10909709
-0.030901892 0.123863064 0.023917625 -0.123572536 0.060014702 -0.11832173 0.0036596074 0.10039183
-0.08730248 -0.124382354 -0.030620737 -0.097463466 -0.08278647 0.084355995 -0.10108973 0.015457132
0.034019034 0.01985284 -0.031964995 0.03714217 -0.031620294 -0.04134978 -0.050048105 -0.061863214
-0.03892299 0.1175233 0.07864243 0.05827461 -0.016597765 0.083386526 0.006859445 0.090623975
-0.048746914 -0.0011185926 0.0996289 -0.053100348 -0.040409155 0.101381935 -0.083916344 -0.06226203
-0.02491656 -0.053753052 -0.038900238 -0.020663211 -0.0012016637 -0.06963872 -0.016447967 -0.092653744
-0.05919177 0.07759247 -0.09324028 0.07486897 -0.08768679 0.09139718 0.022728195 0.12025484
0.11099851 -0.06776256 0.09171191 0.10194481 0.10393422 -0.08259189 0.009765002 -0.03304847
0.09947743 0.1108377 -0.09960268 0.07727226 -0.08327897 -0.11495078 -0.09463327 -0.10739677
0.029413855 0.06439103 -0.09702813 0.0049763573 0.0072634174 0.018938914 -0.09734513 0.07062837
-0.11953481 0.009781854 0.0046325484 0.043030486 -0.080603175 0.11058047 0.055379376 0.11736588

fc1.0.bias f4 [64]
00000000: 3b96 983c de85 cbbd de9b edbd 932f 993d
00000010: 3ee4 3f3d 12db 0c3d dfaa 263d dedf c13d
00000020: 4c89 29bc f4e8 42bc a238 4b3c 92fb ab3d
00000030: 78da 5ebd 51fe 583b 1505 b73d f135 f1bd
00000040: 670f 04bd e2db c83c 57c7 893d 1afc c43d
00000050: 80db 54bb e89f 1c3d 3b8a efba 971a e7bc
00000060: 7d82 303d 8bd7 933c 57d5 e93c 12fb bdbc
00000070: a495 433d 7136 cfbd 22e2 033b a05b 983d
00000080: 67fe 2d3b 38d7 f7bd 62ff b9bd 648d 7dbd
00000090: 3c00 a43d b368 64bd 6f00 ea3d 3807 bfbd
000000a0: 41fd e3bc 1f6f 65bd 617e 8f39 2688 d83d
000000b0: c323 003d fd38 433d 205c 823d 69f3 a03d
000000c0: 0b87 52bd a0dd 96bd bd2c 3dbc b22d cfbd
000000d0: 9ab1 ca3d a7a1 53bc 3dfd 003c d9c3 f63c
000000e0: 133b c83d 7b14 873d 7eb6 88bc 114b 88bb
000000f0: a990 22bd 2906 c43c c64c 3b3d fc02 efbd
0.018626323 -0.099376425 -0.11601995 0.07479777 0.046848528 0.03438861 0.0406903 0.094665274
-0.0103476755 -0.011896361 0.012403639 0.083975926 -0.054407567 0.0033110569 0.08936516 -0.11777867
-0.03224125 0.02451891 0.06727474 0.09618397 -0.0032479465 0.038238436 -0.0018275449 -0.028210921
0.043093193 0.018047115 0.028544111 -0.023191009 0.04775013 -0.10117806 0.00201238 0.07439351
0.002654934 -0.121015966 -0.090819135 -0.06190242 0.08007857 -0.05576391 0.11425864 -0.09327549
-0.027830722 -0.056014176 0.00027369245 0.10572843 0.031284105 0.04766177 0.06365228 0.07858927
-0.05139832 -0.0736649 -0.011546311 -0.101161376 0.09897156 -0.012916959 0.007872877 0.030122684
0.097768925 0.06595703 -0.016688582 -0.0041593392 -0.03968874 0.023928719 0.045727514 -0.11670491

output_layer.0.weight f4 [1, 64]
00000000: da69 e9bd e808 24bd 03a4 8fbd 271a 96bd
00000010: 0123 6bba 404b bc3d 09bb 8abd e0b9 a13d
00000020: 9041 e03d c3b3 b73d c66c bdbd fc36 92bd
00000030: 4501 cc3b 0a81 afbd 5422 173e 35b9 e03d
00000040: 73c3 9c3d 810d c7bd 20f4 b8bd 2876 b13d
00000050: 1b3f f53d 7fa3 ebbd ec14 693d cfdf f33d
00000060: 7e5a 033d bebf b6bc f749 bd3d 355b 803d
00000070: d657 313d bdee 8bbd 1522 a43d a66b 4fbd
00000080: eebd bb3c e79d a1bd 8cc0 0a3e 8f6c b5bb
00000090: d0a0 41bb 72cc 88bd 01dd b3bd b9fe 313c
000000a0: bead cebd 0b96 ddbd 2c54 a13d ea66 81bd
000000b0: c3f3 973d 842e 703d e498 ea3c 97c9 8cbd
000000c0: b4f5 873b 994d 0b3d 949b 2fbd 7980 7cbc
000000d0: a646 483d 111d 203c c450 89bd 15f9 f5bd
000000e0: a3ea 8e3d 62de e03d 0e02 9dbd 200d 8b3a
000000f0: 5569 8fbd d414 c13d 42ed 1f3d 90b7 013d
-0.11397143 -0.040047556 -0.07013705 -0.07329207 -0.00089697546 0.0919404 -0.067739554 0.07896781
0.10950005 0.08969834 -0.092492625 -0.07139394 0.0062257373 -0.08569534 0.14759189 0.109728254
0.076544665 -0.097193725 -0.09030938 0.08665115 0.11974927 -0.11505794 0.05690472 0.119079225
0.032068722 -0.022308227 0.09242623 0.06267396 0.043296658 -0.06832645 0.08014313 -0.05063977
0.022917714 -0.078914456 0.13550013 -0.005536623 -0.0029545315 -0.0667962 -0.087823875 0.010863953
-0.100917324 -0.10819634 0.07877383 -0.063184574 0.07419541 0.05863811 0.028637357 -0.06874388
0.004149163 0.03400955 -0.04287298 -0.01541149 0.0488955 0.009772555 -0.06704858 -0.12010399
0.06978347 0.10979916 -0.076664075 0.001060877 -0.07002512 0.09427801 0.039044626 0.0316692
