blocksize-2/model_epoch_0_100.pth (torch, 171967 bytes, 9 tensors)

embedding.0.weight f4 [64, 7]
000000 49 2a 4a 3e 06 fa 85 be 79 5d b2 bc f8 60 30 3d
       0.19742693 -0.26167315 -0.021773087 0.043061227
000010 d5 e9 71 3e 28 69 bc be e4 28 a7 be 5c d7 dc 3c
       0.23624356 -0.36798978 -0.32648385 0.02695816
000020 dd 21 ed 3d 4a f2 1a be 4b a2 4f bd 01 aa 64 bc
       0.115787245 -0.15131488 -0.050691884 -0.013956548
000030 ba b3 b4 be 1e 7e 7d be 08 a8 b1 be 0a 87 03 3e
       -0.3529337 -0.24755141 -0.3469851 0.12844482
000040 95 82 1a 3e af 58 1b 3d 14 18 85 3e 3f 3f 0f be
       0.15088876 0.037926372 0.25994933 -0.1398897
000050 45 60 a4 be 31 13 a2 be ba 02 74 3e aa e0 7c 3d
       -0.32104698 -0.31655267 0.23829165 0.061737694
000060 98 9f e7 3d 6e 06 19 3e e1 9c be 3e e8 62 5a bd
       0.11309737 0.14943859 0.37229064 -0.05331698
000070 fb 54 97 3b 57 e8 80 3e 9a 1a 2e be 83 9b 17 be
       0.0046182848 0.2517726 -0.17002335 -0.14805417
000080 1f 3e 9d 3e 06 36 8f 3e 90 91 95 be 83 45 8f be
       0.30711457 0.27970904 -0.29212618 -0.2798272
000090 49 04 b6 be 1d 15 fc 3d 1b 54 bd 3c ba bb 82 3e
       -0.35550144 0.123087145 0.023111394 0.2553385
0000a0 b5 15 83 be 66 64 0b be eb d4 98 bd ef b0 8a be
       -0.256025 -0.13612518 -0.07462486 -0.27088115
0000b0 f5 07 ba be ab cc 36 3e 5b 59 cf 3d 00 08 92 be
       -0.36334196 0.17851512 0.10124465 -0.2852173
0000c0 db a3 4f 3e df d8 5d be fa 80 47 3c 4e 93 39 3e
       0.2027735 -0.21664761 0.0121767465 0.18122599
0000d0 99 86 5c 3a 37 d8 21 be ee d2 82 3e 63 62 a0 3e
       0.00084123906 -0.15805136 0.25551552 0.31325063
0000e0 05 e3 c0 be da de 4e 3e 10 0f 1f 3e 07 8e 91 3e
       -0.37673202 0.20202199 0.1553309 0.2842867
0000f0 ce b3 d7 bd 47 81 bc 3d 07 f2 18 3d 07 9a 10 bd
       -0.10532342 0.09204345 0.03734019 -0.035303142
000100 25 4b 28 3e 4d 3d 66 bd d4 b8 18 be 51 cd d9 3c
       0.16434915 -0.056210805 -0.14914256 0.02658716
000110 51 9a 6b be 57 5a 70 be 15 45 30 bd c5 ca 76 bc
       -0.23008086 -0.23471962 -0.04303463 -0.015062992
000120 7a 5d 39 3e f1 e3 78 3d cb 68 58 3e e8 1e 92 3e
       0.18102065 0.060764257 0.21133725 0.28539205
000130 93 93 9d be bc c5 bd be ee cd 36 3e f8 6c ab 3e
       -0.30776653 -0.37064922 0.17851993 0.33481574
000140 79 57 82 be 24 8f 70 be 86 b2 92 3d a2 aa b5 3e
       -0.2545736 -0.23492104 0.07162957 0.35481745
000150 e3 1d 7c be a0 73 bc be 17 d2 81 be 0e e5 56 bc
       -0.24620776 -0.36806965 -0.25355598 -0.013116134
000160 50 39 73 3e 66 fa a8 3e 04 c7 76 3d a9 7f 89 be
       0.23752332 0.3300354 0.06024839 -0.2685521
000170 26 af ab bd 72 a7 e8 3d 68 b3 2e bd 15 5c 3d bc
       -0.08383016 0.11360063 -0.042651564 -0.011557599
000180 71 b0 83 3d 56 34 c5 3e 46 81 2a be c2 4c 7b 3e
       0.06430138 0.38516492 -0.16650876 0.24541
000190 05 5a 9a be 5e 6a 6c be f9 8e 86 3e c5 de bf 3e
       -0.30146804 -0.23087451 0.26280954 0.37474647
0001a0 b9 5c a3 be 04 0c 9f 3e 50 81 a5 bd 14 be 7a 3e
       -0.3190668 0.31063855 -0.08081305 0.24486572
0001b0 b6 c9 54 bd 1b 4f b7 be 77 0c 4b 3d ae 5e 2d 3e
       -0.05195018 -0.3580254 0.049572434 0.16930649
0001c0 de 74 50 be c3 49 aa be 99 15 6d bd e4 a9 b0 3e
       -0.20357081 -0.332594 -0.057881925 0.34504616
0001d0 78 48 a4 3e 73 b9 89 3e f1 55 aa 3d 98 ee f7 bc
       0.3208654 0.268993 0.08317173 -0.030265138
0001e0 7a 92 35 be 86 30 68 be 1d 69 81 3e a9 7d 74 be
       -0.17731658 -0.2267476 0.25275508 -0.2387606
0001f0 f1 ed af 3e 21 ba a3 3e e4 2a 75 bc ce d9 3e 3e
       0.34361222 0.31977943 -0.014963839 0.18637773
000200 01 81 01 3d 7d ba d6 3d 27 e8 2a 3e d2 e2 04 3e
       0.03161717 0.104847886 0.16690122 0.1297715
000210 fb c3 a5 be aa e1 3b 3d f1 99 42 3e 36 c1 82 3d
       -0.32376084 0.045869507 0.19004036 0.06384508
000220 cf da 09 3e d0 2d e0 bd 8c f2 b1 3a 39 dd 9e 3e
       0.13462375 -0.10946238 0.0013576313 0.31028154
000230 df 97 02 3d cb f6 e6 bd 39 f6 89 3d 64 ff 55 bc
       0.031883117 -0.11277541 0.06736416 -0.013061378
000240 77 0a 1e be 52 69 aa 3e dd 10 d3 3d 2b 0a b4 3e
       -0.1543368 0.33283478 0.10305951 0.35164008
000250 41 b8 78 bd ec 30 bc be c3 98 80 3d bd 3d 34 3e
       -0.060722593 -0.36756074 0.06279137 0.17601676
000260 8e fe 98 3e e0 9e 34 be fe 96 80 3e 78 8e 2a be
       0.2988171 -0.17638731 0.25115198 -0.1665591
000270 eb 96 46 3e 95 b7 d1 3d 86 a1 ac 3e 96 c8 05 bc
       0.19393508 0.102400936 0.33716983 -0.008165499
000280 1a ec b9 3e 4d f4 c4 3d ca 1f 87 3e 66 5a bc be
       0.36312944 0.09616909 0.2639144 -0.3678772
000290 08 cf a6 3e d3 d6 a9 be 0b e2 84 be 1b f7 3b bd
       0.32579827 -0.3317171 -0.25953707 -0.045889955
0002a0 3b d2 93 3e f6 98 1c 3d fb 9f 1a be 34 a5 b7 3d
       0.2887133 0.038231812 -0.1510009 0.08967057
0002b0 4a 14 aa be 84 ec 07 3e 57 40 29 3e ab ae 46 3e
       -0.33218604 0.13273817 0.1652845 0.19402568
0002c0 f6 7f b5 3b 1a 1e 84 be aa a6 6d 3e d1 c7 ee bb
       0.005538936 -0.25804216 0.23208109 -0.0072870036
0002d0 84 11 b1 3e 38 5f 36 be 54 53 9c 3d 61 3e af be
       0.34583676 -0.1780976 0.07633081 -0.3422728
0002e0 79 b2 f3 bc ad 14 15 3e 9a 76 93 be 27 35 01 be
       -0.029748188 0.14558668 -0.28801423 -0.12617932
0002f0 0c e2 74 3e 6c da a6 3e 3e 14 cc bd 7b 2a 95 3e
       0.23914355 0.32588518 -0.099647984 0.29133973
000300 21 44 ba 3e 02 f1 89 3e 21 67 0a 3e c6 0c 4a 3e
       0.36380103 0.26941687 0.13515903 0.19731435
000310 2c 9a 3c 3e f0 8e 3a be a1 a8 39 3d 62 20 57 3d
       0.18418187 -0.18218589 0.045326833 0.052521117
000320 ba 1d 09 3e 91 04 0d 3e 99 b4 e1 bd 2c 5c 8c 3e
       0.13390246 0.13771273 -0.110207744 0.27414072
000330 29 91 61 3e b8 57 d8 3d f5 80 ba 3d 0c 60 c1 3e
       0.2202803 0.10563606 0.09106628 0.3776859
000340 6c 23 56 3e 89 b9 8d 3e 26 4e aa 3e 89 55 35 3c
       0.2091195 0.27680615 0.33262748 0.011067756
000350 46 42 0f 3e ce 66 fb bb cc cf 3c be 5e ae 93 bd
       0.13990125 -0.0076721674 -0.18438643 -0.07210992
000360 3b 51 64 3e ef 35 af 3e fa 31 d8 3d 6e b8 1a be
       0.22296612 0.34220836 0.10556407 -0.15109417
000370 bf 23 24 be ba d4 9a 3e 76 24 31 3e ac 72 a1 bc
       -0.16029261 0.30240422 0.17299065 -0.019708
000380 0e 67 e3 3d d9 32 93 3e 27 5c 91 be dd d2 27 3e
       0.111036405 0.2874973 -0.2839062 0.16389032
000390 f5 e2 5d bd 8e e0 81 3e a1 25 33 be 82 39 1c be
       -0.05417152 0.25366634 -0.17494823 -0.15256312
0003a0 04 15 8c be 68 52 0e 3e 03 dc 59 be eb 19 91 be
       -0.27359784 0.13898623 -0.21275334 -0.28340086
0003b0 87 0d 6f 3e 4a df 85 be 04 31 9e 3e ed 01 11 3e
       0.23345004 -0.2614692 0.3089677 0.14160891
0003c0 a6 e7 52 be e6 c5 e5 3d de 57 76 be 67 e3 21 3e
       -0.2059618 0.11219387 -0.24056956 0.15809403
0003d0 d0 15 9b be f6 43 d9 3c a4 35 93 bd d5 db a0 3e
       -0.3029008 0.026521664 -0.071879655 0.3141772
0003e0 f3 a8 c4 bd 6a 9f 93 be 5f c7 68 3e 2a 58 20 3e
       -0.09602537 -0.2883256 0.22732304 0.15658632
0003f0 c2 4d f5 bc e6 b6 ba b7 7e cd 40 3e de 95 9d be
       -0.029944304 -2.2258097e-05 0.18828389 -0.30778402

embedding.0.bias f4 [64]
000000 9a 0f 14 be 68 8b bb 3d a6 77 ec 3d 82 bc 4a be
       -0.14459077 0.09157449 0.11546259 -0.19798473
000010 70 df b0 be dc 24 56 be 3d a3 95 be f1 97 51 3d
       -0.3454547 -0.20912498 -0.29226103 0.051170293
000020 3f 0f d9 bd 73 eb bb be cb 5b 10 3e 30 7a af be
       -0.10598611 -0.3670307 0.14097516 -0.3427291
000030 33 af cf bd 2e db 6d 3e f3 6d 3e 3d 98 01 b5 bd
       -0.101408385 0.23228142 0.046491574 -0.088381946
000040 b7 01 32 bd dc 63 d7 bd 6f 12 bd 3e 6e f2 28 be
       -0.043458667 -0.105170935 0.36928126 -0.1649873
000050 c7 80 20 3c 53 60 10 be d9 47 a0 3e bb 81 9a be
       0.009796328 -0.14099245 0.31304815 -0.30177101
000060 bd ba af 3d dc 3d 29 be 16 7f 5d be 76 98 7c 3e
       0.085805394 -0.16527504 -0.2163051 0.24667534
000070 68 c5 33 be 07 af a8 be ed 79 90 be e5 82 b0 be
       -0.17555773 -0.32946035 -0.28218022 -0.34474865
000080 ea b1 f6 3d 5d 65 1f be 3e 14 01 3e ad 4e 9b be
       0.12045653 -0.15566011 0.12605378 -0.30333462
000090 6c 25 68 3e 14 b0 85 be 59 79 58 be d6 d5 60 3e
       0.22670525 -0.261109 -0.2114004 0.21956572
0000a0 6c ff 49 3d a9 ec 8b be 4a 4b 6c bd a5 26 6f be
       0.049315855 -0.27328995 -0.05768899 -0.23354585
0000b0 24 49 19 be 63 7a b1 be 13 4e b2 3e dc bf 3e be
       -0.14969307 -0.34663686 0.3482519 -0.18627876
0000c0 52 81 5b be b9 76 77 be e4 6e 8d be b3 f1 8b 3e
       -0.2143605 -0.24166383 -0.27623665 0.2733284
0000d0 0f 88 77 3e cc 6e 13 bd bb 2a fa 3c 7c 2d 26 be
       0.24172996 -0.035994336 0.030537954 -0.16228288
0000e0 bf 34 b1 3e fe db b2 be da a9 a4 3e 3e dd 2b 3e
       0.34610555 -0.34933466 0.32160836 0.16783616
0000f0 59 ed 8e be 64 98 c3 3d bf 47 7e be 09 04 ba bc
       -0.27915457 0.095505506 -0.24832056 -0.022707002

layernorm.weight f4 [259, 64]
000000 0c 04 80 3f 52 ff 7f 3f 00 00 80 3f dc 01 80 3f
       1.0001235 0.9999896 1.0 1.0000567
000010 df ff 7f 3f 5b 00 80 3f 1c 25 80 3f 8d 7a 7f 3f
       0.99999803 1.0000108 1.0011325 0.9979637
000020 9c c9 7f 3f 64 fd 7f 3f 89 01 80 3f 87 29 80 3f
       0.99917006 0.9999602 1.0000468 1.0012673
000030 88 00 80 3f 24 64 80 3f 49 fa 7f 3f 3c a8 7f 3f
       1.0000162 1.003056 0.9999128 0.9986608
000040 55 e5 7f 3f 90 30 80 3f d7 fe 7f 3f b6 7f 7f 3f
       0.9995931 1.001482 0.9999823 0.99804246
000050 ee cd 7f 3f 80 06 80 3f 37 c6 7f 3f 0e ef 7f 3f
       0.999236 1.0001984 0.99911827 0.99974144
000060 a6 d3 7f 3f ff ff 7f 3f f8 b6 7f 3f 45 b5 7f 3f
       0.99932325 0.99999994 0.99888563 0.9988597
000070 14 f8 7f 3f 32 3c 80 3f 61 86 7f 3f a6 ff 7f 3f
       0.9998791 1.001837 0.9981442 0.99999464
000080 00 00 80 3f c0 01 80 3f 63 ff 7f 3f a5 01 80 3f
       1.0 1.0000534 0.99999064 1.0000502
000090 07 00 80 3f 58 ff 7f 3f d9 01 80 3f b9 e3 7f 3f
       1.0000008 0.99999 1.0000564 0.9995685
0000a0 5f 39 80 3f 3f 46 80 3f ff fe 7f 3f 27 01 80 3f
       1.0017508 1.0021437 0.9999847 1.0000352
0000b0 75 de 7f 3f 98 9b 7f 3f bf 03 80 3f 8e 05 80 3f
       0.9994882 0.9984679 1.0001143 1.0001695
0000c0 5b fc 7f 3f 93 ec 7f 3f 0c 00 80 3f e8 ff 7f 3f
       0.9999444 0.9997036 1.0000014 0.99999857
0000d0 1c a6 7f 3f f8 ff 7f 3f 51 01 80 3f 4d 0b 80 3f
       0.9986284 0.9999995 1.0000402 1.0003449
0000e0 df dd 7f 3f 43 00 80 3f 89 14 80 3f fa ff 7f 3f
       0.99947923 1.000008 1.0006267 0.99999964
0000f0 71 0f 80 3f 81 fe 7f 3f 7e ff 7f 3f 0b 00 80 3f
       1.0004712 0.9999772 0.99999225 1.0000013
000100 b7 ff 7f 3f 71 00 80 3f 0f 02 80 3f b8 06 80 3f
       0.99999565 1.0000135 1.0000628 1.000205
000110 06 00 80 3f 47 00 80 3f 9b 07 80 3f 75 ec 7f 3f
       1.0000007 1.0000085 1.0002321 0.9997018
000120 d1 e1 7f 3f 7e fe 7f 3f ab 00 80 3f 97 04 80 3f
       0.99953943 0.999977 1.0000204 1.0001401
000130 42 00 80 3f a2 0b 80 3f ac fd 7f 3f 80 f6 7f 3f
       1.0000079 1.000355 0.9999645 0.99985504
000140 48 fa 7f 3f 22 08 80 3f 86 06 80 3f 0c e5 7f 3f
       0.99991274 1.0002482 1.0001991 0.9995887
000150 69 f8 7f 3f 73 00 80 3f 79 f1 7f 3f 78 e8 7f 3f
       0.9998842 1.0000137 0.99977833 0.99964094
000160 69 f7 7f 3f 5d 00 80 3f dd f5 7f 3f 6b e6 7f 3f
       0.9998689 1.0000111 0.9998453 0.99960965
000170 36 ff 7f 3f 27 0d 80 3f 3f f3 7f 3f 83 ff 7f 3f
       0.99998796 1.0004014 0.9998054 0.99999255
000180 5a 00 80 3f 4a 01 80 3f bb f8 7f 3f 07 00 80 3f
       1.0000107 1.0000393 0.9998891 1.0000008
000190 00 00 80 3f 5d 04 80 3f 11 01 80 3f b2 f3 7f 3f
       1.0 1.0001332 1.0000325 0.99981225
0001a0 22 07 80 3f 8b 12 80 3f 22 00 80 3f 9b 01 80 3f
       1.0002177 1.0005659 1.000004 1.000049
0001b0 75 f0 7f 3f 12 f0 7f 3f 8d 00 80 3f e6 01 80 3f
       0.99976283 0.99975693 1.0000168 1.0000579
0001c0 e5 fd 7f 3f 3d f7 7f 3f 1d 01 80 3f 00 00 80 3f
       0.9999679 0.9998663 1.000034 1.0
0001d0 74 f0 7f 3f 53 01 80 3f 06 01 80 3f 51 02 80 3f
       0.9997628 1.0000404 1.0000312 1.0000707
0001e0 6b f7 7f 3f 0e 00 80 3f ff 05 80 3f f5 ff 7f 3f
       0.99986905 1.0000017 1.000183 0.99999934
0001f0 37 04 80 3f 37 00 80 3f d3 ff 7f 3f b7 fe 7f 3f
       1.0001286 1.0000066 0.9999973 0.9999804
000200 d7 02 80 3f a4 ff 7f 3f 2f 00 80 3f 69 02 80 3f
       1.0000867 0.9999945 1.0000056 1.0000736
000210 f0 ff 7f 3f 55 00 80 3f e7 1b 80 3f 40 96 7f 3f
       0.99999905 1.0000101 1.0008515 0.9983864
000220 a8 d2 7f 3f c9 fd 7f 3f 4f 01 80 3f 02 1f 80 3f
       0.9993081 0.9999662 1.0000399 1.0009463
000230 65 00 80 3f e3 4d 80 3f 6b fb 7f 3f 75 bb 7f 3f
       1.000012 1.0023769 0.9999301 0.9989541
000240 b4 eb 7f 3f bd 25 80 3f b6 00 80 3f 7d 9a 7f 3f
       0.9996903 1.0011517 1.0000217 0.99845105
000250 ed da 7f 3f c2 04 80 3f 73 d2 7f 3f d4 ef 7f 3f
       0.9994343 1.0001452 0.99930495 0.99975324
000260 05 df 7f 3f 05 00 80 3f cf c5 7f 3f c4 c2 7f 3f
       0.99949676 1.0000006 0.99911207 0.99906564
000270 13 fa 7f 3f bf 2d 80 3f c8 a0 7f 3f ac ff 7f 3f
       0.9999096 1.0013961 0.9985471 0.999995
000280 04 00 80 3f 39 01 80 3f 31 fe 7f 3f 1d 01 80 3f
       1.0000005 1.0000373 0.9999724 1.000034
000290 04 00 80 3f 6c 00 80 3f a7 01 80 3f bb ea 7f 3f
       1.0000005 1.0000129 1.0000504 0.99967545
0002a0 e0 2b 80 3f 36 37 80 3f 87 ff 7f 3f 06 01 80 3f
       1.001339 1.0016849 0.9999928 1.0000312
0002b0 c6 e2 7f 3f 4e b1 7f 3f 09 02 80 3f 50 04 80 3f
       0.99955404 0.9987992 1.0000621 1.0001316
0002c0 a5 fd 7f 3f 0f f2 7f 3f 29 00 80 3f ec ff 7f 3f
       0.99996406 0.9997873 1.0000049 0.9999988
0002d0 a7 b9 7f 3f 1a 00 80 3f 12 01 80 3f 34 08 80 3f
       0.9989266 1.0000031 1.0000327 1.0002503
0002e0 dd e5 7f 3f 37 00 80 3f d0 0f 80 3f fa ff 7f 3f
       0.9996012 1.0000066 1.0004826 0.99999964
0002f0 8b 0b 80 3f 4c ff 7f 3f a0 ff 7f 3f 01 00 80 3f
       1.0003523 0.9999893 0.9999943 1.0000001
000300 b1 ff 7f 3f 6b 00 80 3f b9 01 80 3f eb 05 80 3f
       0.9999953 1.0000128 1.0000526 1.0001806
000310 02 00 80 3f 46 00 80 3f 37 05 80 3f d2 f1 7f 3f
       1.0000002 1.0000083 1.0001591 0.99978364
000320 f7 e5 7f 3f b1 fe 7f 3f 8c 00 80 3f 3a 03 80 3f
       0.99960274 0.99998003 1.0000167 1.0000985
000330 2f 00 80 3f 06 08 80 3f 07 fe 7f 3f 99 f9 7f 3f
       1.0000056 1.0002449 0.9999699 0.9999023
000340 40 fb 7f 3f f6 05 80 3f 22 06 80 3f 0e eb 7f 3f
       0.9999275 1.0001819 1.0001872 0.9996804
000350 58 fb 7f 3f 49 00 80 3f 5e f5 7f 3f 44 eb 7f 3f
       0.99992895 1.0000087 0.99983776 0.9996836
000360 b3 f9 7f 3f 51 00 80 3f a2 f8 7f 3f cc ea 7f 3f
       0.99990386 1.0000097 0.9998876 0.99967647
000370 77 ff 7f 3f d8 09 80 3f 23 f7 7f 3f 8f ff 7f 3f
       0.99999183 1.0003004 0.99986476 0.99999326
000380 45 00 80 3f c7 00 80 3f 59 f9 7f 3f 07 00 80 3f
       1.0000082 1.0000237 0.9998985 1.0000008
000390 00 00 80 3f 14 04 80 3f 21 01 80 3f 44 f7 7f 3f
       1.0 1.0001245 1.0000345 0.9998667
0003a0 be 04 80 3f 71 0e 80 3f 2d 00 80 3f 47 01 80 3f
       1.0001447 1.0004407 1.0000054 1.000039
0003b0 7e f2 7f 3f 8a f4 7f 3f 2f 00 80 3f 94 01 80 3f
       0.9997939 0.9998251 1.0000056 1.0000482
0003c0 e6 fe 7f 3f c9 f9 7f 3f f4 00 80 3f 00 00 80 3f
       0.9999832 0.99990517 1.0000291 1.0
0003d0 f0 f4 7f 3f 41 01 80 3f e0 00 80 3f 7a 01 80 3f
       0.9998312 1.0000383 1.0000267 1.0000451
0003e0 02 fa 7f 3f 0d 00 80 3f f1 04 80 3f f9 ff 7f 3f
       0.99990857 1.0000015 1.0001508 0.9999996
0003f0 38 03 80 3f 3b 00 80 3f e2 ff 7f 3f d6 fe 7f 3f
       1.0000982 1.000007 0.9999982 0.99998224

layernorm.bias f4 [259, 64]
000000 c6 ef b6 38 3c 3f b1 38 52 0d bc 38 c3 32 11 39
       8.7230976e-05 8.451796e-05 8.96702e-05 0.00013847188
000010 24 46 ba 35 8c 73 f6 b8 04 fd c7 38 f6 81 ef b8
       1.3878494e-06 -0.000117517164 9.536187e-05 -0.00011420615
000020 53 00 10 b9 66 d6 84 b8 cf 75 2d 39 42 5b b4 38
       -0.00013733031 -6.334185e-05 0.00016542453 8.600067e-05
000030 b8 47 52 37 27 7f 19 39 ac 0b 07 b9 bb 16 0e b9
       1.2533674e-05 0.00014638585 -0.00012878951 -0.00013550643
000040 5e 02 a1 b8 e9 c3 b2 38 45 91 39 39 30 08 c8 b8
       -7.677519e-05 8.5241925e-05 0.00017697092 -9.538268e-05
000050 51 bd 11 b9 b8 ee c2 38 3e cc 33 b8 5c 94 17 b9
       -0.00013898803 9.295106e-05 -4.286714e-05 -0.0001445575
000060 7e 3d 90 b8 79 32 98 37 2e fa a8 b8 63 66 a5 b8
       -6.877909e-05 1.8143315e-05 -8.057464e-05 -7.886884e-05
000070 bf 8d b1 b8 8a 02 f4 38 52 e1 18 b9 7d 1f 61 38
       -8.46642e-05 0.000116352996 -0.00014579788 5.3673506e-05
000080 fc 7e b7 36 4c f4 a3 38 c1 d5 e4 b8 ca 8d 30 37
       5.468608e-06 7.8179495e-05 -0.00010911702 1.052343e-05
000090 1b 79 f1 b7 a5 27 ac 38 e3 75 11 39 b9 1a 13 b8
       -2.8785833e-05 8.2089835e-05 0.00013872194 -3.507242e-05
0000a0 a1 2a 25 39 05 39 0c 39 8b ad f2 b8 c8 72 94 38
       0.00015751507 0.00013372682 -0.00011571784 7.0785696e-05
0000b0 f8 4b d5 b7 94 62 d7 b8 03 fa a0 37 21 1d 07 38
       -2.5426954e-05 -0.000102703605 1.9189907e-05 3.2213637e-05
0000c0 1e 8f 75 b7 05 4f 62 b8 ed f6 f7 38 dd f7 a4 37
       -1.463646e-05 -5.395619e-05 0.00011823871 1.9665744e-05
0000d0 21 34 97 b8 46 fb 8a 37 47 5e 11 39 7f 57 4a 39
       -7.209951e-05 1.656789e-05 0.00013863399 0.00019296816
0000e0 8b 3e 6b b8 4f e2 ec b8 4d 1e 9a 38 d4 dd 65 37
       -5.6086614e-05 -0.0001129551 7.348936e-05 1.3701112e-05
0000f0 72 19 ae 38 a2 3e 16 b9 da 35 7f b8 6e 90 16 b8
       8.301706e-05 -0.00014328447 -6.084689e-05 -3.5897297e-05
000100 4b 0b c8 38 17 de 92 38 da 68 a1 38 f6 87 0a 39
       9.538847e-05 7.00319e-05 7.6966084e-05 0.00013211355
000110 7b af 2c 34 9b f0 c4 b8 60 37 ab 38 79 b8 e2 b8
       1.6082588e-07 -9.3908246e-05 8.16423e-05 -0.000108108805
000120 72 e1 09 b9 23 32 51 b8 62 36 1d 39 12 1f 8e 38
       -0.00013149323 -4.9876176e-05 0.00014992946 6.776875e-05
000130 0a 2a 5a 37 53 54 ce 38 23 36 e4 b8 a6 cb 05 b9
       1.30036005e-05 9.838552e-05 -0.00010881971 -0.00012759733
000140 df 43 80 b8 c8 6a a6 38 75 01 32 39 1b fe ba b8
       -6.1161576e-05 7.9353864e-05 0.00016975946 -8.916502e-05
000150 22 93 ed b8 ec 76 bb 38 9d cc 66 b8 9d 45 06 b9
       -0.00011328446 8.939006e-05 -5.5026834e-05 -0.00012805169
000160 dc 65 84 b8 0f a1 a4 37 b4 c1 9f b8 36 4d bf b8
       -6.313223e-05 1.9625322e-05 -7.617791e-05 -9.1219714e-05
000170 f5 fe ae b8 c2 2d cc 38 57 c1 f1 b8 99 69 8f 38
       -8.344456e-05 9.736001e-05 -0.00011527788 6.8384405e-05
000180 b2 8e 1f 37 6e 80 ab 38 55 91 f2 b8 a0 6e b8 b6
       9.510362e-06 8.177837e-05 -0.000115665294 -5.4965058e-06
000190 38 23 90 b7 6d 69 be 38 bd f2 fe 38 14 40 98 b8
       -1.7182538e-05 9.079543e-05 0.00012156877 -7.25986e-05
0001a0 a4 ad 0a 39 c4 17 fc 38 dc 44 e4 b8 1e 8d 9e 38
       0.00013225392 0.00012020723 -0.00010884713 7.560312e-05
0001b0 80 be 49 b8 76 3c c6 b8 0f 0b bf 36 ce f8 12 38
       -4.809955e-05 -9.4526375e-05 5.693531e-06 3.504083e-05
0001c0 ad 18 d1 b7 71 34 86 b8 9e 52 cc 38 a0 ea 4e b6
       -2.4926232e-05 -6.399386e-05 9.742867e-05 -3.0832962e-06
0001d0 8f d8 9a b8 a7 29 af 37 d6 db f6 38 f0 9a 2f 39
       -7.3836294e-05 2.0881022e-05 0.00011771142 0.00016747019
0001e0 9b 20 a5 b8 20 98 db b8 37 1f 57 38 63 5f 86 37
       -7.873886e-05 -0.00010471069 5.1289066e-05 1.6018463e-05
0001f0 bb ac 96 38 56 ff fa b8 a9 df 43 b8 0b 7e 21 b8
       7.184731e-05 -0.00011968489 -4.6699923e-05 -3.8502778e-05
000200 26 6a b8 38 45 e4 a7 38 dd 52 b4 38 2a d1 0b 39
       8.7935754e-05 8.005699e-05 8.598503e-05 0.00013333993
000210 92 d1 0f 36 f2 de e8 b8 ae 42 bf 38 ee 55 ea b8
       2.1430646e-06 -0.00011104149 9.12001e-05 -0.00011173995
000220 cd 0e 0c b9 55 05 7d b8 69 ed 26 39 8f 15 ab 38
       -0.00013356954 -6.0324866e-05 0.00015919436 8.157931e-05
000230 a6 46 52 37 7d 47 0e 39 64 aa 01 b9 cc be 0a b9
       1.25334245e-05 0.00013568807 -0.00012365874 -0.00013231783
000240 60 30 99 b8 f8 ad ac 38 ef 7b 34 39 99 56 bf b8
       -7.304619e-05 8.234003e-05 0.00017212307 -9.12372e-05
000250 79 55 0a b9 11 08 bf 38 57 20 3c b8 31 d5 11 b9
       -0.00013192547 9.109092e-05 -4.485281e-05 -0.00013907698
000260 01 fb 87 b8 2d 20 9b 37 32 95 a6 b8 05 5d a6 b8
       -6.484055e-05 1.8492423e-05 -7.9432866e-05 -7.932823e-05
000270 c8 3f ad b8 bf 88 e6 38 fc 1b 11 b9 db ee 65 38
       -8.261163e-05 0.000109927256 -0.00013838703 5.4820306e-05
000280 40 a2 a0 36 f3 b7 a0 38 c1 51 e2 b8 f8 5b eb 36
       4.78726e-06 7.663658e-05 -0.000107917476 7.0142523e-06
000290 1a 64 d8 b7 04 a0 ad 38 a2 01 0d 39 dd 18 24 b8
       -2.579582e-05 8.279088e-05 0.00013447416 -3.9123803e-05
0002a0 cc 3e 1d 39 17 bc 06 39 fc 46 e8 b8 ee 70 93 38
       0.0001499608 0.00012849305 -0.00011075844 7.030541e-05
0002b0 99 9d f3 b7 b9 b0 cf b8 ff fa 80 37 1c f7 0a 38
       -2.9041244e-05 -9.903446e-05 1.5375668e-05 3.3131902e-05
0002c0 32 f9 85 b7 59 8a 5e b8 5b 85 e9 38 f8 1b 85 37
       -1.5970876e-05 -5.305777e-05 0.00011135145 1.586786e-05
0002d0 31 f2 95 b8 be ae 8e 37 df 91 0a 39 dd 4f 41 39
       -7.149985e-05 1.700909e-05 0.00013215047 0.00018435666
0002e0 27 e4 74 b8 ea f0 e3 b8 dc 1b 91 38 07 3d 70 37
       -5.8386617e-05 -0.00010869077 6.919328e-05 1.4319324e-05
0002f0 ec 70 a8 38 1c 98 0f b9 d5 21 72 b8 6d 24 13 b8
       8.0318976e-05 -0.00013694208 -5.7728805e-05 -3.5081455e-05
000300 cc 15 cb 38 7f 85 90 38 f9 cd 9f 38 93 ba 08 39
       9.683854e-05 6.891321e-05 7.620076e-05 0.00013039475
000310 db 36 ee b3 27 ac bf b8 ac 44 aa 38 6e 1d e3 b8
       -1.1092717e-07 -9.1396556e-05 8.119023e-05 -0.00010829685
000320 79 27 0a b9 a8 9c 50 b8 b4 31 1b 39 38 22 8b 38
       -0.0001317541 -4.9736962e-05 0.00014800468 6.63441e-05
000330 c2 a5 72 37 18 02 c9 38 7c 4c e2 b8 9f b3 05 b9
       1.44629175e-05 9.584817e-05 -0.00010790766 -0.00012750782
000340 e8 bd 7f b8 a1 ef a3 38 fc c6 31 39 29 a8 b5 b8
       -6.09736e-05 7.81708e-05 0.00016954163 -8.662075e-05
000350 7b 50 ea b8 2c 10 bc 38 ef eb 6b b8 09 72 05 b9
       -0.0001117298 8.967551e-05 -5.6248096e-05 -0.0001272635
000360 7f 5c 82 b8 26 d3 a2 37 ad bf a1 b8 53 e3 c0 b8
       -6.216112e-05 1.9410229e-05 -7.712781e-05 -9.197616e-05
000370 7e 98 ab b8 7a 07 c9 38 ff be ec b8 9b d1 91 38
       -8.182319e-05 9.5858195e-05 -0.00011288933 6.953181e-05
000380 f9 4c 05 37 d8 db aa 38 b8 f4 f1 b8 d1 d6 d9 b6
       7.945339e-06 8.147181e-05 -0.00011537358 -6.492112e-06
000390 3d b1 7e b7 8e ed bf 38 8d 51 fa 38 fe f8 99 b8
       -1.5180846e-05 9.151838e-05 0.00011936119 -7.341987e-05
0003a0 92 71 09 39 3f 11 fa 38 db a4 e0 b8 89 70 a0 38
       0.00013107646 0.00011924141 -0.00010711859 7.650356e-05
0003b0 05 be 4f b8 a4 24 c3 b8 dc a5 a1 36 6b d1 14 38
       -4.9529615e-05 -9.3051494e-05 4.8174825e-06 3.5480985e-05
0003c0 34 4b cf b7 54 c8 82 b8 70 53 c7 38 ff 1f 86 b6
       -2.4711342e-05 -6.236197e-05 9.504601e-05 -3.997236e-06
0003d0 e0 89 97 b8 0b c7 aa 37 83 7b f2 38 29 a7 2d 39
       -7.225922e-05 2.0358266e-05 0.00011562465 0.00016560838
0003e0 76 2c a6 b8 9b 81 da b8 e4 b5 56 38 ca 74 91 37
       -7.923778e-05 -0.00010419191 5.1190975e-05 1.7339731e-05
0003f0 2a c1 94 38 09 d5 f5 b8 20 55 46 b8 63 70 21 b8
       7.0931696e-05 -0.00011722191 -4.7286157e-05 -3.849006e-05

fc0.0.weight f4 [64, 64]
000000 ff 83 cb bd fe dd 9d 3d de 4a d8 3d 07 c8 95 bd
       -0.09937286 0.07708357 0.10561155 -0.07313543
000010 a3 29 a7 3d cc 49 f7 3d b2 13 cc bc 14 73 dc bd
       0.081622384 0.120746225 -0.024911735 -0.10764137
000020 3e 17 b1 3c 06 2d 81 3d f1 3d ab 3d 6c 2a 82 3d
       0.021617528 0.06307416 0.08361424 0.063557476
000030 97 a8 a8 bc 6e ec 6b 3d d5 c9 8d bd 33 1d e4 3c
       -0.020588202 0.057598524 -0.06923262 0.027845955
000040 bb 4d 0c bd 62 eb 99 bd db 41 55 bd 1f 31 81 bd
       -0.034253817 -0.07515599 -0.052064758 -0.06308197
000050 ca d4 f3 3c 67 90 03 bd 0b 7a 57 3c 2b 23 2c bd
       0.029764552 -0.032120135 0.013151656 -0.042025726
000060 58 72 84 bd c3 3a b2 3d b5 a4 e0 3c db 43 5c 3d
       -0.06467122 0.08702614 0.027422288 0.05377565
000070 c2 16 83 3d 2f 6f c4 3c f8 dc 1f bd 73 da df 3d
       0.06400825 0.023978798 -0.03902909 0.10930338
000080 16 3e 64 bd f0 b5 4f bd 23 e4 2c bd 44 c2 96 3d
       -0.055723272 -0.05071062 -0.042209756 0.07361272
000090 7f 82 ee bd 0d ca 4e 3c 40 02 f1 3d cf 59 f8 bd
       -0.11645984 0.012621415 0.11768007 -0.12126505
0000a0 00 0c db bd b6 47 ed 3d db 5d a7 bd 30 ff a1 bd
       -0.10695648 0.115859434 -0.081721984 -0.07910001
0000b0 b0 1e 36 bb d4 b7 2f bd 00 c8 9f 3d 2e 85 6d 3d
       -0.0027789287 -0.04289992 0.07801819 0.05798834
0000c0 15 32 e5 bd a5 82 64 bd e4 db 51 bc b6 ee d4 3d
       -0.11191193 -0.055788655 -0.012808774 0.10397093
0000d0 a6 a1 b1 bd 28 b8 cb bc c9 72 e3 bd a8 f5 e3 bd
       -0.0867341 -0.024868086 -0.11105878 -0.111308396
0000e0 dd cf 94 bc f1 98 b7 bd 45 76 c1 bc 46 de b5 3d
       -0.018165523 -0.08964718 -0.023615966 0.08880286
0000f0 77 a6 53 bd 61 f4 b4 3d c8 2c 21 bd 87 14 98 bc
       -0.051672425 0.08835674 -0.039349347 -0.018564476
000100 9f 43 28 3d dc e6 fa 3d 37 79 8e 3d ae 57 c3 3d
       0.041080114 0.12251064 0.06956714 0.09538208
000110 0f 3d a3 3c 5f 79 51 bd 75 6f 92 3d 2a 4f b2 3b
       0.019926576 -0.05114114 0.07150165 0.005441566
000120 41 ca 64 3d f5 8d cd bd 29 80 01 bb fc 89 4c 3d
       0.055856947 -0.10036842 -0.0019760227 0.04993628
000130 59 c1 46 3d e9 b3 22 3d 50 5b 8b 3d 07 9a 0f 3c
       0.048524234 0.039722357 0.06804526 0.00876475
000140 f1 11 41 bd f0 e2 e2 bd 04 c3 ee 3d 42 1f ea bd
       -0.04713625 -0.11078441 0.1165829 -0.11431743
000150 8b 79 17 bc 01 4d f4 bb 51 38 2c bd 51 f7 6a 3c
       -0.009245287 -0.0074554686 -0.042045895 0.014341191
000160 4c 13 dd bc c3 8d 26 3d ec 5e f6 bd ae 62 91 bd
       -0.02698674 0.04066254 -0.12029824 -0.070989
000170 40 2d 6b 3d 39 08 53 3d 5e 94 0d bc 4d d9 e4 3d
       0.0574162 0.051521514 -0.0086413305 0.11174259
000180 06 ed 5b bd 2e 56 b7 bd 69 aa 9e 3d ba 75 be bd
       -0.05369284 -0.08951984 0.07747347 -0.09299798
000190 48 22 c2 bd 56 06 8b 3d 60 73 b9 bd 7e 86 4c bd
       -0.09479195 0.06788318 -0.09055209 -0.04993295
0001a0 9c e3 10 bd 79 af fc 3c 22 15 03 bd b2 97 83 3d
       -0.035373315 0.03084539 -0.032002576 0.06425418
0001b0 6f 0e a5 3c 19 de f7 bc 02 05 80 3c 6c 95 b8 3d
       0.020148484 -0.030257272 0.015627388 0.09012875
0001c0 2e c7 35 3c 61 da 86 3d 4e 05 51 bd 20 45 fa bd
       0.011094851 0.06584621 -0.05103045 -0.12220216
0001d0 33 4b 80 bd fb 8d eb bd 13 de da bd 90 6e 8d bd
       -0.06264343 -0.1150169 -0.106868885 -0.06905854
0001e0 f3 86 13 bd a0 20 c3 3d 89 03 80 bd 38 09 bc 3c
       -0.03601737 0.09527707 -0.06250674 0.022953615
0001f0 df 9d b3 3c c2 41 ea 3d 70 2d de 3d a6 97 4c 3d
       0.021925865 0.114383236 0.1084851 0.04994931
000200 5a 52 bf bd 06 4d 82 3d 15 8a 72 bd 90 8e ef 3d
       -0.09341879 0.06362347 -0.059213717 0.116971135
000210 8d 8d b4 bd 79 78 5f bd 9a 88 51 bd 45 e6 fc 3c
       -0.08816061 -0.05455825 -0.051155664 0.03087152
000220 8d e0 ac bd 27 9b 3e bd 84 78 b1 3d d6 31 eb 3d
       -0.08441267 -0.046534684 0.08665565 0.11484115
000230 28 21 81 bd 2a ea a1 3c 18 c8 d5 bd 85 79 bb bd
       -0.06305152 0.019764978 -0.104385555 -0.091540374
000240 ca 3c 21 bd a4 83 72 3d ad d6 f8 3d 74 3d 05 3d
       -0.039364614 0.059207574 0.12150321 0.03252931
000250 14 1e 9a bd 63 91 ae 3d 55 b4 74 bd 89 ff 1b 3d
       -0.07525268 0.08523824 -0.05974229 0.038085494
000260 66 3a ba bd fe bc 47 3d ad 32 48 3d 67 62 c8 bd
       -0.0909317 0.04876422 0.048876453 -0.09784394
000270 c4 e1 f7 bd 0e cf c0 bd 3f 6b a8 3d 55 b2 c2 3d
       -0.12103608 -0.094144925 0.082235806 0.095066704
000280 4b e6 ed bb d1 8f 98 bd 9a 97 d5 bb 46 f9 d1 3d
       -0.007260119 -0.07449306 -0.0065183165 0.10252623
000290 de a1 ae bd bd 17 c8 bd 29 c6 4a bc 9d ae ce ba
       -0.085269675 -0.09770153 -0.012376347 -0.0015768592
0002a0 ca 52 36 3d 97 c0 83 3d 24 09 51 bd f8 d0 6f bd
       0.044512548 0.06433218 -0.051034108 -0.058548898
0002b0 c4 f8 f1 bd 33 47 ac 3d eb 8c 71 3d fe 01 e6 bd
       -0.118150264 0.08412018 0.05897228 -0.11230849
0002c0 45 0a 81 3c 57 f1 b2 3d 06 ec a1 bb 71 cf 98 3c
       0.015751967 0.08737438 -0.0049414663 0.018653603
0002d0 15 c2 a5 3d 32 81 df bd 66 2d fa 3d fc 78 e7 bc
       0.08093659 -0.10913314 0.1221569 -0.028255932
0002e0 e5 e8 d8 bd 4b 70 c0 b9 a5 a1 ac 3d 4e 55 46 bd
       -0.10591296 -0.00036704759 0.08429269 -0.048421197
0002f0 e6 9e 00 bc 0c 8e 6c 3d 97 b7 07 3d 18 b5 f9 3d
       -0.007850384 0.057752654 0.03313407 0.12192744
000300 8a f2 b4 bd 54 6b a0 bd 5d f5 b4 3d 77 d6 c8 3b
       -0.08835323 -0.07832971 0.08835862 0.006129082
000310 dd c6 3b bd ff 3f ba bd 69 a8 68 3d 74 09 95 bd
       -0.045843948 -0.090942375 0.056801233 -0.07277194
000320 ca c9 e8 3d 2c 3c 33 3c ae 1b ad 3d 93 10 ef bd
       0.11366613 0.010939639 0.08452545 -0.11673083
000330 21 95 df 3d 6f ea bb bd a8 f7 5e 3d e6 ed 2a 3d
       0.10917116 -0.09175574 0.054435402 0.041730784
000340 e5 36 ae 3d 74 75 ff bc bb ce c6 3a 94 50 39 3d
       0.08506564 -0.031183936 0.0015167812 0.04524286
000350 3a 00 9f 3c 73 98 e2 3c b8 4c 54 3d 7d c7 fc 3d
       0.019409288 0.027660584 0.051830977 0.12342737
000360 9a 25 38 3d 81 d3 93 3c 7f 73 e6 3d c5 0c d2 bd
       0.044957735 0.018045189 0.11252498 -0.10256342
000370 a2 16 8b 3c 37 be ce bd 3b 40 f7 3d e8 03 a6 3d
       0.016978566 -0.10094874 0.12072798 0.08106214
000380 bb bd 07 3d e1 3f f7 bc cd b7 a3 bb d8 71 f8 3d
       0.033139925 -0.030181827 -0.004996276 0.12131089
000390 ca d1 cf 3d bc 3b 4b 3d fa b8 9a bd f9 19 23 bd
       0.10147436 0.049617514 -0.07554813 -0.03981969
0003a0 f5 91 8a bc d8 d6 90 3d 95 de 0c 3d 2c b9 b3 bc
       -0.0169153 0.07072228 0.03439196 -0.021938883
0003b0 85 cb 6f bd db dc 9e 3d 01 ed d4 3d cf 76 62 bd
       -0.0585437 0.077569686 0.103967674 -0.055289086
0003c0 d0 09 be bd d5 c3 16 bd 31 dd b6 ba 00 95 d8 3d
       -0.09279215 -0.036807854 -0.0013951418 0.105752945
0003d0 a6 93 c5 3c 2f 23 4e 3c 4d 02 c9 bc 99 c3 b0 bd
       0.024118256 0.012581631 -0.02453723 -0.08631057
0003e0 4f 9e fa 3d 72 0f ba bd 76 c9 7e bd 1f f2 f7 3d
       0.12237226 -0.09084977 -0.062203847 0.12106728
0003f0 f9 c4 a3 bc 2c 4c a1 bd 5c 96 e6 bd 77 3d e7 bd
       -0.019991385 -0.07875857 -0.112591475 -0.1129102

fc0.0.bias f4 [64]
000000 cc 9a 46 3d 6c d9 c2 bd 89 72 35 3d a2 d6 97 bb
       0.04848747 -0.09514126 0.044298682 -0.0046337405
000010 75 71 b1 bd 3d 66 9e 3d a2 3f f0 3d 3b 83 4a bd
       -0.08664218 0.07734344 0.11730887 -0.049441557
000020 d3 35 30 bd 79 bf 83 bd 55 f6 34 3d 90 d1 5b bd
       -0.04302008 -0.06433005 0.044180233 -0.05366665
000030 af ad 48 bd 4d a7 cf 3c 08 2a ba 3d 67 b3 a1 bd
       -0.048993763 0.02534833 0.09090048 -0.078955464
000040 1b 0e 4c 3d 3b 68 8e 3d c5 af db bc a0 00 e1 3d
       0.04981814 0.06953474 -0.026817212 0.10986447
000050 19 46 52 bd f7 b8 14 bc eb 93 8a bb 64 c6 fa 3d
       -0.05133638 -0.009077302 -0.004229059 0.12244871
000060 97 35 74 3c f5 c3 fa bd ac 4c b8 3d 4b 9c e2 3c
       0.014905355 -0.12244407 0.08998999 0.027662417
000070 3b d5 77 bc 39 87 25 bd c3 dc a9 3d cf 1a f8 3b
       -0.015126522 -0.04041216 0.0829406 0.007571555
000080 cd f4 e2 3c 5b a5 c1 3d bf 95 a3 bd 0b 00 1b 3d
       0.02770462 0.09455367 -0.07987546 0.037841838
000090 a1 95 f7 bc fb b9 cd 3d 74 f6 d7 3d 48 14 be bd
       -0.030222716 0.100452386 0.10545054 -0.09281212
0000a0 52 67 05 3d e9 68 95 bd 45 c8 35 3d fe e2 d7 bd
       0.032569237 -0.07295401 0.044380445 -0.10541342
0000b0 c6 8f 9a 3d d4 96 e6 bd 03 36 ea 3c f0 86 a7 3c
       0.07546954 -0.11259237 0.028590208 0.020450085
0000c0 f8 42 d9 bd 3f c4 87 bc 08 22 89 3d 2c 0d fb 3d
       -0.106084764 -0.01657307 0.06695944 0.12258372
0000d0 3e b9 af bd 54 f9 f5 3c 63 6e f7 3c 3e e5 fa 3d
       -0.08580254 0.030026115 0.030204004 0.12250756
0000e0 e3 d7 2c 3d 3b 15 8c 3d 88 95 e6 3d 33 49 ac 3d
       0.042198073 0.06839987 0.112589896 0.08412399
0000f0 9f d7 82 3c 6c b8 b9 3a db 7d 97 bb 47 1a f9 bd
       0.015971957 0.0014169342 -0.0046231574 -0.12163215

fc1.0.weight f4 [64, 64]
000000 52 36 96 bc 0b cd 9f 3d c2 91 8b bd 05 b3 8e 3c
       -0.018336449 0.07802781 -0.068149105 0.017419348
000010 86 4b bd bd cd 72 83 3c d3 e7 ef 3d 86 c0 59 3d
       -0.092429206 0.016045952 0.11714139 0.05316212
000020 a8 85 69 bd 4a 17 8b 3d 79 b2 fe 3d d5 46 f6 bc
       -0.05701223 0.067915514 0.12436385 -0.030063072
000030 16 aa c1 3c d6 0c f6 bc f9 b6 ad 3d bd a5 0c 3d
       0.023640674 -0.030035418 0.08482165 0.034337748
000040 c8 db f8 3d cc 80 54 bd 43 1d a6 bc b7 84 bb 3c
       0.12151295 -0.051880643 -0.020277625 0.022890432
000050 77 2f 14 3d b1 83 df bd c7 4d d4 3d 2b 4d 39 bd
       0.03617808 -0.1091379 0.10366397 -0.04523961
000060 d9 ba 79 3d 81 04 50 bc 35 2b 96 3d 9b b6 76 3d
       0.060969207 -0.012696386 0.0733246 0.06023274
000070 3b 83 8d bd c1 47 5b bd 00 5b c3 bc 60 ac c4 bd
       -0.06909796 -0.053535227 -0.023847103 -0.096031904
000080 7b 67 fc 3d c3 41 0c bd 7a 25 38 3d 4e 19 03 3d
       0.12324425 -0.034242403 0.044957615 0.032006554
000090 ba 52 48 3d 35 54 1a 3c 94 49 2f 3d 46 0f 55 bd
       0.04890702 0.009419491 0.04279478 -0.05201652
0000a0 95 f6 84 3d bb eb f1 bd a5 30 92 3d e1 86 36 bd
       0.06492344 -0.1181254 0.071381845 -0.044562224
0000b0 c9 ab ac bd 90 24 c9 bb d0 20 01 3e 8a 32 a5 bd
       -0.08431203 -0.006138392 0.12610173 -0.0806628
0000c0 5a 43 fa bd 5a ce 95 3c 80 3f 7f bd f9 56 80 3d
       -0.122198775 0.018286873 -0.062316418 0.06266589
0000d0 8e d7 ce 3d c6 67 3d bd ab 29 c6 bc a0 70 6d 3d
       0.100997075 -0.046241544 -0.02418979 0.057968736
0000e0 73 99 a8 3c d4 37 4a 3d f3 f5 7f 3d 35 af 1c 3d
       0.020580983 0.049369648 0.062490415 0.038253028
0000f0 a6 b5 8a 3d d6 2d a1 bd 6b 1f e7 3c 8c 6c 64 3a
       0.06772928 -0.07870071 0.028213223 0.00087136845
000100 be 4c 12 3a 87 c8 d7 3d a3 5e dd 3d 38 a4 59 3d
       0.00055808935 0.105362944 0.10809066 0.053135127
000110 ea b0 3c bd cd bd 42 3d f3 02 90 bc a7 1a e6 3d
       -0.046067156 0.04754429 -0.017579531 0.11235552
000120 06 8f 77 3c b1 f4 6f 3d a1 22 88 bd 4f 52 e3 bd
       0.015109783 0.058582965 -0.0664723 -0.110996835
000130 e5 aa 44 3c d8 18 8a bc 80 18 07 3d 33 de f0 3d
       0.012003635 -0.01685755 0.03298235 0.11761131
000140 b5 95 32 3d ca 06 1b bd 94 53 c0 3d b7 a1 ff bc
       0.043599803 -0.03784827 0.09390941 -0.031205041
000150 b3 59 bf 3d ea a9 d7 3d b5 a9 19 3d 28 2f 56 bc
       0.09343281 0.105304554 0.03751536 -0.013072766
000160 36 d9 96 3c d2 8c a9 3d 47 e5 4d 3c 37 0b 95 bd
       0.018414121 0.082788125 0.012566871 -0.0727753
000170 ad ca f1 bc 51 d0 19 3c 3e c3 a9 3b 1e 4f a9 bd
       -0.029515589 0.009388045 0.0051807454 -0.082670435
000180 2b e6 08 3c 90 b0 8a 3d 17 0d e4 3d ee cb 3c bd
       0.008355658 0.06771958 0.11135309 -0.04609292
000190 32 62 61 3d 04 bd 61 3d d6 d1 3e bd de f4 84 bd
       0.055025287 0.0551119 -0.046586834 -0.06492017
0001a0 b1 3e c0 bd 3f 4a 8d 3c 1f 6b f6 bd 04 d3 10 bd
       -0.093869574 0.017247317 -0.120321505 -0.03535749
0001b0 d6 d6 d2 3d 64 3f f8 bd 0f 6e 88 3d 6a 2a 81 3d
       0.10294883 -0.12121466 0.06661617 0.06306918
0001c0 d8 42 7a bd d7 3a 8b 3d ba 4b 53 bc 5c 81 ee bd
       -0.061098903 0.06798332 -0.012896473 -0.11645767
0001d0 e7 54 bf bc c7 06 fc 3d 1d 47 81 3d cb 70 3d bd
       -0.023355914 0.1230598 0.06312392 -0.046250146
0001e0 b4 10 30 bd ad 5a ed 3d dd eb b6 bd 11 f3 62 bd
       -0.04298468 0.11589561 -0.08931706 -0.055407587
0001f0 c4 9a 77 bc 38 48 4d bd 01 22 e2 3d 66 1a 24 3d
       -0.015112583 -0.0501177 0.11041642 0.040064238
000200 2d 5a 46 bd 52 bf 32 bd 70 b9 f0 bc da 48 9c bd
       -0.048425842 -0.04363949 -0.029385298 -0.07631083
000210 02 25 57 3d a7 46 f6 3d b5 57 b3 bc 63 63 a3 bd
       0.052525528 0.120251946 -0.021892408 -0.07977941
000220 17 1c 8b bd 7d ab 66 3d a7 69 eb 3c b8 ec b3 3c
       -0.06792467 0.056315888 0.028736902 0.021963462
000230 c6 0c 86 3d 7f 36 1f bc 7a 4b d0 bd 54 e1 de bd
       0.06545405 -0.009717583 -0.10170646 -0.10882822
000240 4c ef f5 bd a9 e0 ff 3d 84 5a fa bc a6 f0 7b 3d
       -0.12008533 0.124940224 -0.03056074 0.061508797
000250 4f 0d b2 bd b2 aa 09 bd b6 56 4a bc 8a ff c3 3d
       -0.08693945 -0.033610053 -0.012349775 0.095702246
000260 41 5a d8 bd e1 84 63 bd 1f 39 15 bb 11 9c ab 3d
       -0.105640896 -0.055546645 -0.0022769643 0.08379377
000270 2b 57 24 bd 3f f2 81 3d 62 be 98 3d 82 29 8a 3d
       -0.040122192 0.06345033 0.07458188 0.06746198
000280 2f d4 4a 3d aa 96 ca 3d 1e 06 b9 bd e7 72 e3 bd
       0.04951876 0.09892018 -0.0903437 -0.111059
000290 20 8a a0 3d 23 a0 da 3d 3b dd ef bd b3 83 e0 bd
       0.07838845 0.10675075 -0.11712118 -0.1096262
0002a0 60 7c 00 bd 17 42 fb 3d 6c c7 bc 3c 02 ed fd bd
       -0.031368613 0.12268465 0.02304431 -0.12398721
0002b0 8c ab 73 3d f6 ba f3 bd 02 6d 8f 3b 05 13 ca 3d
       0.05948977 -0.11900894 0.0043770084 0.09866909
0002c0 62 46 b4 bd 06 aa fd bd 77 ee f1 bc f0 f3 c8 bd
       -0.08802487 -0.12385945 -0.029532654 -0.098121524
0002d0 e6 3b aa bd 8d 0c ad 3d 34 33 cc bd 6c 00 7c 3c
       -0.08312206 0.084496595 -0.09970704 0.01538096
0002e0 7e e3 09 3d 3c 30 9e 3c 0e 92 08 bd 69 39 1e 3d
       0.03366422 0.01931011 -0.033342414 0.03862897
0002f0 73 80 05 bd a7 da 2c bd e6 db 50 bd f5 d5 7f bd
       -0.0325932 -0.04220071 -0.05099096 -0.062459905
000300 1e 96 1d bd d0 6c f1 3d eb e3 a0 3d 49 70 6a 3d
       -0.03847324 0.117883325 0.07855972 0.05723599
000310 a6 d8 86 bc 66 b8 ab 3d 15 49 eb 3b df 6a b9 3d
       -0.016460728 0.083847806 0.007180343 0.09053587
000320 5c 62 4e bd 02 1d 26 ba ca ed cc 3d 6f 87 58 bd
       -0.05038677 -0.000633672 0.10006292 -0.052863535
000330 e9 39 24 bd 15 12 d0 3d 08 96 aa bd c2 b0 7d bd
       -0.04009429 0.10159699 -0.083293974 -0.061936148
000340 2d 83 c7 bc ef b8 5b bd e6 22 21 bd ab 3d b4 bc
       -0.024354542 -0.053643163 -0.039339922 -0.022002062
000350 3f b1 5d ba 8f c1 8d bd 07 c4 83 bc 1d 45 c1 bd
       -0.00084568927 -0.06921684 -0.016084684 -0.094370104
000360 d3 23 73 bd 93 3f 9e 3d 78 31 be bd 61 cd 97 3d
       -0.059360337 0.077269696 -0.09286779 0.0741222
000370 0f b6 b2 bd df a1 b8 3d f5 c0 bb 3c 0d 4b f7 3d
       -0.08726131 0.090152495 0.022919158 0.12074862
000380 0e fc e0 3d bb 25 8a bd 37 40 bb 3d b3 83 d1 3d
       0.109855756 -0.06745478 0.091431074 0.10230198
000390 83 d5 d5 3d 3e 64 aa bd df 02 28 3c 40 75 05 bd
       0.10441115 -0.08319901 0.010254591 -0.03258252
0003a0 36 87 cc 3d 68 de df 3d 2a 1c cb bd 56 3a 9f 3d
       0.09986727 0.109310925 -0.09917481 0.077747986
0003b0 ed e3 ae bd aa ba ea bd 96 6e c3 bd c6 d4 dc bd
       -0.08539567 -0.114613846 -0.09542577 -0.10782771
0003c0 73 31 f3 3c 06 b7 82 3d ae 32 c7 bd ed f3 b5 3b
       0.029686665 0.06382565 -0.09726463 0.00555276
0003d0 45 04 fd 3b 29 f8 8d 3c 90 78 c6 bd 74 57 91 3d
       0.0077214562 0.017330246 -0.09690964 0.070967585
0003e0 35 c1 f3 bd 7b 2b 27 3c 2e 56 3f 3b 77 da 32 3d
       -0.11902086 0.010203238 0.0029195654 0.043665376
0003f0 41 f3 a4 bd ad 76 e3 3d 35 a4 64 3d 26 eb ef 3d
       -0.080542095 0.1110662 0.055820663 0.11714773

fc1.0.bias f4 [64]
000000 01 5f 9c 3c 78 ff c9 bd 70 de e8 bd 90 d4 94 3d
       0.01908827 -0.0986318 -0.113705516 0.072671056
000010 f8 f9 3f 3d 0d 9d 0e 3d c4 4f 2d 3d 3b e7 be 3d
       0.04686925 0.034817744 0.0423124 0.093214475
000020 15 d6 54 bc fa 73 64 bc 68 50 64 3c 7a dd ab 3d
       -0.012990494 -0.013943667 0.013935186 0.08391853
000030 48 f4 5e bd c7 5b b7 3b 13 72 c1 3d 04 93 f1 bd
       -0.054432184 0.0055956575 0.09445586 -0.11795619
000040 80 57 01 bd 8b 1d d7 3c 59 33 8e 3d 72 11 c6 3d
       -0.031577587 0.026259204 0.069433875 0.09671296
000050 21 c0 22 bb 50 dd 22 3d b6 09 cf ba fe 13 dd bc
       -0.0024833756 0.03976184 -0.0015795741 -0.026987072
000060 da 3e 30 3d 36 bd 99 3c b4 5a e7 3c d4 61 b9 bc
       0.04302869 0.01876698 0.028241493 -0.022629656
000070 0e a0 44 3d bc 86 cc bd 95 32 c4 3a 11 b3 97 3d
       0.048004203 -0.09986636 0.0014968688 0.07407201
000080 22 cb 27 3b 35 ae f2 bd 38 79 bc bd 64 8d 7d bd
       0.0025603254 -0.118496336 -0.09202808 -0.06190242
000090 c8 f3 a3 3d fa 2d 62 bd 9d b6 ea 3d fb 73 bf bd
       0.08005482 -0.055219628 0.11460612 -0.093482934
0000a0 67 ef db bc a6 a1 4f bd 4b 16 8e 39 52 c5 db 3d
       -0.026847554 -0.05069127 0.0002710096 0.10730995
0000b0 36 97 fc 3c e5 ad 44 3d cd 04 83 3d 68 a4 a2 3d
       0.030833822 0.0480174 0.063974 0.07941514
0000c0 4f aa 52 bd 12 4f 95 bd 60 0d 41 bc b2 2d cf bd
       -0.05143195 -0.07290472 -0.011782974 -0.101161376
0000d0 88 35 cb 3d ea 34 54 bc 6c 55 1c 3c a1 24 04 3d
       0.0992232 -0.012952069 0.009541851 0.032261495
0000e0 ae bc c6 3d f0 4b 84 3d 4f eb 8c bc a8 ae 85 bb
       0.097039565 0.064597964 -0.017202048 -0.0040796585
0000f0 99 3b 20 bd f1 32 cf 3c 95 ff 38 3d f5 cb ef bd
       -0.039119337 0.025292845 0.045165617 -0.117088236

output_layer.0.weight f4 [1, 64]
000000 b0 a2 df bd 7c 8c 3b bd 00 09 8b bd 70 34 8e bd
       -0.10919702 -0.045788273 -0.06788826 -0.069435954
000010 8d b3 ba bc 67 de cf 3d 49 00 91 bd 6f 51 b8 3d
       -0.022790695 0.10149842 -0.070801325 0.08999907
000020 24 a1 ec 3d 4d 35 9b 3d c1 49 cd bd c8 14 ad bd
       0.11554173 0.07578526 -0.10023833 -0.08451229
000030 b3 f9 3b 3c 63 1f d5 bd b5 dd e0 3d 36 a4 e8 3d
       0.011473107 -0.10406377 0.10979787 0.11359446
000040 07 fb 93 3d e0 b1 c9 bd 6c 8b dc bd 60 7d c6 3d
       0.07225614 -0.0984838 -0.1076878 0.09691882
000050 30 09 02 3e b2 bb d5 bd a0 3b 54 3d ce 6c 00 3e
       0.12698817 -0.10436191 0.051814675 0.12541506
000060 e4 78 34 3d d3 a9 85 bc b2 ad b3 3d 49 fc a8 3d
       0.044060603 -0.01631633 0.08773364 0.082512446
000070 58 b5 69 3d 9d 99 82 bd 49 ca bd 3d 77 71 5a bd
       0.05705771 -0.06376956 0.092670985 -0.053330865
000080 08 bc 4b 3c 45 00 8a bd f3 99 ff 3d 0c d7 bc 3a
       0.012434967 -0.06738333 0.12480535 0.0014407351
000090 b2 8a 3e 3c cb 5e 89 bd fb bf f1 bd 92 d7 87 3c
       0.011629747 -0.067075334 -0.118041955 0.016582284
0000a0 41 89 d5 bd dc bb de bd 5f 79 ba 3d 58 12 7e bd
       -0.1042657 -0.10875675 0.09105181 -0.062029213
0000b0 38 fa a0 3d c4 ac 7b 3d 14 ab bf 3c 4c 91 3e bd
       0.078602254 0.06144406 0.023397006 -0.046525285
0000c0 a0 e7 48 3b 07 21 eb 3c 06 b2 6c bd 26 18 a8 bb
       0.0030655637 0.028702272 -0.057786964 -0.005129832
0000d0 29 65 26 3d d2 a1 cc 3b ae 83 b5 bd 18 c7 f2 bd
       0.040623818 0.0062448764 -0.088630065 -0.1185438
0000e0 25 a5 80 3d a2 c2 f2 3d 72 89 79 bd 5c 2c a8 bc
       0.06281499 0.118535295 -0.060922094 -0.020528965
0000f0 56 f3 80 bd 7f 1c d7 3d 0b b0 43 3d 13 5a 1d 3d
       -0.06296413 0.10503482 0.04777531 0.03841598
