blocksize-2/model_epoch_3_120.pth (torch, 171967 bytes, 9 tensors)

embedding.0.weight f4 [64, 7]
00000000: 492a 4a3e 3f0a 86be 42de b6bc afff 1a3d
00000010: d5e9 713e 2869 bcbe 3a28 a7be 5cd7 dc3c
00000020: 1323 e63d 46c1 1abe ccee 47bd 01aa 64bc
00000030: bab3 b4be 642b 7cbe 08a8 b1be c7f8 ff3d
00000040: b4cc 1a3e 26ff 253d 1418 853e 3f3f 0fbe
00000050: 4ce3 a2be 4d14 a2be 4bbb 6e3e df00 803d
00000060: daca f43d 7100 193e c59b be3e 5270 2fbd
00000070: fb54 973b b439 813e d081 2ebe 5b51 1bbe
00000080: 1f3e 9d3e 0636 8f3e 8576 96be 8345 8fbe
00000090: 0804 b6be a443 fc3d ea8f c53c babb 823e
000000a0: b515 83be 4fc8 0bbe 2de2 98bd 2a2f 8bbe
000000b0: 0356 babe 302c 303e 194c cf3d 9609 92be
000000c0: 86da 4d3e f4cc 5dbe ad59 9c3c 166b 393e
000000d0: ca37 c1b9 4ccc 21be 56d3 823e c2d0 a03e
000000e0: a4d8 c0be 2007 5b3e 02ae 1e3e ef0d 903e
000000f0: b394 d7bd 62a0 bc3d 677a 153d 079a 10bd
00000100: a9f8 273e 68cb 68bd 2a6c 1fbe 51cd d93c
00000110: 519a 6bbe 0a57 72be 1545 30bd 3422 9abc
00000120: 0ab6 393e ee07 7f3d cb68 583e e81e 923e
00000130: 97e1 9abe d3c5 bdbe fe91 313e f38e ab3e
00000140: acbc 80be 6297 70be 01a5 923d a06c b53e
00000150: e31d 7cbe d987 bcbe 22d2 81be 0155 5ebc
00000160: 5039 733e 66fa a83e fa3d 6e3d 5385 89be
00000170: 0f19 a4bd d7e8 ea3d 6d2c 05bd 47f6 3dbc
00000180: c19d 833d 91e1 c33e 4681 2abe e6d2 7c3e
00000190: b9bb 9abe 3299 74be f98e 863e c5de bf3e
000001a0: a7da a4be 8a0d 9f3e 8fcc a6bd 29a7 7a3e
000001b0: 8704 58bd 954d b7be 3033 4b3d 9ddc 313e
000001c0: a86e 50be dbd3 a9be 9a70 6bbd 1ac2 b23e
000001d0: 8b48 a43e 86b9 893e 75a1 b03d 690e f8bc
000001e0: eaf7 27be d116 67be 65b4 853e 2186 74be
000001f0: 9fed af3e 1cbe a43e e42a 75bc 0d8b 353e
00000200: febe 033d cab0 df3d 27e8 2a3e d2e2 043e
00000210: 7b99 a1be 48ef 3b3d 262e 453e ccd7 813d
00000220: 2e75 053e 1722 e0bd b0cf b33a 0214 9e3e
00000230: 85b5 023d d951 e8bd 6e43 893d fae1 83bc
00000240: b2fc 1dbe e36a aa3e 24b0 d93d 2b0a b43e
00000250: e407 7dbd 0a87 bcbe e5c5 653d bd3d 343e
00000260: 8efe 983e 7b9e 34be fe96 803e 6711 2abe
00000270: 0ed0 463e 853e d63d 86a1 ac3e 3a4d 05bc
00000280: 5b8a bb3e fa0b c53d 30fc 8b3e 3f79 bcbe
00000290: 54cd a53e 98cd a9be d0d8 84be ec23 40bd
000002a0: 43d2 933e 7569 2a3d f00c 1bbe 3b63 af3d
000002b0: 4214 aabe c5ee 073e ba65 283e abae 463e
000002c0: b5da 123c 4b26 84be c571 6d3e d1c7 eebb
000002d0: 8411 b13e 2472 36be bb64 9c3d 26be aebe
000002e0: 8089 f0bc d719 193e 9376 93be cd32 01be
000002f0: 99e1 763e 6cda a63e c4fe d8bd e509 953e
00000300: a231 b93e 02f1 893e 2e67 0a3e 9475 4a3e
00000310: 2c9a 3c3e 7089 3abe 354d 393d 5230 543d
00000320: ba1d 093e 9104 0d3e d07c e3bd be5b 8c3e
00000330: e035 643e 35b1 d93d 766b c63d 9e5f c13e
00000340: 8518 563e 3550 8f3e a752 aa3e a23a 9dbb
00000350: 2ef2 0c3e a254 f2bc 97c2 3cbe 989f 93bd
00000360: bcf2 633e ef35 af3e 3a05 d13d 06d0 1abe
00000370: a31b 24be bad4 9a3e 7624 313e 5d03 98bc
00000380: 0e67 e33d c624 953e 3575 91be 1f68 263e
00000390: f5e2 5dbd 8ee0 813e be74 35be 8239 1cbe
000003a0: 0415 8cbe 6852 0e3e 03dc 59be eb19 91be
000003b0: 870d 6f3e 4adf 85be 0431 9e3e e1c8 183e
000003c0: 47a7 53be 9e9f d83d de57 76be 67e3 213e
000003d0: d102 9fbe 4d4b d93c 29d2 92bd cedb a03e
000003e0: 4e42 c4bd 6a9f 93be 5fc7 683e 8348 213e
000003f0: c24d f5bc e6b6 bab7 7ecd 403e de95 9dbe
0.19742693 -0.26179692 -0.022322778 0.037841495 0.23624356 -0.36798978 -0.32647878 0.02695816
0.112371586 -0.1511279 -0.04881172 -0.013956548 -0.3529337 -0.24625927 -0.3469851 0.124986224
0.1511715 0.04052653 0.25994933 -0.1398897 -0.3181404 -0.31656113 0.23313634 0.06250166
0.11952753 0.14941575 0.37228218 -0.042831726 0.0046182848 0.25239336 -0.17041707 -0.15167753
0.30711457 0.27970904 -0.29387298 -0.2798272 -0.3554995 0.12317589 0.024116475 0.2553385
-0.256025 -0.1365063 -0.074650146 -0.2718442 -0.36393747 0.17204356 0.10121936 -0.28522938
0.20102891 -0.21660215 0.01908573 0.18107256 -0.00036853395 -0.1580059 0.25551862 0.3140927
-0.37665284 0.21389437 0.15496066 0.2813563 -0.10526409 0.09210278 0.036493685 -0.035303142
0.1640345 -0.05683461 -0.15568605 0.02658716 -0.23008086 -0.23666015 -0.04303463 -0.018815137
0.18135849 0.06226342 0.21133725 0.28539205 -0.30250236 -0.3706499 0.17340848 0.335075
-0.25143945 -0.23495248 0.07160378 0.35434437 -0.24620776 -0.36822394 -0.2535563 -0.013570071
0.23752332 0.3300354 0.058164574 -0.2685953 -0.08012592 0.11470192 -0.03251307 -0.011594362
0.064265735 0.3825803 -0.16650876 0.24689826 -0.30221346 -0.23886564 0.26280954 0.37474647
-0.32198068 0.31065017 -0.08144485 0.24477829 -0.052738693 -0.35801378 0.049609363 0.17369314
-0.20354712 -0.33169445 -0.057480432 0.34913713 0.32086596 0.26899356 0.086245455 -0.030280309
-0.16403165 -0.22567298 0.26114193 -0.23879291 0.34360978 0.32176292 -0.014963839 0.17728825
0.032164566 0.10922392 0.16690122 0.1297715 -0.3156241 0.045882493 0.19255885 0.06339988
0.13032982 -0.10944002 0.0013718512 0.3087464 0.03191139 -0.11343736 0.06702314 -0.016098965
-0.15428427 0.33284673 0.10629299 0.35164008 -0.061775103 -0.36821777 0.05609693 0.17601676
0.2988171 -0.1763858 0.25115198 -0.16608201 0.19415304 0.104611434 0.33716983 -0.008136088
0.36628994 0.09621425 0.2734084 -0.36811253 0.32383215 -0.33164668 -0.25946665 -0.046909258
0.28871354 0.041604478 -0.15141654 0.085638486 -0.3321858 0.13274677 0.16445056 0.19402568
0.008963277 -0.25810465 0.23187931 -0.0072870036 0.34583676 -0.17816979 0.076364 -0.34129447
-0.02936244 0.14951263 -0.28801402 -0.12617035 0.24109496 0.32588518 -0.10595468 0.2910911
0.3617068 0.26941687 0.13515922 0.19771415 0.18418187 -0.18216491 0.045239646 0.051803894
0.13390246 0.13771273 -0.111077905 0.27413744 0.22286177 0.10629503 0.09688465 0.37768263
0.20907791 0.2799088 0.33266184 -0.0047982493 0.13764259 -0.029581372 -0.18433605 -0.072081745
0.22260565 0.34220836 0.10206075 -0.15118417 -0.16026168 0.30240422 0.17299065 -0.018556291
0.111036405 0.29129618 -0.28409734 0.16250657 -0.05417152 0.25366634 -0.17720315 -0.15256312
-0.27359784 0.13898623 -0.21275334 -0.28340086 0.23345004 -0.2614692 0.3089677 0.14920379
-0.2066928 0.105773196 -0.24056956 0.15809403 -0.31056836 0.026525164 -0.07168991 0.31417698
-0.09582959 -0.2883256 0.22732304 0.15750317 -0.029944304 -2.2258097e-05 0.18828389 -0.30778402

embedding.0.bias f4 [64]
00000000: 5c28 14be 6f39 ba3d 1f30 eb3d 0d18 4bbe
00000010: a5d2 b0be 7b20 56be 81b7 95be 99a0 543d
00000020: 8004 d8bd 5edf bbbe 99be 0e3e 1292 afbe
00000030: 33af cfbd cf16 6d3e becb 423d 590c b5bd
00000040: 4d97 31bd 9d09 d7bd 5148 bc3e 5acc 28be
00000050: 3219 323c 2c89 10be 65bb a03e 9746 9abe
00000060: d426 b13d e23e 29be 6669 5dbe 4c20 7d3e
00000070: cdcd 33be a1c7 a8be 95ad 90be fd95 b0be
00000080: 806e f83d 5d65 1fbe 433d 023e ad4e 9bbe
00000090: 342e 683e 8dc5 85be ebaa 58be 56db 603e
000000a0: 5cd1 463d 4819 8cbe edc6 6bbd 1349 6fbe
000000b0: 8e45 19be db7d b1be 935f b23e 30ef 3ebe
000000c0: 5281 5bbe 7a39 77be 5886 8dbe b4cd 8b3e
000000d0: 77cb 773e 724b 13bd 0314 f23c 8aa7 26be
000000e0: 2f8c b13e f3a0 b2be ca40 a43e d2ff 2b3e
000000f0: 20e6 8ebe 1f6d c43d bf47 7ebe 08e7 b8bc
-0.14468521 0.09092986 0.11483788 -0.19833393 -0.3453571 -0.20910828 -0.29241565 0.05191097
-0.10547733 -0.36693853 0.13939895 -0.3429113 -0.101408385 0.23153232 0.047557585 -0.08840246
-0.043357182 -0.104998805 0.36773923 -0.16484204 0.010870265 -0.14114827 0.3139297 -0.3013198
0.08649984 -0.16527894 -0.21622238 0.24719352 -0.17558976 -0.32964805 -0.28257433 -0.34489432
0.12130451 -0.15566011 0.12718682 -0.30333462 0.22673875 -0.26127282 -0.2115895 0.2195867
0.048539504 -0.27363038 -0.057562757 -0.2336772 -0.1496794 -0.34666333 0.34838542 -0.1864593
-0.2143605 -0.2414302 -0.2764156 0.27305377 0.2419871 -0.035960622 0.029550558 -0.16274849
0.34677264 -0.3488842 0.3208068 0.16796806 -0.27909946 0.09591126 -0.24832056 -0.022571102

layernorm.weight f4 [259, 64]
00000000: fc03 803f 52ff 7f3f 0000 803f d701 803f
00000010: dfff 7f3f 5b00 803f fe09 803f 16b5 7f3f
00000020: 8ae2 7f3f 65fd 7f3f 8901 803f 1315 803f
00000030: 8800 803f 293a 803f b8fe 7f3f 74d4 7f3f
00000040: c102 803f 3913 803f d7fe 7f3f 08a4 7f3f
00000050: 0de9 7f3f 4703 803f fefc 7f3f 4bf1 7f3f
00000060: dae3 7f3f ffff 7f3f 4bea 7f3f 45d3 7f3f
00000070: 55f8 7f3f 4828 803f f1b3 7f3f a6ff 7f3f
00000080: 0000 803f c001 803f 62ff 7f3f a501 803f
00000090: 0700 803f 58ff 7f3f d901 803f abff 7f3f
000000a0: 4d16 803f e72a 803f fffe 7f3f 2701 803f
000000b0: 1cef 7f3f 3ada 7f3f d203 803f 3ef5 7f3f
000000c0: 0000 803f d3fb 7f3f 0c00 803f e8ff 7f3f
000000d0: 33eb 7f3f f8ff 7f3f 5101 803f 48fe 7f3f
000000e0: bcfa 7f3f 4300 803f 9506 803f faff 7f3f
000000f0: d3f9 7f3f 90fe 7f3f 7eff 7f3f 0b00 803f
00000100: b7ff 7f3f 7100 803f 0f02 803f 5c04 803f
00000110: 0600 803f 4700 803f fa02 803f 8aff 7f3f
00000120: a000 803f 7efe 7f3f ab00 803f 6c04 803f
00000130: 4200 803f e2ee 7f3f f0fd 7f3f 37f7 7f3f
00000140: ddfa 7f3f 74ec 7f3f 4f06 803f 87fb 7f3f
00000150: a5f8 7f3f 7300 803f a8fc 7f3f 6ef4 7f3f
00000160: 0bf8 7f3f 5d00 803f 8bf9 7f3f a6fd 7f3f
00000170: 36ff 7f3f d7f0 7f3f c4f5 7f3f 83ff 7f3f
00000180: 5a00 803f 4a01 803f 0300 803f 0700 803f
00000190: 0000 803f 5a04 803f 1101 803f dcfc 7f3f
000001a0: 8a05 803f deeb 7f3f 2200 803f 9801 803f
000001b0: 86fa 7f3f 2000 803f 8c00 803f e101 803f
000001c0: ebfd 7f3f c900 803f 1d01 803f 0000 803f
000001d0: 5cfa 7f3f 5301 803f 0601 803f 5102 803f
000001e0: 57f8 7f3f 0e00 803f 5af3 7f3f f5ff 7f3f
000001f0: 1e04 803f 3700 803f d3ff 7f3f b7fe 7f3f
00000200: d102 803f a4ff 7f3f 2f00 803f 5d02 803f
00000210: f0ff 7f3f 5500 803f 9e0d 803f 6ea5 7f3f
00000220: 77cf 7f3f cefd 7f3f 4f01 803f c61d 803f
00000230: 6500 803f d043 803f b7ff 7f3f e3cc 7f3f
00000240: a403 803f ed1d 803f ae00 803f 7b8e 7f3f
00000250: ade7 7f3f 0303 803f ddf2 7f3f cae1 7f3f
00000260: a1e1 7f3f 0500 803f 1fe8 7f3f e7d5 7f3f
00000270: 40fa 7f3f 8731 803f 91a7 7f3f acff 7f3f
00000280: 0400 803f 3901 803f a5ff 7f3f 1d01 803f
00000290: 0400 803f 6c00 803f a501 803f c6fd 7f3f
000002a0: cf1b 803f 9539 803f 87ff 7f3f 0601 803f
000002b0: 25e0 7f3f c7ca 7f3f 1a02 803f 80fa 7f3f
000002c0: f9fe 7f3f cfeb 7f3f 2900 803f ecff 7f3f
000002d0: e5df 7f3f 1a00 803f 1201 803f 6d00 803f
000002e0: 43f7 7f3f 3700 803f c80c 803f faff 7f3f
000002f0: f5fa 7f3f 54ff 7f3f a0ff 7f3f 0100 803f
00000300: b1ff 7f3f 6b00 803f b901 803f 2004 803f
00000310: 0200 803f 4600 803f 9602 803f 0a00 803f
00000320: e2ee 7f3f b4fe 7f3f 8c00 803f 5001 803f
00000330: 2f00 803f eaf0 7f3f 0600 803f 1cfe 7f3f
00000340: 81fb 7f3f 99f2 7f3f bc05 803f 91fa 7f3f
00000350: 74fb 7f3f 4800 803f 09fb 7f3f c8eb 7f3f
00000360: 45fa 7f3f 5100 803f c3fc 7f3f 15f8 7f3f
00000370: 77ff 7f3f 64f7 7f3f 12fe 7f3f 8fff 7f3f
00000380: 4500 803f c700 803f 1300 803f 0700 803f
00000390: 0000 803f 1104 803f 1f01 803f affa 7f3f
000003a0: 7302 803f e0f7 7f3f 2d00 803f 4601 803f
000003b0: 69f9 7f3f 0900 803f 2f00 803f 9001 803f
000003c0: e9fe 7f3f 2400 803f f400 803f 0000 803f
000003d0: 17fd 7f3f 4101 803f e000 803f 7801 803f
000003e0: 70fa 7f3f 0d00 803f 06fd 7f3f f9ff 7f3f
000003f0: 2e03 803f 3b00 803f e2ff 7f3f d6fe 7f3f
1.0001216 0.9999896 1.0 1.0000561 0.99999803 1.0000108 1.0003049 0.9988569
0.99955046 0.99996024 1.0000468 1.0006431 1.0000162 1.0017749 0.99998045 0.9993355
1.000084 1.0005866 0.9999823 0.99859667 0.9996498 1.0001 0.9999541 0.9997756
0.9995705 0.99999994 0.9996688 0.99931747 0.999883 1.0012293 0.99883944 0.99999464
1.0 1.0000534 0.9999906 1.0000502 1.0000008 0.99999 1.0000564 0.99999493
1.0006806 1.0013093 0.9999847 1.0000352 0.99974227 0.9994236 1.0001166 0.99983585
1.0 0.9999363 1.0000014 0.99999857 0.9996826 0.9999995 1.0000402 0.9999738
0.99991965 1.000008 1.0002009 0.99999964 0.99990577 0.99997807 0.99999225 1.0000013
0.99999565 1.0000135 1.0000628 1.000133 1.0000007 1.0000085 1.0000908 0.99999297
1.0000191 0.999977 1.0000204 1.000135 1.0000079 0.9997388 0.9999685 0.99986595
0.9999216 0.99970174 1.0001925 0.99993175 0.99988776 1.0000137 0.999949 0.99982345
0.9998786 1.0000111 0.9999015 0.9999641 0.99998796 0.9997687 0.99984384 0.99999255
1.0000107 1.0000393 1.0000004 1.0000008 1.0 1.0001328 1.0000325 0.9999521
1.000169 0.9996928 1.000004 1.0000486 0.99991643 1.0000038 1.0000167 1.0000573
0.99996823 1.000024 1.000034 1.0 0.99991393 1.0000404 1.0000312 1.0000707
0.9998831 1.0000017 0.999807 0.99999934 1.0001256 1.0000066 0.9999973 0.9999804
1.000086 0.9999945 1.0000056 1.0000721 0.99999905 1.0000101 1.0004156 0.998618
0.9992594 0.9999665 1.0000399 1.0009086 1.000012 1.0020695 0.99999565 0.9992201
1.0001111 1.0009133 1.0000207 0.9982678 0.99962884 1.0000919 0.99979955 0.999539
0.9995366 1.0000006 0.99963564 0.99935764 0.99991226 1.0015115 0.9986506 0.999995
1.0000005 1.0000373 0.9999946 1.000034 1.0000005 1.0000129 1.0000502 0.999966
1.0008487 1.0017573 0.9999928 1.0000312 0.9995139 0.9991879 1.0000641 0.9999161
0.9999843 0.9996919 1.0000049 0.9999988 0.9995101 1.0000031 1.0000327 1.000013
0.99986666 1.0000066 1.00039 0.99999964 0.99992305 0.99998975 0.9999943 1.0000001
0.9999953 1.0000128 1.0000526 1.0001259 1.0000002 1.0000083 1.0000789 1.0000012
0.9997388 0.9999802 1.0000167 1.00004 1.0000056 0.9997698 1.0000007 0.99997115
0.9999314 0.9997955 1.000175 0.9999171 0.9999306 1.0000086 0.99992424 0.9996915
0.99991256 1.0000097 0.9999506 0.9998792 0.99999183 0.99986863 0.99997056 0.99999326
1.0000082 1.0000237 1.0000023 1.0000008 1.0 1.0001241 1.0000342 0.9999189
1.0000747 0.999876 1.0000054 1.0000389 0.99989945 1.0000011 1.0000056 1.0000477
0.9999834 1.0000043 1.0000291 1.0 0.9999556 1.0000383 1.0000267 1.0000448
0.9999151 1.0000015 0.9999546 0.9999996 1.000097 1.000007 0.9999982 0.99998224

layernorm.bias f4 [259, 64]
00000000: ed89 9338 db26 aa38 1141 9f38 e7dc ec38
00000010: 6d15 4037 9e8c c4b8 594a bf38 fe5d aab8
00000020: 22a3 cfb8 2f4c 0fb8 96f6 0939 46ac 9838
00000030: 7f92 db36 e0bc 0739 9ee1 aeb8 841a d8b8
00000040: 4ee0 75b8 0a3a a538 fa66 1339 14c7 a4b8
00000050: f2ac f6b8 08ec 9f38 a21e 72b7 6a7c f1b8
00000060: 3117 75b8 ffb8 8f37 b205 75b8 d8df 69b8
00000070: daae 64b8 4ecf e938 0e37 f9b8 a9a2 4338
00000080: 599d da36 9d16 8238 5e03 a1b8 78ad b837
00000090: 42f5 18b8 6c87 8e38 399d e838 ca11 a5b7
000000a0: f11c 1639 6e2f 0539 0569 ddb8 040a 5d38
000000b0: 1fd2 97b7 ac54 86b8 cd0e eb37 8fad 8b37
000000c0: 6d47 1d37 9d8d 1ab8 db62 cd38 e1a5 ff35
000000d0: 5614 40b8 11f9 b137 6da6 f038 cfe4 2139
000000e0: 359f 2fb8 4fe0 c8b8 204a 9238 1dfb 9137
000000f0: 4257 7638 adee ddb8 8a4c 42b8 0bb6 24b8
00000100: ff4c 2938 53ee 6d38 994f 5b38 7d65 5538
00000110: d2b1 4e38 3782 42b8 8e75 0737 d4d7 61b8
00000120: d53c c9b7 0779 e3b3 f95d 0038 2396 0b38
00000130: 437e 93b7 0662 4638 716d e9b7 ec04 99b8
00000140: f692 26b8 4612 0238 86e8 7e38 2d94 7cb8
00000150: df43 9fb8 3d8e 0d38 3881 1db8 4323 2bb8
00000160: e518 30b8 a67b ac37 8663 3eb8 7b1b 57b8
00000170: 42e3 3ab8 07a2 8038 d21f adb8 2694 3738
00000180: 719e e237 e249 5137 68a0 1eb8 6672 10b5
00000190: 49f6 dbb7 1529 6c38 86de 6638 12aa a1b7
000001a0: eef3 3038 002a 5a38 6f87 4cb8 6275 ab37
000001b0: f58f 0ab8 aaa9 0cb8 8209 25b7 8915 a335
000001c0: 3abd 8a37 9f7c a735 50ae 3d38 2f95 3cb8
000001d0: e782 56b8 8b93 2f38 1962 5538 526c 5738
000001e0: fc33 5eb8 7d69 43b8 d422 8237 84a4 c337
000001f0: 0f28 e936 fff8 27b8 5e38 47b4 c4e7 3cb7
00000200: 70c3 9b38 9149 a838 20a2 a938 0ec9 f938
00000210: b9c0 0837 8e3e c3b8 f931 b538 f72d bbb8
00000220: fa95 ccb8 6b9e 4fb8 feb4 0639 eb33 9a38
00000230: 88b2 0737 f745 0c39 ee76 c8b8 e721 e5b8
00000240: 47bb 82b8 b4e9 bc38 7140 1639 7f33 c0b8
00000250: 9621 03b9 8541 ae38 39dd 95b7 277c feb8
00000260: dc44 93b8 7f53 9737 d0e1 87b8 98fc 70b8
00000270: fe02 71b8 29cc f738 775e 02b9 af26 6038
00000280: c915 3436 2117 9d38 d0bd bdb8 2bdf a637
00000290: 6773 f7b7 51f2 9a38 28c9 e038 a681 e1b7
000002a0: ca6d 1b39 1891 0f39 650e f5b8 1286 6a38
000002b0: d310 c1b7 25e7 9db8 2a41 9b37 c8b4 c937
000002c0: 7f52 6f37 e062 2bb8 9569 d038 7267 8e35
000002d0: 3124 62b8 94c9 d837 6af9 e838 ede2 2939
000002e0: 5277 4fb8 4161 d4b8 9d8d 8e38 036f 7237
000002f0: af62 7638 500b deb8 11a5 43b8 00f8 0fb8
00000300: 458b 9738 2a96 7238 3544 5d38 5d3b bf38
00000310: 4e79 a337 cf7f 70b8 efe8 1238 88b6 91b8
00000320: b5d2 8ab8 ec7d e8b7 e0d9 8b38 e82f 2a38
00000330: 6e6f ecb6 2b0b 6538 29e7 88b8 3fbd b6b8
00000340: 4e24 2ab8 91ae 3a38 5cb4 d038 ce70 8cb8
00000350: 679b a7b8 3536 3838 488c 43b8 ee99 a1b8
00000360: fd98 39b8 20f1 c737 9cd3 38b8 0e5a 8db8
00000370: b2b8 8cb8 56c9 aa38 9137 d6b8 7859 8938
00000380: a18e b237 664d 1838 43a9 93b8 8d8e 83b5
00000390: a0f2 bfb7 6ab8 9a38 d514 9538 0dbc 48b8
000003a0: 5012 9a38 47fc a638 4b6d 80b8 63e0 6438
000003b0: bb82 31b8 81da 54b8 28cf e4b6 b124 a837
000003c0: 4f29 d335 fa4c 8bb7 e141 6838 31e1 2ab8
000003d0: 505f 6bb8 ae0b 1d38 06e8 9938 7a60 cd38
000003e0: c5d5 9db8 c4d5 71b8 a61b 1e38 af2d 8437
000003f0: fc9a f737 10c8 83b8 aece 7db5 2058 a9b7
7.035197e-05 8.113469e-05 7.5938304e-05 0.00011294503 1.144908e-05 -9.3722e-05 9.121438e-05 -8.123739e-05
-9.900915e-05 -3.416481e-05 0.00013157199 7.280013e-05 6.543763e-06 0.00012944965 -8.338991e-05 -0.000103046215
-5.8621452e-05 7.878624e-05 0.00014057374 -7.8572106e-05 -0.00011762408 7.625675e-05 -1.4431456e-05 -0.000115149494
-5.843415e-05 1.7133074e-05 -5.8417856e-05 -5.576e-05 -5.452228e-05 0.00011148919 -0.000118835 4.6643112e-05
6.515224e-06 6.203095e-05 -7.6777054e-05 2.2015287e-05 -3.6468038e-05 6.796312e-05 0.00011091907 -1.9677816e-05
0.00014315896 0.00012701537 -0.000105576626 5.2699834e-05 -1.8098448e-05 -6.405389e-05 2.8021075e-05 1.665091e-05
9.374559e-06 -3.684835e-05 9.793575e-05 1.9047258e-06 -4.5795307e-05 2.1216025e-05 0.00011475091 0.00015439394
-4.1871524e-05 -9.578524e-05 6.9756294e-05 1.740228e-05 5.8732236e-05 -0.00010582558 -4.6324487e-05 -3.9270188e-05
4.0364448e-05 5.672716e-05 5.22878e-05 5.0877676e-05 4.9279835e-05 -4.6374476e-05 8.073997e-06 -5.3845186e-05
-2.3989394e-05 -1.0592526e-07 3.0605097e-05 3.328001e-05 -1.758256e-05 4.729817e-05 -2.7826727e-05 -7.296525e-05
-3.9714352e-05 3.1011434e-05 6.0774873e-05 -6.021948e-05 -7.594353e-05 3.374949e-05 -3.755206e-05 -4.0802417e-05
-4.1984855e-05 2.0561576e-05 -4.539222e-05 -5.1285588e-05 -4.4557506e-05 6.1336956e-05 -8.25521e-05 4.3768574e-05
2.701508e-05 1.2474573e-05 -3.7819525e-05 -5.381065e-07 -2.622152e-05 5.6305045e-05 5.5043514e-05 -1.927189e-05
4.2188847e-05 5.2014366e-05 -4.8763522e-05 2.043945e-05 -3.3035834e-05 -3.3536613e-05 -9.83698e-06 1.2150714e-06
1.6538997e-05 1.2478739e-06 4.5223453e-05 -4.496163e-05 -5.114349e-05 4.186066e-05 5.0874518e-05 5.1360876e-05
-5.297734e-05 -4.6589867e-05 1.5513426e-05 2.332242e-05 6.9486046e-06 -4.00478e-05 -1.8553825e-07 -1.1259635e-05
7.427379e-05 8.024567e-05 8.088746e-05 0.000119106946 8.151103e-06 -9.309976e-05 8.640061e-05 -8.9254165e-05
-9.755413e-05 -4.9500184e-05 0.0001284666 7.352963e-05 8.088195e-06 0.00013377504 -9.5588955e-05 -0.00010925886
-6.233766e-05 9.008069e-05 0.00014329121 -9.164865e-05 -0.00012505645 8.3091705e-05 -1.7865199e-05 -0.00012134789
-7.022332e-05 1.8039484e-05 -6.4793625e-05 -5.7455705e-05 -5.7461664e-05 0.000118159056 -0.00012432957 5.344179e-05
2.683477e-06 7.4906515e-05 -9.0475776e-05 1.9892663e-05 -2.9498433e-05 7.388427e-05 0.000107186206 -2.6882462e-05
0.00014822852 0.00013691594 -0.000116851916 5.591481e-05 -2.3015227e-05 -7.5293974e-05 1.8507784e-05 2.404525e-05
1.4264718e-05 -4.086166e-05 9.937879e-05 1.0609931e-06 -5.3916305e-05 2.5843074e-05 0.00011109079 0.00016201632
-4.946377e-05 -0.00010127063 6.797465e-05 1.4450171e-05 5.8742877e-05 -0.00010587892 -4.6645353e-05 -3.4324825e-05
7.226182e-05 5.7837147e-05 5.275403e-05 9.118647e-05 1.9487601e-05 -5.733949e-05 3.502605e-05 -6.948138e-05
-6.6196e-05 -2.7715192e-05 6.668619e-05 4.0575775e-05 -7.04632e-06 5.4608256e-05 -6.528042e-05 -8.713686e-05
-4.056497e-05 4.4508433e-05 9.9518074e-05 -6.696732e-05 -7.9921265e-05 4.3919503e-05 -4.662227e-05 -7.70575e-05
-4.424992e-05 2.3834931e-05 -4.4066095e-05 -6.740178e-05 -6.7101224e-05 8.1437334e-05 -0.00010214665 6.549334e-05
2.128567e-05 3.6311707e-05 -7.041034e-05 -9.801748e-07 -2.2881955e-05 7.377642e-05 7.108754e-05 -4.785885e-05
7.346703e-05 7.962487e-05 -6.123873e-05 5.4568412e-05 -4.232184e-05 -5.0748236e-05 -6.8190457e-06 2.0044246e-05
1.5732747e-06 -1.6605936e-05 5.5374465e-05 -4.0740884e-05 -5.6117133e-05 3.7442594e-05 7.338826e-05 9.793132e-05
-7.526161e-05 -5.7657962e-05 3.7695885e-05 1.57569e-05 2.9516865e-05 -6.283831e-05 -9.4550603e-07 -2.0187406e-05

fc0.0.weight f4 [64, 64]
00000000: ac5d cbbd a8fe 9d3d 5d8b d83d c71d 95bd
00000010: 246a a73d 3070 f73d 7491 cbbc 7719 dcbd
00000020: de58 b43c 694b 813d 694c ab3d 1c6f 823d
00000030: c103 a8bc 3822 6c3d 01b8 8dbd 78c2 e43c
00000040: 3a54 0cbd 99c7 99bd 54a6 54bd 9665 80bd
00000050: 4f77 f43c f040 03bd 31eb 573c d36c 2abd
00000060: 2717 84bd 9581 b23d dd2e e13c 4f09 5d3d
00000070: 8c3c 833d 3291 c73c 5a63 1fbd 0303 e03d
00000080: cef1 62bd c165 4fbd 8843 2cbd 05e9 963d
00000090: cc69 eebd 01d2 513c 0b2d f13d 9449 f8bd
000000a0: 6ae8 dabd 871a ee3d 3637 a7bd 76f0 a1bd
000000b0: 9dca 14bb 807b 2fbd f670 a03d 2f44 6e3d
000000c0: 5e0b e5bd 3965 63bd e30f 4ebc 7004 d53d
000000d0: d09c b1bd 16b2 c8bc 464e e3bd a1d0 e3bd
000000e0: 1b7f 94bc 5568 b7bd b776 bebc eae5 b53d
000000f0: 545e 53bd 8615 b53d 9ddc 20bd 73e6 96bc
00000100: f65c 283d f2e8 fa3d 2f7a 8e3d d36f c33d
00000110: 1740 a33c 0360 51bd 067c 923d 6d69 b43b
00000120: e100 653d 7788 cdbd c60d 01bb 3dca 4c3d
00000130: cada 463d b1cd 223d a257 8b3d e504 103c
00000140: 6907 41bd d4d2 e2bd 4ac3 ee3d 6bf2 e9bd
00000150: bb0e 17bc 536f f3bb 6621 2cbd fdba 6b3c
00000160: 13ab dcbc 9e9e 263d 6752 f6bd cc50 91bd
00000170: 5946 6b3d a159 533d 79e7 0cbc f5e3 e43d
00000180: 6cd7 5bbd 2749 b7bd e9ad 9e3d b568 bebd
00000190: 4515 c2bd 5e0b 8b3d cf70 b9bd b96e 4cbd
000001a0: 26ca 10bd 7a4c fd3c bffb 02bd 84a3 833d
000001b0: c9bf a53c e6b0 f7bc 8b83 803c 42aa b83d
000001c0: f731 363c 4ff9 863d 6de0 50bd 1b38 fabd
000001d0: 923f 80bd 2f80 ebbd 57d7 dabd 7772 8dbd
000001e0: 7e6d 13bd 622e c33d 69c5 7fbd 252c bc3c
000001f0: 21ec b33c c74e ea3d 743a de3d 8fa9 4c3d
00000200: 7905 bfbd ab3a 823d 37fc 72bd 3bfc ee3d
00000210: 85f6 b4bd b5dc 5ebd f015 52bd 9c9e fa3c
00000220: 22c7 adbd 26de 3ebd 95b2 b13d 645a ea3d
00000230: d5ed 80bd 5709 9f3c 1324 d6bd e497 bbbd
00000240: 028a 21bd 692d 713d 864d f83d fe9e 023d
00000250: c815 9abd 20de ae3d 8e4f 76bd 313f 1a3d
00000260: 5a99 babd 5dea 473d 5d6f 473d 01fd c8bd
00000270: 5195 f7bd 5017 c2bd 2e29 a83d e6cc c23d
00000280: c974 fbbb da42 98bd 61ec dabb 9ce8 d13d
00000290: 1866 aebd fe56 c8bd 7f9b 4ebc 1841 ebba
000002a0: a887 353d ec7b 823d e46d 50bd 7f41 6fbd
000002b0: 55ce f3bd abd7 ab3d 1df1 6e3d 6e29 e6bd
000002c0: 1175 813c 6d50 b23d ed68 aabb bcbc 993c
000002d0: 14f6 a43d 185b e0bd 7de7 f93d ceec e6bc
000002e0: 814d d9bd 0aae 80b9 8b7e ab3d b2aa 46bd
000002f0: a0b6 01bc 52fb 6c3d 7553 083d 76ac f93d
00000300: 8ef0 b4bd 6768 a0bd b7e4 b43d 2d94 d43b
00000310: 0784 3bbd 4b39 babd 5d0f 663d 4a65 96bd
00000320: 0b1f e93d b3f7 323c 54cd ac3d f4b8 f0bd
00000330: ae6b df3d 7421 bebd 0aac 5e3d d8fd 283d
00000340: e5f0 ac3d 921a 04bd 2890 cc3a 9977 373d
00000350: e2ba 9c3c bfd2 e23c 80b1 4f3d a6ab fd3d
00000360: 8ee2 363d 36d5 933c ecee e43d 1c5c d3bd
00000370: c740 8b3c 5180 cfbd aa3a f63d fd1f a63d
00000380: 8c0e 093d f5f4 f6bc 3d12 a3bb c29e f73d
00000390: cee1 cf3d fe48 4b3d d5b8 9abd f637 26bd
000003a0: 2f02 91bc 8a04 903d 4df3 0c3d a39c b4bc
000003b0: c455 71bd 602d 9d3d 5892 d43d 044e 63bd
000003c0: 777a bebd 8e47 16bd 3225 90ba faa4 d83d
000003d0: 23f6 bb3c e583 533c 3d06 c9bc 55b2 b0bd
000003e0: 423a f93d fdea b9bd 075f 7fbd 8fdf f73d
000003f0: 62ad a7bc 5f63 a1bd 5f86 e6bd fb26 e7bd
-0.09929976 0.077145875 0.105734564 -0.0728107 0.081745416 0.12081945 -0.02484963 -0.107470445
0.022015031 0.063132115 0.083641835 0.06368849 -0.020509603 0.05764982 -0.069198616 0.027924761
-0.034260012 -0.07508773 -0.051916435 -0.06269376 0.029842047 -0.03204435 0.013178633 -0.04160769
-0.064497285 0.08716122 0.027488166 0.053963955 0.06408033 0.024361227 -0.03891311 0.109380744
-0.055406384 -0.05063415 -0.04205659 0.07368664 -0.11641273 0.0128064165 0.117761694 -0.12123409
-0.10688861 0.116261534 -0.081648275 -0.079071924 -0.0022703775 -0.04284239 0.078340456 0.058170494
-0.11183809 -0.055516455 -0.01257703 0.10401237 -0.08672488 -0.02449898 -0.11098914 -0.11123777
-0.018127015 -0.08955447 -0.023249967 0.08881743 -0.05160363 0.08841996 -0.039272893 -0.018420434
0.04110428 0.12251462 0.069568984 0.09542813 0.019928021 -0.051116955 0.07152562 0.005505732
0.05590904 -0.10035794 -0.0019692047 0.049997557 0.048548497 0.039746944 0.06803824 0.008790229
-0.047126208 -0.110753685 0.11658342 -0.11423191 -0.009219821 -0.0074290424 -0.04202404 0.014387843
-0.026937043 0.040678613 -0.12027436 -0.07095489 0.057440136 0.05159915 -0.008600109 0.11176292
-0.05367224 -0.089494996 0.077480145 -0.09297315 -0.09476713 0.067892775 -0.0905472 -0.04991028
-0.035349034 0.030920256 -0.031978365 0.064276725 0.020233052 -0.030235719 0.015687725 0.09016849
0.011120311 0.065905206 -0.05099528 -0.122177325 -0.06262125 -0.114990585 -0.10685604 -0.06906598
-0.03599309 0.09530331 -0.062444124 0.022970269 0.021963181 0.11440807 0.10850993 0.04996639
-0.09327216 0.06358846 -0.059322562 0.11669203 -0.08836082 -0.0544097 -0.051290452 0.030593209
-0.08485247 -0.046598576 0.0867664 0.11443022 -0.06295363 0.019413633 -0.10456099 -0.0915983
-0.039438255 0.058881197 0.121241614 0.031889908 -0.07523686 0.08538461 -0.060134463 0.03765792
-0.09111281 0.04880749 0.04869019 -0.09813882 -0.12089027 -0.09477103 0.082109794 0.095117375
-0.007673834 -0.07434626 -0.0066810106 0.10249445 -0.085155666 -0.097822174 -0.012610315 -0.0017948477
0.044318825 0.063712925 -0.05088605 -0.05841207 -0.11904589 0.08390745 0.058335412 -0.11238371
0.015802892 0.08706746 -0.0052004964 0.018766753 0.08054748 -0.10954875 0.12202356 -0.02818909
-0.10610486 -0.00024543732 0.083737455 -0.04850263 -0.007917076 0.057856865 0.033282716 0.121910974
-0.08834945 -0.07832413 0.088326864 0.0064873905 -0.045780208 -0.09092959 0.056166995 -0.07343538
0.11382874 0.010923314 0.08437601 -0.11754027 0.1090921 -0.092837244 0.054363288 0.04125771
0.084443845 -0.032251902 0.0015606927 0.04479179 0.019132081 0.027688382 0.050706387 0.12386255
0.044649653 0.018046003 0.11178383 -0.10320303 0.016998662 -0.10131896 0.12022908 0.0811157
0.03346114 -0.030146101 -0.0049765394 0.120908275 0.10150491 0.049630158 -0.07554785 -0.040580712
-0.017701237 0.07032116 0.034411717 -0.022047346 -0.058919683 0.0767467 0.10379475 -0.055494323
-0.09300702 -0.036689334 -0.0010997413 0.10578342 0.022944516 0.012909864 -0.024539107 -0.08627764
0.12169315 -0.090780236 -0.062346485 0.12103187 -0.020468418 -0.07880282 -0.11256098 -0.11286732

fc0.0.bias f4 [64]
00000000: dd32 453d 3704 c3bd 4d4c 333d afa6 a0bb
00000010: 2565 b3bd 94bd 9f3d a9a1 ef3d 059b 48bd
00000020: 5b5f 31bd f889 83bd b3e6 2e3d 70bd 5dbd
00000030: 711b 49bd 8098 ce3c 2fc5 bb3d b660 a1bd
00000040: d024 4d3d ea06 8e3d 3150 e8bc 2198 e23d
00000050: 5bfb 51bd a6cf 15bc 3ad3 8bbb 2931 fc3d
00000060: 50f3 773c 5dc7 fabd 4bd3 b83d effa e53c
00000070: ba82 80bc 73cf 28bd f46e aa3d 617e f33b
00000080: 1ea9 e63c 04d1 c03d 7357 a3bd 3312 1b3d
00000090: fff0 f7bc 3c01 cd3d 1360 d63d 8b2c bebd
000000a0: 4060 033d 3709 95bd e838 373d 03e4 d7bd
000000b0: 1bc0 9a3d 992e e6bd 34a7 ea3c 2adc a63c
000000c0: 26ff d8bd c236 85bc 8e50 883d f0cc fa3d
000000d0: 3eb9 afbd 4a4f f63c 22a7 f33c 1b27 f53d
000000e0: de91 2f3d bca7 8d3d 65d2 e53d be3f ac3d
000000f0: 2445 813c 93ab e13a f9f7 8ebb 5914 f9bd
0.04814421 -0.09522288 0.043773938 -0.0049026827 -0.08759526 0.07799831 0.11700756 -0.048975963
-0.04330383 -0.064228 0.04270048 -0.05413574 -0.049098436 0.025219202 0.09168469 -0.07879774
0.050083935 0.069349125 -0.02835855 0.110641725 -0.051265102 -0.0091437455 -0.0042671235 0.12314064
0.015133694 -0.12245057 0.09024676 0.028073756 -0.015687335 -0.041213464 0.08321944 0.007430837
0.028156813 0.094148666 -0.07975664 0.037859153 -0.030266283 0.10010001 0.104675435 -0.0928584
0.032074213 -0.07277148 0.044732004 -0.10541537 0.075561725 -0.112393565 0.028644182 0.020368654
-0.10595541 -0.016261462 0.066559896 0.1224612 -0.08580254 0.030067105 0.029742781 0.119703494
0.04286372 0.069167584 0.1122177 0.08410595 0.01578004 0.0017217271 -0.0043630567 -0.12162084

fc1.0.weight f4 [64, 64]
00000000: 0095 97bc d2da 9f3d 7b07 8dbd b1d4 8b3c
00000010: 9e13 bebd 6de2 823c 818f ec3d 7046 543d
00000020: ae39 6dbd a32f 8b3d 6d8b fd3d 1286 02bd
00000030: 9024 bb3c 140c 05bd 9a72 ad3d 409f 083d
00000040: 5a19 f63d 9d2e 5dbd 9cea acbc 53d0 ad3c
00000050: 77bd 103d 2fae dfbd 4068 cf3d 2f84 3bbd
00000060: f2fe 753d 7250 5abc ee11 933d feb9 6e3d
00000070: b1a3 8dbd c24d 61bd 1c49 cbbc 7ba5 c4bd
00000080: c50d fb3d 4ee3 0dbd 6af8 343d fa04 ff3c
00000090: 7f7c 483d b48d 0b3c 3733 2f3d 4bbc 5abd
000000a0: 8734 813d 05a4 f5bd edfc 913d 1b15 39bd
000000b0: dbec b0bd 7a63 f9bb 45f5 ff3d 2304 a7bd
000000c0: e956 fcbd 8608 913c b7bb 7ebd aa58 803d
000000d0: 4d73 ca3d 9225 41bd e82e c6bc ca60 6d3d
000000e0: 2618 9b3c 6084 4a3d 5051 793d b260 1c3d
000000f0: 641e 883d ee7c a1bd 4c73 e73c 7e6c d139
00000100: 9ebe 6a3a 4707 d73d 215c dc3d 2bd0 593d
00000110: b60b 41bd 4e2b 443d 32f2 8dbc 1c06 e83d
00000120: 2d58 803c 4438 6d3d 5506 88bd 38ec e3bd
00000130: 52dd 493c 1e14 88bc f07d 013d c481 f13d
00000140: 498a 323d 7278 19bd de3c bf3d 342b f9bc
00000150: 5202 c03d 7a78 d83d 7ecf 1a3d 8574 51bc
00000160: ed8e 9c3c 7a79 aa3d 7e65 533c 1cbc 92bd
00000170: 5999 eebc e97f 243c 5d84 bd3b 598c a9bd
00000180: c2ee 023c 066c 8b3d aa1a e33d d570 3bbd
00000190: 1329 633d edc1 613d 86d1 44bd 3756 84bd
000001a0: 4bb5 bfbd dae2 943c 87a5 f5bd 159f 10bd
000001b0: 2e3d d43d 0892 f7bd f066 883d 4e1a 833d
000001c0: 1304 79bd 60e9 8a3d b00b 5cbc a5d0 edbd
000001d0: 8fa4 bdbc d8d3 fb3d 9be4 7e3d 57e7 3dbd
000001e0: 2202 2fbd 289c ed3d 34f8 b4bd 5014 67bd
000001f0: e369 71bc 08af 4bbd 4cf5 e23d dbc5 243d
00000200: 8059 42bd 3a32 34bd 4154 f7bc 6f9e 9bbd
00000210: 225f 503d 6c51 f83d 6978 adbc 9bd8 9fbd
00000220: c5aa 88bd 721e 633d 7bc1 ed3c d245 ad3c
00000230: d42d 883d b256 1bbc 6ccb d4bd 7e33 ddbd
00000240: e5db f4bd 68e0 003e a782 01bd 8093 803d
00000250: 0929 b0bd 51df 04bd 8185 44bc fe45 c53d
00000260: 3579 d5bd 9639 5ebd e61a b7ba aaf0 af3d
00000270: 1b93 1fbd 8805 843d 591d 9b3d 2074 8a3d
00000280: d569 483d 40f0 cc3d c779 babd 58a9 e1bd
00000290: 51bc a23d 2a05 db3d fbeb f4bd e847 dfbd
000002a0: c701 fdbc f29b fe3d c6e5 c53c 88c5 fcbd
000002b0: 3696 773d 6aef f1bd 1d2b 743b fd62 ce3d
000002c0: 1e7b b2bd 9f34 febd b9cf f8bc 8e76 c7bd
000002d0: 2867 a9bd 0de9 ac3d 50e7 cebd 5ec1 7f3c
000002e0: 27f8 0a3d d731 a33c 8b08 02bd 6880 173d
000002f0: 7fd8 00bd 1f99 28bd 5901 4cbd bffa 7cbd
00000300: 3196 1fbd b37e f03d 8c86 a03d 29ac 6d3d
00000310: 0179 88bc 03b3 aa3d bbc1 dd3b 7578 b93d
00000320: 0a4f 49bd d51b 9bba a091 cb3d 10c4 59bd
00000330: 1eaa 25bd b348 cf3d f313 acbd 522a 7fbd
00000340: 43ed cdbc e415 5dbd e10b 21bd a731 abbc
00000350: dff3 a2ba c9a3 8ebd eba7 88bc 7bb3 bebd
00000360: 820b 73bd 485a 9e3d e41b bfbd 9d69 983d
00000370: 8e9b b3bd d4b4 ba3d cb11 b93c 542b f63d
00000380: d592 e23d 72e0 8abd 6434 bb3d 57ba d03d
00000390: f5aa d43d 5703 aabd bccb 1e3c 7216 08bd
000003a0: 0485 cb3d be54 e23d 2904 ccbd 8b21 9e3d
000003b0: 1565 abbd 179f ebbd 6e69 c2bd 2360 dcbd
000003c0: feae f03c 83cd 833d a5ca c6bd 79d2 9d3b
000003d0: 7db1 e73b 57db 963c b87c c7bd 87a4 903d
000003e0: 9c37 f5bd fc96 1f3c 0b73 833b d3c0 2f3d
000003f0: 3594 a5bd 264c e23d 73b5 623d 64f0 ef3d
-0.018503666 0.078054085 -0.068861924 0.017069193 -0.092810854 0.015977109 0.11550809 0.051824987
-0.057916336 0.06796195 0.12380109 -0.03186614 0.022844583 -0.03248222 0.08469124 0.033354998
0.12016554 -0.053999532 -0.021107964 0.0212175 0.035336938 -0.10921895 0.10127306 -0.045780357
0.060057588 -0.013324844 0.07181154 0.058282845 -0.06915987 -0.055005796 -0.024815135 -0.096018754
0.12258486 -0.034640603 0.04418222 0.031130303 0.048946854 0.008517671 0.04277345 -0.053402226
0.06308847 -0.11994175 0.0712832 -0.045186143 -0.086389266 -0.0076107355 0.12497953 -0.08155086
-0.12321264 0.01770426 -0.062190738 0.06266911 0.09885273 -0.04715497 -0.024192289 0.057953633
0.018932413 0.04944265 0.06086856 0.038178153 0.066464216 -0.078851566 0.02825322 0.0003994442
0.0008954796 0.10499435 0.1075976 0.05317704 -0.04713031 0.04789286 -0.017327402 0.1132929
0.015667045 0.057914987 -0.06641833 -0.111290395 0.012320833 -0.016611155 0.031614244 0.11792329
0.04358891 -0.03746838 0.09337781 -0.030416109 0.093754426 0.10569854 0.037795536 -0.012784128
0.019111121 0.08323951 0.012902616 -0.07164785 -0.029125856 0.010040262 0.005783601 -0.08278722
0.007991495 0.06807713 0.1108907 -0.045761902 0.055459093 0.055116583 -0.04805138 -0.06461757
-0.09360751 0.018174578 -0.119944625 -0.035307962 0.103632316 -0.120884 0.06660259 0.064015016
-0.0607949 0.06782794 -0.013430521 -0.116120614 -0.023149757 0.12296265 0.062229734 -0.0463632
-0.042726643 0.1160205 -0.088364035 -0.056415856 -0.014734718 -0.04972747 0.11081943 0.040227752
-0.047448635 -0.043993212 -0.030191543 -0.07598578 0.050871976 0.12124905 -0.02117558 -0.07804986
-0.06673197 0.055448957 0.029022923 0.021151457 0.06649366 -0.009481119 -0.10390362 -0.10800837
-0.11956004 0.12585604 -0.03161874 0.062781334 -0.08601577 -0.032439534 -0.01199472 0.096324906
-0.10423509 -0.054254137 -0.0013969808 0.08590825 -0.03895865 0.064463675 0.07573957 0.0676043
0.048929054 0.100067616 -0.091052584 -0.11018628 0.07946075 0.10694344 -0.11959072 -0.10902387
-0.030884637 0.12432088 0.024157416 -0.123423636 0.060445987 -0.11813243 0.0037257143 0.10077474
-0.08714889 -0.124123804 -0.030372487 -0.097394094 -0.082716286 0.084428884 -0.10102713 0.015610067
0.033928063 0.019921226 -0.03174643 0.036987692 -0.031456467 -0.041161653 -0.049805973 -0.061762568
-0.038961593 0.11742916 0.07838163 0.058025513 -0.016659262 0.08334925 0.0067674792 0.090561785
-0.049147643 -0.0011833856 0.09939885 -0.053165495 -0.04044544 0.10121288 -0.084022425 -0.06229622
-0.02513755 -0.053975955 -0.03931797 -0.0208977 -0.0012432298 -0.06964833 -0.016681632 -0.09311577
-0.059337147 0.077320635 -0.093314916 0.07442019 -0.08769904 0.091165215 0.022591492 0.12019983
0.11063162 -0.06781091 0.09140852 0.101917915 0.1038417 -0.08301418 0.009692129 -0.03322453
0.0993748 0.110513195 -0.09961731 0.077212416 -0.08368889 -0.11504953 -0.09492765 -0.10760524
0.029380318 0.064356826 -0.0970662 0.00481635 0.007070719 0.018415136 -0.09740585 0.07062631
-0.11973497 0.009740587 0.004011517 0.0429085 -0.08084909 0.110496804 0.055348825 0.11715773

fc1.0.bias f4 [64]
00000000: 6862 983c 8b48 ccbd 5b36 efbd 602e 9a3d
00000010: c3f4 3f3d ca02 0b3d f535 283d 6897 c23d
00000020: 8092 1dbc 8790 38bc bd51 4a3c 635e ad3d
00000030: f8d9 5ebd cf5c 3b3b 175e b43d 0c1a f1bd
00000040: 872e 06bd 87a0 c63c 5650 883d 52f5 c33d
00000050: 2a54 8ebb bb99 1c3d 8e65 10bb 497e edbc
00000060: 498e 303d b4a6 923c 0dde ea3c 2388 c1bc
00000070: 6791 433d f990 d0bd 6299 183b 9c35 993d
00000080: 3b9b 343b df1e f9bd 5991 b7bd 648d 7dbd
00000090: 2e00 a43d b2ef 63bd 9332 ea3d 83eb bebd
000000a0: cf68 e5bc a70b 67bd b42a 5e39 0d31 d83d
000000b0: 1955 fe3c 0354 413d 92e9 813d b60f a13d
000000c0: 7d85 52bd 1627 98bd 85a9 37bc b22d cfbd
000000d0: e51b ca3d fc49 53bc cbc5 eb3b a7e9 ef3c
000000e0: ce38 c83d 0120 873d 8bb5 84bc 5ffd 87bb
000000f0: fcf3 21bd f102 bc3c 294d 3b3d adc5 eebd
0.018601611 -0.09974774 -0.11680289 0.075283766 0.046864282 0.033938207 0.041067082 0.09501535
-0.009617448 -0.011264927 0.0123485895 0.084652685 -0.05440709 0.0028589254 0.08807009 -0.11772546
-0.032759216 0.024246467 0.06655948 0.095682755 -0.004343529 0.038232546 -0.0022033188 -0.028990882
0.043104444 0.017901756 0.028670335 -0.023624485 0.04774609 -0.10183901 0.0023284783 0.07480928
0.0027558345 -0.12164091 -0.0896327 -0.06190242 0.08007847 -0.055648513 0.114354275 -0.09322264
-0.028004078 -0.056407597 0.00021187478 0.10556231 0.031046437 0.04719926 0.06343378 0.07864325
-0.051396836 -0.0742933 -0.01120985 -0.101161376 0.09868602 -0.012896057 0.0071952096 0.029286219
0.0977646 0.06597901 -0.016199848 -0.0041500772 -0.039539322 0.022950621 0.045727883 -0.116587974

output_layer.0.weight f4 [1, 64]
00000000: f486 ebbd 6d51 26bd 5054 89bd 3f37 99bd
00000010: 79a4 d139 2ee9 b73d 1ca9 88bd c68b 9d3d
00000020: 992f dd3d e166 b73d 226e b3bd bde6 91bd
00000030: f773 953b 1560 a3bd 7abf 1b3e d43a e03d
00000040: 5254 9b3d 2d85 c1bd fc4c adbd 57f4 a93d
00000050: 1606 f43d 9c69 efbd 58a1 743d ecc3 f13d
00000060: 0dbd f83c 584a a3bc dd5e bc3d 14a9 813d
00000070: 2f89 273d 4234 93bd b2c5 a53d 194f 56bd
00000080: a58a c33c 351b a3bd f7e9 0d3e 1479 c1bb
00000090: 24ff 86bb 5c0a 86bd 39ac b1bd 95a4 0f3c
000000a0: 4d75 cabd 94ad dfbd 0513 9e3d e96e 82bd
000000b0: f7fe 923d d52e 683d 7db7 f23c e3df 93bd
000000c0: 7ccc 653b aa22 083d 0835 39bd 35c4 7dbc
000000d0: 1680 433d 2621 333c c9ab 87bd e886 f6bd
000000e0: 2abb 973d 3421 e03d 0a13 9dbd 12ae 3a3b
000000f0: fc1f 90bd d9fd bb3d d086 193d f15a 033d
-0.1150035 -0.040604997 -0.067055345 -0.074812405 0.00039986128 0.08980022 -0.0667288 0.07692675
0.10800094 0.089551695 -0.087612405 -0.07124088 0.004560943 -0.079773106 0.15209761 0.109487206
0.07584442 -0.094492294 -0.08461949 0.08298557 0.11915223 -0.11690065 0.059724182 0.11804947
0.030363584 -0.01993291 0.09197781 0.06331077 0.040902313 -0.07187702 0.08094348 -0.052321527
0.023869822 -0.07964174 0.13858782 -0.005904326 -0.0041197706 -0.06544945 -0.08675427 0.008767267
-0.098856546 -0.10921779 0.077184714 -0.06368811 0.07177537 0.056685288 0.02962851 -0.072204374
0.003506451 0.033236183 -0.04521659 -0.015488674 0.047729574 0.010933196 -0.06624562 -0.1203745
0.074087456 0.10943833 -0.07669647 0.0028485102 -0.070373505 0.09179277 0.037482083 0.03206915
