blocksize-2/model_epoch_2_40.pth (torch, 171955 bytes, 9 tensors)

embedding.0.weight f4 [64, 7]
000000 49 2a 4a 3e b2 05 86 be 86 e0 b4 bc 73 35 24 3d
       0.19742693 -0.2617622 -0.022079717 0.040090036
000010 d5 e9 71 3e 28 69 bc be 26 28 a7 be 5c d7 dc 3c
       0.23624356 -0.36798978 -0.32647818 0.02695816
000020 bf 09 e5 3d bd c6 1a be 0b 21 49 bd 01 aa 64 bc
       0.111834995 -0.15114875 -0.049103778 -0.013956548
000030 ba b3 b4 be 60 b7 7c be 08 a8 b1 be a9 f5 fe 3d
       -0.3529337 -0.24679327 -0.3469851 0.124492
000040 b1 bc 1a 3e 95 a2 23 3d 14 18 85 3e 3f 3f 0f be
       0.15111043 0.039949972 0.25994933 -0.1398897
000050 ff 7b a3 be 75 13 a2 be 68 31 6f 3e 9c 0f 80 3d
       -0.3193054 -0.3165547 0.2335869 0.06252977
000060 1f ab f5 3d 35 0b 19 3e 9d 9c be 3e d3 e8 2a bd
       0.119955294 0.14945681 0.3722886 -0.041725945
000070 fb 54 97 3b 3c 44 81 3e 56 7a 2e be ca 15 1b be
       0.0046182848 0.2524737 -0.17038855 -0.1514503
000080 1f 3e 9d 3e 06 36 8f 3e d2 14 96 be 83 45 8f be
       0.30711457 0.27970904 -0.2931276 -0.2798272
000090 31 04 b6 be 42 2f fc 3d 2e 46 c2 3c ba bb 82 3e
       -0.35550073 0.12313701 0.023715105 0.2553385
0000a0 b5 15 83 be 72 a3 0b be 2f db 98 bd 54 a7 8a be
       -0.256025 -0.13636568 -0.07463681 -0.27080786
0000b0 74 3e ba be ce 0b 32 3e 17 53 cf 3d 48 09 92 be
       -0.36375773 0.17387316 0.1012327 -0.28522706
0000c0 e6 ee 4e 3e b9 d1 5d be fc ef 93 3c 4b 66 39 3e
       0.2020832 -0.21662034 0.01805877 0.18105428
0000d0 04 ba 14 ba 11 d1 21 be 46 d3 82 3e 27 95 a0 3e
       -0.00056734704 -0.15802409 0.25551814 0.31363794
0000e0 5d dc c0 be 45 76 58 3e 54 99 1e 3e 9a 91 8f 3e
       -0.37668124 0.21138866 0.15488178 0.28040773
0000f0 b5 9e d7 bd 60 96 bc 3d 42 78 19 3d 07 9a 10 bd
       -0.10528318 0.09208369 0.037468202 -0.035303142
000100 51 33 2a 3e 8f fa 67 bd 73 0e 1d be 51 cd d9 3c
       0.16621138 -0.056635436 -0.15337543 0.02658716
000110 51 9a 6b be fa 7c 71 be 15 45 30 bd 3e a6 96 bc
       -0.23008086 -0.23582831 -0.04303463 -0.018389817
000120 10 e4 39 3e 54 00 84 3d cb 68 58 3e e8 1e 92 3e
       0.18153405 0.06445375 0.21133725 0.28539205
000130 ca ec 9b be c6 c5 bd be a8 04 30 3e a7 77 ab 3e
       -0.30454093 -0.37064952 0.17189276 0.33489725
000140 73 d1 81 be 12 94 70 be ee a9 92 3d 18 70 b5 3e
       -0.2535511 -0.23493984 0.07161318 0.35437083
000150 e3 1d 7c be d1 7d bc be 17 d2 81 be db 67 5e bc
       -0.24620776 -0.3681474 -0.25355598 -0.013574566
000160 50 39 73 3e 66 fa a8 3e f2 28 6e 3d 94 83 89 be
       0.23752332 0.3300354 0.058144517 -0.268582
000170 bb ec a4 bd 87 03 ea 3d 50 c7 15 bd ee b8 3d bc
       -0.08052965 0.11426454 -0.036567032 -0.011579735
000180 83 a5 83 3d a8 68 c4 3e 46 81 2a be c3 e4 7f 3e
       0.06428053 0.38361096 -0.16650876 0.2498961
000190 0f 9d 9a be 01 91 71 be f9 8e 86 3e c5 de bf 3e
       -0.3019795 -0.23590471 0.26280954 0.37474647
0001a0 9c 39 a4 be 30 0d 9f 3e 2f ee a7 bd 10 b0 7a 3e
       -0.32075202 0.3106475 -0.08199727 0.24481225
0001b0 26 a3 56 bd ef 4d b7 be 89 24 4b 3d 57 42 30 3e
       -0.052401684 -0.35801646 0.04959539 0.17212807
0001c0 dc 71 50 be 25 d3 aa be 88 95 6c bd 09 47 b1 3e
       -0.20355934 -0.33364215 -0.05775979 0.34624508
0001d0 81 48 a4 3e 7c b9 89 3e 5c 58 ae 3d d2 f7 f7 bc
       0.32086566 0.26899326 0.08512947 -0.030269537
0001e0 22 57 29 be 47 52 67 be 39 0c 85 3e 0b 82 74 be
       -0.16537145 -0.2258998 0.25985888 -0.23877732
0001f0 ae ed af 3e 12 a9 a4 3e e4 2a 75 bc 02 a1 35 3e
       0.34361023 0.3216024 -0.014963839 0.17737201
000200 32 f2 03 3d f6 1e e1 3d 27 e8 2a 3e d2 e2 04 3e
       0.032213397 0.109922335 0.16690122 0.1297715
000210 69 2c a3 be fa e3 3b 3d 0c 3b 46 3e 60 f9 81 3d
       -0.3186982 0.045871712 0.19358462 0.06346393
000220 36 1e 06 3e 88 2a e0 bd b2 66 b2 3a cf fa 9d 3e
       0.13097462 -0.10945612 0.0013610928 0.30855414
000230 ea a5 02 3d 2c ad e9 bd 0b 7d 89 3d 38 60 77 bc
       0.03189651 -0.11409983 0.06713303 -0.015098624
000240 6b 03 1e be 87 6a aa 3e 5c 2c d6 3d 2b 0a b4 3e
       -0.15430991 0.332844 0.1045768 0.35164008
000250 45 aa 7c bd 75 6c bc be 58 ab 6d 3d bd 3d 34 3e
       -0.06168582 -0.36801496 0.058024734 0.17601676
000260 8e fe 98 3e 66 9e 34 be fe 96 80 3e 5f 6f 2a be
       0.2988171 -0.17638549 0.25115198 -0.16644047
000270 76 ba 46 3e 7f 94 d4 3d 86 a1 ac 3e 68 73 05 bc
       0.19407067 0.10379886 0.33716983 -0.008145191
000280 28 26 bb 3e 0e 01 c5 3d 82 15 8b 3e 4d 8a bc be
       0.36552548 0.09619342 0.27164847 -0.36824265
000290 08 26 a5 3e 90 d1 a9 be c8 dc 84 be 04 a1 3f bd
       0.32255578 -0.33167696 -0.25949693 -0.046784416
0002a0 43 d2 93 3e b5 92 2b 3d f8 fa 1a be eb ce b0 3d
       0.28871354 0.041887958 -0.151348 0.086332165
0002b0 42 14 aa be 37 ee 07 3e fd f9 27 3e ab ae 46 3e
       -0.3321858 0.13274466 0.16403957 0.19402568
0002c0 38 6a 06 3c 48 24 84 be 42 8b 6d 3e d1 c7 ee bb
       0.008204035 -0.2580893 0.23197654 -0.0072870036
0002d0 84 11 b1 3e 67 6f 36 be 72 5e 9c 3d 05 fc ae be
       0.34583676 -0.17815934 0.076352015 -0.3417665
0002e0 1b dd f0 bc 35 a9 18 3e 96 76 93 be c2 33 01 be
       -0.029402306 0.14908297 -0.2880141 -0.126174
0002f0 79 a7 76 3e 6c da a6 3e 99 93 d6 bd 61 09 95 3e
       0.24087323 0.32588518 -0.10477371 0.29108718
000300 ac 21 b9 3e 02 f1 89 3e 2a 67 0a 3e de 8e 4a 3e
       0.36158502 0.26941687 0.13515916 0.19781062
000310 2c 9a 3c 3e f9 84 3a be c8 7d 39 3d ad c3 55 3d
       0.18418187 -0.18214788 0.04528597 0.052188564
000320 ba 1d 09 3e 91 04 0d 3e e8 c2 e2 bd f7 5b 8c 3e
       0.13390246 0.13771273 -0.11072332 0.27413914
000330 41 46 62 3e 9d 91 d9 3d 9f ac c5 3d d7 5f c1 3e
       0.22097112 0.10623477 0.096520655 0.37768432
000340 c2 1e 56 3e 48 fd 8e 3e 34 51 aa 3e fe d8 82 3b
       0.2091017 0.27927613 0.33265078 0.0039931526
000350 c3 df 0d 3e 0a f2 ab bc 20 c9 3c be b1 a6 93 bd
       0.1385489 -0.020989437 -0.18436098 -0.07209528
000360 30 e1 63 3e ef 35 af 3e e9 bc cd 3d b3 cc 1a be
       0.22253871 0.34220836 0.100457974 -0.15117149
000370 2e 70 24 be ba d4 9a 3e 76 24 31 3e e2 ea 9b bc
       -0.16058418 0.30240422 0.17299065 -0.0190329
000380 0e 67 e3 3d 72 4f 95 3e 9d 6e 91 be 02 d1 26 3e
       0.111036405 0.29162174 -0.28404704 0.16290668
000390 f5 e2 5d bd 8e e0 81 3e 78 80 34 be 82 39 1c be
       -0.05417152 0.25366634 -0.17627132 -0.15256312
0003a0 04 15 8c be 68 52 0e 3e 03 dc 59 be eb 19 91 be
       -0.27359784 0.13898623 -0.21275334 -0.28340086
0003b0 87 0d 6f 3e 4a df 85 be 04 31 9e 3e 3d 81 19 3e
       0.23345004 -0.2614692 0.3089677 0.14990707
0003c0 fc 81 53 be b3 2f db 3d de 57 76 be 67 e3 21 3e
       -0.20655054 0.10702457 -0.24056956 0.15809403
0003d0 fe 59 9d be 41 51 d9 3c 0e 9b 92 bd d3 db a0 3e
       -0.3073272 0.026528003 -0.071584806 0.31417713
0003e0 9d 21 c4 bd 6a 9f 93 be 5f c7 68 3e ea 90 21 3e
       -0.09576724 -0.2883256 0.22732304 0.15777937
0003f0 c2 4d f5 bc e6 b6 ba b7 7e cd 40 3e de 95 9d be
       -0.029944304 -2.2258097e-05 0.18828389 -0.30778402

embedding.0.bias f4 [64]
000000 f3 1d 14 be f0 03 bb 3d fd fe eb 3d 39 d8 4a be
       -0.1446455 0.091316104 0.115232445 -0.19809045
000010 e9 de b0 be 9e 22 56 be 35 b2 95 be 9b d6 52 3d
       -0.34545067 -0.20911643 -0.29237524 0.051474195
000020 af 9b d8 bd 46 e8 bb be f8 bc 0f 3e be 8b af be
       -0.10576569 -0.36700648 0.1403693 -0.34286302
000030 33 af cf bd 7a 9c 6d 3e 14 ba 3f 3d 5d 08 b5 bd
       -0.101408385 0.23204222 0.046808317 -0.08839486
000040 8e e6 31 bd 09 0c d7 bd a4 c9 bc 3e dc e3 28 be
       -0.043432765 -0.105003424 0.3687259 -0.16493171
000050 2d 61 26 3c 4e 7d 10 be c3 75 a0 3e b6 69 9a be
       0.010155004 -0.141103 0.31339845 -0.30158776
000060 aa 09 b0 3d df 3e 29 be 2c 6b 5d be 75 c7 7c 3e
       0.08595593 -0.1652789 -0.21622914 0.24685462
000070 43 cb 33 be 64 b2 a8 be c0 9c 90 be 80 8d b0 be
       -0.17558007 -0.329486 -0.2824459 -0.34482956
000080 50 78 f7 3d 5d 65 1f be eb 67 01 3e ad 4e 9b be
       0.12083495 -0.15566011 0.12637298 -0.30333462
000090 95 3f 68 3e 03 b8 85 be ba 95 58 be db d4 60 3e
       0.22680505 -0.26116952 -0.21150866 0.21956198
0000a0 58 1b 49 3d b7 f9 8b be 79 fa 6b bd 88 40 6f be
       0.049098343 -0.27338955 -0.057611916 -0.2336446
0000b0 65 4d 19 be 58 7d b1 be 63 55 b2 3e 1f d3 3e be
       -0.1497093 -0.34665942 0.3483077 -0.18635224
0000c0 52 81 5b be ea 6a 77 be 17 73 8d be 60 eb 8b 3e
       -0.2143605 -0.24161878 -0.2762687 0.27328014
0000d0 1e 9b 77 3e 26 5d 13 bd a4 7f f7 3c 17 77 26 be
       0.24180266 -0.035977505 0.030212231 -0.16256367
0000e0 ec 53 b1 3e dc b6 b2 be c7 86 a4 3e a6 e2 2b 3e
       0.3463434 -0.34905136 0.32134077 0.16785678
0000f0 f8 e3 8e be b7 ec c3 3d bf 47 7e be dc a1 b9 bc
       -0.279083 0.09566634 -0.24832056 -0.022660188

layernorm.weight f4 [259, 64]
000000 fe 03 80 3f 52 ff 7f 3f 00 00 80 3f d9 01 80 3f
       1.0001218 0.9999896 1.0 1.0000564
000010 df ff 7f 3f 5b 00 80 3f 41 16 80 3f a9 8e 7f 3f
       0.99999803 1.0000108 1.0006791 0.9982706
000020 95 c4 7f 3f 65 fd 7f 3f 89 01 80 3f f1 25 80 3f
       0.99909335 0.99996024 1.0000468 1.0011579
000030 88 00 80 3f 1e 57 80 3f d3 fb 7f 3f a2 bd 7f 3f
       1.0000162 1.0026586 0.9999363 0.9989873
000040 b6 fb 7f 3f 44 28 80 3f d6 fe 7f 3f eb 7a 7f 3f
       0.99993455 1.0012288 0.99998224 0.9979693
000050 a3 db 7f 3f d0 04 80 3f ff e6 7f 3f b9 db 7f 3f
       0.99944514 1.0001469 0.9996185 0.99944645
000060 61 d4 7f 3f ff ff 7f 3f 2b db 7f 3f e7 c6 7f 3f
       0.9993344 0.99999994 0.999438 0.99912876
000070 4b f8 7f 3f 75 3e 80 3f 78 91 7f 3f a6 ff 7f 3f
       0.9998824 1.001906 0.9983134 0.99999464
000080 00 00 80 3f c0 01 80 3f 63 ff 7f 3f a5 01 80 3f
       1.0 1.0000534 0.99999064 1.0000502
000090 07 00 80 3f 58 ff 7f 3f d9 01 80 3f 9c ef 7f 3f
       1.0000008 0.99999 1.0000564 0.9997499
0000a0 73 25 80 3f e7 46 80 3f ff fe 7f 3f 27 01 80 3f
       1.0011429 1.0021638 0.9999847 1.0000352
0000b0 bc dd 7f 3f f8 b7 7f 3f d2 03 80 3f 54 00 80 3f
       0.99947715 0.9989009 1.0001166 1.00001
0000c0 c8 fe 7f 3f b8 e5 7f 3f 0c 00 80 3f e8 ff 7f 3f
       0.9999814 0.999599 1.0000014 0.99999857
0000d0 21 cf 7f 3f f8 ff 7f 3f 51 01 80 3f d7 05 80 3f
       0.9992543 0.9999995 1.0000402 1.0001782
0000e0 30 ef 7f 3f 43 00 80 3f 37 14 80 3f fa ff 7f 3f
       0.99974346 1.000008 1.0006169 0.99999964
0000f0 c0 03 80 3f 8a fe 7f 3f 7e ff 7f 3f 0b 00 80 3f
       1.0001144 0.9999777 0.99999225 1.0000013
000100 b7 ff 7f 3f 71 00 80 3f 0f 02 80 3f 33 06 80 3f
       0.99999565 1.0000135 1.0000628 1.0001892
000110 06 00 80 3f 47 00 80 3f a6 04 80 3f 28 f6 7f 3f
       1.0000007 1.0000085 1.0001419 0.9998498
000120 68 e1 7f 3f 7e fe 7f 3f ab 00 80 3f 84 04 80 3f
       0.9995332 0.999977 1.0000204 1.0001378
000130 42 00 80 3f b4 03 80 3f b9 fd 7f 3f c3 f6 7f 3f
       1.0000079 1.000113 0.99996525 0.99985904
000140 7c fa 7f 3f 23 01 80 3f 65 06 80 3f 20 e1 7f 3f
       0.99991584 1.0000347 1.0001951 0.9995289
000150 79 f8 7f 3f 73 00 80 3f 51 f5 7f 3f 06 d9 7f 3f
       0.99988514 1.0000137 0.999837 0.99940526
000160 97 f7 7f 3f 5d 00 80 3f d5 f7 7f 3f b8 f2 7f 3f
       0.9998717 1.0000111 0.99987537 0.99979734
000170 36 ff 7f 3f 3b 08 80 3f 42 f4 7f 3f 83 ff 7f 3f
       0.99998796 1.0002512 0.9998208 0.99999255
000180 5a 00 80 3f 4a 01 80 3f 87 f8 7f 3f 07 00 80 3f
       1.0000107 1.0000393 0.999886 1.0000008
000190 00 00 80 3f 5b 04 80 3f 11 01 80 3f dc f8 7f 3f
       1.0 1.0001329 1.0000325 0.99989104
0001a0 2e 06 80 3f a4 0c 80 3f 22 00 80 3f 98 01 80 3f
       1.0001886 1.0003858 1.000004 1.0000486
0001b0 c5 ee 7f 3f 33 fa 7f 3f 8c 00 80 3f e1 01 80 3f
       0.9997371 0.9999115 1.0000167 1.0000573
0001c0 ea fd 7f 3f d5 f8 7f 3f 1d 01 80 3f 00 00 80 3f
       0.9999682 0.9998906 1.000034 1.0
0001d0 83 f4 7f 3f 53 01 80 3f 06 01 80 3f 51 02 80 3f
       0.9998247 1.0000404 1.0000312 1.0000707
0001e0 a5 f7 7f 3f 0e 00 80 3f 38 02 80 3f f5 ff 7f 3f
       0.9998725 1.0000017 1.0000677 0.99999934
0001f0 29 04 80 3f 37 00 80 3f d3 ff 7f 3f b7 fe 7f 3f
       1.000127 1.0000066 0.9999973 0.9999804
000200 d3 02 80 3f a4 ff 7f 3f 2f 00 80 3f 64 02 80 3f
       1.0000862 0.9999945 1.0000056 1.000073
000210 f0 ff 7f 3f 55 00 80 3f 6b 14 80 3f d8 96 7f 3f
       0.99999905 1.0000101 1.0006231 0.99839544
000220 63 c1 7f 3f cd fd 7f 3f 4f 01 80 3f 3c 24 80 3f
       0.9990446 0.99996644 1.0000399 1.0011058
000230 65 00 80 3f be 4f 80 3f 33 fd 7f 3f f6 c3 7f 3f
       1.000012 1.0024335 0.99995726 0.9990839
000240 01 ff 7f 3f f6 26 80 3f af 00 80 3f 32 80 7f 3f
       0.9999848 1.001189 1.0000209 0.99804986
000250 f8 e0 7f 3f cc 03 80 3f 2f e7 7f 3f f0 d6 7f 3f
       0.9995265 1.0001159 0.99962133 0.99937344
000260 14 da 7f 3f 05 00 80 3f 8a df 7f 3f a2 ce 7f 3f
       0.99942136 1.0000006 0.9995047 0.9992467
000270 36 fa 7f 3f 1f 3a 80 3f 77 9a 7f 3f ac ff 7f 3f
       0.99991167 1.0017737 0.9984507 0.999995
000280 04 00 80 3f 39 01 80 3f f2 fe 7f 3f 1d 01 80 3f
       1.0000005 1.0000373 0.9999839 1.000034
000290 04 00 80 3f 6c 00 80 3f a5 01 80 3f 0b f2 7f 3f
       1.0000005 1.0000129 1.0000502 0.99978703
0002a0 e9 21 80 3f 5d 45 80 3f 87 ff 7f 3f 06 01 80 3f
       1.0010349 1.0021168 0.9999928 1.0000312
0002b0 93 d7 7f 3f 42 bc 7f 3f 1a 02 80 3f b5 00 80 3f
       0.99938315 0.99896634 1.0000641 1.0000216
0002c0 89 fe 7f 3f c4 e1 7f 3f 29 00 80 3f ec ff 7f 3f
       0.99997765 0.99953866 1.0000049 0.9999988
0002d0 d1 d1 7f 3f 1a 00 80 3f 12 01 80 3f 6d 04 80 3f
       0.9992953 1.0000031 1.0000327 1.0001351
0002e0 4b f0 7f 3f 37 00 80 3f eb 13 80 3f fa ff 7f 3f
       0.9997603 1.0000066 1.0006078 0.99999964
0002f0 e9 01 80 3f 53 ff 7f 3f a0 ff 7f 3f 01 00 80 3f
       1.0000583 0.9999897 0.9999943 1.0000001
000300 b1 ff 7f 3f 6b 00 80 3f b9 01 80 3f 22 05 80 3f
       0.9999953 1.0000128 1.0000526 1.0001566
000310 02 00 80 3f 46 00 80 3f 67 03 80 3f c3 f9 7f 3f
       1.0000002 1.0000083 1.0001038 0.9999048
000320 ad dd 7f 3f b2 fe 7f 3f 8c 00 80 3f 1b 02 80 3f
       0.99947625 0.9999801 1.0000167 1.0000643
000330 2f 00 80 3f 92 01 80 3f 44 ff 7f 3f 3e fc 7f 3f
       1.0000056 1.0000479 0.9999888 0.99994266
000340 5c fb 7f 3f 64 00 80 3f d5 05 80 3f 0a e7 7f 3f
       0.9999292 1.0000119 1.000178 0.9996191
000350 69 fb 7f 3f 48 00 80 3f 74 f7 7f 3f 10 da 7f 3f
       0.99992996 1.0000086 0.9998696 0.9994211
000360 1c fa 7f 3f 51 00 80 3f 05 fb 7f 3f 33 f2 7f 3f
       0.9999101 1.0000097 0.999924 0.9997894
000370 77 ff 7f 3f c4 05 80 3f fd fa 7f 3f 8f ff 7f 3f
       0.99999183 1.000176 0.9999235 0.99999326
000380 45 00 80 3f c7 00 80 3f de fa 7f 3f 07 00 80 3f
       1.0000082 1.0000237 0.9999217 1.0000008
000390 00 00 80 3f 12 04 80 3f 20 01 80 3f 79 f9 7f 3f
       1.0 1.0001242 1.0000343 0.9999004
0003a0 08 03 80 3f e3 0a 80 3f 2d 00 80 3f 46 01 80 3f
       1.0000925 1.0003322 1.0000054 1.0000389
0003b0 d4 ef 7f 3f 9c fb 7f 3f 2f 00 80 3f 91 01 80 3f
       0.99975324 0.999933 1.0000056 1.0000478
0003c0 e9 fe 7f 3f 19 fd 7f 3f f4 00 80 3f 00 00 80 3f
       0.9999834 0.9999557 1.0000291 1.0
0003d0 43 f9 7f 3f 41 01 80 3f e0 00 80 3f 78 01 80 3f
       0.9998972 1.0000383 1.0000267 1.0000448
0003e0 2a fa 7f 3f 0d 00 80 3f 6e 02 80 3f f9 ff 7f 3f
       0.99991095 1.0000015 1.0000741 0.9999996
0003f0 31 03 80 3f 3b 00 80 3f e2 ff 7f 3f d6 fe 7f 3f
       1.0000974 1.000007 0.9999982 0.99998224

layernorm.bias f4 [259, 64]
000000 0d c1 95 38 d6 10 b9 38 23 9d a8 38 d5 ba 04 39
       7.140832e-05 8.8246234e-05 8.040133e-05 0.00012658101
000010 ab 19 19 36 ba a4 ce b8 1c db c7 38 7c f8 c2 b8
       2.2813717e-06 -9.853528e-05 9.529872e-05 -9.296925e-05
000020 50 57 de b8 60 d5 48 b8 5f 0f 15 39 fa 21 a0 38
       -0.00010602048 -4.7882437e-05 0.00014215473 7.635723e-05
000030 96 01 11 37 8c dd 10 39 d5 91 cf b8 a0 bf ec b8
       8.643043e-06 0.00013815443 -9.8976925e-05 -0.0001128905
000040 4b e7 85 b8 a6 13 b4 38 06 1c 1d 39 f3 1c bf b8
       -6.385016e-05 8.586729e-05 0.00014983126 -9.112982e-05
000050 57 cb 08 b9 93 25 ad 38 3b f6 a2 b7 b7 1d 08 b9
       -0.0001304572 8.2562816e-05 -1.9426565e-05 -0.0001298104
000060 22 32 90 b8 65 e1 92 37 39 dd 81 b8 48 ab 72 b8
       -6.875793e-05 1.7509514e-05 -6.192405e-05 -5.7856814e-05
000070 1b da 82 b8 7e 75 fb 38 d9 21 0b b9 42 dc 53 38
       -6.2395084e-05 0.00011990497 -0.00013268682 5.051145e-05
000080 fc 2b f9 36 4e 59 9a 38 66 2e c2 b8 94 18 c8 37
       7.4258987e-06 7.3599265e-05 -9.259283e-05 2.3853303e-05
000090 dc 4d 10 b8 ac 16 98 38 79 9e ea 38 02 de ef b7
       -3.4404788e-05 7.252148e-05 0.00011187507 -2.85944e-05
0000a0 10 c8 24 39 97 a1 0d 39 09 b4 f0 b8 64 49 6a 38
       0.00015714788 0.00013507005 -0.00011477626 5.5858298e-05
0000b0 e3 07 93 b7 a5 4d a9 b8 2c c4 fa 37 8e aa a3 37
       -1.7527438e-05 -8.0730104e-05 2.9893672e-05 1.9510535e-05
0000c0 58 bf 0c 37 0f 2b 47 b8 71 96 de 38 0c e3 7d 36
       8.389201e-06 -4.74854e-05 0.00010613807 3.7832096e-06
0000d0 e8 df 5a b8 2b fb bd 37 12 ad fb 38 15 eb 35 39
       -5.218378e-05 2.2647515e-05 0.000120008495 0.0001734908
0000e0 0a 8c 46 b8 99 45 d8 b8 4d e5 9a 38 c8 77 72 37
       -4.73373e-05 -0.00010312646 7.386003e-05 1.4452213e-05
0000f0 94 18 83 38 ed 2b fa b8 f4 28 51 b8 3f 78 27 b8
       6.251145e-05 -0.00011929111 -4.9867624e-05 -3.992789e-05
000100 b1 c8 6e 38 ad 48 9e 38 58 d9 8a 38 61 ce d3 38
       5.693053e-05 7.547564e-05 6.620836e-05 0.00010099705
000110 33 95 c7 37 a5 7d 8b b8 a7 f5 25 38 fa e2 98 b8
       2.3792125e-05 -6.6514396e-05 3.9567847e-05 -7.2902025e-05
000120 a0 e1 87 b8 10 ad 0f b8 84 89 bf 38 df f9 49 38
       -6.4793276e-05 -3.4255034e-05 9.133204e-05 4.8154845e-05
000130 8c da f1 b6 5c 08 b0 38 51 e9 97 b8 00 ca d1 b8
       -7.207802e-06 8.393891e-05 -7.2437e-05 -0.00010003522
000140 d7 be 83 b8 20 77 7b 38 c2 ff de 38 3d 38 b8 b8
       -6.2821135e-05 5.9954007e-05 0.000106334235 -8.784279e-05
000150 e1 40 e6 b8 a0 7f 85 38 af d0 45 b8 2b 40 be b8
       -0.00010979339 6.365706e-05 -4.7162812e-05 -9.071858e-05
000160 6e bc 88 b8 2c f2 bd 37 41 aa 76 b8 51 c9 81 b8
       -6.520083e-05 2.2643326e-05 -5.880953e-05 -6.1886974e-05
000170 b8 64 83 b8 a2 8e c4 38 6e d0 e6 b8 d7 36 8b 38
       -6.265327e-05 9.372576e-05 -0.00011006078 6.638251e-05
000180 4f 73 9b 37 db d8 6c 38 95 dc ab b8 cc 79 b0 36
       1.8531135e-05 5.6468747e-05 -8.195002e-05 5.2593878e-06
000190 ac 72 ed b7 0b e2 8c 38 b8 c5 a3 38 b6 27 39 b8
       -2.8306e-05 6.717824e-05 7.809274e-05 -4.414442e-05
0001a0 f6 4d c0 38 c9 8b c9 38 9c c6 c4 b8 87 ab 34 38
       9.169795e-05 9.610464e-05 -9.383002e-05 4.307509e-05
0001b0 dd 17 14 b8 2a 33 96 b8 ff 79 3d 36 12 a4 af 37
       -3.5308174e-05 -7.1620874e-05 2.8234206e-06 2.0938027e-05
0001c0 b7 86 cc 36 4b da 34 b8 55 b6 a4 38 3b dc 17 b8
       6.0953566e-06 -4.3118645e-05 7.8540914e-05 -3.620631e-05
0001d0 01 0b 96 b8 af a5 1c 38 1c 63 a0 38 d0 31 ea 38
       -7.154607e-05 3.7347603e-05 7.647855e-05 0.00011167268
0001e0 bc f7 99 b8 fd d9 a1 b8 6a 34 07 38 f4 70 91 37
       -7.341753e-05 -7.717682e-05 3.2235323e-05 1.7337945e-05
0001f0 ff 4b f8 37 eb 1e a3 b8 7e 94 8d b7 33 6f dd b7
       2.9599292e-05 -7.7782046e-05 -1.6877657e-05 -2.6397034e-05
000200 02 37 9c 38 c1 33 b0 38 18 2b ad 38 e4 3e 06 39
       7.448906e-05 8.401974e-05 8.25731e-05 0.00012802664
000210 52 5c de 35 00 fd c8 b8 92 e0 be 38 1f 52 c5 b8
       1.6567158e-06 -9.583868e-05 9.1017355e-05 -9.408988e-05
000220 19 7b dd b8 ef 8b 62 b8 f8 f3 13 39 36 c3 9c 38
       -0.0001056103 -5.4012922e-05 0.00014109898 7.4750205e-05
000230 62 10 25 37 a5 1a 0e 39 92 29 d9 b8 2a cc f0 b8
       9.838581e-06 0.00013552101 -0.000103551094 -0.0001148212
000240 b9 6b 8a b8 12 df bc 38 fe 4b 1e 39 3c b5 c7 b8
       -6.600418e-05 9.006089e-05 0.00015096363 -9.522817e-05
000250 9c 8f 08 b9 46 05 b1 38 69 e7 c0 b7 9f 32 08 b9
       -0.0001302347 8.441e-05 -2.2995942e-05 -0.00012988829
000260 39 da 97 b8 43 a5 97 37 65 16 8a b8 a8 88 7a b8
       -7.240888e-05 1.8077559e-05 -6.584524e-05 -5.9731916e-05
000270 5b e7 82 b8 b3 5c fe 38 ba 7f 09 b9 c1 5e 71 38
       -6.2419764e-05 0.000121289304 -0.0001311292 5.7547124e-05
000280 6a 48 a7 36 f8 4d a8 38 11 fe ce b8 44 bd a3 37
       4.985418e-06 8.025387e-05 -9.870169e-05 1.9519248e-05
000290 1b 73 f7 b7 ca 1d 9f 38 d9 15 e6 38 16 36 16 b8
       -2.9498295e-05 7.5872595e-05 0.00010971324 -3.581316e-05
0002a0 89 39 23 39 d7 dd 12 39 ec 0a f9 b8 f5 b8 73 38
       0.00015566325 0.00014006287 -0.000118752796 5.810797e-05
0002b0 ae 4f c2 b7 32 0e b0 b8 66 12 bb 37 75 37 d0 37
       -2.3163706e-05 -8.394978e-05 2.2300705e-05 2.4821356e-05
0002c0 64 10 14 37 9e b6 56 b8 12 67 d6 38 ff fc d2 35
       8.825304e-06 -5.119165e-05 0.000102235135 1.5719851e-06
0002d0 9a a8 72 b8 75 c0 be 37 7a 20 f5 38 8c 48 35 39
       -5.785432e-05 2.2739385e-05 0.000116885596 0.00017288531
0002e0 4c 2b 63 b8 6a 92 dd b8 aa e5 93 38 aa 14 6d 37
       -5.416134e-05 -0.00010565373 7.0522845e-05 1.4131112e-05
0002f0 d6 5e 7f 38 15 9a f4 b8 58 41 4a b8 21 8a 22 b8
       6.088506e-05 -0.00011663527 -4.822141e-05 -3.8752452e-05
000300 e0 aa 9b 38 5c 68 99 38 a6 83 85 38 4e 82 f2 38
       7.422804e-05 7.315047e-05 6.366456e-05 0.000115637304
000310 67 00 27 37 dc 59 8f b8 77 0b 5d 38 11 8d a8 b8
       9.954069e-06 -6.835509e-05 5.2701183e-05 -8.03714e-05
000320 69 2c b3 b8 6b 5a 38 b8 cb 96 dd 38 5c 08 48 38
       -8.543657e-05 -4.3953227e-05 0.000105661886 4.76915e-05
000330 2f ba 02 b5 0f c1 ad 38 1f a2 b5 b8 dc 79 dd b8
       -4.8699707e-07 8.285243e-05 -8.66095e-05 -0.00010560799
000340 58 7e 76 b8 39 e9 81 38 ab 36 02 39 05 e7 b4 b8
       -5.8768637e-05 6.1946404e-05 0.00012418132 -8.6260996e-05
000350 63 36 de b8 2f 49 89 38 88 71 51 b8 b0 8b de b8
       -0.00010595915 6.5463006e-05 -4.9935217e-05 -0.00010611804
000360 3d 4e 83 b8 85 f2 c9 37 1d 9d 6e b8 74 26 92 b8
       -6.26114e-05 2.4074e-05 -5.6889945e-05 -6.968985e-05
000370 7f 8b 97 b8 c8 96 ce 38 15 cb f4 b8 8e e8 9d 38
       -7.226224e-05 9.850931e-05 -0.000116726536 7.52966e-05
000380 18 b6 7f 37 da 1d 88 38 af 95 c4 b8 6a 13 8f 36
       1.5241581e-05 6.490546e-05 -9.373889e-05 4.263992e-06
000390 a0 cc ce b7 4e c6 a0 38 37 4f b1 38 21 c3 71 b8
       -2.46524e-05 7.666332e-05 8.4547726e-05 -5.7640606e-05
0003a0 4b 6b dc 38 f3 ee dc 38 8f bf c5 b8 df 7d 7d 38
       0.00010510402 0.00010534925 -9.4293726e-05 6.0437127e-05
0003b0 a5 78 31 b8 b1 90 9e b8 8e 8c 34 36 10 a4 ef 37
       -4.2312447e-05 -7.560978e-05 2.6903904e-06 2.8567418e-05
0003c0 c3 20 dd b5 c9 0f 47 b8 34 4d a5 38 51 24 0b b8
       -1.6475318e-06 -4.746e-05 7.882193e-05 -3.3174005e-05
0003d0 a7 4c 93 b8 b8 7c 16 38 ce 0a b2 38 71 cf 08 39
       -7.023784e-05 3.587894e-05 8.489714e-05 0.00013047249
0003e0 de b9 ac b8 40 50 a6 b8 33 6d 32 38 cd 35 81 37
       -8.2362196e-05 -7.9304446e-05 4.2540207e-05 1.5403051e-05
0003f0 88 7d 2a 38 c8 31 b3 b8 0b 0c 8e b7 e1 1e ff b7
       4.064807e-05 -8.5446576e-05 -1.6933327e-05 -3.0412748e-05

fc0.0.weight f4 [64, 64]
000000 8e 72 cb bd e9 cf 9d 3d a0 58 d8 3d 80 92 95 bd
       -0.09933959 0.07705671 0.10563779 -0.07303333
000010 85 08 a7 3d 38 5b f7 3d 06 e2 cb bc 2d 45 dc bd
       0.08155922 0.120779455 -0.02488805 -0.10755382
000020 c0 7e b2 3c c9 0a 81 3d 28 4b ab 3d 58 1b 82 3d
       0.021788955 0.06300885 0.08363944 0.06352872
000030 a0 56 a8 bc 36 0a 6c 3d d2 0a 8e bd 5e 6f e4 3c
       -0.020549119 0.057626925 -0.069356576 0.027885135
000040 05 65 0c bd 31 d9 99 bd c2 22 55 bd 94 dd 80 bd
       -0.034276027 -0.07512129 -0.0520351 -0.06292263
000050 bb 25 f4 3c 38 6a 03 bd 93 aa 57 3c 6f 7e 2b bd
       0.029803148 -0.03208372 0.013163227 -0.041868623
000060 ec 43 84 bd 3e 6b b2 3d 54 dc e0 3c f1 fb 5c 3d
       -0.064582676 0.08711861 0.02744881 0.053951208
000070 36 27 83 3d b7 8c c5 3c 5e 97 1f bd b9 d2 df 3d
       0.06403963 0.02411495 -0.038962714 0.10928864
000080 25 ed 63 bd 21 8f 4f bd f2 bc 2c bd 02 d4 96 3d
       -0.05564608 -0.050673608 -0.04217238 0.07364656
000090 e7 74 ee bd 92 43 50 3c 7e c0 f0 3d 62 54 f8 bd
       -0.11643391 0.0127114225 0.11755465 -0.1212547
0000a0 50 fb da bd f2 aa ed 3d 32 4c a7 bd 88 00 a2 bd
       -0.10692465 0.11604871 -0.0816883 -0.079102576
0000b0 59 74 29 bb 31 a3 2f bd 90 ee 9f 3d 20 08 6e 3d
       -0.0025856702 -0.04288024 0.07809174 0.058113217
0000c0 5f 20 e5 bd b7 58 64 bd bf 11 52 bc 36 fb d4 3d
       -0.11187815 -0.055748668 -0.012821614 0.10399477
0000d0 9c a5 b1 bd 8c 9a ca bc 31 a1 e3 bd f9 fc e3 bd
       -0.086741656 -0.024731897 -0.11114729 -0.11132235
0000e0 4d 9a 94 bc d2 87 b7 bd c7 c5 bf bc cf ac b5 3d
       -0.018139983 -0.089614525 -0.023409737 0.08870851
0000f0 0b 77 53 bd 94 04 b5 3d ee 05 21 bd 43 83 97 bc
       -0.0516272 0.08838764 -0.039312296 -0.018495208
000100 51 54 28 3d 80 d5 fa 3d 97 6a 8e 3d c0 46 c3 3d
       0.041096035 0.12247753 0.06953924 0.09534979
000110 27 81 a2 3c aa 68 51 bd ce 77 92 3d 6b 83 b3 3b
       0.019836975 -0.051125206 0.07151757 0.0054783127
000120 f5 bd 64 3d 42 a8 cd bd ce 6c 00 bb d3 6f 4c 3d
       0.05584522 -0.10041858 -0.0019596103 0.04991133
000130 27 d2 46 3d eb c4 22 3d c8 2a 8b 3d b0 e3 0f 3c
       0.04854026 0.039738577 0.06795269 0.008782312
000140 16 07 41 bd 03 d6 e2 bd 7d ad ee 3d 1c 1d ea bd
       -0.0471259 -0.11075976 0.11654184 -0.114313334
000150 ea 2f 17 bc 6f b2 f3 bb de 28 2c bd ac 65 6a 3c
       -0.009227732 -0.0074370424 -0.04203116 0.014306467
000160 5e de dc bc 56 a8 26 3d 93 56 f6 bd 82 40 91 bd
       -0.026961502 0.04068788 -0.120282315 -0.07092382
000170 a3 3d 6b 3d 06 f9 52 3d 44 1a 0d bc be d3 e4 3d
       0.05743183 0.05150702 -0.008612219 0.11173199
000180 07 33 5c bd 6c 4d b7 bd 85 9a 9e 3d f7 6c be bd
       -0.0537596 -0.08950314 0.07744316 -0.09298127
000190 86 19 c2 bd a0 05 8b 3d c7 a9 b9 bd c8 76 4c bd
       -0.094775245 0.06788182 -0.090655856 -0.049917966
0001a0 cb d2 10 bd 2a c5 fc 3c 5a 04 03 bd 8b 9f 83 3d
       -0.035357278 0.030855734 -0.03198657 0.06426915
0001b0 bb da a4 3c 07 be f7 bc 0a 28 7f 3c ab ac b8 3d
       0.02012383 -0.03024198 0.015573511 0.09017309
0001c0 ca 10 36 3c 6f c3 86 3d 58 56 51 bd 5d 3c fa bd
       0.011112401 0.06580245 -0.051107734 -0.12218545
0001d0 6e 43 80 bd cd a2 eb bd fb 02 db bd 0c 76 8d bd
       -0.06262861 -0.11505661 -0.10693928 -0.06907281
0001e0 26 76 13 bd a2 27 c3 3d 8f e8 7f bd 7e 96 bb 3c
       -0.036001347 0.09529044 -0.062477645 0.022898909
0001f0 2b e9 b3 3c 85 4a ea 3d 33 36 de 3d 93 9d 4c 3d
       0.02196177 0.11439995 0.108501814 0.049954962
000200 3e 27 bf bd f4 2e 82 3d 76 fe 72 bd 07 19 ef 3d
       -0.09333657 0.06356612 -0.059324704 0.116746955
000210 93 f5 b4 bd 69 21 5f bd 63 e9 51 bd d9 e2 fb 3c
       -0.08835902 -0.05447522 -0.051247966 0.030747818
000220 e3 7e ad bd a3 f9 3e bd 3a 9a b1 3d 4c bd ea 3d
       -0.08471467 -0.04662479 0.086719945 0.11461887
000230 2d 11 81 bd 18 96 a0 3c a1 25 d6 bd 60 88 bb bd
       -0.06302104 0.01960282 -0.10456396 -0.09156871
000240 f2 8e 21 bd e3 d2 71 3d 67 65 f8 3d a9 b1 03 3d
       -0.039442964 0.059039008 0.12128716 0.03215185
000250 a8 1c 9a bd 5b bc ae 3d a4 7f 75 bd 30 af 1a 3d
       -0.07524997 0.0853202 -0.05993618 0.037764728
000260 a9 6b ba bd 85 c4 47 3d 08 af 47 3d 0b ad c8 bd
       -0.09102566 0.0487714 0.048750907 -0.0979863
000270 04 b7 f7 bd 74 92 c1 bd 4b 51 a8 3d f2 b2 c2 3d
       -0.12095454 -0.09451762 0.082186304 0.09506787
000280 67 63 f9 bb b5 64 98 bd 75 8d da bb 02 f1 d1 3d
       -0.0076107266 -0.07441083 -0.006669695 0.10251047
000290 87 7d ae bd 33 57 c8 bd e2 85 4e bc d9 a0 dd ba
       -0.08520036 -0.09782257 -0.012605162 -0.0016908898
0002a0 ca cb 35 3d 0d ff 82 3d 56 b2 50 bd c2 83 6f bd
       0.0443838 0.06396303 -0.050951324 -0.058475263
0002b0 04 19 f3 bd b2 0d ac 3d 72 f2 6f 3d 59 18 e6 bd
       -0.11870006 0.0840105 0.058580823 -0.11235113
0002c0 75 47 81 3c 08 82 b2 3d 4b 8d a9 bb 88 63 99 3c
       0.015781144 0.08716208 -0.005174314 0.018724218
0002d0 40 4c a5 3d 2d 3a e0 bd 73 e1 f9 3d 84 5a e7 bc
       0.08071184 -0.10948596 0.12201204 -0.028241403
0002e0 f2 23 d9 bd 3e 76 9d b9 13 ef ab 3d 0b ba 46 bd
       -0.10602559 -0.0003003347 0.08395209 -0.04851727
0002f0 d3 5d 01 bc 91 bd 6c 3d c1 0e 08 3d 42 9f f9 3d
       -0.007895905 0.057797972 0.033217195 0.12188579
000300 85 f7 b4 bd f5 a5 a0 bd 00 da b4 3d f0 b2 d0 3b
       -0.08836273 -0.07844154 0.08830643 0.0063689873
000310 47 b5 3c bd 92 41 ba bd 4d 52 67 3d 2d 76 95 bd
       -0.046071317 -0.09094538 0.056474973 -0.07297931
000320 7a 88 e9 3d 03 ee 2f 3c 94 0e ad 3d 62 fd ef bd
       0.11402984 0.010737899 0.08450046 -0.11718251
000330 dd 5c df 3d 1a e2 bc bd 31 9e 5d 3d a5 00 2a 3d
       0.10906384 -0.09222813 0.05410594 0.04150452
000340 59 a7 ad 3d 57 43 01 bd 4f ec c8 3a aa 4d 39 3d
       0.08479185 -0.03155836 0.0015329215 0.04524008
000350 a4 b7 9d 3c a1 a9 e2 3c 50 62 52 3d b5 b0 fd 3d
       0.019252606 0.027668776 0.05136329 0.1238722
000360 bc 03 38 3d 59 2b 95 3c bd a8 e5 3d ca d2 d1 bd
       0.044925436 0.018209146 0.11213825 -0.10245283
000370 c1 32 8b 3c 6e c4 ce bd a9 ec f6 3d e6 d6 a5 3d
       0.016991975 -0.1009606 0.12056858 0.08097629
000380 53 48 08 3d 3d 29 f7 bc 71 f2 a3 bb c9 0b f8 3d
       0.0332721 -0.030171031 -0.0050032665 0.12111623
000390 f0 d4 cf 3d 5e e1 4b 3d 47 6c 9b bd 57 7f 24 bd
       0.101480365 0.049775474 -0.07589012 -0.040160503
0003a0 9f 42 8e bc f5 10 91 3d a5 e0 0c 3d 18 d1 b3 bc
       -0.017365752 0.070833124 0.034393925 -0.02195029
0003b0 28 4d 6f bd fb 2d 9e 3d 3f c7 d4 3d 9a f6 61 bd
       -0.05842319 0.07723614 0.10389566 -0.05516682
0003c0 e7 46 be bd 47 c8 16 bd c8 f9 be ba 20 98 d8 3d
       -0.09290867 -0.036812093 -0.001457029 0.105758905
0003d0 63 1b c1 3c 3e 30 53 3c 26 1c cb bc d4 f0 b0 bd
       0.02357263 0.01288992 -0.024793696 -0.08639684
0003e0 7e d8 f9 3d bf 0e ba bd ae 49 7d bd 05 78 f7 3d
       0.12199496 -0.09084844 -0.061837845 0.12083439
0003f0 79 98 a4 bc 2d 70 a1 bd 37 93 e6 bd 00 07 e7 bd
       -0.020092236 -0.07882724 -0.11258548 -0.11280632

fc0.0.bias f4 [64]
000000 0c 16 46 3d 56 f2 c2 bd 9d 6a 34 3d e4 00 9b bb
       0.04836087 -0.09518878 0.044046987 -0.004730331
000010 74 a0 b2 bd 76 0f 9f 3d 28 16 f0 3d 13 d2 49 bd
       -0.0872201 0.07766621 0.11722976 -0.049272608
000020 76 f8 30 bd 21 e8 83 bd 23 b2 31 3d 3e 7e 5c bd
       -0.0432057 -0.064407595 0.043382775 -0.05383133
000030 47 e0 48 bd 8b 94 cf 3c 9d ae ba 3d cc 86 a1 bd
       -0.049042013 0.025339385 0.09115336 -0.078870386
000040 21 64 4c 3d 75 36 8e 3d 92 6c e3 bc 37 7d e1 3d
       0.049900178 0.069439806 -0.027761731 0.11010211
000050 e6 28 52 bd 7b 39 15 bc fa 73 8b bb 9d 35 fb 3d
       -0.051308535 -0.009107943 -0.004255769 0.12266085
000060 b4 f0 71 3c b0 c4 fa bd 2e 5d b8 3d f8 02 e4 3c
       0.014766861 -0.122445464 0.090021476 0.027833447
000070 97 42 7f bc 83 8f 26 bd bf ef a9 3d c9 40 f6 3b
       -0.015579841 -0.040664207 0.08297681 0.007515047
000080 2c 7e e4 3c c6 47 c1 3d 51 ac a3 bd 35 11 1b 3d
       0.027892195 0.09437518 -0.07991851 0.037858207
000090 1e c3 f7 bc 42 6f cd 3d 61 63 d7 3d cd 2e be bd
       -0.030244406 0.10030986 0.10517002 -0.0928627
0000a0 8b e1 04 3d 9c 66 95 bd b4 7a 36 3d 71 db d7 bd
       0.032441657 -0.07294962 0.044550613 -0.10539902
0000b0 4a 9b 9a 3d 77 27 e6 bd dc 5a ea 3c 75 36 a7 3c
       0.0754915 -0.11237996 0.028607778 0.02041171
0000c0 7c 09 d9 bd 8a 9c 86 bc 2c e6 88 3d 9b 01 fb 3d
       -0.10597512 -0.016432066 0.06684527 0.122561656
0000d0 3e b9 af bd af 25 f6 3c 5b cb f6 3c c5 d3 f7 3d
       -0.08580254 0.030047266 0.030126264 0.12100939
0000e0 e8 07 2e 3d d0 7f 8c 3d 8a 71 e6 3d 3d 33 ac 3d
       0.04248801 0.06860316 0.112521246 0.084082104
0000f0 ec 05 82 3c 8f 46 c5 3a a0 17 96 bb e0 1b f9 bd
       0.015871964 0.0015050935 -0.004580453 -0.1216352

fc1.0.weight f4 [64, 64]
000000 61 bf 96 bc df e4 9f 3d 1c 4e 8c bd 93 f1 8e 3c
       -0.018401803 0.078073256 -0.06850836 0.017449176
000010 f6 c3 bd bd 27 64 83 3c 45 15 ed 3d e8 d9 55 3d
       -0.09265892 0.016038967 0.115763225 0.052209765
000020 22 ad 6a bd 2b 39 8b 3d 0a 26 fe 3d df 4a ff bc
       -0.05729402 0.06798013 0.12409599 -0.031163631
000030 e4 ee bb 3c c4 80 02 bd 16 a1 ad 3d dd 97 09 3d
       0.02294106 -0.03186108 0.0847799 0.033592094
000040 00 93 f6 3d dd 10 5b bd 30 93 a9 bc 00 af b3 3c
       0.12039757 -0.05348288 -0.020700067 0.021934032
000050 34 84 11 3d b9 8c df bd af 88 d0 3d 4c 23 39 bd
       0.03552647 -0.109155126 0.1018232 -0.045199677
000060 bd 6f 77 3d a7 56 54 bc ea 4d 93 3d b8 4e 71 3d
       0.060409296 -0.012960113 0.07192595 0.058912963
000070 cd 79 8d bd 76 8d 5e bd 61 8c c8 bc fa 95 c4 bd
       -0.06907997 -0.054334126 -0.024481 -0.09598918
000080 b2 c1 fb 3d b2 1e 0d bd 9f 95 36 3d 8a 70 00 3d
       0.12292804 -0.0344531 0.044576284 0.031357326
000090 7d 91 48 3d 71 1d 13 3c 42 5f 2f 3d 09 a3 59 bd
       0.048966873 0.008979187 0.042815454 -0.053133998
0000a0 48 be 81 3d f9 0b f4 bd 1f 27 92 3d 93 ef 37 bd
       0.063351214 -0.11916346 0.07136368 -0.04490621
0000b0 bc e6 ae bd 99 c9 ee bb 5e 9f 00 3e f9 50 a6 bd
       -0.08540103 -0.007287216 0.12560794 -0.08120913
0000c0 5a bc fb bd 9a a7 94 3c 0b 6d 7e bd eb 6b 80 3d
       -0.122917846 0.018146325 -0.06211571 0.06270584
0000d0 39 17 cb 3d 7a 1e 3f bd 32 d7 c5 bc ef a0 6d 3d
       0.09916539 -0.046659924 -0.024150465 0.058014806
0000e0 6a 6b 9d 3c c2 9c 4a 3d 1b 9b 7c 3d 04 8d 1c 3d
       0.019216258 0.049465902 0.061671358 0.03822042
0000f0 c4 ca 88 3d 93 90 a1 bd 50 ac e7 3c 66 f4 2e 3a
       0.066792995 -0.078889035 0.028280407 0.00066739914
000100 95 e9 44 3a 3f f2 d6 3d 71 9e dc 3d 4e 31 59 3d
       0.0007511613 0.104954235 0.10772408 0.053025536
000110 16 fc 40 bd b0 7d 43 3d 4a 4a 8e bc 60 60 e7 3d
       -0.047115408 0.047727287 -0.017369408 0.11297679
000120 f6 79 7e 3c 0d 13 6d 3d 8b e6 87 bd c8 29 e4 bd
       0.015532007 0.057879496 -0.066357695 -0.11140782
000130 0a e9 47 3c fc 3e 88 bc 89 e4 01 3d 5d 46 f1 3d
       0.012201557 -0.016631596 0.03171209 0.11780999
000140 5a f0 32 3d 59 6b 19 bd fc 84 bf 3d e1 b6 fb bc
       0.04368625 -0.03745589 0.09351537 -0.030726852
000150 88 cc bf 3d e9 21 d8 3d 3e b8 1a 3d 76 8f 53 bc
       0.09365183 0.10553343 0.037773363 -0.012912622
000160 77 d1 9a 3c bc 88 aa 3d 11 c3 51 3c 3c bc 92 bd
       0.018898709 0.08326861 0.012802855 -0.07164809
000170 1a d5 ef bc 10 61 1f 3c a9 4c b9 3b 60 cd a9 bd
       -0.02927642 0.009727731 0.0056548906 -0.08291125
000180 2c 41 02 3c cb 33 8b 3d 9b 60 e3 3d 97 ec 3b bd
       0.0079501085 0.06796988 0.111024104 -0.045879927
000190 c5 64 62 3d 9c 42 62 3d e4 ad 44 bd c3 7f 84 bd
       0.055271883 0.055239305 -0.048017398 -0.06469681
0001a0 66 de bf bd 6c c3 92 3c a1 fb f5 bd d9 96 10 bd
       -0.09368591 0.01791545 -0.12010885 -0.03530011
0001b0 f4 ae d3 3d 2b b6 f7 bd 5e df 87 3d 08 bf 82 3d
       0.10336104 -0.12095293 0.06634401 0.063840926
0001c0 3f 65 79 bd 30 72 8a 3d b2 c7 5f bc 24 1e ee bd
       -0.06088757 0.06760061 -0.013658451 -0.116268426
0001d0 77 ce bd bc 76 ea fb 3d 13 b9 7e 3d 83 46 3e bd
       -0.02316974 0.12300579 0.06218822 -0.046453964
0001e0 6f 52 2f bd d7 81 ed 3d dc 20 b5 bd 47 c7 66 bd
       -0.042803224 0.115970306 -0.08844158 -0.05634239
0001f0 4a de 70 bc 88 59 4c bd 1b 9f e2 3d bd c6 24 3d
       -0.014701435 -0.04989007 0.11065503 0.040228594
000200 b5 6b 43 bd d0 76 34 bd cc 18 f5 bc 64 6a 9c bd
       -0.04771014 -0.04405862 -0.02991905 -0.0763748
000210 2b 61 50 3d 43 bb f7 3d 6b e3 ae bc a8 e7 a0 bd
       0.050873917 0.12096264 -0.021348676 -0.07856685
000220 7e a8 89 bd b8 d2 62 3d 8f ff ee 3c ec eb ac 3c
       -0.067215905 0.05537674 0.029174594 0.02110859
000230 7e 91 87 3d 50 99 19 bc e2 6d d4 bd 57 9c dd bd
       0.06619547 -0.009374931 -0.10372521 -0.10820835
000240 5d 2c f5 bd 50 b2 00 3e 0d 1f 00 bd d1 c4 7e 3d
       -0.11971352 0.12568021 -0.031279612 0.062199418
000250 4f 9a b0 bd ee 4b 06 bd 5b 26 44 bc db 74 c4 3d
       -0.08623182 -0.032787256 -0.011972035 0.09592601
000260 78 45 d6 bd 13 f2 5e bd 65 5e d9 ba 57 86 af 3d
       -0.10462469 -0.05443008 -0.0016583918 0.08570545
000270 a7 ef 20 bd 2a e7 82 3d c6 d1 9a 3d 87 06 8a 3d
       -0.03929105 0.06391747 0.07559542 0.06739526
000280 f1 ef 47 3d f3 5a cc 3d c2 ff b9 bd 94 18 e2 bd
       0.04881281 0.09978285 -0.09081985 -0.11039844
000290 d8 2f a2 3d 74 38 db 3d 0f b3 f4 bd d0 7a df bd
       0.07919282 0.10704127 -0.11948215 -0.109120965
0002a0 35 43 fd bc 58 5c fd 3d 56 3a c3 3c 16 29 fd bd
       -0.030915836 0.12371129 0.023831528 -0.12361352
0002b0 12 3b 75 3d 92 6f f2 bd d3 a2 6d 3b c9 55 cd 3d
       0.059870787 -0.118376866 0.003626038 0.10026128
0002c0 56 ea b2 bd 1c eb fe bd da 7c fb bc 51 ac c7 bd
       -0.08736102 -0.12447187 -0.030699182 -0.097496636
0002d0 81 92 a9 bd d9 b2 ac 3d e6 0c cf bd 61 5f 7c 3c
       -0.082798965 0.0843255 -0.10109882 0.0154035995
0002e0 a4 6a 0b 3d 26 5c a2 3c c3 41 03 bd ac 5c 18 3d
       0.034037247 0.01981933 -0.032045137 0.037197754
0002f0 a3 b8 01 bd db a7 29 bd f2 5a 4d bd f6 8f 7d bd
       -0.031670224 -0.041419845 -0.05013556 -0.06190487
000300 a5 a9 1f bd 6a 99 f0 3d 30 11 a1 3d 64 9c 6e 3d
       -0.038980145 0.117480114 0.078646064 0.058254614
000310 38 6b 88 bc 49 a9 aa 3d 3c 61 df 3b 76 7a b9 3d
       -0.016652688 0.0833307 0.006817011 0.09056561
000320 2e 97 47 bd fd 5c 98 ba 11 0e cc 3d 09 b3 59 bd
       -0.04872816 -0.0011624392 0.099636205 -0.053149257
000330 3d c6 25 bd f4 97 cf 3d 42 eb ab bd dc 49 7f bd
       -0.040472258 0.10136405 -0.08394481 -0.062326297
000340 d9 0c cc bc b1 31 5c bd ca 20 1f bd d6 81 a9 bc
       -0.02490847 -0.053758327 -0.03884963 -0.020691793
000350 b5 85 a5 ba 93 c3 8e bd 79 aa 86 bc c8 ab bd bd
       -0.0012628349 -0.069708966 -0.01643871 -0.0926128
000360 0a 99 72 bd 8d e8 9e 3d ce 0c bf bd 4e 73 99 3d
       -0.05922798 0.07759199 -0.09328614 0.07492696
000370 a1 b9 b3 bd bf 20 bb 3d 2e f1 b9 3c bd 2e f6 3d
       -0.0877564 0.09137105 0.022698011 0.12020633
000380 fc 5c e3 3d 8d e6 8a bd 65 d9 bb 3d 78 a6 d0 3d
       0.1110172 -0.06782255 0.09172324 0.101880014
000390 59 c6 d4 3d 76 0c a9 bd 02 66 1f 3c e6 62 07 bd
       0.10389394 -0.0825433 0.00972891 -0.0330533
0003a0 83 a8 cb 3d 99 fd e2 3d 5a 20 cc bd 74 27 9e 3d
       0.099442504 0.11083526 -0.09967108 0.07722369
0003b0 5e 85 aa bd da 7f eb bd 5f c9 c1 bd d0 fd db bd
       -0.08326219 -0.11498995 -0.094622366 -0.1074177
0003c0 01 6f f0 3c 4a b6 83 3d e7 da c6 bd 4b c7 a2 3b
       0.029349806 0.06431253 -0.09709721 0.004967605
0003d0 d3 ee ed 3b 0d b5 9b 3c 66 76 c7 bd 13 7f 90 3d
       0.007261136 0.01900723 -0.097393796 0.070554875
0003e0 13 ce f4 bd 8e 59 1f 3c 3c d7 9a 3b c1 26 30 3d
       -0.11953368 0.009725941 0.004725365 0.04300571
0003f0 15 13 a5 bd 19 63 e2 3d 2c 95 62 3d 21 54 f0 3d
       -0.0806028 0.11054058 0.055318043 0.11734796

fc1.0.bias f4 [64]
000000 91 d7 98 3c 79 48 cb bd e3 08 ed bd f3 76 99 3d
       0.018657478 -0.099259324 -0.11573961 0.07493391
000010 a5 dd 3f 3d 8c 61 0d 3d 38 6a 26 3d 78 91 c1 3d
       0.046842236 0.034516856 0.04062864 0.09451574
000020 82 2a 2d bc 35 59 46 bc cf 9e 4b 3c 5f 99 ab 3d
       -0.010569217 -0.01210623 0.012428 0.083788626
000030 5f db 5e bd 14 6f 62 3b 77 ab b8 3d c0 3d f1 bd
       -0.054408427 0.003455107 0.09017079 -0.11779356
000040 04 6f 03 bd d1 98 c9 3c 8e 42 8a 3d 06 4b c5 3d
       -0.032088295 0.024609001 0.067509755 0.0963345
000050 93 d4 41 bb fc bc 1c 3d 9c 47 e3 ba 1c 1a e5 bc
       -0.0029576167 0.038266167 -0.0017340067 -0.027966551
000060 aa 7e 30 3d d8 41 94 3c 74 91 e9 3c 15 e7 bc bc
       0.043089546 0.018097803 0.02851174 -0.023059407
000070 7d d3 43 3d a4 cd ce bd 93 49 fd 3a 15 1b 98 3d
       0.047809113 -0.100978166 0.0019324295 0.074270405
000080 c3 a6 2c 3b f0 37 f7 bd 8e a7 ba bd 64 8d 7d bd
       0.0026344515 -0.12071216 -0.0911399 -0.06190242
000090 e4 00 a4 3d 2f 74 64 bd 48 f9 e9 3d 28 12 bf bd
       0.080079824 -0.055774864 0.114245 -0.09329635
0000a0 9f 35 e3 bc b6 ca 63 bd 2f b3 b1 39 54 ac d8 3d
       -0.02773553 -0.055613242 0.00033893573 0.10579744
0000b0 0d 60 00 3d 87 c0 43 3d 14 7f 82 3d 21 f8 a0 3d
       0.0313416 0.04779103 0.063718945 0.07859827
0000c0 49 89 52 bd 93 83 96 bd 1b cb 3e bc b2 2d cf bd
       -0.051400457 -0.073493145 -0.011645104 -0.101161376
0000d0 57 df ca 3d a1 ba 53 bc bd 69 04 3c 84 10 f9 3c
       0.0990588 -0.012922914 0.008081851 0.030403383
0000e0 c3 34 c8 3d 25 05 87 3d 03 da 89 bc 42 79 88 bb
       0.097756885 0.06592778 -0.016827589 -0.0041648457
0000f0 f9 73 22 bd 41 12 c6 3c b6 44 3b 3d 4e 0d ef bd
       -0.03966138 0.024178626 0.045719825 -0.116724595

output_layer.0.weight f4 [1, 64]
000000 d8 c9 e8 bd 93 2c 23 bd e0 1e 91 bd 32 f8 94 bd
       -0.11366624 -0.03983743 -0.07085967 -0.07273902
000010 62 25 c8 ba 93 d8 bd 3d d9 ac 8b bd b9 8c a3 3d
       -0.001526993 0.09269824 -0.068200774 0.07985825
000020 3a 41 e1 3d bd 2a b7 3d 78 73 c0 bd 0c 91 92 bd
       0.10998769 0.089436986 -0.09397024 -0.07156572
000030 ec c6 db 3b d0 57 b3 bd 38 4b 15 3e 46 fa e0 3d
       0.006707063 -0.08756983 0.14579475 0.10985236
000040 2d 36 9c 3d c4 e3 c8 bd eb bd bc bd f9 13 b4 3d
       0.07627521 -0.09809068 -0.092159115 0.08792872
000050 a7 d6 f5 3d 6c 58 ea bd ef e0 64 3d 71 c1 f4 3d
       0.12003832 -0.114426464 0.055878576 0.119509585
000060 2c 1d 06 3d 3d f1 bb bc e1 fb bc 3d 1c 24 80 3d
       0.032742664 -0.02294218 0.092277296 0.06256887
000070 aa 05 35 3d 37 76 89 bd bd b9 a4 3d 98 97 4d bd
       0.044194855 -0.06712001 0.08043239 -0.0501934
000080 d0 cc b8 3c 28 cf a0 bd 12 ca 09 3e be 50 ae bb
       0.0225586 -0.07852012 0.1345599 -0.005319684
000090 6d 8e 20 bb 12 a9 89 bd fe 58 b5 bd 10 84 3b 3c
       -0.0024498955 -0.06721701 -0.088548645 0.01144506
0000a0 f6 21 d0 bd 5f 03 dd bd 77 c3 a2 3d 96 67 81 bd
       -0.101627275 -0.107916586 0.07947438 -0.063185856
0000b0 c4 b5 99 3d 64 ef 71 3d bc 8c ea 3c 32 62 8a bd
       0.07505372 0.05906619 0.02863156 -0.067570105
0000c0 e2 79 8f 3b 9e db 0c 3d 91 24 2d bd 54 ca 78 bc
       0.0043785432 0.03438913 -0.0422712 -0.0151849575
0000d0 34 62 48 3d d5 15 19 3c 3f 72 8a bd d9 a2 f5 bd
       0.04892178 0.009343584 -0.06760072 -0.11993951
0000e0 6a 50 8c 3d 05 51 e1 3d 60 a8 9c bd c9 8a 8d 39
       0.06851275 0.110017814 -0.076493025 0.0002699702
0000f0 21 75 8f bd 5f c4 c2 3d 95 83 22 3d 27 ac 01 3d
       -0.070047624 0.09510111 0.039676268 0.031658318
