blocksize-2/model_epoch_3_20.pth (torch, 171955 bytes, 9 tensors)

embedding.0.weight f4 [64, 7]
00000000: 492a 4a3e 8908 86be 6d22 b6bc f05d 1e3d
00000010: d5e9 713e 2869 bcbe 3128 a7be 5cd7 dc3c
00000020: 8ad6 e53d edc0 1abe 2cfd 47bd 01aa 64bc
00000030: bab3 b4be d859 7cbe 08a8 b1be c37f ff3d
00000040: f6c6 1a3e a22a 253d 1418 853e 3f3f 0fbe
00000050: b514 a3be f113 a2be d006 6f3e 4408 803d
00000060: f238 f53d a204 193e 219c be3e c319 2dbd
00000070: fb54 973b 593f 813e 9081 2ebe fd53 1bbe
00000080: 1f3e 9d3e 0636 8f3e a255 96be 8345 8fbe
00000090: 1704 b6be 143c fc3d df4f c43c babb 823e
000000a0: b515 83be c5bb 0bbe 17e0 98bd 4002 8bbe
000000b0: d24f babe deaf 303e 2f4e cf3d 7909 92be
000000c0: 943a 4e3e bdce 5dbe c2c5 993c f069 393e
000000d0: 8826 ddb9 15ce 21be 53d3 823e b0b8 a03e
000000e0: dad9 c0be 3257 5a3e 3caa 1e3e 80ef 8f3e
000000f0: d797 d7bd 3e9d bc3d cbe3 163d 079a 10bd
00000100: 72c1 283e 9d8d 68bd c2b1 1ebe 51cd d93c
00000110: 519a 6bbe a10e 72be 1545 30bd 3a81 96bc
00000120: 7fc6 393e a717 813d cb68 583e e81e 923e
00000130: 7138 9bbe d0c5 bdbe c21d 313e 6587 ab3e
00000140: 8415 81be 5a96 70be 87a6 923d 166f b53e
00000150: e31d 7cbe aa84 bcbe 1ed2 81be ab97 5ebc
00000160: 5039 733e 66fa a83e b7f1 6d3d d484 89be
00000170: 6543 a4bd cc9f ea3d 3171 0abd ebe1 3dbc
00000180: f69f 833d a90f c43e 4681 2abe 18ad 7d3e
00000190: 01b4 9abe f9c5 73be f98e 863e c5de bf3e
000001a0: b0a5 a4be 670d 9f3e 6240 a7bd e3a9 7a3e
000001b0: 7993 57bd b84d b7be 532e 4b3d c552 313e
000001c0: ae6f 50be 1f33 aabe 97d3 6bbd fd3f b23e
000001d0: 8948 a43e 84b9 893e aee8 af3d 6906 f8bc
000001e0: 1c40 28be 552a 67be 6a80 853e ad84 74be
000001f0: a2ed af3e adbd a43e e42a 75bc 4d8c 353e
00000200: 50cf 033d e22c e03d 27e8 2a3e d2e2 043e
00000210: a91b a2be 9eeb 3b3d 8164 453e a5de 813d
00000220: c195 053e 2c25 e0bd c654 b33a e706 9e3e
00000230: 2db0 023d 33d8 e8bd 3d54 893d f77e 81bc
00000240: 3bff 1dbe be6a aa3e dd7e d83d 2b0a b43e
00000250: b7e9 7cbd 657d bcbe 4193 683d bd3d 343e
00000260: 8efe 983e 789e 34be fe96 803e e631 2abe
00000270: 4dca 463e 3eca d53d 86a1 ac3e a459 05bc
00000280: 276b bb3e 6208 c53d 4fa9 8b3e d07e bcbe
00000290: 9095 a53e 0ccf a9be 44da 84be 1310 40bd
000002a0: 43d2 933e 807c 2a3d 4708 1bbe 09c0 af3d
000002b0: 4214 aabe 95ee 073e 0037 283e abae 463e
000002c0: 5f10 0f3c f625 84be ef76 6d3e d1c7 eebb
000002d0: 8411 b13e 4c71 36be b262 9c3d 1cd2 aebe
000002e0: 8791 f0bc 3309 193e 9376 93be 1833 01be
000002f0: 03d5 763e 6cda a63e 0d3f d8bd 9509 953e
00000300: 1b2a b93e 02f1 893e 2e67 0a3e 657f 4a3e
00000310: 2c9a 3c3e a285 3abe f460 393d 28d1 543d
00000320: ba1d 093e 9104 0d3e 2a3f e3bd d55b 8c3e
00000330: 3ab3 633e 78a8 d93d ae48 c63d b55f c13e
00000340: f41a 563e 3937 8f3e 2852 aa3e 3017 30bb
00000350: b534 0d3e 0bc0 debc cfc4 3cbe d9a1 93bd
00000360: 47dc 633e ef35 af3e cb04 d03d 40ce 1abe
00000370: 3434 24be bad4 9a3e 7624 313e 6751 99bc
00000380: 0e67 e33d 9d28 953e e573 91be 2f7c 263e
00000390: f5e2 5dbd 8ee0 813e fe24 35be 8239 1cbe
000003a0: 0415 8cbe 6852 0e3e 03dc 59be eb19 91be
000003b0: 870d 6f3e 4adf 85be 0431 9e3e 2c08 193e
000003c0: b69a 53be 5a77 d93d de57 76be 67e3 213e
000003d0: 7173 9ebe 874d d93c 1fb8 92bd cfdb a03e
000003e0: 0433 c4bd 6a9f 93be 5fc7 683e 986a 213e
000003f0: c24d f5bc e6b6 bab7 7ecd 403e de95 9dbe
0.19742693 -0.26178387 -0.022233212 0.038663805 0.23624356 -0.36798978 -0.3264785 0.02695816
0.11222561 -0.15112658 -0.048825428 -0.013956548 -0.3529337 -0.24643648 -0.3469851 0.124755405
0.1511496 0.04032386 0.25994933 -0.1398897 -0.31851736 -0.3165584 0.23342443 0.062515765
0.11973752 0.14943174 0.37228492 -0.042260896 0.0046182848 0.25243643 -0.17041612 -0.15168758
0.30711457 0.27970904 -0.29362208 -0.2798272 -0.35549995 0.123161465 0.023963867 0.2553385
-0.256025 -0.13645847 -0.07464617 -0.27150154 -0.36389023 0.17254588 0.10122334 -0.28522852
0.20139533 -0.21660896 0.018771056 0.18106818 -0.00042181113 -0.1580127 0.25551853 0.31390905
-0.37666208 0.21322325 0.15494627 0.28112411 -0.10527008 0.09209679 0.036838334 -0.035303142
0.16480044 -0.056775678 -0.15497497 0.02658716 -0.23008086 -0.23638393 -0.04303463 -0.018372167
0.18142127 0.063033395 0.21133725 0.28539205 -0.303165 -0.3706498 0.17296508 0.33501735
-0.25211728 -0.23494855 0.07160669 0.35436314 -0.24620776 -0.36819965 -0.2535562 -0.013585965
0.23752332 0.3300354 0.058091845 -0.26859152 -0.08020667 0.1145626 -0.033799354 -0.011589508
0.064269945 0.38293198 -0.16650876 0.24773061 -0.30215457 -0.2380599 0.26280954 0.37474647
-0.3215766 0.31064913 -0.08166577 0.24478869 -0.052630875 -0.35801482 0.049604725 0.1731673
-0.20355102 -0.33242127 -0.057574835 0.34814444 0.3208659 0.2689935 0.08589302 -0.030276494
-0.16430706 -0.22574742 0.26074535 -0.23878737 0.34360987 0.3217596 -0.014963839 0.17729302
0.03218013 0.10946061 0.16690122 0.1297715 -0.31661728 0.045879 0.1927662 0.06341294
0.13045408 -0.1094459 0.0013681881 0.3086464 0.031906296 -0.11369362 0.0670552 -0.015807612
-0.15429394 0.33284563 0.10571072 0.35164008 -0.061746325 -0.36814418 0.056781057 0.17601676
0.2988171 -0.17638576 0.25115198 -0.16620597 0.19413109 0.10438965 0.33716983 -0.008139048
0.36605188 0.096207395 0.2727761 -0.368155 0.3234067 -0.33165777 -0.25947773 -0.04689033
0.28871354 0.04162264 -0.15139876 0.0858155 -0.3321858 0.13274606 0.16427231 0.19402568
0.0087319305 -0.25810212 0.23189901 -0.0072870036 0.34583676 -0.17816657 0.07636012 -0.34144676
-0.029366268 0.14944915 -0.28801402 -0.12617147 0.24104695 0.32588518 -0.10558901 0.29108873
0.36164936 0.26941687 0.13515922 0.1977516 0.18418187 -0.1821504 0.045258477 0.05195728
0.13390246 0.13771273 -0.11096032 0.27413812 0.22236338 0.10627836 0.09681831 0.3776833
0.2090872 0.2797182 0.33265805 -0.002686929 0.13789637 -0.027191183 -0.18434452 -0.07208604
0.22251998 0.34220836 0.10157164 -0.1511774 -0.16035539 0.30240422 0.17299065 -0.018715573
0.111036405 0.29132548 -0.28408733 0.1625831 -0.05417152 0.25366634 -0.17689893 -0.15256312
-0.27359784 0.13898623 -0.21275334 -0.28340086 0.23345004 -0.2614692 0.3089677 0.14944524
-0.20664486 0.10618468 -0.24056956 0.15809403 -0.3094745 0.026526226 -0.071640246 0.314177
-0.09580043 -0.2883256 0.22732304 0.15763319 -0.029944304 -2.2258097e-05 0.18828389 -0.30778402

embedding.0.bias f4 [64]
00000000: 9f24 14be 127c ba3d 6177 eb3d 2d01 4bbe
00000010: fdd6 b0be 4121 56be 6eb6 95be 0906 543d
00000020: f536 d8bd 5ee2 bbbe 6417 0f3e 1490 afbe
00000030: 33af cfbd fa45 6d3e 22a3 413d 570b b5bd
00000040: 69b3 31bd 8809 d7bd c076 bc3e a3d4 28be
00000050: 58f0 2d3c 6984 10be 3ba3 a03e c252 9abe
00000060: a9c1 b03d e23e 29be 9569 5dbe b2ff 7c3e
00000070: d0cc 33be c6bf a8be 11ab 90be a492 b0be
00000080: 6513 f83d 5d65 1fbe 8eea 013e ad4e 9bbe
00000090: 8c35 683e 00c1 85be fba3 58be 1cd8 603e
000000a0: dcaf 473d 630e 8cbe abd7 6bbd f246 6fbe
000000b0: b847 19be 387d b1be 2a5c b23e 35e5 3ebe
000000c0: 5281 5bbe e44b 77be 317f 8dbe 5dd8 8b3e
000000d0: 22b7 773e 4a52 13bd 5f27 f43c 3d97 26be
000000e0: ae78 b13e 06a8 b2be 9d5a a43e 6ef3 2b3e
000000f0: 28e5 8ebe fd3a c43d bf47 7ebe cc29 b9bc
-0.14467095 0.09105696 0.11497379 -0.19824667 -0.34539023 -0.20911123 -0.29240745 0.051763568
-0.10557357 -0.36696142 0.13973767 -0.3428961 -0.101408385 0.23171225 0.047274716 -0.088400535
-0.04338399 -0.10499865 0.3680935 -0.16487364 0.010616384 -0.1411301 0.31374535 -0.30141264
0.08630688 -0.16527894 -0.21622308 0.24706915 -0.17558599 -0.32958812 -0.28255513 -0.34486878
0.12113074 -0.15566011 0.12687132 -0.30333462 0.22676677 -0.2612381 -0.21156304 0.21957439
0.048751697 -0.27354726 -0.057578724 -0.23366907 -0.14968765 -0.34665847 0.3483594 -0.18642123
-0.2143605 -0.24150044 -0.27636102 0.2731351 0.24190953 -0.03596715 0.02980393 -0.1626863
0.34662384 -0.34893817 0.32100382 0.1679208 -0.27909207 0.095815636 -0.24832056 -0.022602938

layernorm.weight f4 [259, 64]
00000000: fe03 803f 52ff 7f3f 0000 803f d801 803f
00000010: dfff 7f3f 5b00 803f 180e 803f ada6 7f3f
00000020: 9fd7 7f3f 65fd 7f3f 8901 803f 2c1b 803f
00000030: 8800 803f 8b44 803f 73fd 7f3f f1cb 7f3f
00000040: b400 803f f91a 803f d7fe 7f3f d194 7f3f
00000050: ace4 7f3f de03 803f 05f5 7f3f aae8 7f3f
00000060: fddd 7f3f ffff 7f3f f6e4 7f3f 36cf 7f3f
00000070: 54f8 7f3f 9f30 803f 3aa7 7f3f a6ff 7f3f
00000080: 0000 803f c001 803f 62ff 7f3f a501 803f
00000090: 0700 803f 58ff 7f3f d901 803f cff9 7f3f
000000a0: bb1b 803f 4335 803f fffe 7f3f 2701 803f
000000b0: 61e9 7f3f d2cd 7f3f d203 803f 44f9 7f3f
000000c0: a4ff 7f3f 86f3 7f3f 0c00 803f e8ff 7f3f
000000d0: 5fe1 7f3f f8ff 7f3f 5101 803f be01 803f
000000e0: 4af7 7f3f 4300 803f b10b 803f faff 7f3f
000000f0: 72fd 7f3f 8efe 7f3f 7eff 7f3f 0b00 803f
00000100: b7ff 7f3f 7100 803f 0f02 803f 2b05 803f
00000110: 0600 803f 4700 803f 9d03 803f 43fc 7f3f
00000120: a2f5 7f3f 7efe 7f3f ab00 803f 7c04 803f
00000130: 4200 803f 6cfa 7f3f d2fd 7f3f fdf6 7f3f
00000140: b9fa 7f3f 3bf5 7f3f 5706 803f b0f1 7f3f
00000150: 86f8 7f3f 7300 803f bbf9 7f3f 03ea 7f3f
00000160: d1f7 7f3f 5d00 803f f2f8 7f3f d4f9 7f3f
00000170: 36ff 7f3f 05fe 7f3f 04f5 7f3f 83ff 7f3f
00000180: 5a00 803f 4a01 803f 57fd 7f3f 0700 803f
00000190: 0000 803f 5a04 803f 1101 803f 87fb 7f3f
000001a0: c805 803f a2fb 7f3f 2200 803f 9801 803f
000001b0: 6ff6 7f3f 0400 803f 8c00 803f e101 803f
000001c0: ebfd 7f3f 3a00 803f 1d01 803f 0000 803f
000001d0: 31f8 7f3f 5301 803f 0601 803f 5102 803f
000001e0: faf7 7f3f 0e00 803f 2ffb 7f3f f5ff 7f3f
000001f0: 2504 803f 3700 803f d3ff 7f3f b7fe 7f3f
00000200: d302 803f a4ff 7f3f 2f00 803f 6002 803f
00000210: f0ff 7f3f 5500 803f a00f 803f 32a1 7f3f
00000220: 77ca 7f3f cdfd 7f3f 4f01 803f 9b1f 803f
00000230: 6500 803f 2647 803f 78fe 7f3f 48ca 7f3f
00000240: 6402 803f 6f20 803f af00 803f e48a 7f3f
00000250: cce5 7f3f 4403 803f 59ef 7f3f 81dd 7f3f
00000260: 40df 7f3f 0500 803f d7e5 7f3f e0d3 7f3f
00000270: 3efa 7f3f 5d34 803f a1a3 7f3f acff 7f3f
00000280: 0400 803f 3901 803f 25ff 7f3f 1d01 803f
00000290: 0400 803f 6c00 803f a501 803f 04fa 7f3f
000002a0: 5f1d 803f 513d 803f 87ff 7f3f 0601 803f
000002b0: d1dd 7f3f fdc6 7f3f 1a02 803f 8ffc 7f3f
000002c0: d7fe 7f3f 76e8 7f3f 2900 803f ecff 7f3f
000002d0: 63db 7f3f 1a00 803f 1201 803f dd01 803f
000002e0: 41f5 7f3f 3700 803f 290f 803f faff 7f3f
000002f0: 40fd 7f3f 54ff 7f3f a0ff 7f3f 0100 803f
00000300: b1ff 7f3f 6b00 803f b901 803f 8b04 803f
00000310: 0200 803f 4600 803f c302 803f 77fe 7f3f
00000320: 42e9 7f3f b2fe 7f3f 8c00 803f 7901 803f
00000330: 2f00 803f 27f7 7f3f e0ff 7f3f 99fd 7f3f
00000340: 79fb 7f3f f7f6 7f3f c605 803f 5df4 7f3f
00000350: 70fb 7f3f 4800 803f e5f9 7f3f 4ee5 7f3f
00000360: 3efa 7f3f 5100 803f 41fc 7f3f 28f6 7f3f
00000370: 77ff 7f3f ddfe 7f3f 14fd 7f3f 8fff 7f3f
00000380: 4500 803f c700 803f 86ff 7f3f 0700 803f
00000390: 0000 803f 1104 803f 2001 803f 73fa 7f3f
000003a0: 9102 803f 3200 803f 2d00 803f 4601 803f
000003b0: 53f6 7f3f fbff 7f3f 2f00 803f 9101 803f
000003c0: e9fe 7f3f 1100 803f f400 803f 0000 803f
000003d0: edfb 7f3f 4101 803f e000 803f 7801 803f
000003e0: 55fa 7f3f 0d00 803f 4700 803f f9ff 7f3f
000003f0: 3003 803f 3b00 803f e2ff 7f3f d6fe 7f3f
1.0001218 0.9999896 1.0 1.0000563 0.99999803 1.0000108 1.0004301 0.998637
0.99938387 0.99996024 1.0000468 1.0008292 1.0000162 1.0020918 0.9999611 0.99920565
1.0000215 1.0008231 0.9999823 0.9983645 0.999583 1.000118 0.99983245 0.9996439
0.999481 0.99999994 0.9995874 0.99925554 0.99988294 1.0014838 0.9986454 0.99999464
1.0 1.0000534 0.9999906 1.0000502 1.0000008 0.99999 1.0000564 0.9999055
1.0008463 1.0016254 0.9999847 1.0000352 0.9996548 0.9992343 1.0001166 0.99989724
0.9999945 0.9998096 1.0000014 0.99999857 0.99953264 0.9999995 1.0000402 1.0000532
0.9998671 1.000008 1.0003568 0.99999964 0.999961 0.99997795 0.99999225 1.0000013
0.99999565 1.0000135 1.0000628 1.0001577 1.0000007 1.0000085 1.0001103 0.99994296
0.9998418 0.999977 1.0000204 1.0001369 1.0000079 0.9999149 0.99996674 0.9998625
0.9999195 0.99983567 1.0001935 0.9997816 0.9998859 1.0000137 0.99990433 0.9996645
0.9998751 1.0000111 0.99989235 0.9999058 0.99998796 0.9999698 0.9998324 0.99999255
1.0000107 1.0000393 0.9999594 1.0000008 1.0 1.0001328 1.0000325 0.99993175
1.0001764 0.99993336 1.000004 1.0000486 0.999854 1.0000005 1.0000167 1.0000573
0.99996823 1.0000069 1.000034 1.0 0.99988085 1.0000404 1.0000312 1.0000707
0.9998776 1.0000017 0.9999265 0.99999934 1.0001265 1.0000066 0.9999973 0.9999804
1.0000862 0.9999945 1.0000056 1.0000725 0.99999905 1.0000101 1.0004768 0.9985534
0.9991831 0.99996644 1.0000399 1.0009645 1.000012 1.0021713 0.99997663 0.9991803
1.000073 1.0009898 1.0000209 0.99821305 0.9996002 1.0000997 0.9997459 0.99947363
0.9995003 1.0000006 0.9996008 0.9993267 0.99991214 1.001598 0.9985905 0.999995
1.0000005 1.0000373 0.99998695 1.000034 1.0000005 1.0000129 1.0000502 0.9999087
1.0008963 1.0018712 0.9999928 1.0000312 0.9994784 0.9991301 1.0000641 0.9999475
0.9999823 0.9996408 1.0000049 0.9999988 0.9994413 1.0000031 1.0000327 1.0000569
0.999836 1.0000066 1.0004627 0.99999964 0.99995804 0.99998975 0.9999943 1.0000001
0.9999953 1.0000128 1.0000526 1.0001386 1.0000002 1.0000083 1.0000843 0.9999766
0.999653 0.9999801 1.0000167 1.000045 1.0000056 0.999865 0.9999981 0.99996334
0.9999309 0.99986213 1.0001762 0.99982244 0.9999304 1.0000086 0.99990684 0.99959266
0.99991214 1.0000097 0.99994284 0.9998498 0.99999183 0.99998266 0.9999554 0.99999326
1.0000082 1.0000237 0.9999927 1.0000008 1.0 1.0001241 1.0000343 0.9999153
1.0000783 1.000006 1.0000054 1.0000389 0.99985236 0.9999997 1.0000056 1.0000478
0.9999834 1.000002 1.0000291 1.0 0.99993783 1.0000383 1.0000267 1.0000448
0.9999135 1.0000015 1.0000085 0.9999996 1.0000973 1.000007 0.9999982 0.99998224

layernorm.bias f4 [259, 64]
00000000: 9919 9538 bfa2 af38 4094 a238 c4f7 f738
00000010: b5ac 0137 37a5 c8b8 e707 c438 417a b4b8
00000020: 959b d5b8 7d5f 25b8 b503 0e39 126f 9c38
00000030: 4e65 f936 9949 0b39 64dc bbb8 cb21 e0b8
00000040: 832c 7db8 1836 ac38 e336 1739 3178 aeb8
00000050: 8360 00b9 70d3 a538 3a49 86b7 5d9b fdb8
00000060: f0e9 82b8 3f2c 9237 4308 7ab8 51f7 6cb8
00000070: c993 71b8 69ce f038 5613 02b9 997f 4838
00000080: e072 d736 6cb8 8b38 326c aeb8 9864 c137
00000090: ce19 16b8 1071 9238 a403 ea38 9075 bfb7
000000a0: bd33 1c39 9abc 0839 4a07 e5b8 0935 6338
000000b0: 27f6 93b7 e179 93b8 bacb f037 b39e 9537
000000c0: a313 1937 d124 2bb8 21a3 d438 b037 3c36
000000d0: 7566 49b8 bcd2 b737 9c4a f538 4de2 2939
000000e0: 3fe3 36b8 0874 ceb8 3f27 9638 1bac 8537
000000f0: a844 7e38 db95 e8b8 8f2f 49b8 7e3f 25b8
00000100: f4f4 4138 693b 8438 6756 6e38 5d58 8f38
00000110: 2388 2938 5304 5fb8 8c0a 9f37 0409 7fb8
00000120: 478d 1db8 a4c1 4cb7 8463 5538 e52f 2338
00000130: d4b0 6db7 bcb8 7838 3465 34b8 f2dc abb8
00000140: 3998 47b8 d49b 2d38 978f 9f38 2584 92b8
00000150: 3d39 b8b8 007b 3938 97cd 2ab8 c671 72b8
00000160: b092 50b8 e833 ae37 d654 50b8 e8d9 65b8
00000170: 3c4c 54b8 bf95 9838 d7af c1b8 12c0 5838
00000180: ed9f c637 01ee eb37 6311 61b8 cda1 c235
00000190: 6583 e2b7 64e9 7c38 e7b3 8338 1c44 eab7
000001a0: 2b1a 7738 98cd 8d38 ee7f 86b8 127b e937
000001b0: 4258 0cb8 69b2 43b8 43e5 b8b6 9953 0937
000001c0: 6dd3 5b37 6b1a 70b7 b0fa 6e38 05bd 30b8
000001d0: 389d 73b8 473f 2a38 1130 7b38 3a26 9738
000001e0: f933 7db8 88eb 70b8 741d b537 6281 ae37
000001f0: aaf9 7737 c064 5db8 5c1c c3b6 5635 8ab7
00000200: 1c91 9b38 2eb9 aa38 ab63 aa38 7f17 0039
00000210: b760 d136 269f c4b8 0b37 b938 3207 bdb8
00000220: 2bd8 d2b8 c6b2 52b8 23d5 0b39 314e 9b38
00000230: 2a2a 1337 6bd2 0c39 5c79 cdb8 1c02 e9b8
00000240: a459 86b8 86d9 bc38 e6b8 1839 4010 c1b8
00000250: a3d3 04b9 5af7 ae38 1369 a3b7 2e00 02b9
00000260: e279 94b8 dddd 9937 d93b 89b8 145e 72b8
00000270: 7f4a 77b8 1088 fa38 f864 04b9 8836 6938
00000280: 3175 5236 9eb5 a038 37a4 c2b8 9aa3 a337
00000290: db2a f9b7 b1b4 9b38 261b e338 d5fc f9b7
000002a0: 90b4 1d39 8b16 1139 4428 f6b8 6239 6d38
000002b0: 905e c3b7 e3b9 a2b8 81f8 a037 a70b cf37
000002c0: d704 4e37 db14 3bb8 2e2e d238 11a6 5735
000002d0: 9179 69b8 2852 d037 d23d ec38 da44 2d39
000002e0: f7a5 57b8 9275 d7b8 3481 9038 54a4 7a37
000002f0: 0ae2 7838 0edc e3b8 151a 46b8 c9ea 17b8
00000300: 65d0 9a38 1d39 8338 82e9 6c38 4408 d138
00000310: 8763 8937 7a5f 7fb8 5266 2d38 c480 9ab8
00000320: b19a 99b8 54cd 0cb8 fec5 a738 3aa9 3438
00000330: 6725 8db6 ad1e 8638 5dd0 98b8 55f7 c4b8
00000340: f7b4 43b8 de1a 5538 aa76 e338 8f82 99b8
00000350: 7fe6 b9b8 008e 5938 ab8a 48b8 4877 b6b8
00000360: b84f 53b8 9e12 c537 fae3 4bb8 7dc3 8fb8
00000370: b228 8fb8 6256 b738 5a05 e0b8 14eb 9138
00000380: 14a9 9837 3fa5 4438 336b a6b8 2554 2435
00000390: 9b69 c2b7 1f4f 9e38 2f68 9e38 e4bd 58b8
000003a0: 823d b138 fdd1 ba38 a42d 98b8 a798 6f38
000003b0: 1a83 31b8 c79a 77b8 bc3c 81b6 5efc c637
000003c0: 9be2 a334 4c85 e7b7 fe14 8538 8f31 20b8
000003d0: 565a 7fb8 594c 1b38 f455 a238 e038 e538
000003e0: f3d5 a3b8 de99 89b8 b2ce 2538 cfc7 8137
000003f0: ca14 0e38 b86f 93b8 81d1 eab6 612e ccb7
7.1096416e-05 8.374964e-05 7.752376e-05 0.00011824028 7.729211e-06 -9.567517e-05 9.34748e-05 -8.6058404e-05
-0.00010185611 -3.9427996e-05 0.00013543556 7.459348e-05 7.4325717e-06 0.0001328349 -8.957906e-05 -0.00010687447
-6.0361355e-05 8.211675e-05 0.00014420929 -8.319354e-05 -0.00012242985 7.9071964e-05 -1.6008144e-05 -0.00012092919
-6.242457e-05 1.742516e-05 -5.961234e-05 -5.6497116e-05 -5.7596513e-05 0.00011482539 -0.0001240497 4.780255e-05
6.4208725e-06 6.662388e-05 -8.3171195e-05 2.3054235e-05 -3.578682e-05 6.982882e-05 0.000111586676 -2.2823719e-05
0.00014896593 0.0001304023 -0.000109209286 5.417041e-05 -1.763839e-05 -7.032208e-05 2.8705097e-05 1.7836084e-05
9.124083e-06 -4.0803865e-05 0.00010139333 2.8046597e-06 -4.8017555e-05 2.191343e-05 0.000116964075 0.000162014
-4.360382e-05 -9.844458e-05 7.1598675e-05 1.5934978e-05 6.062226e-05 -0.00011090535 -4.7966427e-05 -3.9398197e-05
4.6242916e-05 6.3053165e-05 5.682409e-05 6.83523e-05 4.0419527e-05 -5.317137e-05 1.8959188e-05 -6.0805134e-05
-3.756329e-05 -1.2204433e-05 5.087584e-05 3.8906834e-05 -1.4167472e-05 5.9299855e-05 -4.3009597e-05 -8.19507e-05
-4.7587066e-05 4.139154e-05 7.6084565e-05 -6.986436e-05 -8.784465e-05 4.422199e-05 -4.072263e-05 -5.7803256e-05
-4.9727678e-05 2.0766587e-05 -4.9670074e-05 -5.4800796e-05 -5.0615738e-05 7.275817e-05 -9.23571e-05 5.1677293e-05
2.367791e-05 2.8125012e-05 -5.3660373e-05 1.4501217e-06 -2.7002485e-05 6.0298844e-05 6.280076e-05 -2.792669e-05
5.891376e-05 6.761699e-05 -6.413447e-05 2.7833074e-05 -3.3460798e-05 -4.665778e-05 -5.510317e-06 8.1853e-06
1.3102644e-05 -1.4311266e-05 5.6977093e-05 -4.2137708e-05 -5.8082136e-05 4.059009e-05 5.988783e-05 7.207361e-05
-6.0368304e-05 -5.7439815e-05 2.1590597e-05 2.0802665e-05 1.4780477e-05 -5.2784337e-05 -5.8147543e-06 -1.6475718e-05
7.418005e-05 8.140724e-05 8.124796e-05 0.00012215784 6.2399445e-06 -9.375652e-05 8.83174e-05 -9.0135625e-05
-0.00010053845 -5.0234397e-05 0.00013335473 7.40554e-05 8.7717e-06 0.00013429827 -9.797767e-05 -0.00011110699
-6.406315e-05 9.0050555e-05 0.0001456473 -9.205984e-05 -0.00012667342 8.3430394e-05 -1.9480043e-05 -0.00012397833
-7.0798924e-05 1.8342334e-05 -6.5438166e-05 -5.7784913e-05 -5.895877e-05 0.000119462726 -0.00012626115 5.5602315e-05
3.1360653e-06 7.6632234e-05 -9.281228e-05 1.9507297e-05 -2.970307e-05 7.424632e-05 0.0001082926 -2.9800847e-05
0.00015039952 0.00013836675 -0.00011737694 5.6558645e-05 -2.3289846e-05 -7.759386e-05 1.9189205e-05 2.4681749e-05
1.2279684e-05 -4.4603697e-05 0.00010022182 8.03354e-07 -5.5664746e-05 2.483379e-05 0.00011264872 0.00016524215
-5.141456e-05 -0.00010273898 6.890521e-05 1.4939422e-05 5.9338323e-05 -0.00010865192 -4.723117e-05 -3.6219866e-05
7.382109e-05 6.257205e-05 5.6484256e-05 9.967436e-05 1.6378019e-05 -6.0885657e-05 4.1341707e-05 -7.367277e-05
-7.324422e-05 -3.3569828e-05 8.0000595e-05 4.307295e-05 -4.2064817e-06 6.395332e-05 -7.2867355e-05 -9.3920775e-05
-4.666016e-05 5.080818e-05 0.000108463064 -7.319927e-05 -8.864421e-05 5.186908e-05 -4.781286e-05 -8.700654e-05
-5.0380564e-05 2.34929e-05 -4.861129e-05 -6.855184e-05 -6.8263515e-05 8.74221e-05 -0.00010682149 6.9579255e-05
1.8198545e-05 4.688394e-05 -7.935464e-05 6.121721e-07 -2.3175779e-05 7.5487646e-05 7.553433e-05 -5.1675263e-05
8.4514744e-05 8.9082845e-05 -7.256426e-05 5.712421e-05 -4.2322186e-05 -5.9033537e-05 -3.85157e-06 2.3720957e-05
3.0525993e-07 -2.7599417e-05 6.345844e-05 -3.8193128e-05 -6.088087e-05 3.7025984e-05 7.740772e-05 0.00010930165
-7.812297e-05 -6.561329e-05 3.9531566e-05 1.5471041e-05 3.38748e-05 -7.0303155e-05 -6.998133e-06 -2.4340292e-05

fc0.0.weight f4 [64, 64]
00000000: 8965 cbbd c5ec 9d3d 7578 d83d 8a47 95bd
00000010: 9444 a73d 4768 f73d 9fb0 cbbc ef28 dcbd
00000020: f7b2 b33c 2632 813d db4b ab3d e54e 823d
00000030: 4c23 a8bc 6519 6c3d 8bd8 8dbd dfa2 e43c
00000040: 1f5c 0cbd 01ce 99bd 47d3 54bd fd8f 80bd
00000050: 7158 f43c a450 03bd 78d2 573c 1dcd 2abd
00000060: 9e26 84bd b479 b23d fb0e e13c e408 5d3d
00000070: 5234 833d c5d9 c63c 0175 1fbd 18f0 df3d
00000080: e34b 63bd 7a75 4fbd b46f 2cbd 21e1 963d
00000090: 0b6e eebd 2146 513c bc02 f13d c14d f8bd
000000a0: a9ef dabd 74f3 ed3d 203f a7bd 15f7 a1bd
000000b0: 2c0f 1cbb db8a 2fbd cb41 a03d 2a30 6e3d
000000c0: 3f13 e5bd bebe 63bd d18c 4fbc fa00 d53d
000000d0: 66a0 b1bd ee5d c9bc 716e e3bd d7e1 e3bd
000000e0: 0c89 94bc c074 b7bd 3be5 bebc 5ecf b53d
000000f0: 9c67 53bd fe0e b53d 52ec 20bd 5e1e 97bc
00000100: 8a59 283d 2de2 fa3d 6775 8e3d 3863 c33d
00000110: 49fd a23c 6963 51bd bb7a 923d 4c1f b43b
00000120: b1ee 643d e193 cdbd d3cc 00bb 09aa 4c3d
00000130: 5ed7 463d 35ca 223d 7f47 8b3d 98f9 0f3c
00000140: 3c07 41bd 95d3 e2bd eebc ee3d 78ff e9bd
00000150: 091a 17bc 5486 f3bb 4924 2cbd 6659 6b3c
00000160: 37ba dcbc 1fa4 263d b353 f6bd 0949 91bd
00000170: e742 6b3d 603b 533d d1f5 0cbc 1bde e43d
00000180: 51f3 5bbd 604a b7bd 10a8 9e3d ed69 bebd
00000190: 7e16 c2bd 0f0b 8b3d 5785 b9bd e571 4cbd
000001a0: 93cd 10bd 2b26 fd3c 26ff 02bd 3aa2 833d
000001b0: d97a a53c 50b5 f7bc 3734 803c 6eac b83d
000001c0: a626 363c ece6 863d 1f09 51bd 5439 fabd
000001d0: ce40 80bd 6289 ebbd 4de7 dabd d173 8dbd
000001e0: e970 13bd 0d2c c33d 86cb 7fbd 06f6 bb3c
000001f0: 46ed b33c 924d ea3d 3e39 de3d 4da7 4c3d
00000200: e410 bfbd 1535 823d 1d01 73bd 8e02 ef3d
00000210: f6f9 b4bd a3f3 5ebd 3409 52bd bd07 fb3c
00000220: bcb2 adbd eceb 3ebd 6baa b13d bb78 ea3d
00000230: 5afa 80bd be8a 9f3c 5e28 d6bd 1b93 bbbd
00000240: 218e 21bd a862 713d 8652 f83d 09f4 023d
00000250: 9218 9abd b6d2 ae3d 1a0c 76bd e95c 1a3d
00000260: 108b babd b0dc 473d ee81 473d dfe2 c8bd
00000270: b8a0 f7bd 8dee c1bd 5d36 a83d 01c3 c23d
00000280: ab0f fbbb 4b4e 98bd 2ef4 dabb 9bea d13d
00000290: b76d aebd e958 c8bd cbb5 4ebc eae9 e6ba
000002a0: 7f9b 353d 79a4 823d b384 50bd a557 6fbd
000002b0: c196 f3bd dae8 ab3d 3c3f 6f3d 5524 e6bd
000002c0: 1b65 813c cd5d b23d a35f aabb 7e9f 993c
000002d0: 5611 a53d cb54 e0bd 67e2 f93d 8d15 e7bc
000002e0: 8f40 d9bd f7df 8ab9 70a1 ab3d 6cb4 46bd
000002f0: f19e 01bc 03e6 6c3d 843c 083d c9a6 f93d
00000300: b0f2 b4bd 517e a0bd b6e1 b43d 3880 d33b
00000310: 42f1 3bbd d83b babd c37b 663d 5010 96bd
00000320: 3e4a e93d e9dc 313c 6fe4 ac3d cd77 f0bd
00000330: 0d65 df3d 18b2 bdbd 7948 5e3d 0158 293d
00000340: 292d ad3d de1d 03bd c7b7 cb3a 9626 383d
00000350: 7811 9d3c fac4 e23c 1da0 503d 27b4 fd3d
00000360: db4b 373d 8854 943c 702d e53d bacf d2bd
00000370: 183d 8b3c a539 cfbd d07a f63d 3405 a63d
00000380: 5ecf 083d 8506 f7bc 974b a3bb e4c4 f73d
00000390: a5dd cf3d 2883 4b3d 93fa 9abd 7da0 25bd
000003a0: 0817 90bc 4c68 903d 6aed 0c3d 0058 b4bc
000003b0: a790 70bd cf85 9d3d 69a9 d43d ffd0 62bd
000003c0: 8568 bebd 186e 16bd f630 a0ba d5a0 d83d
000003d0: 04b6 bd3c 438c 533c d3c9 c9bc 6cc9 b0bd
000003e0: f46f f93d 07f8 b9bd a996 7ebd 2bb9 f73d
000003f0: 519c a6bc d768 a1bd 868a e6bd 341a e7bd
-0.09931476 0.07711176 0.1056985 -0.072890356 0.08167377 0.12080436 -0.024864493 -0.10749995
0.021935923 0.06308393 0.08364078 0.06362704 -0.020524643 0.057641406 -0.06926068 0.027909694
-0.03426754 -0.07509995 -0.051959302 -0.062774636 0.029827328 -0.032059327 0.013172738 -0.041699518
-0.06452678 0.08714619 0.027472964 0.053963557 0.06406464 0.024273762 -0.038929943 0.10934466
-0.055492293 -0.050649144 -0.042098716 0.07367159 -0.11642083 0.012773068 0.117681 -0.121242054
-0.10690243 0.116187006 -0.08166337 -0.07908455 -0.0023812754 -0.042857032 0.07825049 0.0581514
-0.111853115 -0.055601828 -0.012667851 0.10400577 -0.08673172 -0.024580922 -0.111050494 -0.1112706
-0.018131755 -0.08957815 -0.023302665 0.08877443 -0.05161248 0.0884075 -0.039287873 -0.018447097
0.041101016 0.12250171 0.069559865 0.09540409 0.019896166 -0.051120196 0.07152315 0.005496895
0.055891696 -0.10037971 -0.0019653335 0.049966846 0.048545234 0.03974362 0.06800746 0.008787535
-0.04712604 -0.11075512 0.11657129 -0.1142568 -0.009222516 -0.0074317846 -0.04202679 0.014364576
-0.026944263 0.04068386 -0.12027683 -0.070940085 0.05743685 0.051570296 -0.008603529 0.11175176
-0.05369884 -0.08949733 0.07746899 -0.092975475 -0.09476946 0.06789219 -0.09058636 -0.049913306
-0.0353523 0.030901989 -0.03198161 0.06427427 0.02020018 -0.030237824 0.015649898 0.09017263
0.011117613 0.065870136 -0.05103409 -0.12217966 -0.062623605 -0.11500813 -0.106886484 -0.06906856
-0.03599635 0.095298864 -0.062449954 0.022944462 0.021963727 0.114405766 0.10850762 0.049964238
-0.093293935 0.06357781 -0.059327234 0.11670409 -0.08836739 -0.05443157 -0.051278308 0.030643338
-0.084813565 -0.04661171 0.08675083 0.11448809 -0.06297751 0.019475337 -0.10456918 -0.091589175
-0.039442185 0.058931977 0.12125115 0.03197101 -0.07524218 0.08536284 -0.060070135 0.037686262
-0.09108555 0.04879445 0.048707895 -0.09808897 -0.120912015 -0.09469328 0.08213494 0.0950985
-0.00766178 -0.07436808 -0.0066819405 0.102498256 -0.0851702 -0.09782583 -0.012616585 -0.0017617319
0.044337746 0.06379027 -0.0509078 -0.058433194 -0.118939884 0.08394022 0.058409914 -0.112373985
0.015795281 0.08709297 -0.005199389 0.01875281 0.08059947 -0.10953673 0.12201386 -0.028208518
-0.10608017 -0.00026488278 0.08380401 -0.048511907 -0.00791143 0.057836544 0.033260837 0.12190015
-0.088353515 -0.07836593 0.088321134 0.006454494 -0.04588438 -0.090934455 0.056270372 -0.0732733
0.11391114 0.010855892 0.08442008 -0.117416 0.10907946 -0.09262484 0.054268334 0.041343693
0.08455879 -0.032010905 0.0015542441 0.044958673 0.019173369 0.027681816 0.050933946 0.12387877
0.044750076 0.018106714 0.11190307 -0.10293527 0.016996905 -0.10118417 0.120351434 0.08106461
0.033400886 -0.030154476 -0.0049833762 0.12098101 0.10149697 0.049685627 -0.075673245 -0.040436257
-0.017589107 0.07051143 0.034406103 -0.022014618 -0.0587317 0.076915376 0.10383875 -0.055375095
-0.09297279 -0.036726087 -0.0012221623 0.10577551 0.02315808 0.012911859 -0.02463237 -0.08632168
0.121795565 -0.090805106 -0.0621554 0.12095865 -0.02033821 -0.07881325 -0.1125689 -0.11284295

fc0.0.bias f4 [64]
00000000: b28b 453d 53fd c2bd 7fac 333d 58b5 9ebb
00000010: 8425 b3bd 5f7b 9f3d aecd ef3d c805 49bd
00000020: 9c74 31bd 42b2 83bd 01db 2f3d 8843 5dbd
00000030: 4107 49bd 8cec ce3c b65e bb3d 1f6d a1bd
00000040: 41e3 4c3d 2717 8e3d 84c6 e6bc 6f4c e23d
00000050: 690b 52bd f58e 15bc b0ad 8bbb 29d4 fb3d
00000060: 24fb 753c cac6 fabd 91a6 b83d a042 e53c
00000070: 5151 80bc 1e04 28bd 0e3c aa3d 5965 f43b
00000080: c5d8 e53c 9cfd c03d 5870 a3bd 7311 1b3d
00000090: 5de2 f7bc 7b27 cd3d 9cbd d63d f92e bebd
000000a0: ecf3 033d 0016 95bd b7f1 363d 7fe1 d7bd
000000b0: a6b7 9a3d 6d2a e6bd 3c8c ea3c c1fb a63c
000000c0: 7202 d9bd f7b3 85bc 7c8b 883d 62e0 fa3d
000000d0: 3eb9 afbd 5835 f63c cedc f43c fbfe f53d
000000e0: 140a 2f3d 1c3c 8d3d ab0b e63d 7b37 ac3d
000000f0: c187 813c 578e d63a 4bbf 91bb 2817 f9bd
0.048228927 -0.09520974 0.043865677 -0.004843395 -0.0874739 0.07787203 0.11709152 -0.04907778
-0.043324098 -0.06430484 0.042933468 -0.05401948 -0.049079183 0.025259279 0.09148924 -0.07882141
0.050021414 0.0693801 -0.028170832 0.11049735 -0.051280413 -0.009128322 -0.0042626485 0.12296326
0.01501349 -0.12244947 0.09016145 0.02798587 -0.015663775 -0.04101955 0.08312236 0.0074583706
0.028057465 0.09423372 -0.07980412 0.037858438 -0.030259306 0.10017296 0.10485384 -0.09286303
0.032215044 -0.07279587 0.04466411 -0.10541057 0.075545594 -0.11238561 0.028631322 0.020383717
-0.105961695 -0.016321165 0.066672295 0.12249829 -0.08580254 0.030054733 0.029890444 0.12011524
0.04273422 0.068962306 0.11232694 0.084090196 0.015811803 0.0016369325 -0.0044478527 -0.1216262

fc1.0.weight f4 [64, 64]
00000000: 6548 97bc 69df 9f3d d3c9 8cbd 35da 8c3c
00000010: 9bf9 bdbd bb14 833c 4bb2 ec3d a9c4 543d
00000020: 996b 6cbd 8833 8b3d d6bf fd3d 1791 01bd
00000030: ed57 bb3c bd43 04bd f881 ad3d e7ec 083d
00000040: 2c34 f63d 3094 5cbd 23d7 abbc 6baf af3c
00000050: 8bfa 103d b0a1 dfbd fcbc cf3d 1cbf 3abd
00000060: 9e74 763d 2b6b 58bc e219 933d 2c7a 6f3d
00000070: de93 8dbd 036b 60bd 235c cabc b99e c4bd
00000080: 9d44 fb3d f3a0 0dbd 5f7f 353d d19a ff3c
00000090: b587 483d 9ceb 0d3c a342 2f3d cd6d 5abd
000000a0: c158 813d 7524 f5bd 010d 923d b5b8 38bd
000000b0: 4d48 b0bd 7768 f6bb 0233 003e 47ce a6bd
000000c0: a325 fcbd e24c 923c bd9a 7ebd 5761 803d
000000d0: e19a ca3d 078a 40bd f70e c6bc 2e79 6d3d
000000e0: 16c3 9b3c 1390 4a3d e555 7a3d a070 1c3d
000000f0: 014e 883d 0185 a1bd 8f8c e73c 57e6 fd39
00000100: 10ba 5e3a 7000 d73d 5273 dc3d 0a9b 593d
00000110: 4b0b 41bd 19f3 433d 1211 8ebc 2fd1 e73d
00000120: 8eec 7f3c 0f27 6d3d 79fb 87bd b002 e4bd
00000130: 3242 493c a118 88bc 8a96 013d 856f f13d
00000140: f69b 323d 177a 19bd fd54 bf3d 29fe f9bc
00000150: 0ff2 bf3d 125d d83d 70c5 1a3d 7d31 52bc
00000160: f8ff 9b3c 647f aa3d 6dd2 523c 2fbe 92bd
00000170: 92fd eebc 7dd7 223c 089b bc3b 4fa3 a9bd
00000180: b5b0 023c 925b 8b3d db32 e33d 0a97 3bbd
00000190: 8bea 623d 44eb 613d f3d0 44bd 5f65 84bd
000001a0: f7c1 bfbd 622d 943c c5c0 f5bd 86a2 10bd
000001b0: 540e d43d b7a0 f7bd 7b3c 883d 8ffb 823d
000001c0: d920 79bd cbc3 8a3d 124e 5dbc 4ae9 edbd
000001d0: e3c1 bdbc 54d9 fb3d 91cf 7e3d 9207 3ebd
000001e0: 891a 2fbd c894 ed3d d706 b5bd 3801 67bd
000001f0: 9c55 71bc fae5 4bbd 91d9 e23d 55c6 243d
00000200: b8ac 42bd ef41 34bd 5782 f6bc ddd8 9bbd
00000210: bb62 503d 5b23 f83d eeed adbc 952d a0bd
00000220: 40f6 88bd 5206 633d 3836 ee3c c721 ad3c
00000230: 1cfe 873d 2db5 1abc 33af d4bd fa52 ddbd
00000240: c9fe f4bd 9acf 003e 3200 01bd 3437 803d
00000250: b24a b0bd be4f 05bd 0a76 44bc 820a c53d
00000260: b7b7 d5bd 176b 5ebd c07e c2ba 59d0 af3d
00000270: 0bfe 1fbd 72af 833d 6f12 9b3d a551 8a3d
00000280: 0f54 483d 31c4 cc3d 8e4a babd 3ccb e1bd
00000290: a192 a23d 711b db3d 1fdc f4bd 6659 dfbd
000002a0: 920f fdbc 4539 fe3d 3015 c53c a7e8 fcbd
000002b0: fbe2 763d 211d f2bd 1958 733b 470e ce3d
000002c0: f59b b2bd 4f68 febd 7699 f9bc 3e84 c7bd
000002d0: 587a a9bd f0df ac3d 9af4 cebd 55ba 7e3c
000002e0: ab23 0b3d d8ff a23c c05f 02bd 53c7 173d
000002f0: 9b24 01bd 5aea 28bd d86a 4cbd e821 7dbd
00000300: 4f3e 1fbd e0b7 f03d cfe1 a03d 1e63 6e3d
00000310: bdb1 87bc f5dd aa3d 161c e13b 7aa7 b93d
00000320: af59 48bd 9f11 8fba d6e3 cb3d 4467 59bd
00000330: 3951 25bd c48c cf3d 76da abbd b0d2 7ebd
00000340: b9b2 ccbc 9175 5cbd cf13 20bd ced7 a9bc
00000350: 2ab4 97ba 1d7c 8ebd 4d68 87bc 332d bebd
00000360: 0b86 72bd 84b9 9e3d 43ea bebd 4de7 983d
00000370: 7c73 b3bd f809 bb3d 0d0b ba3c 6159 f63d
00000380: ac06 e33d fbb0 8abd 4f9a bb3d 52e4 d03d
00000390: 83e2 d43d ea86 a9bd 7d4e 203c e18f 07bd
000003a0: 59bb cb3d 8bbd e23d ffdb cbbd 1c51 9e3d
000003b0: 8fea aabd 9568 ebbd 1f0b c2bd 990f dcbd
000003c0: 7f58 f13c 97fa 833d dc9c c6bd 24f1 a13b
000003d0: c433 ec3b 631e 993c bb4b c7bd 16ca 903d
000003e0: 58ed f4bd 44f7 203c 03cd 8d3b 6a39 303d
000003f0: b23d a5bd 7780 e23d db0a 633d 5042 f03d
-0.018467138 0.07806284 -0.068744324 0.017193893 -0.09276124 0.016001096 0.11557444 0.051945362
-0.0577198 0.06796938 0.123901054 -0.03163251 0.022869075 -0.032291163 0.08472055 0.033429053
0.1202167 -0.05385226 -0.020976609 0.02144595 0.035395186 -0.10919511 0.10143468 -0.045592412
0.06016981 -0.013209145 0.07182671 0.05846612 -0.06912969 -0.054789554 -0.024702137 -0.096005864
0.12268946 -0.03457732 0.044310924 0.031201752 0.048957545 0.008662131 0.04278816 -0.05332737
0.063157566 -0.11969844 0.071313865 -0.045098025 -0.0860754 -0.0075197774 0.12519458 -0.08144813
-0.12311866 0.017858926 -0.06215929 0.06268566 0.09892822 -0.047006633 -0.024177058 0.057976894
0.019013923 0.049453806 0.06111707 0.038193345 0.06655503 -0.078866966 0.028265266 0.00048427537
0.00084963534 0.1049813 0.10764183 0.053126372 -0.04712991 0.047839258 -0.017342124 0.113191955
0.015620364 0.057898577 -0.066397615 -0.11133325 0.012283849 -0.016613306 0.031637706 0.11788849
0.043605767 -0.03746995 0.09342382 -0.0305167 0.09372341 0.10564627 0.037785947 -0.012829182
0.019042954 0.08325079 0.012867552 -0.07165181 -0.029173646 0.009939072 0.005755786 -0.08283102
0.007976701 0.06804575 0.11093684 -0.04579834 0.05539946 0.055156007 -0.048050832 -0.064646475
-0.09363168 0.018088046 -0.119996585 -0.035311244 0.103542954 -0.12091201 0.06652161 0.06395637
-0.06082234 0.06775626 -0.013507383 -0.11616762 -0.023163741 0.122973114 0.06220967 -0.04639394
-0.042749915 0.116006434 -0.08839195 -0.056397647 -0.0147298835 -0.04977987 0.11076654 0.040228207
-0.047528 -0.04400819 -0.030091448 -0.07609723 0.050875407 0.121161185 -0.021231618 -0.07821194
-0.066875935 0.05542595 0.029078588 0.02113427 0.066402644 -0.00944261 -0.10384979 -0.10806842
-0.11962659 0.12579194 -0.031494327 0.06260529 -0.08607997 -0.03254675 -0.011991033 0.09621145
-0.104354315 -0.054301348 -0.00148388 0.08584661 -0.039060634 0.06429948 0.07571875 0.06753854
0.04890829 0.09998358 -0.090962514 -0.11025092 0.079381235 0.106985934 -0.11956047 -0.10905723
-0.030891214 0.12413267 0.024057955 -0.123490624 0.06027506 -0.11821962 0.0037131368 0.10061317
-0.08721153 -0.12422239 -0.030468684 -0.0974202 -0.08275288 0.0844115 -0.10105248 0.015547355
0.033969563 0.019897386 -0.031829596 0.037055325 -0.03152905 -0.04123912 -0.04990658 -0.061799914
-0.03887778 0.117538214 0.078555696 0.058199994 -0.016564244 0.08343116 0.006869803 0.09065147
-0.048913654 -0.0010915286 0.09955566 -0.053076997 -0.040360663 0.10134271 -0.083912775 -0.062212646
-0.024987565 -0.053823058 -0.03908139 -0.020732787 -0.0011574079 -0.069572665 -0.016529227 -0.09285965
-0.059209865 0.07750228 -0.093220256 0.07465992 -0.08762261 0.09132761 0.022710348 0.120287664
0.11085257 -0.067720376 0.091602914 0.10199799 0.10394766 -0.08277686 0.009784338 -0.033096198
0.09947843 0.11071309 -0.0995407 0.07730314 -0.0834552 -0.11494557 -0.094747774 -0.107451625
0.029461144 0.064442806 -0.09697887 0.0049420763 0.0072083194 0.018691247 -0.09731241 0.07069795
-0.11959332 0.009824578 0.004327418 0.043023504 -0.08068408 0.11059659 0.055430274 0.11731398

fc1.0.bias f4 [64]
00000000: 218a 983c 41f5 cbbd de8a eebd fc38 993d
00000010: 1eef 3f3d c7bf 0b3d e877 273d fc4e c23d
00000020: 6dfe 22bc 1910 3dbc 4ce3 4a3c 34c7 ac3d
00000030: fdd9 5ebd fe38 493b 0832 b53d ac26 f1bd
00000040: 074f 05bd 78ca c73c b1f4 883d ed5f c43d
00000050: 74be 7bbb 14af 1c3d 96a5 05bb b3e4 eabc
00000060: 7389 303d 9732 933c 845d ea3c e012 c0bc
00000070: b979 433d c3fd cfbd d55a 0e3b 9fdf 983d
00000080: dd5f 313b b4a2 f8bd 42ad b8bd 648d 7dbd
00000090: c200 a43d 3a2e 64bd 8018 ea3d 74f6 bebd
000000a0: 8a06 e5bc aa04 67bd b9c9 6039 ed5d d83d
000000b0: 121c ff3c f21c 423d a518 823d 7604 a13d
000000c0: 7e85 52bd b398 97bd 3eef 39bc b22d cfbd
000000d0: 2354 ca3d 3572 53bc 5497 f53b cdbc f23c
000000e0: 3634 c83d 7c12 873d 7a5d 86bc 9011 88bb
000000f0: 2a5e 22bd 0308 c03c 6f47 3b3d b3e0 eebd
0.018620552 -0.09958888 -0.116475806 0.07481572 0.0468589 0.03411844 0.040885836 0.09487721
-0.009948355 -0.0115394825 0.012383293 0.084364325 -0.05440711 0.0030704136 0.08847433 -0.11774954
-0.03254607 0.024388537 0.06687296 0.09588609 -0.003841308 0.038252905 -0.0020392886 -0.028673505
0.04309983 0.017968459 0.028609045 -0.0234465 0.047723506 -0.10155823 0.002172162 0.07464527
0.0027065196 -0.12140408 -0.09017421 -0.06190242 0.08007957 -0.055708148 0.11430454 -0.09324351
-0.02795722 -0.056400932 0.00021437452 0.1056479 0.031141315 0.047390886 0.06352357 0.07862179
-0.05139684 -0.07402172 -0.011348544 -0.101161376 0.09879329 -0.012905647 0.0074948464 0.029631043
0.097755834 0.065953225 -0.016401995 -0.0041524842 -0.039640583 0.02344132 0.04572242 -0.11663952

output_layer.0.weight f4 [1, 64]
00000000: 2f8c eabd 5f85 25bd c544 8cbd 19f2 97bd
00000010: fd0a d1b8 eec1 b93d 3e6b 89bd e61e 9f3d
00000020: 0b6a de3d 45c0 b73d 26be b7bd 15e1 91bd
00000030: 9b01 ae3b 868d a8bd eae0 193e 187e e03d
00000040: 3173 9c3d 4aca c3bd 075f b2bd 860b ad3d
00000050: 1492 f43d 24bc edbd dee0 6f3d 177e f23d
00000060: c197 fe3c 5de2 abbc e902 bd3d 970f 813d
00000070: 6bbc 2b3d 7d3a 90bd dcaa a43d dd37 53bd
00000080: 79ba bf3c 397d a2bd 007d 0c3e f599 bbbb
00000090: d74d 70bb 0d54 87bd 807b b2bd ac48 1f3c
000000a0: a82a ccbd 1ec7 debd f56f 9f3d 72c8 81bd
000000b0: 2eeb 943d 3f04 6c3d 8ba9 ed3c 61d4 90bd
000000c0: b09f 783b d72c 093d 430b 35bd 3c16 7ebc
000000d0: bccc 453d 1531 2a3c 492f 88bd 8b3d f6bd
000000e0: d4b5 933d c064 e03d ec3e 9dbd 91aa 0e3b
000000f0: 5f94 8fbd 3638 be3d a81c 1c3d 66a9 023d
-0.11452519 -0.040410396 -0.06849054 -0.07419223 -9.967943e-05 0.09070192 -0.06709908 0.07769565
0.1086007 0.089722194 -0.08971815 -0.07123009 0.00531025 -0.082301185 0.15027204 0.109615505
0.076391585 -0.09560068 -0.08709531 0.084494635 0.11941925 -0.116081506 0.05856406 0.11840456
0.031078221 -0.020981962 0.09229071 0.06301802 0.041927736 -0.07042406 0.08040401 -0.051566947
0.023404347 -0.079340406 0.13719559 -0.00572514 -0.003666749 -0.06607828 -0.08714962 0.009721916
-0.099690735 -0.10877822 0.07785026 -0.0633706 0.072714195 0.057621237 0.029011508 -0.07071758
0.0037936978 0.03349003 -0.044200193 -0.015508231 0.048290953 0.010387679 -0.06649644 -0.12023457
0.07212415 0.109567165 -0.07678017 0.0021769146 -0.070107214 0.09288065 0.038113266 0.031899832
