blocksize-2/model_epoch_1_160.pth (torch, 171967 bytes, 9 tensors)

embedding.0.weight f4 [64, 7]
0.19742693 -0.26174396 -0.022000598 0.040839594 0.23624356 -0.36798978 -0.32647792 0.02695816
0.11172534 -0.15117471 -0.04937833 -0.013956548 -0.3529337 -0.24697074 -0.3469851 0.12451235
0.15108837 0.039777823 0.25994933 -0.1398897 -0.3197023 -0.31655264 0.2335868 0.062508255
0.1198606 0.14946537 0.37229067 -0.042173997 0.0046182848 0.25246683 -0.17035232 -0.15112609
0.30711457 0.27970904 -0.2928967 -0.2798272 -0.35550112 0.12312684 0.02359593 0.2553385
-0.256025 -0.13631599 -0.07463263 -0.27057594 -0.36367354 0.17475684 0.10123688 -0.2852256
0.20235635 -0.21662667 0.01767385 0.18104765 -0.0006639915 -0.15803042 0.25551775 0.31355357
-0.37669203 0.21050408 0.15485978 0.2800792 -0.10528946 0.09207741 0.03771521 -0.035303142
0.16670601 -0.05655451 -0.15251198 0.02658716 -0.23008086 -0.23555715 -0.04303463 -0.018353816
0.18157376 0.065086186 0.21133725 0.28539205 -0.3052355 -0.37064925 0.17154208 0.3348431
-0.2542144 -0.23493524 0.0716163 0.3543512 -0.24620776 -0.36811996 -0.25355592 -0.013522376
0.23752332 0.3300354 0.05838397 -0.26857525 -0.08088937 0.1141111 -0.03798084 -0.011574928
0.06428508 0.3839447 -0.16650876 0.2507881 -0.30186334 -0.23464216 0.26280954 0.37474647
-0.32033914 0.31064606 -0.081998214 0.24482559 -0.052293226 -0.3580179 0.049591035 0.17160356
-0.2035634 -0.33399287 -0.05784096 0.34540856 0.32086548 0.26899308 0.08474902 -0.030266901
-0.16653062 -0.2259935 0.25927725 -0.238772 0.34361067 0.32140693 -0.014963839 0.17765568
0.03222189 0.11014606 0.16690122 0.1297715 -0.31975988 0.045868993 0.19397919 0.0634967
0.13129057 -0.1094601 0.0013582386 0.30862105 0.03189212 -0.11412318 0.067173846 -0.014720616
-0.15431719 0.33284232 0.10408514 0.35164008 -0.06162584 -0.36794373 0.058731228 0.17601676
0.2988171 -0.17638506 0.25115198 -0.16652839 0.19403552 0.10345688 0.33716983 -0.008148562
0.36519557 0.096187614 0.27117828 -0.36826953 0.32221612 -0.3316873 -0.25950727 -0.04668335
0.2887135 0.041953005 -0.15132038 0.08659965 -0.33218583 0.13274354 0.16400096 0.19402568
0.007888277 -0.25808033 0.23201023 -0.0072870036 0.34583676 -0.17815565 0.0763486 -0.34188733
-0.029440723 0.14868313 -0.28801423 -0.12617576 0.24074852 0.32588518 -0.104257524 0.29108867
0.3615403 0.26941687 0.13515912 0.197759 0.18418187 -0.18215542 0.04529618 0.05225885
0.13390246 0.13771273 -0.110603325 0.27413988 0.22018011 0.10619888 0.0962613 0.37768507
0.20910841 0.27900308 0.3326463 0.0071197236 0.13884924 -0.018020447 -0.1843672 -0.07209929
0.22262551 0.34220836 0.099990666 -0.15117209 -0.16074942 0.30240422 0.17299065 -0.019190231
0.111036405 0.29161832 -0.28403118 0.16302231 -0.05417152 0.25366634 -0.17596513 -0.15256312
-0.27359784 0.13898623 -0.21275334 -0.28340086 0.23345004 -0.2614692 0.3089677 0.14986637
-0.20649622 0.10744034 -0.24056956 0.15809403 -0.30629903 0.02652847 -0.07158962 0.3141772
-0.09576641 -0.2883256 0.22732304 0.1577787 -0.029944304 -2.2258097e-05 0.18828389 -0.30778402
00000000: 492a 4a3e 4e03 86be 993a b4bc 6b47 273d
00000010: d5e9 713e 2869 bcbe 1d28 a7be 5cd7 dc3c
00000020: 41d0 e43d 8bcd 1abe ef40 4abd 01aa 64bc
00000030: bab3 b4be e6e5 7cbe 08a8 b1be 5500 ff3d
00000040: e9b6 1a3e 12ee 223d 1418 853e 3f3f 0fbe
00000050: 05b0 a3be 3013 a2be 6131 6f3e 5404 803d
00000060: 7979 f53d 730d 193e e29c be3e a4be 2cbd
00000070: fb54 973b 5543 813e d770 2ebe ccc0 1abe
00000080: 1f3e 9d3e 0636 8f3e 8ef6 95be 8345 8fbe
00000090: 3e04 b6be ed29 fc3d 404c c13c babb 823e
000000a0: b515 83be 6b96 0bbe fed8 98bd ee88 8abe
000000b0: 6b33 babe 75f3 323e 4855 cf3d 1709 92be
000000c0: 8136 4f3e 62d3 5dbe c0c8 903c 8e64 393e
000000d0: b70f 2eba bad2 21be 39d3 823e 188a a03e
000000e0: c7dd c0be 628e 573e 9093 1e3e 8a66 8f3e
000000f0: 00a2 d7bd 1593 bc3d 447b 1a3d 079a 10bd
00000100: fbb4 2a3e b4a5 67bd 1a2c 1cbe 51cd d93c
00000110: 519a 6bbe e535 71be 1545 30bd be5a 96bc
00000120: 79ee 393e e84b 853d cb68 583e e81e 923e
00000130: d447 9cbe bdc5 bdbe baa8 2f3e 8e70 ab3e
00000140: 6428 82be dd92 70be 91ab 923d 856d b53e
00000150: e31d 7cbe 387a bcbe 15d2 81be f58c 5dbc
00000160: 5039 733e 66fa a83e 0824 6f3d b282 89be
00000170: 53a9 a5bd 15b3 e93d cc91 1bbd c4a4 3dbc
00000180: e5a7 833d 6694 c43e 4681 2abe 4c67 803e
00000190: d58d 9abe 0946 70be f98e 863e c5de bf3e
000001a0: 7e03 a4be 000d 9f3e aeee a7bd 8fb3 7a3e
000001b0: 6c31 56bd 1f4e b7be f81f 4b3d d8b8 2f3e
000001c0: ed72 50be 1d01 abbe a4ea 6cbd 64d9 b03e
000001d0: 7b48 a43e 76b9 893e e590 ad3d 4bf2 f7bc
000001e0: 0187 2abe d76a 67be fdbf 843e a680 74be
000001f0: bded af3e 738f a43e e42a 75bc 5feb 353e
00000200: 1afb 033d 4294 e13d 27e8 2a3e d2e2 043e
00000210: 91b7 a3be 20e1 3b3d 7ba2 463e 8f0a 823d
00000220: 0971 063e 9e2c e0bd ed06 b23a 9403 9e3e
00000230: 50a1 023d 6ab9 e9bd 7192 893d bd2e 71bc
00000240: 5305 1ebe 4f6a aa3e 972a d53d 2b0a b43e
00000250: 606b 7cbd 1f63 bcbe 2890 703d bd3d 343e
00000260: 8efe 983e 499e 34be fe96 803e 6b86 2abe
00000270: 3fb1 463e 33e1 d33d 86a1 ac3e 8c81 05bc
00000280: eafa ba3e 03fe c43d e1d7 8a3e d38d bcbe
00000290: 83f9 a43e ebd2 a9be 23de 84be 0a37 3fbd
000002a0: 42d2 933e ead6 2b3d bbf3 1abe 285b b13d
000002b0: 4314 aabe eced 073e deef 273e abae 463e
000002c0: d53d 013c 1b23 84be 1794 6d3e d1c7 eebb
000002d0: 8411 b13e 6f6e 36be a85c 9c3d db0b afbe
000002e0: ac2d f1bc 6440 183e 9a76 93be 3834 01be
000002f0: c886 763e 6cda a63e f884 d5bd 9309 953e
00000300: cf1b b93e 02f1 893e 2767 0a3e 5681 4a3e
00000310: 2c9a 3c3e f386 3abe 7d88 393d 600d 563d
00000320: ba1d 093e 9104 0d3e ff83 e2bd 105c 8c3e
00000330: e576 613e cc7e d93d a524 c53d f05f c13e
00000340: 8420 563e 7ed9 8e3e 9e50 aa3e 924c e93b
00000350: 7f2e 0e3e 9e9f 93bc c1ca 3cbe cba8 93bd
00000360: f1f7 633e ef35 af3e e8c7 cc3d dbcc 1abe
00000370: 7f9b 24be bad4 9a3e 7624 313e d534 9dbc
00000380: 0e67 e33d ff4e 953e 896c 91be 52ef 263e
00000390: f5e2 5dbd 8ee0 813e 3430 34be 8239 1cbe
000003a0: 0415 8cbe 6852 0e3e 03dc 59be eb19 91be
000003b0: 870d 6f3e 4adf 85be 0431 9e3e 9276 193e
000003c0: bf73 53be ae09 dc3d de57 76be 67e3 213e
000003d0: 3ad3 9cbe 3c52 d93c 949d 92bd d5db a03e
000003e0: 2e21 c4bd 6a9f 93be 5fc7 683e bd90 213e
000003f0: c24d f5bc e6b6 bab7 7ecd 403e de95 9dbe

embedding.0.bias f4 [64]
-0.14463177 0.09143705 0.11535591 -0.19801846 -0.3454757 -0.20911932 -0.2923533 0.05132768
-0.10586117 -0.36702654 0.14068078 -0.3428409 -0.101408385 0.23220171 0.046609633 -0.08839219
-0.043454543 -0.1050091 0.36904114 -0.16496022 0.009931861 -0.14108692 0.31323785 -0.3016735
0.08579061 -0.16527887 -0.21623743 0.24674188 -0.17557742 -0.329439 -0.28238535 -0.34480995
0.12069099 -0.15566011 0.12615493 -0.30333462 0.22681107 -0.26113158 -0.21148185 0.21955611
0.049260743 -0.27331808 -0.057633728 -0.2336229 -0.1497198 -0.3466651 0.3482814 -0.1863193
-0.2143605 -0.24167226 -0.27623126 0.2733477 0.24175964 -0.03598292 0.03040899 -0.16249862
0.3462088 -0.34910932 0.32149658 0.16783367 -0.2790791 0.09558972 -0.24832056 -0.022686033
00000000: 5a1a 14be 5943 bb3d b83f ec3d 5ac5 4abe
00000010: 31e2 b0be 6023 56be 55af 95be f93c 523d
00000020: becd d8bd e7ea bbbe 9f0e 103e d888 afbe
00000030: 33af cfbd 49c6 6d3e bee9 3e3d f706 b5bd
00000040: 64fd 31bd 030f d7bd f6f2 bc3e 55eb 28be
00000050: 3fb9 223c 1779 10be b660 a03e f374 9abe
00000060: fdb2 af3d dd3e 29be 586d 5dbe e7a9 7c3e
00000070: 91ca 33be 3bac a8be d094 90be ee8a b0be
00000080: d62c f73d 5d65 1fbe c22e 013e ad4e 9bbe
00000090: 2941 683e 0ab3 85be b38e 58be 51d3 603e
000000a0: a2c5 493d 59f0 8bbe 5811 6cbd d73a 6fbe
000000b0: 2650 19be 177e b1be f151 b23e 7dca 3ebe
000000c0: 5281 5bbe ef78 77be 2f6e 8dbe 3bf4 8b3e
000000d0: d78f 773e d462 13bd 461c f93c 0a66 26be
000000e0: 4842 b13e 75be b2be 339b a43e 97dc 2b3e
000000f0: 75e3 8ebe 8bc4 c33d bf47 7ebe 0fd8 b9bc

layernorm.weight f4 [259, 64]
1.0001221 0.9999896 1.0 1.0000565 0.99999803 1.0000108 1.0008314 0.9981005
0.99899083 0.99996024 1.0000468 1.0013046 1.0000162 1.002935 0.99992615 0.9988703
0.99987215 1.001419 0.99998224 0.99780375 0.99936754 1.0001638 0.99950635 0.9993969
0.9992763 0.99999994 0.9993234 0.99904865 0.99988186 1.0020728 0.9981627 0.99999464
1.0 1.0000534 0.99999064 1.0000502 1.0000008 0.99999 1.0000564 0.9996746
1.0013344 1.0023836 0.9999847 1.0000352 0.99939644 0.9987394 1.0001166 1.0000691
0.9999715 0.99952775 1.0000014 0.99999857 0.9990928 0.9999995 1.0000402 1.0002456
0.9996729 1.000008 1.0007064 0.99999964 1.0002086 0.99997765 0.99999225 1.0000013
0.99999565 1.0000135 1.0000628 1.0002004 1.0000007 1.0000085 1.0001618 0.9998005
0.99941957 0.999977 1.0000204 1.0001384 1.0000079 1.0001984 0.99996495 0.9998579
0.99991447 1.0000963 1.0001966 0.99942935 0.9998849 1.0000137 0.9998115 0.9993298
0.9998704 1.0000111 0.99986583 0.9997409 0.99998796 1.0003605 0.99981606 0.99999255
1.0000107 1.0000393 0.99985933 1.0000008 1.0 1.0001332 1.0000325 0.99987
1.0001956 1.0005696 1.000004 1.0000486 0.9996847 0.9998614 1.0000168 1.0000576
0.9999681 0.99982226 1.000034 1.0 0.9997997 1.0000404 1.0000312 1.0000707
0.99987084 1.0000017 1.0001162 0.99999934 1.0001276 1.0000066 0.9999973 0.9999804
1.0000863 0.9999945 1.0000056 1.0000731 0.99999905 1.0000101 1.0006957 0.99835026
0.9990169 0.99996644 1.0000399 1.0011313 1.000012 1.0025196 0.9999487 0.99904495
0.9999337 1.00124 1.0000209 0.9980175 0.9994955 1.000124 0.99956506 0.9993632
0.99939823 1.0000006 0.99944574 0.999196 0.9999114 1.0018106 0.9984095 0.999995
1.0000005 1.0000373 0.9999813 1.000034 1.0000005 1.0000129 1.0000502 0.9997386
1.0011137 1.0021658 0.9999928 1.0000312 0.9993666 0.99890375 1.000064 1.0000619
0.9999747 0.9995214 1.0000049 0.9999988 0.999227 1.0000031 1.0000327 1.0001754
0.9997233 1.0000066 1.0006437 0.99999964 1.0001235 0.99998957 0.9999943 1.0000001
0.9999953 1.0000128 1.0000526 1.0001663 1.0000002 1.0000083 1.0001136 0.99986917
0.9994206 0.9999801 1.0000167 1.0000732 1.0000056 1.0001051 0.99998295 0.9999324
0.99992853 1.0000526 1.0001795 0.99954987 0.9999297 1.0000086 0.9998559 0.99938124
0.99990964 1.0000097 0.9999146 0.9997581 0.99999183 1.0002456 0.9999068 0.99999326
1.0000082 1.0000237 0.9998942 1.0000008 1.0 1.0001243 1.0000343 0.9998928
1.0001022 1.0004543 1.0000054 1.0000389 0.99971396 0.9999021 1.0000056 1.0000478
0.9999834 0.99990886 1.0000291 1.0 0.99987596 1.0000383 1.0000267 1.0000448
0.99991024 1.0000015 1.0001053 0.9999996 1.0000973 1.000007 0.9999982 0.99998224
00000000: 0004 803f 52ff 7f3f 0000 803f da01 803f
00000010: dfff 7f3f 5b00 803f 3e1b 803f 8483 7f3f
00000020: ddbd 7f3f 65fd 7f3f 8901 803f c02a 803f
00000030: 8800 803f 2d60 803f 29fb 7f3f f7b5 7f3f
00000040: 9ff7 7f3f 7f2e 803f d6fe 7f3f 1170 7f3f
00000050: 8dd6 7f3f 5e05 803f a6df 7f3f 7ad8 7f3f
00000060: 92d0 7f3f ffff 7f3f a9d3 7f3f a7c1 7f3f
00000070: 42f8 7f3f ec43 803f 9787 7f3f a6ff 7f3f
00000080: 0000 803f c001 803f 63ff 7f3f a501 803f
00000090: 0700 803f 58ff 7f3f d901 803f adea 7f3f
000000a0: ba2b 803f 1b4e 803f fffe 7f3f 2701 803f
000000b0: 72d8 7f3f 63ad 7f3f d203 803f 4402 803f
000000c0: 22fe 7f3f 0de1 7f3f 0c00 803f e8ff 7f3f
000000d0: 8cc4 7f3f f8ff 7f3f 5101 803f 0c08 803f
000000e0: 90ea 7f3f 4300 803f 2617 803f faff 7f3f
000000f0: d606 803f 89fe 7f3f 7eff 7f3f 0b00 803f
00000100: b7ff 7f3f 7100 803f 0f02 803f 9106 803f
00000110: 0600 803f 4700 803f 4d05 803f edf2 7f3f
00000120: f6d9 7f3f 7efe 7f3f ab00 803f 8904 803f
00000130: 4200 803f 8006 803f b4fd 7f3f b0f6 7f3f
00000140: 65fa 7f3f 2803 803f 7106 803f 9ada 7f3f
00000150: 75f8 7f3f 7300 803f a5f3 7f3f 14d4 7f3f
00000160: 82f7 7f3f 5d00 803f 35f7 7f3f 05ef 7f3f
00000170: 36ff 7f3f d00b 803f f2f3 7f3f 83ff 7f3f
00000180: 5a00 803f 4a01 803f c8f6 7f3f 0700 803f
00000190: 0000 803f 5d04 803f 1101 803f 7bf7 7f3f
000001a0: 6906 803f aa12 803f 2200 803f 9801 803f
000001b0: 56eb 7f3f ebf6 7f3f 8d00 803f e301 803f
000001c0: e9fd 7f3f 5af4 7f3f 1d01 803f 0000 803f
000001d0: e0f2 7f3f 5301 803f 0601 803f 5102 803f
000001e0: 89f7 7f3f 0e00 803f cf03 803f f5ff 7f3f
000001f0: 2e04 803f 3700 803f d3ff 7f3f b7fe 7f3f
00000200: d402 803f a4ff 7f3f 2f00 803f 6502 803f
00000210: f0ff 7f3f 5500 803f cc16 803f e293 7f3f
00000220: 92bf 7f3f cdfd 7f3f 4f01 803f 1225 803f
00000230: 6500 803f 9052 803f a3fc 7f3f 69c1 7f3f
00000240: a8fb 7f3f a228 803f af00 803f 137e 7f3f
00000250: f0de 7f3f 1004 803f 7fe3 7f3f 44d6 7f3f
00000260: 90d8 7f3f 0500 803f addb 7f3f 4fcb 7f3f
00000270: 32fa 7f3f 543b 803f c497 7f3f acff 7f3f
00000280: 0400 803f 3901 803f c6fe 7f3f 1d01 803f
00000290: 0400 803f 6c00 803f a501 803f deee 7f3f
000002a0: 7e24 803f f846 803f 87ff 7f3f 0601 803f
000002b0: 7dd6 7f3f 28b8 7f3f 1902 803f 0702 803f
000002c0: 58fe 7f3f a2e0 7f3f 2900 803f ecff 7f3f
000002d0: 57cd 7f3f 1a00 803f 1201 803f bf05 803f
000002e0: deed 7f3f 3700 803f 1815 803f faff 7f3f
000002f0: 0c04 803f 51ff 7f3f a0ff 7f3f 0100 803f
00000300: b1ff 7f3f 6b00 803f b901 803f 7305 803f
00000310: 0200 803f 4600 803f b903 803f 6df7 7f3f
00000320: 07da 7f3f b2fe 7f3f 8c00 803f 6602 803f
00000330: 2f00 803f 7203 803f e2fe 7f3f 92fb 7f3f
00000340: 51fb 7f3f b901 803f e205 803f 80e2 7f3f
00000350: 65fb 7f3f 4800 803f 8ef6 7f3f 73d7 7f3f
00000360: 14fa 7f3f 5100 803f 67fa 7f3f 26f0 7f3f
00000370: 77ff 7f3f 0c08 803f e4f9 7f3f 8fff 7f3f
00000380: 4500 803f c700 803f 11f9 7f3f 0700 803f
00000390: 0000 803f 1304 803f 2001 803f f9f8 7f3f
000003a0: 5903 803f e30e 803f 2d00 803f 4601 803f
000003b0: 41ed 7f3f 96f9 7f3f 2f00 803f 9101 803f
000003c0: e9fe 7f3f 07fa 7f3f f400 803f 0000 803f
000003d0: dff7 7f3f 4101 803f e000 803f 7801 803f
000003e0: 1efa 7f3f 0d00 803f 7303 803f f9ff 7f3f
000003f0: 3003 803f 3b00 803f e2ff 7f3f d6fe 7f3f

layernorm.bias f4 [259, 64]
7.2961666e-05 8.976944e-05 8.236337e-05 0.00013125774 -2.378942e-07 -0.000101008736 9.6372176e-05 -9.6694734e-05
-0.00010993917 -5.2342144e-05 0.00014728014 7.7550714e-05 9.576253e-06 0.00014104633 -0.00010471724 -0.00011674216
-6.601057e-05 8.7449094e-05 0.00015495803 -9.458642e-05 -0.00013411604 8.427085e-05 -2.1931128e-05 -0.00013467515
-7.130578e-05 1.727936e-05 -6.364128e-05 -5.9973732e-05 -6.537409e-05 0.00012231893 -0.00013690027 5.2111056e-05
7.585301e-06 7.758347e-05 -9.737814e-05 2.3454577e-05 -3.337255e-05 7.4333926e-05 0.000113766255 -3.1795684e-05
0.00016133515 0.000137699 -0.00011801777 5.801767e-05 -1.7924263e-05 -8.5836946e-05 3.0972235e-05 2.1137223e-05
6.451903e-06 -5.144854e-05 0.00010865419 5.409596e-06 -5.4779885e-05 2.1817697e-05 0.00012299349 0.00017972062
-4.9395796e-05 -0.00010592616 7.491044e-05 1.3592245e-05 6.470868e-05 -0.00012462256 -5.110609e-05 -4.0599953e-05
6.3867636e-05 7.9645906e-05 7.087613e-05 0.00011589335 1.5504853e-05 -7.433956e-05 5.1069586e-05 -8.011738e-05
-8.052748e-05 -4.3633387e-05 0.00011203469 5.360897e-05 -2.608813e-06 9.415696e-05 -8.674287e-05 -0.00010904481
-6.815425e-05 6.866719e-05 0.00012341264 -9.4536e-05 -0.000117776246 7.264229e-05 -5.0050716e-05 -0.00010578412
-7.0847214e-05 2.3274453e-05 -6.322644e-05 -6.729056e-05 -6.930803e-05 0.00010157821 -0.000116872965 7.187239e-05
1.6278751e-05 6.858318e-05 -9.46273e-05 5.819122e-06 -2.7922171e-05 7.1742936e-05 8.773668e-05 -5.2887244e-05
0.00010701756 0.00010798255 -0.000105995736 5.1236704e-05 -3.6682373e-05 -8.266796e-05 6.7574547e-06 2.6732929e-05
-5.942252e-08 -5.557171e-05 8.7990236e-05 -3.0882416e-05 -7.664768e-05 3.4181146e-05 8.663096e-05 0.00013131347
-7.803131e-05 -8.627325e-05 3.7468915e-05 1.5909169e-05 3.8848728e-05 -9.127363e-05 -2.3311377e-05 -3.1073636e-05
7.563353e-05 8.499902e-05 8.277216e-05 0.00013094184 -2.0344218e-07 -9.673743e-05 9.171042e-05 -9.651848e-05
-0.00010890478 -5.561059e-05 0.00014494834 7.498134e-05 1.0882542e-05 0.00013582436 -0.00010613055 -0.00011725334
-6.6568646e-05 8.9483176e-05 0.00015473599 -9.60683e-05 -0.00013144677 8.5042826e-05 -2.5356943e-05 -0.00013245712
-7.2675306e-05 1.7514223e-05 -6.637094e-05 -6.2222185e-05 -6.4632695e-05 0.000121652054 -0.0001330001 5.8083395e-05
5.3728045e-06 8.235436e-05 -0.00010138604 1.8855093e-05 -2.8768221e-05 7.7046716e-05 0.000110978355 -3.8565577e-05
0.00015738209 0.00013978154 -0.00011948616 5.981313e-05 -2.322432e-05 -8.6729335e-05 2.4282652e-05 2.5664134e-05
6.196166e-06 -5.3976422e-05 0.00010379029 2.4226697e-06 -5.865948e-05 2.1763524e-05 0.00011875015 0.0001763634
-5.5326178e-05 -0.000106626416 7.0681206e-05 1.3702777e-05 6.285267e-05 -0.00012036825 -4.910757e-05 -3.9663617e-05
7.646626e-05 7.6452285e-05 6.7441324e-05 0.00012286632 6.5897325e-06 -7.300245e-05 5.932446e-05 -8.478838e-05
-9.3836235e-05 -4.826918e-05 0.000118692355 5.0963903e-05 2.5975344e-06 9.031273e-05 -9.35376e-05 -0.000111325026
-6.314323e-05 6.716507e-05 0.00013407422 -9.07075e-05 -0.00011203729 7.200821e-05 -5.1199237e-05 -0.00011420409
-6.675329e-05 2.3857036e-05 -6.1357954e-05 -7.238182e-05 -7.4498465e-05 0.00010228539 -0.00011963841 7.7273e-05
1.369339e-05 7.261106e-05 -0.000100396624 4.522888e-06 -2.423063e-05 7.855216e-05 9.050663e-05 -6.1645515e-05
0.00011419077 0.00011209566 -0.00010295782 6.309784e-05 -4.277721e-05 -8.2628976e-05 5.5234345e-06 3.1062682e-05
-4.939724e-06 -5.560835e-05 8.538231e-05 -2.8971524e-05 -7.351478e-05 3.3824577e-05 9.043713e-05 0.00014105628
-8.354407e-05 -8.596883e-05 4.439371e-05 1.5555006e-05 4.5597917e-05 -9.35735e-05 -2.2749544e-05 -3.342113e-05
00000000: ff02 9938 9a42 bc38 7fba ac38 3ba2 0939
00000010: dc6f 7fb4 a7d4 d3b8 6b1b ca38 97c8 cab8
00000020: 248f e6b8 f389 5bb8 366f 1a39 b9a2 a238
00000030: b2a9 2037 d6e5 1339 a49b dbb8 78d3 f4b8
00000040: 286f 8ab8 e064 b738 3b7c 2239 b35c c6b8
00000050: 80a1 0cb9 91ba b038 bdf8 b7b7 9637 0db9
00000060: 008a 95b8 25f3 9037 2777 85b8 4e8c 7bb8
00000070: 7319 89b8 bd42 0039 e38c 0fb9 d291 5a38
00000080: 3d85 fe36 4fb4 a238 7e37 ccb8 52c0 c437
00000090: 81f9 0bb8 b9e3 9b38 cb95 ee38 5b5c 05b8
000000a0: 132c 2939 4b63 1039 4f80 f7b8 0058 7338
000000b0: 105c 96b7 5c03 b4b8 2fe8 0138 d74f b137
000000c0: 6d7d d836 73ca 57b8 46dd e338 1384 b536
000000d0: 74c3 65b8 2605 b737 d0f7 0039 6373 3c39
000000e0: 552e 4fb8 ad24 deb8 3c19 9d38 3f0a 6437
000000f0: 35b4 8738 1dad 02b9 bf5a 56b8 de49 2ab8
00000100: adf0 8538 9207 a738 55a3 9438 c50b f338
00000110: 6b10 8237 bfe6 9bb8 8d33 5638 b104 a8b8
00000120: dde0 a8b8 fe02 37b8 2bf4 ea38 31da 6038
00000130: 1113 2fb6 2276 c538 b9e9 b5b8 fdae e4b8
00000140: 09ee 8eb8 6b01 9038 5468 0139 a141 c6b8
00000150: a4fe f6b8 8857 9838 8ced 51b8 6bd8 ddb8
00000160: cf93 94b8 823d c337 7098 84b8 581e 8db8
00000170: 7759 91b8 6306 d538 b219 f5b8 32ba 9638
00000180: 5a8e 8837 50d4 8f38 a572 c6b8 e141 c336
00000190: 683a eab7 b274 9638 45ff b738 3fd3 5db8
000001a0: 9d6e e038 b174 e238 074a deb8 fee6 5638
000001b0: 66db 19b8 065e adb8 18be e236 8740 e037
000001c0: c037 7fb3 ab15 69b8 6687 b838 be87 01b8
000001d0: e9bd a0b8 ba5d 0f38 a4ad b538 31b1 0939
000001e0: bea4 a3b8 99ed b4b8 f127 1d38 ae74 8537
000001f0: 81f1 2238 286a bfb8 cd8c c3b7 1055 02b8
00000200: 719d 9e38 8041 b238 f795 ad38 6f4d 0939
00000210: c371 5ab4 83df cab8 a854 c038 f769 cab8
00000220: cf63 e4b8 6b3f 69b8 46fd 1739 4d3f 9d38
00000230: 2994 3637 136c 0e39 6892 deb8 e8e5 f5b8
00000240: c59a 8bb8 eaa8 bb38 a040 2239 4778 c9b8
00000250: f9d4 09b9 0559 b238 9fb5 d4b7 30e4 0ab9
00000260: 4269 98b8 82eb 9237 a130 8bb8 487d 82b8
00000270: 6a8b 87b8 731f ff38 f175 0bb9 929e 7338
00000280: 0a48 b436 a9b5 ac38 379f d4b8 012b 9e37
00000290: 4953 f1b7 2494 a138 0dbd e838 79c1 21b8
000002a0: ef06 2539 5292 1239 a594 fab8 dcdf 7a38
000002b0: d9d1 c2b7 75e2 b5b8 99b2 cb37 4f49 d737
000002c0: a9e8 cf36 be64 62b8 fda9 d938 2695 2236
000002d0: 2309 76b8 d090 b637 8009 f938 31ee 3839
000002e0: 080e 68b8 9f9c dfb8 af3a 9438 fbe4 6537
000002f0: c5cf 8338 366e fcb8 daf8 4db8 7c5c 26b8
00000300: 835c a038 0255 a038 496f 8d38 add5 0039
00000310: 5f1d dd36 e418 99b8 27d3 7838 6ad0 b1b8
00000320: f2c9 c4b8 a374 4ab8 79ea f838 13c2 5538
00000330: 4d51 2e36 4766 bd38 9e29 c4b8 2b77 e9b8
00000340: c36b 84b8 f9da 8c38 4696 0c39 383a beb8
00000350: 90f5 eab8 1d03 9738 c3be 56b8 db80 efb8
00000360: e6fd 8bb8 9820 c837 4dad 80b8 b2cb 97b8
00000370: 0f3c 9cb8 0d82 d638 62e6 fab8 a00d a238
00000380: aabc 6537 c446 9838 078c d2b8 50c3 9736
00000390: e242 cbb7 5fbc a438 61ce bd38 af47 81b8
000003a0: b479 ef38 e614 eb38 0feb d7b8 6553 8438
000003b0: ae6b 33b8 1849 adb8 f155 b936 4d49 0238
000003c0: e8bf a5b6 033d 69b8 470f b338 e007 f3b7
000003d0: f22b 9ab8 ddde 0d38 11a9 bd38 82e8 1339
000003e0: 6234 afb8 2a4a b4b8 6233 3a38 1f7c 8237
000003f0: 6440 3f38 e43c c4b8 46d6 beb7 aa2d 0cb8

fc0.0.weight f4 [64, 64]
-0.09935207 0.077035636 0.105614446 -0.07309003 0.08151719 0.12076689 -0.024899311 -0.10757992
0.021729311 0.0629816 0.083636574 0.06349077 -0.020561922 0.057618864 -0.069387875 0.02787231
-0.03427716 -0.07513106 -0.052063555 -0.062984325 0.029790606 -0.032096636 0.013158894 -0.041935835
-0.064608045 0.08710436 0.027437162 0.053941123 0.06402734 0.024049893 -0.038982756 0.10926603
-0.055705413 -0.0506866 -0.04220073 0.073634006 -0.11644224 0.012686197 0.11751235 -0.121261
-0.10693619 0.11598992 -0.08170088 -0.07911102 -0.0026683798 -0.042890336 0.07802844 0.05809386
-0.11189071 -0.05580729 -0.012880727 0.103987485 -0.0867458 -0.024791429 -0.11118124 -0.11134386
-0.018145466 -0.08963085 -0.023453934 0.08868622 -0.051634833 0.0883769 -0.039325286 -0.01851626
0.041093223 0.122470014 0.06953172 0.09532924 0.019817883 -0.051128026 0.07151411 0.0054691527
0.05582641 -0.10043114 -0.0019581579 0.049891055 0.048537415 0.039735682 0.067937076 0.008779386
-0.047126297 -0.110763125 0.11653096 -0.114336155 -0.009230657 -0.0074399174 -0.0420334 0.014283651
-0.026969833 0.040687952 -0.12028581 -0.07092081 0.057429112 0.05148253 -0.008619068 0.11172512
-0.053781457 -0.08950664 0.07743421 -0.09298476 -0.09477873 0.0678784 -0.0906786 -0.04992047
-0.035360117 0.03083581 -0.0319894 0.06426589 0.020092977 -0.030244336 0.0155448 0.09017096
0.011109473 0.06577734 -0.05113388 -0.12218894 -0.062631845 -0.11507502 -0.1069566 -0.06907437
-0.03600419 0.09528573 -0.06249108 0.022883564 0.021958845 0.11439647 0.108498335 0.049950875
-0.09335809 0.06356486 -0.059317823 0.11677308 -0.088346116 -0.054496214 -0.051223997 0.03080163
-0.084658846 -0.046625275 0.08670511 0.11468589 -0.063037604 0.019669855 -0.1045529 -0.0915555
-0.039433118 0.059099175 0.12131474 0.032247964 -0.07525064 0.08529872 -0.059863508 0.037811264
-0.090992995 0.048762944 0.0487826 -0.09792939 -0.12097592 -0.094423935 0.08221333 0.095055915
-0.0075719347 -0.07443241 -0.0066563413 0.10251977 -0.08521562 -0.09781429 -0.012589246 -0.0016498851
0.04441716 0.064056784 -0.050972246 -0.058494646 -0.1185722 0.08405154 0.05867084 -0.11233611
0.01577624 0.08720033 -0.00515392 0.018710228 0.08077963 -0.10944693 0.12201855 -0.028255235
-0.10599067 -0.00031720207 0.084032156 -0.04851403 -0.007882265 0.05778284 0.033196192 0.12188262
-0.08836869 -0.07846818 0.088301964 0.0063183657 -0.04613612 -0.090952486 0.05658224 -0.07284616
0.114061475 0.010698297 0.08453172 -0.11706674 0.10906443 -0.09203848 0.054055195 0.041582584
0.084908284 -0.03134813 0.00152369 0.045358177 0.019293964 0.027660757 0.051568467 0.123845376
0.044999488 0.01824187 0.11226209 -0.10225583 0.01698638 -0.100866914 0.12066021 0.080941424
0.033216823 -0.030180937 -0.0050109704 0.12118185 0.101470195 0.04980385 -0.07596165 -0.040026058
-0.01724261 0.07096237 0.03438575 -0.021926632 -0.05829894 0.07738813 0.103922024 -0.055086393
-0.092877604 -0.03685076 -0.0015525933 0.105748735 0.023780005 0.012869536 -0.024847103 -0.08642715
0.12210205 -0.090865895 -0.061723035 0.120792635 -0.019983167 -0.07882752 -0.11259565 -0.11279739
00000000: 1979 cbbd dcc4 9d3d 634c d83d 3ab0 95bd
00000010: 7cf2 a63d a254 f73d a4f9 cbbc dc52 dcbd
00000020: ab01 b23c 7ffc 803d a749 ab3d 7307 823d
00000030: 7a71 a8bc c201 6c3d 3b1b 8ebd 7854 e43c
00000040: 3566 0cbd 50de 99bd 9840 55bd edfd 80bd
00000050: 6e0b f43c c377 03bd 6798 573c e9c4 2bbd
00000060: 3951 84bd c563 b23d e6c3 e03c 5ef1 5c3d
00000070: c420 833d 4804 c53c 62ac 1fbd dec6 df3d
00000080: 5c2b 64bd c19c 4fbd acda 2cbd 6dcd 963d
00000090: 4579 eebd c4d9 4f3c 51aa f03d b057 f8bd
000000a0: 5c01 dbbd 208c ed3d ca52 a7bd f504 a2bd
000000b0: fcdf 2ebb c7ad 2fbd 60cd 9f3d d4f3 6d3d
000000c0: f526 e5bd 2f96 64bd af09 53bc 64f7 d43d
000000d0: c8a7 b1bd 6517 cbbc fdb2 e3bd 4008 e4bd
000000e0: cda5 94bc 6190 b7bd 7722 c0bc 1fa1 b53d
000000f0: 0c7f 53bd f3fe b43d 8d13 21bd 69af 97bc
00000100: 5e51 283d 8fd1 fa3d a566 8e3d fa3b c33d
00000110: 1d59 a23c 9f6b 51bd fd75 923d 9436 b33b
00000120: 3caa 643d d7ae cdbd 7054 00bb 905a 4c3d
00000130: 2bcf 463d e2c1 223d 9822 8b3d 6ad7 0f3c
00000140: 8107 41bd c7d7 e2bd c9a7 ee3d 1329 eabd
00000150: 2e3c 17bc 8dca f3bb 372b 2cbd f905 6a3c
00000160: d7ef dcbc 69a8 263d 6858 f6bd ee3e 91bd
00000170: ca3a 6b3d 58df 523d fe36 0dbc 24d0 e43d
00000180: f249 5cbd 424f b7bd d495 9e3d cb6e bebd
00000190: 5a1b c2bd d503 8b3d b4b5 b9bd 6879 4cbd
000001a0: c5d5 10bd 619b fc3c 5107 03bd d69d 833d
000001b0: 079a a43c f8c2 f7bc 9eaf 7e3c 8dab b83d
000001c0: 8204 363c 45b6 863d c271 51bd 323e fabd
000001d0: 2045 80bd 74ac ebbd 100c dbbd dd76 8dbd
000001e0: 2179 13bd 2a25 c33d a6f6 7fbd 5076 bb3c
000001f0: 09e3 b33c b248 ea3d 6034 de3d 4a99 4c3d
00000200: 8732 bfbd 4b2e 823d 3ff7 72bd b926 ef3d
00000210: cfee b4bd 6c37 5fbd 41d0 51bd b353 fc3c
00000220: 9e61 adbd 25fa 3ebd 7392 b13d 70e0 ea3d
00000230: dc19 81bd ad22 a13c d51f d6bd 7381 bbbd
00000240: 9f84 21bd fa11 723d dd73 f83d 7116 043d
00000250: 021d 9abd 18b1 ae3d 7033 75bd fcdf 1a3d
00000260: 895a babd a7bb 473d 43d0 473d 348f c8bd
00000270: 39c2 f7bd 5661 c1bd 765f a83d adac c23d
00000280: fe1d f8bb 0570 98bd 701d dabb e3f5 d13d
00000290: 8785 aebd dc52 c8bd 2043 4ebc f540 d8ba
000002a0: c5ee 353d 3430 833d 46c8 50bd 1598 6fbd
000002b0: fbd5 f2bd 3723 ac3d d650 703d 7910 e6bd
000002c0: 2c3d 813c 1696 b23d 37e2 a8bb 3146 993c
000002d0: ca6f a53d b625 e0bd dde4 f93d 8677 e7bc
000002e0: a311 d9bd 244e a6b9 0d19 ac3d a6b6 46bd
000002f0: 9e24 01bc b3ad 6c3d bbf8 073d 989d f93d
00000300: a5fa b4bd edb3 a0bd a9d7 b43d 4b0a cf3b
00000310: 3af9 3cbd 4c45 babd c7c2 673d 5e30 95bd
00000320: 1099 e93d e947 2f3c f71e ad3d b0c0 efbd
00000330: 2c5d df3d ac7e bcbd fb68 5d3d 8052 2a3d
00000340: 65e4 ad3d e666 00bd 8db6 c73a 7fc9 393d
00000350: 600e 9e3c d098 e23c 7539 533d a5a2 fd3d
00000360: 6251 383d f96f 953c abe9 e53d 816b d1bd
00000370: 0527 8b3c 5093 cebd b31c f73d 9ec4 a53d
00000380: 5d0e 083d 033e f7bc 1133 a4bb 312e f83d
00000390: 9bcf cf3d 1fff 4b3d c891 9bbd 5df2 23bd
000003a0: 6040 8dbc b854 913d 12d8 0c3d 7b9f b3bc
000003b0: dfca 6ebd ab7d 9e3d 12d5 d43d 45a2 61bd
000003c0: 9d36 bebd d3f0 16bd 6380 cbba cb92 d83d
000003d0: 49ce c23c bfda 523c 278c cbbc b800 b1bd
000003e0: a410 fa3d e617 babd 4bd1 7cbd 2162 f73d
000003f0: bdb3 a3bc 5370 a1bd 8c98 e6bd 5102 e7bd

fc0.0.bias f4 [64]
0.048424367 -0.09517876 0.044135924 -0.004677785 -0.08708005 0.07755908 0.117295936 -0.049368113
-0.043124728 -0.06444374 0.04362271 -0.05374336 -0.049024094 0.025373666 0.09100148 -0.07889688
0.049843185 0.06947242 -0.027543375 0.10989111 -0.051321078 -0.009101569 -0.004251234 0.122519165
0.014670199 -0.12244328 0.08995586 0.027753148 -0.015476238 -0.04049737 0.08291259 0.007539161
0.027813992 0.094445564 -0.079960674 0.037858 -0.03023721 0.10038128 0.10532657 -0.09285863
0.03254779 -0.07300995 0.04449246 -0.105393656 0.07546 -0.112412445 0.028594762 0.02042672
-0.10598675 -0.016485348 0.06692486 0.122593984 -0.08580254 0.03004478 0.030241624 0.12152385
0.042365506 0.06843209 0.112611085 0.08408635 0.015903017 0.001440174 -0.004644898 -0.1216385
00000000: a158 463d 15ed c2bd dfc7 343d 1b48 99bb
00000010: 0657 b2bd 4cd7 9e3d da38 f03d 3836 4abd
00000020: 8ea3 30bd 14fb 83bd baad 323d ff21 5cbd
00000030: 7dcd 48bd 6fdc cf3c fc5e ba3d b094 a1bd
00000040: 5e28 4c3d 8e47 8e3d a5a2 e1bc 970e e13d
00000050: 0d36 52bd bf1e 15bc ef4d 8bbb 54eb fa3d
00000060: 465b 703c 8bc3 fabd c73a b83d 925a e33c
00000070: 0c90 7dbc 92e0 25bd 13ce a93d 110b f73b
00000080: 2bda e33c ad6c c13d 6cc2 a3bd fd10 1b3d
00000090: 07b4 f7bc b394 cd3d 75b5 d73d aa2c bebd
000000a0: d550 053d 3e86 95bd ba3d 363d a1d8 d7bd
000000b0: c68a 9a3d 7f38 e6bd 903f ea3c f055 a73c
000000c0: 950f d9bd 480c 87bc e70f 893d 8e12 fb3d
000000d0: 3eb9 afbd 7820 f63c 48bd f73c 7fe1 f83d
000000e0: 7487 2d3d 2026 8c3d a4a0 e63d 7735 ac3d
000000f0: 0b47 823c 38c4 bc3a 3b34 98bb 9b1d f9bd

fc1.0.weight f4 [64, 64]
-0.01837409 0.07807664 -0.068389945 0.017540064 -0.09259283 0.01605173 0.11594693 0.05236522
-0.057114348 0.0679834 0.124186695 -0.030927762 0.023029918 -0.031570107 0.084811464 0.033702414
0.120560706 -0.05323384 -0.020559229 0.022173425 0.03562682 -0.10913816 0.10210198 -0.04505219
0.060534533 -0.012842052 0.07207374 0.05917863 -0.06906432 -0.054119106 -0.024364097 -0.09598459
0.1230532 -0.034384765 0.044710197 0.031459212 0.048966426 0.009136736 0.04282996 -0.052980937
0.063542776 -0.11889638 0.07138174 -0.044803295 -0.08508211 -0.007119747 0.12578373 -0.081080474
-0.1227837 0.018258119 -0.062114924 0.06271051 0.09939159 -0.046485007 -0.024138885 0.05802803
0.019395348 0.04946544 0.06193982 0.038237166 0.06695609 -0.07887366 0.028281454 0.0007550505
0.0006993049 0.10495077 0.10776058 0.05297154 -0.047081657 0.04767013 -0.017389776 0.11286059
0.015465498 0.057891626 -0.06634957 -0.11142943 0.012157082 -0.016650122 0.031784162 0.11776617
0.04372405 -0.03746167 0.09355462 -0.030844945 0.09360967 0.10547457 0.037759967 -0.012969753
0.01881531 0.08325188 0.0127665065 -0.07168871 -0.02933274 0.009613428 0.005573465 -0.082941286
0.007938374 0.06792371 0.11106171 -0.045925725 0.055205323 0.055260472 -0.047958113 -0.064728044
-0.093716875 0.01780705 -0.1201681 -0.03529845 0.10325272 -0.12097866 0.06626241 0.06376054
-0.060927376 0.06753391 -0.013710085 -0.11632073 -0.02317695 0.12300469 0.06220708 -0.046479195
-0.042834047 0.11594932 -0.08850617 -0.056291047 -0.014703708 -0.04994761 0.110595115 0.040215634
-0.04781299 -0.044071008 -0.029832577 -0.076495685 0.05092378 0.12085197 -0.02140336 -0.07875502
-0.06737682 0.055386472 0.029203113 0.021131225 0.06608442 -0.009347934 -0.10360032 -0.10828781
-0.11972188 0.12563726 -0.031166581 0.062006384 -0.086320005 -0.032918576 -0.01195434 0.09580025
-0.104769915 -0.054512657 -0.0017403158 0.08561158 -0.03941911 0.063737705 0.07547742 0.06733285
0.04879251 0.09966595 -0.09074494 -0.11048329 0.07908286 0.10706469 -0.11936712 -0.1091526
-0.030936675 0.1235088 0.023706203 -0.123662986 0.059692536 -0.11844592 0.0036000728 0.10007187
-0.087445304 -0.12457036 -0.030776054 -0.09755314 -0.08280401 0.08430033 -0.10107073 0.015335573
0.034057572 0.019767657 -0.032160018 0.037306778 -0.03173524 -0.041524082 -0.050265238 -0.061964594
-0.038996425 0.11748062 0.07868319 0.058230814 -0.01667398 0.08331618 0.006808785 0.090520866
-0.048733108 -0.0011587234 0.09969394 -0.05316853 -0.040500168 0.101375096 -0.08391225 -0.062356386
-0.024841681 -0.053731363 -0.038768407 -0.02074341 -0.0012890456 -0.0697401 -0.016388677 -0.09259317
-0.05924484 0.077614486 -0.09329533 0.074993916 -0.08778724 0.09132212 0.022691447 0.12020039
0.11103674 -0.067848355 0.09176495 0.10184948 0.10389942 -0.08247409 0.009746853 -0.033015437
0.0994464 0.110805035 -0.099699356 0.077220045 -0.08329126 -0.1149923 -0.094609566 -0.10742415
0.029314889 0.06423584 -0.09714943 0.00501063 0.007304273 0.019061955 -0.09739136 0.07051672
-0.119483545 0.009709976 0.004801782 0.043039367 -0.08056829 0.11054497 0.05529654 0.11735525
00000000: 4285 96bc a5e6 9f3d 0710 8cbd 2eb0 8f3c
00000010: 4fa1 bdbd eb7e 833c 9675 ed3d ea7c 563d
00000020: bcf0 69bd e13a 8b3d 9855 fe3d 385c fdbc
00000030: 3da9 bc3c a84f 01bd a2b1 ad3d 8b0b 0a3d
00000040: 88e8 f63d ba0b 5abd d46b a8bc 0ba5 b53c
00000050: 6eed 113d d483 dfbd d81a d13d a588 38bd
00000060: 0ff3 773d 7867 52bc 669b 933d 4b65 723d
00000070: 9871 8dbd ffab 5dbd 3797 c7bc 9293 c4bd
00000080: 5103 fc3d 0ad7 0cbd 0a22 373d 60db 003d
00000090: 0591 483d 40b2 153c 786e 2f3d 8a02 59bd
000000a0: b722 823d f27f f3bd 9730 923d a983 37bd
000000b0: 873f aebd c44c e9bb 73cd 003e 850d a6bd
000000c0: 0576 fbbd 0d92 953c 386c 7ebd 5e6e 803d
000000d0: d18d cb3d 1067 3ebd e9be c5bc cdae 6d3d
000000e0: fee2 9e3c 469c 4a3d 9cb4 7d3d 939e 1c3d
000000f0: 4620 893d 8388 a1bd 82ae e73c 95ee 453a
00000100: 8f51 373a 6ef0 d63d 94b1 dc3d aff8 583d
00000110: b2d8 40bd c141 433d 0175 8ebc 7423 e73d
00000120: 0063 7d3c c51f 6d3d 49e2 87bd 1d35 e4bd
00000130: 7f2e 473c d665 88bc 1c30 023d 642f f13d
00000140: fd17 333d 6871 19bd 9199 bf3d 8aae fcbc
00000150: 6db6 bf3d 0d03 d83d 32aa 1a3d 167f 54bc
00000160: 9122 9a3c f67f aa3d 9c2a 513c 88d1 92bd
00000170: 374b f0bc a481 1d3c 9da1 b63b 1fdd a9bd
00000180: f40f 023c 961b 8b3d 5274 e33d 9d1c 3cbd
00000190: fa1e 623d ce58 623d ba6f 44bd 2390 84bd
000001a0: a2ee bfbd 17e0 913c b11a f6bd 1c95 10bd
000001b0: 2976 d33d a9c3 f7bd 96b4 873d e394 823d
000001c0: fc8e 79bd 384f 8a3d 44a0 60bc 9039 eebd
000001d0: 96dd bdbc e2e9 fb3d dacc 7e3d f860 3ebd
000001e0: c172 2fbd d676 ed3d b942 b5bd 7191 66bd
000001f0: d2e7 70bc dd95 4cbd b17f e23d 26b9 243d
00000200: 8ed7 43bd cd83 34bd 7363 f4bc c5a9 9cbd
00000210: 7495 503d 3d81 f73d 1956 afbc 504a a1bd
00000220: dcfc 89bd eddc 623d 5e3b ef3c 641b ad3c
00000230: 4557 873d 1428 19bc 682c d4bd 00c6 ddbd
00000240: bf30 f5bd 0ea7 003e 0f51 ffbc 68fa 7d3d
00000250: 8bc8 b0bd a1d5 06bd 23dc 43bc ec32 c43d
00000260: 9c91 d6bd aa48 5fbd 4f1b e4ba 2055 af3d
00000270: ef75 21bd ea88 823d e893 9a3d cee5 893d
00000280: a8da 473d a91d cc3d 7cd8 b9bd 1045 e2bd
00000290: 32f6 a13d bb44 db3d c076 f4bd 668b dfbd
000002a0: e96e fdbc 2ff2 fc3d 8333 c23c 0543 fdbd
000002b0: 2980 743d c693 f2bd 33ef 6b3b 7bf2 cc3d
000002c0: 8616 b3bd bf1e ffbd 101e fcbc f1c9 c7bd
000002d0: 2695 a9bd a7a5 ac3d 2cfe cebd 0e42 7b3c
000002e0: f47f 0b3d c8ef a13c 39ba 03bd fece 183d
000002f0: d0fc 01bd 2815 2abd ece2 4dbd 96ce 7dbd
00000300: b7ba 1fbd ae99 f03d a724 a13d 6f83 6e3d
00000310: df97 88bc aca1 aa3d 3a1c df3b 0163 b93d
00000320: 5e9c 47bd 4ee0 97ba 562c cc3d 3fc7 59bd
00000330: 81e3 25bd bf9d cf3d 30da abbd 6969 7fbd
00000340: c880 cbbc 6b15 5cbd 9fcb 1ebd 15ee a9bc
00000350: 31f5 a8ba e6d3 8ebd 8c41 86bc 7da1 bdbd
00000360: b8aa 72bd 58f4 9e3d 9f11 bfbd 6996 993d
00000370: ccc9 b3bd 1707 bb3d 6ae3 b93c 9f2b f63d
00000380: 3b67 e33d 14f4 8abd 43ef bb3d 7696 d03d
00000390: 38c9 d43d 2de8 a8bd 44b1 1f3c 323b 07bd
000003a0: 8eaa cb3d c0ed e23d 2d2f ccbd 8b25 9e3d
000003b0: 9c94 aabd 1581 ebbd a9c2 c1bd 3101 dcbd
000003c0: c725 f03c 158e 833d 48f6 c6bd 3630 a43b
000003d0: af58 ef3b d127 9c3c 1f75 c7bd 126b 903d
000003e0: cab3 f4bd 9716 1f3c 4458 9d3b 0c4a 303d
000003f0: fd00 a5bd 6765 e23d a07e 623d f357 f03d

fc1.0.bias f4 [64]
0.018710658 -0.099100746 -0.115376554 0.074937604 0.04683171 0.034662858 0.04062789 0.09427055
-0.010911698 -0.012432924 0.012478862 0.083563365 -0.05441106 0.00365322 0.09127531 -0.117815375
-0.03188217 0.02477273 0.067872904 0.09654452 -0.0026028103 0.03835189 -0.0016298007 -0.027598653
0.04308347 0.018187823 0.028471617 -0.022879468 0.047856577 -0.100710474 0.0017794323 0.07411563
0.0025940055 -0.12041587 -0.09155465 -0.06190242 0.08008384 -0.055782728 0.1142453 -0.093328744
-0.02757169 -0.05477898 0.00041064812 0.10595534 0.03139653 0.047946386 0.06381085 0.0786519
-0.0514044 -0.07321296 -0.011770897 -0.101161376 0.09915567 -0.012930979 0.008440742 0.030794438
0.09771493 0.06584529 -0.01701194 -0.004173717 -0.03968173 0.024570663 0.045694564 -0.11671884
00000000: 1847 993c 55f5 cabd 8b4a ecbd e378 993d
00000010: 9bd2 3f3d a4fa 0d3d 6e69 263d eb10 c13d
00000020: fbc6 32bc 76b3 4bbc 2474 4c3c 4523 ab3d
00000030: 22de 5ebd dc6a 6f3b 8dee ba3d 3049 f1bd
00000040: e196 02bd 2ef0 ca3c f300 8b3d 22b9 c53d
00000050: e993 2abb df16 1d3d 099f d5ba 9216 e2bc
00000060: 4b78 303d a1fe 943c 4f3d e93c b96d bbbc
00000070: 4205 443d 4b41 cebd d73b e93a efc9 973d
00000080: 3100 2a3b 989c f6bd 0181 bbbd 648d 7dbd
00000090: ff02 a43d 6e7c 64bd 71f9 e93d 2423 bfbd
000000a0: 06de e1bc ec5f 60bd 424c d739 1dff d83d
000000b0: a699 003d 6e63 443d 43af 823d 3f14 a13d
000000c0: 6c8d 52bd adf0 95bd b8da 40bc b22d cfbd
000000d0: 2112 cb3d 75dc 53bc 0a4b 0a3c 9e44 fc3c
000000e0: c41e c83d e5d9 863d a05c 8bbc adc3 88bb
000000f0: 4f89 22bd 6a48 c93c 392a 3b3d 4a0a efbd

output_layer.0.weight f4 [1, 64]
-0.11335625 -0.03945741 -0.07162893 -0.07173462 -0.0027335088 0.09391497 -0.06920192 0.08139396
0.11081766 0.088755704 -0.09605392 -0.071820505 0.007191279 -0.090380445 0.14279073 0.11000957
0.07540247 -0.09943066 -0.094859086 0.090003856 0.12051348 -0.11345003 0.05408637 0.12040768
0.03385656 -0.02364876 0.09148082 0.06261251 0.04571248 -0.06524115 0.08139079 -0.049598783
0.021891339 -0.07775335 0.13320367 -0.0049031563 -0.0015276179 -0.06781441 -0.09015448 0.012203377
-0.102845564 -0.107493035 0.08072615 -0.0632885 0.07654499 0.059438124 0.028995777 -0.06572282
0.004716228 0.03511546 -0.041470595 -0.014682622 0.048410814 0.00867672 -0.06876329 -0.11953343
0.06648894 0.11050686 -0.07593137 -0.0010152156 -0.07016235 0.09626395 0.040776547 0.031831197
00000000: 5227 e8bd 189e 21bd 30b2 92bd 9ae9 92bd
00000010: ab24 33bb 7e56 c03d bcb9 8dbd e0b1 a63d
00000020: 5ff4 e23d 8dc5 b53d ebb7 c4bd a116 93bd
00000030: d2a4 eb3b 6219 b9bd bc37 123e b34c e13d
00000040: 9c6c 9a3d 4da2 cbbd 7b45 c2bd f153 b83d
00000050: c5cf f63d 7d58 e8bd ab89 5d3d 4d98 f63d
00000060: 2dad 0a3d 0bbb c1bc 4c5a bb3d fd3a 803d
00000070: 023d 3b3d 279d 85bd 37b0 a63d 1828 4bbd
00000080: 7755 b33c 263d 9fbd 8b66 083e a8aa a0bb
00000090: 5a3a c8ba 48e2 8abd e9a2 b8bd acf0 473c
000000a0: b2a0 d2bd 4f25 dcbd c053 a53d 679d 81bd
000000b0: 9fc3 9c3d 6475 733d 8d88 ed3c b099 86bd
000000c0: 978a 9a3b 3bd5 0f3d 12dd 29bd 618f 70bc
000000d0: 6b4a 463d cd28 0e3c c5d3 8cbd f1cd f4bd
000000e0: 5a2b 883d 6c51 e23d e881 9bbd fc10 85ba
000000f0: 47b1 8fbd 0926 c53d 4f05 273d 6e61 023d
