blocksize-4/model_epoch_2_40.pth (torch, 206475 bytes, 13 tensors)

embedding.0.weight f4 [64, 7]
-0.3546727 -0.3347969 0.23325364 -0.06853632 -0.14743274 -0.3773654 0.14590397 0.30784148
-0.18934438 -0.2060644 0.276564 0.25687417 0.33163646 0.10545968 -0.12714219 -0.36550626
0.33260587 0.36269268 -0.23895237 -0.35611242 -0.02647854 -0.13003175 0.18854012 0.086431965
-0.017629845 0.13094456 -0.28175488 -0.111014344 0.32202068 -0.36719877 0.34628123 -0.23346098
0.17637573 0.1716047 -0.2974846 -0.035113875 0.24217626 0.22855057 -0.2996657 -0.1394256
-0.16403657 0.16384558 -0.22425131 -0.23595949 0.16009492 -0.31976405 -0.15039746 -0.1049581
0.026131276 0.059562203 -0.22650804 -0.12566587 0.025976127 0.109751545 0.0490088 0.16718973
-0.36185536 -0.32796335 0.10601599 -0.1022415 -0.277729 0.31250137 -0.19334257 -0.1636805
-0.015121718 -0.048325345 -0.30771002 0.13421443 -0.24265835 -0.059810255 -0.29860392 -0.04167762
-0.1839339 -0.06090195 0.079343505 -0.22217435 0.15187858 -0.2596935 -0.2172938 0.0045877364
0.23832577 0.21366337 0.03385183 0.16332093 0.16822796 0.22953331 -0.37499878 -0.3516881
-0.3238685 -0.3293394 -0.15339033 0.053567477 0.22740829 0.13936774 -0.18197484 0.091283545
0.0399462 0.11965243 0.14057364 0.1726481 -0.042265136 -0.26503077 -0.20655034 0.13135532
0.29143217 0.20413463 0.2914152 -0.13991338 -0.19258583 -0.139352 -0.2674036 -0.026189044
0.21711703 -0.22481464 -0.17210974 0.12576927 0.2256421 -0.36006308 0.34883714 -0.36807123
0.10086834 -0.09535635 0.1652047 -0.01797565 0.32272792 -0.048105367 0.17242122 -0.22319607
-0.1844091 -0.2800811 -0.13627456 0.36684713 -0.37399316 0.13903661 -0.25733894 -0.1875513
0.35253856 -0.11942708 0.37654433 0.01354514 0.23163249 -0.118805066 0.0055830874 -0.30184075
0.2259508 0.33209342 -0.26964304 -0.14387834 0.039107032 -0.24320607 -0.2436158 -0.36800352
0.15488356 0.34614974 -0.021457251 -0.04515497 0.12003107 0.23789878 -0.2295579 0.34232348
-0.039812382 -0.12674512 0.25372523 -0.12958428 -0.12148198 -0.15714356 -0.31677377 -0.14106669
-0.3278104 0.271338 -0.35851955 0.19446325 0.3058919 0.11213509 0.17493965 -0.25836277
0.15078133 0.19618693 -0.06307962 -0.22366464 0.31764042 -0.010304883 0.31199393 0.0906559
-0.043082092 -0.107412644 0.19338682 0.017252306 0.28424034 -0.17694344 -0.12606792 0.16758108
0.07513555 -0.19366395 -0.31855518 -0.16917935 -0.06261161 0.047848653 0.13628659 0.008231974
0.22248328 -0.24963893 -0.0163973 -0.18396549 -0.21699886 -0.22476737 -0.001159339 0.20938446
0.09296597 0.13607393 -0.2056879 0.2486215 0.27566794 0.07228686 -0.15528339 -0.37650284
0.21448538 0.143708 0.20444521 -0.32469097 0.25173926 0.19501188 0.2345101 0.20580584
0.1904464 0.35321513 -0.31992674 -0.05990256 0.21509226 -0.1691842 0.35814324 0.12872124
0.2638607 0.3356992 0.35871717 -0.10677331 -0.27460223 0.15995613 -0.12866886 0.23644497
0.04420253 -0.037123386 0.23904513 0.09709103 0.26805827 0.12727791 0.15413643 0.25492206
-0.36617643 -0.08422306 -0.18244265 0.1383192 0.34077 -0.10740343 -0.24727578 -0.2231568
00000000: a997 b5be 806a abbe 0bda 6e3e c55c 8cbd
00000010: 9cf8 16be 0a36 c1be da67 153e 669d 9d3e
00000020: 7ee3 41be 8c02 53be cc99 8d3e 0385 833e
00000030: 41cc a93e 3ffb d73d 9031 02be a323 bbbe
00000040: 514b aa3e dbb2 b93e eeaf 74be 5e54 b6be
00000050: 86e9 d8bc 0b27 05be a910 413e 3e03 b13d
00000060: 776c 90bc 5516 063e 2d42 90be 7d5b e3bd
00000070: e5df a43e 7a01 bcbe c64b b13e 6510 6fbe
00000080: d79b 343e 24b9 2f3e e74f 98be 91d3 0fbd
00000090: 0efd 773e 2909 6a3e c86d 99be 96c5 0ebe
000000a0: 34f9 27be 23c7 273e 23a2 65be 5d9f 71be
000000b0: ecef 233e 1db8 a3be cb01 1abe 46f4 d6bd
000000c0: 4211 d63c 7ff7 733d b9f1 67be 8eae 00be
000000d0: e3cb d43c 6bc5 e03d 74bd 483d c933 2b3e
000000e0: 1b45 b9be d0ea a7be e91e d93d fe63 d1bd
000000f0: 7f32 8ebe 2e00 a03e 98fb 45be dc9b 27be
00000100: 15c1 77bc ccf0 45bd 2b8c 9dbe 826f 093e
00000110: 6e7b 78be 99fb 74bd 9de2 98be 27b6 2abd
00000120: 2b59 3cbe 5374 79bd d97e a23d ac81 63be
00000130: 0f86 1b3e 8cf6 84be 4482 5ebe b954 963b
00000140: ac0b 743e 92ca 5a3e 37a8 0a3d 9a3d 273e
00000150: f343 2c3e c80a 6b3e d7ff bfbe 7610 b4be
00000160: 18d2 a5be 2d9f a8be 5b12 1dbe 9269 5b3d
00000170: b8dd 683e 6bb6 0e3e 9d57 3abe def2 ba3d
00000180: a09e 233d 550c f53d 89f2 0f3e aaca 303e
00000190: 351e 2dbd 1db2 87be ef81 53be 0282 063e
000001a0: 9936 953e ab08 513e 6034 953e 7445 0fbe
000001b0: 3835 45be 4ab2 0ebe 20e9 88be 688a d6bc
000001c0: ed53 5e3e cf35 66be 893d 30be a9c9 003e
000001d0: b90e 673e 305a b8be c89a b23e d573 bcbe
000001e0: 0f94 ce3d 314a c3bd 6c2b 293e ac41 93bc
000001f0: 983c a53e 220a 45bd 308f 303e 838d 64be
00000200: bdd5 3cbe ca66 8fbe 8f8b 0bbe 63d3 bb3e
00000210: 087c bfbe 9d5f 0e3e eec1 83be 730d 40be
00000220: ef7f b43e 2f96 f4bd 6bca c03e 6fec 5d3c
00000230: 1131 6d3e 1250 f3bd 55f2 b63b df8a 9abe
00000240: a65f 673e 2608 aa3e a70e 8abe d854 13be
00000250: b22e 203d 030b 79be 6c76 79be f56a bcbe
00000260: cc99 1e3e 8a3a b13e 1ec7 afbc 6bf4 38bd
00000270: dad2 f53d bd9b 733e 3a11 6bbe 0645 af3e
00000280: 4f12 23bd 79c9 01be 46e8 813e beb1 04be
00000290: 8bcb f8bd 3eea 20be 2c30 a2be c973 10be
000002a0: c4d6 a7be d0ec 8a3e e08f b7be 6021 473e
000002b0: dd9d 9c3e 15a7 e53d 6123 333e 2048 84be
000002c0: 6c66 1a3e 3ae5 483e e32f 81bd 5808 65be
000002d0: c4a1 a23e d0d5 28bc abbd 9f3e cda9 b93d
000002e0: d976 30bd 29fb dbbd 3207 463e b554 8d3c
000002f0: f387 913e a930 35be f317 01be 609a 2b3e
00000300: abe0 993d d84f 46be aa19 a3be 5a3d 2dbe
00000310: 843a 80bd f3fc 433d b68e 0b3e 67df 063c
00000320: a8d2 633e 59a1 7fbe a153 86bc 7361 3cbe
00000330: f334 5ebe 6b29 66be f6f4 97ba e168 563e
00000340: f164 be3d f756 0b3e d99f 52be a296 7e3e
00000350: 5924 8d3e 220b 943d 9c02 1fbe fbc4 c0be
00000360: 0ea2 5b3e 3128 133e 165a 513e e53d a6be
00000370: f8e3 803e 32b1 473e 6a23 703e c4be 523e
00000380: 6204 433e 9dd8 b43e 70cd a3be 635c 75bd
00000390: 2541 5c3e 9f3e 2dbe 8d5e b73e 80cf 033e
000003a0: c018 873e c4e0 ab3e c7a9 b73e f7ab dabd
000003b0: aa98 8cbe 8acb 233e c5c1 03be a11e 723e
000003c0: b60d 353d b10e 18bd 3fc8 743e a9d7 c63d
000003d0: ef3e 893e 2455 023e f1d5 1d3e 2585 823e
000003e0: 7a7b bbbe 247d acbd 3fd2 3abe 8ca3 0d3e
000003f0: 6879 ae3e 54f6 dbbd dd35 7dbe 3783 64be

embedding.0.bias f4 [64]
-0.17988852 0.11580481 -0.21068853 0.19589172 -0.26244923 0.3132838 -0.31936723 -0.3008438
0.118979834 0.07759935 0.07081437 -0.002691067 0.37488925 -0.05544356 0.02073861 0.28400102
0.16105987 0.35833263 -0.12400968 0.01529822 -0.3427928 -0.19134378 0.19655004 -0.29703143
-0.15483133 -0.3426553 0.36160585 0.26897663 0.0622482 0.08910906 0.20763539 0.25198257
0.27770376 -0.3000647 0.023025751 -0.0043320283 0.27616608 0.1498487 -0.049394876 0.16130643
-0.2041861 0.3543692 0.15832207 -0.15439346 -0.3363104 0.334211 -0.20633842 -0.1887495
-0.22558038 -0.2991454 -0.23362592 0.19498406 0.2353147 0.019368006 0.17114165 -0.35301167
0.10617418 -0.36761743 -0.2003279 -0.3254161 -0.1145512 -0.008558172 0.25931495 0.18287818
00000000: b234 38be 122b ed3d bcbe 57be d797 483e
00000010: bf5f 86be bc66 a03e 1a84 a3be 3308 9abe
00000020: b3ab f33d 68ec 9e3d 2007 913d 9d5c 30bb
00000030: 7cf1 bf3e c918 63bd 04e4 a93c 9568 913e
00000040: e1ec 243e 6077 b73e c9f8 fdbd 63a5 7a3c
00000050: 8a82 afbe a0ef 43be 6a44 493e 8114 98be
00000060: 1b8c 1ebe 8470 afbe 6724 b93e 4eb7 893e
00000070: f8f7 7e3d d07e b63d 5f9e 543e dc03 813e
00000080: 302f 8e3e 15a2 99be 80a0 bc3c b0f3 8dbb
00000090: a465 8d3e f071 193e 4852 4abd 832d 253e
000000a0: 2916 51be e16f b53e 2e1f 223e 5219 1ebe
000000b0: e030 acbe b41d ab3e 614a 53be 8d47 41be
000000c0: 8bfe 66be 9629 99be a23b 6fbe e7a9 473e
000000d0: 56f6 703e a7a9 9e3c c23f 2f3e f2bd b4be
000000e0: d971 d93d 5a38 bcbe c222 4dbe f09c a6be
000000f0: d299 eabd 9337 0cbc eec4 843e 6b44 3b3e

layernorm.weight f4 [259, 64]
1.0001718 0.9998479 0.9999876 0.99999493 1.0000002 1.000013 1.0 0.9999912
0.9999988 1.0000086 1.0000339 0.99976796 0.99999875 1.0004756 1.0006061 1.0
0.99985445 1.0000086 1.0 0.9999934 1.0000011 1.0006958 0.9999955 0.9999964
0.9997752 1.0000103 1.0000119 0.9999949 1.0000081 1.0002401 0.99996316 1.0007195
0.99971193 0.9999692 1.0000077 0.99972725 1.0 1.0006479 0.9999999 1.0000056
0.9996065 1.0000052 1.000003 0.99971104 0.99999535 1.0000098 0.9999987 1.000424
0.999602 1.0001098 1.0000165 1.0000651 1.0 0.9993288 1.0 0.9999942
1.0000075 1.0002857 1.0004869 0.99999005 1.0 1.0000256 1.000002 1.0000006
0.99999684 1.0000057 0.9999782 1.0000042 1.0 0.9999996 0.99999934 1.0000027
1.0 1.0000033 1.000001 0.9999767 0.99999875 1.0000013 1.0000006 0.99999934
1.0000043 1.000004 1.0 0.9999989 1.0 1.0000262 0.9999919 1.0000002
1.0000165 1.0000021 1.0000008 0.9999991 1.0000019 0.9999984 1.0000079 1.0005393
0.9998306 0.9999919 0.9999997 1.0000055 1.0 1.0002345 1.0000008 1.0
1.0000061 0.9999943 1.0 1.0000157 1.0000007 1.0 0.9999992 0.99999386
0.9999978 1.000061 1.0000063 1.0000027 1.0 0.99961567 0.9999977 0.9999978
1.0000035 1.0000013 1.0000008 0.9999948 1.0 1.000001 1.0 1.0
1.0001761 0.9995748 0.9999907 0.99999416 1.0 1.0000056 1.0 0.9996954
0.99999934 1.0000056 1.0000193 0.9990909 0.99999875 1.0004966 1.0008107 1.0
0.9995701 1.0000106 1.0 0.9999945 1.0000005 1.001697 0.9999911 0.9999987
0.9996818 1.0000075 1.0000148 0.9999958 1.000006 1.0002146 0.9999002 1.0014224
0.9991175 0.99998367 1.0000057 0.99953836 1.0 1.0011585 1.0000005 1.0000046
0.999252 1.0000021 1.0000024 0.9986721 0.9999966 1.0000066 0.9999988 1.0007641
0.99873155 1.0006106 1.000011 1.0000424 1.0 0.9987861 1.0 0.9999944
1.0000062 1.0014148 1.0006355 0.99999505 1.0 1.0000174 1.0000013 1.0000004
0.9999955 1.0000054 0.9999825 1.0000036 0.99999994 0.99999964 0.99999946 1.0000017
1.0 1.0000014 1.0000006 0.99988145 0.99999875 1.0000013 1.0000093 0.9999996
1.000004 1.0000046 1.0 0.99999875 0.99999994 1.0001502 0.99999267 1.0000004
1.0000162 1.0000018 1.0000006 0.9999993 1.0000017 0.9999982 1.0000074 1.000619
0.999733 0.99999213 0.99999994 1.0000063 1.0 1.0002013 1.0000013 1.0
1.0000044 0.99999535 1.0 0.9998668 1.0000005 1.0 0.9999991 1.0000026
0.99980426 1.0000459 1.0000039 1.0000024 1.0 0.99948764 0.999998 0.99999803
1.0000032 1.0000414 1.0000021 0.9999953 1.0 1.000006 1.0000002 1.0
00000000: a105 803f 08f6 7f3f 30ff 7f3f abff 7f3f
00000010: 0200 803f 6d00 803f 0000 803f 6cff 7f3f
00000020: ecff 7f3f 4800 803f 1c01 803f cbf0 7f3f
00000030: ebff 7f3f 960f 803f dc13 803f 0000 803f
00000040: 76f6 7f3f 4800 803f 0000 803f 91ff 7f3f
00000050: 0900 803f cd16 803f b5ff 7f3f c4ff 7f3f
00000060: 44f1 7f3f 5600 803f 6400 803f aaff 7f3f
00000070: 4400 803f de07 803f 96fd 7f3f 9417 803f
00000080: 1fed 7f3f fbfd 7f3f 4100 803f 20ee 7f3f
00000090: 0000 803f 3b15 803f feff 7f3f 2f00 803f
000000a0: 36e6 7f3f 2c00 803f 1900 803f 10ed 7f3f
000000b0: b2ff 7f3f 5200 803f eaff 7f3f e50d 803f
000000c0: ebe5 7f3f 9903 803f 8a00 803f 2202 803f
000000d0: 0000 803f 03d4 7f3f 0000 803f 9fff 7f3f
000000e0: 3f00 803f 5d09 803f f40f 803f 59ff 7f3f
000000f0: 0000 803f d700 803f 1100 803f 0500 803f
00000100: cbff 7f3f 3000 803f 92fe 7f3f 2300 803f
00000110: 0000 803f f9ff 7f3f f5ff 7f3f 1700 803f
00000120: 0000 803f 1c00 803f 0800 803f 79fe 7f3f
00000130: ebff 7f3f 0b00 803f 0500 803f f5ff 7f3f
00000140: 2400 803f 2200 803f 0000 803f eeff 7f3f
00000150: 0000 803f dc00 803f 78ff 7f3f 0200 803f
00000160: 8a00 803f 1200 803f 0700 803f f1ff 7f3f
00000170: 1000 803f e5ff 7f3f 4200 803f ac11 803f
00000180: e6f4 7f3f 78ff 7f3f fbff 7f3f 2e00 803f
00000190: 0000 803f af07 803f 0700 803f 0000 803f
000001a0: 3300 803f a0ff 7f3f 0000 803f 8400 803f
000001b0: 0600 803f 0000 803f f3ff 7f3f 99ff 7f3f
000001c0: dbff 7f3f 0002 803f 3500 803f 1700 803f
000001d0: 0000 803f d0e6 7f3f d9ff 7f3f dbff 7f3f
000001e0: 1d00 803f 0b00 803f 0700 803f a9ff 7f3f
000001f0: 0000 803f 0800 803f 0000 803f 0000 803f
00000200: c505 803f 22e4 7f3f 64ff 7f3f 9eff 7f3f
00000210: 0000 803f 2f00 803f 0000 803f 0aec 7f3f
00000220: f5ff 7f3f 2f00 803f a200 803f 6cc4 7f3f
00000230: ebff 7f3f 4610 803f 911a 803f 0000 803f
00000240: d3e3 7f3f 5900 803f 0000 803f a4ff 7f3f
00000250: 0400 803f 9b37 803f 6bff 7f3f eaff 7f3f
00000260: 25eb 7f3f 3f00 803f 7c00 803f baff 7f3f
00000270: 3200 803f 0807 803f 76f9 7f3f 9c2e 803f
00000280: 2ac6 7f3f eefe 7f3f 3000 803f bfe1 7f3f
00000290: 0000 803f f625 803f 0400 803f 2700 803f
000002a0: fbce 7f3f 1200 803f 1400 803f faa8 7f3f
000002b0: c7ff 7f3f 3700 803f ecff 7f3f 0a19 803f
000002c0: dfac 7f3f 0214 803f 5c00 803f 6401 803f
000002d0: 0000 803f 72b0 7f3f 0000 803f a2ff 7f3f
000002e0: 3400 803f 5c2e 803f d314 803f adff 7f3f
000002f0: 0000 803f 9200 803f 0b00 803f 0300 803f
00000300: b5ff 7f3f 2d00 803f dafe 7f3f 1e00 803f
00000310: ffff 7f3f faff 7f3f f7ff 7f3f 0e00 803f
00000320: 0000 803f 0c00 803f 0500 803f 3bf8 7f3f
00000330: ebff 7f3f 0b00 803f 4e00 803f f9ff 7f3f
00000340: 2200 803f 2700 803f 0000 803f ebff 7f3f
00000350: ffff 7f3f ec04 803f 85ff 7f3f 0300 803f
00000360: 8800 803f 0f00 803f 0500 803f f4ff 7f3f
00000370: 0e00 803f e2ff 7f3f 3e00 803f 4914 803f
00000380: 80ee 7f3f 7cff 7f3f ffff 7f3f 3500 803f
00000390: 0000 803f 9906 803f 0b00 803f 0000 803f
000003a0: 2500 803f b2ff 7f3f 0000 803f 45f7 7f3f
000003b0: 0400 803f 0000 803f f1ff 7f3f 1600 803f
000003c0: 2cf3 7f3f 8101 803f 2100 803f 1400 803f
000003d0: 0000 803f 6cde 7f3f deff 7f3f dfff 7f3f
000003e0: 1b00 803f 5b01 803f 1200 803f b1ff 7f3f
000003f0: 0000 803f 3200 803f 0200 803f 0000 803f

layernorm.bias f4 [259, 64]
1.0517465e-05 -1.908168e-05 8.810392e-06 -1.3054265e-05 -8.68108e-06 5.3580143e-06 -1.052687e-05 -1.7295946e-06
1.0313301e-05 -1.5071752e-05 -7.302984e-06 -1.9004268e-05 3.811808e-06 2.161223e-05 2.2883347e-05 2.7847284e-06
-2.3996317e-06 -1.6999658e-05 -4.9122555e-06 -1.5503916e-05 -5.003147e-06 2.8305602e-05 -2.4129297e-06 2.1145017e-05
-4.1654785e-06 -4.7711605e-06 -3.1663394e-06 -2.198266e-07 -8.93049e-06 1.995e-05 8.11616e-06 2.0537744e-05
6.6437474e-06 9.727419e-07 6.556797e-06 -1.0403425e-05 9.006853e-06 2.020199e-05 -1.3322802e-05 9.369398e-06
-2.0493702e-05 1.5989885e-05 -2.6058052e-07 -1.0765778e-05 7.4420027e-06 -2.401112e-06 -1.575753e-08 1.621577e-05
-1.2229204e-05 1.7405771e-05 -6.0694124e-06 3.1696895e-06 -3.1087618e-06 -1.8524395e-05 1.4616752e-05 4.9941673e-06
-1.0511832e-05 3.7308186e-05 2.349217e-05 8.4484755e-06 6.603994e-06 1.2760586e-05 1.5014004e-05 -3.886179e-06
1.1584289e-05 -2.823733e-05 5.3412127e-06 -2.2939763e-05 -1.4371717e-05 -2.7888104e-06 -2.4543042e-05 -1.3779823e-05
1.2589876e-05 -2.0780275e-05 -1.6245525e-05 -3.5554258e-05 1.4343154e-06 3.1694253e-05 2.2075616e-05 1.0796207e-05
-1.199234e-05 -3.0255895e-05 -5.771393e-06 -1.3131378e-05 -1.829457e-05 4.5263827e-05 -1.2734702e-06 4.270382e-05
-1.251787e-05 -1.5415697e-05 -9.0852345e-06 1.1603202e-05 -1.5394002e-05 2.2239035e-05 -1.0876303e-05 3.9916285e-05
-1.3096821e-05 -4.3097343e-06 1.7280224e-06 -2.897229e-05 1.257887e-05 2.7951546e-05 -1.8767792e-05 4.0400664e-06
-3.112683e-05 3.9653754e-05 -5.9603058e-06 -4.4132674e-05 1.7117103e-05 -1.6816019e-05 -1.4540731e-05 7.926438e-06
-3.6039746e-05 2.8104283e-05 -2.0227637e-05 -7.5223543e-06 -6.9415723e-06 -3.9877246e-05 1.9783161e-05 1.4578162e-06
-1.8896448e-05 4.8752874e-05 2.9072777e-05 1.657312e-05 6.3244065e-06 2.5750367e-05 1.669533e-05 -1.4941666e-07
1.4079945e-05 -1.5827738e-05 4.1370636e-06 -1.47637675e-05 -2.690416e-06 4.091199e-06 -1.3960419e-05 -1.0970657e-05
1.9661635e-05 -1.3449553e-05 -1.2572678e-05 -2.1110203e-05 6.182557e-06 2.0725221e-05 1.3197638e-05 3.955957e-06
-3.700043e-06 -1.9495248e-05 -2.5292625e-06 -8.417805e-06 -9.545601e-06 3.6437446e-05 -4.013474e-06 3.3831737e-05
-5.7798256e-06 -1.2512233e-05 -5.7114476e-06 -2.2393745e-06 -6.704781e-06 1.6700003e-05 4.270264e-06 3.5989884e-05
-1.6763983e-06 8.864176e-07 1.0407531e-05 -1.2733846e-05 1.3109281e-05 2.0857897e-05 -2.0618634e-05 1.0620953e-05
-1.698111e-05 1.9712359e-05 -3.7256175e-06 -2.3346807e-05 1.3627933e-05 -8.627409e-06 -4.31896e-06 1.1896298e-05
-2.013935e-05 2.5493611e-05 -1.4625719e-05 -3.2878095e-06 -2.241919e-06 -2.8815792e-05 1.4084203e-05 -1.3981193e-06
-1.477424e-05 4.5148725e-05 3.1315314e-05 1.8232717e-05 -1.3088669e-07 1.8924595e-05 7.0092883e-06 1.8752965e-07
9.173603e-06 -2.0957747e-05 1.0023429e-06 -1.7305922e-05 -1.05900335e-05 1.4991172e-06 -2.045415e-05 -1.3055995e-05
1.2313e-05 -1.5708223e-05 -9.850068e-06 -3.1324962e-05 6.187358e-06 2.7633043e-05 1.2881849e-05 9.015839e-06
-9.50035e-06 -2.6334328e-05 -9.012822e-06 -8.460206e-06 -1.3646079e-05 3.3045377e-05 -7.967651e-06 4.1651383e-05
-1.5118745e-05 -2.1318116e-05 -9.149518e-06 1.1405619e-05 -6.1246806e-06 1.3849777e-05 -5.189139e-06 3.2196465e-05
-1.3870691e-05 -7.421615e-07 2.1085189e-06 -2.297973e-05 6.80659e-06 2.039333e-05 -1.1710494e-05 3.84741e-06
-1.9644573e-05 2.8380828e-05 -7.510657e-06 -3.5228386e-05 1.3156753e-05 -1.1625587e-05 -4.72761e-06 -2.521677e-06
-2.4189736e-05 2.5355554e-05 -1.5667412e-05 -7.638852e-06 5.8182565e-07 -3.153647e-05 1.7780812e-05 4.475315e-06
-1.2607452e-05 3.880552e-05 2.8888531e-05 1.1099096e-05 5.5345654e-06 2.0638969e-05 1.4490366e-05 3.2124896e-07
00000000: 2b74 3037 9911 a0b7 58d0 1337 a403 5bb7
00000010: f4a4 11b7 fec8 b336 909c 30b7 6b24 e8b5
00000020: 4a07 2d37 afdc 7cb7 280c f5b6 5b6b 9fb7
00000030: 5dce 7f36 e94b b537 9df5 bf37 45e1 3a36
00000040: 5c09 21b6 7d9a 8eb7 f4d3 a4b6 680e 82b7
00000050: b5e0 a7b6 d171 ed37 d1ed 21b6 9460 b137
00000060: 30c5 8bb6 f517 a0b6 4c7d 54b6 7a09 6cb4
00000070: 2ad4 15b7 4c5a a737 a42a 0837 7848 ac37
00000080: 5bed de36 288f 8235 7502 dc36 5f8a 2eb7
00000090: 241c 1737 7177 a937 0085 5fb7 4231 1d37
000000a0: e4e9 abb7 0422 8637 eae5 8bb4 aa9e 34b7
000000b0: 51b6 f936 ca22 21b6 2d5b 87b2 1a07 8837
000000c0: 082c 4db7 9c02 9237 dba7 cbb6 dab6 5436
000000d0: 1fa0 50b6 d664 9bb7 793a 7537 9293 a736
000000e0: fa5b 30b7 5c7b 1c38 0d11 c537 edbd 0d37
000000f0: e097 dd36 4d16 5637 a8e4 7b37 0666 82b6
00000100: 245a 4237 34df ecb7 ab38 b336 c46e c0b7
00000110: 0e1e 71b7 6627 3bb6 c8e1 cdb7 e42f 67b7
00000120: 1b39 5337 4d51 aeb7 0047 88b7 1820 15b8
00000130: b482 c035 72ef 0438 062f b937 5b21 3537
00000140: b532 49b7 0ace fdb7 e3a7 c1b6 d74e 5cb7
00000150: 4a77 99b7 aad9 3d38 1aec aab5 e11c 3338
00000160: d803 52b7 f550 81b7 c96c 18b7 60ab 4237
00000170: 5e22 81b7 f78d ba37 5e79 36b7 c96b 2738
00000180: 6bba 5bb7 569c 90b6 66ee e735 8509 f3b7
00000190: d609 5337 7d79 ea37 876f 9db7 e88f 8736
000001a0: 2e8e 02b8 e551 2638 a3fe c7b6 191b 39b8
000001b0: b396 8f37 2010 8db7 f7f3 73b7 cbfb 0437
000001c0: 6229 17b8 7dc1 eb37 85ae a9b7 8868 fcb6
000001d0: a7eb e8b6 de41 27b8 04f4 a537 2faa c335
000001e0: d083 9eb7 007c 4c38 50e1 f337 8106 8b37
000001f0: 3d36 d436 7e02 d837 f30c 8c37 576f 20b4
00000200: e738 6c37 cfc5 84b7 1bd1 8a36 e6b1 77b7
00000210: ff8c 34b6 2247 8936 8b37 6ab7 9d0e 38b7
00000220: 0aef a437 64a5 61b7 3eef 52b7 d115 b1b7
00000230: c373 cf36 13db ad37 6c6b 5d37 69bd 8436
00000240: 414e 78b6 ba89 a3b7 66bc 29b6 323a 0db7
00000250: 0b26 20b7 69d4 1838 7bab 86b6 8de6 0d38
00000260: 53f0 c1b6 a2eb 51b7 f6a4 bfb6 2948 16b6
00000270: a1f9 e0b6 fc16 8c37 4a49 8f36 d8f3 1638
00000280: 9b00 e1b5 27f2 6d35 019c 2e37 74a3 55b7
00000290: efef 5b37 fef7 ae37 2ef6 acb7 a530 3237
000002a0: a872 8eb7 f85b a537 9f05 7ab6 e3d8 c3b7
000002b0: 87a3 6437 71be 10b7 95eb 90b6 3696 4737
000002c0: edf0 a8b7 1ddb d537 fc60 75b7 23a4 5cb6
000002d0: e073 16b6 71b9 f1b7 314b 6c37 03a7 bbb5
000002e0: e1de 77b7 135e 3d38 9058 0338 76f2 9837
000002f0: dc89 0cb4 42c0 9e37 5431 eb36 c25b 4934
00000300: 53e8 1937 6bce afb7 3d88 8635 2f2c 91b7
00000310: d9ab 31b7 4635 c935 f494 abb7 120b 5bb7
00000320: ef93 4e37 27c5 83b7 b841 25b7 ec62 03b8
00000330: 009d cf36 82cd e737 1f1f 5837 bc42 1737
00000340: b163 1fb7 8ae8 dcb7 c735 17b7 4ff0 0db7
00000350: 77f1 64b7 349a 0a38 cdac 05b7 d5b2 2e38
00000360: 84a6 7db7 4ed4 b2b7 e180 19b7 c35a 3f37
00000370: 9b82 cdb6 575c 6837 5d1e aeb6 b10a 0738
00000380: 2ab6 68b7 f338 47b5 1480 0d36 98c4 c0b7
00000390: 2a64 e436 5812 ab37 3078 44b7 0019 8136
000003a0: 66ca a4b7 5d13 ee37 0d04 fcb6 31c2 13b8
000003b0: d3bb 5c37 840b 43b7 dca1 9eb6 153a 29b6
000003c0: 10eb cab7 a3b2 d437 836d 83b7 9f28 00b7
000003d0: c12e 1c35 0746 04b8 0128 9537 aa2a 9636
000003e0: 9884 53b7 1cc3 2238 a655 f237 4136 3a37
000003f0: 8eb5 b936 d921 ad37 a61b 7337 1f78 ac34

fc0.0.weight f4 [64, 64]
0.036779843 0.11546937 0.11672805 0.007471987 -0.09468393 -0.050337873 0.04000998 0.004343348
-0.022908336 0.08155653 0.078348115 0.124877304 0.037601016 0.011649882 0.10764865 -0.06332346
0.012221245 0.027570887 -0.05176921 0.08611882 0.085056484 0.033668134 -0.003626515 0.07640166
0.08379853 0.098664716 -0.10996084 -0.08709392 -0.11431044 -0.007624425 0.096191004 0.08523554
0.06582166 0.031876963 0.008884047 0.07535324 -0.037219655 -0.04320902 -0.028268047 0.027480777
-0.06286048 -0.07774651 0.10212841 0.11948136 0.024635294 -0.0727538 -0.03404564 0.08737772
-0.041073382 0.017165998 0.062897354 -0.0080048 -0.05395634 -0.09125 -0.0062738447 -0.10836925
-0.018249223 -0.08220965 0.099584416 0.01556075 0.038985644 -0.0014841278 0.0004938841 0.071776345
0.055838708 -0.05369298 -0.06488627 0.046118982 -0.030972604 0.090816155 -0.04313165 0.078093536
0.012723033 0.08163624 0.005160748 -0.079829946 0.0812095 0.046133436 0.069073394 0.09085318
-0.06942481 0.10943715 0.070968635 0.114054054 -0.07280987 0.108762145 -0.07546419 0.10997637
0.082764566 0.007404288 0.075189516 0.10620363 -0.0447664 0.1153103 -0.025261723 0.032779194
0.013725562 -0.013475588 -0.016567755 -0.02156749 0.119681425 0.042226985 0.020218961 -0.08433014
-0.029845722 -0.08094326 -0.058421675 -0.06567196 0.045778543 0.068612434 0.06002426 -0.11859457
-0.011379275 -0.1080818 -0.055140596 0.12007088 -0.0816643 0.11060856 0.10642419 0.0027989713
0.11774127 0.10186352 0.010677376 0.043450013 -0.11177743 -0.058927312 0.0034069524 -0.1069871
-0.008912314 0.008464656 0.08436232 0.0933032 0.053945526 0.021769678 -0.009444146 -0.031648953
-0.08318909 -0.11908022 -0.108920544 0.08496266 0.06201881 0.0021926924 -0.02702232 -0.028242756
0.04539364 -0.05464832 -0.05312437 -0.06292717 -0.10895984 -0.05042044 0.077470444 0.00097526325
-0.08622107 0.0005153978 0.007224985 -0.10283612 -0.10336823 0.0038534533 -0.09794633 0.08322741
0.025002616 0.07885741 0.07105022 0.050922874 0.067561135 0.05670981 -0.062298972 -0.113275826
0.097907364 -0.044701222 0.094833575 -0.055494998 0.03149368 -0.1152332 0.082209684 -0.03040497
0.12158584 0.12236857 0.0025843757 0.038545363 -0.09204914 -0.079048015 -0.046222925 -0.08865367
-0.04612008 0.03061585 -0.030423196 -0.020467743 0.059040487 -0.06995198 -0.02612919 -0.0013539352
-0.11064454 0.04100517 0.09552145 0.124089226 -0.0706984 -0.03071835 0.08433386 -0.08141907
-0.08570455 0.023599666 0.09464394 -0.120947175 -0.09089805 -0.03727921 -0.06328568 0.04217431
0.055765953 0.058845572 -0.05626033 0.009033232 -0.02313423 -0.07993258 -0.119985774 0.10700217
0.034256063 -0.04292596 -0.063547 0.04999312 0.097638376 -0.00016150094 0.1161091 -0.108914666
-0.10789684 0.06192749 -0.10907439 -0.009865797 0.09096845 0.014237838 0.073027186 -0.03478985
-0.0757262 -0.046612304 -0.07608862 0.11084554 0.025972636 0.041257713 -0.015803723 -0.12080165
0.055538986 -0.08214812 0.028467553 0.057360325 0.01312842 -0.065764 -0.11509818 0.07263026
-0.013279099 0.08966469 -0.052556302 0.031822555 0.08260404 -0.00010762561 -0.06396853 0.08407605
00000000: 76a6 163d 347b ec3d 1e0f ef3d 92d7 f43b
00000010: a6e9 c1bd 162f 4ebd 81e1 233d a552 8e3b
00000020: 43aa bbbc 1c07 a73d fa74 a03d acbf ff3d
00000030: 8603 1a3d 26df 3e3c e576 dc3d bbaf 81bd
00000040: 9e3b 483c 57dc e13c f30b 54bd 105f b03d
00000050: 1832 ae3d 99e7 093d d3aa 6dbb 7978 9c3d
00000060: 909e ab3d ba10 ca3d 2633 e1bd 4c5e b2bd
00000070: 981b eabd 50d6 f9bb caff c43d f98f ae3d
00000080: 82cd 863d 6b91 023d 658e 113c cd52 9a3d
00000090: a373 18bd f1fb 30bd 6492 e7bc 5e1f e13c
000000a0: ffbc 80bd 9039 9fbd b328 d13d a5b2 f43d
000000b0: f5cf c93c f2ff 94bd 7173 0bbd 17f3 b23d
000000c0: 903c 28bd b59f 8c3c 54d0 803d 9126 03bc
000000d0: 5301 5dbd 48e1 babd d394 cdbb b3f0 ddbd
000000e0: 657f 95bc 885d a8bd eaf2 cb3d 84f2 7e3c
000000f0: 69af 1f3d 1187 c2ba 0078 013a 7aff 923d
00000100: 21b7 643d 2ced 5bbd 18e3 84bd 42e7 3c3d
00000110: 42ba fdbc d2fd b93d d0aa 30bd 81ef 9f3d
00000120: 4574 503c e730 a73d 7e1b a93b e27d a3bd
00000130: 2b51 a63d 6af6 3c3d 5a76 8d3d 3b11 ba3d
00000140: 982e 8ebd 9620 e03d 0158 913d 2c95 e93d
00000150: 571d 95bd b0be de3d f88c 9abd 4b3b e13d
00000160: 7880 a93d ab9f f23b f6fc 993d 4a81 d93d
00000170: f95c 37bd ce27 ec3d acf1 cebc 7a43 063d
00000180: 2ee1 603c b6c8 5cbc 1ab9 87bc 4eae b0bc
00000190: 891b f53d 34f6 2c3d 3ca2 a53c 48b5 acbd
000001a0: 047f f4bc 94c5 a5bd 914b 6fbd 057f 86bd
000001b0: 4882 3b3d ad84 8c3d 00dc 753d b6e1 f2bd
000001c0: 2370 3abc fe59 ddbd 1bdb 61bd b9e7 f53d
000001d0: 9d3f a7bd be86 e23d edf4 d93d f26e 373b
000001e0: 5622 f13d d29d d03d 29f0 2e3c a4f8 313d
000001f0: 91eb e4bd c45d 71bd 2d47 5f3b 0d1c dbbd
00000200: f404 12bc 57af 0a3c 27c6 ac3d c015 bf3d
00000210: fcf5 5c3d 5356 b23c 9fbb 1abc 55a2 01bd
00000220: 0b5f aabd 55e0 f3bd bc11 dfbd e700 ae3d
00000230: 7007 7e3d 46b3 0f3b ea5d ddbc 5a5d e7bc
00000240: aeee 393d ebd6 5fbd f098 59bd f6df 80bd
00000250: 5626 dfbd aa85 4ebd d3a8 9e3d cfa8 7f3a
00000260: ac94 b0bd c31b 073a 91bf ec3b be9b d2bd
00000270: b9b2 d3bd 388a 7c3b 1698 c8bd 2273 aa3d
00000280: 49d2 cc3c fe7f a13d c782 913d 8194 503d
00000290: 7e5d 8a3d 8c48 683d 352d 7fbd 28fd e7bd
000002a0: a883 c83d a118 37bd 1b38 c23d b94e 63bd
000002b0: 84ff 003d 62ff ebbd 8d5d a83d d813 f9bc
000002c0: ff01 f93d 5f9c fa3d a15e 293b bee1 1d3d
000002d0: 4284 bcbd ede3 a1bd 4054 3dbd 0e90 b5bd
000002e0: 69e8 3cbd 17ce fa3c 113a f9bc f8ab a7bc
000002f0: 70d4 713d fc42 8fbd e20c d6bc 8776 b1ba
00000300: 9b99 e2bd 0af5 273d c0a0 c33d 7e22 fe3d
00000310: 53ca 90bd 0da5 fbbc 3bb7 ac3d 0bbf a6bd
00000320: de85 afbd 1654 c13c afd4 c13d 27b3 f7bd
00000330: c228 babd 16b2 18bd ec9b 81bd f8be 2c3d
00000340: d76a 643d 0e08 713d 3b71 66bd 1f00 143c
00000350: ff83 bdbc b1b3 a3bd 1abb f5bd f423 db3d
00000360: 1650 0c3d 22d3 2fbd ee24 82bd 96c5 4c3d
00000370: a1f6 c73d 9458 29b9 9cca ed3d a70e dfbd
00000380: 05f9 dcbd aea7 7d3d 6562 dfbd 27a4 21bc
00000390: ab4d ba3d d245 693c 478f 953d cd7f 0ebd
000003a0: 5716 9bbd 8bec 3ebd 5ad4 9bbd fd02 e33d
000003b0: 91c4 d43c d9fd 283d cf76 81bc db66 f7bd
000003c0: d97c 633d 463d a8bd c934 e93c a9f2 6a3d
000003d0: 9618 573c 47af 86bd 98b8 ebbd 2cbf 943d
000003e0: 9490 59bc 1fa2 b73d 4745 57bd 5e58 023d
000003f0: 4f2c a93d 0fb5 e1b8 ef01 83bd 1030 ac3d

fc0.0.bias f4 [64]
-0.12413431 -0.10884695 -0.012111107 -0.027534874 -0.08104032 -0.09548206 -0.04908587 -0.060303792
-0.037011806 0.0384424 0.11361183 -0.040767197 0.017654218 -0.10544407 0.111350074 0.029231407
-0.1085867 0.0510868 -0.088577986 0.06451157 -0.10908156 -0.023927042 -0.09078694 -0.030284537
-0.07720828 0.033288788 0.07763362 0.03803636 0.071805604 -0.092037365 -0.050009407 0.05529806
-0.027065314 0.07344971 -0.12028952 -0.011041237 0.061861984 -0.024998594 0.038524095 -0.08758637
0.030328343 0.04057994 0.0032045103 -0.0346702 0.0367188 0.04381128 -0.104004055 -0.036231626
0.101411976 0.06934622 -0.036810517 0.017834581 -0.08764242 0.08179122 -0.02230068 0.043820057
0.07311523 -0.07204156 -0.035421215 -0.06257192 0.062453557 -0.09850778 0.06227435 0.04197497
00000000: 213a febd 26eb debd aa6d 46bc d190 e1bc
00000010: 78f8 a5bd 198c c3bd 440e 49bd 1c01 77bd
00000020: b199 17bd c775 1d3d 52ad e83d 81fb 26bd
00000030: 949f 903c 10f3 d7bd 820b e43d b476 ef3c
00000040: b462 debd 6440 513d 6068 b5bd a41e 843d
00000050: 2766 dfbd a502 c4bc 81ee b9bd 4717 f8bc
00000060: 601f 9ebd d359 083d 60fe 9e3d 04cc 1b3d
00000070: d10e 933d 167e bcbd aad6 4cbd 3880 623d
00000080: 14b8 ddbc cd6c 963d 5a5a f6bd 4ee6 34bc
00000090: fe62 7d3d dac9 ccbc 71cb 1d3d 7c60 b3bd
000000a0: 2573 f83c 2737 263d c302 523b 5702 0ebd
000000b0: 7466 163d 7573 333d 1400 d5bd 9d67 14bd
000000c0: 15b1 cf3d 6405 8e3d a0c6 16bd d419 923c
000000d0: de7d b3bd 2882 a73d eaaf b6bc a97c 333d
000000e0: 70bd 953d 878a 93bd d615 11bd b525 80bd
000000f0: 4dcf 7f3d 72be c9bd 6413 7f3d f2ed 2b3d

fc1.0.weight f4 [64, 64]
-0.056545913 -0.09409822 0.03384221 -0.08759441 0.045180235 -0.10554037 -0.116200976 0.07846539
0.016410531 0.1037937 0.090714335 0.058397118 -0.05120899 -0.04034765 0.09223007 0.113279566
-0.038435392 -0.0003002222 -0.021002034 0.10333671 0.09946553 -0.045882743 0.05118443 0.075041994
-0.03268825 0.09130615 0.092243575 0.06545385 -0.12148285 -0.10697819 -0.09003259 0.10254809
0.113695525 -0.049891014 -0.11378315 0.0031938548 -0.105669685 0.0640136 -0.11960431 0.0027760088
0.032586385 -0.016668476 0.008682945 0.054345567 0.09209172 -0.08678307 0.11225164 0.0976297
-0.05290983 0.029722106 -0.0022034678 0.053207885 -0.04488663 -0.090581425 0.026172334 -0.059972435
0.0940433 -0.08266513 0.05230047 0.058839608 -0.025666453 -0.025225231 -0.02365225 0.011127698
0.04400936 0.07538974 0.09661293 -0.03173864 -0.12037114 -0.06792725 -0.093859434 0.049423326
-0.026166622 -0.09210686 -0.0012684951 0.043639537 0.02435691 -0.086410254 0.035789087 0.12406441
0.016146863 0.069419585 0.0019718427 -0.0061733215 -0.05759591 0.0041561686 -0.10025721 -0.050967496
0.027022969 0.08802437 0.10785158 -0.0056188796 -0.07178129 -0.0069187908 -0.029920671 0.057304703
0.006568417 -0.06950157 0.06929619 0.05245112 -0.05104444 0.062114194 0.07084595 0.121477336
0.1020636 0.10995106 0.009788427 -0.12366588 0.103074245 0.060006753 -0.0848903 0.033409074
0.088143185 0.102895424 0.026876498 -0.12502867 -0.07138735 -0.057220235 -0.09228948 -0.05040634
0.025518 -0.03448445 -0.08921101 0.09259504 -0.09058812 0.038224313 -0.048850562 -0.04685835
-0.061101884 0.0553191 -0.0039154505 0.12199418 -0.08805123 0.07147643 0.014730151 -0.044294767
0.07245414 -0.053334955 0.11207326 0.015065743 -0.07916988 -0.007205227 -0.08065371 -0.022612559
-0.09074236 0.022687005 -0.0937408 -0.06510144 0.08552764 -0.04564868 -0.11181651 -0.09936293
0.069414735 0.044698525 0.09659488 0.09284166 -0.038153492 0.10317582 -0.120467454 -0.080021404
-0.08064106 0.010963589 0.11018283 -0.07072311 0.092849575 -0.057184145 0.11910583 -0.06959614
0.010404937 -0.11194275 -0.021272566 -0.079412684 -0.04266589 0.10010302 0.050160747 0.12405043
0.09767825 0.009980205 -0.09142922 0.061783765 0.1048901 -0.09414507 -0.1184523 0.058686625
-0.09615917 0.019647649 -0.08961014 -0.021810448 0.059361104 -0.059934616 0.08513467 -0.056835953
-0.026387187 0.114700526 0.07964516 0.055746052 -0.0774557 0.06253915 0.031615745 -0.07906383
0.01991525 0.09780069 -0.0021337376 -0.10493834 0.06003015 -0.030665329 0.039557178 -0.12135939
0.0072577987 0.011065631 -0.05638651 -0.096231624 -0.08270368 -0.10260757 0.023729637 -0.007891638
0.036586825 -0.060185436 -0.11735015 -0.07598775 -0.023291983 -0.06902916 -0.081550434 -0.11190243
0.09604284 -0.014891471 -0.09191625 0.10520739 -0.097088456 -0.11665575 0.061859243 -0.037095517
0.09298501 -0.07870876 0.09222896 -0.09805187 -0.0065000746 -0.05402885 -0.016684672 0.05634933
-0.11519769 0.020012828 -0.10677983 0.057037048 0.0057966295 -0.015874038 0.022938488 0.022076067
-0.10020498 0.04216696 -0.009278319 -0.017784018 0.116518565 -0.056137256 -0.06774853 0.11744512
00000000: b09c 67bd 91b6 c0bd 219e 0a3d b364 b3bd
00000010: e90e 393d 8d25 d8bd c7fa edbd 76b2 a03d
00000020: 616f 863c cb91 d43d 70c8 b93d d131 6f3d
00000030: 85c0 51bd 9443 25bd 1ee3 bc3d 1eff e73d
00000040: 6e6e 1dbd 2467 9db9 750c acbc 32a2 d33d
00000050: 95b4 cb3d 8bef 3bbd c4a6 513d 9eaf 993d
00000060: 1de4 05bd b8fe ba3d 33ea bc3d ab0c 863d
00000070: 00cc f8bd 6217 dbbd 0263 b8bd bc04 d23d
00000080: 33d9 e83d 855a 4cbd 2407 e9bd fe4f 513b
00000090: 5969 d8bd 9019 833d 1bf3 f4bd b3ed 353b
000000a0: 4d79 053d 548c 88bc e942 0e3c 7599 5e3d
000000b0: 959a bc3d 52bb b1bd 30e4 e53d 15f2 c73d
000000c0: fab7 58bd c67b f33c 0e68 10bb 83f0 593d
000000d0: 0bdb 37bd c182 b9bd 5d67 d63c a8a5 75bd
000000e0: c699 c03d 564c a9bd 0539 563d cd01 713d
000000f0: 7442 d2bc 25a5 cebc 5dc2 c1bc f350 363c
00000100: 2943 343d f065 9a3d 00dd c53d 6000 02bd
00000110: 2585 f6bd 711d 8bbd 6039 c0bd 1d70 4a3d
00000120: 625b d6bc 85a2 bcbd a243 a6ba 5fbf 323d
00000130: 2488 c73c dcf7 b0bd 9497 123d 7b15 fe3d
00000140: 6d46 843c db2b 8e3d 083a 013b 9349 cabb
00000150: b0e9 6bbd 7830 883b a753 cdbd 4bc3 50bd
00000160: 465f dd3c 1f46 b43d 4ae1 dc3d 941e b8bb
00000170: 1202 93bd 06b7 e2bb 321c f5bc 56b8 6a3d
00000180: e03b d73b d756 8ebd 29eb 8d3d fcd6 563d
00000190: fa13 51bd 746b 7e3d ae17 913d 1cc9 f83d
000001a0: b906 d13d 052e e13d a35f 203c 8944 fdbd
000001b0: 9718 d33d a4c9 753d f7da adbd f4d7 083d
000001c0: 6a84 b43d d6ba d23d 1a2c dc3c 8407 00be
000001d0: 8833 92bd c45f 6abd 4402 bdbd e176 4ebd
000001e0: 200b d13c 913f 0dbd 43b4 b6bd 78a2 bd3d
000001f0: 4486 b9bd 1991 1c3d 8717 48bd 8bee 3fbd
00000200: f845 7abd 4896 623d 2e4d 80bb 16d8 f93d
00000210: 3454 b4bd 3c62 923d bb56 713c 6e6e 35bd
00000220: d662 943d c175 5abd aa86 e53d 4ed6 763c
00000230: d123 a2bd d319 ecbb c62d a5bd f93d b9bc
00000240: 21d7 b9bd 19da b93c 2dfb bfbd e753 85bd
00000250: 1e29 af3d 1cfa 3abd 0e00 e5bd cb7e cbbd
00000260: 5029 8e3d cd15 373d 89d3 c53d c523 be3d
00000270: d646 1cbd d84d d33d a4b7 f6bd 43e2 a3bd
00000280: 2427 a5bd a0a0 333c 89a7 e13d 47d7 90bd
00000290: eb27 be3d ec39 6abd c2ed f33d 6c88 8ebd
000002a0: 7879 2a3c 3e42 e5bd ce43 aebc 1ea3 a2bd
000002b0: 6ec2 2ebd d002 cd3d 5b75 4d3d 270e fe3d
000002c0: 890b c83d 0484 233c 3e3f bbbd f910 7d3d
000002d0: 9fd0 d63d 21cf c0bd 1f97 f2bd 6361 703d
000002e0: 19ef c4bd 1bf4 a03c 8585 b7bd d3ab b2bc
000002f0: a124 733d 007e 75bd 165b ae3d d1cc 68bd
00000300: f129 d8bc 1ce8 ea3d 001d a33d f955 643d
00000310: 18a1 9ebd 8714 803d 837f 013d 38ec a1bd
00000320: 4e25 a33c ba4b c83d 2dd6 0bbb eae9 d6bd
00000330: 2de2 753d db35 fbbc b506 223d 468b f8bd
00000340: d4d2 ed3b 9f4c 353c 8bf5 66bd 1615 c5bd
00000350: 8c60 a9bd eb23 d2bd a864 c23c ee4b 01bc
00000360: 11dc 153d 0185 76bd 4755 f0bd 779f 9bbd
00000370: d4ce bebc 295f 8dbd ea03 a7bd 1a2d e5bd
00000380: 1cb2 c43d 5bfb 73bc 963e bcbd f976 d73d
00000390: 50d6 c6bd 36e9 eebd 1e60 7d3d 78f1 17bd
000003a0: ed6e be3d 0f32 a1bd 89e2 bc3d 6bcf c8bd
000003b0: 94fe d4bb 5b4d 5dbd 4bae 88bc 8ece 663d
000003c0: c4ec ebbd f1f1 a33c 62af dabd ae9f 693d
000003d0: a7f1 bd3b 450a 82bc 7fe9 bb3c ded8 b43c
000003e0: 4538 cdbd 43b7 2c3d 1704 18bc caaf 91bc
000003f0: 49a1 ee3d 2ef0 65bd bebf 8abd 1187 f03d

fc1.0.bias f4 [64]
0.04370577 -0.07193651 0.040330295 0.013425563 0.0013582399 -0.076426245 0.10360886 0.04153262
0.110840775 -0.030314837 0.015170607 0.03126888 -0.0031200647 0.11534114 0.10422361 -0.00023246369
-0.013473448 -0.06824742 -0.10241898 0.082461126 -0.07170627 0.018392215 0.0825852 -0.047009278
-0.040401515 0.021036163 -0.02394491 0.09763281 -0.011503716 -0.11462177 0.10661524 0.043163087
0.08121344 0.00032984235 0.094396435 0.07567183 -0.10808897 -0.06963842 -0.09201565 -0.0808584
-0.026915304 0.041121278 -0.011827353 0.055732448 -0.07951233 -0.1153525 -0.11748733 -0.1163507
0.123234436 -0.1240647 -0.061090346 0.090371475 -0.023148999 -0.061430242 -0.020952445 0.109813504
0.0026376313 0.0932085 0.01336025 -0.054474305 -0.11841582 -0.047530584 0.071126364 0.120459616
00000000: d204 333d 7353 93bd 6131 253d e5f6 5b3c
00000010: f806 b23a 5d85 9cbd e230 d43d 1c1e 2a3d
00000020: 7d00 e33d d256 f8bc 238e 783c cc13 003d
00000030: 007a 4cbb fa37 ec3d 3073 d53d 7fc1 73b9
00000040: bdbf 5cbc 4ec5 8bbd 0bc1 d1bd 61e1 a83d
00000050: bdda 92bd 45ab 963c 6e22 a93d cd8c 40bd
00000060: 0f7c 25bd 0854 ac3c 1e28 c4bc b6f3 c73d
00000070: 157a 3cbc d2be eabd 1759 da3d c7cb 303d
00000080: 3b53 a63d b1ee ac39 eb52 c13d d5f9 9a3d
00000090: c05d ddbd 979e 8ebd b372 bcbd 1799 a5bd
000000a0: 7c7d dcbc c96e 283d 84c7 41bc b547 643d
000000b0: 5cd7 a2bd ee3d ecbd 339d f0bd 4749 eebd
000000c0: 5662 fc3d a215 febd df39 7abd ae14 b93d
000000d0: f8a2 bdbc 479e 7bbd 76a4 abbc e7e5 e03d
000000e0: 1cdc 2c3b 19e4 be3d f3e4 5a3c 7320 5fbd
000000f0: fe83 f2bd 6eaf 42bd b3aa 913d 88b3 f63d

fc2.0.weight f4 [64, 64]
-0.09768637 0.114715636 -0.10267499 -0.040423747 -0.120563455 -0.002703947 -0.10114062 0.055142287
-0.006756993 0.07661908 -0.04573296 -0.04307023 0.045968994 -0.101699695 -0.09999849 -0.105837114
0.043934032 0.10683812 -0.07911263 0.09740034 -0.07038541 0.021128397 0.055520035 -0.0059286105
-0.0954311 -0.106114015 0.09414838 -0.09142255 -0.061148982 -0.08095162 -0.096302606 -0.04112263
-0.080168225 0.031059757 0.0416978 -0.11176484 -0.11306589 -0.09631576 -0.04434516 -0.04390491
-0.016024282 0.043104026 0.1015342 -0.110116996 -0.009857515 0.0858011 0.024108082 0.105815455
0.09746683 0.04833919 -0.05393496 0.05410086 -0.0121718785 -0.0036924898 0.03844453 -0.007935059
-0.04814055 -0.028204646 -0.120439194 0.03253347 0.11335316 0.10908829 0.041031048 -0.09601272
-0.064780004 -0.0589582 0.013018386 -0.06719571 0.10261854 -0.056019813 0.11450673 -0.07424477
-0.018204285 -0.010764245 -0.09320045 0.10536683 -0.036316626 -0.111362465 0.123865806 -0.05365091
-0.014193477 0.07721521 0.022600653 -0.098916605 0.041596778 0.04295423 -0.02564426 -0.106028
0.047790937 0.106668614 -0.05127006 0.015252265 -0.047536608 -0.06540739 -0.062802 -0.095236234
-0.075738996 -0.05153268 0.05796361 -0.013737424 -0.12426099 0.02108912 0.053983886 -0.092026494
0.08197034 0.072017446 -0.08338276 0.06465169 -0.0009582039 -0.0679674 0.073274046 -0.015736787
0.01762683 -0.036285404 0.021023592 0.029329166 0.011484646 0.0099445265 0.12200034 0.06714407
0.07914443 0.027825607 -0.06412754 -0.11043497 -0.013138212 0.050458845 0.050055243 0.028026046
0.026242772 0.014076286 0.06330479 0.08802278 0.111519925 0.042021755 0.04489788 0.010894842
0.043444317 0.05757417 -0.055355527 -0.048177853 0.085452534 -0.07239409 -0.064950906 -0.109971404
-0.08990107 -0.06441156 -0.109169185 0.03221655 0.041455176 0.07946129 0.030222723 0.0095865885
-0.012305776 -0.075850114 0.044794846 0.07331855 -0.0016118886 0.055693675 0.039837033 -0.06564014
-0.07260721 -0.0032150345 -0.09574732 0.0025395965 -0.08263318 -0.08244107 0.01762424 -0.011395984
0.03948112 -0.07266267 0.020427272 -0.06889031 -0.022131663 -0.049151473 0.028484777 -0.10817031
0.017156418 -0.10100732 -0.06790725 0.057528242 -0.10101536 -0.006206516 -0.10775735 -0.012017308
-0.059728526 -0.059598435 -0.0064094537 -0.0061106198 0.10650024 0.117925845 -0.07771781 -0.09891975
-0.11222361 0.008728561 -0.12269874 -0.093486495 -0.024015622 0.04505665 -0.021003697 0.07685586
0.11745819 0.0010596324 0.016966494 0.061897624 -0.09105653 0.120683566 0.060038492 -0.043738987
-0.088205114 -0.119343 -0.085874 0.051719293 0.016207315 0.080788724 -0.12074366 -0.05557558
-0.037114426 -0.010937601 0.0004165799 -0.12169041 0.09641941 -0.06855862 0.088849686 -0.073876865
-0.11278009 -0.07118239 0.108206205 -0.06098085 -0.0037569073 -0.0847381 -0.108367376 0.09176668
-0.037655525 -0.074806064 -0.045319144 -0.07334848 0.037461545 0.09000117 0.08598328 0.047770083
-0.12403219 -0.07833312 -0.01889499 -0.0850064 -0.11699312 0.1052633 -0.08291209 -0.0066009895
-0.040102076 0.06420893 -0.08200477 0.11171363 0.009489091 0.09152154 0.086096786 0.030868106
00000000: cb0f c8bd 08f0 ea3d 4447 d2bd 5f93 25bd
00000010: f9e9 f6bd b434 31bb d022 cfbd e1dc 613d
00000020: c469 ddbb 77ea 9c3d 7c52 3bbd 696a 30bd
00000030: fc49 3c3d ee47 d0bd 02cc ccbd 21c1 d8bd
00000040: 2cf4 333d f2cd da3d cd05 a2bd d479 c73d
00000050: 3a26 90bd 7615 ad3c fa68 633d ca44 c2bb
00000060: 6171 c3bd 4e52 d9bd ded0 c03d bf3b bbbd
00000070: 5b77 7abd f7c9 a5bd 4d3a c5bd 3470 28bd
00000080: 3d2f a4bd 0871 fe3c 50cb 2a3d f7e4 e4bd
00000090: 178f e7bd 3241 c5bd 45a3 35bd a3d5 33bd
000000a0: 5b45 83bc d98d 303d 2af1 cf3d 0585 e1bd
000000b0: 6a81 21bc 7db8 af3d 507e c53c c6b5 d83d
000000c0: b09c c73d 51ff 453d e8ea 5cbd dd98 5d3d
000000d0: 8f6c 47bc b3fd 71bb 0378 1d3d 0d02 02bc
000000e0: 062f 45bd 6e0d e7bc d3a8 f6bd d141 053d
000000f0: b425 e83d ae69 df3d 2c10 283d 51a2 c4bd
00000100: 61ab 84bd 277e 71bd 124b 553c e89d 89bd
00000110: ab29 d23d 0875 65bd 8182 ea3d a40d 98bd
00000120: 2721 95bc 845c 30bc e1df bebd 91ca d73d
00000130: bec0 14bd 0112 e4bd 5bad fd3d 0ec1 5bbd
00000140: c28b 68bc 0223 9e3d 0125 b93c ca94 cabd
00000150: 6261 2a3d c6f0 2f3d e913 d2bc 3525 d9bd
00000160: 6ec0 433d 1375 da3d 8e00 52bd a3e4 793c
00000170: bfb5 42bd 4ff4 85bd 569e 80bd 370b c3bd
00000180: 0c1d 9bbd ee13 53bd 406b 6d3d ef12 61bc
00000190: 8c7c febd 17c3 ac3c 351e 5d3d 6378 bcbd
000001a0: 11e0 a73d e27d 933d 95c4 aabd 1b68 843d
000001b0: fa2f 7bba 7e32 8bbd b410 963d 6fea 80bc
000001c0: 2466 903c 01a0 14bd ab39 ac3c b843 f03c
000001d0: 192a 3c3c 5eee 223c 50db f93d d582 893d
000001e0: 7a16 a23d 87f2 e33c 4d55 83bd bb2b e2bd
000001f0: a841 57bc efad 4e3d ba06 4d3d e196 e53c
00000200: 15fb d63c 39a0 663c f1a5 813d 4a45 b43d
00000210: 8f64 e43d 011f 2c3d d7e6 373d 4880 323c
00000220: abf2 313d e5d2 6b3d 7abc 62bd 2456 45bd
00000230: bd01 af3d 5a43 94bd fb04 85bd b038 e1bd
00000240: 0d1e b8bd 35ea 83bd 1894 dfbd 80f5 033d
00000250: e7cc 293d 9abc a23d a595 f73c 1111 1d3c
00000260: 2a9e 49bc 4e57 9bbd cd7a 373d 0928 963d
00000270: 0246 d3ba 0d1f 643d 282c 233d 566e 86bd
00000280: 17b3 94bd 54b3 52bb 2c17 c4bd 5c6f 263b
00000290: 963b a9bd ddd6 a8bd b660 903c 39b6 3abc
000002a0: f4b6 213d 2ad0 94bd 1857 a73c 5d16 8dbd
000002b0: 764d b5bc 0e53 49bd e858 e93c 6588 ddbd
000002c0: 9e8b 8c3c eddc cebd f512 8bbd bca2 6b3d
000002d0: 24e1 cebd 0860 cbbb e3af dcbd 3ee4 44bc
000002e0: e6a5 74bd 7d1d 74bd 6506 d2bb 983b c8bb
000002f0: cc1c da3d 1b83 f13d 842a 9fbd 7096 cabd
00000300: 7ed5 e5bd 3d02 0f3c 7a49 fbbd d975 bfbd
00000310: 69bc c4bc 528d 383d f20f acbc 9b66 9d3d
00000320: eb8d f03d 5de3 8a3a 51fd 8a3c 5d88 7d3d
00000330: d97b babd f228 f73d ecea 753d a727 33bd
00000340: e2a4 b4bd 1a6a f4bd b5de afbd 9cd7 533d
00000350: 34c5 843c 8f74 a53d 7448 f7bd 38a3 63bd
00000360: 4c05 18bd a033 33bc 6868 da39 d238 f9bd
00000370: 8a77 c53d 7668 8cbd d3f6 b53d c14c 97bd
00000380: 3ff9 e6bd 13c8 91bd 379b dd3d 0ec7 79bd
00000390: 7236 76bb 2b8b adbd b7ef ddbd 2bf0 bb3d
000003a0: ae3c 1abd ec33 99bd 91a0 39bd ba37 96bd
000003b0: 4771 193d 8952 b83d 0018 b03d 90aa 433d
000003c0: 9704 febd 1d6d a0bd abc9 9abc d617 aebd
000003d0: 179a efbd 4994 d73d d0cd a9bd 1d4d d8bb
000003e0: 1342 24bd f97f 833d 1ef2 a7bd 1eca e43d
000003f0: 2278 1b3c a56f bb3d 8353 b03d 1cdf fc3c

fc2.0.bias f4 [64]
-0.08064481 -0.09246026 -0.108410254 0.101121806 0.044947337 -0.11074676 -0.037570853 -0.0007019592
0.06354241 -0.08300351 0.037838683 0.03615257 0.09602216 -0.10031402 0.1197706 0.049027834
-0.07181775 -0.042983983 -0.02773989 0.052908473 -0.0065287133 -0.06947129 0.030967416 0.08307499
0.03400821 0.12360483 0.04955946 0.054150973 0.025760168 -0.10756772 0.075605065 -0.036830775
-0.08846386 0.05194537 -0.059554435 0.06791585 -0.10872492 -0.12084087 0.06319129 0.09415118
-0.07637128 0.043264117 -0.005572718 -0.1165879 -0.06275366 0.0016357661 -0.107233405 -0.020745423
-0.0068521393 0.04564408 -0.05430923 -0.0731316 0.11197199 0.039775264 -0.055854924 0.038318463
-0.0569808 -0.11440629 0.024224455 0.07789024 0.095517516 0.095271744 0.08946078 0.1223483
00000000: 1b29 a5bd ce5b bdbd 3206 debd f318 cf3d
00000010: b31a 383d 33cf e2bd e5e3 19bd af03 38ba
00000020: 8622 823d bffd a9bd bcfc 1a3d b814 143d
00000030: 44a7 c43d 7071 cdbd 4a4a f53d 69d1 483d
00000040: 2f15 93bd f90f 30bd c43e e3bc 8eb6 583d
00000050: d1ee d5bb f746 8ebd 61af fd3c 3823 aa3d
00000060: 314c 0b3d 8724 fd3d dcfe 4a3d 69cd 5d3d
00000070: fd06 d33c 774c dcbd d4d6 9a3d dedb 16bd
00000080: 8a2c b5bd abc4 543d 5aef 73bd 7717 8b3d
00000090: 2cab debd 6b7b f7bd 6f6a 813d 55d2 c03d
000000a0: 8c68 9cbd b735 313d 599b b6bb a3c5 eebd
000000b0: fe84 80bd 3467 d63a 309d dbbd 4ef2 a9bc
000000c0: e987 e0bb 49f5 3a3d 5b73 5ebd 05c6 95bd
000000d0: 9251 e53d 63eb 223d 22c8 64bd d2f3 1c3d
000000e0: b364 69bd d84d eabd 5d72 c63c eb84 9f3d
000000f0: b09e c33d d51d c33d 3737 b73d bf91 fa3d

fc3.0.weight f4 [64, 64]
-0.07745607 0.04125758 -0.09414653 0.11007603 0.07651561 -0.10401712 -0.012016989 -0.093384326
-0.06629286 0.04461313 0.04611545 0.11149162 0.1232913 0.04485617 -0.014289559 -0.02751515
0.07128908 0.11594196 -0.013943971 -0.04961461 0.06279973 -0.0705315 0.0045907306 -0.005361853
0.05080963 0.0046303403 0.036545914 -0.011741203 -0.09907616 0.12504822 0.0652417 0.040862944
-0.06895698 0.050764926 0.05457929 -0.020466303 -0.06641183 0.02885312 0.048391853 0.090833835
0.11604177 -0.078471884 -0.07782008 0.022302119 -0.031772368 0.08687427 0.0836001 -0.09748541
0.10089277 -0.122046344 0.057571843 0.015660213 -0.028495384 -0.004549268 -0.023179336 -0.06598846
-0.042771436 0.016036877 0.041476972 0.12023346 0.025082026 -0.09365044 0.07195599 -0.021407472
-0.008807403 0.09879174 0.020196639 0.024523215 0.07647205 -0.07678401 -0.06823696 0.017593972
0.01663814 -0.044032518 -0.030653281 0.0743865 0.019372584 0.08020428 -0.031481024 -0.06868415
-0.10076547 -0.057865463 0.046291288 0.053848214 -0.08345913 -0.05759689 -0.095386244 0.10743427
-0.049740646 -0.018912394 -0.11973633 -0.06523581 0.090435356 -0.09978646 -0.124532044 0.029626485
0.06719441 0.059108853 -0.09542444 -0.124049515 0.06419881 0.07743513 0.10461786 0.033236403
0.05912117 -0.04628858 -0.07741707 -0.049264036 -0.02663197 0.09470827 0.044558488 -0.052756954
-0.053400423 -0.064773075 0.06307155 0.04545268 0.07297597 -0.0077982517 -0.033192374 0.06335415
0.09578713 0.04666417 -0.043380693 -0.026599633 -0.010942575 -0.043214343 0.016805414 0.08152148
-0.07886943 0.018254519 0.0065829456 -0.10318996 -0.03430201 -0.070866644 -0.04207878 0.04048246
-0.06739713 -0.05859141 -0.03947991 0.085591555 0.046951964 0.01674898 -0.078685656 -0.120745555
0.07632841 -0.060990646 0.097281665 0.055483818 0.09814955 0.09233703 0.12131563 0.024305776
-0.11576457 0.028255865 0.035985276 -0.09657268 0.035132393 0.10335623 0.11256194 -0.043465838
-0.11650528 -0.10275817 0.06461421 0.019447207 -0.09757383 -0.059535906 0.017375723 -0.05224356
-0.022687405 -0.083886474 0.04810396 -0.028625935 0.059329465 -0.023195863 0.11670512 -0.021903679
0.0720126 -0.06914994 -0.05634363 -0.12288934 0.042986438 0.09060292 -0.011175066 0.11326878
-0.05442831 0.03610827 0.024833009 -0.066209495 -0.045273423 0.01169838 0.054933965 0.06262706
0.018428778 -0.023961209 -0.07197677 0.07402084 -0.045503624 0.014998557 -0.07403014 -0.010998495
0.0014684782 -0.09378711 0.09180734 -0.03313539 -0.013259327 0.017920064 -0.08600972 -0.036864012
0.008750163 0.09507004 -0.030255493 -0.10678106 0.024627533 -0.092025995 -0.11008973 0.10270566
0.005435487 -0.070981145 -0.049654335 0.124138415 0.023798369 -0.03233097 -0.050869208 0.08401576
-0.10336342 0.0046028835 0.029395305 -0.02978955 0.040179837 -0.07057537 -0.005776809 0.07257368
-0.081368946 -0.122046925 -0.0120753115 0.019489866 0.11440965 -0.040399533 0.073508605 -0.11804889
0.1109609 0.0034246335 -0.1131403 -0.0924116 0.107510746 0.09020577 -0.007177089 -0.00044086677
0.11768519 0.07779773 0.06956736 0.072209276 -0.054248028 -0.0066071562 -0.0041550044 -0.011929619
00000000: 4aa1 9ebd b5fd 283d e5cf c0bd 8b6f e13d
00000010: 37b4 9c3d ee06 d5bd e8e2 44bc 4840 bfbd
00000020: 8dc4 87bd 42bc 363d 8ee3 3c3d b855 e43d
00000030: 2680 fc3d 1abb 373d c11e 6abc 7467 e1bc
00000040: 0200 923d fa72 ed3d 4175 64bc b038 4bbd
00000050: 259d 803d d272 90bd d76d 963b 7cb2 afbb
00000060: c21d 503d 1cba 973b 2bb1 153d 2d5e 40bc
00000070: 71e8 cabd a40c 003e 719d 853d e75f 273d
00000080: 5139 8dbd e2ee 4f3d 898e 5f3d f3a8 a7bc
00000090: ed02 88bd 615d ec3c 8936 463d 1707 ba3d
000000a0: 4fa7 ed3d deb5 a0bd 2260 9fbd efb2 b63c
000000b0: be23 02bd 23eb b13d 8736 ab3d 6ea6 c7bd
000000c0: dea0 ce3d 6ff3 f9bd 74d0 6b3d d949 803c
000000d0: 276f e9bc 0712 95bb 97e2 bdbc f524 87bd
000000e0: 1a31 2fbd c55f 833c c2e3 293d f63c f63d
000000f0: d278 cd3c cdcb bfbd a95d 933d b95e afbc
00000100: ed4c 10bc 5353 ca3d 6c73 a53c e9e4 c83c
00000110: 619d 9c3d ef40 9dbd d2bf 8bbd 3c21 903c
00000120: b54c 883c 715b 34bd 971c fbbc f357 983d
00000130: 41b3 9e3c 2442 a43d 3ff2 00bd 47aa 8cbd
00000140: 205e cebd 5604 6dbd ef9b 3d3d f28f 5c3d
00000150: 9fec aabd b7ea 6bbd dd59 c3bd 8006 dc3d
00000160: d9bc 4bbd 2aee 9abc 5238 f5bd 5a9a 85bd
00000170: 2c36 b93d d85c ccbd a80a ffbd 3eb3 f23c
00000180: 399d 893d 201c 723d e46d c3bd ac0d febd
00000190: aa7a 833d 4f96 9e3d e341 d63d e522 083d
000001a0: 0a29 723d 1899 3dbd d78c 9ebd 16c9 49bd
000001b0: 4a2b dabc 69f6 c13d f682 363d ad17 58bd
000001c0: 67ba 5abd bfa7 84bd a82b 813d 972c 3a3d
000001d0: 6d74 953d 7a88 ffbb baf4 07bd d2bf 813d
000001e0: 0b2c c43d ee22 3f3d f4af 31bd 79e7 d9bc
000001f0: 7c48 33bc 8601 31bd 82ab 893c bcf4 a63d
00000200: 4c86 a1bd 808a 953c c0b5 d73b 4255 d3bd
00000210: 4480 0cbd 8822 91bd cc5a 2cbd f0d0 253d
00000220: 8207 8abd 8cfd 6fbd b0b5 21bd a04a af3d
00000230: b450 403d 2835 893c f225 a1bd 7249 f7bd
00000240: 1252 9c3d 54d1 79bd 9c3b c73d 0043 633d
00000250: a202 c93d 321b bd3d 5474 f83d e81c c73c
00000260: fa15 edbd d878 e73c 4c65 133d e6c7 c5bd
00000270: fce6 0f3d 6eac d33d e086 e63d 3c09 32bd
00000280: 529a eebd e072 d2bd 7454 843d c04f 9f3c
00000290: cad4 c7bd ecdb 73bd 8857 8e3c 58fd 55bd
000002a0: f0da b9bc accc abbd a808 453d f080 eabc
000002b0: 7403 733d 4005 bebc 1803 ef3d 586f b3bc
000002c0: 587b 933d 7c9e 8dbd 94c8 66bd 68ad fbbd
000002d0: 8c12 303d 068e b93d a017 37bc 76f9 e73d
000002e0: 38f0 5ebd 44e6 133d 986e cb3c d898 87bd
000002f0: a070 39bd 90aa 3f3c 7002 613d 9e42 803d
00000300: f3f7 963c 4c4a c4bc 8f68 93bd 3d98 973d
00000310: 0262 3abd 82bc 753c 1d9d 97bd 0833 34bc
00000320: f479 c03a 7513 c0bd 7d05 bc3d fab8 07bd
00000330: a63d 59bc 19cd 923c dd25 b0bd b8fe 16bd
00000340: d85c 0f3c 15b4 c23d 5eda f7bc 07b0 dabd
00000350: aebf c93c 2078 bcbd b976 e1bd 5857 d23d
00000360: 2b1c b23b 905e 91bd 5862 4bbd 483c fe3d
00000370: ccf4 c23c 7b6d 04bd 3b5c 50bd 7410 ac3d
00000380: 33b0 d3bd c9d3 963b 6cce f03c 3709 f4bc
00000390: 9d93 243d d289 90bd 634b bdbb 82a1 943d
000003a0: c3a4 a6bd bdf3 f9bd 87d7 45bc 36a9 9f3c
000003b0: 9b4f ea3d fb79 25bd ae8b 963d 9ec3 f1bd
000003c0: 783f e33d d16f 603b 1ab6 e7bd 4b42 bdbd
000003d0: 982e dc3d cebd b83d c92d ebbb 2324 e7b9
000003e0: ef04 f13d 6b54 9f3d 5579 8e3d 75e2 933d
000003f0: 2e33 5ebd d880 d8bb b426 88bb 7374 43bc
