blocksize-4/model_best_4.pth (torch, 205899 bytes, 13 tensors)

embedding.0.weight f4 [64, 7]
-0.3546727 -0.3347964 0.23325364 -0.06853509 -0.14743274 -0.3773654 0.14591184 0.30784148
-0.18932931 -0.20606264 0.27657303 0.25687417 0.33163646 0.10545069 -0.12714219 -0.3654907
0.33260673 0.36270368 -0.23895237 -0.35611242 -0.026480567 -0.13003175 0.18855667 0.08643266
-0.017633667 0.13094456 -0.28175488 -0.11100062 0.32202068 -0.36719877 0.34628123 -0.23346098
0.17637573 0.1716047 -0.2974846 -0.035113875 0.24217325 0.22855057 -0.2996659 -0.1394256
-0.16403657 0.16384676 -0.22425131 -0.23595949 0.16009492 -0.31976405 -0.15039746 -0.1049581
0.026131276 0.059562203 -0.2265123 -0.12566587 0.025979249 0.109751545 0.0490088 0.16718352
-0.36185536 -0.32796335 0.10601599 -0.1022415 -0.277729 0.31250137 -0.19334257 -0.1636805
-0.015121718 -0.048325345 -0.30771002 0.13421443 -0.24265835 -0.059810255 -0.29860392 -0.041680276
-0.1839339 -0.060902935 0.079343505 -0.22217435 0.15187418 -0.2596935 -0.21733269 0.0045844237
0.23829158 0.21366337 0.033851746 0.16330303 0.16822796 0.22953272 -0.37499878 -0.35168892
-0.3238685 -0.3293394 -0.15339033 0.053567477 0.2273913 0.13936616 -0.18198611 0.091283545
0.0399462 0.11964834 0.14057364 0.17265834 -0.042263478 -0.2650183 -0.20655034 0.13135532
0.2914314 0.20413463 0.2914147 -0.13991301 -0.19258887 -0.139352 -0.2674036 -0.026192347
0.21711703 -0.22481927 -0.17210975 0.12576433 0.2256421 -0.36006308 0.34883174 -0.36807123
0.10088034 -0.09535488 0.16520883 -0.017975653 0.32272792 -0.048108805 0.17242122 -0.22319607
-0.1844091 -0.2800811 -0.13627456 0.36684713 -0.37399316 0.13903661 -0.2573401 -0.18755154
0.35253984 -0.11942708 0.37654433 0.013541121 0.23163249 -0.118805066 0.0055830874 -0.30184075
0.2259508 0.33209342 -0.26964304 -0.14387834 0.0390725 -0.24320535 -0.24361648 -0.36800352
0.15488356 0.34616387 -0.021457251 -0.04515604 0.12003061 0.23789863 -0.2295579 0.34232348
-0.039816428 -0.12674512 0.25371262 -0.12958442 -0.12148409 -0.15714356 -0.31677377 -0.14106794
-0.3278104 0.27134946 -0.35851955 0.19446774 0.3058919 0.11213509 0.17493726 -0.25836277
0.150803 0.19618629 -0.0630749 -0.22366464 0.31764042 -0.010310927 0.31199393 0.090666175
-0.0430819 -0.107408956 0.19338682 0.017252306 0.28423718 -0.17694344 -0.12606132 0.16758175
0.07513922 -0.19366395 -0.31855518 -0.16917935 -0.06261161 0.047857545 0.1362874 0.008232453
0.22248328 -0.24963893 -0.016393209 -0.18396549 -0.2169935 -0.22476737 -0.0011578402 0.20938446
0.09296597 0.13608332 -0.2056879 0.24862333 0.27566794 0.072284736 -0.15528339 -0.37650284
0.2144874 0.143708 0.20444211 -0.3246934 0.2517408 0.19501188 0.2345101 0.20580278
0.1904464 0.35322547 -0.3199291 -0.05990622 0.21509226 -0.1691842 0.35814446 0.12872124
0.26386574 0.3356992 0.35871562 -0.10677331 -0.27460223 0.15995146 -0.12866886 0.2364508
0.04420213 -0.03712245 0.23904513 0.09709103 0.268054 0.12727791 0.1541435 0.25492206
-0.36617923 -0.08422306 -0.18244265 0.13831078 0.34077 -0.10740343 -0.24727578 -0.2231568
00000000: a997 b5be 6f6a abbe 0bda 6e3e 205c 8cbd
00000010: 9cf8 16be 0a36 c1be ea69 153e 669d 9d3e
00000020: 8bdf 41be 1602 53be fb9a 8d3e 0385 833e
00000030: 41cc a93e 88f6 d73d 9031 02be 9921 bbbe
00000040: 6e4b aa3e 4cb4 b93e eeaf 74be 5e54 b6be
00000050: c6ed d8bc 0b27 05be 0015 413e 9b03 b13d
00000060: 7b74 90bc 5516 063e 2d42 90be 4b54 e3bd
00000070: e5df a43e 7a01 bcbe c64b b13e 6510 6fbe
00000080: d79b 343e 24b9 2f3e e74f 98be 91d3 0fbd
00000090: 44fc 773e 2909 6a3e cf6d 99be 96c5 0ebe
000000a0: 34f9 27be 72c7 273e 23a2 65be 5d9f 71be
000000b0: ecef 233e 1db8 a3be cb01 1abe 46f4 d6bd
000000c0: 4211 d63c 7ff7 733d d7f2 67be 8eae 00be
000000d0: 6fd2 d43c 6bc5 e03d 74bd 483d 2832 2b3e
000000e0: 1b45 b9be d0ea a7be e91e d93d fe63 d1bd
000000f0: 7f32 8ebe 2e00 a03e 98fb 45be dc9b 27be
00000100: 15c1 77bc ccf0 45bd 2b8c 9dbe 826f 093e
00000110: 6e7b 78be 99fb 74bd 9de2 98be f0b8 2abd
00000120: 2b59 3cbe 5b75 79bd d97e a23d ac81 63be
00000130: e884 1b3e 8cf6 84be 768c 5ebe ef38 963b
00000140: b502 743e 92ca 5a3e 21a8 0a3d e938 273e
00000150: f343 2c3e a00a 6b3e d7ff bfbe 9210 b4be
00000160: 18d2 a5be 2d9f a8be 5b12 1dbe 9269 5b3d
00000170: 44d9 683e 01b6 0e3e 915a 3abe def2 ba3d
00000180: a09e 233d 300a f53d 89f2 0f3e 59cd 303e
00000190: 781c 2dbd 7bb0 87be ef81 53be 0282 063e
000001a0: 7f36 953e ab08 513e 4f34 953e 5b45 0fbe
000001b0: 0436 45be 4ab2 0ebe 20e9 88be 5591 d6bc
000001c0: ed53 5e3e 0637 66be 8a3d 30be 5dc8 003e
000001d0: b90e 673e 305a b8be 139a b23e d573 bcbe
000001e0: 5a9a ce3d 6b49 c3bd 812c 293e ad41 93bc
000001f0: 983c a53e bd0d 45bd 308f 303e 838d 64be
00000200: bdd5 3cbe ca66 8fbe 8f8b 0bbe 63d3 bb3e
00000210: 087c bfbe 9d5f 0e3e 15c2 83be 830d 40be
00000220: 1a80 b43e 2f96 f4bd 6bca c03e 94db 5d3c
00000230: 1131 6d3e 1250 f3bd 55f2 b63b df8a 9abe
00000240: a65f 673e 2608 aa3e a70e 8abe d854 13be
00000250: 7c0a 203d d30a 79be 9976 79be f56a bcbe
00000260: cc99 1e3e 643c b13e 1ec7 afbc 8af5 38bd
00000270: 9cd2 f53d b39b 733e 3a11 6bbe 0645 af3e
00000280: 8d16 23bd 79c9 01be 9fe6 813e c7b1 04be
00000290: a7cc f8bd 3eea 20be 2c30 a2be 1d74 10be
000002a0: c4d6 a7be 51ee 8a3e e08f b7be 8d22 473e
000002b0: dd9d 9c3e 15a7 e53d c122 333e 2048 84be
000002c0: 1a6c 1a3e 0fe5 483e 6a2d 81bd 5808 65be
000002d0: c4a1 a23e 2aef 28bc abbd 9f3e 30af b93d
000002e0: a576 30bd 3af9 dbbd 3207 463e b554 8d3c
000002f0: 8987 913e a930 35be 3816 01be 8d9a 2b3e
00000300: 97e2 993d d84f 46be aa19 a3be 5a3d 2dbe
00000310: 843a 80bd 4606 443d ed8e 0b3e 69e1 063c
00000320: a8d2 633e 59a1 7fbe 0d4b 86bc 7361 3cbe
00000330: 8b33 5ebe 6b29 66be acc2 97ba e168 563e
00000340: f164 be3d 6d59 0b3e d99f 52be 1d97 7e3e
00000350: 5924 8d3e 050a 943d 9c02 1fbe fbc4 c0be
00000360: 96a2 5b3e 3128 133e 4659 513e 373e a6be
00000370: 2ce4 803e 32b1 473e 6a23 703e f7bd 523e
00000380: 6204 433e f8d9 b43e bfcd a3be 3960 75bd
00000390: 2541 5c3e 9f3e 2dbe b65e b73e 80cf 033e
000003a0: 6919 873e c4e0 ab3e 93a9 b73e f7ab dabd
000003b0: aa98 8cbe 51ca 233e c5c1 03be 2920 723e
000003c0: 4b0d 353d b60d 18bd 3fc8 743e a9d7 c63d
000003d0: 603e 893e 2455 023e cbd7 1d3e 2585 823e
000003e0: d87b bbbe 247d acbd 3fd2 3abe 57a1 0d3e
000003f0: 6879 ae3e 54f6 dbbd dd35 7dbe 3783 64be

embedding.0.bias f4 [64]
-0.17988852 0.115804106 -0.21068853 0.19588862 -0.26244923 0.31329274 -0.31936723 -0.3008438
0.11898234 0.077598296 0.07081265 -0.0026919611 0.37488925 -0.055442512 0.020741362 0.28400102
0.1610574 0.3583274 -0.12400968 0.015298207 -0.3427928 -0.19134378 0.19655174 -0.29703143
-0.15483133 -0.3426553 0.36160585 0.2689789 0.062245447 0.089110605 0.20763335 0.25198624
0.27770248 -0.3000647 0.023026615 -0.0043328586 0.27616608 0.14985125 -0.049394965 0.16130643
-0.2041861 0.35437334 0.15832207 -0.15439346 -0.3363104 0.334211 -0.20633842 -0.1887495
-0.22558038 -0.2991453 -0.23362592 0.19498022 0.2353147 0.019364731 0.17114165 -0.35301167
0.106172204 -0.36761743 -0.20032784 -0.3254161 -0.1145512 -0.008557034 0.2593165 0.18287802
00000000: b234 38be b42a ed3d bcbe 57be 0797 483e
00000010: bf5f 86be e867 a03e 1a84 a3be 3308 9abe
00000020: 03ad f33d dbeb 9e3d 3906 913d 9d6b 30bb
00000030: 7cf1 bf3e b017 63bd cae9 a93c 9568 913e
00000040: 3bec 243e b076 b73e c9f8 fdbd 55a5 7a3c
00000050: 8a82 afbe a0ef 43be dc44 493e 8114 98be
00000060: 1b8c 1ebe 8470 afbe 6724 b93e 9ab7 893e
00000070: 15f5 7e3d 9f7f b63d d69d 543e 5704 813e
00000080: 052f 8e3e 15a2 99be 50a2 bc3c a7fa 8dbb
00000090: a465 8d3e 9b72 193e 6052 4abd 832d 253e
000000a0: 2916 51be 6c70 b53e 2e1f 223e 5219 1ebe
000000b0: e030 acbe b41d ab3e 614a 53be 8d47 41be
000000c0: 8bfe 66be 9329 99be a23b 6fbe e5a8 473e
000000d0: 56f6 703e c9a2 9e3c c23f 2f3e f2bd b4be
000000e0: d070 d93d 5a38 bcbe be22 4dbe f09c a6be
000000f0: d299 eabd cd32 0cbc 22c5 843e 6044 3b3e

layernorm.weight f4 [259, 64]
1.0001718 0.9998479 0.9999876 0.99999493 1.0000002 1.000013 1.0 0.9999912
0.9999988 1.0000086 1.0000339 0.99976707 0.99999875 1.0004756 1.0006061 1.0
0.99985445 1.0000086 1.0 0.9999934 1.0000011 1.0006961 0.9999955 0.9999964
0.9997752 1.0000103 1.0000119 0.9999949 1.0000081 1.0002401 0.99996316 1.0007197
0.9997065 0.9999692 1.0000077 0.99972725 1.0 1.0006479 0.9999999 1.0000056
0.9996065 1.0000052 1.000003 0.9997046 0.99999535 1.0000098 0.9999987 1.000424
0.9995965 1.0001098 1.0000165 1.0000651 1.0 0.9993205 1.0 0.9999942
1.0000075 1.0002857 1.0004869 0.99999005 1.0 1.0000256 1.000002 1.0000006
0.99999684 1.0000057 0.9999782 1.0000042 1.0 0.9999996 0.99999934 1.0000027
1.0 1.0000033 1.000001 0.9999767 0.99999875 1.0000013 1.0000006 0.99999934
1.0000043 1.000004 1.0 0.9999989 1.0 1.0000262 0.9999919 1.0000002
1.0000165 1.0000021 1.0000008 0.9999991 1.0000019 0.9999984 1.0000079 1.0005393
0.9998306 0.9999919 0.9999997 1.0000055 1.0 1.0002345 1.0000008 1.0
1.0000061 0.9999943 1.0 1.0000157 1.0000007 1.0 0.9999992 0.99999386
0.9999978 1.000061 1.0000063 1.0000027 1.0 0.99961567 0.9999977 0.9999978
1.0000035 1.0000013 1.0000008 0.9999948 1.0 1.000001 1.0 1.0
1.0001761 0.9995748 0.9999907 0.99999416 1.0 1.0000056 1.0 0.9996954
0.99999934 1.0000056 1.0000193 0.9990907 0.99999875 1.0004966 1.0008107 1.0
0.9995701 1.0000106 1.0 0.9999945 1.0000005 1.001697 0.9999911 0.9999987
0.9996818 1.0000075 1.0000148 0.9999958 1.000006 1.0002146 0.9999002 1.0014224
0.99911416 0.99998367 1.0000057 0.99953836 1.0 1.0011585 1.0000005 1.0000046
0.999252 1.0000021 1.0000024 0.99866694 0.9999966 1.0000066 0.9999988 1.0007641
0.9987277 1.0006106 1.000011 1.0000424 1.0 0.99877924 1.0 0.9999944
1.0000062 1.0014148 1.0006355 0.99999505 1.0 1.0000174 1.0000013 1.0000004
0.9999955 1.0000054 0.9999825 1.0000036 0.99999994 0.99999964 0.99999946 1.0000017
1.0 1.0000014 1.0000006 0.99988145 0.99999875 1.0000013 1.0000093 0.9999996
1.000004 1.0000046 1.0 0.99999875 0.99999994 1.0001502 0.99999267 1.0000004
1.0000162 1.0000018 1.0000006 0.9999993 1.0000017 0.9999982 1.0000074 1.000619
0.999733 0.99999213 0.99999994 1.0000063 1.0 1.0002013 1.0000013 1.0
1.0000044 0.99999535 1.0 0.9998668 1.0000005 1.0 0.9999991 1.0000026
0.99980426 1.0000459 1.0000039 1.0000024 1.0 0.99948764 0.999998 0.99999803
1.0000032 1.0000414 1.0000021 0.9999953 1.0 1.000006 1.0000002 1.0
00000000: a105 803f 08f6 7f3f 30ff 7f3f abff 7f3f
00000010: 0200 803f 6d00 803f 0000 803f 6cff 7f3f
00000020: ecff 7f3f 4800 803f 1c01 803f bcf0 7f3f
00000030: ebff 7f3f 960f 803f dc13 803f 0000 803f
00000040: 76f6 7f3f 4800 803f 0000 803f 91ff 7f3f
00000050: 0900 803f cf16 803f b5ff 7f3f c4ff 7f3f
00000060: 44f1 7f3f 5600 803f 6400 803f aaff 7f3f
00000070: 4400 803f de07 803f 96fd 7f3f 9517 803f
00000080: c4ec 7f3f fbfd 7f3f 4100 803f 20ee 7f3f
00000090: 0000 803f 3b15 803f feff 7f3f 2f00 803f
000000a0: 36e6 7f3f 2c00 803f 1900 803f a4ec 7f3f
000000b0: b2ff 7f3f 5200 803f eaff 7f3f e50d 803f
000000c0: 8ee5 7f3f 9903 803f 8a00 803f 2202 803f
000000d0: 0000 803f 78d3 7f3f 0000 803f 9fff 7f3f
000000e0: 3f00 803f 5d09 803f f40f 803f 59ff 7f3f
000000f0: 0000 803f d700 803f 1100 803f 0500 803f
00000100: cbff 7f3f 3000 803f 92fe 7f3f 2300 803f
00000110: 0000 803f f9ff 7f3f f5ff 7f3f 1700 803f
00000120: 0000 803f 1c00 803f 0800 803f 79fe 7f3f
00000130: ebff 7f3f 0b00 803f 0500 803f f5ff 7f3f
00000140: 2400 803f 2200 803f 0000 803f eeff 7f3f
00000150: 0000 803f dc00 803f 78ff 7f3f 0200 803f
00000160: 8a00 803f 1200 803f 0700 803f f1ff 7f3f
00000170: 1000 803f e5ff 7f3f 4200 803f ac11 803f
00000180: e6f4 7f3f 78ff 7f3f fbff 7f3f 2e00 803f
00000190: 0000 803f af07 803f 0700 803f 0000 803f
000001a0: 3300 803f a0ff 7f3f 0000 803f 8400 803f
000001b0: 0600 803f 0000 803f f3ff 7f3f 99ff 7f3f
000001c0: dbff 7f3f 0002 803f 3500 803f 1700 803f
000001d0: 0000 803f d0e6 7f3f d9ff 7f3f dbff 7f3f
000001e0: 1d00 803f 0b00 803f 0700 803f a9ff 7f3f
000001f0: 0000 803f 0800 803f 0000 803f 0000 803f
00000200: c505 803f 22e4 7f3f 64ff 7f3f 9eff 7f3f
00000210: 0000 803f 2f00 803f 0000 803f 0aec 7f3f
00000220: f5ff 7f3f 2f00 803f a200 803f 68c4 7f3f
00000230: ebff 7f3f 4610 803f 911a 803f 0000 803f
00000240: d3e3 7f3f 5900 803f 0000 803f a4ff 7f3f
00000250: 0400 803f 9b37 803f 6bff 7f3f eaff 7f3f
00000260: 25eb 7f3f 3f00 803f 7c00 803f baff 7f3f
00000270: 3200 803f 0807 803f 76f9 7f3f 9c2e 803f
00000280: f2c5 7f3f eefe 7f3f 3000 803f bfe1 7f3f
00000290: 0000 803f f625 803f 0400 803f 2700 803f
000002a0: fbce 7f3f 1200 803f 1400 803f a3a8 7f3f
000002b0: c7ff 7f3f 3700 803f ecff 7f3f 0a19 803f
000002c0: 9eac 7f3f 0214 803f 5c00 803f 6401 803f
000002d0: 0000 803f ffaf 7f3f 0000 803f a2ff 7f3f
000002e0: 3400 803f 5c2e 803f d314 803f adff 7f3f
000002f0: 0000 803f 9200 803f 0b00 803f 0300 803f
00000300: b5ff 7f3f 2d00 803f dafe 7f3f 1e00 803f
00000310: ffff 7f3f faff 7f3f f7ff 7f3f 0e00 803f
00000320: 0000 803f 0c00 803f 0500 803f 3bf8 7f3f
00000330: ebff 7f3f 0b00 803f 4e00 803f f9ff 7f3f
00000340: 2200 803f 2700 803f 0000 803f ebff 7f3f
00000350: ffff 7f3f ec04 803f 85ff 7f3f 0300 803f
00000360: 8800 803f 0f00 803f 0500 803f f4ff 7f3f
00000370: 0e00 803f e2ff 7f3f 3e00 803f 4914 803f
00000380: 80ee 7f3f 7cff 7f3f ffff 7f3f 3500 803f
00000390: 0000 803f 9906 803f 0b00 803f 0000 803f
000003a0: 2500 803f b2ff 7f3f 0000 803f 45f7 7f3f
000003b0: 0400 803f 0000 803f f1ff 7f3f 1600 803f
000003c0: 2cf3 7f3f 8101 803f 2100 803f 1400 803f
000003d0: 0000 803f 6cde 7f3f deff 7f3f dfff 7f3f
000003e0: 1b00 803f 5b01 803f 1200 803f b1ff 7f3f
000003f0: 0000 803f 3200 803f 0200 803f 0000 803f

layernorm.bias f4 [259, 64]
1.0584248e-05 -1.9252107e-05 8.900795e-06 -1.3196207e-05 -8.794085e-06 5.373144e-06 -1.058645e-05 -1.7641885e-06
1.0381678e-05 -1.5188179e-05 -7.3200576e-06 -1.9235827e-05 3.7775953e-06 2.1731972e-05 2.3034465e-05 2.8220534e-06
-2.4497697e-06 -1.7141358e-05 -4.9807395e-06 -1.559957e-05 -5.0539456e-06 2.8495373e-05 -2.3742132e-06 2.1275016e-05
-4.239123e-06 -4.861451e-06 -3.2165576e-06 -1.8593785e-07 -9.005166e-06 2.008091e-05 8.081552e-06 2.0683847e-05
6.568961e-06 9.676293e-07 6.5021254e-06 -1.0548331e-05 9.030307e-06 2.0377243e-05 -1.3419489e-05 9.39966e-06
-2.0682171e-05 1.6143988e-05 -2.8876738e-07 -1.0902792e-05 7.4899926e-06 -2.4341082e-06 -7.0947266e-08 1.6332537e-05
-1.2355181e-05 1.7514e-05 -6.1823866e-06 3.170219e-06 -3.115533e-06 -1.8677232e-05 1.468186e-05 5.0540157e-06
-1.056216e-05 3.7546844e-05 2.3576815e-05 8.4845e-06 6.659878e-06 1.2834458e-05 1.5120861e-05 -3.940958e-06
1.168064e-05 -2.8421651e-05 5.384021e-06 -2.3137554e-05 -1.4512137e-05 -2.8441018e-06 -2.4674322e-05 -1.3886765e-05
1.2679245e-05 -2.0914404e-05 -1.630818e-05 -3.582656e-05 1.3772977e-06 3.190411e-05 2.2253967e-05 1.089412e-05
-1.2074604e-05 -3.0422481e-05 -5.796658e-06 -1.3192165e-05 -1.8430006e-05 4.5622288e-05 -1.2065921e-06 4.2974105e-05
-1.2616915e-05 -1.552806e-05 -9.125929e-06 1.1687408e-05 -1.5522426e-05 2.241057e-05 -1.1008634e-05 4.0225827e-05
-1.3267513e-05 -4.308187e-06 1.7367337e-06 -2.9198556e-05 1.2656883e-05 2.8186154e-05 -1.8919602e-05 4.063432e-06
-3.1354943e-05 3.9953142e-05 -5.996194e-06 -4.4472676e-05 1.7253054e-05 -1.6959517e-05 -1.4720315e-05 7.982702e-06
-3.6328776e-05 2.8314058e-05 -2.039621e-05 -7.5801827e-06 -6.991163e-06 -4.0140647e-05 1.9879564e-05 1.4795335e-06
-1.9020308e-05 4.910022e-05 2.92534e-05 1.6680591e-05 6.3545326e-06 2.594642e-05 1.679887e-05 -1.4401239e-07
1.4233169e-05 -1.5998836e-05 4.176627e-06 -1.4952467e-05 -2.7294554e-06 4.1381136e-06 -1.4078716e-05 -1.1118377e-05
1.9919966e-05 -1.3610138e-05 -1.2678829e-05 -2.1423613e-05 6.18089e-06 2.0866499e-05 1.32528685e-05 3.966074e-06
-3.7592201e-06 -1.97177e-05 -2.5831712e-06 -8.4533e-06 -9.636844e-06 3.6755795e-05 -4.0314762e-06 3.4200562e-05
-5.8956434e-06 -1.2728948e-05 -5.8154533e-06 -2.2440095e-06 -6.746661e-06 1.6813188e-05 4.2079805e-06 3.639709e-05
-1.8741312e-06 8.347031e-07 1.0434491e-05 -1.2937914e-05 1.322256e-05 2.1076654e-05 -2.0838352e-05 1.0702675e-05
-1.7159446e-05 1.9918136e-05 -3.835645e-06 -2.3645885e-05 1.3758812e-05 -8.734943e-06 -4.4153544e-06 1.2003291e-05
-2.0399386e-05 2.5736132e-05 -1.4895397e-05 -3.3658232e-06 -2.219475e-06 -2.9175706e-05 1.4178344e-05 -1.3844501e-06
-1.4879455e-05 4.558029e-05 3.1547428e-05 1.8425795e-05 -1.277345e-07 1.911041e-05 7.01234e-06 1.8992883e-07
9.260769e-06 -2.1076406e-05 9.986268e-07 -1.746264e-05 -1.0675248e-05 1.5173094e-06 -2.0564845e-05 -1.31607885e-05
1.2428439e-05 -1.581228e-05 -9.870604e-06 -3.1573993e-05 6.195196e-06 2.7807268e-05 1.2965225e-05 9.066129e-06
-9.553453e-06 -2.6514354e-05 -9.092994e-06 -8.46888e-06 -1.3739718e-05 3.3281693e-05 -8.001357e-06 4.1960084e-05
-1.5261108e-05 -2.1519289e-05 -9.215094e-06 1.1497292e-05 -6.1328533e-06 1.3926663e-05 -5.264671e-06 3.2478674e-05
-1.4059723e-05 -7.360749e-07 2.1271871e-06 -2.315855e-05 6.847087e-06 2.0550742e-05 -1.1790914e-05 3.8846415e-06
-1.9759374e-05 2.8583807e-05 -7.591405e-06 -3.5510726e-05 1.3256206e-05 -1.1722474e-05 -4.7955955e-06 -2.5762927e-06
-2.4400659e-05 2.55652e-05 -1.5835498e-05 -7.697094e-06 6.223494e-07 -3.177334e-05 1.7887107e-05 4.547152e-06
-1.2660254e-05 3.9091e-05 2.9089806e-05 1.1174673e-05 5.5655582e-06 2.0806123e-05 1.4572318e-05 3.472165e-07
00000000: 0093 3137 967f a1b7 a054 1537 4765 5db7
00000010: 4f8a 13b7 f54a b436 759c 31b7 0ec9 ecb5
00000020: f82c 2e37 bbd0 7eb7 d19e f5b6 a05c a1b7
00000030: 9882 7d36 0e4d b637 233a c137 8262 3d36
00000040: b966 24b6 c9ca 8fb7 3a20 a7b6 d2db 82b7
00000050: 1095 a9b6 5909 ef37 ac54 1fb6 c077 b237
00000060: ca3d 8eb6 8c1f a3b6 0adc 57b6 35a6 47b4
00000070: e514 17b7 6d73 a837 0096 0737 3982 ad37
00000080: f26a dc36 7ddf 8135 d52c da36 bdf8 30b7
00000090: e080 1737 ccef aa37 4424 61b7 3bb3 1d37
000000a0: a07e adb7 f36c 8737 e307 9bb4 23eb 36b7
000000b0: 8c52 fb36 a959 23b6 ac5b 98b3 db01 8937
000000c0: 1949 4fb7 07eb 9237 4c72 cfb6 f3bf 5436
000000d0: 7314 51b6 0dad 9cb7 1c52 7637 aa95 a936
000000e0: 2234 31b7 9e7b 1d38 d3c6 c537 a658 0e37
000000f0: eb77 df36 9453 5737 9aaf 7d37 923c 84b6
00000100: f7f7 4337 086b eeb7 63a8 b436 8517 c2b7
00000110: 2779 73b7 4cdd 3eb6 b4fb ceb7 34fb 68b7
00000120: f1b8 5437 5771 afb7 8dcd 88b7 7a44 16b8
00000130: 97db b835 c7d0 0538 08ae ba37 e4c5 3637
00000140: 0794 4ab7 c833 ffb7 ea80 c2b6 eb53 5db7
00000150: 239a 9ab7 8f5a 3f38 30f2 a1b5 183f 3438
00000160: 3dad 53b7 4142 82b7 911b 19b7 0915 4437
00000170: 2836 82b7 55fe bb37 b9b1 38b7 27b8 2838
00000180: 8997 5eb7 0b8f 90b6 b719 e935 6cef f4b7
00000190: e658 5437 4e71 ec37 89b5 9eb7 9d58 8836
000001a0: 1d83 03b8 5c93 2738 ea32 c9b6 2c88 3ab8
000001b0: a7ba 9037 4944 8eb7 46f7 76b7 72ed 0537
000001c0: ba5f 18b8 fa83 ed37 8718 abb7 4659 feb6
000001d0: a295 eab6 b15c 28b8 0ac3 a637 6294 c635
000001e0: cd8d 9fb7 f6f0 4d38 3365 f537 4ced 8b37
000001f0: 0539 d536 83a7 d937 4ceb 8c37 d3a1 1ab4
00000200: ffca 6e37 3d35 86b7 f424 8c36 5bdc 7ab7
00000210: b02b 37b6 20da 8a36 a033 6cb7 1189 3ab7
00000220: cd19 a737 1957 64b7 28b7 54b7 dcb6 b3b7
00000230: 7165 cf36 770a af37 a358 5e37 5114 8536
00000240: e946 7cb6 7067 a5b7 8b5a 2db6 a6d2 0db7
00000250: eead 21b7 3c2a 1a38 1e46 87b6 9372 0f38
00000260: 31d3 c5b6 6a8e 55b7 5d22 c3b6 ca97 16b6
00000270: 6061 e2b6 0c0a 8d37 4732 8d36 14a9 1838
00000280: a88a fbb5 5c10 6035 cc0f 2f37 eb0f 59b7
00000290: 76d6 5d37 c5cd b037 05ce aeb7 a48f 3337
000002a0: a1f1 8fb7 df15 a737 f1b3 80b6 275b c6b7
000002b0: a6d5 6637 4b8c 12b7 9b27 94b6 be61 4937
000002c0: 591f abb7 ece3 d737 3ee7 79b7 67e0 61b6
000002d0: 4af2 14b6 5abe f4b7 86df 6d37 58d1 b9b5
000002e0: c6a2 79b7 772d 3f38 cb51 0438 1891 9a37
000002f0: 6427 09b4 4b4f a037 8b4b eb36 3def 4b34
00000300: b35e 1b37 3dcd b0b7 8e08 8635 bc7c 92b7
00000310: d719 33b7 5ba6 cb35 ab82 acb7 28cd 5cb7
00000320: bd83 5037 9da4 84b7 ec99 25b7 516e 04b8
00000330: 54e0 cf36 a743 e937 3885 5937 ba1a 1837
00000340: c547 20b7 246b deb7 1d8e 18b7 9015 0eb7
00000350: a483 66b7 f297 0b38 913d 06b7 4cfe 2f38
00000360: fb04 80b7 5284 b4b7 879a 1ab7 7ee4 4037
00000370: cfc8 cdb6 90a6 6937 2ea7 b0b6 b639 0838
00000380: 0de2 6bb7 af96 45b5 ccc0 0e36 9c44 c2b7
00000390: 08c0 e536 6264 ac37 97d1 45b7 d158 8236
000003a0: efc0 a5b7 42c7 ef37 acb9 feb6 5af1 14b8
000003b0: f966 5e37 a4ab 44b7 dae9 a0b6 5fe4 2cb6
000003c0: 04b0 ccb7 d974 d637 79d6 84b7 c422 01b7
000003d0: 860f 2735 5d44 05b8 450c 9637 bd93 9836
000003e0: 6067 54b7 a4f5 2338 e205 f437 db7a 3b37
000003f0: c8bf ba36 cf88 ae37 a17b 7437 1369 ba34

fc0.0.weight f4 [64, 64]
0.036779843 0.11546937 0.11672805 0.007471987 -0.09468393 -0.050337873 0.04000998 0.004343348
-0.022908336 0.08155653 0.078348115 0.124877304 0.037601016 0.011649882 0.10764865 -0.06332346
0.012221245 0.027570887 -0.05176921 0.08611882 0.085056484 0.033668134 -0.003626515 0.07640166
0.08379853 0.098664716 -0.10996084 -0.08709392 -0.11431044 -0.007624425 0.096191004 0.08523554
0.06582166 0.031876963 0.00888405 0.07535324 -0.037219655 -0.04320902 -0.028268047 0.027480777
-0.06286048 -0.07774651 0.10212841 0.11948136 0.024635294 -0.0727538 -0.03404564 0.08737772
-0.041073382 0.017165998 0.062897354 -0.008004781 -0.05395634 -0.09125 -0.0062738447 -0.10836925
-0.018249223 -0.08220965 0.099584416 0.01556075 0.038985644 -0.0014841025 0.0004939351 0.071776345
0.055838708 -0.05369298 -0.06488627 0.046118982 -0.030972604 0.090816155 -0.04313165 0.078093536
0.012723033 0.08163624 0.0051607457 -0.079829946 0.0812095 0.046133436 0.069073394 0.09085318
-0.06942481 0.10943715 0.070968635 0.114054054 -0.07280987 0.108762145 -0.07546419 0.10997637
0.082764566 0.007404288 0.075189516 0.10620363 -0.0447664 0.1153103 -0.025261723 0.032779194
0.013725262 -0.013475932 -0.016567755 -0.02156749 0.119681425 0.042226985 0.020218961 -0.08433014
-0.029845722 -0.08094326 -0.058421675 -0.06567196 0.045778543 0.068612434 0.06002426 -0.11859457
-0.011379284 -0.1080818 -0.055140596 0.12007088 -0.0816643 0.11060856 0.10642419 0.002798971
0.11774127 0.10186352 0.010677376 0.043450013 -0.11177743 -0.058927312 0.003406937 -0.1069871
-0.008912314 0.008464656 0.08436232 0.0933032 0.053945526 0.021769678 -0.009444146 -0.031648953
-0.08318909 -0.11908022 -0.108920544 0.08496266 0.06201881 0.0021926924 -0.02702232 -0.028242756
0.04539364 -0.05464832 -0.05312437 -0.06292717 -0.10895984 -0.05042044 0.077470444 0.00097526866
-0.08622107 0.00051539985 0.007224985 -0.10283612 -0.10336823 0.0038534533 -0.09794633 0.08322741
0.025002616 0.07885741 0.07105022 0.050922874 0.067561135 0.05670981 -0.062298972 -0.113275826
0.097907364 -0.044701222 0.094833575 -0.055494998 0.03149368 -0.1152332 0.082209684 -0.03040497
0.12158584 0.12236857 0.0025843757 0.038545363 -0.09204914 -0.079048015 -0.046222925 -0.08865367
-0.04612008 0.03061585 -0.030423196 -0.020467743 0.059040487 -0.06995198 -0.02612919 -0.0013539352
-0.11064454 0.04100517 0.09552145 0.124089226 -0.0706984 -0.03071835 0.08433386 -0.08141907
-0.08570455 0.023599666 0.09464394 -0.120947175 -0.09089805 -0.03727921 -0.06328568 0.04217431
0.055765953 0.058845572 -0.05626033 0.009033232 -0.02313423 -0.07993258 -0.119985774 0.10700217
0.034256063 -0.04292596 -0.063547 0.04999312 0.097638376 -0.00016149176 0.1161091 -0.108914666
-0.10789684 0.06192749 -0.10907439 -0.009865797 0.09096845 0.014237838 0.073027186 -0.03478985
-0.0757262 -0.046612304 -0.07608862 0.11084554 0.025972636 0.041257713 -0.015803723 -0.12080165
0.055538986 -0.08214812 0.028467553 0.057360325 0.01312842 -0.065764 -0.11509818 0.07263026
-0.013279099 0.08966469 -0.052556302 0.031822555 0.08260404 -0.00010761454 -0.06396853 0.08407605
00000000: 76a6 163d 347b ec3d 1e0f ef3d 92d7 f43b
00000010: a6e9 c1bd 162f 4ebd 81e1 233d a552 8e3b
00000020: 43aa bbbc 1c07 a73d fa74 a03d acbf ff3d
00000030: 8603 1a3d 26df 3e3c e576 dc3d bbaf 81bd
00000040: 9e3b 483c 57dc e13c f30b 54bd 105f b03d
00000050: 1832 ae3d 99e7 093d d3aa 6dbb 7978 9c3d
00000060: 909e ab3d ba10 ca3d 2633 e1bd 4c5e b2bd
00000070: 981b eabd 50d6 f9bb caff c43d f98f ae3d
00000080: 82cd 863d 6b91 023d 688e 113c cd52 9a3d
00000090: a373 18bd f1fb 30bd 6492 e7bc 5e1f e13c
000000a0: ffbc 80bd 9039 9fbd b328 d13d a5b2 f43d
000000b0: f5cf c93c f2ff 94bd 7173 0bbd 17f3 b23d
000000c0: 903c 28bd b59f 8c3c 54d0 803d 7c26 03bc
000000d0: 5301 5dbd 48e1 babd d394 cdbb b3f0 ddbd
000000e0: 657f 95bc 885d a8bd eaf2 cb3d 84f2 7e3c
000000f0: 69af 1f3d 3786 c2ba 6c7b 013a 7aff 923d
00000100: 21b7 643d 2ced 5bbd 18e3 84bd 42e7 3c3d
00000110: 42ba fdbc d2fd b93d d0aa 30bd 81ef 9f3d
00000120: 4574 503c e730 a73d 791b a93b e27d a3bd
00000130: 2b51 a63d 6af6 3c3d 5a76 8d3d 3b11 ba3d
00000140: 982e 8ebd 9620 e03d 0158 913d 2c95 e93d
00000150: 571d 95bd b0be de3d f88c 9abd 4b3b e13d
00000160: 7880 a93d ab9f f23b f6fc 993d 4a81 d93d
00000170: f95c 37bd ce27 ec3d acf1 cebc 7a43 063d
00000180: ecdf 603c 28ca 5cbc 1ab9 87bc 4eae b0bc
00000190: 891b f53d 34f6 2c3d 3ca2 a53c 48b5 acbd
000001a0: 047f f4bc 94c5 a5bd 914b 6fbd 057f 86bd
000001b0: 4882 3b3d ad84 8c3d 00dc 753d b6e1 f2bd
000001c0: 2d70 3abc fe59 ddbd 1bdb 61bd b9e7 f53d
000001d0: 9d3f a7bd be86 e23d edf4 d93d f16e 373b
000001e0: 5622 f13d d29d d03d 29f0 2e3c a4f8 313d
000001f0: 91eb e4bd c45d 71bd eb46 5f3b 0d1c dbbd
00000200: f404 12bc 57af 0a3c 27c6 ac3d c015 bf3d
00000210: fcf5 5c3d 5356 b23c 9fbb 1abc 55a2 01bd
00000220: 0b5f aabd 55e0 f3bd bc11 dfbd e700 ae3d
00000230: 7007 7e3d 46b3 0f3b ea5d ddbc 5a5d e7bc
00000240: aeee 393d ebd6 5fbd f098 59bd f6df 80bd
00000250: 5626 dfbd aa85 4ebd d3a8 9e3d 2ca9 7f3a
00000260: ac94 b0bd e61b 073a 91bf ec3b be9b d2bd
00000270: b9b2 d3bd 388a 7c3b 1698 c8bd 2273 aa3d
00000280: 49d2 cc3c fe7f a13d c782 913d 8194 503d
00000290: 7e5d 8a3d 8c48 683d 352d 7fbd 28fd e7bd
000002a0: a883 c83d a118 37bd 1b38 c23d b94e 63bd
000002b0: 84ff 003d 62ff ebbd 8d5d a83d d813 f9bc
000002c0: ff01 f93d 5f9c fa3d a15e 293b bee1 1d3d
000002d0: 4284 bcbd ede3 a1bd 4054 3dbd 0e90 b5bd
000002e0: 69e8 3cbd 17ce fa3c 113a f9bc f8ab a7bc
000002f0: 70d4 713d fc42 8fbd e20c d6bc 8776 b1ba
00000300: 9b99 e2bd 0af5 273d c0a0 c33d 7e22 fe3d
00000310: 53ca 90bd 0da5 fbbc 3bb7 ac3d 0bbf a6bd
00000320: de85 afbd 1654 c13c afd4 c13d 27b3 f7bd
00000330: c228 babd 16b2 18bd ec9b 81bd f8be 2c3d
00000340: d76a 643d 0e08 713d 3b71 66bd 1f00 143c
00000350: ff83 bdbc b1b3 a3bd 1abb f5bd f423 db3d
00000360: 1650 0c3d 22d3 2fbd ee24 82bd 96c5 4c3d
00000370: a1f6 c73d 1d56 29b9 9cca ed3d a70e dfbd
00000380: 05f9 dcbd aea7 7d3d 6562 dfbd 27a4 21bc
00000390: ab4d ba3d d245 693c 478f 953d cd7f 0ebd
000003a0: 5716 9bbd 8bec 3ebd 5ad4 9bbd fd02 e33d
000003b0: 91c4 d43c d9fd 283d cf76 81bc db66 f7bd
000003c0: d97c 633d 463d a8bd c934 e93c a9f2 6a3d
000003d0: 9618 573c 47af 86bd 98b8 ebbd 2cbf 943d
000003e0: 9490 59bc 1fa2 b73d 4745 57bd 5e58 023d
000003f0: 4f2c a93d 1eaf e1b8 ef01 83bd 1030 ac3d

fc0.0.bias f4 [64]
-0.12413431 -0.10884695 -0.012111107 -0.027534874 -0.08104032 -0.09548206 -0.04908587 -0.060303792
-0.037011806 0.0384424 0.11361183 -0.040767197 0.017654218 -0.10544407 0.111350074 0.029231407
-0.1085867 0.0510868 -0.088577986 0.06451157 -0.10908156 -0.023927042 -0.09078694 -0.030284537
-0.07720828 0.033288788 0.07763362 0.03803636 0.071805604 -0.092037365 -0.050009407 0.05529806
-0.027065314 0.07344971 -0.12028952 -0.011041237 0.061861984 -0.024998594 0.038524095 -0.08758637
0.030328343 0.04057994 0.0032045103 -0.0346702 0.0367188 0.04381128 -0.104004055 -0.036231626
0.101411976 0.06934622 -0.036810517 0.017834581 -0.08764242 0.08179122 -0.02230068 0.043820057
0.07311523 -0.07204156 -0.035421215 -0.06257192 0.062453557 -0.09850778 0.06227435 0.04197497
00000000: 213a febd 26eb debd aa6d 46bc d190 e1bc
00000010: 78f8 a5bd 198c c3bd 440e 49bd 1c01 77bd
00000020: b199 17bd c775 1d3d 52ad e83d 81fb 26bd
00000030: 949f 903c 10f3 d7bd 820b e43d b476 ef3c
00000040: b462 debd 6440 513d 6068 b5bd a41e 843d
00000050: 2766 dfbd a502 c4bc 81ee b9bd 4717 f8bc
00000060: 601f 9ebd d359 083d 60fe 9e3d 04cc 1b3d
00000070: d10e 933d 167e bcbd aad6 4cbd 3880 623d
00000080: 14b8 ddbc cd6c 963d 5a5a f6bd 4ee6 34bc
00000090: fe62 7d3d dac9 ccbc 71cb 1d3d 7c60 b3bd
000000a0: 2573 f83c 2737 263d c302 523b 5702 0ebd
000000b0: 7466 163d 7573 333d 1400 d5bd 9d67 14bd
000000c0: 15b1 cf3d 6405 8e3d a0c6 16bd d419 923c
000000d0: de7d b3bd 2882 a73d eaaf b6bc a97c 333d
000000e0: 70bd 953d 878a 93bd d615 11bd b525 80bd
000000f0: 4dcf 7f3d 72be c9bd 6413 7f3d f2ed 2b3d

fc1.0.weight f4 [64, 64]
-0.056545913 -0.09409822 0.03384221 -0.08759441 0.045180235 -0.10554037 -0.116200976 0.07846539
0.016410531 0.1037937 0.090714335 0.058397118 -0.05120899 -0.04034765 0.09223007 0.113279566
-0.038435392 -0.00030010688 -0.021002034 0.10333671 0.09946553 -0.045882743 0.05118443 0.075041994
-0.032687534 0.09130615 0.092243575 0.06545385 -0.12148285 -0.10697819 -0.09003259 0.10254809
0.11369555 -0.049889944 -0.11378315 0.0031939317 -0.105669685 0.0640136 -0.11960431 0.0027761622
0.032586385 -0.016668476 0.008683125 0.054345567 0.09209172 -0.08678307 0.11225164 0.0976297
-0.05290983 0.02972212 -0.0022033802 0.05320854 -0.04488663 -0.090581425 0.026172334 -0.059972435
0.0940433 -0.08266513 0.05230047 0.058839608 -0.025666453 -0.025225138 -0.023651948 0.011127698
0.04400936 0.07538974 0.09661293 -0.03173864 -0.12037114 -0.06792725 -0.093859434 0.049423326
-0.026166622 -0.09210686 -0.0012686624 0.04363952 0.02435691 -0.086410254 0.035789024 0.12406441
0.01614604 0.069419585 0.0019718627 -0.006173466 -0.05759591 0.0041556573 -0.10025721 -0.050967496
0.027021918 0.08802437 0.10785158 -0.0056188796 -0.07178129 -0.006918993 -0.029921714 0.057304192
0.006567568 -0.06950157 0.06929619 0.05245112 -0.05104444 0.062113933 0.07084595 0.121477336
0.1020636 0.10995106 0.009788427 -0.12366588 0.103074245 0.060006753 -0.0848903 0.033408932
0.088143185 0.102895424 0.026876498 -0.12502867 -0.07138735 -0.0572203 -0.09228948 -0.05040634
0.025517909 -0.03448446 -0.08921101 0.09259504 -0.09058812 0.038224313 -0.048850562 -0.04685835
-0.061101884 0.0553191 -0.0039154505 0.12199418 -0.08805123 0.07147643 0.014730151 -0.044294767
0.07245414 -0.053334955 0.11207326 0.015065743 -0.07916988 -0.007205227 -0.08065371 -0.022612559
-0.09074236 0.022687005 -0.0937408 -0.06510144 0.08552764 -0.04564868 -0.11181651 -0.09936293
0.069414735 0.044698525 0.09659488 0.09284166 -0.038153492 0.10317582 -0.120467454 -0.080021404
-0.08064106 0.010963589 0.11018283 -0.07072311 0.092849575 -0.057184145 0.11910583 -0.06959614
0.010404937 -0.11194275 -0.021272566 -0.079412684 -0.04266589 0.10010302 0.050160747 0.12405043
0.09767825 0.009980205 -0.09142922 0.061783765 0.1048901 -0.09414507 -0.1184523 0.058686625
-0.09615917 0.019647649 -0.08961014 -0.021810448 0.059361104 -0.059934616 0.08513467 -0.056835953
-0.026387187 0.114700526 0.07964516 0.055746052 -0.0774557 0.06253915 0.031615745 -0.07906383
0.01991525 0.09780069 -0.00213369 -0.10493834 0.06003015 -0.030665329 0.039557178 -0.12135939
0.0072579053 0.011065634 -0.05638651 -0.096231624 -0.08270368 -0.10260757 0.023729637 -0.007891561
0.036586825 -0.060185436 -0.11735015 -0.07598775 -0.023291983 -0.06902916 -0.081550434 -0.11190243
0.09604284 -0.014891394 -0.09191625 0.10520739 -0.097088456 -0.11665575 0.061859243 -0.037095517
0.09298501 -0.07870876 0.09222896 -0.09805187 -0.0064999857 -0.05402885 -0.016684672 0.05634933
-0.11519769 0.020012828 -0.10677983 0.057037048 0.00579674 -0.015874038 0.022938488 0.022076067
-0.10020498 0.04216696 -0.009278242 -0.017784018 0.116518565 -0.056137256 -0.06774853 0.11744512
00000000: b09c 67bd 91b6 c0bd 219e 0a3d b364 b3bd
00000010: e90e 393d 8d25 d8bd c7fa edbd 76b2 a03d
00000020: 616f 863c cb91 d43d 70c8 b93d d131 6f3d
00000030: 85c0 51bd 9443 25bd 1ee3 bc3d 1eff e73d
00000040: 6e6e 1dbd aa57 9db9 750c acbc 32a2 d33d
00000050: 95b4 cb3d 8bef 3bbd c4a6 513d 9eaf 993d
00000060: 5de3 05bd b8fe ba3d 33ea bc3d ab0c 863d
00000070: 00cc f8bd 6217 dbbd 0263 b8bd bc04 d23d
00000080: 36d9 e83d 6659 4cbd 2407 e9bd 4851 513b
00000090: 5969 d8bd 9019 833d 1bf3 f4bd 46f0 353b
000000a0: 4d79 053d 548c 88bc aa43 0e3c 7599 5e3d
000000b0: 959a bc3d 52bb b1bd 30e4 e53d 15f2 c73d
000000c0: fab7 58bd ce7b f33c 9666 10bb 33f1 593d
000000d0: 0bdb 37bd c182 b9bd 5d67 d63c a8a5 75bd
000000e0: c699 c03d 564c a9bd 0539 563d cd01 713d
000000f0: 7442 d2bc f3a4 cebc bbc1 c1bc f350 363c
00000100: 2943 343d f065 9a3d 00dd c53d 6000 02bd
00000110: 2585 f6bd 711d 8bbd 6039 c0bd 1d70 4a3d
00000120: 625b d6bc 85a2 bcbd 3f49 a6ba 5abf 323d
00000130: 2488 c73c dcf7 b0bd 8397 123d 7b15 fe3d
00000140: b344 843c db2b 8e3d 5e3a 013b c94a cabb
00000150: b0e9 6bbd 2e2c 883b a753 cdbd 4bc3 50bd
00000160: 125d dd3c 1f46 b43d 4ae1 dc3d 941e b8bb
00000170: 1202 93bd b8b8 e2bb 621e f5bc cdb7 6a3d
00000180: c134 d73b d756 8ebd 29eb 8d3d fcd6 563d
00000190: fa13 51bd 2e6b 7e3d ae17 913d 1cc9 f83d
000001a0: b906 d13d 052e e13d a35f 203c 8944 fdbd
000001b0: 9718 d33d a4c9 753d f7da adbd ced7 083d
000001c0: 6a84 b43d d6ba d23d 1a2c dc3c 8407 00be
000001d0: 8833 92bd d55f 6abd 4402 bdbd e176 4ebd
000001e0: ef0a d13c 943f 0dbd 43b4 b6bd 78a2 bd3d
000001f0: 4486 b9bd 1991 1c3d 8717 48bd 8bee 3fbd
00000200: f845 7abd 4896 623d 2e4d 80bb 16d8 f93d
00000210: 3454 b4bd 3c62 923d bb56 713c 6e6e 35bd
00000220: d662 943d c175 5abd aa86 e53d 4ed6 763c
00000230: d123 a2bd d319 ecbb c62d a5bd f93d b9bc
00000240: 21d7 b9bd 19da b93c 2dfb bfbd e753 85bd
00000250: 1e29 af3d 1cfa 3abd 0e00 e5bd cb7e cbbd
00000260: 5029 8e3d cd15 373d 89d3 c53d c523 be3d
00000270: d646 1cbd d84d d33d a4b7 f6bd 43e2 a3bd
00000280: 2427 a5bd a0a0 333c 89a7 e13d 47d7 90bd
00000290: eb27 be3d ec39 6abd c2ed f33d 6c88 8ebd
000002a0: 7879 2a3c 3e42 e5bd ce43 aebc 1ea3 a2bd
000002b0: 6ec2 2ebd d002 cd3d 5b75 4d3d 270e fe3d
000002c0: 890b c83d 0484 233c 3e3f bbbd f910 7d3d
000002d0: 9fd0 d63d 21cf c0bd 1f97 f2bd 6361 703d
000002e0: 19ef c4bd 1bf4 a03c 8585 b7bd d3ab b2bc
000002f0: a124 733d 007e 75bd 165b ae3d d1cc 68bd
00000300: f129 d8bc 1ce8 ea3d 001d a33d f955 643d
00000310: 18a1 9ebd 8714 803d 837f 013d 38ec a1bd
00000320: 4e25 a33c ba4b c83d 61d5 0bbb eae9 d6bd
00000330: 2de2 753d db35 fbbc b506 223d 468b f8bd
00000340: b9d3 ed3b a24c 353c 8bf5 66bd 1615 c5bd
00000350: 8c60 a9bd eb23 d2bd a864 c23c 9b4b 01bc
00000360: 11dc 153d 0185 76bd 4755 f0bd 779f 9bbd
00000370: d4ce bebc 295f 8dbd ea03 a7bd 1a2d e5bd
00000380: 1cb2 c43d 09fb 73bc 963e bcbd f976 d73d
00000390: 50d6 c6bd 36e9 eebd 1e60 7d3d 78f1 17bd
000003a0: ed6e be3d 0f32 a1bd 89e2 bc3d 6bcf c8bd
000003b0: d5fd d4bb 5b4d 5dbd 4bae 88bc 8ece 663d
000003c0: c4ec ebbd f1f1 a33c 62af dabd ae9f 693d
000003d0: 94f2 bd3b 450a 82bc 7fe9 bb3c ded8 b43c
000003e0: 4538 cdbd 43b7 2c3d c403 18bc caaf 91bc
000003f0: 49a1 ee3d 2ef0 65bd bebf 8abd 1187 f03d

fc1.0.bias f4 [64]
0.04370579 -0.07193651 0.040330295 0.013425644 0.0013582642 -0.076426245 0.10360886 0.04153238
0.110840775 -0.030314837 0.01517022 0.031268556 -0.0031200647 0.11534114 0.10422361 -0.0002324041
-0.013473449 -0.06824742 -0.10241898 0.082461126 -0.07170627 0.018393723 0.082585216 -0.047009278
-0.040401515 0.021036163 -0.02394491 0.09763282 -0.0115044825 -0.11462177 0.1066152 0.043163363
0.08121344 0.0003300095 0.094396435 0.07567183 -0.10808897 -0.06963824 -0.09201565 -0.0808584
-0.02691538 0.04112209 -0.011827353 0.05573146 -0.07951233 -0.1153525 -0.11748733 -0.1163507
0.12323414 -0.1240647 -0.061090346 0.090371475 -0.023148999 -0.061430242 -0.020952445 0.109813504
0.002637183 0.093209036 0.0133602 -0.054474127 -0.11841582 -0.047530584 0.071126364 0.120459616
00000000: d804 333d 7353 93bd 6131 253d 3bf7 5b3c
00000010: c907 b23a 5d85 9cbd e230 d43d db1d 2a3d
00000020: 7d00 e33d d256 f8bc 848c 783c 7513 003d
00000030: 007a 4cbb fa37 ec3d 3073 d53d 80b1 73b9
00000040: bebf 5cbc 4ec5 8bbd 0bc1 d1bd 61e1 a83d
00000050: bdda 92bd 6fae 963c 7022 a93d cd8c 40bd
00000060: 0f7c 25bd 0854 ac3c 1e28 c4bc b7f3 c73d
00000070: 4c7d 3cbc d2be eabd 1259 da3d 11cc 303d
00000080: 3b53 a63d 2005 ad39 eb52 c13d d5f9 9a3d
00000090: c05d ddbd 7e9e 8ebd b372 bcbd 1799 a5bd
000000a0: a57d dcbc a36f 283d 84c7 41bc ac46 643d
000000b0: 5cd7 a2bd ee3d ecbd 339d f0bd 4749 eebd
000000c0: 2e62 fc3d a215 febd df39 7abd ae14 b93d
000000d0: f8a2 bdbc 479e 7bbd 76a4 abbc e7e5 e03d
000000e0: 97d4 2c3b 61e4 be3d bee4 5a3c 4320 5fbd
000000f0: fe83 f2bd 6eaf 42bd b3aa 913d 88b3 f63d

fc2.0.weight f4 [64, 64]
-0.097687714 0.11471563 -0.10267499 -0.040424302 -0.12056478 -0.0027044832 -0.10114188 0.055141635
-0.006757465 0.076617755 -0.045733575 -0.043071073 0.045968287 -0.10170105 -0.09999962 -0.10583789
0.0439332 0.10683812 -0.07911399 0.09740034 -0.07038675 0.021128006 0.05552 -0.0059291627
-0.09543113 -0.106115185 0.094147705 -0.09142284 -0.06114951 -0.08095299 -0.09630261 -0.041122682
-0.08016879 0.031060753 0.041697357 -0.11176611 -0.113066554 -0.09631583 -0.044345964 -0.043905646
-0.01602477 0.043103363 0.10153312 -0.110118285 -0.009858019 0.08580037 0.024107603 0.1058141
0.097465634 0.048338857 -0.053935613 0.054100316 -0.012172385 -0.003692238 0.03844433 -0.007935365
-0.048140824 -0.028205082 -0.12044052 0.032532793 0.11335184 0.10908693 0.041030865 -0.09601334
-0.064780004 -0.0589582 0.013018386 -0.06719571 0.10261854 -0.056019813 0.11450673 -0.07424477
-0.018204285 -0.010764245 -0.09320045 0.10536683 -0.036316626 -0.111362465 0.123865806 -0.05365091
-0.014193477 0.07721521 0.022600653 -0.098916605 0.041596778 0.04295423 -0.02564426 -0.106028
0.047790937 0.106668614 -0.05127006 0.015252265 -0.047536608 -0.06540739 -0.062802 -0.095236234
-0.075738996 -0.05153268 0.05796361 -0.013737424 -0.12426099 0.02108912 0.053983886 -0.092026494
0.08197034 0.072017446 -0.08338276 0.06465169 -0.0009582088 -0.0679674 0.073274046 -0.015736787
0.01762683 -0.036285404 0.021023592 0.029329166 0.011484646 0.0099445265 0.12200034 0.06714407
0.07914443 0.027825607 -0.06412754 -0.11043497 -0.013138212 0.050458845 0.050055243 0.028026046
0.026242424 0.0140761 0.06330473 0.088022776 0.11151984 0.042021103 0.044897016 0.010894601
0.043443564 0.057573333 -0.05535635 -0.048178736 0.08545253 -0.07239417 -0.06495099 -0.10997141
-0.08990111 -0.064411566 -0.10916927 0.032215662 0.041454304 0.07946123 0.030222503 0.009586317
-0.012306017 -0.075850196 0.044794336 0.07331854 -0.0016121853 0.055692833 0.03983642 -0.065640144
-0.07260722 -0.0032153793 -0.095747404 0.0025392931 -0.08263319 -0.082441114 0.017623898 -0.011396173
0.039480276 -0.072662674 0.020426998 -0.06889037 -0.022132011 -0.04915203 0.02848445 -0.10817039
0.017156124 -0.1010074 -0.06790733 0.057527613 -0.101015374 -0.0062068338 -0.1077574 -0.012017562
-0.05972942 -0.05959926 -0.0064097745 -0.0061109588 0.106500156 0.11792576 -0.07771782 -0.09891976
-0.112222016 0.008729272 -0.12269708 -0.09348514 -0.024014974 0.045057263 -0.021003133 0.0768575
0.11745966 0.0010603156 0.016967162 0.061898343 -0.091055095 0.12068541 0.06003907 -0.04373844
-0.08820335 -0.119341634 -0.085872434 0.051720016 0.016207946 0.08079045 -0.12074246 -0.055575036
-0.037114147 -0.0109370705 0.0004172352 -0.121688895 0.09642104 -0.06855702 0.08885098 -0.07387549
-0.11277866 -0.071180575 0.10820803 -0.060980216 -0.0037563085 -0.08473639 -0.108365685 0.09176832
-0.037654843 -0.074804775 -0.04531856 -0.0733468 0.037462313 0.09000266 0.08598513 0.04777085
-0.12403057 -0.07833143 -0.018894594 -0.08500495 -0.11699157 0.105265014 -0.08291045 -0.006600319
-0.040101495 0.064210534 -0.082003 0.1117153 0.009489791 0.09152338 0.086098045 0.030868676
00000000: 7f10 c8bd 07f0 ea3d 4447 d2bd f493 25bd
00000010: abea f6bd b33d 31bb 7923 cfbd 32dc 613d
00000020: ba6d ddbb c5e9 9c3d 2153 3bbd 4b6b 30bd
00000030: 3e49 3c3d a448 d0bd 9acc ccbd 89c1 d8bd
00000040: 4df3 333d f2cd da3d 8406 a2bd d479 c73d
00000050: ee26 90bd a414 ad3c f168 633d 6c49 c2bb
00000060: 6571 c3bd eb52 d9bd 83d0 c03d e63b bbbd
00000070: e977 7abd aeca a5bd 4e3a c5bd 4270 28bd
00000080: 892f a4bd 1f73 fe3c d9ca 2a3d a1e5 e4bd
00000090: 708f e7bd 3c41 c5bd 1da4 35bd 68d6 33bd
000000a0: 6146 83bc 278d 303d 99f0 cf3d b285 e1bd
000000b0: 8783 21bc 1bb8 af3d 4f7d c53c 10b5 d83d
000000c0: 109c c73d f7fe 453d 97eb 5cbd 4b98 5d3d
000000d0: af6e 47bc 79f9 71bb cd77 1d3d 5503 02bc
000000e0: 502f 45bd 580e e7bc 85a9 f6bd 1b41 053d
000000f0: 0225 e83d f868 df3d fb0f 283d a4a2 c4bd
00000100: 61ab 84bd 277e 71bd 124b 553c e89d 89bd
00000110: ab29 d23d 0875 65bd 8182 ea3d a40d 98bd
00000120: 2721 95bc 845c 30bc e1df bebd 91ca d73d
00000130: bec0 14bd 0112 e4bd 5bad fd3d 0ec1 5bbd
00000140: c28b 68bc 0223 9e3d 0125 b93c ca94 cabd
00000150: 6261 2a3d c6f0 2f3d e913 d2bc 3525 d9bd
00000160: 6ec0 433d 1375 da3d 8e00 52bd a3e4 793c
00000170: bfb5 42bd 4ff4 85bd 569e 80bd 370b c3bd
00000180: 0c1d 9bbd ee13 53bd 406b 6d3d ef12 61bc
00000190: 8c7c febd 17c3 ac3c 351e 5d3d 6378 bcbd
000001a0: 11e0 a73d e27d 933d 95c4 aabd 1b68 843d
000001b0: 4e30 7bba 7e32 8bbd b410 963d 6fea 80bc
000001c0: 2466 903c 01a0 14bd ab39 ac3c b843 f03c
000001d0: 192a 3c3c 5eee 223c 50db f93d d582 893d
000001e0: 7a16 a23d 87f2 e33c 4d55 83bd bb2b e2bd
000001f0: a841 57bc efad 4e3d ba06 4d3d e196 e53c
00000200: 5afa d63c 719f 663c e9a5 813d 4945 b43d
00000210: 8464 e43d 521e 2c3d efe5 373d 457f 323c
00000220: e1f1 313d 04d2 6b3d 57bd 62bd 1157 45bd
00000230: bc01 af3d 6543 94bd 0605 85bd b138 e1bd
00000240: 131e b8bd 36ea 83bd 2394 dfbd 92f4 033d
00000250: fdcb 293d 92bc a23d 2f95 f73c ee0f 1d3c
00000260: 2d9f 49bc 5957 9bbd 447a 373d 0828 963d
00000270: f64f d3ba 2b1e 643d 842b 233d 576e 86bd
00000280: 18b3 94bd 1db9 52bb 3717 c4bd 456a 263b
00000290: 973b a9bd e3d6 a8bd fe5f 903c 04b7 3abc
000002a0: 12b6 213d 2bd0 94bd 8556 a73c 6516 8dbd
000002b0: 314e b5bc a453 49bd 3958 e93c 7088 ddbd
000002c0: 008b 8c3c f8dc cebd 0013 8bbd 13a2 6b3d
000002d0: 26e1 cebd b262 cbbb e9af dcbd 4fe5 44bc
000002e0: d6a6 74bd 5b1e 74bd 1609 d2bb 703e c8bb
000002f0: c11c da3d 1083 f13d 852a 9fbd 7196 cabd
00000300: a8d4 e5bd 3805 0f3c 9b48 fbbd 2375 bfbd
00000310: 0dbb c4bc f78d 383d c30e acbc 7767 9d3d
00000320: b18e f03d 4afa 8a3a b8fe 8a3c 1e89 7d3d
00000330: 187b babd ea29 f73d 87eb 753d 1427 33bd
00000340: f5a3 b4bd 6369 f4bd e3dd afbd 5ed8 533d
00000350: 87c6 843c 7775 a53d d347 f7bd a6a2 63bd
00000360: 0105 18bd 6631 33bc 5cc0 da39 0738 f9bd
00000370: 6578 c53d 9f67 8cbd 81f7 b53d 084c 97bd
00000380: 80f8 e6bd 1fc7 91bd 2c9c dd3d 64c6 79bd
00000390: 662c 76bb 468a adbd d4ee ddbd 07f1 bb3d
000003a0: f73b 1abd 3f33 99bd f49f 39bd d936 96bd
000003b0: 1572 193d 5153 b83d f918 b03d 5eab 433d
000003c0: bd03 febd 3b6c a0bd d6c8 9abc 1317 aebd
000003d0: 4799 efbd 2f95 d73d f4cc a9bd 7d47 d8bb
000003e0: 7741 24bd d080 833d 30f1 a7bd feca e43d
000003f0: 117b 1b3c 9c70 bb3d 2c54 b03d 4ee0 fc3c

fc2.0.bias f4 [64]
-0.080643095 -0.09246026 -0.108408764 0.10111988 0.044946667 -0.1107437 -0.037571304 -0.00070290617
0.06354308 -0.08300465 0.03783852 0.03615179 0.096021235 -0.10031402 0.11977185 0.049029116
-0.07181775 -0.042985298 -0.02773989 0.05290867 -0.006528864 -0.06946067 0.030969072 0.08307654
0.03400823 0.12360483 0.049559455 0.054151002 0.025760043 -0.107563876 0.07560349 -0.03682539
-0.08846386 0.051946376 -0.059554465 0.067909755 -0.10872489 -0.120839655 0.063190244 0.09415117
-0.07637571 0.043265373 -0.005572344 -0.1165887 -0.062750205 0.0016353235 -0.107233405 -0.020744318
-0.0068619973 0.045647375 -0.054313418 -0.0731316 0.11197199 0.03977272 -0.05585586 0.03831864
-0.056980874 -0.11440507 0.024225516 0.07789141 0.09551812 0.09527363 0.08946163 0.122346625
00000000: 3528 a5bd ce5b bdbd 6a05 debd f117 cf3d
00000010: ff19 383d 98cd e2bd 5ee4 19bd 3c43 38ba
00000020: e022 823d 58fe a9bd 90fc 1a3d e613 143d
00000030: c8a6 c43d 7071 cdbd f24a f53d c1d2 483d
00000040: 2f15 93bd 5a11 30bd c43e e3bc c3b6 583d
00000050: 15f0 d5bb 6541 8ebd dab2 fd3c 0824 aa3d
00000060: 374c 0b3d 8724 fd3d dbfe 4a3d 71cd 5d3d
00000070: ba06 d33c 734a dcbd 01d6 9a3d 38d6 16bd
00000080: 8a2c b5bd b9c5 543d 62ef 73bd 4514 8b3d
00000090: 28ab debd c87a f7bd e369 813d 54d2 c03d
000000a0: de6a 9cbd 0837 313d 3698 b6bb 0ec6 eebd
000000b0: 2e83 80bd 5a58 d63a 309d dbbd fdef a9bc
000000c0: 9bda e0bb bef8 3a3d bf77 5ebd 05c6 95bd
000000d0: 9251 e53d b8e8 223d 1dc9 64bd 02f4 1c3d
000000e0: c764 69bd 354d eabd 9774 c63c 8885 9f3d
000000f0: 019f c33d d21e c33d a937 b73d de90 fa3d

fc3.0.weight f4 [64, 64]
-0.07745637 0.041259494 -0.0941451 0.11007626 0.076515555 -0.104018144 -0.012017555 -0.093383946
-0.06629316 0.04461353 0.046115957 0.11149371 0.123289965 0.044854112 -0.014290021 -0.027518192
0.07129001 0.115943134 -0.013944411 -0.049612116 0.06279952 -0.07052961 0.00459182 -0.0053640786
0.050810277 0.0046280664 0.036545772 -0.011741236 -0.09907606 0.12504885 0.0652417 0.040864415
-0.06895872 0.05076676 0.05457791 -0.020468121 -0.06641205 0.02885367 0.048391804 0.09083353
0.11604394 -0.07847122 -0.077821806 0.022304265 -0.03177294 0.086873874 0.08359865 -0.09748152
0.10089542 -0.122044496 0.057568684 0.015659975 -0.028495576 -0.004548031 -0.023176944 -0.06598842
-0.042769644 0.016037848 0.041475423 0.12023398 0.025081776 -0.093653575 0.071958415 -0.021407764
-0.008807884 0.09879114 0.020196235 0.024524396 0.07647164 -0.076782 -0.06823752 0.017593633
0.01663765 -0.04403299 -0.030653747 0.07438603 0.019373545 0.08020816 -0.03147887 -0.06868044
-0.100764915 -0.05786442 0.04629088 0.05384697 -0.083459385 -0.057597406 -0.09538559 0.107437685
-0.04973479 -0.018909872 -0.11973432 -0.06523621 0.090434924 -0.09978667 -0.12452658 0.029631888
0.06720247 0.05911641 -0.095419325 -0.12404737 0.064198375 0.07743941 0.10461852 0.033237647
0.059120547 -0.04628903 -0.07741631 -0.04926434 -0.02663251 0.094708234 0.04455935 -0.052757654
-0.05340055 -0.06477213 0.06307621 0.04545848 0.07297555 -0.007794206 -0.0331935 0.06335508
0.0957896 0.04666371 -0.043377575 -0.026599424 -0.010943068 -0.043210756 0.01680811 0.08152102
-0.07886943 0.018254519 0.0065829456 -0.10318996 -0.03430201 -0.070866644 -0.04207878 0.04048246
-0.06739713 -0.05859141 -0.03947991 0.085591555 0.046951964 0.01674898 -0.078685656 -0.120745555
0.07632841 -0.060990646 0.097281665 0.055483818 0.09814955 0.09233703 0.12131563 0.024305776
-0.11576457 0.028255865 0.035985276 -0.09657268 0.035132393 0.10335623 0.11256194 -0.043465838
-0.11650528 -0.10275817 0.06461421 0.019447207 -0.09757383 -0.059535906 0.017375723 -0.05224356
-0.022687405 -0.083886474 0.04810396 -0.028625935 0.059329465 -0.023195863 0.11670512 -0.021903679
0.0720126 -0.06914994 -0.05634363 -0.12288934 0.042986438 0.09060292 -0.011175066 0.11326878
-0.05442831 0.03610827 0.024833009 -0.066209495 -0.045273423 0.01169838 0.054933965 0.06262706
0.018429363 -0.023960903 -0.07197676 0.07401935 -0.045502838 0.01499727 -0.07402988 -0.010997596
0.0014691614 -0.093786635 0.091808386 -0.033135034 -0.013261682 0.017921573 -0.08600941 -0.036865506
0.008752915 0.09506874 -0.030254547 -0.10678201 0.02462853 -0.09202552 -0.110088475 0.102704674
0.005436156 -0.07098006 -0.04965312 0.124138825 0.023799289 -0.03233045 -0.05086864 0.084016964
-0.103361286 0.0046042386 0.029397491 -0.029788217 0.040180393 -0.07057227 -0.0057755476 0.07257493
-0.081368856 -0.12204711 -0.012076769 0.01949099 0.11441073 -0.040399056 0.07350787 -0.1180489
0.11096192 0.0034257125 -0.11314092 -0.09240883 0.1075108 0.09020712 -0.0071785813 -0.00044140482
0.11768524 0.07779829 0.06956877 0.07220974 -0.05424725 -0.006608257 -0.00416061 -0.0119291525
00000000: 72a1 9ebd b7ff 283d 25cf c0bd aa6f e13d
00000010: 30b4 9c3d 7707 d5bd 47e5 44bc 1540 bfbd
00000020: b5c4 87bd adbc 363d 16e4 3c3d d056 e43d
00000030: 737f fc3d f2b8 373d b120 6abc d56d e1bc
00000040: 7f00 923d 9873 ed3d 1977 64bc 1336 4bbd
00000050: 099d 803d d471 90bd fa76 963b 27c5 afbb
00000060: 701e 503d 09a7 973b 05b1 153d 505e 40bc
00000070: 64e8 cabd ce0c 003e 719d 853d 7261 273d
00000080: 3b3a 8dbd cef0 4f3d 168d 5f3d c3ac a7bc
00000090: 0a03 88bd 885e ec3c 7c36 463d ee06 ba3d
000000a0: 72a8 ed3d 85b5 a0bd 0a61 9fbd 6fb7 b63c
000000b0: 5824 02bd eeea b13d c535 ab3d 64a4 c7bd
000000c0: 42a2 ce3d 77f2 f9bd 24cd 6b3d 5949 803c
000000d0: 8e6f e9bc a607 95bb 93dd bdbc f024 87bd
000000e0: 392f 2fbd ce61 833c 22e2 293d 3c3d f63d
000000f0: 4c78 cd3c 72cd bfbd ef5e 933d 565f afbc
00000100: f14e 10bc 0253 ca3d 9372 a53c 63e7 c83c
00000110: 2a9d 9c3d e23f 9dbd 1dc0 8bbd 8620 903c
00000120: ae4b 883c f05b 34bd 911d fbbc b457 983d
00000130: 45b5 9e3c 2d44 a43d fdef 00bd 55a8 8cbd
00000140: d65d cebd 3e03 6dbd 819b 3d3d a48e 5c3d
00000150: c1ec aabd 42eb 6bbd 8559 c3bd 4a08 dc3d
00000160: b5b6 4bbd e0e8 9abc 4437 f5bd 909a 85bd
00000170: f235 b93d f45c ccbd cb07 ffbd 93be f23c
00000180: 73a1 893d 0c24 723d 356b c3bd 8c0c febd
00000190: 707a 833d 8e98 9e3d 3c42 d63d 3324 083d
000001a0: 6328 723d 9199 3dbd 718c 9ebd 68c9 49bd
000001b0: 6c2c dabc 64f6 c13d dd83 363d 6918 58bd
000001c0: 89ba 5abd 40a7 84bd 1a2e 813d ac32 3a3d
000001d0: 3574 953d 8a66 ffbb e8f5 07bd 4fc0 813d
000001e0: 562d c43d 7222 3f3d afac 31bd 09e7 d9bc
000001f0: 8e4a 33bc c3fd 30bd 29b1 893c 7ef4 a63d
00000200: 4c86 a1bd 808a 953c c0b5 d73b 4255 d3bd
00000210: 4480 0cbd 8822 91bd cc5a 2cbd f0d0 253d
00000220: 8207 8abd 8cfd 6fbd b0b5 21bd a04a af3d
00000230: b450 403d 2835 893c f225 a1bd 7249 f7bd
00000240: 1252 9c3d 54d1 79bd 9c3b c73d 0043 633d
00000250: a202 c93d 321b bd3d 5474 f83d e81c c73c
00000260: fa15 edbd d878 e73c 4c65 133d e6c7 c5bd
00000270: fce6 0f3d 6eac d33d e086 e63d 3c09 32bd
00000280: 529a eebd e072 d2bd 7454 843d c04f 9f3c
00000290: cad4 c7bd ecdb 73bd 8857 8e3c 58fd 55bd
000002a0: f0da b9bc accc abbd a808 453d f080 eabc
000002b0: 7403 733d 4005 bebc 1803 ef3d 586f b3bc
000002c0: 587b 933d 7c9e 8dbd 94c8 66bd 68ad fbbd
000002d0: 8c12 303d 068e b93d a017 37bc 76f9 e73d
000002e0: 38f0 5ebd 44e6 133d 986e cb3c d898 87bd
000002f0: a070 39bd 90aa 3f3c 7002 613d 9e42 803d
00000300: 2df9 963c a849 c4bc 8d68 93bd 7597 973d
00000310: 2f61 3abd 1cb7 753c fa9c 97bd 432f 34bc
00000320: e090 c03a 3513 c0bd 0906 bc3d 9ab8 07bd
00000330: 8747 59bc 43d0 923c b425 b0bd 4900 17bd
00000340: 6368 0f3c 66b3 c23d 62d8 f7bc 87b0 dabd
00000350: c5c1 c93c e077 bcbd 1176 e1bd d456 d23d
00000360: c821 b23b fe5d 91bd 1261 4bbd 7f3c fe3d
00000370: baf6 c23c ef6c 04bd a35b 50bd 1611 ac3d
00000380: 15af d3bd 27df 963b 02d3 f03c 6b06 f4bc
00000390: 3294 243d 3288 90bd ce40 bdbb 2aa2 943d
000003a0: b7a4 a6bd d6f3 f9bd a4dd 45bc 92ab 9f3c
000003b0: 2c50 ea3d 7b79 25bd 4b8b 963d 9fc3 f1bd
000003c0: 0140 e33d eb81 603b 6db6 e7bd d740 bdbd
000003d0: 9f2e dc3d 83be b83d 4e3a ebbb 5a6c e7b9
000003e0: f604 f13d b654 9f3d 127a 8e3d b3e2 933d
000003f0: 5d32 5ebd 148a d8bb ba55 88bb 7e72 43bc
