blocksize-4/model_epoch_0_100.pth (torch, 206491 bytes, 13 tensors)

embedding.0.weight f4 [64, 7]
000000 af 97 b5 be c2 73 ab be 4b d8 6e 3e b5 7b 8c bd
       -0.35467288 -0.33486754 0.23324697 -0.06859533
000010 33 f9 16 be 10 36 c1 be ec 1f 15 3e 71 9d 9d 3e
       -0.147435 -0.3773656 0.14562958 0.3078418
000020 72 f1 40 be 9b 28 53 be 00 4d 8d 3e 0e 85 83 3e
       -0.18842104 -0.20620959 0.2759781 0.2568745
000030 4c cc a9 3e a8 83 d7 3d 92 31 02 be 07 28 bc be
       0.3316368 0.10523158 -0.12714222 -0.36749288
000040 ed 4c aa 3e d3 a9 b9 3e f0 af 74 be 5e 54 b6 be
       0.33261815 0.36262378 -0.2389524 -0.35611242
000050 17 5e da bc 0b 27 05 be 14 5e 41 3e 56 3c b1 3d
       -0.026656194 -0.13003175 0.18883544 0.08654086
000060 be 36 7e bc 55 16 06 3e 2d 42 90 be 29 dd e5 bd
       -0.015515981 0.13094456 -0.28175488 -0.112238236
000070 e5 df a4 3e 7a 01 bc be c6 4b b1 3e 65 10 6f be
       0.32202068 -0.36719877 0.34628123 -0.23346098
000080 d7 9b 34 3e 24 b9 2f 3e e7 4f 98 be 43 d6 0f bd
       0.17637573 0.1716047 -0.2974846 -0.035116445
000090 ef 39 78 3e 2c 12 6a 3e 39 47 99 be 96 c5 0e be
       0.2424085 0.22858495 -0.2993715 -0.1394256
0000a0 34 f9 27 be 0c ec 27 3e 23 a2 65 be 5d 9f 71 be
       -0.16403657 0.16398638 -0.22425131 -0.23595949
0000b0 ec ef 23 3e 1d b8 a3 be cb 01 1a be 46 f4 d6 bd
       0.16009492 -0.31976405 -0.15039746 -0.1049581
0000c0 42 11 d6 3c 31 f7 73 3d 5d f5 67 be ff c1 00 be
       0.026131276 0.059561912 -0.22652192 -0.12574004
0000d0 ec 0e cf 3c 07 c8 e0 3d 26 bd 48 3d e5 03 2b 3e
       0.02527567 0.10975652 0.04900851 0.16700704
0000e0 1b 45 b9 be d0 ea a7 be e9 1e d9 3d fe 63 d1 bd
       -0.36185536 -0.32796335 0.10601599 -0.1022415
0000f0 7f 32 8e be 2e 00 a0 3e 98 fb 45 be dc 9b 27 be
       -0.277729 0.31250137 -0.19334257 -0.1636805
000100 15 c1 77 bc cc f0 45 bd 2b 8c 9d be 82 6f 09 3e
       -0.015121718 -0.048325345 -0.30771002 0.13421443
000110 6e 7b 78 be 99 fb 74 bd 9b e2 98 be fe 4a 2a bd
       -0.24265835 -0.059810255 -0.29860386 -0.041575424
000120 fc 54 3c be 17 2b 79 bd 7e 83 a2 3d 94 81 63 be
       -0.18391794 -0.06083211 0.079352364 -0.22217399
000130 5a dc 1b 3e 07 f5 84 be 0b 44 5a be ce 27 98 3b
       0.15220776 -0.2596819 -0.21315019 0.004643417
000140 c9 5b 75 3e ba cd 5a 3e 71 aa 0a 3d 29 ff 26 3e
       0.23960795 0.21367541 0.03385395 0.16308273
000150 f3 43 2c 3e 71 e4 6a 3e 44 ff bf be 5e f9 b3 be
       0.16822796 0.22938706 -0.3749944 -0.3515119
000160 18 d2 a5 be 2d 9f a8 be 9d 1a 1d be 8a 67 5b 3d
       -0.3238685 -0.3293394 -0.15342183 0.05356554
000170 38 f6 69 3e 96 a9 0e 3e 1a c0 3b be e7 ef ba 3d
       0.22847831 0.1393188 -0.18335 0.09127789
000180 98 9c 23 3d 3c c5 f6 3d cd f1 0f 3e 02 01 31 3e
       0.03994426 0.12049338 0.14057083 0.1728554
000190 1b b7 2d bd 45 5a 88 be ab 82 53 be 46 81 06 3e
       -0.04241095 -0.2663137 -0.20655315 0.13135251
0001a0 44 8d 95 3e ab 08 51 3e f9 98 94 3e f8 5c 0f be
       0.2920934 0.20413463 0.2902296 -0.14000309
0001b0 70 9f 46 be 4a b2 0e be 20 e9 88 be a1 ed d2 bc
       -0.19396758 -0.139352 -0.2674036 -0.025748076
0001c0 ef 53 5e 3e f2 25 66 be b4 48 30 be 06 5f 00 3e
       0.21711706 -0.22475412 -0.17215234 0.12536249
0001d0 bb 0e 67 3e 30 5a b8 be dd 9b b2 3e d4 73 bc be
       0.22564213 -0.36006308 0.3488454 -0.3680712
0001e0 d5 a6 cc 3d 9b d3 c3 bd 6c c2 27 3e fd 4d 93 bc
       0.09992758 -0.09561845 0.1638276 -0.017981524
0001f0 99 3c a5 3e e6 6b 4e bd 30 8f 30 3e 83 8d 64 be
       0.32272795 -0.05039587 0.17242122 -0.22319607
000200 bd d5 3c be ca 66 8f be 8f 8b 0b be 63 d3 bb 3e
       -0.1844091 -0.2800811 -0.13627456 0.36684713
000210 08 7c bf be 9d 5f 0e 3e b6 e5 83 be 29 33 40 be
       -0.37399316 0.13903661 -0.25761193 -0.18769516
000220 a8 cb b3 3e 2e 96 f4 bd 6b ca c0 3e e1 e9 5f 3c
       0.35116315 -0.11942707 0.37654433 0.013666601
000230 11 31 6d 3e 12 50 f3 bd 55 f2 b6 3b df 8a 9a be
       0.23163249 -0.118805066 0.0055830874 -0.30184075
000240 a6 5f 67 3e 26 08 aa 3e a7 0e 8a be 1d 58 13 be
       0.2259508 0.33209342 -0.26964304 -0.14389081
000250 b2 f6 45 3d 53 ee 78 be fd 4a 78 be 01 6d bc be
       0.04833097 -0.24309663 -0.24247356 -0.36801913
000260 87 96 1e 3e 43 50 b1 3e 14 ca af bc cc 97 3f bd
       0.15487109 0.34631547 -0.021458663 -0.046775624
000270 87 e0 f5 3d 6c 73 73 3e 3a 11 6b be 06 45 af 3e
       0.12005716 0.23774499 -0.2295579 0.34232348
000280 40 9b 20 bd 79 c9 01 be 59 9e 81 3e f2 f0 04 be
       -0.039210558 -0.12674512 0.25316122 -0.12982538
000290 61 4d ff bd 3e ea 20 be 2c 30 a2 be 86 98 0f be
       -0.12465931 -0.15714356 -0.31677377 -0.14023027
0002a0 c1 d6 a7 be 29 b4 8a 3e 71 87 b7 be c1 1c 48 3e
       -0.32781032 0.27090576 -0.3584552 0.19542219
0002b0 e0 9d 9c 3e 7d ab e5 3d dc df 32 3e 20 48 84 be
       0.305892 0.112143494 0.17468208 -0.25836277
0002c0 df 4d 18 3e 29 ed 48 3e a0 fd 7f bd 59 08 65 be
       0.14873455 0.1962172 -0.062497735 -0.22366466
0002d0 c4 a1 a2 3e 27 f3 38 bc ab bd 9f 3e e3 86 b6 3d
       0.31764042 -0.011288441 0.31199393 0.08912446
0002e0 e4 94 30 bd 8d 80 dc bd 40 07 46 3e 33 57 8d 3c
       -0.043110743 -0.107667066 0.19338703 0.017253494
0002f0 53 72 91 3e a9 30 35 be 4b 8a 01 be f9 af 2b 3e
       0.28407535 -0.17694344 -0.12650411 0.16766347
000300 11 78 9b 3d d8 4f 46 be aa 19 a3 be 85 1f 2d be
       0.0759126 -0.19366395 -0.31855518 -0.16906555
000310 79 3a 80 bd 0a 76 43 3d 1f 65 0b 3e 3d 8d f7 3b
       -0.06261153 0.047719993 0.13612793 0.0075546787
000320 a8 d2 63 3e 59 a1 7f be e3 11 8f bc 3b 62 3c be
       0.22248328 -0.24963893 -0.017464584 -0.18396847
000330 8b 41 5e be b2 29 66 be 85 31 97 ba 19 68 56 3e
       -0.2170469 -0.22476843 -0.0011535144 0.20938148
000340 65 60 be 3d 41 19 0b 3e d9 9f 52 be 3e a4 7d 3e
       0.092957295 0.13583852 -0.2056879 0.24769685
000350 4b 23 8d 3e ba 3f 94 3d 9c 02 1f be fb c4 c0 be
       0.2756599 0.072387174 -0.15528339 -0.37650284
000360 be 31 5b 3e 1d 26 13 3e 21 f5 50 3e fc 27 a6 be
       0.21405694 0.14370008 0.2040601 -0.3245238
000370 7d e9 80 3e 1e af 47 3e 56 21 70 3e d3 6b 54 3e
       0.25178137 0.19500396 0.23450217 0.20744257
000380 a3 07 43 3e d9 63 b4 3e 7c b9 a3 be b5 14 6d bd
       0.19045882 0.35232428 -0.3197745 -0.057881076
000390 66 44 5c 3e 5e 3b 2d be 59 ec b6 3e 80 cf 03 3e
       0.21510467 -0.16917178 0.35727194 0.12872124
0003a0 64 ba 86 3e 42 e1 ab 3e eb 67 b7 3e f2 ab da bd
       0.2631408 0.33570296 0.3582147 -0.10677327
0003b0 aa 98 8c be 9a d9 23 3e cb c1 03 be 10 60 71 3e
       -0.27460223 0.16000977 -0.12866895 0.23571801
0003c0 67 22 35 3d 84 b1 18 bd 39 c8 74 3e d7 d6 c6 3d
       0.04422226 -0.037278667 0.23904504 0.09708946
0003d0 34 6e 89 3e 9b 57 02 3e bc 07 1a 3e 68 81 82 3e
       0.2684189 0.12728731 0.15042013 0.25489354
0003e0 13 ad bb be bd 79 ac bd c8 cf 3a be 45 9c 0d 3e
       -0.36655483 -0.08421657 -0.18243325 0.13829143
0003f0 68 79 ae 3e 54 f6 db bd dd 35 7d be 37 83 64 be
       0.34077 -0.10740343 -0.24727578 -0.2231568

embedding.0.bias f4 [64]
000000 b8 34 38 be 88 1b ed 3d 34 c0 57 be 17 e1 48 3e
       -0.1798886 0.11577517 -0.21069413 0.19617115
000010 bf 5f 86 be 57 64 a0 3e 1a 84 a3 be 32 08 9a be
       -0.26244923 0.31326553 -0.31936723 -0.30084378
000020 f4 93 f3 3d 9b d4 9e 3d 63 15 91 3d 43 6c 2d bb
       0.11893454 0.07755395 0.07084157 -0.0026462234
000030 5f f8 bf 3e d0 e5 63 bd bd 8b a8 3c 4b 5c 91 3e
       0.3749418 -0.05563909 0.020574445 0.28390726
000040 00 fd 24 3e 87 89 b7 3e c9 f8 fd bd 6a 15 7a 3c
       0.16112137 0.35847113 -0.12400968 0.015263895
000050 8a 82 af be 3d db 43 be 64 2e 49 3e a7 2e 98 be
       -0.3427928 -0.19126602 0.19646603 -0.29723093
000060 d5 74 1e be 7b 64 af be ca 16 b9 3e bb cd 89 3e
       -0.15474255 -0.34256348 0.361502 0.26914772
000070 10 a2 7f 3d e6 62 b6 3d 60 ac 54 3e f9 ec 80 3e
       0.062410414 0.08905582 0.20768881 0.25180796
000080 dd 40 8e 3e 18 a2 99 be fa aa bb 3c 4b 5b 8c bb
       0.27783862 -0.3000648 0.022908676 -0.004283344
000090 21 63 8d 3e e7 4e 19 3e 71 7f 4a bd ad 42 25 3e
       0.27614692 0.14971505 -0.049437944 0.16138716
0000a0 16 16 51 be 71 50 b5 3e a6 0d 22 3e 2b 18 1e be
       -0.20418581 0.35412934 0.15825519 -0.15438907
0000b0 e0 30 ac be 0e 1c ab 3e c8 34 53 be 3e 47 41 be
       -0.3363104 0.33419842 -0.20625603 -0.18874833
0000c0 82 fd 66 be 45 29 99 be 17 1c 6f be 6c e4 47 3e
       -0.22557643 -0.299143 -0.23350559 0.1952073
0000d0 60 f8 70 3e 58 6a 9f 3c 42 3a 2f 3e fe bd b4 be
       0.23532248 0.019459888 0.17112067 -0.35301203
0000e0 f4 e4 d9 3d 6b 38 bc be 4e 44 4d be 6b a0 a6 be
       0.106393725 -0.36761793 -0.20045587 -0.32544264
0000f0 d2 99 ea bd 64 52 0f bc e2 aa 84 3e f0 3a 3b 3e
       -0.1145512 -0.008747671 0.25911623 0.18284202

layernorm.weight f4 [259, 64]
000000 59 01 80 3f e3 f5 7f 3f 2d ff 7f 3f aa ff 7f 3f
       1.0000411 0.9998457 0.9999874 0.9999949
000010 02 00 80 3f 65 00 80 3f 00 00 80 3f cd fd 7f 3f
       1.0000002 1.000012 1.0 0.99996644
000020 ec ff 7f 3f 4b 00 80 3f 33 01 80 3f 3c ef 7f 3f
       0.9999988 1.000009 1.0000366 0.9997442
000030 eb ff 7f 3f 4d 07 80 3f 6e 0d 80 3f 00 00 80 3f
       0.99999875 1.0002228 1.0004098 1.0
000040 81 f7 7f 3f 72 00 80 3f 00 00 80 3f 91 ff 7f 3f
       0.99987036 1.0000136 1.0 0.9999934
000050 09 00 80 3f 1f 12 80 3f 0f ff 7f 3f be ff 7f 3f
       1.0000011 1.000553 0.99998564 0.99999607
000060 8b f8 7f 3f 5b 00 80 3f 57 01 80 3f a4 ff 7f 3f
       0.9998862 1.0000108 1.0000409 0.9999945
000070 45 00 80 3f fb 02 80 3f 92 01 80 3f 8c 10 80 3f
       1.0000082 1.000091 1.0000479 1.000505
000080 ed f8 7f 3f 2f fe 7f 3f 37 00 80 3f 23 f6 7f 3f
       0.99989206 0.9999723 1.0000066 0.9998495
000090 00 00 80 3f 31 0e 80 3f 02 00 80 3f 2f 00 80 3f
       1.0 1.0004331 1.0000002 1.0000056
0000a0 a3 ec 7f 3f 0e 00 80 3f 19 00 80 3f 20 ee 7f 3f
       0.99970454 1.0000017 1.000003 0.99972725
0000b0 af ff 7f 3f 53 00 80 3f ea ff 7f 3f 1f 0a 80 3f
       0.9999952 1.0000099 0.9999987 1.0003089
0000c0 09 ec 7f 3f 92 04 80 3f 90 00 80 3f a1 02 80 3f
       0.99969536 1.0001395 1.0000172 1.0000802
0000d0 00 00 80 3f a8 e1 7f 3f 00 00 80 3f 94 ff 7f 3f
       1.0 0.999537 1.0 0.99999356
0000e0 43 00 80 3f 72 0b 80 3f 58 09 80 3f 56 ff 7f 3f
       1.000008 1.0003493 1.0002851 0.99998987
0000f0 00 00 80 3f 61 00 80 3f 11 00 80 3f 05 00 80 3f
       1.0 1.0000116 1.000002 1.0000006
000100 c6 ff 7f 3f 36 00 80 3f 8c fe 7f 3f 25 00 80 3f
       0.99999654 1.0000064 0.9999778 1.0000044
000110 00 00 80 3f f9 ff 7f 3f f5 ff 7f 3f 17 00 80 3f
       1.0 0.9999996 0.99999934 1.0000027
000120 00 00 80 3f 1c 00 80 3f 08 00 80 3f da 00 80 3f
       1.0 1.0000033 1.000001 1.000026
000130 eb ff 7f 3f 05 00 80 3f 00 00 80 3f f5 ff 7f 3f
       0.99999875 1.0000006 1.0 0.99999934
000140 26 00 80 3f 42 00 80 3f 00 00 80 3f ee ff 7f 3f
       1.0000045 1.0000079 1.0 0.9999989
000150 00 00 80 3f 31 00 80 3f 75 ff 7f 3f 00 00 80 3f
       1.0 1.0000058 0.9999917 1.0
000160 8f 00 80 3f 12 00 80 3f 07 00 80 3f f1 ff 7f 3f
       1.000017 1.0000021 1.0000008 0.9999991
000170 10 00 80 3f e2 ff 7f 3f 45 00 80 3f c3 06 80 3f
       1.0000019 0.9999982 1.0000082 1.0002064
000180 34 00 80 3f 78 ff 7f 3f fa ff 7f 3f 31 00 80 3f
       1.0000062 0.9999919 0.99999964 1.0000058
000190 00 00 80 3f c7 02 80 3f 08 00 80 3f 00 00 80 3f
       1.0 1.0000848 1.000001 1.0
0001a0 38 00 80 3f 9b ff 7f 3f 00 00 80 3f ca 00 80 3f
       1.0000067 0.999994 1.0 1.0000241
0001b0 06 00 80 3f 00 00 80 3f f3 ff 7f 3f 64 ff 7f 3f
       1.0000007 1.0 0.9999992 0.9999907
0001c0 c6 00 80 3f 49 00 80 3f 37 00 80 3f 17 00 80 3f
       1.0000236 1.0000087 1.0000066 1.0000027
0001d0 00 00 80 3f af f0 7f 3f d9 ff 7f 3f d9 ff 7f 3f
       1.0 0.9997663 0.9999977 0.9999977
0001e0 1e 00 80 3f 74 ff 7f 3f 02 00 80 3f a5 ff 7f 3f
       1.0000036 0.99999166 1.0000002 0.9999946
0001f0 00 00 80 3f 04 00 80 3f f8 ff 7f 3f 00 00 80 3f
       1.0 1.0000005 0.9999995 1.0
000200 d9 00 80 3f 78 f9 7f 3f 63 ff 7f 3f a8 ff 7f 3f
       1.0000259 0.99990034 0.99999064 0.99999475
000210 00 00 80 3f 25 00 80 3f 00 00 80 3f 32 fe 7f 3f
       1.0 1.0000044 1.0 0.99997246
000220 f5 ff 7f 3f 30 00 80 3f a9 00 80 3f 5c f6 7f 3f
       0.99999934 1.0000057 1.0000201 0.9998529
000230 eb ff 7f 3f 1c 04 80 3f 3a 07 80 3f 00 00 80 3f
       0.99999875 1.0001254 1.0002205 1.0
000240 23 fb 7f 3f 75 00 80 3f 00 00 80 3f a4 ff 7f 3f
       0.9999258 1.000014 1.0 0.9999945
000250 04 00 80 3f be 0a 80 3f 06 ff 7f 3f dc ff 7f 3f
       1.0000005 1.0003278 0.9999851 0.99999785
000260 e8 fc 7f 3f 41 00 80 3f d6 00 80 3f b5 ff 7f 3f
       0.9999528 1.0000077 1.0000255 0.9999955
000270 32 00 80 3f b5 01 80 3f 5c 01 80 3f 69 0a 80 3f
       1.000006 1.0000521 1.0000415 1.0003177
000280 f7 fd 7f 3f fd fe 7f 3f 28 00 80 3f 82 fb 7f 3f
       0.99996895 0.99998456 1.0000048 0.99993145
000290 00 00 80 3f 83 08 80 3f 04 00 80 3f 27 00 80 3f
       1.0 1.0002598 1.0000005 1.0000046
0002a0 45 f5 7f 3f 02 00 80 3f 14 00 80 3f 47 f5 7f 3f
       0.99983627 1.0000002 1.0000024 0.9998364
0002b0 c5 ff 7f 3f 38 00 80 3f ed ff 7f 3f d6 05 80 3f
       0.9999965 1.0000067 0.99999887 1.0001781
0002c0 d2 f4 7f 3f 19 03 80 3f 5f 00 80 3f 97 01 80 3f
       0.9998294 1.0000945 1.0000113 1.0000485
0002d0 00 00 80 3f f9 ed 7f 3f 00 00 80 3f 9a ff 7f 3f
       1.0 0.9997249 1.0 0.9999939
0002e0 37 00 80 3f cf 07 80 3f 2f 05 80 3f ad ff 7f 3f
       1.0000066 1.0002383 1.0001582 0.99999505
0002f0 00 00 80 3f 45 00 80 3f 0b 00 80 3f 03 00 80 3f
       1.0 1.0000082 1.0000013 1.0000004
000300 b2 ff 7f 3f 31 00 80 3f d4 fe 7f 3f 20 00 80 3f
       0.99999535 1.0000058 0.9999821 1.0000038
000310 ff ff 7f 3f fa ff 7f 3f f7 ff 7f 3f 0f 00 80 3f
       0.99999994 0.99999964 0.99999946 1.0000018
000320 00 00 80 3f 0c 00 80 3f 05 00 80 3f 68 00 80 3f
       1.0 1.0000014 1.0000006 1.0000124
000330 ec ff 7f 3f 01 00 80 3f 1f 00 80 3f f7 ff 7f 3f
       0.9999988 1.0000001 1.0000037 0.99999946
000340 23 00 80 3f 47 00 80 3f 00 00 80 3f eb ff 7f 3f
       1.0000042 1.0000085 1.0 0.99999875
000350 ff ff 7f 3f bc 00 80 3f 82 ff 7f 3f 00 00 80 3f
       0.99999994 1.0000224 0.9999925 1.0
000360 97 00 80 3f 0f 00 80 3f 05 00 80 3f f4 ff 7f 3f
       1.000018 1.0000018 1.0000006 0.9999993
000370 0e 00 80 3f e0 ff 7f 3f 40 00 80 3f ad 05 80 3f
       1.0000017 0.9999981 1.0000076 1.0001732
000380 0b 00 80 3f 7c ff 7f 3f fe ff 7f 3f 3b 00 80 3f
       1.0000013 0.99999213 0.9999999 1.000007
000390 00 00 80 3f e1 01 80 3f 0c 00 80 3f 00 00 80 3f
       1.0 1.0000573 1.0000014 1.0
0003a0 32 00 80 3f af ff 7f 3f 00 00 80 3f 14 00 80 3f
       1.000006 0.9999952 1.0 1.0000024
0003b0 04 00 80 3f 00 00 80 3f f2 ff 7f 3f 04 00 80 3f
       1.0000005 1.0 0.99999917 1.0000005
0003c0 1f 00 80 3f 3d 00 80 3f 26 00 80 3f 14 00 80 3f
       1.0000037 1.0000073 1.0000045 1.0000024
0003d0 00 00 80 3f 61 f3 7f 3f de ff 7f 3f dd ff 7f 3f
       1.0 0.9998074 0.999998 0.9999979
0003e0 1c 00 80 3f 0b 00 80 3f 08 00 80 3f b0 ff 7f 3f
       1.0000033 1.0000013 1.000001 0.99999523
0003f0 00 00 80 3f 1d 00 80 3f 00 00 80 3f 00 00 80 3f
       1.0 1.0000035 1.0 1.0

layernorm.bias f4 [259, 64]
000000 33 5c 32 37 73 08 84 b7 69 52 1a 37 7e 5a 66 b7
       1.0631094e-05 -1.573956e-05 9.198303e-06 -1.3730138e-05
000010 27 52 0c b7 2c ed 02 37 86 98 1c b7 ee b5 c9 b6
       -8.363778e-06 7.803825e-06 -9.333837e-06 -6.011446e-06
000020 33 ec 19 37 e7 b6 71 b7 6e 5b c3 b6 eb f0 9d b7
       9.174505e-06 -1.4407305e-05 -5.8220967e-06 -1.8828045e-05
000030 a2 24 80 35 60 c1 a9 37 2a 91 b1 37 9c be 5b 36
       9.547405e-07 2.0236417e-05 2.1167642e-05 3.2744492e-06
000040 51 15 3b b6 88 d0 8d b7 d2 23 dd b6 0f cc 1b b7
       -2.787758e-06 -1.6905615e-05 -6.5904833e-06 -9.286231e-06
000050 20 e8 15 b7 36 de ea 37 8c c1 a9 b4 c8 7a ae 37
       -8.935138e-06 2.7998449e-05 -3.1619527e-07 2.079959e-05
000060 5e 68 14 b6 8e 05 d3 b6 e0 6e 31 b5 17 4a d0 35
       -2.2114468e-06 -6.2889367e-06 -6.609898e-07 1.5518771e-06
000070 c4 30 e4 b6 d1 8b 91 37 a4 19 c3 36 a1 73 c2 37
       -6.8006066e-06 1.7350454e-05 5.814438e-06 2.3180446e-05
000080 54 65 3c 36 22 ba 97 35 03 0e 05 37 96 7f ee b6
       2.8073164e-06 1.1304548e-06 7.93068e-06 -7.1078057e-06
000090 ef 4b 21 37 4a 81 a7 37 f5 5f 6d b7 af 5b d7 36
       9.6140275e-06 1.9968156e-05 -1.4148643e-05 6.4181727e-06
0000a0 6b 0f 81 b7 59 8e 7c 37 c6 a6 8a b5 c3 fe 5a b7
       -1.5385178e-05 1.5053513e-05 -1.0330339e-06 -1.3053129e-05
0000b0 46 ee 0e 37 b2 72 4c b6 50 5e 16 b6 25 d0 78 37
       8.519337e-06 -3.046513e-06 -2.240664e-06 1.4830414e-05
0000c0 14 46 60 b7 4a 62 98 37 69 94 fd b6 a6 00 8b 36
       -1.3367757e-05 1.8165581e-05 -7.557265e-06 4.1425983e-06
0000d0 e2 69 ed b5 81 8d b8 b7 2e ee 16 37 52 64 c9 36
       -1.7688692e-06 -2.2000402e-05 8.996152e-06 6.0019456e-06
0000e0 39 ac 15 b7 1f 42 03 38 16 a8 c8 37 e7 16 02 37
       -8.921191e-06 3.1294414e-05 2.3920129e-05 7.753936e-06
0000f0 3e 3c 8f 36 53 45 86 37 ea 79 31 37 40 a2 1d b6
       4.268745e-06 1.6006326e-05 1.05784075e-05 -2.3489265e-06
000100 d4 94 13 37 b5 7c 90 b7 51 f9 cd 36 4c 18 7b b7
       8.7965345e-06 -1.7224209e-05 6.1385003e-06 -1.4966423e-05
000110 3b e8 29 b7 a4 79 81 36 af 7d 73 b7 cb 86 0d b7
       -1.0127255e-05 3.8586604e-06 -1.4513192e-05 -8.435639e-06
000120 0a 44 fd 36 08 28 82 b7 96 c2 16 b7 30 81 c5 b7
       7.5479084e-06 -1.5515849e-05 -8.986002e-06 -2.3544388e-05
000130 b2 e3 a2 32 a7 c2 b2 37 6c 16 81 37 7c c6 f4 36
       1.8962826e-08 2.1309896e-05 1.538844e-05 7.2948733e-06
000140 e3 d4 f0 b6 02 19 ab b7 66 3b b7 b6 7f 3f 0b b7
       -7.1773406e-06 -2.0396434e-05 -5.46074e-06 -8.2998295e-06
000150 ef 55 6e b7 f4 15 e1 37 ea 2b d1 b5 7b cd e2 37
       -1.4205913e-05 2.6832313e-05 -1.5584494e-06 2.7036984e-05
000160 38 57 d7 b6 4f 47 2f b7 ed 07 7f b6 f1 4d 05 37
       -6.417653e-06 -1.0447416e-05 -3.8002574e-06 7.945565e-06
000170 da d6 07 b7 6c ab 6f 37 e7 5e 97 b6 a5 12 cb 37
       -8.096651e-06 1.4285422e-05 -4.5111988e-06 2.4208168e-05
000180 b8 ac f6 b6 2a aa 40 b6 97 06 42 36 0d 63 85 b7
       -7.3514784e-06 -2.8709278e-06 2.8912089e-06 -1.590096e-05
000190 99 18 19 37 61 83 9f 37 ae 15 62 b7 43 00 41 35
       9.125238e-06 1.9015455e-05 -1.3475697e-05 7.1898484e-07
0001a0 6c 7d 9b b7 61 eb bc 37 2d 99 5c b6 b1 2c d5 b7
       -1.8535844e-05 2.2520953e-05 -3.2871715e-06 -2.541239e-05
0001b0 9b 56 3c 37 7c ea 1c b7 3f e8 f9 b6 d8 4e df 36
       1.1225838e-05 -9.35292e-06 -7.4478153e-06 6.6550965e-06
0001c0 33 89 b2 b7 b0 db 9b 37 f0 41 47 b7 6e 2c 5b b6
       -2.1283142e-05 1.857974e-05 -1.1876677e-05 -3.2659404e-06
0001d0 9a e3 0e b6 86 74 e3 b7 f4 93 0e 37 cd 62 78 36
       -2.129213e-06 -2.711477e-05 8.498308e-06 3.701239e-06
0001e0 7d 4e 2c b7 ab d4 ef 37 09 61 a3 37 b1 52 12 37
       -1.0270273e-05 2.8590051e-05 1.94763e-05 8.721531e-06
0001f0 6c 57 65 36 18 57 a2 37 94 21 1c 37 56 bd e3 b5
       3.4174545e-06 1.9352461e-05 9.306143e-06 -1.6967922e-06
000200 2d 0c 06 37 66 27 3c b7 44 15 01 37 b7 f7 37 b7
       7.989857e-06 -1.1214846e-05 7.6939505e-06 -1.0965326e-05
000210 2d 97 fb b6 a6 77 a0 36 4b 00 01 b7 3a 2e a8 b6
       -7.497982e-06 4.7823005e-06 -7.689067e-06 -5.0121716e-06
000220 9a 64 91 36 2e ff 1d b7 d2 f4 86 b6 2a b8 58 b7
       4.3330483e-06 -9.417343e-06 -4.022012e-06 -1.2917482e-05
000230 11 5f c6 b3 6f dd 91 37 e3 9f 98 37 84 88 b2 36
       -9.237386e-08 1.738846e-05 1.8194265e-05 5.320706e-06
000240 65 f4 21 b6 34 9b 45 b7 6c 1b 85 b6 44 7e df b6
       -2.4133126e-06 -1.1778251e-05 -3.966901e-06 -6.660617e-06
000250 66 24 18 b7 c2 a0 cc 37 32 47 03 36 52 21 7f 37
       -9.068381e-06 2.4393554e-05 1.9561962e-06 1.5206942e-05
000260 7a 08 f6 b4 46 34 5d b6 59 bb 9b 35 ed 93 e3 35
       -4.5827238e-07 -3.2961993e-06 1.1602925e-06 1.695587e-06
000270 ef 44 d5 b6 22 fe 75 37 c3 e5 8d 36 20 00 95 37
       -6.3559196e-06 1.4662308e-05 4.2288752e-06 1.7762242e-05
000280 d1 37 84 36 e6 70 4e 36 36 7d e2 36 d2 16 af b6
       3.9404044e-06 3.0762108e-06 6.7499013e-06 -5.218063e-06
000290 b1 07 fd 36 5a 9d 86 37 f6 39 41 b7 c0 6c 56 36
       7.540883e-06 1.6047317e-05 -1.15171915e-05 3.1951786e-06
0002a0 ce 38 3e b7 93 d7 6e 37 3b bc 92 35 d3 4b 3c b7
       -1.1338108e-05 1.4236098e-05 1.093263e-06 -1.1223327e-05
0002b0 f2 b8 05 37 74 b0 62 b6 e5 e1 7c b6 47 78 41 37
       7.970479e-06 -3.3779334e-06 -3.7682414e-06 1.1531701e-05
0002c0 ce 32 3a b7 c8 f1 7f 37 ba 6d 6e b6 1d ac 54 36
       -1.1098293e-05 1.52554785e-05 -3.5528633e-06 3.1690645e-06
0002d0 f8 f0 2b b6 89 73 89 b7 4d de b7 36 d6 64 6a 36
       -2.5621248e-06 -1.6385473e-05 5.479704e-06 3.4927411e-06
0002e0 3e f8 06 b7 63 95 c4 37 63 29 a3 37 ef 1e b7 36
       -8.044821e-06 2.3434584e-05 1.9450386e-05 5.457426e-06
0002f0 66 32 19 36 d5 e1 69 37 c1 77 13 37 50 1d f1 b5
       2.2828112e-06 1.3940463e-05 8.789765e-06 -1.796443e-06
000300 44 83 ed 36 5f 1e 6a b7 66 b4 a4 36 fb 43 56 b7
       7.0784317e-06 -1.3954558e-05 4.908582e-06 -1.2771222e-05
000310 89 60 1c b7 54 af 70 36 b8 8b 51 b7 d8 c9 0a b7
       -9.320801e-06 3.5864841e-06 -1.2489902e-05 -8.272436e-06
000320 8c 58 a2 36 c5 33 4d b7 31 ec d0 b6 79 46 a3 b7
       4.8382844e-06 -1.2231006e-05 -6.2263794e-06 -1.946393e-05
000330 25 77 0d b5 00 76 a6 37 87 5f 5b 37 86 7e 02 37
       -5.269997e-07 1.984369e-05 1.3075659e-05 7.778062e-06
000340 af cd d1 b6 ee e4 8a b7 fb 70 a9 b6 51 8b ce b6
       -6.25263e-06 -1.6557486e-05 -5.049745e-06 -6.155497e-06
000350 00 42 4f b7 61 61 bf 37 4b 71 c1 b5 ca 24 c4 37
       -1.2353528e-05 2.281432e-05 -1.4412593e-06 2.3382152e-05
000360 68 46 c8 b6 82 5c 2e b7 91 8c 25 b6 06 06 da 36
       -5.968661e-06 -1.0392747e-05 -2.4668736e-06 6.4976075e-06
000370 0d cc e3 b6 d0 26 48 37 9d 46 7f b6 71 0f a6 37
       -6.788882e-06 1.1929966e-05 -3.8039063e-06 1.9795933e-05
000380 98 20 e6 b6 85 b7 65 b5 92 2d 12 36 0f 07 60 b7
       -6.8583286e-06 -8.5576204e-07 2.178222e-06 -1.3353084e-05
000390 53 2e e2 36 3d a2 8e 37 b1 9e 33 b7 6e 91 bc 32
       6.7407177e-06 1.7003267e-05 -1.070618e-05 2.1952214e-08
0003a0 e8 12 82 b7 b9 2b 9c 37 9a 00 35 b6 62 e2 b2 b7
       -1.5506012e-05 1.861701e-05 -2.6971452e-06 -2.1324671e-05
0003b0 d3 7a 20 37 95 d7 f5 b6 63 97 b9 b6 96 e1 85 36
       9.56534e-06 -7.326666e-06 -5.5310534e-06 3.9899705e-06
0003c0 47 2a 8d b7 23 da 85 37 07 46 0c b7 21 13 5c b6
       -1.6828197e-05 1.5956413e-05 -8.360955e-06 -3.279369e-06
0003d0 49 07 f2 b4 ce 48 b8 b7 5e 92 da 36 38 80 77 36
       -4.5081313e-07 -2.1968412e-05 6.5139457e-06 3.6880501e-06
0003e0 ea e5 16 b7 70 d7 c0 37 43 6c 90 37 1f 9b ba 36
       -8.994228e-06 2.2988504e-05 1.7216551e-05 5.5612904e-06
0003f0 56 d7 1d 36 7f fa 89 37 44 e6 0c 37 07 28 1a b6
       2.3520165e-06 1.6448319e-05 8.398263e-06 -2.2971087e-06

fc0.0.weight f4 [64, 64]
000000 75 a6 16 3d 31 7b ec 3d 1e 0f ef 3d b7 c7 f4 3b
       0.03677984 0.115469344 0.11672805 0.007470097
000010 a6 e9 c1 bd f2 2f 4e bd 81 e1 23 3d 6d 52 8e 3b
       -0.09468393 -0.050338693 0.04000998 0.004343322
000020 43 aa bb bc 1c 07 a7 3d f9 74 a0 3d a9 bf ff 3d
       -0.022908336 0.08155653 0.07834811 0.12487728
000030 84 03 1a 3d 09 d5 3e 3c e0 76 dc 3d bd af 81 bd
       0.03760101 0.011647471 0.10764861 -0.063323475
000040 2f 32 48 3c 4b d9 e1 3c f3 0b 54 bd 0f 5f b0 3d
       0.012218996 0.027569434 -0.05176921 0.08611881
000050 18 32 ae 3d a9 e5 09 3d 04 cb 6d bb 77 78 9c 3d
       0.085056484 0.033666287 -0.0036284337 0.07640164
000060 fe 9c ab 3d ba 10 ca 3d 2d 33 e1 bd 4c 5e b2 bd
       0.08379553 0.098664716 -0.10996089 -0.08709392
000070 98 1b ea bd 06 da f9 bb a3 fe c4 3d 03 8e ae 3d
       -0.11431044 -0.0076248674 0.096188806 0.0852318
000080 7d c9 86 3d c9 82 02 3d 47 76 11 3c cd 52 9a 3d
       0.065813996 0.031863008 0.008878297 0.07535324
000090 a3 73 18 bd f8 03 31 bd 66 92 e7 bc 24 1a e1 3c
       -0.037219655 -0.043216676 -0.02826805 0.027478285
0000a0 03 bd 80 bd 90 39 9f bd b3 28 d1 3d 9f b2 f4 3d
       -0.06286051 -0.07774651 0.10212841 0.11948132
0000b0 f5 cf c9 3c f2 ff 94 bd 71 73 0b bd 0e f3 b2 3d
       0.024635294 -0.0727538 -0.03404564 0.08737765
0000c0 8c 3d 28 bd 41 99 8c 3c 52 d0 80 3d ac 47 03 bc
       -0.04107432 0.01716292 0.06289734 -0.008012693
0000d0 53 01 5d bd 72 e1 ba bd 81 9d cd bb b3 f0 dd bd
       -0.05395634 -0.091250315 -0.0062748794 -0.10836925
0000e0 81 8d 95 bc 8c 5d a8 bd e7 f2 cb 3d f2 f1 7e 3c
       -0.01825595 -0.08220968 0.09958439 0.015560614
0000f0 69 af 1f 3d 45 a8 c2 ba 2a 3b ff 39 7a ff 92 3d
       0.038985644 -0.0014851174 0.0004868147 0.071776345
000100 26 b7 64 3d 30 ea 5b bd 17 e3 84 bd 30 e8 3c 3d
       0.055838726 -0.053690135 -0.064886265 0.04611987
000110 43 ba fd bc 0e fe b9 3d d0 aa 30 bd 85 ef 9f 3d
       -0.030972606 0.0908166 -0.04313165 0.078093566
000120 0b 73 50 3c e7 30 a7 3d 14 28 a9 3b cf 7d a3 bd
       0.012722741 0.08163624 0.0051622484 -0.079829805
000130 2b 51 a6 3d 8e fd 3c 3d be 77 8d 3d 3b 11 ba 3d
       0.0812095 0.046140246 0.06907605 0.09085318
000140 37 2c 8e bd 98 20 e0 3d 01 58 91 3d 2e 95 e9 3d
       -0.06942027 0.10943717 0.070968635 0.11405407
000150 57 1d 95 bd 6c bf de 3d f7 8c 9a bd 4d 3b e1 3d
       -0.07280987 0.108763546 -0.07546418 0.10997639
000160 07 8b a9 3d 8e 9e f2 3b 2c fe 99 3d 4a 81 d9 3d
       0.082784705 0.007404155 0.075191826 0.10620363
000170 f9 5c 37 bd cf 27 ec 3d 31 d7 ce bc fa 53 06 3d
       -0.0447664 0.115310304 -0.025249096 0.03279493
000180 d6 1a 61 3c d3 71 5c bc d4 a4 87 bc 7d a8 b0 bc
       0.013739308 -0.013454872 -0.016558088 -0.021564716
000190 89 1b f5 3d 79 04 2d 3d c9 a2 a5 3c 45 b5 ac bd
       0.119681425 0.042240594 0.020219224 -0.08433012
0001a0 4a 72 f4 bc 94 c5 a5 bd 73 4b 6f bd 5c 7e 86 bd
       -0.029839654 -0.08094326 -0.058421563 -0.0656707
0001b0 48 82 3b 3d ad 84 8c 3d 03 dc 75 3d 43 e0 f2 bd
       0.045778543 0.068612434 0.060024273 -0.11859181
0001c0 4f 5b 3a bc f6 59 dd bd a1 d5 61 bd 64 f3 f5 3d
       -0.011374309 -0.10808174 -0.055135373 0.12009314
0001d0 9d 3f a7 bd 56 8c e2 3d ed f4 d9 3d c2 81 37 3b
       -0.0816643 0.11061923 0.10642419 0.0028000926
0001e0 f5 22 f1 3d ef 9d d0 3d f9 f9 2e 3c a7 f8 31 3d
       0.11774246 0.101863734 0.010679715 0.043450024
0001f0 91 eb e4 bd 0b 5b 71 bd 6f d2 5f 3b 0d 1c db bd
       -0.11177743 -0.058924716 0.0034152528 -0.1069871
000200 5c 05 12 bc 9d a8 0a 3c 27 c6 ac 3d c0 15 bf 3d
       -0.008912411 0.008463052 0.08436232 0.0933032
000210 fc f5 5c 3d 41 56 b2 3c a1 bb 1a bc 57 a2 01 bd
       0.053945526 0.021769645 -0.009444148 -0.03164896
000220 0b 5f aa bd 55 e0 f3 bd bc 11 df bd e6 00 ae 3d
       -0.08318909 -0.11908022 -0.108920544 0.08496265
000230 70 07 7e 3d 52 a7 0f 3b 85 5f dd bc 5e 5d e7 bc
       0.06201881 0.00219198 -0.027023086 -0.028242763
000240 99 ee 39 3d ec d6 5f bd f0 98 59 bd f6 df 80 bd
       0.04539356 -0.054648325 -0.05312437 -0.06292717
000250 56 26 df bd b2 85 4e bd d3 a8 9e 3d 35 7e 7f 3a
       -0.10895984 -0.05042047 0.077470444 0.00097462843
000260 af 94 b0 bd 78 08 07 3a b5 b9 ec 3b be 9b d2 bd
       -0.08622109 0.0005151103 0.0072242864 -0.10283612
000270 b9 b2 d3 bd ca 93 7c 3b 19 98 c8 bd 1f 73 aa 3d
       -0.10336823 0.0038540238 -0.09794635 0.08322739
000280 13 c8 cc 3c f9 7f a1 3d c4 82 91 3d 80 94 50 3d
       0.024997747 0.07885737 0.0710502 0.05092287
000290 7e 5d 8a 3d 7c 48 68 3d 36 2d 7f bd 28 fd e7 bd
       0.067561135 0.05670975 -0.062298976 -0.113275826
0002a0 a7 83 c8 3d a1 18 37 bd 1b 38 c2 3d c0 4e 63 bd
       0.09790736 -0.044701222 0.094833575 -0.055495024
0002b0 84 ff 00 3d 62 ff eb bd 8d 5d a8 3d ca 16 f9 bc
       0.03149368 -0.1152332 0.082209684 -0.030406374
0002c0 fd 01 f9 3d 5e 9c fa 3d 5a 49 29 3b ed e0 1d 3d
       0.12158582 0.12236856 0.0025831074 0.038544584
0002d0 42 84 bc bd f0 e3 a1 bd 41 54 3d bd 0e 90 b5 bd
       -0.09204914 -0.07904804 -0.04622293 -0.08865367
0002e0 6c e8 3c bd 6c cd fa 3c 1d 3a f9 bc 04 ac a7 bc
       -0.046120092 0.03061553 -0.030423218 -0.020467766
0002f0 70 d4 71 3d fc 42 8f bd 48 0e d6 bc 8e 71 b1 ba
       0.059040487 -0.06995198 -0.026129857 -0.001353787
000300 9b 99 e2 bd 0a f5 27 3d c0 a0 c3 3d 7e 22 fe 3d
       -0.11064454 0.04100517 0.09552145 0.124089226
000310 53 ca 90 bd 0f a5 fb bc 3b b7 ac 3d 0b bf a6 bd
       -0.0706984 -0.030718355 0.08433386 -0.08141907
000320 de 85 af bd 13 54 c1 3c af d4 c1 3d 27 b3 f7 bd
       -0.08570455 0.02359966 0.09464394 -0.120947175
000330 c2 28 ba bd 16 b2 18 bd ec 9b 81 bd f8 be 2c 3d
       -0.09089805 -0.03727921 -0.06328568 0.04217431
000340 d7 6a 64 3d 0e 08 71 3d 3b 71 66 bd 86 ff 13 3c
       0.055765953 0.058845572 -0.05626033 0.0090330895
000350 02 84 bd bc b1 b3 a3 bd 1a bb f5 bd f4 23 db 3d
       -0.023134235 -0.07993258 -0.119985774 0.10700217
000360 16 50 0c 3d 22 d3 2f bd ee 24 82 bd 96 c5 4c 3d
       0.034256063 -0.04292596 -0.063547 0.04999312
000370 a1 f6 c7 3d 27 e1 2a b9 9c ca ed 3d a7 0e df bd
       0.097638376 -0.00016296339 0.1161091 -0.108914666
000380 05 f9 dc bd ae a7 7d 3d 65 62 df bd ce a4 21 bc
       -0.10789684 0.06192749 -0.10907439 -0.009865953
000390 ab 4d ba 3d 90 45 69 3c 47 8f 95 3d cd 7f 0e bd
       0.09096845 0.014237776 0.073027186 -0.03478985
0003a0 57 16 9b bd 8b ec 3e bd 5a d4 9b bd fd 02 e3 3d
       -0.0757262 -0.046612304 -0.07608862 0.11084554
0003b0 8e c4 d4 3c d9 fd 28 3d d2 76 81 bc db 66 f7 bd
       0.02597263 0.041257713 -0.015803728 -0.12080165
0003c0 d9 7c 63 3d 46 3d a8 bd c6 34 e9 3c a9 f2 6a 3d
       0.055538986 -0.08214812 0.028467547 0.057360325
0003d0 6f 18 57 3c 47 af 86 bd 98 b8 eb bd 2c bf 94 3d
       0.013128384 -0.065764 -0.11509818 0.07263026
0003e0 e5 90 59 bc 1f a2 b7 3d 47 45 57 bd 5e 58 02 3d
       -0.013279174 0.08966469 -0.052556302 0.031822555
0003f0 4f 2c a9 3d 68 0c e5 b8 ef 01 83 bd 10 30 ac 3d
       0.08260404 -0.00010921882 -0.06396853 0.08407605

fc0.0.bias f4 [64]
000000 22 3a fe bd 24 eb de bd 7b 74 46 bc bb 7f e1 bc
       -0.12413432 -0.10884693 -0.012112732 -0.027526727
000010 78 f8 a5 bd 19 8c c3 bd 44 0e 49 bd 1c 01 77 bd
       -0.08104032 -0.09548206 -0.04908587 -0.060303792
000020 b3 99 17 bd 9a 79 1d 3d 91 ad e8 3d 81 fb 26 bd
       -0.037011813 0.038446046 0.1136123 -0.040767197
000030 b6 95 90 3c 10 f3 d7 bd 78 0b e4 3d 64 74 ef 3c
       0.017649513 -0.10544407 0.11135 0.029230304
000040 b4 62 de bd 68 40 51 3d 60 68 b5 bd a6 1e 84 3d
       -0.1085867 0.051086813 -0.088577986 0.06451158
000050 24 66 df bd 15 12 c4 bc 86 ee b9 bd 84 22 f8 bc
       -0.10908154 -0.023934403 -0.09078698 -0.030289896
000060 60 1f 9e bd 1e 5a 08 3d 54 fe 9e 3d 92 c8 1b 3d
       -0.07720828 0.033289067 0.07763353 0.038033076
000070 d1 0e 93 3d 16 7e bc bd aa d6 4c bd 52 81 62 3d
       0.071805604 -0.092037365 -0.050009407 0.05529911
000080 fe b5 dd bc c8 6c 96 3d 5a 5a f6 bd ad d2 34 bc
       -0.02706432 0.07344967 -0.12028952 -0.011036557
000090 01 63 7d 3d a7 d9 cc bc 41 c6 1d 3d 7c 60 b3 bd
       0.061861996 -0.025006128 0.038519148 -0.08758637
0000a0 2c 75 f8 3c ac 38 26 3d 8e 16 52 3b 57 02 0e bd
       0.03032931 0.04058139 0.00320569 -0.0346702
0000b0 80 63 16 3d ba 76 33 3d 13 00 d5 bd bd 67 14 bd
       0.036715984 0.0438144 -0.10400405 -0.036231745
0000c0 40 b6 cf 3d 94 02 8e 3d 9b c6 16 bd 0b 26 92 3c
       0.10142183 0.069340855 -0.0368105 0.017840406
0000d0 de 7d b3 bd 56 84 a7 3d f9 b1 b6 bc c8 7d 33 3d
       -0.08764242 0.08179538 -0.02230166 0.043821126
0000e0 6e bd 95 3d 89 8a 93 bd d6 15 11 bd b5 25 80 bd
       0.073115215 -0.07204158 -0.035421215 -0.06257192
0000f0 10 d1 7f 3d 37 d1 c9 bd cc 12 7f 3d 61 f0 2b 3d
       0.062455237 -0.09854358 0.062273785 0.04197729

fc1.0.weight f4 [64, 64]
000000 5e a7 67 bd ec c3 c0 bd 51 8f 0a 3d 02 6d b3 bd
       -0.0565561 -0.09412369 0.033828083 -0.08761026
000010 d4 10 39 3d 6d 2b d8 bd c7 fa ed bd 96 b1 a0 3d
       0.045182064 -0.10555158 -0.116200976 0.07846372
000020 82 72 86 3c cd 91 d4 3d 1d c8 b9 3d db 1d 6f 3d
       0.016412023 0.10379372 0.09071372 0.05837808
000030 3a bc 51 bd bd 52 25 bd b7 d8 bc 3d 3e fc e7 3d
       -0.051204897 -0.04036211 0.092210226 0.11327408
000040 ac 86 1d bd 62 7c a6 b9 42 0d ac bc c7 9c d3 3d
       -0.03845851 -0.0003175466 -0.021002416 0.10332637
000050 9d b4 cb 3d bb 09 3c bd af 92 51 3d 31 a9 99 3d
       0.099465586 -0.045907717 0.05116528 0.07502974
000060 45 1e 06 bd b8 f9 ba 3d 4f e0 bc 3d ac 0c 86 3d
       -0.03274371 0.09129661 0.09222471 0.06545386
000070 03 cc f8 bd 83 17 db bd 18 7b b8 bd 1d e7 d1 3d
       -0.12148287 -0.10697844 -0.09007853 0.102491595
000080 94 c1 e8 3d 81 aa 4c bd 23 1a e9 bd 94 18 51 3b
       0.11365047 -0.049967293 -0.11381938 0.003190552
000090 5a 69 d8 bd 78 05 83 3d 57 f3 f4 bd da b7 34 3b
       -0.10566969 0.063975275 -0.11960476 0.0027575404
0000a0 78 67 05 3d 8d 8c 88 bc ff 34 0e 3c df 82 5e 3d
       0.03256938 -0.016668582 0.008679627 0.054324027
0000b0 9d 9a bc 3d 4f bb b1 bd 9d e2 e5 3d 97 e1 c7 3d
       0.09209178 -0.086783044 0.11224864 0.09759825
0000c0 20 ce 58 bd 63 52 f3 3c b3 4b 11 bb 5b bd 59 3d
       -0.05293095 0.029702371 -0.0022170364 0.0531591
0000d0 c7 d9 37 bd 93 99 b9 bd 3a 4f d6 3c b4 b3 75 bd
       -0.044885423 -0.09062495 0.026160825 -0.05998583
0000e0 37 88 c0 3d 57 59 a9 bd d5 2b 56 3d 68 f2 70 3d
       0.09400981 -0.08268993 0.052287895 0.058824927
0000f0 27 42 d2 bc 86 b1 ce bc 7c 13 c2 bc cd 57 36 3c
       -0.02566631 -0.025231134 -0.023690931 0.011129332
000100 28 4f 34 3d 41 74 9a 3d 4a e5 c5 3d 5f 00 02 bd
       0.0440208 0.07541705 0.09662874 -0.031738635
000110 25 85 f6 bd 12 0d 8b bd 60 39 c0 bd 39 80 4a 3d
       -0.12037114 -0.06789602 -0.093859434 0.04943869
000120 7c 61 d6 bc 85 a2 bc bd a9 1a a4 ba 7e dd 32 3d
       -0.026169531 -0.09210686 -0.0012520152 0.043668263
000130 8c 84 c7 3c 07 eb b0 bd 0b c6 12 3d 7d 15 fe 3d
       0.024355195 -0.08638578 0.0358334 0.12406442
000140 e6 a9 84 3c 54 2d 8e 3d 28 14 01 3b 57 ed c9 bb
       0.016194295 0.069422394 0.0019695852 -0.0061623263
000150 f8 e9 6b bd 46 d3 89 3b fc 4b cd bd 4d c3 50 bd
       -0.057596177 0.004206094 -0.100242585 -0.050967503
000160 9e de dd 3c 1f 46 b4 3d 52 f8 dc 3d fe 1e b8 bb
       0.027083691 0.08802437 0.10789551 -0.005618929
000170 12 02 93 bd 0f 5d e2 bb 7b 9d f4 bc 05 ff 6a 3d
       -0.07178129 -0.006908066 -0.029860249 0.05737211
000180 e7 a4 d9 3b 1c 2e 8e bd f2 07 8e 3d 52 e9 56 3d
       0.0066419723 -0.069423884 0.06935109 0.052468605
000190 27 14 51 bd 0b a7 7e 3d 1f 1e 91 3d ce d8 f8 3d
       -0.05104461 0.062171023 0.07085823 0.12150727
0001a0 9e 17 d1 3d 06 2e e1 3d c2 76 20 3c 11 30 fd bd
       0.10209583 0.109951064 0.009793939 -0.123626836
0001b0 96 18 d3 3d 6d c9 75 3d f7 da ad bd b0 0a 09 3d
       0.10307424 0.060006548 -0.0848903 0.033457458
0001c0 c5 99 b4 3d 37 c9 d2 3d 7f 2e dc 3c 41 e9 ff bd
       0.08818392 0.10292285 0.02687764 -0.124956615
0001d0 88 33 92 bd 1d 2d 6a bd f5 f7 bc bd dc 76 4e bd
       -0.07138735 -0.05717193 -0.092269816 -0.050406322
0001e0 3b 47 d1 3c eb 21 0d bd 0c a6 b6 bd 45 ab bd 3d
       0.02554666 -0.034456175 -0.0891839 0.09261183
0001f0 45 86 b9 bd f9 90 1c 3d 0d 00 48 bd c9 ee 3f bd
       -0.09058813 0.038224194 -0.048828173 -0.046858583
000200 f8 45 7a bd 48 96 62 3d 0e 43 80 bb 16 d8 f9 3d
       -0.061101884 0.0553191 -0.0039142435 0.12199418
000210 34 54 b4 bd 3c 62 92 3d 76 5a 71 3c 6e 6e 35 bd
       -0.08805123 0.07147643 0.01473104 -0.044294767
000220 d6 62 94 3d c1 75 5a bd aa 86 e5 3d 05 da 76 3c
       0.07245414 -0.053334955 0.11207326 0.015066628
000230 d1 23 a2 bd 5e 0f ec bb c6 2d a5 bd f4 3d b9 bc
       -0.07916988 -0.0072039803 -0.08065371 -0.02261255
000240 21 d7 b9 bd 1c da b9 3c 2d fb bf bd e7 53 85 bd
       -0.09074236 0.02268701 -0.0937408 -0.06510144
000250 1e 29 af 3d 1c fa 3a bd 0e 00 e5 bd cb 7e cb bd
       0.08552764 -0.04564868 -0.11181651 -0.09936293
000260 50 29 8e 3d cd 15 37 3d 89 d3 c5 3d c5 23 be 3d
       0.069414735 0.044698525 0.09659488 0.09284166
000270 d6 46 1c bd d8 4d d3 3d a4 b7 f6 bd 43 e2 a3 bd
       -0.038153492 0.10317582 -0.120467454 -0.080021404
000280 24 27 a5 bd 47 a4 33 3c 89 a7 e1 3d 47 d7 90 bd
       -0.08064106 0.01096446 0.11018283 -0.07072311
000290 eb 27 be 3d ec 39 6a bd c2 ed f3 3d 6c 88 8e bd
       0.092849575 -0.057184145 0.11910583 -0.06959614
0002a0 9b 7b 2a 3c 3e 42 e5 bd bc 43 ae bc 1e a3 a2 bd
       0.010405446 -0.11194275 -0.021272533 -0.079412684
0002b0 6e c2 2e bd d0 02 cd 3d 5b 75 4d 3d 27 0e fe 3d
       -0.04266589 0.10010302 0.050160747 0.12405043
0002c0 89 0b c8 3d 8c 87 23 3c 3e 3f bb bd f9 10 7d 3d
       0.09767825 0.009981047 -0.09142922 0.061783765
0002d0 9f d0 d6 3d 21 cf c0 bd 1f 97 f2 bd 63 61 70 3d
       0.1048901 -0.09414507 -0.1184523 0.058686625
0002e0 19 ef c4 bd 47 f4 a0 3c 85 85 b7 bd a7 ab b2 bc
       -0.09615917 0.01964773 -0.08961014 -0.021810366
0002f0 a1 24 73 3d 00 7e 75 bd 16 5b ae 3d d1 cc 68 bd
       0.059361104 -0.059934616 0.08513467 -0.056835953
000300 aa 36 d8 bc bd e2 ea 3d 35 17 a3 3d 08 4b 64 3d
       -0.026393253 0.11469028 0.07963411 0.055735618
000310 5a a7 9e bd 51 11 80 3d f5 77 01 3d 7c f2 a1 bd
       -0.077467635 0.06253303 0.03160854 -0.07907578
000320 9e 15 a3 3c 4b 47 c8 3d a0 64 0c bb 3b f0 d6 bd
       0.019907769 0.09779223 -0.0021422282 -0.10495039
000330 c0 d4 75 3d c7 42 fb bc c9 fd 21 3d 82 8e f8 bd
       0.060017347 -0.03067149 0.03954867 -0.12136556
000340 ce 8b ed 3b 19 1e 35 3c 17 fd 66 bd ba 1a c5 bd
       0.007249332 0.011054539 -0.05639371 -0.09624238
000350 36 66 a9 bd 28 2a d2 bd 78 52 c2 3c ea 65 01 bc
       -0.08271448 -0.10261947 0.023720965 -0.007897833
000360 91 d3 15 3d 8b 8d 76 bd b2 57 f0 bd 22 a3 9b bd
       0.03657872 -0.06019358 -0.117354766 -0.075994745
000370 80 dd be bc b0 64 8d bd 2d 08 a7 bd f8 30 e5 bd
       -0.023298979 -0.0690397 -0.08155856 -0.11190981
000380 88 ae c4 3d 3b 1e 74 bc 97 44 bc bd bc 70 d7 3d
       0.09603602 -0.014899786 -0.0919277 0.10519549
000390 f2 d9 c6 bd 38 ee ee bd 64 57 7d 3d 05 fc 17 bd
       -0.097095385 -0.1166653 0.06185092 -0.03710558
0003a0 43 6b be 3d 9d 34 a1 bd a0 dd bc 3d ae d5 c8 bd
       0.09297802 -0.07871363 0.09221959 -0.09806381
0003b0 ab 2f d5 bb 30 5a 5d bd 16 bb 88 bc f6 c6 66 3d
       -0.0065059266 -0.054041088 -0.016690772 0.056342088
0003c0 9d f2 eb bd 64 e1 a3 3c a1 b5 da bd 3b 94 69 3d
       -0.11520884 0.020004936 -0.10679174 0.05702613
0003d0 01 a5 bd 3b ba 19 82 bc 89 d6 bb 3c 46 cc b4 3c
       0.0057874923 -0.015881408 0.022929447 0.022070061
0003e0 07 3c cd bd b5 af 2c 3d 1d 1e 18 bc 6b be 91 bc
       -0.10021215 0.042159755 -0.009284523 -0.017790994
0003f0 a9 9b ee 3d 35 f7 65 bd c0 c1 8a bd 77 83 f0 3d
       0.116507836 -0.056143958 -0.06775236 0.11743825

fc1.0.bias f4 [64]
000000 cf 23 33 3d 95 4f 93 bd ff 2e 25 3d 55 b2 5b 3c
       0.04373532 -0.071929134 0.040328022 0.013409217
000010 32 03 b2 3a 5b 85 9c bd c6 30 d4 3d 95 25 2a 3d
       0.0013581275 -0.07642623 0.10360865 0.041539747
000020 66 f0 e2 3d 28 49 f8 bc 87 eb 78 3c 73 60 ff 3c
       0.110810086 -0.030308321 0.015192873 0.03117392
000030 00 7a 4c bb ae 3a ec 3d f8 77 d5 3d 12 11 7e b9
       -0.0031200647 0.1153463 0.10423273 -0.00024229687
000040 c4 a2 5c bc 3a c5 8b bd 0c c1 d1 bd 88 e2 a8 3d
       -0.013466541 -0.06824727 -0.10241899 0.082463324
000050 ce d8 92 bd 10 ad 95 3c ae 20 a9 3d d6 89 40 bd
       -0.071702585 0.018271 0.08258186 -0.04700645
000060 3e 7c 25 bd ff 53 ac 3c 14 28 c4 bc f4 f7 c7 3d
       -0.04040169 0.021036146 -0.023944892 0.0976409
000070 18 26 3b bc d2 be ea bd 6f 5c da 3d d5 ca 30 3d
       -0.0114226565 -0.11462177 0.106621616 0.043162186
000080 2c 58 a6 3d 72 a0 a7 39 ed 45 c1 3d 69 f6 9a 3d
       0.08122286 0.00031972263 0.094371654 0.0756653
000090 cd 5d dd bd 30 ce 8e bd 35 6d bc bd 17 99 a5 bd
       -0.10808907 -0.06972921 -0.09200517 -0.0808584
0000a0 ae 51 dc bc 8e 5c 28 3d 9c d0 41 bc bf 66 64 3d
       -0.026894417 0.041103892 -0.0118295215 0.05576205
0000b0 5e d7 a2 bd ec 3d ec bd 98 78 f0 bd b0 4c ee bd
       -0.07951234 -0.11535248 -0.117417514 -0.11635721
0000c0 56 63 fc 3d 5c 1c fe bd ba 37 7a bd f8 22 b9 3d
       0.12323634 -0.12407753 -0.0610883 0.09039873
0000d0 50 9f bd bc 5e 91 7b bd 12 a9 ab bc 2e e4 e0 3d
       -0.023147255 -0.06141793 -0.020954642 0.10981022
0000e0 6f 2e 30 3b 5a f4 be 3d 84 27 5b 3c 31 40 5f bd
       0.0026883145 0.0932395 0.0133761205 -0.054504577
0000f0 9c 86 f2 bd 18 be 42 bd 82 a8 91 3d b9 b9 f6 3d
       -0.11842081 -0.04754457 0.071122184 0.120471425

fc2.0.weight f4 [64, 64]
000000 1e f7 c7 bd 37 05 eb 3d 0c 34 d2 bd c7 77 25 bd
       -0.09763931 0.11475604 -0.102638334 -0.04039743
000010 de d1 f6 bd 46 f8 2d bb de 0b cf bd 95 08 62 3d
       -0.12051748 -0.0026545688 -0.10109685 0.055183966
000020 c4 1f dc bb d8 01 9d 3d 9c 20 3b bd 76 3a 30 bd
       -0.006717654 0.07666367 -0.045685396 -0.043024503
000030 e0 7c 3c 3d 08 2e d0 bd b3 b2 cc bd 03 a6 d8 bd
       0.046017528 -0.1016503 -0.09995022 -0.10578539
000040 90 34 34 3d 59 dc da 3d 74 ed a1 bd 35 8c c7 3d
       0.04399544 0.10686559 -0.07906619 0.09743539
000050 98 0f 90 bd 3e 69 ad 3c 8e 7a 63 3d b6 b3 c0 bb
       -0.07034224 0.021168347 0.0555368 -0.005880798
000060 62 68 c3 bd 25 3b d9 bd 3d eb c0 3d fb 22 bb bd
       -0.09541394 -0.10606984 0.09419868 -0.09137531
000070 36 4d 7a bd db b1 a5 bd 63 2c c5 bd c3 56 28 bd
       -0.06110879 -0.08090564 -0.09627607 -0.041098367
000080 f0 15 a4 bd fd 79 fe 3c 50 f7 2a 3d 76 ce e4 bd
       -0.08011997 0.031064028 0.04173976 -0.11172192
000090 da 7a e7 bd c3 2d c5 bd 47 75 35 bd 22 aa 33 bd
       -0.11302729 -0.09627869 -0.044301298 -0.043863423
0000a0 d3 e8 82 bc b6 b8 30 3d de 0a d0 3d 18 6d e1 bd
       -0.01598016 0.043144904 0.10158323 -0.11007136
0000b0 fa cc 20 bc 1f d1 af 3d a0 d5 c5 3c 26 cf d8 3d
       -0.009814495 0.085848086 0.024149716 0.105863854
0000c0 3c b5 c7 3d 39 25 46 3d dc b5 5c bd 42 be 5d 3d
       0.097513646 0.048375342 -0.053884372 0.054136522
0000d0 13 aa 46 bc 48 5a 70 bb df 9c 1d 3d bf 6a 01 bc
       -0.01212551 -0.0036674906 0.038479682 -0.007898985
0000e0 5e 18 45 bd 51 bb e6 bc 80 8f f6 bd b9 6d 05 3d
       -0.04811894 -0.028165491 -0.12039089 0.032575343
0000f0 90 3d e8 3d 54 83 df 3d 64 19 28 3d f7 8b c4 bd
       0.11339867 0.10913721 0.04103984 -0.09597009
000100 61 ab 84 bd 27 7e 71 bd e6 4b 55 3c e8 9d 89 bd
       -0.064780004 -0.0589582 0.013018584 -0.06719571
000110 ab 29 d2 3d 81 74 65 bd 81 82 ea 3d a4 0d 98 bd
       0.10261854 -0.05601931 0.11450673 -0.07424477
000120 2d 20 95 bc b1 59 30 bc e1 df be bd 91 ca d7 3d
       -0.01820382 -0.010763572 -0.09320045 0.10536683
000130 39 c0 14 bd 01 12 e4 bd 5b ad fd 3d 86 c0 5b bd
       -0.03631613 -0.111362465 0.123865806 -0.0536504
000140 03 89 68 bc 02 23 9e 3d fb 25 b9 3c ca 94 ca bd
       -0.014192822 0.07721521 0.022601118 -0.098916605
000150 0e 62 2a 3d 39 f1 2f 3d e9 13 d2 bc 35 25 d9 bd
       0.04159742 0.042954657 -0.02564426 -0.106028
000160 6e c0 43 3d 13 75 da 3d 0d 00 52 bd 3d e7 79 3c
       0.047790937 0.106668614 -0.05126958 0.015252885
000170 a1 b5 42 bd 4f f4 85 bd 56 9e 80 bd 37 0b c3 bd
       -0.047536496 -0.06540739 -0.062802 -0.095236234
000180 0c 1d 9b bd ee 13 53 bd 50 6b 6d 3d 26 10 61 bc
       -0.075738996 -0.05153268 0.05796367 -0.01373676
000190 8c 7c fe bd 06 c4 ac 3c 35 1e 5d 3d 63 78 bc bd
       -0.12426099 0.021089565 0.053983886 -0.092026494
0001a0 11 e0 a7 3d e2 7d 93 3d 95 c4 aa bd 1b 68 84 3d
       0.08197034 0.072017446 -0.08338276 0.06465169
0001b0 1d 0d 7b ba 7e 32 8b bd b4 10 96 3d 75 e9 80 bc
       -0.0009576844 -0.0679674 0.073274046 -0.015736321
0001c0 1e 67 90 3c 01 a0 14 bd a5 3a ac 3c f8 43 f0 3c
       0.017627295 -0.036285404 0.021024058 0.029329285
0001d0 db 2c 3c 3c 34 f0 22 3c 50 db f9 3d d5 82 89 3d
       0.011485304 0.009944964 0.12200034 0.06714407
0001e0 7a 16 a2 3d 81 f3 e3 3c 4d 55 83 bd bb 2b e2 bd
       0.07914443 0.027826073 -0.06412754 -0.11043497
0001f0 d4 3e 57 bc a2 ae 4e 3d ba 06 4d 3d db 97 e5 3c
       -0.013137538 0.05045951 0.050055243 0.028026512
000200 93 7a d7 3c 14 7c 67 3c bc c2 81 3d b2 58 b4 3d
       0.026303565 0.014128704 0.06335971 0.0880598
000210 76 83 e4 3d a6 48 2c 3d 61 1e 38 3d b1 51 33 3c
       0.11157887 0.04206147 0.044950847 0.01094477
000220 74 20 32 3d 0d 0c 6c 3d db 82 62 bd bc 15 45 bd
       0.04348798 0.05762868 -0.055300575 -0.04811643
000230 6a 13 af 3d 71 23 94 bd 62 e6 84 bd df 22 e1 bd
       0.08548625 -0.072333224 -0.064892545 -0.10992979
000240 a5 03 b8 bd 35 d8 83 bd a2 74 df bd cc 29 04 3d
       -0.0898507 -0.064377226 -0.10910918 0.032266423
000250 61 0c 2a 3d 7a da a2 3d 4c d4 f7 3c 4d 11 1e 3c
       0.04151571 0.07951827 0.030252598 0.0096476795
000260 93 ac 48 bc 1a 38 9b bd 3c a0 37 3d f2 3b 96 3d
       -0.012248176 -0.0757906 0.044830546 0.073356524
000270 a1 01 cc ba 94 58 64 3d 69 57 23 3d 99 58 86 bd
       -0.001556445 0.055748537 0.039878283 -0.065598674
000280 76 9c 94 bd 84 c4 4e bb bf f7 c3 bd fc 04 2a 3b
       -0.07256405 -0.0031550238 -0.09568738 0.0025942912
000290 ee 29 a9 bd bd bb a8 bd fa db 90 3c 24 e7 39 bc
       -0.082599506 -0.08238933 0.017683018 -0.011346612
0002a0 b2 f4 21 3d b1 c0 94 bd 98 bd a7 3c c9 f9 8c bd
       0.03954 -0.072633155 0.020476148 -0.0688358
0002b0 29 cf b4 bc fe 2c 49 bd 44 d2 e9 3c ed 68 dd bd
       -0.022071438 -0.049115174 0.028542645 -0.10811029
0002c0 c1 fc 8c 3c 57 bd ce bd c2 f2 8a bd 2f cc 6b 3d
       0.017210366 -0.100947075 -0.06784584 0.05756777
0002d0 95 c9 ce bd c8 69 c9 bb 0e 96 dc bd 25 e9 43 bc
       -0.100970425 -0.0061466433 -0.10770808 -0.011957441
0002e0 8b 71 74 bd ac eb 73 bd 99 15 d0 bb b2 3f c6 bb
       -0.059678596 -0.059550926 -0.006350231 -0.0060500735
0002f0 f7 3b da 3d fa a2 f1 3d 9a 13 9f bd 1f 82 ca bd
       0.10655969 0.117986634 -0.077674106 -0.098881
000300 3c ff e5 bd c2 b4 0d 3c 7c 71 fb bd 04 91 bf bd
       -0.11230323 0.008649053 -0.12277505 -0.093538314
000310 c6 5e c5 bc 92 43 38 3d 5d ae ac bc 28 42 9d 3d
       -0.024093043 0.044986315 -0.021079237 0.07678634
000320 80 68 f0 3d b8 9e 80 3a 23 54 8a 3c 4a 37 7d 3d
       0.11738682 0.0009812927 0.016885823 0.061820306
000330 eb a1 ba bd 76 06 f7 3d 3b 99 75 3d 03 69 33 bd
       -0.09112915 0.12061779 0.059960585 -0.04380132
000340 1a d0 b4 bd 85 8f f4 bd eb 07 b0 bd af 8b 53 3d
       -0.08828755 -0.11941437 -0.0859526 0.051646885
000350 30 28 84 3c fb 4d a5 3d c0 67 f7 bd ec e1 63 bd
       0.016132444 0.08071514 -0.120803356 -0.055635378
000360 8f 34 18 bd 43 48 34 bc 3c f7 af 39 a3 65 f9 bd
       -0.0371595 -0.011003557 0.00033562805 -0.12177589
000370 44 50 c5 3d 8d 92 8c bd 55 d9 b5 3d d9 6c 97 bd
       0.0963445 -0.0686389 0.088793434 -0.07393808
000380 3d 19 e7 bd 10 e2 91 bd 55 78 dd 3d 9d 0f 7a bd
       -0.11284111 -0.07123196 0.10813967 -0.061050046
000390 85 b9 7a bb e8 b0 ad bd b6 18 de bd 9c c6 bb 3d
       -0.003825755 -0.08481008 -0.10844557 0.09168741
0003a0 6c 8a 1a bd 73 5c 99 bd 1f e8 39 bd 6e 5f 96 bd
       -0.037729666 -0.074883364 -0.045387384 -0.073424205
0003b0 ad 21 19 3d 1c 27 b8 3d 0d f6 af 3d 00 59 43 3d
       0.03738563 0.089918345 0.08591852 0.0476923
0003c0 2a 2e fe bd eb 97 a0 bd 6b 36 9b bc 07 3b ae bd
       -0.12411149 -0.07841476 -0.018946847 -0.08507352
0003d0 cc c5 ef bd a3 71 d7 3d 39 f9 a9 bd 6f a3 da bb
       -0.11707649 0.10519721 -0.082994886 -0.006672315
0003e0 05 84 24 bd 32 5b 83 3d f0 16 a8 bd ed a0 e4 3d
       -0.040164966 0.064138785 -0.082075 0.11163507
0003f0 5a 37 1a 3c 38 51 bb 3d 5c 3b b0 3d 57 3a fc 3c
       0.009412611 0.091463506 0.08605072 0.030789537

fc2.0.bias f4 [64]
000000 ae 44 a5 bd de 5b bd bd bd 8c de bd 71 43 cf 3d
       -0.0806974 -0.09246038 -0.108666874 0.10120285
000010 bf fa 36 3d e4 25 e3 bd ef e4 19 bd a9 b0 11 ba
       0.044672724 -0.110912114 -0.037571844 -0.00055576354
000020 31 3d 82 3d c6 e9 a9 bd 24 af 1a 3d 0d 4f 14 3d
       0.063593276 -0.08296542 0.037764683 0.0362082
000030 e9 ba c4 3d 53 7b cd bd 3b 34 f5 3d cb c8 48 3d
       0.09605963 -0.10033288 0.11972853 0.049019616
000040 59 fe 92 bd b9 1a 30 bd 08 2c e3 bc 43 8e 58 3d
       -0.07177419 -0.042994235 -0.027730957 0.052870046
000050 ea 96 d6 bb 80 34 90 bd 1b f7 fc 3c 35 fd a9 3d
       -0.006548752 -0.070412636 0.030879548 0.083002485
000060 0b 82 0b 3d 1a 27 fd 3d ab c2 4a 3d dc 37 5e 3d
       0.034059566 0.12360974 0.049502056 0.05425249
000070 63 ad d3 3c d2 13 dd bd d9 dd 9a 3d 46 9f 19 bd
       0.025839513 -0.10794796 0.07561845 -0.03750541
000080 8a 2c b5 bd 8e 5e 54 3d 5e ac 73 bd 47 69 8b 3d
       -0.08846386 0.051847987 -0.059490554 0.068071894
000090 9f 99 de bd d7 a9 f7 bd d3 7a 81 3d 08 ee c0 3d
       -0.10869145 -0.12092941 0.06322255 0.09420401
0000a0 3e c5 9b bd 46 65 31 3d 59 bc b8 bb 9a 9b ee bd
       -0.0760598 0.043309473 -0.005637687 -0.116507724
0000b0 3a 23 81 bd d7 51 da 3a 9b 9d db bd b1 e3 a9 bc
       -0.06305547 0.001665647 -0.1072342 -0.020738455
0000c0 b2 32 c6 bb 47 0f 3a 3d f6 38 5d bd aa b5 95 bd
       -0.006048524 0.045424726 -0.0540094 -0.0731004
0000d0 21 76 e5 3d 65 88 23 3d dd 9f 64 bd 9a 2e 1d 3d
       0.11204172 0.039924998 -0.05581652 0.03837452
0000e0 42 70 69 bd 65 9c ea bd 2e 2c c5 3c a6 81 9f 3d
       -0.056991823 -0.11455611 0.024068918 0.077884
0000f0 89 89 c3 3d b3 07 c3 3d 22 05 b7 3d e4 85 fa 3d
       0.09547717 0.09522953 0.08936526 0.12232569
