blocksize-4/model_epoch_0_160.pth (torch, 206491 bytes, 13 tensors)

embedding.0.weight f4 [64, 7]
000000 ae 97 b5 be 77 75 ab be 6f d8 6e 3e ef 7a 8c bd
       -0.35467285 -0.33488056 0.2332475 -0.06859385
000010 15 f9 16 be 0f 36 c1 be bb 21 15 3e 6f 9d 9d 3e
       -0.14743455 -0.37736556 0.14563648 0.30784175
000020 c2 eb 41 be 67 20 53 be 97 4e 8d 3e 0c 85 83 3e
       -0.1893759 -0.2061783 0.27599022 0.25687444
000030 4a cc a9 3e a1 03 d8 3d 91 31 02 be 7f c0 bb be
       0.33163673 0.10547567 -0.1271422 -0.366703
000040 88 48 aa 3e e0 8c b9 3e ef af 74 be 5e 54 b6 be
       0.33258462 0.36240292 -0.23895238 -0.35611242
000050 5b db d8 bc 0b 27 05 be c6 1c 41 3e 39 16 b1 3d
       -0.026471784 -0.13003175 0.18858632 0.08646817
000060 27 ca 87 bc 55 16 06 3e 2d 42 90 be b0 25 e5 bd
       -0.016575886 0.13094456 -0.28175488 -0.11188829
000070 e5 df a4 3e 7a 01 bc be c6 4b b1 3e 65 10 6f be
       0.32202068 -0.36719877 0.34628123 -0.23346098
000080 d7 9b 34 3e 24 b9 2f 3e e7 4f 98 be d1 d5 0f bd
       0.17637573 0.1716047 -0.2974846 -0.03511602
000090 f5 0d 78 3e 59 0d 6a 3e ae 59 99 be 96 c5 0e be
       0.24224074 0.22856654 -0.29951233 -0.1394256
0000a0 34 f9 27 be f6 d2 27 3e 23 a2 65 be 5d 9f 71 be
       -0.16403657 0.16389069 -0.22425131 -0.23595949
0000b0 ec ef 23 3e 1d b8 a3 be cb 01 1a be 46 f4 d6 bd
       0.16009492 -0.31976405 -0.15039746 -0.1049581
0000c0 42 11 d6 3c e8 f7 73 3d 4d e8 67 be 34 ba 00 be
       0.026131276 0.059562594 -0.2264721 -0.12571031
0000d0 59 4c d1 3c c9 c7 e0 3d dd bd 48 3d 7f 28 2b 3e
       0.0255491 0.10975606 0.049009193 0.16714667
0000e0 1b 45 b9 be d0 ea a7 be e9 1e d9 3d fe 63 d1 bd
       -0.36185536 -0.32796335 0.10601599 -0.1022415
0000f0 7f 32 8e be 2e 00 a0 3e 98 fb 45 be dc 9b 27 be
       -0.277729 0.31250137 -0.19334257 -0.1636805
000100 15 c1 77 bc cc f0 45 bd 2b 8c 9d be 82 6f 09 3e
       -0.015121718 -0.048325345 -0.30771002 0.13421443
000110 6e 7b 78 be 99 fb 74 bd 9c e2 98 be 83 4e 2a bd
       -0.24265835 -0.059810255 -0.2986039 -0.04157878
000120 19 56 3c be 2d 3e 79 bd 64 82 a2 3d 9e 81 63 be
       -0.18392219 -0.06085031 0.07935026 -0.22217414
000130 fa c4 1b 3e 41 f5 84 be 78 c3 5b be df 23 99 3b
       0.1521186 -0.25968364 -0.21461284 0.0046734656
000140 53 53 75 3e 52 cd 5a 3e a6 ab 0a 3d 2f 64 27 3e
       0.23957567 0.21367386 0.033855103 0.16346811
000150 f3 43 2c 3e 77 12 6b 3e 40 ff bf be 92 fa b3 be
       0.16822796 0.22956263 -0.37499428 -0.35152107
000160 18 d2 a5 be 2d 9f a8 be 3d 19 1d be 84 67 5b 3d
       -0.3238685 -0.3293394 -0.15341659 0.053565517
000170 33 81 69 3e 52 be 0e 3e d6 b3 3a be 85 f0 ba 3d
       0.22803192 0.13939789 -0.18232664 0.09127907
000180 92 9c 23 3d de 34 f6 3d f5 f1 0f 3e ec 30 30 3e
       0.03994424 0.12021802 0.14057143 0.17206162
000190 de 93 2d bd 37 31 88 be 83 82 53 be 6e 81 06 3e
       -0.042377345 -0.26600048 -0.20655255 0.13135311
0001a0 9e 6b 95 3e ab 08 51 3e 5c e9 94 3e 36 4a 0f be
       0.29183668 0.20413463 0.2908429 -0.13993153
0001b0 e3 bc 45 be 4a b2 0e be 20 e9 88 be b8 4a d4 bc
       -0.19310336 -0.139352 -0.2674036 -0.025914535
0001c0 ee 53 5e 3e ee 18 66 be bc 3f 30 be 45 b5 00 3e
       0.21711704 -0.22470447 -0.17211813 0.12569149
0001d0 ba 0e 67 3e 30 5a b8 be 95 9f b2 3e d3 73 bc be
       0.22564211 -0.36006308 0.34887376 -0.36807117
0001e0 e5 f9 cd 3d 15 97 c3 bd f6 7b 28 3e 94 41 93 bc
       0.10057429 -0.09550301 0.16453537 -0.017975606
0001f0 9a 3c a5 3e 87 3d 49 bd 30 8f 30 3e 83 8d 64 be
       0.32272798 -0.049130943 0.17242122 -0.22319607
000200 bd d5 3c be ca 66 8f be 8f 8b 0b be 63 d3 bb 3e
       -0.1844091 -0.2800811 -0.13627456 0.36684713
000210 08 7c bf be 9d 5f 0e 3e df c7 83 be b6 1d 40 be
       -0.37399316 0.13903661 -0.25738427 -0.18761334
000220 e0 31 b4 3e 2e 96 f4 bd 6b ca c0 3e 27 07 60 3c
       0.35194302 -0.11942707 0.37654433 0.01367358
000230 11 31 6d 3e 12 50 f3 bd 55 f2 b6 3b df 8a 9a be
       0.23163249 -0.118805066 0.0055830874 -0.30184075
000240 a6 5f 67 3e 26 08 aa 3e a7 0e 8a be 7b 57 13 be
       0.2259508 0.33209342 -0.26964304 -0.1438884
000250 e8 3d 34 3d b6 fd 78 be bf eb 78 be 9e 6c bc be
       0.04400435 -0.24315533 -0.2430868 -0.36801618
000260 29 97 1e 3e 6c 32 b1 3e 1e ca af bc c4 71 3c bd
       0.1548735 0.3460878 -0.021458682 -0.046006933
000270 40 db f5 3d d9 84 73 3e 3a 11 6b be 06 45 af 3e
       0.12004709 0.23781146 -0.2295579 0.34232348
000280 f4 7a 21 bd 79 c9 01 be 7e e3 81 3e c9 c5 04 be
       -0.039423898 -0.12674512 0.25368875 -0.12966074
000290 d9 7d fb bd 3e ea 20 be 2c 30 a2 be 54 cb 0f be
       -0.12279863 -0.15714356 -0.31677377 -0.14042407
0002a0 c2 d6 a7 be c5 bf 8a 3e 2d 8f b7 be a7 6e 47 3e
       -0.32781035 0.27099434 -0.35851422 0.19475804
0002b0 df 9d 9c 3e bd aa e5 3d 8d 07 33 3e 20 48 84 be
       0.30589196 0.11214206 0.17483349 -0.25836277
0002c0 a9 1d 19 3e 14 e3 48 3e ef e5 80 bd 58 08 65 be
       0.1495272 0.19617873 -0.06293856 -0.22366464
0002d0 c4 a1 a2 3e 51 1d 2f bc ab bd 9f 3e 01 1d b8 3d
       0.31764042 -0.010688142 0.31199393 0.08989907
0002e0 0e 8c 30 bd a8 4f dc bd 3d 07 46 3e 55 57 8d 3c
       -0.043102317 -0.10757381 0.19338699 0.017253557
0002f0 a4 7d 91 3e a9 30 35 be ec 74 01 be bf a0 2b 3e
       0.2841617 -0.17694344 -0.12642258 0.16760539
000300 31 62 9a 3d d8 4f 46 be aa 19 a3 be 59 2d 2d be
       0.0753826 -0.19366395 -0.31855518 -0.1691183
000310 79 3a 80 bd 53 eb 43 3d a6 78 0b 3e aa c2 02 3c
       -0.06261153 0.047831845 0.13620242 0.007980982
000320 a8 d2 63 3e 59 a1 7f be e3 36 8c bc 0f 62 3c be
       0.22248328 -0.24963893 -0.017116016 -0.18396781
000330 b2 49 5e be 13 2a 66 be 30 81 99 ba 45 68 56 3e
       -0.217078 -0.22476988 -0.0011711475 0.20938213
000340 3f 61 be 3d 12 1b 0b 3e d9 9f 52 be 17 42 7e 3e
       0.09295892 0.13584545 -0.2056879 0.24829899
000350 11 25 8d 3e d3 5a 94 3d 9c 02 1f be fb c4 c0 be
       0.27567342 0.07243886 -0.15528339 -0.37650284
000360 e7 68 5b 3e 97 26 13 3e 4a 11 51 3e 02 2e a6 be
       0.21426736 0.1437019 0.20416752 -0.32456976
000370 f7 f0 80 3e 98 af 47 3e d0 21 70 3e 6a c2 53 3e
       0.25183842 0.19500577 0.23450398 0.20679632
000380 2a 07 43 3e c1 92 b4 3e 40 c5 a3 be b8 51 71 bd
       0.19045702 0.35268214 -0.31986427 -0.058915824
000390 ed 43 5c 3e d7 3b 2d be 7b 1e b7 3e 80 cf 03 3e
       0.21510287 -0.16917358 0.35765442 0.12872124
0003a0 a6 e2 86 3e 87 e1 ab 3e 0a 85 b7 3e f4 ab da bd
       0.26344794 0.335705 0.35843688 -0.10677329
0003b0 aa 98 8c be d0 ea 23 3e ca c1 03 be 2d ae 71 3e
       -0.27460223 0.16007543 -0.12866893 0.23601599
0003c0 1f 21 35 3d 54 58 18 bd 3a c8 74 3e 06 d7 c6 3d
       0.04422104 -0.03719361 0.23904505 0.09708981
0003d0 de 67 89 3e 39 57 02 3e b4 ee 1b 3e 25 84 82 3e
       0.26837057 0.12728585 0.15227777 0.25491443
0003e0 e0 8a bb be 40 7a ac bd 2a d0 3a be 6f c3 0d 3e
       -0.3662939 -0.08421755 -0.18243471 0.13844083
0003f0 68 79 ae 3e 54 f6 db bd dd 35 7d be 37 83 64 be
       0.34077 -0.10740343 -0.24727578 -0.2231568

embedding.0.bias f4 [64]
000000 b7 34 38 be f3 0a ed 3d bb c0 57 be ed be 48 3e
       -0.17988859 0.11574354 -0.21069615 0.19604082
000010 bf 5f 86 be e7 68 a0 3e 1a 84 a3 be 30 08 9a be
       -0.26244923 0.31330034 -0.31936723 -0.30084372
000020 c2 a3 f3 3d 1f d0 9e 3d 10 15 91 3d 96 de 2d bb
       0.11896469 0.0775454 0.070840955 -0.0026530377
000030 f5 f5 bf 3e de 95 63 bd 6e 1a a9 3c 47 62 91 3e
       0.37492338 -0.055562846 0.020642485 0.28395292
000040 77 f5 24 3e f8 80 b7 3e c9 f8 fd bd 01 ae 7a 3c
       0.16109262 0.35840583 -0.12400968 0.015300275
000050 8a 82 af be b6 e3 43 be ad 3b 49 3e e2 23 98 be
       -0.3427928 -0.19129834 0.19651671 -0.29714876
000060 fb 7e 1e be 63 69 af be 52 1a b9 3e 67 c6 89 3e
       -0.15478127 -0.3426009 0.36152893 0.2690918
000070 00 5a 7f 3d 94 75 b6 3d 8f a4 54 3e bd f9 80 3e
       0.06234169 0.08909145 0.20765899 0.25190535
000080 6d 37 8e 3e 18 a2 99 be 39 ed bb 3c 93 9a 8c bb
       0.27776662 -0.3000648 0.022940265 -0.0042908876
000090 e1 63 8d 3e 75 5f 19 3e f4 64 4a bd df 36 25 3e
       0.27615264 0.1497782 -0.049412683 0.16134213
0000a0 18 16 51 be 67 5d b5 3e 75 17 22 3e 60 18 1e be
       -0.20418584 0.35422823 0.1582926 -0.15438986
0000b0 e0 30 ac be 2c 1a ab 3e c1 39 53 be 75 47 41 be
       -0.3363104 0.33418405 -0.206275 -0.18874915
0000c0 b3 fd 66 be 7d 28 99 be d4 28 6f be e0 ca 47 3e
       -0.22557716 -0.29913703 -0.23355418 0.19510984
0000d0 c6 f2 70 3e 61 de 9e 3c 9d 38 2f 3e 0d be b4 be
       0.2353011 0.019393148 0.1711144 -0.35301247
0000e0 b2 b8 d9 3d 66 38 bc be bf 35 4d be b2 a0 a6 be
       0.10630931 -0.3676178 -0.20040034 -0.32544476
0000f0 d2 99 ea bd da 10 0e bc de b4 84 3e 0e 3f 3b 3e
       -0.1145512 -0.00867101 0.2591924 0.18285772

layernorm.weight f4 [259, 64]
000000 80 02 80 3f 31 f4 7f 3f 2d ff 7f 3f aa ff 7f 3f
       1.0000763 0.9998198 0.9999874 0.9999949
000010 02 00 80 3f 67 00 80 3f 00 00 80 3f f0 fc 7f 3f
       1.0000002 1.0000123 1.0 0.99995327
000020 ec ff 7f 3f 4a 00 80 3f 27 01 80 3f eb eb 7f 3f
       0.9999988 1.0000088 1.0000352 0.9996936
000030 eb ff 7f 3f 91 09 80 3f d5 0f 80 3f 00 00 80 3f
       0.99999875 1.000292 1.0004832 1.0
000040 8a f5 7f 3f 65 00 80 3f 00 00 80 3f 91 ff 7f 3f
       0.9998404 1.000012 1.0 0.9999934
000050 09 00 80 3f fb 15 80 3f 3c ff 7f 3f c1 ff 7f 3f
       1.0000011 1.0006708 0.9999883 0.99999624
000060 20 f6 7f 3f 58 00 80 3f 26 01 80 3f a7 ff 7f 3f
       0.9998493 1.0000105 1.000035 0.9999947
000070 45 00 80 3f 43 04 80 3f fb 00 80 3f 43 14 80 3f
       1.0000082 1.00013 1.0000299 1.0006183
000080 38 f4 7f 3f 03 fe 7f 3f 3a 00 80 3f 86 f3 7f 3f
       0.99982023 0.99996966 1.0000069 0.9998096
000090 00 00 80 3f 4e 11 80 3f 02 00 80 3f 2f 00 80 3f
       1.0 1.0005281 1.0000002 1.0000056
0000a0 a6 e8 7f 3f 16 00 80 3f 19 00 80 3f 43 e9 7f 3f
       0.9996437 1.0000026 1.000003 0.99965304
0000b0 b1 ff 7f 3f 53 00 80 3f ea ff 7f 3f 09 0c 80 3f
       0.9999953 1.0000099 0.9999987 1.0003673
0000c0 0a e6 7f 3f e8 05 80 3f 8d 00 80 3f 79 02 80 3f
       0.99960387 1.0001802 1.0000168 1.0000755
0000d0 00 00 80 3f 32 db 7f 3f 00 00 80 3f 97 ff 7f 3f
       1.0 0.9994384 1.0 0.99999374
0000e0 41 00 80 3f f3 0d 80 3f ca 0b 80 3f 56 ff 7f 3f
       1.0000077 1.0004257 1.0003598 0.99998987
0000f0 00 00 80 3f 8a 00 80 3f 11 00 80 3f 05 00 80 3f
       1.0 1.0000165 1.000002 1.0000006
000100 c9 ff 7f 3f 34 00 80 3f 8e fe 7f 3f 24 00 80 3f
       0.9999967 1.0000062 0.99997795 1.0000043
000110 00 00 80 3f f9 ff 7f 3f f5 ff 7f 3f 17 00 80 3f
       1.0 0.9999996 0.99999934 1.0000027
000120 00 00 80 3f 1c 00 80 3f 08 00 80 3f 91 00 80 3f
       1.0 1.0000033 1.000001 1.0000173
000130 eb ff 7f 3f 08 00 80 3f 03 00 80 3f f5 ff 7f 3f
       0.99999875 1.000001 1.0000004 0.99999934
000140 25 00 80 3f 36 00 80 3f 00 00 80 3f ee ff 7f 3f
       1.0000044 1.0000064 1.0 0.9999989
000150 00 00 80 3f 6b 00 80 3f 77 ff 7f 3f 01 00 80 3f
       1.0 1.0000128 0.99999183 1.0000001
000160 8e 00 80 3f 12 00 80 3f 07 00 80 3f f1 ff 7f 3f
       1.0000169 1.0000021 1.0000008 0.9999991
000170 10 00 80 3f e3 ff 7f 3f 44 00 80 3f d9 09 80 3f
       1.0000019 0.9999983 1.0000081 1.0003005
000180 20 fe 7f 3f 78 ff 7f 3f fa ff 7f 3f 30 00 80 3f
       0.9999714 0.9999919 0.99999964 1.0000057
000190 00 00 80 3f 28 04 80 3f 08 00 80 3f 00 00 80 3f
       1.0 1.0001268 1.000001 1.0
0001a0 35 00 80 3f 9e ff 7f 3f 00 00 80 3f ab 00 80 3f
       1.0000063 0.99999416 1.0 1.0000204
0001b0 06 00 80 3f 00 00 80 3f f3 ff 7f 3f 72 ff 7f 3f
       1.0000007 1.0 0.9999992 0.99999154
0001c0 7b 00 80 3f d5 00 80 3f 36 00 80 3f 17 00 80 3f
       1.0000147 1.0000254 1.0000064 1.0000027
0001d0 00 00 80 3f bb ec 7f 3f d9 ff 7f 3f d9 ff 7f 3f
       1.0 0.999706 0.9999977 0.9999977
0001e0 1e 00 80 3f 03 00 80 3f 05 00 80 3f a6 ff 7f 3f
       1.0000036 1.0000004 1.0000006 0.99999464
0001f0 00 00 80 3f 05 00 80 3f fb ff 7f 3f 00 00 80 3f
       1.0 1.0000006 0.9999997 1.0
000200 f3 01 80 3f e5 f4 7f 3f 63 ff 7f 3f a0 ff 7f 3f
       1.0000595 0.99983054 0.99999064 0.9999943
000210 00 00 80 3f 2a 00 80 3f 00 00 80 3f cf f9 7f 3f
       1.0 1.000005 1.0 0.9999055
000220 f5 ff 7f 3f 30 00 80 3f a7 00 80 3f 38 ec 7f 3f
       0.99999934 1.0000057 1.0000199 0.99969816
000230 eb ff 7f 3f ea 06 80 3f 27 0b 80 3f 00 00 80 3f
       0.99999875 1.000211 1.0003403 1.0
000240 2c f6 7f 3f 6d 00 80 3f 00 00 80 3f a4 ff 7f 3f
       0.99985003 1.000013 1.0 0.9999945
000250 04 00 80 3f ea 13 80 3f 21 ff 7f 3f e0 ff 7f 3f
       1.0000005 1.0006077 0.9999867 0.9999981
000260 58 f9 7f 3f 40 00 80 3f ca 00 80 3f b7 ff 7f 3f
       0.99989843 1.0000076 1.0000241 0.99999565
000270 32 00 80 3f 01 03 80 3f d2 00 80 3f ec 11 80 3f
       1.000006 1.0000917 1.000025 1.0005469
000280 01 f4 7f 3f f0 fe 7f 3f 2a 00 80 3f 7e f6 7f 3f
       0.99981695 0.9999838 1.000005 0.9998549
000290 00 00 80 3f ca 0e 80 3f 04 00 80 3f 27 00 80 3f
       1.0 1.0004513 1.0000005 1.0000046
0002a0 1d ed 7f 3f 05 00 80 3f 14 00 80 3f 6b e5 7f 3f
       0.9997118 1.0000006 1.0000024 0.9995944
0002b0 c6 ff 7f 3f 38 00 80 3f ed ff 7f 3f 76 09 80 3f
       0.99999654 1.0000067 0.99999887 1.0002887
0002c0 d9 e5 7f 3f 1f 07 80 3f 5e 00 80 3f 88 01 80 3f
       0.99960095 1.0002173 1.0000112 1.0000467
0002d0 00 00 80 3f 4b e1 7f 3f 00 00 80 3f 9c ff 7f 3f
       1.0 0.99953145 1.0 0.99999404
0002e0 35 00 80 3f aa 10 80 3f 7e 08 80 3f ad ff 7f 3f
       1.0000063 1.0005085 1.0002592 0.99999505
0002f0 00 00 80 3f 5d 00 80 3f 0b 00 80 3f 03 00 80 3f
       1.0 1.0000111 1.0000013 1.0000004
000300 b3 ff 7f 3f 30 00 80 3f d7 fe 7f 3f 1f 00 80 3f
       0.9999954 1.0000057 0.9999823 1.0000037
000310 ff ff 7f 3f fa ff 7f 3f f7 ff 7f 3f 0f 00 80 3f
       0.99999994 0.99999964 0.99999946 1.0000018
000320 00 00 80 3f 0c 00 80 3f 05 00 80 3f 29 00 80 3f
       1.0 1.0000014 1.0000006 1.0000049
000330 ec ff 7f 3f 04 00 80 3f 2b 00 80 3f f8 ff 7f 3f
       0.9999988 1.0000005 1.0000051 0.9999995
000340 23 00 80 3f 39 00 80 3f 00 00 80 3f eb ff 7f 3f
       1.0000042 1.0000068 1.0 0.99999875
000350 ff ff 7f 3f b0 01 80 3f 83 ff 7f 3f 01 00 80 3f
       0.99999994 1.0000515 0.99999255 1.0000001
000360 93 00 80 3f 0f 00 80 3f 05 00 80 3f f4 ff 7f 3f
       1.0000175 1.0000018 1.0000006 0.9999993
000370 0e 00 80 3f e0 ff 7f 3f 40 00 80 3f 22 09 80 3f
       1.0000017 0.9999981 1.0000076 1.0002787
000380 71 fc 7f 3f 7c ff 7f 3f fe ff 7f 3f 3b 00 80 3f
       0.9999457 0.99999213 0.9999999 1.000007
000390 00 00 80 3f 0e 03 80 3f 0c 00 80 3f 00 00 80 3f
       1.0 1.0000932 1.0000014 1.0
0003a0 30 00 80 3f b0 ff 7f 3f 00 00 80 3f 32 fe 7f 3f
       1.0000057 0.99999523 1.0 0.99997246
0003b0 04 00 80 3f 00 00 80 3f f2 ff 7f 3f 07 00 80 3f
       1.0000005 1.0 0.99999917 1.0000008
0003c0 41 fd 7f 3f a6 00 80 3f 25 00 80 3f 14 00 80 3f
       0.9999581 1.0000198 1.0000044 1.0000024
0003d0 00 00 80 3f f5 ed 7f 3f de ff 7f 3f dd ff 7f 3f
       1.0 0.9997247 0.999998 0.9999979
0003e0 1c 00 80 3f 4c 00 80 3f 0b 00 80 3f b0 ff 7f 3f
       1.0000033 1.0000091 1.0000013 0.99999523
0003f0 00 00 80 3f 28 00 80 3f 01 00 80 3f 00 00 80 3f
       1.0 1.0000048 1.0000001 1.0

layernorm.bias f4 [259, 64]
000000 59 de 2f 37 6e e2 83 b7 ae 84 07 37 2a e3 48 b7
       1.0482582e-05 -1.5721856e-05 8.077519e-06 -1.197382e-05
000010 d9 ff e7 b6 06 a4 e0 36 40 e2 23 b7 d4 77 95 b6
       -6.914121e-06 6.694815e-06 -9.768235e-06 -4.454496e-06
000020 b7 97 28 37 e5 96 67 b7 01 00 f6 b6 e2 fd 8e b7
       1.0048904e-05 -1.3803806e-05 -7.3313718e-06 -1.7045943e-05
000030 4d f1 45 36 c4 68 a6 37 af c2 a8 37 c7 ab 1f 36
       2.9495743e-06 1.9837527e-05 2.0117817e-05 2.3792834e-06
000040 50 45 22 b6 3e a2 87 b7 c5 8b 9e b6 5d 5c 35 b7
       -2.4180226e-06 -1.6168804e-05 -4.7250383e-06 -1.0809946e-05
000050 08 31 e8 b6 6a 85 e8 37 27 7f df b5 cd 3b af 37
       -6.919847e-06 2.7718681e-05 -1.6651801e-06 2.0889473e-05
000060 1e ef 08 b6 18 32 aa b6 86 a9 c7 b5 8f 56 c8 34
       -2.0404764e-06 -5.0722265e-06 -1.4875993e-06 3.7315883e-07
000070 b8 22 f2 b6 9f b5 91 37 cb c4 02 37 ea e7 bb 37
       -7.216204e-06 1.736992e-05 7.794423e-06 2.240013e-05
000080 14 99 a3 36 7d 7b 9c 35 89 1e 12 37 38 4e ec b6
       4.875599e-06 1.1658846e-06 8.709388e-06 -7.042454e-06
000090 f2 01 24 37 c5 31 9c 37 3d 82 66 b7 97 b3 01 37
       9.775615e-06 1.8619825e-05 -1.3739392e-05 7.730813e-06
0000a0 46 0b 83 b7 42 00 73 37 3f 5f 2d b5 28 2c 44 b7
       -1.5621667e-05 1.4483989e-05 -6.4586123e-07 -1.1692791e-05
0000b0 d6 1e 0a 37 a0 0b 55 b6 61 32 8b b5 28 0f 74 37
       8.2326205e-06 -3.174624e-06 -1.0370969e-06 1.4547062e-05
0000c0 1f dc 50 b7 6b 67 98 37 f9 b2 e5 b6 89 40 6e 36
       -1.2449017e-05 1.816797e-05 -6.845567e-06 3.5502328e-06
0000d0 6b 69 2f b6 3c 8f a8 b7 f7 69 40 37 d3 69 95 36
       -2.6138393e-06 -2.009386e-05 1.1468764e-05 4.4528656e-06
0000e0 b3 fc 20 b7 4a e8 0a 38 53 61 cb 37 d5 a3 12 37
       -9.595579e-06 3.31181e-05 2.4244806e-05 8.740423e-06
0000f0 69 bd 9c 36 6b 1f 77 37 43 f6 3e 37 05 99 fe b5
       4.6712125e-06 1.4729662e-05 1.138222e-05 -1.8969009e-06
000100 08 a2 1f 37 13 af af b7 59 de bd 36 88 2a 89 b7
       9.514864e-06 -2.0943151e-05 5.6585236e-06 -1.6351478e-05
000110 4f be 2e b7 6c 39 18 36 96 a4 94 b7 38 3b 27 b7
       -1.0415518e-05 2.268319e-06 -1.7719616e-05 -9.967764e-06
000120 ce 86 24 37 bf 3b 8e b7 fc 13 50 b7 58 68 e2 b7
       9.806548e-06 -1.695554e-05 -1.2402419e-05 -2.6989888e-05
000130 b5 a0 d3 35 6b d4 c5 37 4f 8c 88 37 89 2f fc 36
       1.5767497e-06 2.3583145e-05 1.62778e-05 7.515719e-06
000140 7a 4c 0f b7 c7 22 c8 b7 04 0d b2 b6 91 a2 28 b7
       -8.54127e-06 -2.3858052e-05 -5.3063286e-06 -1.0051431e-05
000150 85 ca 74 b7 17 8b 05 38 62 8d 1a b6 07 96 05 38
       -1.4590686e-05 3.183921e-05 -2.3030084e-06 3.1849395e-05
000160 50 e3 00 b7 38 53 42 b7 20 89 c8 b6 08 2e 19 37
       -7.68232e-06 -1.1582677e-05 -5.976428e-06 9.130228e-06
000170 f4 a2 2b b7 af 4a 88 37 72 6e a7 b6 96 66 f1 37
       -1.0230335e-05 1.624724e-05 -4.9898454e-06 2.8777209e-05
000180 66 b4 0e b7 38 16 85 b6 f7 64 3d 36 69 42 a0 b7
       -8.505862e-06 -3.9662955e-06 2.8221964e-06 -1.9104411e-05
000190 3e f4 28 37 6d d6 ab 37 9a 07 7c b7 d6 b4 08 36
       1.0070447e-05 2.0484638e-05 -1.502214e-05 2.037084e-06
0001a0 0e eb b5 b7 f4 5e e5 37 4e 81 8d b6 92 9b ff b7
       -2.1686337e-05 2.7343143e-05 -4.2171805e-06 -3.0470812e-05
0001b0 8b bd 53 37 77 3a 45 b7 8f ec 0d b7 72 4f f3 36
       1.26207115e-05 -1.1755727e-05 -8.459333e-06 7.251213e-06
0001c0 54 d3 d0 b7 77 87 b5 37 c8 37 76 b7 f4 20 9d b6
       -2.489394e-05 2.1639962e-05 -1.467573e-05 -4.682801e-06
0001d0 69 88 85 b6 89 95 01 b8 20 56 59 37 c3 27 23 36
       -3.979589e-06 -3.0895262e-05 1.29542605e-05 2.4312037e-06
0001e0 a5 33 57 b7 3b b0 11 38 39 36 bc 37 48 ba 45 37
       -1.2827023e-05 3.473482e-05 2.2436596e-05 1.1785487e-05
0001f0 11 de a1 36 c9 04 ae 37 a7 51 41 37 e4 e0 82 b5
       4.824026e-06 2.0744645e-05 1.1522708e-05 -9.751207e-07
000200 84 e2 03 37 3c c7 24 b7 39 79 bb 36 ec ce 1e b7
       7.860948e-06 -9.82155e-06 5.5871465e-06 -9.465712e-06
000210 96 9b a4 b6 fe 82 6e 36 a3 57 0f b7 a9 dd b1 b6
       -4.9056935e-06 3.554101e-06 -8.543869e-06 -5.3008157e-06
000220 75 b5 cd 36 0f f3 06 b7 57 4f c3 b6 7b b6 34 b7
       6.1306005e-06 -8.043614e-06 -5.8206892e-06 -1.0771323e-05
000230 35 e6 0f 36 f8 37 8c 37 a5 8f 82 37 a2 da a4 36
       2.1442659e-06 1.6715363e-05 1.5564097e-05 4.913033e-06
000240 06 9f 05 b6 54 f5 36 b7 32 33 f6 b5 ff 0b e1 b6
       -1.9911108e-06 -1.0905165e-05 -1.8343328e-06 -6.706919e-06
000250 f5 6d ff b6 5f 35 d2 37 7f fe 94 34 29 15 91 37
       -7.612393e-06 2.5058804e-05 2.7752318e-07 1.72952e-05
000260 34 75 ee b4 6f c6 60 b6 3a ac b5 34 5f 05 5d 34
       -4.441623e-07 -3.3494105e-06 3.3839189e-07 2.0584183e-07
000270 ad a1 cd b6 72 dc 6b 37 05 06 bc 36 90 de 9f 37
       -6.1282976e-06 1.4058418e-05 5.6035374e-06 1.9057916e-05
000280 60 30 b1 36 19 ce 62 36 da a6 0a 37 45 47 a9 b6
       5.2806427e-06 3.379659e-06 8.264289e-06 -5.0448893e-06
000290 6e 50 09 37 ce d5 74 37 1e bd 43 b7 4f 45 a1 36
       8.184563e-06 1.4593314e-05 -1.1666938e-05 4.8062425e-06
0002a0 ba b9 31 b7 66 eb 67 37 03 19 a0 35 ba 9c 43 b7
       -1.0593265e-05 1.3823481e-05 1.1928208e-06 -1.16593965e-05
0002b0 57 fc 10 37 7f e4 8a b6 51 e2 5a b6 9b 28 2d 37
       8.641821e-06 -4.139321e-06 -3.2616265e-06 1.0321058e-05
0002c0 dd 51 35 b7 4d db 85 37 1e fb 77 b6 ad 6e ce 35
       -1.0807501e-05 1.5956955e-05 -3.6952038e-06 1.5380407e-06
0002d0 3e 27 54 b6 9c 81 85 b7 b8 43 00 37 ba 85 35 35
       -3.1613304e-06 -1.591519e-05 7.6451615e-06 6.762235e-07
0002e0 28 ac 1d b7 0f b6 d4 37 c5 09 b1 37 00 ed 06 37
       -9.3980125e-06 2.5357147e-05 2.1104594e-05 8.042203e-06
0002f0 ed e1 b7 35 bf 35 65 37 45 2d 09 37 f0 ef 54 b5
       1.3700316e-06 1.3661977e-05 8.1763765e-06 -7.932531e-07
000300 fc 81 d8 36 1f b7 7d b7 4b bf 38 36 ba f2 56 b7
       6.452434e-06 -1.5122611e-05 2.7529484e-06 -1.2811908e-05
000310 05 8f 11 b7 ff 36 33 36 2e aa 73 b7 ed 4c 22 b7
       -8.675973e-06 2.670509e-06 -1.4523552e-05 -9.673863e-06
000320 6b 6e cb 36 4a 12 43 b7 1f ae ef b6 b4 62 ae b7
       6.062726e-06 -1.1627164e-05 -7.1430254e-06 -2.0788379e-05
000330 34 bf ea 35 68 8f b1 37 a8 85 47 37 00 c4 08 37
       1.7490006e-06 2.1166823e-05 1.1892444e-05 8.1518665e-06
000340 48 9e e4 b6 19 b6 94 b7 e1 67 b7 b6 c8 71 df b6
       -6.813356e-06 -1.772777e-05 -5.465918e-06 -6.659164e-06
000350 c5 be 3f b7 fb 0a cc 37 b1 74 80 b6 84 9a e7 37
       -1.1428904e-05 2.4323808e-05 -3.828282e-06 2.7609298e-05
000360 48 7e 05 b7 51 2e 55 b7 df a6 82 b6 77 96 f7 36
       -7.95682e-06 -1.2706573e-05 -3.8937283e-06 7.37869e-06
000370 ac 19 e0 b6 07 f1 48 37 45 38 64 b6 ee 91 b4 37
       -6.678709e-06 1.19770475e-05 -3.40074e-06 2.1525626e-05
000380 42 26 f8 b6 91 c4 4b b5 4f b6 18 36 56 d0 78 b7
       -7.3954297e-06 -7.5909435e-07 2.2755883e-06 -1.4830459e-05
000390 2e 66 cd 36 7c 31 8a 37 32 62 28 b7 a3 93 b5 35
       6.1213714e-06 1.6473925e-05 -1.0036443e-05 1.3528519e-06
0003a0 40 97 86 b7 f1 1a aa 37 3f f9 68 b6 2d 5b c7 b7
       -1.6044476e-05 2.0278125e-05 -3.4715774e-06 -2.3765106e-05
0003b0 7f cd 29 37 ea 61 0b b7 d5 0e 97 b6 e0 7a d5 35
       1.0121031e-05 -8.307843e-06 -4.5018774e-06 1.5905498e-06
0003c0 1a 79 8e b7 7a 1d 8f 37 b2 08 16 b7 e4 75 ac b6
       -1.6984111e-05 1.7060654e-05 -8.942721e-06 -5.1397237e-06
0003d0 b2 95 ff b4 83 d3 c0 b7 7a ba 28 37 6c e6 37 36
       -4.760637e-07 -2.2986676e-05 1.0056998e-05 2.7403248e-06
0003e0 cd b6 2e b7 34 4e d5 37 88 9e a6 37 39 d9 e7 36
       -1.041377e-05 2.5427995e-05 1.9862564e-05 6.9096245e-06
0003f0 6e 54 4a 36 18 95 89 37 6a 64 27 37 b9 d0 ee b5
       3.014949e-06 1.64011e-05 9.977355e-06 -1.7793128e-06

fc0.0.weight f4 [64, 64]
000000 75 a6 16 3d 33 7b ec 3d 1e 0f ef 3d 9a cf f4 3b
       0.03677984 0.11546936 0.11672805 0.007471037
000010 a6 e9 c1 bd b4 2f 4e bd 81 e1 23 3d 8f 53 8e 3b
       -0.09468393 -0.050338462 0.04000998 0.004343457
000020 43 aa bb bc 1c 07 a7 3d f9 74 a0 3d ab bf ff 3d
       -0.022908336 0.08155653 0.07834811 0.1248773
000030 85 03 1a 3d 66 d9 3e 3c e2 76 dc 3d bc af 81 bd
       0.037601013 0.0116485115 0.107648626 -0.06332347
000040 a0 36 48 3c 35 da e1 3c f3 0b 54 bd 0f 5f b0 3d
       0.012220055 0.02756987 -0.05176921 0.08611881
000050 18 32 ae 3d 33 e6 09 3d 0f bc 6d bb 78 78 9c 3d
       0.085056484 0.0336668 -0.0036275422 0.07640165
000060 83 9d ab 3d ba 10 ca 3d 2a 33 e1 bd 4c 5e b2 bd
       0.08379652 0.098664716 -0.10996087 -0.08709392
000070 98 1b ea bd 04 d9 f9 bb 01 ff c4 3d 9d 8e ae 3d
       -0.11431044 -0.007624747 0.09618951 0.08523295
000080 a0 ca 86 3d b1 88 02 3d 81 80 11 3c cd 52 9a 3d
       0.065816164 0.03186864 0.008880735 0.07535324
000090 a3 73 18 bd 8a 01 31 bd 65 92 e7 bc ad 1b e1 3c
       -0.037219655 -0.04321436 -0.028268049 0.027479017
0000a0 01 bd 80 bd 90 39 9f bd b3 28 d1 3d a2 b2 f4 3d
       -0.0628605 -0.07774651 0.10212841 0.11948134
0000b0 f5 cf c9 3c f2 ff 94 bd 71 73 0b bd 12 f3 b2 3d
       0.024635294 -0.0727538 -0.03404564 0.08737768
0000c0 3c 3d 28 bd 1e 9b 8c 3c 53 d0 80 3d 5c 39 03 bc
       -0.041074023 0.01716381 0.06289735 -0.008009281
0000d0 53 01 5d bd 68 e1 ba bd 44 9b cd bb b3 f0 dd bd
       -0.05395634 -0.09125024 -0.0062746126 -0.10836925
0000e0 56 88 95 bc 8a 5d a8 bd e9 f2 cb 3d 1a f2 7e 3c
       -0.018253487 -0.08220966 0.09958441 0.015560651
0000f0 69 af 1f 3d 20 97 c2 ba ef 73 00 3a 7a ff 92 3d
       0.038985644 -0.0014846064 0.0004900088 0.071776345
000100 24 b7 64 3d 0a eb 5b bd 17 e3 84 bd e1 e7 3c 3d
       0.05583872 -0.053690948 -0.064886265 0.046119574
000110 42 ba fd bc fb fd b9 3d d0 aa 30 bd 83 ef 9f 3d
       -0.030972604 0.09081646 -0.04313165 0.07809355
000120 82 73 50 3c e7 30 a7 3d c6 22 a9 3b d6 7d a3 bd
       0.012722852 0.08163624 0.005161616 -0.07982986
000130 2b 51 a6 3d 71 fb 3c 3d 48 77 8d 3d 3a 11 ba 3d
       0.0812095 0.04613823 0.06907517 0.09085317
000140 e5 2c 8e bd 97 20 e0 3d 01 58 91 3d 2d 95 e9 3d
       -0.06942157 0.10943716 0.070968635 0.11405406
000150 57 1d 95 bd 24 bf de 3d f7 8c 9a bd 4b 3b e1 3d
       -0.07280987 0.10876301 -0.07546418 0.10997637
000160 5c 87 a9 3d 5a 9b f2 3b c1 fd 99 3d 4a 81 d9 3d
       0.08277771 0.0074037733 0.07519103 0.10620363
000170 f9 5c 37 bd cf 27 ec 3d b5 e4 ce bc cc 4b 06 3d
       -0.0447664 0.115310304 -0.02525554 0.03278713
000180 c6 fe 60 3c bf 9c 5c bc 15 af 87 bc d6 a9 b0 bc
       0.013732618 -0.013465106 -0.016562978 -0.02156536
000190 89 1b f5 3d a5 fe 2c 3d a7 a2 a5 3c 47 b5 ac bd
       0.119681425 0.042235035 0.02021916 -0.084330134
0001a0 b6 76 f4 bc 94 c5 a5 bd 7d 4b 6f bd 97 7e 86 bd
       -0.029841762 -0.08094326 -0.0584216 -0.06567114
0001b0 48 82 3b 3d ad 84 8c 3d 02 dc 75 3d c0 e0 f2 bd
       0.045778543 0.068612434 0.06002427 -0.11859274
0001c0 06 64 3a bc f9 59 dd bd 5e d7 61 bd 45 ef f5 3d
       -0.0113763865 -0.108081765 -0.05513703 0.12008528
0001d0 9d 3f a7 bd 71 8a e2 3d ed f4 d9 3d 08 72 37 3b
       -0.0816643 0.11061562 0.10642419 0.0027991552
0001e0 b8 22 f1 3d e4 9d d0 3d 7e f4 2e 3c a6 f8 31 3d
       0.117742 0.10186365 0.010678409 0.04345002
0001f0 91 eb e4 bd dc 5b 71 bd f2 78 5f 3b 0d 1c db bd
       -0.11177743 -0.058925495 0.0034099189 -0.1069871
000200 44 05 12 bc 66 aa 0a 3c 27 c6 ac 3d c0 15 bf 3d
       -0.008912388 0.008463478 0.08436232 0.0933032
000210 fc f5 5c 3d 4e 56 b2 3c a0 bb 1a bc 56 a2 01 bd
       0.053945526 0.021769669 -0.009444147 -0.031648956
000220 0b 5f aa bd 55 e0 f3 bd bc 11 df bd e6 00 ae 3d
       -0.08318909 -0.11908022 -0.108920544 0.08496265
000230 70 07 7e 3d 80 ac 0f 3b d4 5e dd bc 5b 5d e7 bc
       0.06201881 0.0021922886 -0.027022757 -0.028242758
000240 a7 ee 39 3d ec d6 5f bd f0 98 59 bd f6 df 80 bd
       0.045393612 -0.054648325 -0.05312437 -0.06292717
000250 56 26 df bd ae 85 4e bd d3 a8 9e 3d d1 8d 7f 3a
       -0.10895984 -0.050420456 0.077470444 0.00097486103
000260 ad 94 b0 bd 57 11 07 3a 8f bc ec 3b be 9b d2 bd
       -0.08622108 0.0005152425 0.0072246264 -0.10283612
000270 b9 b2 d3 bd 14 91 7c 3b 17 98 c8 bd 21 73 aa 3d
       -0.10336823 0.0038538622 -0.09794634 0.0832274
000280 be cb cc 3c fe 7f a1 3d c6 82 91 3d 80 94 50 3d
       0.024999496 0.07885741 0.07105021 0.05092287
000290 7e 5d 8a 3d 87 48 68 3d 36 2d 7f bd 28 fd e7 bd
       0.067561135 0.056709792 -0.062298976 -0.113275826
0002a0 a7 83 c8 3d a1 18 37 bd 1b 38 c2 3d bd 4e 63 bd
       0.09790736 -0.044701222 0.094833575 -0.055495013
0002b0 84 ff 00 3d 62 ff eb bd 8d 5d a8 3d d2 15 f9 bc
       0.03149368 -0.1152332 0.082209684 -0.030405913
0002c0 fe 01 f9 3d 5e 9c fa 3d d1 50 29 3b 6d e1 1d 3d
       0.12158583 0.12236856 0.0025835524 0.03854506
0002d0 42 84 bc bd ee e3 a1 bd 41 54 3d bd 0e 90 b5 bd
       -0.09204914 -0.07904802 -0.04622293 -0.08865367
0002e0 69 e8 3c bd a4 cd fa 3c 14 3a f9 bc fc ab a7 bc
       -0.04612008 0.030615635 -0.030423202 -0.02046775
0002f0 70 d4 71 3d fc 42 8f bd 54 0d d6 bc 83 76 b1 ba
       0.059040487 -0.06995198 -0.026129402 -0.0013539348
000300 9b 99 e2 bd 0a f5 27 3d c0 a0 c3 3d 7e 22 fe 3d
       -0.11064454 0.04100517 0.09552145 0.124089226
000310 53 ca 90 bd 0e a5 fb bc 3b b7 ac 3d 0b bf a6 bd
       -0.0706984 -0.030718353 0.08433386 -0.08141907
000320 de 85 af bd 15 54 c1 3c af d4 c1 3d 27 b3 f7 bd
       -0.08570455 0.023599664 0.09464394 -0.120947175
000330 c2 28 ba bd 16 b2 18 bd ec 9b 81 bd f8 be 2c 3d
       -0.09089805 -0.03727921 -0.06328568 0.04217431
000340 d7 6a 64 3d 0e 08 71 3d 3b 71 66 bd d0 ff 13 3c
       0.055765953 0.058845572 -0.05626033 0.009033158
000350 00 84 bd bc b1 b3 a3 bd 1a bb f5 bd f4 23 db 3d
       -0.023134232 -0.07993258 -0.119985774 0.10700217
000360 16 50 0c 3d 22 d3 2f bd ee 24 82 bd 96 c5 4c 3d
       0.034256063 -0.04292596 -0.063547 0.04999312
000370 a1 f6 c7 3d 5c 32 2a b9 9c ca ed 3d a7 0e df bd
       0.097638376 -0.00016231224 0.1161091 -0.108914666
000380 05 f9 dc bd ae a7 7d 3d 65 62 df bd 81 a4 21 bc
       -0.10789684 0.06192749 -0.10907439 -0.009865881
000390 ab 4d ba 3d a9 45 69 3c 47 8f 95 3d cd 7f 0e bd
       0.09096845 0.0142378 0.073027186 -0.03478985
0003a0 57 16 9b bd 8b ec 3e bd 5a d4 9b bd fd 02 e3 3d
       -0.0757262 -0.046612304 -0.07608862 0.11084554
0003b0 90 c4 d4 3c d9 fd 28 3d d0 76 81 bc db 66 f7 bd
       0.025972635 0.041257713 -0.015803725 -0.12080165
0003c0 d9 7c 63 3d 46 3d a8 bd c8 34 e9 3c a9 f2 6a 3d
       0.055538986 -0.08214812 0.02846755 0.057360325
0003d0 7f 18 57 3c 47 af 86 bd 98 b8 eb bd 2c bf 94 3d
       0.013128399 -0.065764 -0.11509818 0.07263026
0003e0 c2 90 59 bc 1f a2 b7 3d 47 45 57 bd 5e 58 02 3d
       -0.013279142 0.08966469 -0.052556302 0.031822555
0003f0 4f 2c a9 3d 0d 91 e3 b8 ef 01 83 bd 10 30 ac 3d
       0.08260404 -0.00010851221 -0.06396853 0.08407605

fc0.0.bias f4 [64]
000000 22 3a fe bd 25 eb de bd 5a 71 46 bc a3 85 e1 bc
       -0.12413432 -0.10884694 -0.012111986 -0.027529543
000010 78 f8 a5 bd 19 8c c3 bd 44 0e 49 bd 1c 01 77 bd
       -0.08104032 -0.09548206 -0.04908587 -0.060303792
000020 b2 99 17 bd 8d 78 1d 3d 76 ad e8 3d 81 fb 26 bd
       -0.03701181 0.038445044 0.1136121 -0.040767197
000030 9b 97 90 3c 10 f3 d7 bd 7e 0b e4 3d da 74 ef 3c
       0.017650416 -0.10544407 0.111350045 0.029230524
000040 b4 62 de bd 66 40 51 3d 60 68 b5 bd a6 1e 84 3d
       -0.1085867 0.051086806 -0.088577986 0.06451158
000050 26 66 df bd 56 0c c4 bc 82 ee b9 bd b8 1e f8 bc
       -0.10908155 -0.023931663 -0.09078695 -0.030288085
000060 60 1f 9e bd 12 5a 08 3d 5a fe 9e 3d 38 c9 1b 3d
       -0.07720828 0.033289023 0.077633575 0.038033694
000070 d1 0e 93 3d 16 7e bc bd aa d6 4c bd b7 80 62 3d
       0.071805604 -0.092037365 -0.050009407 0.055298533
000080 c8 b6 dd bc c9 6c 96 3d 5a 5a f6 bd 3b da 34 bc
       -0.027064696 0.07344968 -0.12028952 -0.011038358
000090 00 63 7d 3d 15 d4 cc bc 5a c5 1d 3d 7c 60 b3 bd
       0.061861992 -0.025003472 0.038518287 -0.08758637
0000a0 3e 74 f8 3c 4c 38 26 3d 0d 0e 52 3b 57 02 0e bd
       0.030328866 0.040581033 0.0032051832 -0.0346702
0000b0 0b 64 16 3d 03 76 33 3d 13 00 d5 bd b1 67 14 bd
       0.036716502 0.043813717 -0.10400405 -0.0362317
0000c0 16 b5 cf 3d 41 03 8e 3d 9e c6 16 bd 9f 21 92 3c
       0.10141961 0.069342144 -0.03681051 0.017838297
0000d0 de 7d b3 bd b9 83 a7 3d 03 b1 b6 bc 4f 7d 33 3d
       -0.08764242 0.08179421 -0.022301203 0.043820675
0000e0 6f bd 95 3d 88 8a 93 bd d6 15 11 bd b5 25 80 bd
       0.07311522 -0.07204157 -0.035421215 -0.06257192
0000f0 94 d0 7f 3d 32 cb c9 bd ea 12 7f 3d ba ef 2b 3d
       0.062454775 -0.098532096 0.062273897 0.041976668

fc1.0.weight f4 [64, 64]
000000 44 a4 67 bd ac bf c0 bd 5b 93 0a 3d 96 69 b3 bd
       -0.05655314 -0.094115585 0.033831935 -0.08760373
000010 8a 10 39 3d 70 29 d8 bd c5 fa ed bd d1 b1 a0 3d
       0.04518179 -0.105547786 -0.11620096 0.07846416
000020 2f 72 86 3c ce 91 d4 3d 34 c8 b9 3d e2 24 6f 3d
       0.016411869 0.103793725 0.09071389 0.058384784
000030 5f be 51 bd d1 4c 25 bd 79 dc bc 3d dd fd e7 3d
       -0.051206943 -0.04035646 0.09221739 0.113277175
000040 60 7e 1d bd 07 38 a2 b9 3f 0c ac bc 4b 9e d3 3d
       -0.0384506 -0.00030940791 -0.021001933 0.10332926
000050 99 b4 cb 3d 75 00 3c bd 6b 9a 51 3d 80 ab 99 3d
       0.09946556 -0.045898873 0.051172655 0.07503414
000060 7d 06 06 bd 1e fb ba 3d dc e3 bc 3d ac 0c 86 3d
       -0.03272103 0.09129928 0.09223148 0.06545386
000070 02 cc f8 bd 79 17 db bd 66 71 b8 bd 33 f3 d1 3d
       -0.121482864 -0.106978364 -0.09006004 0.10251465
000080 12 cb e8 3d 48 8a 4c bd ae 12 e9 bd 4c 21 51 3b
       0.113668576 -0.049936563 -0.11380516 0.0031910716
000090 58 69 d8 bd c3 0d 83 3d 44 f3 f4 bd d3 34 35 3b
       -0.10566968 0.06399109 -0.11960462 0.0027649894
0000a0 c4 6d 05 3d 14 8c 88 bc 34 3a 0e 3c d1 8a 5e 3d
       0.032575384 -0.016668357 0.008680869 0.054331604
0000b0 99 9a bc 3d 50 bb b1 bd f1 e2 e5 3d 02 e7 c7 3d
       0.09209175 -0.08678305 0.11224926 0.09760858
0000c0 49 c6 58 bd 9c 61 f3 3c 82 e1 10 bb 90 d1 59 3d
       -0.052923474 0.02970963 -0.002210707 0.05317837
0000d0 13 da 37 bd 58 90 b9 bd e8 57 d6 3c 1e ae 75 bd
       -0.044885706 -0.090607345 0.026164964 -0.059980504
0000e0 be 8f c0 3d 73 55 a9 bd ad 30 56 3d fe f6 70 3d
       0.09402417 -0.08268251 0.052292515 0.0588293
0000f0 90 41 d2 bc ab ab ce bc 6f ee c1 bc e8 56 36 3c
       -0.025666028 -0.025228342 -0.023673264 0.0111291185
000100 22 4a 34 3d f0 6e 9a 3d dc e2 c5 3d 61 00 02 bd
       0.04401601 0.07540691 0.096624106 -0.031738643
000110 26 85 f6 bd 2b 12 8b bd 60 39 c0 bd a2 79 4a 3d
       -0.12037115 -0.06790575 -0.093859434 0.049432404
000120 30 60 d6 bc 86 a2 bc bd 4b e6 a4 ba b5 d2 32 3d
       -0.026168913 -0.092106864 -0.001258084 0.043657977
000130 14 85 c7 3c b8 ee b0 bd 5e b6 12 3d 7c 15 fe 3d
       0.024355449 -0.08639282 0.03581845 0.124064416
000140 9f 86 84 3c e4 2c 8e 3d f7 19 01 3b f2 10 ca bb
       0.016177474 0.06942156 0.0019699314 -0.006166571
000150 eb e9 6b bd ad 3f 89 3b 1a 4e cd bd 50 c3 50 bd
       -0.05759613 0.004188499 -0.10024662 -0.050967515
000160 4e b5 dd 3c 1f 46 b4 3d 5d f0 dc 3d d3 20 b8 bb
       0.027063992 0.08802437 0.10788033 -0.0056191473
000170 12 02 93 bd b6 82 e2 bb a0 c6 f4 bc f5 e7 6a 3d
       -0.07178129 -0.0069125546 -0.029879868 0.057350118
000180 9c da d8 3b 9b 3b 8e bd 63 fe 8d 3d cd e3 56 3d
       0.006617857 -0.069449626 0.06933286 0.05246334
000190 1d 14 51 bd 23 93 7e 3d 7b 1c 91 3d ed d3 f8 3d
       -0.051044572 0.06215204 0.0708551 0.12149797
0001a0 4b 11 d1 3d 06 2e e1 3d 14 6f 20 3c 8d 37 fd bd
       0.102083765 0.109951064 0.009792108 -0.12364111
0001b0 95 18 d3 3d 79 c9 75 3d f7 da ad bd a6 f8 08 3d
       0.10307423 0.060006592 -0.0848903 0.033440255
0001c0 2f 92 b4 3d ff c3 d2 3d 4c 2d dc 3c cb f5 ff bd
       0.08816945 0.102912895 0.026877068 -0.12498053
0001d0 88 33 92 bd f9 3d 6a bd d3 fa bc bd de 76 4e bd
       -0.07138735 -0.057188008 -0.092275284 -0.05040633
0001e0 c1 33 d1 3c 72 2d 0d bd 41 aa b6 bd cf a8 bd 3d
       0.025537373 -0.03446717 -0.08919192 0.09260713
0001f0 45 86 b9 bd ff 90 1c 3d 59 07 48 bd bd ee 3f bd
       -0.09058813 0.038224217 -0.048835132 -0.046858538
000200 f8 45 7a bd 48 96 62 3d f6 49 80 bb 16 d8 f9 3d
       -0.061101884 0.0553191 -0.003915067 0.12199418
000210 34 54 b4 bd 3c 62 92 3d 22 57 71 3c 6e 6e 35 bd
       -0.08805123 0.07147643 0.014730247 -0.044294767
000220 d6 62 94 3d c1 75 5a bd aa 86 e5 3d b1 d6 76 3c
       0.07245414 -0.053334955 0.11207326 0.015065835
000230 d1 23 a2 bd 84 16 ec bb c6 2d a5 bd f9 3d b9 bc
       -0.07916988 -0.0072048325 -0.08065371 -0.022612559
000240 21 d7 b9 bd 19 da b9 3c 2d fb bf bd e7 53 85 bd
       -0.09074236 0.022687005 -0.0937408 -0.06510144
000250 1e 29 af 3d 1c fa 3a bd 0e 00 e5 bd cb 7e cb bd
       0.08552764 -0.04564868 -0.11181651 -0.09936293
000260 50 29 8e 3d cd 15 37 3d 89 d3 c5 3d c5 23 be 3d
       0.069414735 0.044698525 0.09659488 0.09284166
000270 d6 46 1c bd d8 4d d3 3d a4 b7 f6 bd 43 e2 a3 bd
       -0.038153492 0.10317582 -0.120467454 -0.080021404
000280 24 27 a5 bd f5 a0 33 3c 89 a7 e1 3d 47 d7 90 bd
       -0.08064106 0.010963668 0.11018283 -0.07072311
000290 eb 27 be 3d ec 39 6a bd c2 ed f3 3d 6c 88 8e bd
       0.092849575 -0.057184145 0.11910583 -0.06959614
0002a0 97 79 2a 3c 3e 42 e5 bd d0 43 ae bc 1e a3 a2 bd
       0.010404966 -0.11194275 -0.02127257 -0.079412684
0002b0 6e c2 2e bd d0 02 cd 3d 5b 75 4d 3d 27 0e fe 3d
       -0.04266589 0.10010302 0.050160747 0.12405043
0002c0 89 0b c8 3d 5d 84 23 3c 3e 3f bb bd f9 10 7d 3d
       0.09767825 0.009980288 -0.09142922 0.061783765
0002d0 9f d0 d6 3d 21 cf c0 bd 1f 97 f2 bd 63 61 70 3d
       0.1048901 -0.09414507 -0.1184523 0.058686625
0002e0 19 ef c4 bd 19 f4 a0 3c 85 85 b7 bd d5 ab b2 bc
       -0.09615917 0.019647645 -0.08961014 -0.021810452
0002f0 a1 24 73 3d 00 7e 75 bd 16 5b ae 3d d1 cc 68 bd
       0.059361104 -0.059934616 0.08513467 -0.056835953
000300 c0 2e d8 bc 92 e4 ea 3d 28 19 a3 3d 0e 50 64 3d
       -0.02638948 0.114693776 0.079637825 0.05574041
000310 42 a5 9e bd 80 12 80 3d 5c 7c 01 3d 64 f0 a1 bd
       -0.07746364 0.062535286 0.03161274 -0.07907179
000320 17 1e a3 3c d4 48 c8 3d 98 1a 0c bb 15 ee d6 bd
       0.019911809 0.09779516 -0.0021378156 -0.10494629
000330 f8 d9 75 3d b9 3a fb bc 8c 02 22 3d 54 8d f8 bd
       0.060022324 -0.03066765 0.03955321 -0.12136331
000340 ab af ed 3b 9a 31 35 3c b3 f8 66 bd d4 18 c5 bd
       0.0072536073 0.011059189 -0.05638952 -0.09623876
000350 65 64 a9 bd 11 28 d2 bd c2 5b c2 3c a5 55 01 bc
       -0.08271102 -0.10261548 0.023725394 -0.007893954
000360 a2 d8 15 3d 26 89 76 bd c7 56 f0 bd cd a1 9b bd
       0.03658355 -0.06018939 -0.117353015 -0.075992204
000370 15 d5 be bc e1 62 8d bd a6 06 a7 bd 90 2f e5 bd
       -0.023294965 -0.06903625 -0.08155565 -0.111907125
000380 d0 af c4 3d 53 09 74 bc 93 42 bc bd d2 72 d7 3d
       0.09603846 -0.014894801 -0.091923855 0.10519947
000390 9f d8 c6 bd 80 ec ee bd e0 5b 7d 3d f0 f6 17 bd
       -0.09709286 -0.116662025 0.061855197 -0.037100732
0003a0 86 6c be 3d a7 33 a1 bd 53 df bc 3d 97 d3 c8 bd
       0.09298043 -0.0787118 0.09222283 -0.098059826
0003b0 dc 10 d5 bb 76 55 5d bd 10 b3 88 bc 68 cb 66 3d
       -0.006502254 -0.05403658 -0.016686946 0.056346327
0003c0 ad f0 eb bd db ea a3 3c 92 b3 da bd 4a 99 69 3d
       -0.11520515 0.020009449 -0.106787816 0.057030953
0003d0 c8 c8 bd 3b ba 10 82 bc 4b e0 bb 3c 0c d4 b4 3c
       0.0057917573 -0.015877116 0.0229341 0.022073768
0003e0 aa 3a cd bd 1b b4 2c 3d e2 0d 18 bc 71 b5 91 bc
       -0.10020955 0.04216395 -0.009280654 -0.017786713
0003f0 89 9d ee 3d 22 f3 65 bd f4 c0 8a bd be 84 f0 3d
       0.11651141 -0.056140073 -0.06775084 0.117440686

fc1.0.bias f4 [64]
000000 83 19 33 3d 78 50 93 bd 83 31 25 3d 5a ad 5b 3c
       0.0437255 -0.071930826 0.04033042 0.013408029
000010 64 7e b1 3a 5c 85 9c bd d6 30 d4 3d de 1f 2a 3d
       0.0013541696 -0.07642624 0.10360877 0.041534297
000020 05 f8 e2 3d 35 4c f8 bc 60 d4 78 3c 24 8d ff 3c
       0.11082462 -0.030309776 0.015187353 0.03119523
000030 00 7a 4c bb fa 39 ec 3d e1 75 d5 3d 3e f8 79 b9
       -0.0031200647 0.11534496 0.10422874 -0.00023838968
000040 0f b1 5c bc 3f c5 8b bd 0c c1 d1 bd 68 e3 a8 3d
       -0.013469948 -0.06824731 -0.10241899 0.08246499
000050 43 d9 92 bd 68 00 96 3c 00 24 a9 3d 2c 8c 40 bd
       -0.07170346 0.01831074 0.082588196 -0.04700868
000060 3e 7c 25 bd fb 53 ac 3c 17 28 c4 bc a9 f8 c7 3d
       -0.04040169 0.021036139 -0.023944898 0.09764225
000070 9f a8 3b bc d2 be ea bd 59 58 da 3d 38 d7 30 3d
       -0.011453777 -0.11462177 0.10661382 0.043174
000080 67 56 a6 3d 28 a6 a9 39 b1 4d c1 3d 83 f5 9a 3d
       0.08121949 0.00032357988 0.094386466 0.07566359
000090 cb 5d dd bd e0 b8 8e bd ec 6e bc bd 17 99 a5 bd
       -0.10808905 -0.06968856 -0.09200844 -0.0808584
0000a0 d0 61 dc bc bc 67 28 3d a7 bf 41 bc c9 53 64 3d
       -0.02690211 0.041114554 -0.011825479 0.055743966
0000b0 5e d7 a2 bd ee 3d ec bd 3b 87 f0 bd 7b 4b ee bd
       -0.07951234 -0.1153525 -0.11744543 -0.116354905
0000c0 ac 5f fc 3d 7c 1a fe bd 26 38 7a bd 2c 1b b9 3d
       0.123229355 -0.12407395 -0.061088704 0.09038386
0000d0 e3 a0 bd bc 43 96 7b bd 1e a8 ab bc 4e e4 e0 3d
       -0.023148006 -0.061422598 -0.020954188 0.10981046
0000e0 fd 06 2f 3b 0a f1 be 3d 7d 1f 5b 3c 5d 2a 5f bd
       0.0026707046 0.09323318 0.013374207 -0.05448376
0000f0 b5 85 f2 bd 3d b7 42 bd e6 a8 91 3d a8 b8 f6 3d
       -0.11841909 -0.04753803 0.07112293 0.12046939

fc2.0.weight f4 [64, 64]
000000 e7 ff c7 bd 7d f8 ea 3d d2 41 d2 bd 39 83 25 bd
       -0.097656064 0.11473177 -0.102664605 -0.040408347
000010 67 da f6 bd 1d 0a 2f bb f2 13 cf bd cd f9 61 3d
       -0.12053376 -0.002670891 -0.10111226 0.05516987
000020 a8 8c dc bb a0 f9 9c 3d 05 32 3b bd 79 55 30 bd
       -0.0067306347 0.076648 -0.045702 -0.043050263
000030 08 6d 3c 3d c6 37 d0 bd 6d bc cc bd 49 af d8 bd
       0.046002418 -0.10166888 -0.09996877 -0.10580308
000040 cf 1b 34 3d 2b d3 da 3d 2b f6 a1 bd 82 7f c7 3d
       0.043971833 0.10684808 -0.07908281 0.09741117
000050 d2 17 90 bd 9b 49 ad 3c 2f 6a 63 3d f1 4d c1 bb
       -0.07035793 0.021153262 0.055521186 -0.005899184
000060 d5 72 c3 bd eb 43 d9 bd fd e2 c0 3d ea 2b bb bd
       -0.09543387 -0.106086574 0.094182946 -0.09139235
000070 76 5e 7a bd 45 ba a5 bd 9d 36 c5 bd d6 6e 28 bd
       -0.06112524 -0.08092169 -0.09629557 -0.041121326
000080 c9 1f a4 bd 3f 40 fe 3c c5 e2 2a 3d b5 d6 e4 bd
       -0.08013875 0.031036494 0.04172017 -0.111737646
000090 c6 80 e7 bd f0 38 c5 bd 90 8f 35 bd f0 bd 33 bd
       -0.113038585 -0.096300006 -0.044326365 -0.04388231
0000a0 c6 0a 83 bc 58 aa 30 3d af 01 d0 3d 97 75 e1 bd
       -0.015996348 0.043131202 0.10156571 -0.110087566
0000b0 ad 10 21 bc 71 c9 af 3d 0c b5 c5 3c 07 c6 d8 3d
       -0.009830636 0.08583344 0.024134181 0.10584646
0000c0 42 ac c7 3d 88 08 46 3d 33 ca 5c bd 5d a8 5d 3d
       0.097496524 0.04834798 -0.05390377 0.05411564
0000d0 d6 e9 46 bc 84 d5 71 bb 6a 84 1d 3d a0 b3 01 bc
       -0.012140712 -0.0036900947 0.038456358 -0.007916361
0000e0 1b 2f 45 bd 45 d7 e6 bc c6 98 f6 bd 86 52 05 3d
       -0.048140626 -0.02817882 -0.12040858 0.032549404
0000f0 05 35 e8 3d c0 79 df 3d b5 08 28 3d 48 93 c4 bd
       0.11338238 0.10911894 0.04102393 -0.09598404
000100 61 ab 84 bd 27 7e 71 bd a9 4b 55 3c e8 9d 89 bd
       -0.064780004 -0.0589582 0.013018527 -0.06719571
000110 ab 29 d2 3d 8a 74 65 bd 81 82 ea 3d a4 0d 98 bd
       0.10261854 -0.056019343 0.11450673 -0.07424477
000120 69 20 95 bc 65 5a 30 bc e1 df be bd 91 ca d7 3d
       -0.01820393 -0.010763739 -0.09320045 0.10536683
000130 42 c0 14 bd 01 12 e4 bd 5b ad fd 3d 8f c0 5b bd
       -0.036316164 -0.111362465 0.123865806 -0.053650435
000140 b0 89 68 bc 02 23 9e 3d bf 25 b9 3c ca 94 ca bd
       -0.0141929835 0.07721521 0.022601007 -0.098916605
000150 ff 61 2a 3d 33 f1 2f 3d e9 13 d2 bc 35 25 d9 bd
       0.041597363 0.042954635 -0.02564426 -0.106028
000160 6e c0 43 3d 13 75 da 3d 16 00 52 bd 9f e6 79 3c
       0.047790937 0.106668614 -0.051269613 0.015252738
000170 a2 b5 42 bd 4f f4 85 bd 56 9e 80 bd 37 0b c3 bd
       -0.0475365 -0.06540739 -0.062802 -0.095236234
000180 0c 1d 9b bd ee 13 53 bd 50 6b 6d 3d da 10 61 bc
       -0.075738996 -0.05153268 0.05796367 -0.013736928
000190 8c 7c fe bd d2 c3 ac 3c 35 1e 5d 3d 63 78 bc bd
       -0.12426099 0.021089468 0.053983886 -0.092026494
0001a0 11 e0 a7 3d e2 7d 93 3d 95 c4 aa bd 1b 68 84 3d
       0.08197034 0.072017446 -0.08338276 0.06465169
0001b0 ea 17 7b ba 7e 32 8b bd b4 10 96 3d b1 e9 80 bc
       -0.00095784536 -0.0679674 0.073274046 -0.015736433
0001c0 e2 66 90 3c 01 a0 14 bd 69 3a ac 3c f0 43 f0 3c
       0.017627183 -0.036285404 0.021023946 0.02932927
0001d0 27 2c 3c 3c bd ef 22 3c 50 db f9 3d d5 82 89 3d
       0.011485136 0.009944853 0.12200034 0.06714407
0001e0 7a 16 a2 3d 45 f3 e3 3c 4d 55 83 bd bb 2b e2 bd
       0.07914443 0.02782596 -0.06412754 -0.11043497
0001f0 88 3f 57 bc 90 ae 4e 3d ba 06 4d 3d 9f 97 e5 3c
       -0.013137706 0.050459445 0.050055243 0.0280264
000200 a3 3f d7 3c 0a 15 67 3c 8c b5 81 3d 4c 4f b4 3d
       0.026275462 0.014104137 0.063334554 0.08804187
000210 4c 75 e4 3d f5 34 2c 3d b5 04 38 3d 2b f0 32 3c
       0.11155185 0.04204269 0.044926364 0.010921518
000220 64 0b 32 3d a9 f1 6b 3d 86 9d 62 bd d0 32 45 bd
       0.043467894 0.057603512 -0.055326007 -0.04814416
000230 a8 0a af 3d 0c 32 94 bd 7b f4 84 bd 4a 2d e1 bd
       0.085469544 -0.07236108 -0.064919434 -0.10994966
000240 d1 0f b8 bd 1a e1 83 bd 0e 83 df bd 6f 11 04 3d
       -0.08987392 -0.06439419 -0.109136686 0.03224319
000250 96 ef 29 3d f3 cc a2 3d 36 b6 f7 3c 79 9a 1d 3c
       0.041488253 0.07949247 0.030238252 0.009619349
000260 93 1c 49 bc 59 46 9b bd 66 8e 37 3d 68 32 96 3d
       -0.012274879 -0.07581777 0.044813536 0.07333833
000270 31 63 cf ba fd 3d 64 3d f3 42 23 3d 06 63 86 bd
       -0.0015822408 0.05572318 0.03985877 -0.06561856
000280 39 a7 94 bd d7 98 50 bb 14 06 c4 bd 93 59 28 3b
       -0.07258458 -0.003182938 -0.09571472 0.0025688156
000290 a8 32 a9 bd 58 c8 a8 bd da a2 90 3c ff 48 3a bc
       -0.08261615 -0.082413375 0.017655779 -0.011369943
0002a0 8d d8 21 3d 70 c8 94 bd 88 8d a7 3c d5 06 8d bd
       0.03951316 -0.07264793 0.02045323 -0.06886069
0002b0 9c 09 b5 bc 04 3f 49 bd 9a 9a e9 3c 55 77 dd bd
       -0.022099309 -0.049132362 0.028516103 -0.108137764
0002c0 3d c8 8c 3c cb cb ce bd 8d 01 8b bd 6b b8 6b 3d
       0.017185325 -0.10097464 -0.06787405 0.05754892
0002d0 cc d4 ce bd ff 52 ca bb 16 a2 dc bd aa 5d 44 bc
       -0.100991815 -0.0061744447 -0.10773103 -0.011985222
0002e0 e8 89 74 bd b1 02 74 bd 0f fc d0 bb 84 2a c7 bb
       -0.05970183 -0.05957288 -0.006377704 -0.0060780663
0002f0 ab 2d da 3d 76 94 f1 3d 91 1e 9f bd cb 8b ca bd
       0.10653242 0.11795895 -0.07769502 -0.09889945
000300 01 ed e5 bd 17 48 0e 3c 78 5f fb bd 2a 85 bf bd
       -0.112268455 0.00868418 -0.122740686 -0.09351571
000310 49 16 c5 bc dd 61 38 3d 54 69 ac bc dc 51 9d 3d
       -0.024058478 0.045015205 -0.021046318 0.07681629
000320 df 77 f0 3d 30 10 85 3a 60 9d 8a 3c 6a 5c 7d 3d
       0.117416136 0.0010151919 0.016920745 0.06185571
000330 f0 92 ba bd 9b 16 f7 3d b4 bd 75 3d aa 4c 33 bd
       -0.09110057 0.120648585 0.059995368 -0.043774284
000340 04 be b4 bd 9f 7f f4 bd dc f5 af bd 7b ad 53 3d
       -0.08825305 -0.11938404 -0.08591816 0.051679116
000350 cc 6e 84 3c 23 5f a5 3d b7 5a f7 bd 8a c2 63 bd
       0.016166113 0.080747865 -0.12077849 -0.05560545
000360 11 19 18 bd 9a c5 33 bc 26 ac c0 39 02 54 f9 bd
       -0.03713328 -0.010972405 0.00036749354 -0.12174226
000370 94 61 c5 3d 7d 80 8c bd 45 e7 b5 3d d0 5d 97 bd
       0.09637752 -0.06860445 0.08882002 -0.0739094
000380 d0 0a e7 bd 9b d2 91 bd 31 89 dd 3d 13 ef 79 bd
       -0.11281359 -0.07120248 0.10817183 -0.061019015
000390 d3 f1 78 bb e1 9f ad bd 6c 06 de bd 47 d8 bb 3d
       -0.0037985935 -0.0847776 -0.108410686 0.09172111
0003a0 e8 67 1a bd 9b 4c 99 bd f6 c8 39 bd 44 4e 96 bd
       -0.03769675 -0.074853145 -0.045357667 -0.07339147
0003b0 2c 45 19 3d cc 37 b8 3d 31 05 b0 3d 3c 7d 43 3d
       0.037419483 0.089950174 0.0859474 0.047726855
0003c0 50 1c fe bd 78 84 a0 bd 60 fc 9a bc ca 2b ae bd
       -0.12407744 -0.078377664 -0.01891917 -0.08504446
0003d0 2a b4 ef bd e0 82 d7 3d 98 e6 a9 bd 05 8c d9 bb
       -0.117042854 0.10523009 -0.082959354 -0.006639006
0003e0 d0 63 24 bd b4 6a 83 3d 62 06 a8 bd 85 b3 e4 3d
       -0.04013425 0.064168364 -0.082043424 0.11167053
0003f0 24 c7 1a 3c 29 60 bb 3d c7 47 b0 3d 9e 7c fc 3c
       0.009446893 0.091492005 0.086074404 0.03082114

fc2.0.bias f4 [64]
000000 25 3a a5 bd de 5b bd bd 6c 51 de bd 4b 2c cf 3d
       -0.08067731 -0.09246038 -0.10855374 0.1011587
000010 cc 5a 37 3d 34 04 e3 bd 98 ed 19 bd f4 a3 21 ba
       0.044764325 -0.11084786 -0.037580103 -0.00061660935
000020 89 36 82 3d 7d ee a9 bd 69 d4 1a 3d 1c 42 14 3d
       0.06358058 -0.08297441 0.037800226 0.03619586
000030 15 b1 c4 3d 3c 78 cd bd b1 3f f5 3d 54 ce 48 3d
       0.09604088 -0.100326985 0.11975039 0.049024895
000040 63 06 93 bd 87 1c 30 bd aa 34 e3 bc be ab 58 3d
       -0.071789525 -0.042995956 -0.027735073 0.05289816
000050 e7 1f d6 bb ad 93 8f bd 36 56 fd 3c b8 0a aa 3d
       -0.006534565 -0.07010589 0.030924898 0.08302826
000060 f8 68 0b 3d 09 26 fd 3d 39 d5 4a 3d a6 0e 5e 3d
       0.034035653 0.1236077 0.04951975 0.05421319
000070 91 64 d3 3c 37 ce dc bd 6e d9 9a 3d 4a 50 18 bd
       0.02580479 -0.1078152 0.07561003 -0.037185945
000080 8a 2c b5 bd 2c 84 54 3d 0d d3 73 bd 09 6d 8b 3d
       -0.08846386 0.05188386 -0.059527446 0.06807906
000090 eb a0 de bd 9a 98 f7 bd 45 71 81 3d c3 de c0 3d
       -0.108705364 -0.12089653 0.063204326 0.094174884
0000a0 61 ed 9b bd ec 5e 31 3d ca ae b7 bb 8f ae ee bd
       -0.07613636 0.043303415 -0.0056055533 -0.11654388
0000b0 31 ed 80 bd 8c 79 d7 3a a3 9c db bd 43 de a9 bc
       -0.06295241 0.0016439422 -0.107232355 -0.020735865
0000c0 13 46 ce bb 4f 68 3a 3d 99 91 5d bd b9 ba 95 bd
       -0.0062949746 0.045509633 -0.05409393 -0.07311005
0000d0 71 64 e5 3d 75 2b 23 3d 32 b8 64 bd 1d 20 1d 3d
       0.11200798 0.039836366 -0.055839725 0.038360704
0000e0 81 63 69 bd 26 81 ea bd 2a b2 c5 3c 3c 84 9f 3d
       -0.05697966 -0.11450414 0.024132807 0.077888936
0000f0 32 96 c3 3d 56 14 c3 3d 87 1a b7 3d b1 8b fa 3d
       0.09550132 0.09525363 0.089406066 0.12233675
