blocksize-4/model_epoch_0_20.pth (torch, 206475 bytes, 13 tensors)

embedding.0.weight f4 [64, 7]
-0.35467288 -0.3349112 0.23323949 -0.068647675 -0.14743558 -0.3773656 0.14538914 0.30784178
-0.18790027 -0.20658821 0.27265486 0.25687447 0.33163676 0.1049364 -0.12714173 -0.3675675
0.33310553 0.3671499 -0.2389519 -0.35611236 -0.026531165 -0.13003175 0.19180395 0.086333714
-0.017053261 0.13094456 -0.28175488 -0.11310815 0.32202068 -0.36719877 0.34628123 -0.23346098
0.17637573 0.1716047 -0.2974846 -0.03511652 0.24349883 0.22864309 -0.29893342 -0.13942558
-0.16403654 0.16408291 -0.22425131 -0.23595949 0.16009492 -0.31976405 -0.15039746 -0.1049581
0.026131276 0.059562445 -0.22652234 -0.12581448 0.024602959 0.109757915 0.049009044 0.16703604
-0.36185536 -0.32796335 0.10601599 -0.1022415 -0.277729 0.31250137 -0.19334257 -0.1636805
-0.015121718 -0.048325345 -0.30771002 0.13421443 -0.24265835 -0.059810255 -0.2986039 -0.041493084
-0.18390836 -0.06076146 0.07935547 -0.22217362 0.15254192 -0.2596793 -0.21259895 0.0041277916
0.23503642 0.21367727 0.033855237 0.16263238 0.16822796 0.2289812 -0.37499833 -0.3516049
-0.3238685 -0.3293394 -0.15344441 0.05356124 0.22662413 0.13917427 -0.18502094 0.09127294
0.039939962 0.120403364 0.14056695 0.17160262 -0.042493872 -0.26716536 -0.20655704 0.13134862
0.29178122 0.20413463 0.28802702 -0.14014725 -0.19556203 -0.139352 -0.2674036 -0.025587574
0.21711704 -0.22505678 -0.1722969 0.12399486 0.22564211 -0.36006308 0.34860346 -0.36807108
0.10209967 -0.096273035 0.1581441 -0.017982956 0.32272807 -0.051797874 0.17242122 -0.22319607
-0.1844091 -0.2800811 -0.13627456 0.36684713 -0.37399316 0.13903663 -0.25791186 -0.18786116
0.349582 -0.11942705 0.37654433 0.013833368 0.23163249 -0.118805066 0.0055830874 -0.30184075
0.2259508 0.33209342 -0.26964304 -0.14389873 0.050894666 -0.24307771 -0.24207349 -0.36802655
0.15486318 0.34580088 -0.021459324 -0.047503002 0.12031122 0.23989186 -0.22955789 0.34232348
-0.03885236 -0.12674512 0.24995257 -0.13007727 -0.12741923 -0.15714356 -0.31677377 -0.13992527
-0.32781038 0.2723518 -0.35831457 0.19685502 0.30589193 0.11214421 0.17451751 -0.25836277
0.15005429 0.19635604 -0.061161704 -0.22366466 0.31764042 -0.011732319 0.31199393 0.08952279
-0.04308476 -0.1074489 0.19338696 0.017254088 0.28404066 -0.17694344 -0.1263321 0.16787566
0.07789734 -0.19366395 -0.31855518 -0.16892232 -0.06261153 0.048260715 0.13551474 0.0020972386
0.22248328 -0.24963893 -0.018388689 -0.18396975 -0.21711808 -0.22477679 -0.001211954 0.2093802
0.09295374 0.13532616 -0.20568791 0.24627683 0.27550438 0.071009435 -0.1552834 -0.37650284
0.21326087 0.14369309 0.20051974 -0.32388815 0.25721192 0.19499697 0.23449518 0.20804419
0.1904584 0.35395855 -0.3197254 -0.057327624 0.21510425 -0.1691722 0.356395 0.12872124
0.26283407 0.3357373 0.3585271 -0.10677329 -0.27460223 0.15960708 -0.12866896 0.23488134
0.044286028 -0.03671111 0.23904502 0.097088985 0.2682865 0.12728913 0.14955291 0.2548729
-0.36678636 -0.08421515 -0.18243143 0.13819273 0.34077 -0.10740343 -0.24727578 -0.2231568
00000000: af97 b5be 7b79 abbe 55d6 6e3e 2797 8cbd
00000010: 5af9 16be 1036 c1be e4e0 143e 709d 9d3e
00000020: ee68 40be dc8b 53be 6b99 8b3e 0d85 833e
00000030: 4bcc a93e e5e8 d63d 7131 02be cf31 bcbe
00000040: cf8c aa3e 12fb bb3e cfaf 74be 5c54 b6be
00000050: e357 d9bc 0b27 05be 4168 443e bbcf b03d
00000060: 48b3 8bbc 5516 063e 2d42 90be 3fa5 e7bd
00000070: e5df a43e 7a01 bcbe c64b b13e 6510 6fbe
00000080: d79b 343e 24b9 2f3e e74f 98be 57d6 0fbd
00000090: c257 793e 6a21 6a3e cd0d 99be 94c5 0ebe
000000a0: 32f9 27be 5a05 283e 23a2 65be 5d9f 71be
000000b0: ecef 233e 1db8 a3be cb01 1abe 46f4 d6bd
000000c0: 4211 d63c c0f7 733d 79f5 67be 83d5 00be
000000d0: 258c c93c c2c8 e03d b5bd 483d 7f0b 2b3e
000000e0: 1b45 b9be d0ea a7be e91e d93d fe63 d1bd
000000f0: 7f32 8ebe 2e00 a03e 98fb 45be dc9b 27be
00000100: 15c1 77bc ccf0 45bd 2b8c 9dbe 826f 093e
00000110: 6e7b 78be 99fb 74bd 9ce2 98be a7f4 29bd
00000120: 7952 3cbe 02e1 78bd 1f85 a23d 7b81 63be
00000130: f333 1c3e aff4 84be 8ab3 59be 6d42 873b
00000140: 63ad 703e 37ce 5a3e caab 0a3d 1a89 263e
00000150: f343 2c3e 0c7a 6a3e c8ff bfbe 8f05 b4be
00000160: 18d2 a5be 2d9f a8be 8820 1dbe 0863 5b3d
00000170: 2810 683e b383 0e3e 2176 3dbe 4fed ba3d
00000180: 1698 233d 0a96 f63d c8f0 0f3e 99b8 2f3e
00000190: 0e0e 2ebd e6c9 88be b083 53be 4180 063e
000001a0: 5964 953e ab08 513e 4778 933e c382 0fbe
000001b0: 6a41 48be 4ab2 0ebe 20e9 88be 089d d1bc
000001c0: ee53 5e3e 4975 66be 996e 30be 04f1 fd3d
000001d0: ba0e 673e 305a b8be 277c b23e d073 bcbe
000001e0: a219 d13d cc2a c5bd 87f0 213e fe50 93bc
000001f0: 9d3c a53e 022a 54bd 308f 303e 838d 64be
00000200: bdd5 3cbe ca66 8fbe 8f8b 0bbe 63d3 bb3e
00000210: 087c bfbe 9e5f 0e3e 060d 84be ad5e 40be
00000220: 69fc b23e 2b96 f4bd 6bca c03e 5aa5 623c
00000230: 1131 6d3e 1250 f3bd 55f2 b63b df8a 9abe
00000240: a65f 673e 2608 aa3e a70e 8abe 305a 13be
00000250: ed76 503d 5de9 78be 1de2 77be fa6d bcbe
00000260: 7494 1e3e d00c b13e 77cb afbc 8292 42bd
00000270: bb65 f63d 36a6 753e 3911 6bbe 0645 af3e
00000280: a723 1fbd 79c9 01be 91f3 7f3e fa32 05be
00000290: 307a 02be 3eea 20be 2c30 a2be 9248 0fbe
000002a0: c3d6 a7be b271 8b3e 0275 b7be 5d94 493e
000002b0: de9d 9c3e ddab e53d b8b4 323e 2048 84be
000002c0: d5a7 193e 8f11 493e b284 7abd 5908 65be
000002d0: c4a1 a23e ea38 40bc abbd 9f3e b957 b73d
000002e0: a579 30bd 2b0e dcbd 3b07 463e 7258 8d3c
000002f0: c76d 913e a930 35be 345d 01be 99e7 2b3e
00000300: a488 9f3d d84f 46be aa19 a3be f9f9 2cbe
00000310: 793a 80bd 07ad 453d 60c4 0a3e d371 093b
00000320: a8d2 633e 59a1 7fbe e0a3 96bc 9162 3cbe
00000330: 3454 5ebe e32b 66be 6eda 9eba c367 563e
00000340: 885e be3d f192 0a3e da9f 52be fe2f 7c3e
00000350: e90e 8d3e 656d 913d 9d02 1fbe fbc4 c0be
00000360: 0f61 5a3e 4824 133e 0c55 4d3e abd4 a5be
00000370: 48b1 833e 49ad 473e 811f 703e 8909 553e
00000380: 8707 433e 0e3a b53e 0cb3 a3be 5fd0 6abd
00000390: 4a44 5c3e 7a3b 2dbe 6879 b63e 80cf 033e
000003a0: 3092 863e c2e5 ab3e dd90 b73e f4ab dabd
000003b0: aa98 8cbe 0a70 233e ccc1 03be bc84 703e
000003c0: 4465 353d 645e 16bd 38c8 743e 97d6 c63d
000003d0: d95c 893e 1558 023e 6624 193e b37e 823e
000003e0: 6ccb bbbe fe78 acbd 4ecf 3abe 6582 0d3e
000003f0: 6879 ae3e 54f6 dbbd dd35 7dbe 3783 64be

embedding.0.bias f4 [64]
-0.1798886 0.11654735 -0.21058638 0.19723165 -0.26244923 0.312469 -0.31936723 -0.30084443
0.118696466 0.07822503 0.07094085 -0.0027510258 0.37521827 -0.055728227 0.019719368 0.28362003
0.1613327 0.35923034 -0.12400968 0.01489569 -0.3427928 -0.19125804 0.19580643 -0.2973262
-0.15467273 -0.3424851 0.36145368 0.26887244 0.06302554 0.088548936 0.20830129 0.25060546
0.27816832 -0.30005786 0.023095042 -0.0042745043 0.276097 0.1487856 -0.049563296 0.16164045
-0.20418577 0.3532647 0.15809841 -0.1543882 -0.3363104 0.3344454 -0.20622577 -0.1887295
-0.22557683 -0.29897934 -0.23344211 0.19568431 0.23557664 0.020587398 0.17124553 -0.3530071
0.10668271 -0.36761796 -0.20053978 -0.32534865 -0.1145512 -0.008854711 0.25888857 0.18302871
00000000: b834 38be 61b0 ee3d f5a3 57be 18f7 493e
00000010: bf5f 86be f0fb 9f3e 1a84 a3be 4808 9abe
00000020: 2217 f33d 7234 a03d 7049 913d 8e4a 34bb
00000030: 9c1c c03e 4843 64bd 838a a13c a536 913e
00000040: 6634 253e 0aed b73e c9f8 fdbd 0d0d 743c
00000050: 8a82 afbe 26d9 43be 7b81 483e 243b 98be
00000060: 8762 1ebe 355a afbe 7510 b93e a6a9 893e
00000070: 8913 813d 2559 b53d ef4c 553e 5c4f 803e
00000080: 146c 8e3e 2fa1 99be d031 bd3c 2411 8cbb
00000090: 965c 8d3e 415b 183e e202 4bbd 1385 253e
000000a0: 1316 51be 1cdf b43e 8de4 213e f117 1ebe
000000b0: e030 acbe 6d3c ab3e d92c 53be 4e42 41be
000000c0: 9dfd 66be d213 99be 730b 6fbe 7861 483e
000000d0: 013b 713e e7a6 a83c fd5a 2f3e 59bd b4be
000000e0: 777c da3d 6c38 bcbe 4d5a 4dbe 1994 a6be
000000f0: d299 eabd 5a13 11bc 0b8d 843e e16b 3b3e

layernorm.weight f4 [259, 64]
0.9999281 1.000058 0.999989 0.99999505 1.0000002 0.9999848 1.0 1.0000836
0.9999988 1.000009 1.0000355 1.0002563 0.99999875 0.9999134 0.9997945 1.0
1.0000875 1.0000266 1.0 0.99999344 1.0000011 0.9995385 0.99997985 0.9999962
1.0001243 1.0000107 1.0000387 0.9999946 1.0000081 0.9999449 1.0000678 0.99954534
1.0004419 0.99999297 1.0000064 1.0001107 1.0 0.99966854 1.0000002 1.0000055
1.0001271 0.99996936 1.000003 1.0004686 0.99999523 1.0000098 0.99999875 0.99982655
1.0004421 0.99972534 1.0000166 1.0000609 1.0 1.0003757 1.0 0.9999934
1.0000085 0.99962014 0.9998707 0.9999914 1.0 0.99996364 1.000002 1.0000006
0.99999654 1.0000064 0.9999828 1.0000046 1.0 0.9999996 0.99999934 1.0000027
1.0 1.0000033 1.000001 1.0000293 0.99999875 0.9999895 0.99998146 0.99999934
1.0000045 1.0000224 1.0 0.9999989 1.0 0.99995285 0.9999918 0.9999961
1.000019 1.0000021 1.0000008 0.9999991 1.0000019 0.9999982 1.0000081 0.9998817
1.0000341 0.99999195 0.99999964 1.0000058 1.0 0.9999352 1.000001 1.0
1.0000066 0.999994 1.0 1.0000272 1.0000007 1.0 0.9999992 0.9999896
1.0000366 0.9998978 1.0000066 1.0000027 1.0 1.000088 0.9999977 0.9999977
1.0000037 0.99996895 0.99999195 0.9999949 1.0 0.9999914 0.9999994 1.0
0.99995387 1.0000365 0.99999124 0.9999964 1.0 0.99998796 1.0 1.0000522
0.99999934 1.0000057 1.0000204 1.0001805 0.99999875 0.99993545 0.9998481 1.0
1.0000527 1.0000242 1.0 0.9999946 1.0000005 0.9996826 0.99998266 0.99999756
1.0000916 1.0000077 1.0000247 0.9999956 1.000006 0.9999622 1.0000491 0.9996711
1.0003116 0.9999907 1.0000045 1.0000784 1.0 0.9997599 1.0000005 1.0000045
1.0000849 0.99997973 1.0000024 1.00032 0.9999965 1.0000067 0.9999989 0.99988097
1.0003043 0.99979347 1.0000112 1.0000372 1.0 1.0002732 1.0 0.9999939
1.0000066 0.9997415 0.99990714 0.99999505 1.0 0.9999752 1.0000013 1.0000004
0.9999962 1.000006 0.99998564 1.0000039 0.99999994 0.9999996 0.99999946 1.0000019
1.0 1.0000014 1.0000006 1.0000222 0.9999988 0.99999094 0.999985 0.99999946
1.0000039 1.0000191 1.0 0.99999875 0.99999994 0.9999682 0.99999255 0.99999684
1.0000182 1.0000018 1.0000007 0.9999993 1.0000017 0.99999875 1.0000076 0.9999028
1.0000321 0.9999922 0.9999999 1.0000057 1.0 0.9999508 1.0000013 1.0
1.0000058 0.9999952 1.0 1.000025 1.0000005 1.0 0.99999917 0.9999902
1.0000297 0.9999181 1.0000048 1.0000023 1.0 1.0000671 0.999998 0.9999979
1.0000033 0.9999792 0.9999924 0.99999535 1.0 0.999993 0.9999996 1.0
00000000: 4afb 7f3f e701 803f 47ff 7f3f adff 7f3f
00000010: 0200 803f 01ff 7f3f 0000 803f bd02 803f
00000020: ecff 7f3f 4b00 803f 2a01 803f 6608 803f
00000030: ebff 7f3f 53fa 7f3f 88f2 7f3f 0000 803f
00000040: de02 803f df00 803f 0000 803f 92ff 7f3f
00000050: 0900 803f c1e1 7f3f aefe 7f3f c0ff 7f3f
00000060: 1304 803f 5a00 803f 4501 803f a5ff 7f3f
00000070: 4400 803f 64fc 7f3f 3902 803f 34e2 7f3f
00000080: 7b0e 803f 8aff 7f3f 3600 803f a103 803f
00000090: 0000 803f 47ea 7f3f 0200 803f 2e00 803f
000000a0: 2a04 803f fefd 7f3f 1900 803f 5b0f 803f
000000b0: b0ff 7f3f 5200 803f ebff 7f3f a2f4 7f3f
000000c0: 7d0e 803f 00ee 7f3f 8b00 803f ff01 803f
000000d0: 0000 803f 500c 803f 0000 803f 91ff 7f3f
000000e0: 4700 803f 1be7 7f3f 87f7 7f3f 70ff 7f3f
000000f0: 0000 803f 9efd 7f3f 1100 803f 0500 803f
00000100: c6ff 7f3f 3600 803f dffe 7f3f 2700 803f
00000110: 0000 803f f9ff 7f3f f5ff 7f3f 1700 803f
00000120: 0000 803f 1c00 803f 0800 803f f600 803f
00000130: ebff 7f3f 50ff 7f3f c9fe 7f3f f5ff 7f3f
00000140: 2600 803f bc00 803f 0000 803f eeff 7f3f
00000150: 0000 803f e9fc 7f3f 76ff 7f3f bfff 7f3f
00000160: 9f00 803f 1200 803f 0700 803f f1ff 7f3f
00000170: 1000 803f e2ff 7f3f 4400 803f 3ff8 7f3f
00000180: 1e01 803f 79ff 7f3f faff 7f3f 3100 803f
00000190: 0000 803f c1fb 7f3f 0800 803f 0000 803f
000001a0: 3700 803f 9bff 7f3f 0000 803f e400 803f
000001b0: 0600 803f 0000 803f f3ff 7f3f 52ff 7f3f
000001c0: 3301 803f 4df9 7f3f 3700 803f 1700 803f
000001d0: 0000 803f e202 803f d9ff 7f3f d9ff 7f3f
000001e0: 1f00 803f f7fd 7f3f 79ff 7f3f aaff 7f3f
000001f0: 0000 803f 70ff 7f3f f6ff 7f3f 0000 803f
00000200: fafc 7f3f 3201 803f 6dff 7f3f c4ff 7f3f
00000210: 0000 803f 36ff 7f3f 0000 803f b601 803f
00000220: f5ff 7f3f 3000 803f ab00 803f ea05 803f
00000230: ebff 7f3f c5fb 7f3f 0cf6 7f3f 0000 803f
00000240: ba01 803f cb00 803f 0000 803f a5ff 7f3f
00000250: 0400 803f 33eb 7f3f ddfe 7f3f d7ff 7f3f
00000260: 0003 803f 4100 803f cf00 803f b6ff 7f3f
00000270: 3200 803f 86fd 7f3f 9c01 803f 72ea 7f3f
00000280: 360a 803f 64ff 7f3f 2600 803f 9202 803f
00000290: 0000 803f 44f0 7f3f 0400 803f 2600 803f
000002a0: c802 803f acfe 7f3f 1400 803f 7c0a 803f
000002b0: c5ff 7f3f 3800 803f eeff 7f3f 33f8 7f3f
000002c0: f909 803f 77f2 7f3f 5e00 803f 3801 803f
000002d0: 0000 803f f408 803f 0000 803f 9aff 7f3f
000002e0: 3700 803f 0fef 7f3f eaf9 7f3f adff 7f3f
000002f0: 0000 803f 60fe 7f3f 0b00 803f 0300 803f
00000300: c0ff 7f3f 3200 803f 0fff 7f3f 2100 803f
00000310: ffff 7f3f f9ff 7f3f f7ff 7f3f 1000 803f
00000320: 0000 803f 0c00 803f 0500 803f ba00 803f
00000330: ecff 7f3f 68ff 7f3f 04ff 7f3f f7ff 7f3f
00000340: 2100 803f a000 803f 0000 803f ebff 7f3f
00000350: ffff 7f3f eafd 7f3f 83ff 7f3f cbff 7f3f
00000360: 9900 803f 0f00 803f 0600 803f f4ff 7f3f
00000370: 0e00 803f ebff 7f3f 4000 803f a1f9 7f3f
00000380: 0d01 803f 7dff 7f3f feff 7f3f 3000 803f
00000390: 0000 803f c7fc 7f3f 0b00 803f 0000 803f
000003a0: 3100 803f afff 7f3f 0000 803f d200 803f
000003b0: 0400 803f 0000 803f f2ff 7f3f 5cff 7f3f
000003c0: f900 803f a2fa 7f3f 2800 803f 1300 803f
000003d0: 0000 803f 3302 803f deff 7f3f ddff 7f3f
000003e0: 1c00 803f a3fe 7f3f 80ff 7f3f b2ff 7f3f
000003f0: 0000 803f 8bff 7f3f f9ff 7f3f 0000 803f

layernorm.bias f4 [259, 64]
-1.0149194e-05 1.1108101e-05 -1.9050663e-05 2.6371536e-05 1.1723493e-05 -4.554821e-06 8.786338e-06 1.3838879e-05
-1.2720331e-05 1.88148e-05 8.870247e-06 2.3497427e-05 7.670738e-06 -1.3147744e-05 -1.2590822e-05 -4.8340266e-06
6.8322947e-06 2.5081581e-05 4.0060327e-06 -5.1237503e-06 1.5842372e-05 -2.840094e-05 -9.905811e-06 -2.1138256e-05
1.067147e-05 1.5984788e-05 4.962995e-06 -4.2069587e-06 9.734505e-06 -8.210295e-06 8.126465e-06 -3.1291216e-05
2.286105e-05 5.43593e-07 1.9306906e-06 1.7353623e-05 -6.0025986e-06 -2.062799e-05 1.1611175e-05 3.7167035e-06
1.0967034e-05 -2.2670696e-05 7.7483e-06 2.9056244e-05 -1.1450819e-05 1.4390088e-05 1.4543527e-05 -8.673088e-06
2.9193186e-05 -3.104574e-05 2.669445e-05 5.384328e-06 3.0945444e-06 2.9245974e-05 -6.947649e-06 -1.5859789e-06
6.2522636e-06 -2.8288803e-05 -1.5210348e-05 -1.6675898e-05 -4.384412e-07 -2.050908e-05 3.3699246e-06 1.5847883e-06
-9.308266e-06 1.0289171e-05 -1.8999566e-05 2.2887885e-05 1.17965e-05 -3.081573e-06 7.572371e-06 9.656596e-06
-9.568973e-06 1.7530934e-05 7.749782e-06 1.9736775e-05 7.319914e-06 -1.34987795e-05 -1.5057586e-05 -3.7567029e-06
5.496025e-06 2.1637667e-05 3.3048682e-06 -3.336662e-06 1.5984375e-05 -2.6124137e-05 -9.7624525e-06 -1.6806089e-05
8.084948e-06 1.0172058e-05 3.3800425e-06 -5.078584e-06 9.392232e-06 -8.87466e-06 6.1594474e-06 -2.5978652e-05
1.6644482e-05 -1.1559821e-06 9.73348e-08 1.5039675e-05 -6.828128e-06 -1.7552182e-05 1.0373162e-05 3.5379092e-06
8.86582e-06 -2.125606e-05 5.5696905e-06 2.381314e-05 -1.010608e-05 1.2152648e-05 1.3072757e-05 -9.226054e-06
2.5529807e-05 -2.889844e-05 2.150046e-05 2.6031853e-06 3.552292e-06 2.450047e-05 -5.9573235e-06 -2.8465872e-06
3.875181e-06 -2.5906958e-05 -1.37953375e-05 -1.2527077e-05 -7.2023806e-07 -1.7666795e-05 8.3726e-07 5.042347e-07
-9.300566e-06 1.0210783e-05 -1.8359808e-05 2.4800915e-05 1.1604556e-05 -4.1599733e-06 7.94299e-06 1.2345266e-05
-1.106077e-05 1.7691898e-05 7.722189e-06 2.159096e-05 7.939992e-06 -1.2889262e-05 -1.3015744e-05 -4.6166624e-06
6.1886235e-06 2.293851e-05 3.7444706e-06 -4.937257e-06 1.5304806e-05 -2.6458887e-05 -9.6854765e-06 -1.9153384e-05
9.655359e-06 1.3906149e-05 4.1922185e-06 -4.3064433e-06 9.221844e-06 -8.234929e-06 7.643196e-06 -2.8566912e-05
2.0675825e-05 4.970218e-08 1.5355786e-06 1.6102285e-05 -5.8392416e-06 -1.9220586e-05 1.06772395e-05 3.6935608e-06
1.0117913e-05 -2.16675e-05 6.750929e-06 2.6728065e-05 -1.0436459e-05 1.3223651e-05 1.3917833e-05 -8.379616e-06
2.7253715e-05 -2.9272585e-05 2.4048013e-05 4.5027477e-06 2.9033652e-06 2.7010308e-05 -6.027351e-06 -2.1283724e-06
5.1889706e-06 -2.5946381e-05 -1.4041817e-05 -1.47502e-05 -4.2171058e-07 -1.9250487e-05 2.6536593e-06 1.3830036e-06
-8.570952e-06 9.33968e-06 -1.8077746e-05 2.1796912e-05 1.1401376e-05 -3.0118174e-06 7.0748383e-06 9.233573e-06
-8.426204e-06 1.634419e-05 6.5822837e-06 1.8210014e-05 7.477304e-06 -1.2915576e-05 -1.4565336e-05 -3.7733714e-06
5.1386924e-06 1.9995867e-05 3.2593873e-06 -3.66475e-06 1.5236997e-05 -2.4385885e-05 -9.423026e-06 -1.5657208e-05
7.550241e-06 9.6246795e-06 2.8152722e-06 -4.8054944e-06 8.7521985e-06 -8.5796055e-06 6.0113803e-06 -2.4229166e-05
1.5565452e-05 -1.3908013e-06 3.5494725e-07 1.3997974e-05 -6.4230935e-06 -1.6979962e-05 9.690229e-06 3.476321e-06
8.409399e-06 -1.9965373e-05 5.0482504e-06 2.2302876e-05 -9.47854e-06 1.1349509e-05 1.2436353e-05 -8.681108e-06
2.389595e-05 -2.7107437e-05 1.9777804e-05 2.2809074e-06 3.0258082e-06 2.2942599e-05 -5.20529e-06 -2.9798114e-06
3.4044997e-06 -2.3772998e-05 -1.2882591e-05 -1.149902e-05 -5.024535e-07 -1.6741928e-05 7.2107383e-07 5.902415e-07
00000000: 7546 2ab7 ee5c 3a37 fdce 9fb7 7138 dd37
00000010: 05b0 4437 9dd5 98b6 0969 1337 882d 6837
00000020: 6869 55b7 7ad4 9d37 6cd1 1437 571c c537
00000030: 92b1 0037 2195 5cb7 2b3d 53b7 f933 a2b6
00000040: f740 e536 4966 d237 8f6b 8636 aeec abb6
00000050: 3ce5 8437 8e3e eeb7 2231 26b7 0f52 b1b7
00000060: 9d09 3337 1217 8637 cd87 a636 8029 8db6
00000070: 6151 2337 f3be 09b7 e756 0837 b03e 03b8
00000080: bbc5 bf37 6deb 1135 0391 0136 9f92 9137
00000090: ee69 c9b6 450a adb7 9ecd 4237 7b6c 7936
000000a0: 0dff 3737 f32c beb7 b2fe 0137 cfbd f337
000000b0: e51c 40b7 f56c 7137 f9ff 7337 a182 11b7
000000c0: e4e3 f437 1c37 02b8 e5ed df37 06ab b436
000000d0: deab 4f36 4055 f537 da1f e9b6 d2dd d4b5
000000e0: 89ca d136 be4d edb7 f22f 7fb7 38e3 8bb7
000000f0: e662 ebb4 ea0a acb7 dd26 6236 e9b4 d435
00000100: b32a 1cb7 a79f 2c37 4261 9fb7 5cff bf37
00000110: 95e9 4537 05cd 4eb6 2c16 fe36 c402 2237
00000120: 6d8a 20b7 650f 9337 0f05 0237 6790 a537
00000130: 959d f536 d178 62b7 d79f 7cb7 aa1b 7cb6
00000140: 7f6a b836 8982 b537 34c9 5d36 6beb 5fb6
00000150: 2f16 8637 2825 dbb7 6ac9 23b7 cdfa 8cb7
00000160: 96a4 0737 a8a8 2a37 b0d4 6236 b468 aab6
00000170: 5493 1d37 60e4 14b7 40ad ce36 bbec d9b7
00000180: c19f 8b37 3e27 9bb5 5f06 d133 ea52 7c37
00000190: 2c1d e5b6 063d 93b7 6408 2e37 d16c 6d36
000001a0: 68be 1437 0b4f b2b7 47e3 ba36 54c2 c737
000001b0: 488d 29b7 3ae3 4b37 1053 5b37 9ac9 1ab7
000001c0: d828 d637 ed6a f2b7 e35b b437 62b2 2e36
000001d0: e963 6e36 5c86 cd37 05e5 c7b6 ff07 3fb6
000001e0: 8d07 8236 c552 d9b7 8672 67b7 632b 52b7
000001f0: 6256 41b5 2733 94b7 12c0 6035 bf5a 0735
00000200: a009 1cb7 fb4e 2b37 6303 9ab7 8f0b d037
00000210: 30b1 4237 e695 8bb6 e242 0537 841e 4f37
00000220: a591 39b7 1069 9437 8d8e 0137 3c1e b537
00000230: 0236 0537 f53e 58b7 325e 5ab7 d4e8 9ab6
00000240: dfa7 cf36 136c c037 8449 7b36 b7aa a5b6
00000250: d262 8037 07f4 ddb7 ce7e 22b7 94ab a0b7
00000260: 73fd 2137 754e 6937 e2aa 8c36 1180 90b6
00000270: 85b7 1a37 c028 0ab7 473b 0037 faa2 efb7
00000280: ff70 ad37 2078 5533 141a ce35 6513 8737
00000290: b4ee c3b6 e53b a1b7 6522 3337 e4de 7736
000002a0: 1bc0 2937 9ac2 b5b7 0a86 e236 1536 e037
000002b0: 4018 2fb7 26db 5d37 a380 6937 2d96 0cb7
000002c0: e89e e437 668e f5b7 b7ba c937 4f16 9736
000002d0: 6fd7 4236 3294 e237 8d3e cab6 29d5 0eb6
000002e0: eb1c ae36 6ea7 d9b7 2595 6bb7 a077 77b7
000002f0: 7667 e2b4 1b7c a1b7 8515 3236 a49f b935
00000300: f5cb 0fb7 9fb1 1c37 aaa5 97b7 83d8 b637
00000310: 8948 3f37 a11e 4ab6 6664 ed36 e5e9 1a37
00000320: 455e 0db7 e11a 8937 63dd dc36 b5c1 9837
00000330: 8de5 fa36 faaf 58b7 a45d 74b7 073a 7db6
00000340: 086d ac36 ccbc a737 d9bb 5a36 edef 75b6
00000350: 67a2 7f37 4a90 ccb7 9717 1eb7 9957 83b7
00000360: 1458 fd36 af79 2137 02ee 3c36 e23e a1b6
00000370: 68d6 1237 20f1 0fb7 5db5 c936 bd3f cbb7
00000380: 8e92 8237 92ab bab5 948f be34 d7d8 6a37
00000390: f485 d7b6 3170 8eb7 3793 2237 bd4a 6936
000003a0: 1816 0d37 507b a7b7 2464 a936 1017 bb37
000003b0: 0506 1fb7 c569 3e37 bba5 5037 13a5 11b7
000003c0: 2974 c837 c764 e3b7 83e8 a537 b111 1936
000003d0: fd0e 4b36 db74 c037 1aa9 aeb6 c5f8 47b6
000003e0: dc78 6436 206c c7b7 4f22 58b7 eaeb 40b7
000003f0: 57e0 06b5 0471 8cb7 d18f 4135 1671 1e35

fc0.0.weight f4 [64, 64]
0.036779866 0.115469374 0.11672806 0.0074659204 -0.09468393 -0.050339356 0.040009975 0.0043419423
-0.022908349 0.08155653 0.07834811 0.12487738 0.03760101 0.011642138 0.10764864 -0.06332347
0.012215259 0.027568592 -0.051769212 0.08611881 0.085056484 0.03366585 -0.003629411 0.07640164
0.08379401 0.098664716 -0.109960794 -0.08709392 -0.11431044 -0.007625734 0.09618765 0.08523023
0.06580953 0.031850994 0.00886936 0.07535324 -0.03721966 -0.043220863 -0.028267952 0.027477253
-0.06286043 -0.07774651 0.10212841 0.11948152 0.024635281 -0.0727538 -0.03404564 0.08737788
-0.041074313 0.017162677 0.06289735 -0.00802277 -0.053956345 -0.09125031 -0.0062745763 -0.10836925
-0.01826095 -0.08220956 0.09958439 0.015561125 0.03898564 -0.0014897839 0.00047715387 0.071776345
0.05583864 -0.053689994 -0.06488634 0.046121363 -0.030972574 0.09081738 -0.043131646 0.07809352
0.012722759 0.08163624 0.0051642847 -0.079830244 0.0812095 0.046147343 0.06907767 0.090853296
-0.06941955 0.10943715 0.070968635 0.11405397 -0.07280987 0.10876386 -0.0754642 0.10997641
0.08280207 0.007409061 0.07519276 0.10620363 -0.0447664 0.115310304 -0.02522913 0.032816153
0.013762917 -0.013427219 -0.016541228 -0.021562533 0.119681425 0.04225374 0.020218786 -0.084330164
-0.029835343 -0.08094326 -0.05842117 -0.065670796 0.045778546 0.068612434 0.060024276 -0.1185913
-0.011369157 -0.10808232 -0.05512702 0.12011051 -0.0816643 0.11062621 0.10642419 0.002804442
0.11774346 0.10186344 0.010687922 0.043449786 -0.11177743 -0.058920648 0.0034355395 -0.1069871
-0.008912419 0.008462236 0.08436301 0.0933032 0.05394551 0.021769347 -0.009444725 -0.03164886
-0.0831891 -0.11908023 -0.108920544 0.08496318 0.06201874 0.0021896546 -0.027023837 -0.028243054
0.045394696 -0.05464815 -0.053124383 -0.0629267 -0.108959846 -0.050420027 0.07747062 0.0009728513
-0.08622031 0.00051384437 0.0072222007 -0.10283612 -0.10336823 0.0038536852 -0.097945705 0.08322889
0.024992427 0.07886015 0.07105046 0.050922863 0.06756113 0.056710582 -0.062298328 -0.11327582
0.097907454 -0.044701226 0.094833575 -0.055494502 0.031493664 -0.115233205 0.082209684 -0.030406825
0.12158599 0.122369684 0.002580544 0.038543705 -0.092049144 -0.07904737 -0.046221882 -0.08865367
-0.046118803 0.030615915 -0.030423371 -0.020466417 0.059040472 -0.06995198 -0.026132112 -0.0013538691
-0.11064454 0.04100517 0.09552145 0.124089226 -0.0706984 -0.030718353 0.08433386 -0.08141907
-0.08570455 0.023599662 0.09464394 -0.120947175 -0.09089805 -0.03727921 -0.06328568 0.04217431
0.055765953 0.058845572 -0.056260325 0.0090328 -0.023134235 -0.07993258 -0.119985774 0.10700217
0.034256063 -0.04292596 -0.063547 0.04999312 0.097638376 -0.00016488218 0.1161091 -0.108914666
-0.10789684 0.06192749 -0.10907439 -0.00986626 0.09096845 0.014237622 0.073027186 -0.03478985
-0.0757262 -0.046612304 -0.07608862 0.11084554 0.02597263 0.041257713 -0.015803728 -0.12080165
0.05553899 -0.08214812 0.028467547 0.057360325 0.01312829 -0.065764 -0.11509818 0.07263026
-0.013279366 0.08966469 -0.0525563 0.031822555 0.08260404 -0.00011130201 -0.06396853 0.08407605
00000000: 7ca6 163d 357b ec3d 1f0f ef3d aea4 f43b
00000010: a6e9 c1bd a430 4ebd 80e1 233d da46 8e3b
00000020: 4aaa bbbc 1c07 a73d f974 a03d b6bf ff3d
00000030: 8403 1a3d aabe 3e3c e476 dc3d bcaf 81bd
00000040: 8222 483c 87d7 e13c f40b 54bd 0f5f b03d
00000050: 1832 ae3d 34e5 093d 6adb 6dbb 7778 9c3d
00000060: 329c ab3d ba10 ca3d 2033 e1bd 4c5e b2bd
00000070: 981b eabd 4be1 f9bb 08fe c43d 308d ae3d
00000080: 26c7 863d 3076 023d cb50 113c cd52 9a3d
00000090: a473 18bd 5c08 31bd 3192 e7bc fa17 e13c
000000a0: f8bc 80bd 9039 9fbd b328 d13d bab2 f43d
000000b0: eecf c93c f2ff 94bd 7173 0bbd 2df3 b23d
000000c0: 8a3d 28bd be98 8c3c 53d0 803d f071 03bc
000000d0: 5401 5dbd 71e1 babd f69a cdbb b3f0 ddbd
000000e0: fd97 95bc 7c5d a8bd e7f2 cb3d 17f4 7e3c
000000f0: 68af 1f3d da44 c3ba 822a fa39 7aff 923d
00000100: 0fb7 643d 0aea 5bbd 21e3 84bd c1e9 3c3d
00000110: 32ba fdbc 76fe b93d cfaa 30bd 7fef 9f3d
00000120: 1e73 503c e730 a73d 2939 a93b 0a7e a3bd
00000130: 2b51 a63d ff04 3d3d 9878 8d3d 4b11 ba3d
00000140: d62b 8ebd 9620 e03d 0158 913d 2195 e93d
00000150: 571d 95bd 96bf de3d f98c 9abd 503b e13d
00000160: 2294 a93d b5c7 f23b a9fe 993d 4a81 d93d
00000170: f95c 37bd cf27 ec3d 52ad cebc 3b6a 063d
00000180: dc7d 613c d7fd 5bbc 7881 87bc e9a3 b0bc
00000190: 891b f53d 4212 2d3d dea1 a53c 4bb5 acbd
000001a0: 4069 f4bc 94c5 a5bd 094b 6fbd 697e 86bd
000001b0: 4982 3b3d ad84 8c3d 04dc 753d ffdf f2bd
000001c0: b345 3abc 435a ddbd dfcc 61bd 80fc f53d
000001d0: 9d3f a7bd ff8f e23d edf4 d93d bbca 373b
000001e0: 7c23 f13d c79d d03d 651c 2f3c 67f8 313d
000001f0: 91eb e4bd c756 71bd ca26 613b 0d1c dbbd
00000200: 6505 12bc 31a5 0a3c 84c6 ac3d c015 bf3d
00000210: f8f5 5c3d a155 b23c 0cbe 1abc 3ca2 01bd
00000220: 0c5f aabd 56e0 f3bd bc11 dfbd 2d01 ae3d
00000230: 5d07 7e3d 4f80 0f3b 1861 ddbc fa5d e7bc
00000240: caef 393d bdd6 5fbd f498 59bd b7df 80bd
00000250: 5726 dfbd 3b85 4ebd eba8 9e3d f206 7f3a
00000260: 4694 b0bd 83b3 063a 36a8 ec3b be9b d2bd
00000270: b9b2 d3bd 1c8e 7c3b c297 c8bd e973 aa3d
00000280: ebbc cc3c 6e81 a13d e782 913d 7e94 503d
00000290: 7d5d 8a3d 5b49 683d 882c 7fbd 27fd e7bd
000002a0: b483 c83d a218 37bd 1b38 c23d 344e 63bd
000002b0: 80ff 003d 63ff ebbd 8d5d a83d bc17 f9bc
000002c0: 1302 f93d f59c fa3d 581e 293b 01e0 1d3d
000002d0: 4384 bcbd 96e3 a1bd 2853 3dbd 0e90 b5bd
000002e0: 12e7 3cbd 3ace fa3c 6f3a f9bc 30a9 a7bc
000002f0: 6cd4 713d fc42 8fbd 0313 d6bc 4f74 b1ba
00000300: 9b99 e2bd 0af5 273d c0a0 c33d 7e22 fe3d
00000310: 53ca 90bd 0ea5 fbbc 3bb7 ac3d 0bbf a6bd
00000320: de85 afbd 1454 c13c afd4 c13d 27b3 f7bd
00000330: c228 babd 16b2 18bd ec9b 81bd f8be 2c3d
00000340: d76a 643d 0e08 713d 3a71 66bd 4ffe 133c
00000350: 0284 bdbc b1b3 a3bd 1abb f5bd f423 db3d
00000360: 1650 0c3d 22d3 2fbd ee24 82bd 96c5 4c3d
00000370: a1f6 c73d 39e4 2cb9 9cca ed3d a70e dfbd
00000380: 05f9 dcbd aea7 7d3d 6562 dfbd 18a6 21bc
00000390: ab4d ba3d ea44 693c 478f 953d cd7f 0ebd
000003a0: 5716 9bbd 8bec 3ebd 5ad4 9bbd fd02 e33d
000003b0: 8ec4 d43c d9fd 283d d276 81bc db66 f7bd
000003c0: da7c 633d 463d a8bd c634 e93c a9f2 6a3d
000003d0: 0a18 573c 47af 86bd 98b8 ebbd 2cbf 943d
000003e0: b391 59bc 1fa2 b73d 4645 57bd 5e58 023d
000003f0: 4f2c a93d d06a e9b8 ef01 83bd 1030 ac3d

fc0.0.bias f4 [64]
-0.12413431 -0.10884695 -0.012113735 -0.027519459 -0.08104032 -0.095482066 -0.04908587 -0.060303792
-0.037011772 0.038448915 0.11361254 -0.0407672 0.017648712 -0.10544407 0.11134999 0.029228603
-0.1085867 0.051086728 -0.088577986 0.06451158 -0.10908151 -0.023937874 -0.09078707 -0.03029323
-0.07720828 0.03328909 0.07763351 0.038032595 0.0718056 -0.09203736 -0.050009407 0.055300172
-0.02706337 0.073449686 -0.12028952 -0.011034718 0.061861996 -0.025009837 0.038535297 -0.08758637
0.030330775 0.04057819 0.0032067008 -0.034670204 0.036713317 0.04381514 -0.10400407 -0.036231473
0.10142754 0.0693385 -0.036810875 0.01784572 -0.087642424 0.08180516 -0.022301914 0.04382154
0.073115215 -0.07204105 -0.035421215 -0.062571876 0.062456302 -0.098570645 0.062273737 0.041978788
00000000: 213a febd 26eb debd b078 46bc 7d70 e1bc
00000010: 78f8 a5bd 1a8c c3bd 440e 49bd 1c01 77bd
00000020: a899 17bd 9c7c 1d3d b1ad e83d 82fb 26bd
00000030: 0894 903c 10f3 d7bd 770b e43d d370 ef3c
00000040: b462 debd 5140 513d 6068 b5bd a61e 843d
00000050: 2066 dfbd 5c19 c4bc 92ee b9bd 8229 f8bc
00000060: 601f 9ebd 245a 083d 51fe 9e3d 11c8 1b3d
00000070: d00e 933d 157e bcbd aad6 4cbd 6f82 623d
00000080: 00b4 ddbc ca6c 963d 5a5a f6bd f6ca 34bc
00000090: 0163 7d3d 6ee1 ccbc 30d7 1d3d 7c60 b3bd
000000a0: 3f78 f83c 5135 263d 8327 523b 5802 0ebd
000000b0: b460 163d 8177 333d 1600 d5bd 7467 14bd
000000c0: 3eb9 cf3d 5801 8e3d 00c7 16bd 3031 923c
000000d0: df7d b3bd 7789 a73d 81b2 b6bc 377e 333d
000000e0: 6ebd 953d 428a 93bd d615 11bd af25 80bd
000000f0: 2ed2 7f3d 68df c9bd bf12 7f3d f3f1 2b3d

fc1.0.weight f4 [64, 64]
-0.05656248 -0.09413475 0.033829134 -0.087637536 0.045179684 -0.10557911 -0.11620167 0.07846329
0.016409729 0.10379299 0.090713605 0.058367778 -0.05121659 -0.040393043 0.09218038 0.11324339
-0.038475845 -0.00034231623 -0.021005005 0.10332773 0.09946477 -0.04593217 0.05115675 0.07500166
-0.032809034 0.091285594 0.09220151 0.06545381 -0.12148287 -0.10697838 -0.09013683 0.10242747
0.11357988 -0.050043907 -0.113869414 0.00317831 -0.10567041 0.063931115 -0.11960238 0.0027384975
0.03255514 -0.016671205 0.00865737 0.05430635 0.09209097 -0.08678379 0.11224527 0.09757789
-0.052950196 0.029694667 -0.002259156 0.053102914 -0.044887837 -0.090671256 0.026156994 -0.060002673
0.09397338 -0.08270263 0.052261956 0.058821432 -0.02566848 -0.025261555 -0.023755927 0.011127096
0.0440327 0.07542855 0.0966228 -0.03173819 -0.120371 -0.06787781 -0.0938593 0.049453866
-0.026166277 -0.092106625 -0.0012363408 0.04368162 0.024358625 -0.08637195 0.03586761 0.124064475
0.016226107 0.069421254 0.0019731524 -0.006164097 -0.05759438 0.00424463 -0.100244574 -0.050965946
0.027114639 0.08802451 0.1079278 -0.0056177247 -0.07178127 -0.0068958127 -0.02982654 0.05740521
0.006690971 -0.069395795 0.06938885 0.052480847 -0.051042873 0.06220543 0.07085466 0.12152211
0.102121964 0.109951064 0.009802168 -0.123595655 0.103074454 0.060008153 -0.08489026 0.033494256
0.08821598 0.102928974 0.026881482 -0.124915056 -0.0713873 -0.057148628 -0.09227118 -0.050406452
0.025555229 -0.0344309 -0.089168504 0.092608444 -0.090587996 0.03822598 -0.048822366 -0.046856824
-0.061101645 0.05531911 -0.0039094733 0.12199408 -0.088051446 0.07147637 0.014735784 -0.044294532
0.07245396 -0.05333503 0.11207307 0.01507151 -0.07916993 -0.0071990127 -0.08065391 -0.022610191
-0.090742506 0.02268857 -0.093741015 -0.065101594 0.085527465 -0.04564844 -0.11181658 -0.09936314
0.06941456 0.044698566 0.09659483 0.09284157 -0.038153347 0.10317564 -0.120467536 -0.08002145
-0.08064111 0.010970122 0.11018266 -0.07072332 0.092849486 -0.057184108 0.11910574 -0.06959628
0.010409231 -0.111942805 -0.0212695 -0.0794129 -0.042665772 0.100102976 0.05016101 0.12405023
0.097678065 0.009985873 -0.091429405 0.061783697 0.10488999 -0.09414522 -0.118452445 0.058686677
-0.09615923 0.019651437 -0.089610346 -0.02180653 0.0593612 -0.059934482 0.08513463 -0.05683607
-0.026412332 0.114675686 0.079617105 0.05571859 -0.077482566 0.06252497 0.031589516 -0.079090714
0.019890193 0.09778142 -0.0021607578 -0.10496723 0.060002927 -0.030690858 0.039529614 -0.121373646
0.00723092 0.011038536 -0.056412794 -0.09625833 -0.082728274 -0.10263442 0.023701323 -0.007917256
0.03655633 -0.060211144 -0.11736096 -0.07600424 -0.02331772 -0.06905286 -0.08157083 -0.111921705
0.09602688 -0.01492627 -0.09194267 0.10518055 -0.097104296 -0.11667856 0.061831754 -0.03712399
0.09296869 -0.07872033 0.09220793 -0.09807872 -0.006524295 -0.054054193 -0.016709995 0.056322906
-0.115222804 0.019981567 -0.10680695 0.057008643 0.0057711382 -0.015903186 0.022908235 0.022051288
-0.100223534 0.042140692 -0.009303873 -0.017814092 0.11649415 -0.05616201 -0.06775904 0.11742922
00000000: 0fae 67bd b8c9 c0bd 6b90 0a3d 4f7b b3bd
00000010: 550e 393d dc39 d8bd 24fb edbd 5db1 a03d
00000020: b26d 863c 6b91 d43d 0ec8 b93d 0d13 6f3d
00000030: 7dc8 51bd 2d73 25bd 11c9 bc3d 27ec e73d
00000040: d998 1dbd e878 b3b9 b012 acbc 7d9d d33d
00000050: 2fb4 cb3d 5f23 3cbd be89 513d 789a 993d
00000060: c462 06bd f1f3 ba3d 25d4 bc3d a60c 863d
00000070: 03cc f8bd 7b17 dbbd a999 b8bd 7ec5 d13d
00000080: 919c e83d d7fa 4cbd 5e34 e9bd 324b 503b
00000090: ba69 d8bd 51ee 823d 18f2 f4bd 5d78 333b
000000a0: 8a58 053d 0d92 88bc a4d7 0d3c 5670 5e3d
000000b0: 319a bc3d b3bb b1bd d9e0 e53d ebd6 c73d
000000c0: 4ee2 58bd 3b42 f33c 590e 14bb 7182 593d
000000d0: 4fdc 37bd dab1 b9bd 3147 d63c 5dc5 75bd
000000e0: 1e75 c03d ff5f a9bd a210 563d beee 703d
000000f0: b446 d2bc 52f1 cebc ca9b c2bc 6c4e 363c
00000100: a25b 343d 497a 9a3d 2de2 c53d e8ff 01bd
00000110: 1285 f6bd 8503 8bbd 4e39 c0bd 2390 4a3d
00000120: a95a d6bc 66a2 bcbd b70c a2ba 80eb 323d
00000130: bd8b c73c c7e3 b0bd eae9 123d 8415 fe3d
00000140: 9dec 843c bb2c 8e3d 0150 013b 32fc c9bb
00000150: 16e8 6bbd 8a16 8b3b 074d cdbd abc1 50bd
00000160: 851f de3c 3246 b43d 4009 dd3d e414 b8bb
00000170: 0f02 93bd 45f6 e1bb ca56 f4bc ba21 6b3d
00000180: ef3f db3b 621f 8ebd be1b 8e3d 28f6 563d
00000190: 5512 51bd 1fcb 7e3d 3f1c 913d 96e0 f83d
000001a0: 5225 d13d 062e e13d 4699 203c b81f fdbd
000001b0: b318 d33d 1ccb 753d f2da adbd 4631 093d
000001c0: 94aa b43d 6dcc d23d 8e36 dc3c 77d3 ffbd
000001d0: 8133 92bd ae14 6abd acf8 bcbd ff76 4ebd
000001e0: 3359 d13c 6a07 0dbd fa9d b6bd 7fa9 bd3d
000001f0: 3386 b9bd d892 1c3d f6f9 47bd f1ec 3fbd
00000200: b845 7abd 4b96 623d 0a1b 80bb 08d8 f93d
00000210: 5154 b4bd 3462 923d 5c6e 713c 2f6e 35bd
00000220: be62 943d d575 5abd 9186 e53d 7fee 763c
00000230: d823 a2bd b2e5 ebbb e12d a5bd 0239 b9bc
00000240: 35d7 b9bd 61dd b93c 4afb bfbd fc53 85bd
00000250: 0629 af3d dcf9 3abd 1700 e5bd e77e cbbd
00000260: 3929 8e3d d815 373d 83d3 c53d b923 be3d
00000270: af46 1cbd c04d d33d afb7 f6bd 49e2 a3bd
00000280: 2b27 a5bd 07bc 333c 72a7 e13d 63d7 90bd
00000290: df27 be3d e239 6abd b6ed f33d 7f88 8ebd
000002a0: 7b8b 2a3c 4542 e5bd 603d aebc 3ba3 a2bd
000002b0: 4ec2 2ebd ca02 cd3d a275 4d3d 0c0e fe3d
000002c0: 700b c83d c99b 233c 573f bbbd e710 7d3d
000002d0: 90d0 d63d 36cf c0bd 3297 f2bd 7161 703d
000002e0: 21ef c4bd 0dfc a03c a185 b7bd 9ca3 b2bc
000002f0: bb24 733d dc7d 75bd 115b ae3d f0cc 68bd
00000300: ad5e d8bc 16db ea3d 4b0e a33d 2d39 643d
00000310: 2eaf 9ebd 170d 803d 0264 013d 50fa a1bd
00000320: c2f0 a23c a041 c83d 809b 0dbb 0ff9 d6bd
00000330: a1c5 753d 656b fbbc cee9 213d bf92 f8bd
00000340: 5af1 ec3b fada 343c 1a11 67bd 1623 c5bd
00000350: 716d a9bd ff31 d2bd 4729 c23c 61b7 01bc
00000360: 17bc 153d f69f 76bd f15a f0bd 1ca8 9bbd
00000370: ce04 bfbc 966b 8dbd 9b0e a7bd 3537 e5bd
00000380: bea9 c43d 508d 74bc 704c bcbd e668 d73d
00000390: 9ede c6bd 2bf5 eebd 4b43 7d3d 530f 18bd
000003a0: 5e66 be3d 2038 a1bd 83d7 bc3d 7fdd c8bd
000003b0: c1c9 d5bb ee67 5dbd 66e3 88bc d9b2 663d
000003c0: eff9 ebbd 62b0 a33c 9abd dabd e581 693d
000003d0: d11b bd3b 6647 82bc 0daa bb3c e7a4 b43c
000003e0: ff41 cdbd b89b 2c3d 466f 18bc dcee 91bc
000003f0: 7c94 ee3d 230a 66bd 40c5 8abd bb7e f03d

fc1.0.bias f4 [64]
0.043740455 -0.07193333 0.04030778 0.013478626 0.0013951055 -0.07642366 0.10360865 0.041593347
0.11075967 -0.03031254 0.015212845 0.031168737 -0.0031200647 0.11534479 0.10423225 -0.00024745814
-0.013465078 -0.06825176 -0.10241898 0.082429126 -0.071709245 0.018149039 0.08249764 -0.04698673
-0.040401645 0.02103785 -0.023944966 0.09758029 -0.011321343 -0.11462177 0.1067058 0.04301822
0.08122944 0.0002901384 0.09435919 0.07569676 -0.108089074 -0.06980547 -0.092003085 -0.0808584
-0.0268841 0.041043576 -0.01185022 0.05588011 -0.079511754 -0.11535294 -0.11734805 -0.11636096
0.123318344 -0.12407141 -0.061090145 0.090470605 -0.023143005 -0.061417192 -0.020959707 0.10980994
0.0027248717 0.09315691 0.01336905 -0.05459241 -0.11842165 -0.04754884 0.071121685 0.120481566
00000000: 3129 333d c851 93bd c519 253d 74d5 5c3c
00000010: f9db b63a 0284 9cbd c630 d43d c95d 2a3d
00000020: f7d5 e23d 0152 f8bc 4c3f 793c 9455 ff3c
00000030: 007a 4cbb e439 ec3d b877 d53d 45bd 81b9
00000040: a19c 5cbc 94c7 8bbd 0bc1 d1bd 9ad0 a83d
00000050: 4cdc 92bd 4bad 943c 86f4 a83d 2875 40bd
00000060: 327c 25bd 9257 ac3c 3c28 c4bc 2dd8 c73d
00000070: 277d 39bc d2be eabd 9288 da3d e033 303d
00000080: 9f5b a63d b81d 9839 643f c13d e706 9b3d
00000090: ce5d ddbd 2cf6 8ebd 1d6c bcbd 1799 a5bd
000000a0: 0b3c dcbc 4f1d 283d 6d27 42bc 8be2 643d
000000b0: 0fd7 a2bd 2a3e ecbd 2d54 f0bd a84e eebd
000000c0: 548e fc3d 2719 febd a939 7abd a748 b93d
000000d0: 6696 bdbc 9890 7bbd b1b3 abbc 09e4 e03d
000000e0: c393 323b 0dc9 be3d dc09 5b3c 4a9c 5fbd
000000f0: 0d87 f2bd 93c2 42bd 3fa8 913d 0abf f63d

fc2.0.weight f4 [64, 64]
-0.09755964 0.11489839 -0.10246637 -0.0403337 -0.1204398 -0.0025969378 -0.10102875 0.055251446
-0.006662091 0.07673462 -0.04561175 -0.042873934 0.046066433 -0.10156501 -0.09986495 -0.10572261
0.04409672 0.10697363 -0.07898704 0.09759211 -0.07026413 0.021245642 0.05565488 -0.0057937657
-0.09525442 -0.10598571 0.09424968 -0.09130502 -0.06102556 -0.08083457 -0.096152194 -0.04093592
-0.080033794 0.031306062 0.041845884 -0.11164853 -0.112982824 -0.09615005 -0.04415379 -0.043760177
-0.01590159 0.04319772 0.10165131 -0.10999919 -0.009734686 0.08589673 0.024228083 0.10594566
0.097587354 0.04855904 -0.05379244 0.054260414 -0.012066362 -0.0035045056 0.038625587 -0.007796256
-0.047959175 -0.028103195 -0.12031021 0.032734826 0.113477856 0.1092226 0.04117511 -0.0959131
-0.06477987 -0.058957964 0.013018889 -0.06719559 0.10261867 -0.05601895 0.11450686 -0.07424464
-0.018203441 -0.010763119 -0.09320032 0.10536697 -0.03631577 -0.11136233 0.12386594 -0.053650036
-0.014192385 0.077215336 0.022601526 -0.09891648 0.041597825 0.04295501 -0.025644038 -0.106027864
0.04779115 0.10666875 -0.05126922 0.0152533045 -0.04753618 -0.065407254 -0.062801875 -0.095236115
-0.07573887 -0.05153247 0.057963982 -0.013736319 -0.124260865 0.021089923 0.05398413 -0.09202636
0.081970476 0.07201757 -0.08338263 0.064651825 -0.0009569931 -0.06796727 0.07327417 -0.015735913
0.017627697 -0.036285162 0.021024462 0.029329594 0.011485743 0.0099452855 0.12200046 0.06714421
0.07914456 0.027826454 -0.06412741 -0.11043484 -0.013137082 0.050459918 0.050055444 0.02802689
0.026427303 0.014241202 0.06347554 0.088149235 0.11170084 0.042154077 0.045062132 0.011052448
0.043583795 0.0577428 -0.05518577 -0.047991425 0.08557009 -0.07220751 -0.0647703 -0.10983463
-0.089744486 -0.06429077 -0.108985625 0.032375224 0.041639164 0.07963608 0.030330664 0.009773809
-0.012125964 -0.07566727 0.044915896 0.07344573 -0.0014397625 0.055863023 0.03997432 -0.065501384
-0.07246596 -0.0030274098 -0.09556282 0.002709547 -0.08251544 -0.08227854 0.017805034 -0.011238351
0.039660577 -0.07255559 0.020583691 -0.06872169 -0.02194811 -0.049028933 0.028662894 -0.107986696
0.017323999 -0.1008226 -0.06771878 0.05766198 -0.10087266 -0.0060212202 -0.10760214 -0.0118334545
-0.059567686 -0.0594473 -0.006227294 -0.0059252814 0.106682345 0.118112065 -0.07757316 -0.09879022
-0.11249596 0.008463882 -0.12296251 -0.09371368 -0.024283314 0.044812795 -0.021252427 0.07662037
0.117237985 0.0008031828 0.016705703 0.061618194 -0.09128018 0.12039185 0.05974897 -0.043992467
-0.08845684 -0.119593844 -0.08614529 0.051466633 0.015940841 0.080529146 -0.120945 -0.055864498
-0.037423823 -0.011219429 0.00018598014 -0.12192192 0.09615135 -0.06881743 0.08857589 -0.07416788
-0.113068074 -0.071531825 0.10789546 -0.061238773 -0.0039561884 -0.08502501 -0.10864037 0.09149854
-0.03791799 -0.07501073 -0.045578126 -0.07360416 0.037192497 0.08978023 0.08571935 0.047497943
-0.12429145 -0.0786233 -0.019193072 -0.08528187 -0.11723253 0.10494628 -0.08317081 -0.00688825
-0.040392432 0.06397908 -0.08228831 0.11143566 0.00922012 0.09123194 0.085797526 0.030641876
00000000: 59cd c7bd d94f eb3d e3d9 d1bd f334 25bd
00000010: 24a9 f6bd 6331 2abb 29e8 cebd 574f 623d
00000020: ab4d dabb 0a27 9d3d 63d3 3abd 949c 2fbd
00000030: 28b0 3c3d 5101 d0bd ff85 ccbd 1985 d8bd
00000040: c39e 343d fe14 db3d f5c3 a1bd 5fde c73d
00000050: a4e6 8fbd 570b ae3c 5ff6 633d a1d9 bdbb
00000060: c014 c3bd 090f d9bd fa05 c13d 20fe babd
00000070: f0f5 79bd 988c a5bd 71eb c4bd 6cac 27bd
00000080: c2e8 a3bd c93a 003d 9766 2b3d fca7 e4bd
00000090: 8a63 e7bd 51ea c4bd 9bda 34bd df3d 33bd
000000a0: 0d44 82bc 18f0 303d 902e d03d 4147 e1bd
000000b0: 3c7e 1fbc a0ea af3d f979 c63c 0afa d83d
000000c0: e1db c73d d8e5 463d 7655 5cbd 2b40 5e3d
000000d0: feb1 45bc d9ab 65bb dd35 1e3d bc77 ffbb
000000e0: d770 44bd ac38 e6bc 3365 f6bd f414 063d
000000f0: 1467 e83d 19b0 df3d 3ba7 283d 166e c4bd
00000100: 4fab 84bd e87d 71bd 2e4d 553c d79d 89bd
00000110: bd29 d23d 2074 65bd 9382 ea3d 930d 98bd
00000120: 621f 95bc cb57 30bc cfdf bebd a3ca d73d
00000130: d8bf 14bd ef11 e4bd 6dad fd3d 24c0 5bbd
00000140: 2d87 68bc 1323 9e3d d626 b93c b994 cabd
00000150: 7b62 2a3d 98f1 2f3d 7213 d2bc 2325 d9bd
00000160: a7c0 433d 2575 da3d acff 51bd ffe8 793c
00000170: 4cb5 42bd 3df4 85bd 459e 80bd 270b c3bd
00000180: fb1c 9bbd b613 53bd a46b 6d3d 4c0e 61bc
00000190: 7b7c febd c6c4 ac3c 771e 5d3d 5178 bcbd
000001a0: 23e0 a73d f37d 933d 83c4 aabd 2d68 843d
000001b0: b8de 7aba 6d32 8bbd c510 963d 9ae8 80bc
000001c0: f667 903c c09f 14bd 7e3b ac3c 9e44 f03c
000001d0: b32e 3c3c 8df1 223c 61db f93d e782 893d
000001e0: 8b16 a23d 4ef4 e33c 3b55 83bd a92b e2bd
000001f0: ea3c 57bc 0faf 4e3d f006 4d3d a698 e53c
00000200: 127e d83c ee53 693c 77ff 813d 9687 b43d
00000210: 69c3 e43d c1a9 2c3d 1293 383d 5415 353c
00000220: ec84 323d b783 6c3d 790a 62bd a892 44bd
00000230: 5f3f af3d 88e1 93bd 4ba6 84bd faf0 e0bd
00000240: f5cb b7bd e1aa 83bd db33 dfbd e29b 043d
00000250: d48d 2a3d 3e18 a33d 0378 f83c 5422 203c
00000260: fbab 46bc 71f7 9abd bbf9 373d b76a 963d
00000270: 6ab6 bcba a0d0 643d 1dbc 233d 9725 86bd
00000280: 0969 94bd 8267 46bb 71b6 c3bd a892 313b
00000290: dbfd a8bd a781 a8bd dddb 913c 1021 38bc
000002a0: 2173 223d 0698 94bd 219f a83c f5bd 8cbd
000002b0: 86cc b3bc 90d2 48bd 72ce ea3c 2128 ddbd
000002c0: 0feb 8d3c 147c cebd 25b0 8abd f82e 6c3d
000002d0: 5396 cebd a84d c5bb 835e dcbd 1be1 41bc
000002e0: 3ffd 73bd 037f 73bd 540e ccbb dd28 c2bb
000002f0: 467c da3d bde4 f13d adde 9ebd 8752 cabd
00000300: 4864 e6bd 18ac 0a3c c5d3 fbbd f5ec bfbd
00000310: cded c6bc 9f8d 373d 9219 aebc 24eb 9c3d
00000320: 781a f03d af8c 523a 66da 883c 5c63 7c3d
00000330: 1af1 babd 0190 f63d 56bb 743d 7231 34bd
00000340: dc28 b5bd 9eed f4bd f16c b0bd adce 523d
00000350: 5e96 823c 77ec a43d 03b2 f7bd 2cd2 64bd
00000360: b949 19bd b2d1 37bc aa03 4339 33b2 f9bd
00000370: 00eb c43d 27f0 8cbd 4767 b53d 54e5 97bd
00000380: 3c90 e7bd 477f 92bd 4cf8 dc3d 82d5 7abd
00000390: eaa2 81bb 9821 aebd d87e debd 9663 bb3d
000003a0: e54f 1bbd 3a9f 99bd 21b0 3abd c7bd 96bd
000003b0: 2957 183d b2de b73d a08d af3d 348d 423d
000003c0: 848c febd 4105 a1bd ca3a 9dbc 43a8 aebd
000003d0: 9c17 f0bd 13ee d63d 7555 aabd d4b6 e1bb
000003e0: 8972 25bd 7707 833d c686 a8bd 6138 e43d
000003f0: fc0f 173c d0d7 ba3d 9db6 af3d ac04 fb3c

fc2.0.bias f4 [64]
-0.081074424 -0.09246085 -0.10920445 0.10199071 0.044594403 -0.11153787 -0.037441578 -0.0004093315
0.06361689 -0.082998924 0.03772216 0.036170185 0.096349336 -0.10034358 0.11910401 0.048861228
-0.07177065 -0.042503774 -0.027712738 0.052593816 -0.0066284253 -0.07153791 0.030321669 0.08252721
0.034030505 0.12358964 0.04946063 0.05406025 0.025905142 -0.108423 0.076050706 -0.038902577
-0.08846386 0.05165003 -0.05931455 0.06818097 -0.10861827 -0.12100234 0.063744515 0.09435909
-0.07577828 0.042545017 -0.00576563 -0.1163954 -0.06347215 0.0018438746 -0.10725531 -0.021078886
-0.004987498 0.044718973 -0.053571273 -0.07311504 0.11221151 0.040939286 -0.055674728 0.038127866
-0.05705212 -0.11456632 0.02400413 0.07756728 0.095377505 0.09440956 0.08922083 0.12246298
00000000: 590a a6bd 1d5c bdbd 95a6 dfbd 81e0 d03d
00000010: 9fa8 363d f76d e4bd 575c 19bd 8b9b d6b9
00000020: 9249 823d 57fb a9bd 8d82 1a3d 3027 143d
00000030: cd52 c53d ef80 cdbd ceec f33d b622 483d
00000040: 7efc 92bd 7018 2ebd d305 e3bc 9d6c 573d
00000050: 4333 d9bb 7882 92bd 2665 f83c 0704 a93d
00000060: 9263 0b3d 911c fd3d 3b97 4a3d 486e 5d3d
00000070: 0537 d43c e10c debd 79c0 9b3d 4f58 1fbd
00000080: 8a2c b5bd fb8e 533d d0f3 72bd 77a2 8b3d
00000090: 4173 debd 13d0 f7bd 7c8c 823d 573f c13d
000000a0: a531 9bbd af43 2e3d 9ced bcbb b660 eebd
000000b0: b0fd 81bd 2aae f13a aca8 dbbd a1ad acbc
000000c0: 2a6e a3bb 3e2b 373d 8d6d 5bbd 57bd 95bd
000000d0: 26cf e53d f4af 273d 2f0b 64bd f72b 1c3d
000000e0: 7caf 69bd bfa1 eabd 4fa4 c43c 98db 9e3d
000000f0: 4855 c33d cd59 c13d 69b9 b63d dfcd fa3d

fc3.0.weight f4 [64, 64]
-0.07789092 0.04150528 -0.093184374 0.109017484 0.0760698 -0.104123995 -0.012413704 -0.09389569
-0.066812895 0.04405172 0.04563934 0.1117269 0.12318189 0.0445601 -0.014427083 -0.02792144
0.0712822 0.11511611 -0.014377695 -0.04920513 0.062351093 -0.0710673 0.0041212346 -0.005840445
0.049686246 0.0040890523 0.036299113 -0.011842493 -0.09973734 0.12458649 0.06436158 0.03993743
-0.06994175 0.04964522 0.053775687 -0.020589855 -0.06682684 0.02822976 0.049124178 0.09039016
0.11548457 -0.07894951 -0.07797094 0.021652294 -0.032193508 0.08645563 0.08347208 -0.098110646
0.10011292 -0.12164359 0.056949746 0.014916521 -0.029035246 -0.005385347 -0.022649396 -0.06676265
-0.04361214 0.015429413 0.041216712 0.12103258 0.024657466 -0.093914166 0.06999486 -0.021869287
-0.008115738 0.09811255 0.018705735 0.026083244 0.077208415 -0.07604197 -0.0674896 0.018321455
0.017449297 -0.043246977 -0.0299525 0.07369476 0.020153316 0.08104588 -0.030883448 -0.06749379
-0.100992 -0.057103287 0.047075022 0.052933153 -0.082714505 -0.056856334 -0.095310554 0.10854332
-0.048702694 -0.017819466 -0.11920489 -0.06503322 0.09134816 -0.09905949 -0.12365061 0.030173931
0.06870695 0.059437737 -0.09422138 -0.12344142 0.064935654 0.07781425 0.1036017 0.03367689
0.059764277 -0.04563902 -0.07655176 -0.048563644 -0.025858292 0.09543766 0.04534716 -0.05215842
-0.05261006 -0.06587248 0.064513035 0.046102487 0.073842764 -0.0072753145 -0.034187775 0.064375214
0.09626203 0.047426976 -0.042566467 -0.02777131 -0.010190527 -0.042134486 0.018954024 0.08233601
-0.07886943 0.018254519 0.0065829456 -0.10318996 -0.03430201 -0.070866644 -0.04207878 0.04048246
-0.06739713 -0.05859141 -0.03947991 0.085591555 0.046951964 0.01674898 -0.078685656 -0.120745555
0.07632841 -0.060990646 0.097281665 0.055483818 0.09814955 0.09233703 0.12131563 0.024305776
-0.11576457 0.028255865 0.035985276 -0.09657268 0.035132393 0.10335623 0.11256194 -0.043465838
-0.11650528 -0.10275817 0.06461421 0.019447207 -0.09757383 -0.059535906 0.017375723 -0.05224356
-0.022687405 -0.083886474 0.04810396 -0.028625935 0.059329465 -0.023195863 0.11670512 -0.021903679
0.0720126 -0.06914994 -0.05634363 -0.12288934 0.042986438 0.09060292 -0.011175066 0.11326878
-0.05442831 0.03610827 0.024833009 -0.066209495 -0.045273423 0.01169838 0.054933965 0.06262706
0.01855995 -0.02566575 -0.07482543 0.07577477 -0.04549429 0.015688729 -0.07373309 -0.010900035
0.0017314005 -0.093576655 0.09186033 -0.034920238 -0.012514325 0.018327756 -0.08585436 -0.035516664
0.0077573326 0.09581692 -0.030177884 -0.10881049 0.024669936 -0.091890804 -0.11063727 0.10378743
0.0062611247 -0.070192344 -0.049365297 0.12375312 0.024201902 -0.032065056 -0.04979905 0.08436205
-0.10165412 0.004647889 0.030341614 -0.029829161 0.040449172 -0.070672795 -0.007891959 0.07259884
-0.081287876 -0.12178067 -0.011507815 0.019572875 0.11452026 -0.039976303 0.07372901 -0.11796989
0.11122403 0.0011786069 -0.1117338 -0.092023864 0.10790532 0.09026862 -0.009053886 0.00021669191
0.117676705 0.07796379 0.069916055 0.06983712 -0.054143295 -0.0056869825 -0.0014915857 -0.011592152
00000000: 4685 9fbd 7101 2a3d 73d7 bebd 8f44 df3d
00000010: 7cca 9b3d f63e d5bd d962 4bbc 624c c0bd
00000020: 33d5 88bd 946f 343d 51f0 3a3d 13d1 e43d
00000030: c946 fc3d a784 363d 925f 6cbc 81bb e4bc
00000040: 67fc 913d ffc1 eb3d 6c90 6bbc 528b 49bd
00000050: dc63 7f3d bc8b 91bd 6c0b 873b 3461 bfbb
00000060: ce83 4b3d 75fd 853b 61ae 143d 0407 42bc
00000070: 1743 ccbd 3427 ff3d 01d0 833d 6e95 233d
00000080: 9f3d 8fbd c958 4b3d e543 5c3d 0eac a8bc
00000090: 83dc 88bd 1942 e73c 6f36 493d 7a1e b93d
000000a0: 2d83 ec3d 48b0 a1bd 3aaf 9fbd 2760 b13c
000000b0: 57dd 03bd a60f b13d 69f3 aa3d 3cee c8bd
000000c0: 0108 cd3d 4620 f9bd 2344 693d 6c64 743c
000000d0: 53db edbc 9177 b0bb 3a8b b9bc dbba 88bd
000000e0: a5a2 32bd a6cb 7c3c dbd2 283d eedf f73d
000000f0: 74fe c93c 1256 c0bd 7759 8f3d 3827 b3bc
00000100: dff7 04bc 3cef c83d c53c 993c 87ac d53c
00000110: 721f 9e3d e4bb 9bbd fd37 8abd e016 963c
00000120: d4f1 8e3c be23 31bd f25e f5bc 47ed 963d
00000130: 9118 a53c 62fb a53d 49ff fcbc 2f3a 8abd
00000140: e5d4 cebd 23e5 69bd bdd1 403d 6fd0 583d
00000150: 3966 a9bd 30e2 68bd 2e32 c3bd f64b de3d
00000160: 7a7c 47bd 21fa 91bc b221 f4bd 2330 85bd
00000170: be14 bb3d b4df cabd 883c fdbd 522f f73c
00000180: 3bb6 8c3d fc74 733d 24f7 c0bd dbce fcbd
00000190: fcfc 843d 145d 9f3d 212d d43d c7f0 093d
000001a0: 63cb 743d fbef 3abd 2bc7 9cbd acea 46bd
000001b0: c5d4 d3bc d274 c33d f2bd 393d 11a4 55bd
000001c0: a57d 57bd 27e8 86bd 691f 843d f6d5 3c3d
000001d0: e03a 973d c365 eebb 7b08 0cbd 27d7 833d
000001e0: 0725 c53d ca42 423d 2d5a 2ebd a980 e3bc
000001f0: 2bf6 26bc 3695 2cbd 7845 9b3c c89f a83d
00000200: 4c86 a1bd 808a 953c c0b5 d73b 4255 d3bd
00000210: 4480 0cbd 8822 91bd cc5a 2cbd f0d0 253d
00000220: 8207 8abd 8cfd 6fbd b0b5 21bd a04a af3d
00000230: b450 403d 2835 893c f225 a1bd 7249 f7bd
00000240: 1252 9c3d 54d1 79bd 9c3b c73d 0043 633d
00000250: a202 c93d 321b bd3d 5474 f83d e81c c73c
00000260: fa15 edbd d878 e73c 4c65 133d e6c7 c5bd
00000270: fce6 0f3d 6eac d33d e086 e63d 3c09 32bd
00000280: 529a eebd e072 d2bd 7454 843d c04f 9f3c
00000290: cad4 c7bd ecdb 73bd 8857 8e3c 58fd 55bd
000002a0: f0da b9bc accc abbd a808 453d f080 eabc
000002b0: 7403 733d 4005 bebc 1803 ef3d 586f b3bc
000002c0: 587b 933d 7c9e 8dbd 94c8 66bd 68ad fbbd
000002d0: 8c12 303d 068e b93d a017 37bc 76f9 e73d
000002e0: 38f0 5ebd 44e6 133d 986e cb3c d898 87bd
000002f0: a070 39bd 90aa 3f3c 7002 613d 9e42 803d
00000300: 090b 983c fb40 d2bc 133e 99bd cd2f 9b3d
00000310: 3858 3abd a685 803c 6001 97bd 0f96 32bc
00000320: 29f0 e23a 1ea5 bfbd 4521 bc3d 8608 0fbd
00000330: e208 4dbc 1724 963c 69d4 afbd ec79 11bd
00000340: 3931 fe3b a93b c43d 9c37 f7bc 09d8 debd
00000350: 9b18 ca3c 3f31 bcbd cb95 e2bd 818e d43d
00000360: 1f2a cd3b 01c1 8fbd 4433 4abd 4772 fd3d
00000370: 1143 c63c a656 03bd 17fa 4bbd 03c6 ac3d
00000380: 0930 d0bd 524d 983b fa8e f83c 495c f4bc
00000390: 08ae 253d e6bc 90bd 464d 01bc b3ae 943d
000003a0: 427a a6bd 2568 f9bd 468b 3cbc 4b57 a03c
000003b0: 9989 ea3d 31be 23bd 3cff 963d 339a f1bd
000003c0: 6dc9 e33d 7c7b 9a3a b1d4 e4bd 0277 bcbd
000003d0: 77fd dc3d c1de b83d c056 14bc cb37 6339
000003e0: 7c00 f13d 7bab 9f3d 2630 8f3d c406 8f3d
000003f0: 5cc5 5dbd de59 babb 5081 c3ba 02ed 3dbc
