Mask-test/model_epoch_0_80.pth (torch, 154665 bytes, 7 tensors)

embedding.0.weight f4 [64, 7]
0	0xbdd10b65	-0.102072515
1	0xbe835575	-0.25651136
2	0x3e2b1052	0.16705444
3	0x3e88a7ee	0.2669062
4	0x3e8e7181	0.27820972
5	0x3ebb3269	0.36561897
6	0xbb1151bb	-0.002217396
7	0x3db53ca0	0.08849454
8	0x3e852146	0.26001948
9	0xbea48874	-0.32135355
10	0x3df740f6	0.12072937
11	0xbe3e43a9	-0.18580498
12	0xbb730f0e	-0.003708783
13	0x3c6177ac	0.013761442
14	0x3e9e2ca9	0.30893448
15	0x3df33d67	0.11876946
16	0xbdf6e803	-0.120559715
17	0x3e8c941e	0.27456754
18	0xbeb28cbc	-0.34872997
19	0x3e86e02f	0.26342914
20	0x3e96e8dc	0.29474533
21	0xbd7099c0	-0.058740377
22	0x3de72c59	0.112877555
23	0x3eb13a17	0.34614632
24	0xbea551d3	-0.3228899
25	0xbe8cce00	-0.27500916
26	0x3e610d1d	0.21977659
27	0x3e1ab598	0.15108335
28	0xbe102495	-0.14076455
29	0x3dbf96a2	0.09354903
30	0xbdef4fc4	-0.11685136
31	0x3ec1034e	0.37697834
32	0x3e92de69	0.2868531
33	0xbead96f1	-0.33904222
34	0x3eb2a82f	0.3489394
35	0x3d3cede9	0.046125326
36	0xbe8753f1	-0.2643123
37	0xbd36e507	-0.04465201
38	0x3dcbcd29	0.099512406
39	0xbe8a0796	-0.26958913
40	0xbe685d9d	-0.2269196
41	0xba2f5c60	-0.0006689485
42	0x3e492112	0.19641522
43	0x3e5e8a42	0.21732429
44	0x3ea8b24a	0.32948524
45	0x3eb96dcb	0.36216578
46	0xbeaf9f6e	-0.34301323
47	0x3d948681	0.07252217
48	0xbdb6dd6b	-0.08928951
49	0xbdd92a40	-0.10603762
50	0xbbe08897	-0.0068522203
51	0x3d845619	0.06461734
52	0xbd54dc48	-0.05196789
53	0xbe98c9f6	-0.29841584
54	0x3cdeae76	0.027182799
55	0x3e5968cf	0.21231388
56	0xbe80dab2	-0.2516685
57	0xbeadc67b	-0.3394049
58	0xbe92bb73	-0.28658637
59	0x3e1e9ae4	0.15488774
60	0x3e3de692	0.18544987
61	0xbeafaaed	-0.34310094
62	0xbda17b99	-0.078849025
63	0xbe7793c1	-0.24177457
64	0x3e810bdc	0.2520436
65	0x3d000305	0.03125288
66	0xbcb9a58f	-0.022661952
67	0x3d6dde46	0.058073305
68	0x3e05eace	0.13077852
69	0x3e49c2fd	0.19703288
70	0xbe7bc4ff	-0.24586867
71	0xbd334ed1	-0.043776337
72	0x3e591cb7	0.2120236
73	0x3e9a3f1d	0.30126277
74	0xbcccbc90	-0.024992257
75	0x3e9ddb49	0.30831364
76	0x3e29415a	0.16528836
77	0x3cea5716	0.028605979
78	0xbe2e5e07	-0.17028056
79	0xbe8200ef	-0.25391337
80	0xbea33591	-0.31876805
81	0x3b9d4cb6	0.0048004044
82	0xbe1ad1af	-0.1511905
83	0x3da90e65	0.08254699
84	0xbe9804f6	-0.29691285
85	0xbe727a57	-0.23679481
86	0x3ebcfcaa	0.36911517
87	0x3ea8ab7f	0.3294334
88	0xbd3bb397	-0.045825567
89	0xbd2f14e4	-0.042744532
90	0x3e9b9dc7	0.30393812
91	0xbe3b403f	-0.18286227
92	0xbe6f5cf4	-0.23375303
93	0xbe2f3aa1	-0.17112209
94	0x3e44da0e	0.19223806
95	0xbe8a5c25	-0.27023426
96	0xbe552006	-0.20812997
97	0x3e5e8f99	0.21734466
98	0x3e12afa3	0.14324813
99	0xbe85c57a	-0.26127225
100	0xbe7a7de1	-0.24462081
101	0xbe81a588	-0.25321603
102	0xbe8a7867	-0.27044985
103	0x3e69ba3f	0.22824953
104	0x3ea1ac3d	0.3157672
105	0x3e0f0ab9	0.13968934
106	0x3d3d5adc	0.04622923
107	0x3e4c404c	0.19946402
108	0xbe638a9a	-0.22220841
109	0x3e44c614	0.19216186
110	0x3e84dd5d	0.25950137
111	0xbe194c79	-0.14970578
112	0x3c33ce06	0.010974413
113	0x3e671ac3	0.22568803
114	0xbe3abe79	-0.18236722
115	0x3e8dff1c	0.27733696
116	0xbe807ec9	-0.2509673
117	0xbe898acb	-0.26863703
118	0xbec077bf	-0.3759136
119	0x3ebae726	0.36504477
120	0xbe8b68ba	-0.27228338
121	0xbe42594f	-0.18979381
122	0xbe9844c3	-0.2973996
123	0x3ea356e4	0.3190223
124	0x3cf657a2	0.030071083
125	0x3e8af96a	0.27143413
126	0x3b94f537	0.0045458334
127	0xbe62f431	-0.22163464
128	0xbea51d70	-0.32249022
129	0xbeb35504	-0.350258
130	0xbe88adde	-0.2669515
131	0x3e10a017	0.1412357
132	0x3d9701e6	0.07373409
133	0x3eb18191	0.34669164
134	0xbd5b23c4	-0.053500906
135	0xbea615d3	-0.32438526
136	0xbe060c86	-0.13090715
137	0xbe51fa9a	-0.20505753
138	0xbda9b917	-0.08287256
139	0x3d620f9e	0.055190675
140	0xbe91d748	-0.2848456
141	0x3eb3693f	0.35041234
142	0x3e648ba1	0.22318889
143	0x3e2e17f5	0.17001326
144	0xbe40c71b	-0.18825953
145	0x3e924d25	0.28574482
146	0xbdd5ab3b	-0.1043305
147	0x3dd28266	0.10278778
148	0xbd7d88d3	-0.061898064
149	0xbcfa786d	-0.030575002
150	0xbea151ce	-0.31507725
151	0x3e383220	0.17987871
152	0x3e971195	0.29505602
153	0x3e6a7c5a	0.22898999
154	0xbd931729	-0.07182152
155	0xbe2d381f	-0.1691594
156	0x3e4b5fec	0.1986081
157	0x3e86984f	0.26288077
158	0x3e99e81a	0.30059892
159	0xbec1822e	-0.37794632
160	0xbdbc67f4	-0.09199515
161	0xbdaa83eb	-0.083259426
162	0x3dc2e223	0.095157884
163	0x3daa8381	0.08325864
164	0x3df66c14	0.12032333
165	0x3e2e8cd3	0.17045908
166	0x3d6de1eb	0.05807678
167	0xbeb0d240	-0.34535408
168	0x3e5e1a11	0.21689631
169	0x3ec09e28	0.37620664
170	0xbe8907ab	-0.26763663
171	0x3eb2a594	0.3489195
172	0x3eb69666	0.3566162
173	0x3e895282	0.2682076
174	0x3dbd2501	0.092355736
175	0xbe6c5cad	-0.23082228
176	0xbe167d84	-0.14696318
177	0x3e9b766c	0.30363786
178	0x3da94f31	0.08267058
179	0xbd53b6c8	-0.051687986
180	0xbeb19dc6	-0.34690684
181	0xbeb60466	-0.3555023
182	0xbc3d1316	-0.011540195
183	0x3e9f78c6	0.3114683
184	0x3da73c3b	0.08165785
185	0x3daa637a	0.08319755
186	0xbdf74a2e	-0.120746955
187	0x3e815f8a	0.25268203
188	0x3eb36687	0.3503916
189	0xbdd0fc0b	-0.102043234
190	0xbe991551	-0.29899076
191	0x3dd05208	0.10171896
192	0xbe2c654e	-0.1683552
193	0xbebed899	-0.37274626
194	0x3d0259de	0.031823985
195	0xbd03a980	-0.03214407
196	0x3e950b20	0.2911005
197	0x3e1008ff	0.14065932
198	0xbe99b1d2	-0.3001848
199	0x3e9a4cd1	0.3013673
200	0x3e523eae	0.20531723
201	0x3d8d6a4d	0.06905041
202	0xbda2eb00	-0.07954979
203	0x3d38cf46	0.045119546
204	0x3d6838bf	0.056694742
205	0xbda252b5	-0.07925931
206	0x3eb2ba19	0.34907606
207	0x3eb0b4b4	0.34512866
208	0xbea5bcf1	-0.32370713
209	0x3db9ce52	0.090725556
210	0x3e8302c9	0.25588062
211	0x3e0be962	0.13663247
212	0x3e6a18da	0.22861043
213	0x3d150337	0.03638002
214	0x3e38c501	0.18043901
215	0xbdb3e58b	-0.08784016
216	0xbc413114	-0.011791486
217	0xbe62611b	-0.22107355
218	0xbd714017	-0.05889901
219	0x3e9e1b43	0.30880174
220	0x3ea4d5f4	0.32194483
221	0x3d1d1e27	0.038358834
222	0xbe3e81b3	-0.18604164
223	0x3e4ebcc4	0.20189196
224	0x3d0eb4d1	0.03484041
225	0xbd8c9bbb	-0.06865641
226	0xbe43b0aa	-0.1911036
227	0xbe8964fd	-0.2683486
228	0xbeb2bbec	-0.34908998
229	0xbd953970	-0.07286346
230	0xbd3c5c48	-0.045986444
231	0xbe87146e	-0.26382774
232	0x3e9c12f0	0.30483198
233	0x3e2fa984	0.17154509
234	0xbd7b3712	-0.061331816
235	0x3d111716	0.035422407
236	0xbe93d584	-0.28873837
237	0xbe9d2bb8	-0.30697417
238	0xbe7a2603	-0.24428563
239	0xbd5081b3	-0.05090494
240	0x3eb204c1	0.34769252
241	0xbea2579d	-0.3170747
242	0x3d0c9762	0.034324057
243	0x3cdc7e59	0.026915716
244	0xbe266d16	-0.1625255
245	0xbdc1f7b8	-0.09471077
246	0xbdf40560	-0.11915088
247	0x3c86bf52	0.01644865
248	0x3d82de73	0.06390085
249	0xbd9472c5	-0.07248453
250	0x3db57fdb	0.08862277
251	0x3e8c6e57	0.27427933
252	0xbddd9c3b	-0.10820814
253	0xbe71e40e	-0.23622152
254	0xbe1acd54	-0.15117389
255	0x3d339975	0.04384752

embedding.0.bias f4 [64]
0	0xbc987ea9	-0.018615084
1	0xbdf6edbc	-0.12057063
2	0xbe0e3049	-0.13885607
3	0xbea6b1bb	-0.32557473
4	0x3c9c690a	0.019093055
5	0xbe9f3d38	-0.31101394
6	0xbd774020	-0.06036389
7	0x3d1938fa	0.037407853
8	0x3ea69ce8	0.32541585
9	0xbc01ad03	-0.007914784
10	0x3e1b3aac	0.151591
11	0xbebab522	-0.36466318
12	0xbdc8370b	-0.097761236
13	0xbd7ea974	-0.06217332
14	0x3e5ec0f7	0.21753298
15	0x3ec15f9e	0.37768263
16	0x3e605246	0.21906385
17	0xbe97f50f	-0.29679152
18	0xbe1aefef	-0.1513059
19	0x3dbe764f	0.09299909
20	0x3e735535	0.23762973
21	0x3dd3a598	0.10334319
22	0xbda377e6	-0.07981853
23	0xbe257df0	-0.16161323
24	0xbbd5cf2e	-0.006524942
25	0x3df1caf2	0.11806287
26	0xbe352d2f	-0.17693017
27	0xbe7c149a	-0.24617234
28	0x3eb251f9	0.34828165
29	0xbe8b3479	-0.2718847
30	0x3db8d762	0.09025456
31	0x3e335d30	0.17516017
32	0x3e070d63	0.131887
33	0xbeb66239	-0.35621813
34	0xbe703206	-0.23456582
35	0x3e69b3e5	0.2282253
36	0x3e7e9f57	0.24865471
37	0xbcb35e23	-0.021895474
38	0xbe1e985d	-0.1548781
39	0xbea75e41	-0.32689098
40	0xbc0e01e7	-0.008667446
41	0xbe7ae79d	-0.24502416
42	0xbe0451da	-0.12921849
43	0xbe874e30	-0.2642684
44	0xbe3a7bb6	-0.18211254
45	0xbd9b2ef6	-0.075773165
46	0x3d5d813a	0.05407832
47	0xbe809371	-0.2511249
48	0xbde40958	-0.11134595
49	0xbebdd2ef	-0.37074992
50	0xbe97b0c3	-0.29627046
51	0x3de00e59	0.109402366
52	0xbeaba563	-0.33524618
53	0xbe232ff8	-0.15936267
54	0xbd8316d7	-0.06400841
55	0x3dabae72	0.08382882
56	0x3e999d28	0.30002713
57	0x3e899064	0.26867974
58	0xbe9ce6cd	-0.30644837
59	0x3e9fb75e	0.31194586
60	0x3ebb5895	0.3659102
61	0xbe37db86	-0.17954835
62	0x3d113e9b	0.035460096
63	0x3e8de098	0.27710414

layernorm.weight f4 [259, 64]
0	0x3f800000	1.0
1	0x3f7fffff	0.99999994
2	0x3f800391	1.0001088
3	0x3f800016	1.0000026
4	0x3f7ff4f8	0.9998317
5	0x3f800000	1.0
6	0x3f800000	1.0
7	0x3f7ffbcb	0.9999358
8	0x3f800000	1.0
9	0x3f800183	1.0000461
10	0x3f800005	1.0000006
11	0x3f800000	1.0
12	0x3f800509	1.0001537
13	0x3f80013a	1.0000374
14	0x3f80004e	1.0000093
15	0x3f7fffb6	0.9999956
16	0x3f800000	1.0
17	0x3f7ff8db	0.999891
18	0x3f80001e	1.0000036
19	0x3f7fffff	0.99999994
20	0x3f800000	1.0
21	0x3f800269	1.0000736
22	0x3f800000	1.0
23	0x3f800000	1.0
24	0x3f8000c7	1.0000237
25	0x3f800000	1.0
26	0x3f80028d	1.0000778
27	0x3f800000	1.0
28	0x3f800000	1.0
29	0x3f7ffb67	0.99992985
30	0x3f800000	1.0
31	0x3f8000dc	1.0000262
32	0x3f800000	1.0
33	0x3f800000	1.0
34	0x3f800000	1.0
35	0x3f800000	1.0
36	0x3f800000	1.0
37	0x3f800000	1.0
38	0x3f800000	1.0
39	0x3f7ffcd2	0.9999515
40	0x3f7ffe09	0.99997
41	0x3f800000	1.0
42	0x3f800219	1.000064
43	0x3f800001	1.0000001
44	0x3f800000	1.0
45	0x3f800000	1.0
46	0x3f7ffc20	0.9999409
47	0x3f800000	1.0
48	0x3f7ffd0d	0.999955
49	0x3f800020	1.0000038
50	0x3f800000	1.0
51	0x3f800021	1.0000039
52	0x3f800000	1.0
53	0x3f800000	1.0
54	0x3f800000	1.0
55	0x3f7ffd3e	0.9999579
56	0x3f800008	1.000001
57	0x3f800000	1.0
58	0x3f800027	1.0000046
59	0x3f800000	1.0
60	0x3f80000d	1.0000015
61	0x3f800000	1.0
62	0x3f800000	1.0
63	0x3f80010c	1.000032
64	0x3f7fffbf	0.9999961
65	0x3f800000	1.0
66	0x3f80019c	1.0000491
67	0x3f7fffcc	0.9999969
68	0x3f7ff931	0.9998961
69	0x3f800000	1.0
70	0x3f800000	1.0
71	0x3f800002	1.0000002
72	0x3f800000	1.0
73	0x3f80004c	1.0000091
74	0x3f7fff72	0.99999154
75	0x3f800000	1.0
76	0x3f8002e8	1.0000887
77	0x3f800000	1.0
78	0x3f800006	1.0000007
79	0x3f7fffdf	0.99999803
80	0x3f800000	1.0
81	0x3f800040	1.0000076
82	0x3f7ffffa	0.99999964
83	0x3f800000	1.0
84	0x3f800000	1.0
85	0x3f800062	1.0000117
86	0x3f800000	1.0
87	0x3f800000	1.0
88	0x3f80001d	1.0000035
89	0x3f7ffff1	0.9999991
90	0x3f80009b	1.0000185
91	0x3f800000	1.0
92	0x3f800000	1.0
93	0x3f7ffcd3	0.99995154
94	0x3f800000	1.0
95	0x3f800037	1.0000066
96	0x3f800000	1.0
97	0x3f800000	1.0
98	0x3f800000	1.0
99	0x3f800000	1.0
100	0x3f800000	1.0
101	0x3f800000	1.0
102	0x3f800000	1.0
103	0x3f80000d	1.0000015
104	0x3f7ffe02	0.9999696
105	0x3f800000	1.0
106	0x3f8000a9	1.0000201
107	0x3f7ffff0	0.99999905
108	0x3f800000	1.0
109	0x3f800000	1.0
110	0x3f7ffe81	0.9999772
111	0x3f800000	1.0
112	0x3f7fff20	0.99998665
113	0x3f800003	1.0000004
114	0x3f800000	1.0
115	0x3f800000	1.0
116	0x3f7fffe8	0.99999857
117	0x3f800000	1.0
118	0x3f800000	1.0
119	0x3f80002b	1.0000051
120	0x3f800016	1.0000026
121	0x3f800000	1.0
122	0x3f7ffff5	0.99999934
123	0x3f800000	1.0
124	0x3f800000	1.0
125	0x3f800000	1.0
126	0x3f800000	1.0
127	0x3f80003b	1.000007
128	0x3f7fffdb	0.9999978
129	0x3f800000	1.0
130	0x3f8001b4	1.000052
131	0x3f800002	1.0000002
132	0x3f7ffa11	0.99990946
133	0x3f800000	1.0
134	0x3f800000	1.0
135	0x3f7ffe04	0.9999697
136	0x3f800000	1.0
137	0x3f7ffffc	0.99999976
138	0x3f800001	1.0000001
139	0x3f800000	1.0
140	0x3f8003cc	1.0001159
141	0x3f8000d3	1.0000252
142	0x3f80000d	1.0000015
143	0x3f7fffd8	0.9999976
144	0x3f800000	1.0
145	0x3f7ffab9	0.9999195
146	0x3f80000a	1.0000012
147	0x3f800000	1.0
148	0x3f800000	1.0
149	0x3f8001c9	1.0000545
150	0x3f800000	1.0
151	0x3f800000	1.0
152	0x3f7fffb4	0.99999547
153	0x3f800000	1.0
154	0x3f80011a	1.0000336
155	0x3f800000	1.0
156	0x3f800000	1.0
157	0x3f7ffd7a	0.9999615
158	0x3f800000	1.0
159	0x3f800090	1.0000172
160	0x3f800000	1.0
161	0x3f800000	1.0
162	0x3f800000	1.0
163	0x3f800000	1.0
164	0x3f800000	1.0
165	0x3f800000	1.0
166	0x3f800000	1.0
167	0x3f7ffd38	0.99995756
168	0x3f7ffd5a	0.9999596
169	0x3f800000	1.0
170	0x3f80013f	1.000038
171	0x3f7fffc1	0.99999624
172	0x3f800000	1.0
173	0x3f800000	1.0
174	0x3f800014	1.0000024
175	0x3f800000	1.0
176	0x3f7fffb6	0.9999956
177	0x3f800005	1.0000006
178	0x3f800000	1.0
179	0x3f80000b	1.0000013
180	0x3f800000	1.0
181	0x3f800000	1.0
182	0x3f800000	1.0
183	0x3f7ffe42	0.9999734
184	0x3f7fffd1	0.9999972
185	0x3f800000	1.0
186	0x3f800024	1.0000043
187	0x3f800000	1.0
188	0x3f800001	1.0000001
189	0x3f7fffe3	0.9999983
190	0x3f800000	1.0
191	0x3f800046	1.0000083
192	0x3f7fffbf	0.9999961
193	0x3f800000	1.0
194	0x3f800127	1.0000352
195	0x3f7fffe9	0.9999986
196	0x3f7ffb97	0.9999327
197	0x3f800000	1.0
198	0x3f800000	1.0
199	0x3f7ffef0	0.9999838
200	0x3f800000	1.0
201	0x3f8000b3	1.0000213
202	0x3f7fffb8	0.9999957
203	0x3f800000	1.0
204	0x3f8001bc	1.0000529
205	0x3f800000	1.0
206	0x3f800003	1.0000004
207	0x3f7ffff3	0.9999992
208	0x3f800000	1.0
209	0x3f800024	1.0000043
210	0x3f7ffffd	0.9999998
211	0x3f800000	1.0
212	0x3f800000	1.0
213	0x3f800062	1.0000117
214	0x3f800000	1.0
215	0x3f800000	1.0
216	0x3f80005c	1.000011
217	0x3f7ffffa	0.99999964
218	0x3f800095	1.0000178
219	0x3f800000	1.0
220	0x3f800000	1.0
221	0x3f7ffe5c	0.99997497
222	0x3f800000	1.0
223	0x3f800014	1.0000024
224	0x3f800000	1.0
225	0x3f800000	1.0
226	0x3f800000	1.0
227	0x3f800000	1.0
228	0x3f800000	1.0
229	0x3f800000	1.0
230	0x3f800000	1.0
231	0x3f800007	1.0000008
232	0x3f7ffe9c	0.9999788
233	0x3f800000	1.0
234	0x3f800077	1.0000142
235	0x3f7ffff6	0.9999994
236	0x3f800000	1.0
237	0x3f800000	1.0
238	0x3f7fff37	0.999988
239	0x3f800000	1.0
240	0x3f7ffefc	0.9999845
241	0x3f800001	1.0000001
242	0x3f800000	1.0
243	0x3f7ffffe	0.9999999
244	0x3f7ffff5	0.99999934
245	0x3f800000	1.0
246	0x3f800000	1.0
247	0x3f80001a	1.0000031
248	0x3f80000d	1.0000015
249	0x3f800000	1.0
250	0x3f7ffffb	0.9999997
251	0x3f800000	1.0
252	0x3f800000	1.0
253	0x3f7fffe2	0.9999982
254	0x3f800000	1.0
255	0x3f800049	1.0000087

layernorm.bias f4 [259, 64]
0	0xb605e152	-1.9949698e-06
1	0xb42bae25	-1.598897e-07
2	0x35f0381c	1.7897723e-06
3	0x358aba9f	1.0336115e-06
4	0xb514212d	-5.5182574e-07
5	0x3577e150	9.2342543e-07
6	0x3429939b	1.579305e-07
7	0x3513a18a	5.499684e-07
8	0xb67b333b	-3.7431735e-06
9	0xb4d47cdc	-3.9578924e-07
10	0x365e1a07	3.3095728e-06
11	0x35882efa	1.0146462e-06
12	0x3610c2dc	2.1571095e-06
13	0x366ba1c2	3.5111884e-06
14	0x368f83b6	4.2770653e-06
15	0x34a911fe	3.1491794e-07
16	0xb4cd671a	-3.8259242e-07
17	0xb53e2446	-7.08333e-07
18	0x3571651b	8.9926624e-07
19	0xb616b035	-2.2454308e-06
20	0xb63ab4b6	-2.7821347e-06
21	0x35b0576f	1.3138468e-06
22	0xb64196d4	-2.8847035e-06
23	0xb51eb764	-5.9126455e-07
24	0xb4b94051	-3.4505732e-07
25	0xb5379082	-6.83831e-07
26	0x3634e8b0	2.6957532e-06
27	0xb636b8d1	-2.722769e-06
28	0xb53881cf	-6.873424e-07
29	0xb6312635	-2.6397295e-06
30	0xb4f60afc	-4.5829063e-07
31	0xb5b722d4	-1.3644699e-06
32	0x35a05ccd	1.1947938e-06
33	0xb6a4c14b	-4.910083e-06
34	0xb6244619	-2.4478707e-06
35	0x331aeefe	3.607328e-08
36	0xb541d204	-7.2203716e-07
37	0xb3e75767	-1.0772674e-07
38	0xb614ae36	-2.2155123e-06
39	0x36246104	2.4494375e-06
40	0xb63cf775	-2.8158222e-06
41	0x3562d547	8.450192e-07
42	0x35b8e438	1.3775489e-06
43	0x368b052e	4.143126e-06
44	0xb5a607c9	-1.237023e-06
45	0x362939d8	2.5216632e-06
46	0x3664f1f0	3.4115474e-06
47	0xb448ea15	-1.871161e-07
48	0xb52acc43	-6.3627175e-07
49	0x35ff2d39	1.9012142e-06
50	0x3687ddd5	4.049138e-06
51	0x3640bfda	2.8721902e-06
52	0x32d62fc8	2.4934607e-08
53	0x34b7cb41	3.4234293e-07
54	0xb62b841d	-2.5557886e-06
55	0x35d61917	1.5951545e-06
56	0x367c541a	3.759988e-06
57	0x356eb554	8.8925776e-07
58	0xb4344e29	-1.6792241e-07
59	0xb4cd13bd	-3.8198587e-07
60	0x347b448b	2.3401132e-07
61	0x3632a5bc	2.6620537e-06
62	0xb657ad73	-3.2138457e-06
63	0x351767b9	5.640282e-07
64	0xb5d64d4f	-1.5966742e-06
65	0xb47720cb	-2.3015598e-07
66	0x35b6c30e	1.3616825e-06
67	0xb55261d2	-7.8373444e-07
68	0xb60154a1	-1.9271758e-06
69	0x35b9e099	1.3848941e-06
70	0xb59dec24	-1.1766138e-06
71	0x346decca	2.2158488e-07
72	0xb60cb584	-2.0967282e-06
73	0x3505df61	4.987142e-07
74	0x36183650	2.268138e-06
75	0xb5ce5bfd	-1.5374968e-06
76	0x35319f37	6.6169326e-07
77	0x36592936	3.2359508e-06
78	0x361eeb11	2.3680661e-06
79	0x32c6b503	2.3132548e-08
80	0xb5803159	-9.551105e-07
81	0x34802627	2.3869617e-07
82	0x35963836	1.119223e-06
83	0xb5ba963c	-1.3901804e-06
84	0xb6843d1d	-3.941021e-06
85	0x34c17731	3.6035775e-07
86	0xb5a5159c	-1.2299747e-06
87	0x356b2d90	8.7610624e-07
88	0xb4acb8dc	-3.2172e-07
89	0x34dbf3eb	4.0969402e-07
90	0x36136dbe	2.1968585e-06
91	0xb5526925	-7.83841e-07
92	0xb5fd1472	-1.8855919e-06
93	0xb6665490	-3.4321893e-06
94	0xb5a876c8	-1.2551545e-06
95	0xb5c2c0df	-1.4510259e-06
96	0x36302388	2.6246726e-06
97	0xb66464c8	-3.403331e-06
98	0xb61c0d53	-2.3253567e-06
99	0x356f683e	8.918613e-07
100	0xb5209b52	-5.9830666e-07
101	0x35e93b97	1.7377196e-06
102	0xb59b67cc	-1.1578609e-06
103	0x35843458	9.85e-07
104	0xb58f3cf4	-1.067207e-06
105	0x35980c02	1.1328377e-06
106	0x351b2ba2	5.7805494e-07
107	0x364549da	2.9398275e-06
108	0xb6203949	-2.3875202e-06
109	0x3651f051	3.128331e-06
110	0x362bf8e8	2.5625868e-06
111	0x3560fb16	8.381188e-07
112	0xb51d9b03	-5.871263e-07
113	0x354dcbe7	7.666517e-07
114	0x367375b4	3.6278334e-06
115	0x36106f39	2.1522412e-06
116	0x34877579	2.5231182e-07
117	0xb4543b65	-1.9765646e-07
118	0xb636bd58	-2.7230326e-06
119	0xb547d029	-7.443619e-07
120	0x362946ff	2.5224288e-06
121	0x35df7db2	1.6651377e-06
122	0x35d0d182	1.5558182e-06
123	0xb5cffa06	-1.5495468e-06
124	0xb5b86b2d	-1.374026e-06
125	0x35e88da0	1.7326565e-06
126	0xb6370f21	-2.7277931e-06
127	0x34a0f47b	2.9980205e-07
128	0xb6274d88	-2.4930068e-06
129	0xb2d1bb55	-2.4415991e-08
130	0x35c11a02	1.438719e-06
131	0x351fdbf4	5.955219e-07
132	0xb5777cfb	-9.219654e-07
133	0x359d2ae2	1.1709892e-06
134	0x34ec950b	4.4066869e-07
135	0x34df0ee7	4.154783e-07
136	0xb65533a7	-3.176954e-06
137	0xb548205f	-7.455291e-07
138	0x3612c215	2.1868666e-06
139	0x3530089a	6.5577626e-07
140	0x36008f61	1.9156944e-06
141	0x3675b241	3.6611602e-06
142	0x3695283a	4.445229e-06
143	0x34ad97f3	3.233432e-07
144	0xb39aefe6	-7.214821e-08
145	0xb5ce2382	-1.535853e-06
146	0x351038bb	5.3726734e-07
147	0xb60ca641	-2.0958398e-06
148	0xb65b084c	-3.2638372e-06
149	0x3601799e	1.9293288e-06
150	0xb65519e5	-3.1754546e-06
151	0xb3d72aa8	-1.0019477e-07
152	0xb55d43cc	-8.2427573e-07
153	0xb4ee3064	-4.4366163e-07
154	0x35bafef6	1.3932283e-06
155	0xb6304161	-2.62641e-06
156	0xb5604f74	-8.356212e-07
157	0xb6259fd2	-2.4679944e-06
158	0xb5919a76	-1.0848296e-06
159	0xb4bede58	-3.5552034e-07
160	0x35eb7d8f	1.7545407e-06
161	0xb680055c	-3.815321e-06
162	0xb5964557	-1.1196051e-06
163	0x34bd356c	3.5242863e-07
164	0xb5e54323	-1.7081369e-06
165	0xb550e2f8	-7.781632e-07
166	0xb5dffa0f	-1.6687571e-06
167	0x36039f1d	1.9613137e-06
168	0xb5f1a79a	-1.8004678e-06
169	0x354d84ef	7.6561895e-07
170	0x35ba95e5	1.3901705e-06
171	0x368cd9fe	4.1977028e-06
172	0xb5d86d33	-1.6125035e-06
173	0x364224f2	2.8929758e-06
174	0x360bed7c	2.0850848e-06
175	0xb4e74213	-4.3075178e-07
176	0xb5242c68	-6.115938e-07
177	0x35e29f1c	1.6884619e-06
178	0x365a5a1c	3.2536982e-06
179	0x361c2724	2.3268594e-06
180	0x35cb2ec2	1.5138287e-06
181	0x33a1d81f	7.536459e-08
182	0xb61e8b3b	-2.3624877e-06
183	0x35d0518b	1.552094e-06
184	0x3679370c	3.7135933e-06
185	0x3574d988	9.1213633e-07
186	0x354deebc	7.6715855e-07
187	0xb4d3df3a	-3.946423e-07
188	0xb502605d	-4.8569e-07
189	0x36086ddf	2.0329533e-06
190	0xb61993cd	-2.2884808e-06
191	0x353573ba	6.759616e-07
192	0xb5abd9dc	-1.2803898e-06
193	0x3490708a	2.6903973e-07
194	0x36024162	1.9409567e-06
195	0xb5af8608	-1.3077524e-06
196	0xb6387d37	-2.7491021e-06
197	0x35f3843b	1.8143395e-06
198	0x358b26cc	1.0367598e-06
199	0x35c708d9	1.482923e-06
200	0xb62350d1	-2.4335934e-06
201	0xb4d89ac0	-4.034573e-07
202	0x3521c80a	6.026827e-07
203	0xb5dd7cbd	-1.6502087e-06
204	0x35f9fe08	1.8625879e-06
205	0x36301a53	2.6241366e-06
206	0x35c79013	1.4868587e-06
207	0xb5c8ac02	-1.4951222e-06
208	0x34d945ed	4.0470277e-07
209	0x34302c17	1.6407317e-07
210	0xb2c6557c	-2.3089108e-08
211	0x3407869f	1.262183e-07
212	0xb61bd9ca	-2.322357e-06
213	0x35b27034	1.3294689e-06
214	0xb480e975	-2.401172e-07
215	0x35656026	8.544906e-07
216	0xb57639f1	-9.172646e-07
217	0x3591a6c3	1.0851876e-06
218	0x35ae075b	1.2966151e-06
219	0xb4a88c0c	-3.1394336e-07
220	0xb5e2fa28	-1.6911117e-06
221	0xb6235ca2	-2.4342812e-06
222	0xb632d9a0	-2.6650741e-06
223	0xb5544c2d	-7.9087005e-07
224	0x35db46de	1.6337397e-06
225	0xb6249e0d	-2.4529902e-06
226	0xb63b4e81	-2.7910867e-06
227	0x35ce7247	1.5381455e-06
228	0xb54304c1	-7.265008e-07
229	0x34b94969	3.4512348e-07
230	0xb4c40695	-3.6512634e-07
231	0x359d0f5b	1.170188e-06
232	0xb59878ab	-1.1360002e-06
233	0x35b6dfd1	1.3625196e-06
234	0xb5545163	-7.909459e-07
235	0x35355bfb	6.7561604e-07
236	0xb611ccb3	-2.1725834e-06
237	0x3651a206	3.1237737e-06
238	0x35c82a56	1.4913483e-06
239	0x354c9d33	7.6224677e-07
240	0x35af8f2d	1.3080186e-06
241	0x352679f7	6.20173e-07
242	0x36695499	3.4768948e-06
243	0x358808ce	1.0135352e-06
244	0xb3e7edfa	-1.08000634e-07
245	0xb4aa2017	-3.1688316e-07
246	0xb61872ed	-2.271666e-06
247	0xb5af83a0	-1.3076824e-06
248	0x3631d139	2.649684e-06
249	0x35cddb71	1.5337556e-06
250	0x33edb8f9	1.1069819e-07
251	0xb54e59e1	-7.687177e-07
252	0x343e4b52	1.772253e-07
253	0x35da7d4f	1.6278735e-06
254	0xb606442b	-2.0007235e-06
255	0x353e3885	7.086276e-07

fc.0.weight f4 [64, 64]
0	0x3d8b7098	0.06808585
1	0x3afcff8f	0.0019302237
2	0x3dbc1a96	0.09184758
3	0xbd77e26d	-0.06051867
4	0xbd834f9f	-0.06411671
5	0x3dbda6fa	0.09260364
6	0xbbaa1aef	-0.005191199
7	0x3c8d6df0	0.017264336
8	0xbd58bfc3	-0.052917253
9	0x3d894e3f	0.067043774
10	0x3d2d822a	0.042360462
11	0xbdd88782	-0.10572721
12	0xbda1124e	-0.078648195
13	0x3d1e1ad0	0.03859979
14	0x3cb4f962	0.022091571
15	0xbd3e16aa	-0.046408333
16	0xbdbf1a27	-0.0933116
17	0xbad58534	-0.0016290308
18	0x3dd480df	0.10376143
19	0x3d3f60d9	0.04672322
20	0xbdf5b36f	-0.11997115
21	0xbcdb8e2f	-0.026801197
22	0x3d1c4ccd	0.03815918
23	0x3dbb0071	0.091309436
24	0xbdb89577	-0.09012883
25	0xbcb9e188	-0.02269055
26	0x3d1fd7cd	0.039024163
27	0x3dc392b4	0.09549466
28	0xbd517657	-0.05113825
29	0xbca31a36	-0.01990996
30	0xbd9e1fb7	-0.07720893
31	0xbdc23918	-0.09483546
32	0x3dd20fe1	0.10256935
33	0xbd5cd588	-0.053914577
34	0xbdccf48e	-0.100075826
35	0x3da6062f	0.08106648
36	0x3d0751b1	0.03303689
37	0x3de75b48	0.112967074
38	0x3d929cf1	0.071588404
39	0xbd075f34	-0.033049777
40	0x3d81ba5f	0.063343756
41	0xbd51b4b7	-0.051197734
42	0xbc81cbc7	-0.015844239
43	0xbd835575	-0.06412784
44	0xbdf16855	-0.11787478
45	0x3d3deba0	0.046367288
46	0x3db9920a	0.09061058
47	0x3da5d210	0.08096707
48	0xbca8cd18	-0.020605609
49	0xbde76428	-0.112984
50	0x3da0a0c0	0.07843161
51	0x3d9cf2ab	0.07663473
52	0x3ccc244f	0.024919657
53	0xbdcaacc0	-0.09896231
54	0xbdfee568	-0.124460995
55	0xbd0a4a18	-0.033762068
56	0xbda74974	-0.08168307
57	0x3db9dd48	0.09075409
58	0x3d8b8dc6	0.068141505
59	0xbda4602b	-0.08026155
60	0xbdf1b73c	-0.11802527
61	0x3cb72abd	0.022359246
62	0xbdafd810	-0.085861325
63	0x3d11c560	0.035588622
64	0x3c91db82	0.017804865
65	0xbd83cca1	-0.06435514
66	0xbde22b06	-0.11043362
67	0x3c518aee	0.012789471
68	0xbdba61c5	-0.09100679
69	0xbb9e51af	-0.004831515
70	0x3ae882c0	0.0017739162
71	0xbcec4e89	-0.028846042
72	0x3dc8d2e4	0.09805849
73	0x3d42c7c3	0.04755379
74	0x3de493ee	0.11161028
75	0xbd2244da	-0.039616443
76	0x3df482e0	0.11939025
77	0x3da8b970	0.082384944
78	0xbda1566b	-0.07877811
79	0x3b3ba8d0	0.0028634556
80	0xbc20f32c	-0.009823602
81	0xbda129b7	-0.078692846
82	0xbdc7608b	-0.09735211
83	0x3de06f0a	0.10958679
84	0x3c2cc1e0	0.01054427
85	0xbdbb56b2	-0.09147395
86	0x3df02835	0.11726419
87	0xbd8273ef	-0.06369769
88	0xbdf07a6a	-0.11742099
89	0x3c472ecd	0.012157154
90	0xbd350456	-0.04419359
91	0xbdcd9af4	-0.100393206
92	0x3c853ff3	0.016265845
93	0x3d41b90d	0.04729562
94	0x3ccc19a4	0.02491457
95	0x3ab02f74	0.0013441877
96	0x3c4011d9	0.011723005
97	0xbd5f5f1f	-0.054534074
98	0x3cf3b145	0.029747615
99	0x3d4a3586	0.04936745
100	0x3d37fe88	0.044920474
101	0xbcd48ebc	-0.025946967
102	0xbc0d6541	-0.008630098
103	0xbd0ac266	-0.0338768
104	0x3d64b5af	0.05583733
105	0xbc8033aa	-0.015649635
106	0xbdb9c8ac	-0.09071478
107	0x3bfecfe6	0.0077762483
108	0xbd5c8bfa	-0.05384443
109	0xbd091793	-0.033469748
110	0xbd79a140	-0.060944796
111	0x3d2faf00	0.042891502
112	0xbc6675bc	-0.014066156
113	0x3db318c0	0.08744955
114	0xbde714cd	-0.11283264
115	0x3d45786f	0.048210558
116	0xbdd80b94	-0.10549083
117	0xbda325d7	-0.07966202
118	0x3c01ae6d	0.0079151215
119	0xbd03453c	-0.03204845
120	0x3cdd95ba	0.027048934
121	0xbda532e0	-0.08066344
122	0xbd82d8a3	-0.063889764
123	0xbd08e02f	-0.033416923
124	0xbde22767	-0.11042672
125	0x3dff6575	0.12470523
126	0x3df95d08	0.121759474
127	0xbdbec248	-0.093144
128	0x3d71ba3c	0.059015498
129	0xbdd2295d	-0.10261796
130	0xbdbf9ed3	-0.09356465
131	0x3dbb7dd5	0.0915486
132	0xbdcd4a3d	-0.100239255
133	0xbdfeb148	-0.124361575
134	0xbdc2a857	-0.095047645
135	0x3da0dddd	0.07854817
136	0x3c96569e	0.01835185
137	0x3d39c42e	0.045353107
138	0xbd579635	-0.052633483
139	0xbda0a80a	-0.07844551
140	0x3d9bfdfd	0.07616804
141	0xbd7f435a	-0.06232009
142	0xbb9b2cf3	-0.004735583
143	0x3bc2fe54	0.0059507284
144	0xbdfd12ab	-0.12357076
145	0xbd810c18	-0.06301135
146	0xbd069aa6	-0.032862328
147	0xbdba4f25	-0.09097127
148	0x3d3e47ae	0.046455078
149	0x3d98a7ae	0.07453857
150	0x3d4300d5	0.047608215
151	0xbd596f4d	-0.05308466
152	0xbdad0179	-0.084475465
153	0xbdbceffb	-0.0922546
154	0xbcb89577	-0.022532208
155	0xbd3f0f13	-0.046645235
156	0xbdeed999	-0.11662597
157	0xbdecd9f2	-0.11565007
158	0x3c98824f	0.018616823
159	0x3d4e76d9	0.05040631
160	0xbd599342	-0.05311895
161	0x3defbe07	0.11706167
162	0xbdaf25a5	-0.08552102
163	0xbc728c44	-0.01480395
164	0x3d421938	0.04738733
165	0x3d39b24d	0.045336057
166	0x3df6e5ee	0.12055574
167	0xbdd39b62	-0.10332371
168	0xbdc97722	-0.09837176
169	0x3d68b26f	0.056810793
170	0xbce63e81	-0.028105976
171	0xbd837d58	-0.06420392
172	0xbced462a	-0.02896412
173	0x3d708879	0.0587239
174	0x3c61193c	0.0137389265
175	0xbdf63656	-0.120220825
176	0x3d3d1458	0.04616198
177	0x3c57b4b7	0.013165644
178	0xbd1a9c92	-0.037746973
179	0x3d83cceb	0.064355694
180	0x3d3e9b6f	0.04653495
181	0x3d0e6957	0.03476843
182	0xbd1dc7cc	-0.03852062
183	0x3c781c89	0.015143522
184	0xbdbb13b5	-0.09134618
185	0x3cdaa862	0.02669162
186	0xb7a9fa79	-2.0263005e-05
187	0x3de3aa17	0.111164264
188	0x3d9570ba	0.072968915
189	0x3dcd4e83	0.100247405
190	0x3cb016ba	0.021495212
191	0x3d1a0ebd	0.03761171
192	0xbcac4958	-0.021031067
193	0xbd805652	-0.06266464
194	0xbbeaf2c6	-0.007170054
195	0xbcedb461	-0.029016675
196	0x3c579ebe	0.013160406
197	0xbd741454	-0.0595897
198	0xbde93f91	-0.113890775
199	0x3d530b46	0.051524423
200	0xbd7bdbce	-0.06148892
201	0xbde744d8	-0.11292428
202	0x3db69e17	0.08916872
203	0x3cea25be	0.02858245
204	0x3d9b098c	0.0757018
205	0xbd1861dc	-0.0372027
206	0xbd9253a8	-0.071448624
207	0xbd00027f	-0.03125238
208	0xbdaeb305	-0.08530239
209	0xbde71cbb	-0.11284777
210	0x3cc54f60	0.0240857
211	0x3cc2899c	0.023747258
212	0xbc437c16	-0.01193144
213	0x3db47096	0.088105366
214	0x3d90ce9f	0.0707066
215	0xbd64be0f	-0.055845316
216	0x3dff2a0a	0.1245919
217	0xbdb95e00	-0.09051132
218	0xbc03e07b	-0.008049126
219	0xbdd696e7	-0.10478001
220	0xbdec89cd	-0.11549721
221	0x3befe81f	0.007321372
222	0x3dd37956	0.10325877
223	0x3cf1b888	0.029506937
224	0x3d8070a6	0.06271486
225	0xbdb41dd0	-0.08794749
226	0xbc644e10	-0.013934627
227	0x3c394515	0.011307974
228	0xbd892720	-0.066969156
229	0x3daa19df	0.08305716
230	0xbcf51491	-0.029917033
231	0x3d13a8c2	0.036049612
232	0x3cf1acb7	0.029501302
233	0xbde74a58	-0.11293477
234	0x3d44fe92	0.04809434
235	0x3dd49f4b	0.10381945
236	0x3d8b692e	0.06807171
237	0xbd892061	-0.06695629
238	0x3dcb9143	0.09939816
239	0x3c877e00	0.016539574
240	0x3d482554	0.048863724
241	0xbdd5fc5b	-0.104485236
242	0xbd2ee495	-0.04269846
243	0x3dc21714	0.09477058
244	0x3d8d0232	0.06885184
245	0xbdd9de4b	-0.10638102
246	0x3d11963f	0.035543676
247	0xbd9bdc3f	-0.07610368
248	0xbd761c37	-0.0600855
249	0xbda9ddf1	-0.08294285
250	0x3c7a2f8a	0.015270123
251	0x3dc89400	0.09793854
252	0x3d9bab62	0.07601048
253	0x3d0cc9f6	0.034372292
254	0xbdbc17b0	-0.091842055
255	0x3d860a42	0.06544925

fc.0.bias f4 [64]
0	0x3cccf950	0.025021225
1	0xbdf3dce2	-0.119073644
2	0xbcac4e10	-0.021033317
3	0x3dea8370	0.11450851
4	0xbdf21f35	-0.118223585
5	0x3de80df2	0.11330785
6	0x3d0999d5	0.03359397
7	0x3c447e9f	0.011993079
8	0xbdeb48f7	-0.11488526
9	0xbd70148f	-0.058613356
10	0xbca7cc3c	-0.020483129
11	0x3cb05ef5	0.021529654
12	0xbd4579aa	-0.04821173
13	0xbd918f4e	-0.07107411
14	0x3d471efe	0.04861354
15	0xbca17561	-0.019709291
16	0xbdee0df8	-0.11623758
17	0xbd911f1c	-0.07086012
18	0x3dd40f51	0.10354484
19	0xbcbedfc2	-0.023300055
20	0xbd29cc89	-0.041454826
21	0xbc800bb7	-0.015630586
22	0x3ca0ec5d	0.019643957
23	0x3bfbf434	0.0076890234
24	0xbcc7a58a	-0.024370927
25	0xbde07e7f	-0.10961627
26	0x3da3b18f	0.07992851
27	0x3ca9699a	0.020680238
28	0xbd681cdf	-0.05666816
29	0xbdb2470a	-0.08704956
30	0xbd80474c	-0.06263599
31	0xbdd7e733	-0.105421446
32	0xbd5583f6	-0.0521278
33	0xbdf4b9e0	-0.11949515
34	0xbd6b3b48	-0.057429582
35	0xbd9d928a	-0.07693966
36	0x3d508360	0.05090654
37	0x3d2fcb1f	0.04291832
38	0xbd2bdc31	-0.041958038
39	0x3cab93a7	0.02094443
40	0xbca8b253	-0.020592844
41	0xbcb16ad4	-0.021657385
42	0x3ddd506d	0.108063556
43	0x3d9216de	0.07133268
44	0x3dab2d54	0.08358255
45	0x3dc0f653	0.094219826
46	0x36e8e614	6.9409234e-06
47	0x3d7f73b0	0.062366188
48	0xbd0eee2a	-0.0348951
49	0x3cb5f0f6	0.022209626
50	0xbd9b721f	-0.07590126
51	0x3dfec863	0.124405645
52	0x3c0ceba3	0.008601102
53	0x3ddee9f2	0.10884465
54	0x3cf68791	0.03009394
55	0x3deb7973	0.11497774
56	0x3ddc95db	0.1077077
57	0x3de40efc	0.111356705
58	0xbc8546e1	-0.01626915
59	0x3d17f92b	0.03710286
60	0xbd070986	-0.032968067
61	0x3dd1f5a5	0.10251931
62	0xbd178e66	-0.037001036
63	0x3d863674	0.06553355

output_layer.0.weight f4 [1, 64]
0	0x3dce8d24	0.10085514
1	0xbcd91931	-0.02650127
2	0x3da997f2	0.082809344
3	0xbd2829ea	-0.041055597
4	0xbde6f686	-0.11277489
5	0x3d8a3786	0.067488715
6	0x3cadfe1a	0.02123933
7	0xbda57dcb	-0.08080634
8	0x3bd35f82	0.0064505944
9	0x3ddf2200	0.10895157
10	0xbc00ce46	-0.007861679
11	0x3d60ebba	0.054912306
12	0x3dbcbb72	0.0921544
13	0x3ced6e2f	0.028983204
14	0xbcae79cb	-0.02129831
15	0x3df513f5	0.11966697
16	0xbc58888b	-0.013216148
17	0xbdb547b7	-0.08851569
18	0xbdae2fff	-0.08505248
19	0xbd9e2e2f	-0.077236526
20	0x3b062a99	0.0020472168
21	0x3de6df70	0.11273086
22	0xbd916d7a	-0.07100959
23	0x3d978767	0.07398873
24	0x3daeb4d0	0.08530581
25	0x3dc61198	0.096713245
26	0x3d21dad7	0.039515343
27	0x3c036753	0.00802024
28	0xba38f7f6	-0.0007055992
29	0xbdce5f28	-0.10076743
30	0xbd93f26f	-0.07223975
31	0x3d58b56f	0.052907404
32	0x3d9ea912	0.07747091
33	0xbd0634bb	-0.03276513
34	0x3c52a30d	0.012856257
35	0xbaeadd9d	-0.0017918829
36	0xbcd5b626	-0.026087832
37	0xbd8c2f4a	-0.06844957
38	0x3cf1850e	0.02948239
39	0xbd83db9f	-0.06438374
40	0x3ddd4d40	0.1080575
41	0xbd61a804	-0.055091873
42	0x3d7b0a0b	0.061288875
43	0xbd08850c	-0.03333001
44	0x3cc15eb6	0.023604732
45	0xbbae5d5c	-0.005321188
46	0xbdbbf840	-0.09178209
47	0x3c64e6a8	0.013971008
48	0xbda2e2b5	-0.07953397
49	0xbdd96db5	-0.10616628
50	0x3c8120c7	0.0157627
51	0x3caae6d1	0.020862015
52	0x3bd91e4d	0.0066259266
53	0xbd313915	-0.04326733
54	0xbcdaa86e	-0.026691642
55	0xbdc09910	-0.09404194
56	0xbd143424	-0.036182538
57	0xbc6b5fc0	-0.01436609
58	0x3d0dbf79	0.03460643
59	0xbdcbac36	-0.09944956
60	0x3d2cc01e	0.042175405
61	0xbd90fb95	-0.070792355
62	0x3d4bd1a0	0.04976046
63	0x3dc93aea	0.0982569
