Mask-test/model_epoch_1_180.pth (torch, 154675 bytes, 7 tensors)

embedding.0.weight f4 [64, 7]
00000000: 7c06 d1bd d21c 83be 54c7 2a3e b3a3 873e
00000010: 6a76 8e3e 5237 bb3e 2630 f4ba 7d35 b53d
00000020: 4bee 843e f388 a4be 893e f63d 5a45 3ebe
00000030: e26c 73bb 480a 653c 1d2e 9e3e 848f f03d
00000040: aac4 f6bd b234 8d3e 488b b2be a3e1 863e
00000050: 60d7 963e 9fa0 70bd 0083 f63d f74c b13e
00000060: 6b71 a4be 04ce 8cbe 3e0c 613e f401 1a3e
00000070: 152d 10be 3601 c03d 69a4 efbd 57ec bf3e
00000080: fbdb 923e 5f99 adbe 443a b23e fdfa 3c3d
00000090: 916d 87be 6391 37bd 4e8a c83d 9607 8abe
000000a0: 9b5d 68be cfbe 8d39 1221 493e 0f3a 5d3e
000000b0: c3af a83e ac57 b93e 6e9f afbe 8686 943d
000000c0: e135 b6bd 1231 d9bd cf7a 8dbb 7058 843d
000000d0: 1b7a 54bd 43cd 98be 3490 de3c 62c9 573e
000000e0: b2da 80be 3ad3 adbe 72c8 92be d2ac 1d3e
000000f0: 92e6 3d3e edaa afbe 93c6 a1bd a08d 77be
00000100: d625 813e b682 ff3c 91e8 b8bc 68e3 6d3d
00000110: eff0 053e b909 493e 01c8 7bbe 03bd 2dbd
00000120: 2533 593e 4b6f 9a3e 6bc3 ccbc 43db 9d3e
00000130: 5986 293e 1657 ea3c 075e 2ebe ef00 82be
00000140: 9135 a3be b64c 9d3b afd1 1abe 650e a93d
00000150: f104 98be 4d36 72be bdf6 bc3e dfa3 a83e
00000160: 79a8 3bbd c609 2fbd cd15 9c3e 833c 3bbe
00000170: 0522 70be 0d60 2fbe 3773 433e 1e5c 8abe
00000180: 4a1c 55be 1cbe 5f3e f2ac 123e 7579 85be
00000190: 647e 7abe 0baa 81be 6b78 8abe 8eb7 693e
000001a0: ea99 a13e b90a 0f3e dac5 393d 6e40 4c3e
000001b0: 918c 63be 14c6 443e 5ddd 843e 3287 19be
000001c0: 06ce 333c c4ab 663e 30ce 3abe 12d5 8d3e
000001d0: c97e 80be cb8a 89be 18a9 c0be 6fe5 ba3e
000001e0: 5c07 8bbe 2366 42be e177 98be 2d55 a33e
000001f0: e039 f63c b50f 8a3e 37f5 943b 31f4 62be
00000200: 701d a5be 0455 b3be dead 88be 17a0 103e
00000210: e601 973d 3480 b13e 8308 58bd ba1b a6be
00000220: 7864 06be e901 52be 23bf a9bd aec2 5b3d
00000230: 48d7 91be ca91 b43e 5a9f 643e d014 2f3e
00000240: 1bc7 40be 254d 923e 59c4 d6bd 238c d23d
00000250: 603d 81bd 85ee f9bc 8d0c a1be 2038 383e
00000260: 4518 973e a2fb 6c3e 2917 93bd e18d 2cbe
00000270: 0cc0 4b3e c711 883e 1ae8 993e 2e82 c1be
00000280: 62bd babd eb83 aabd 40e8 c23d 9380 aa3d
00000290: ab45 f73d d38c 2e3e ebe1 6d3d a863 b1be
000002a0: 431a 5e3e bd3c c03e f5ff 88be ef1e b33e
000002b0: 6796 b63e 8352 893e 0829 bc3d ad5c 6cbe
000002c0: 8853 16be 794a 9b3e 75f7 a23d c8b6 53bd
000002d0: c69d b1be 9249 b6be 48ff 3cbc deff 9e3e
000002e0: 602a a73d 3593 aa3d 5a43 f7bd 8f5f 813e
000002f0: 5742 b33e 0bfc d0bd 5115 99be 0852 d03d
00000300: 4e65 2cbe 99d8 bebe de59 023d 80a9 03bd
00000310: 200b 953e 5c30 0e3e 4ec4 99be 0fc2 993e
00000320: af3e 523e 626a 8d3d bac6 a6bd bbb8 383d
00000330: a843 6f3d c588 a2bd 81ec b13e 99af b03e
00000340: 0cc2 a5be fc95 b73d 1200 833e 1f8f 0c3e
00000350: 610a 6a3e 996a 103d 6ebd 383e 10ed b3bd
00000360: da79 4abc 8b5f 62be b73a 76bd 201a 9e3e
00000370: a807 a53e 5a22 1d3d 2380 3ebe b267 4e3e
00000380: d1b4 0e3d bb9b 8cbd aab0 43be fd64 89be
00000390: ecbb b2be 7039 95bd 485c 3cbd 6e14 87be
000003a0: 2bb8 9b3e 487f 2f3e 0c1c 81bd 1617 113d
000003b0: 84d5 93be f816 9dbe 0326 7abe b381 50bd
000003c0: c104 b23e 9d57 a2be 6297 0c3d 597e dc3c
000003d0: 166d 26be b8f7 c1bd a3f5 f4bd 9096 853c
000003e0: 4121 803d c572 94bd db7f b53d 973c 8c3e
000003f0: 3b9c ddbd 1fe4 71be 69d2 1abe 76c1 333d
-0.10206315 -0.25607926 0.166776 0.2649208 0.27824718 0.36565644 -0.0018630072 0.08848093
0.25963053 -0.32135734 0.120236464 -0.18581143 -0.0037143757 0.013979502 0.30894557 0.117461234
-0.120492294 0.27579266 -0.34871888 0.26344022 0.29461193 -0.05874693 0.12036705 0.34629032
-0.3211778 -0.27500927 0.21977326 0.15039808 -0.14079697 0.09375231 -0.117012806 0.37485
0.28683457 -0.33906075 0.34810078 0.0461378 -0.2645078 -0.044816386 0.097920045 -0.26958913
-0.22691958 0.0002703578 0.19641522 0.21604179 0.32946596 0.361997 -0.34301323 0.07252221
-0.08896995 -0.106050625 -0.0043176184 0.064621806 -0.05187426 -0.29844102 0.02716837 0.21072915
-0.2516685 -0.33950216 -0.28668553 0.15397957 0.18544987 -0.34310094 -0.07899203 -0.2417512
0.2522418 0.031190258 -0.022571834 0.0580782 0.1308019 0.19632615 -0.24588014 -0.042416584
0.21210916 0.30163035 -0.024995526 0.30831346 0.16555156 0.028605979 -0.17028056 -0.25391337
-0.31876805 0.0048004044 -0.1511905 0.08254699 -0.2969127 -0.23653527 0.36906996 0.32937524
-0.045814965 -0.04273393 0.30485383 -0.18284802 -0.23450477 -0.17126484 0.1908692 -0.27023405
-0.20811573 0.21849865 0.14323786 -0.26069227 -0.24462277 -0.25325045 -0.27044997 0.22823927
0.3156274 0.13968934 0.0453547 0.19946453 -0.2222159 0.19216186 0.25950137 -0.14992979
0.010974413 0.22526461 -0.18242717 0.27701622 -0.2509673 -0.26863703 -0.37629008 0.3650317
-0.27154052 -0.18984275 -0.2977896 0.3190092 0.030056894 0.2696511 0.0045458334 -0.22163464
-0.32249022 -0.350258 -0.2669515 0.1412357 0.07373409 0.34668124 -0.052742492 -0.3244303
-0.13124263 -0.20508541 -0.082884096 0.053652458 -0.2848456 0.35267478 0.22326413 0.17097783
-0.18825953 0.28574482 -0.10486669 0.10280635 -0.063105345 -0.030509243 -0.31454888 0.1799016
0.29510704 0.23142865 -0.07182152 -0.16850998 0.19897479 0.26576063 0.30059892 -0.37794632
-0.09118153 -0.083259426 0.095169544 0.08325305 0.12073835 0.17045908 0.05807678 -0.34646344
0.21689706 0.3754634 -0.2675778 0.34984538 0.35661623 0.26820764 0.091875136 -0.23082228
-0.14680302 0.30330256 0.07957355 -0.051687986 -0.34690684 -0.35603005 -0.011535473 0.31054586
0.08162379 0.08328859 -0.12073393 0.25268218 0.3501155 -0.102043234 -0.29899076 0.10171896
-0.1683552 -0.37274626 0.031823985 -0.03214407 0.2911005 0.13885635 -0.3003258 0.30030867
0.20531724 0.069050565 -0.08143373 0.045098048 0.05841413 -0.07936243 0.3475075 0.3450897
-0.3237461 0.08964154 0.2558599 0.13726471 0.22855522 0.03525791 0.18041012 -0.087854505
-0.012358153 -0.22106759 -0.06011459 0.30879307 0.32232404 0.03836284 -0.18603568 0.20156744
0.03484041 -0.06865641 -0.1911036 -0.2683486 -0.34908998 -0.07286346 -0.045986444 -0.26382774
0.30413947 0.17138398 -0.06304178 0.035422407 -0.28873837 -0.30681586 -0.24428563 -0.05090494
0.34769252 -0.3170747 0.034324057 0.026915716 -0.1625255 -0.09471077 -0.11960914 0.016307145
0.06256343 -0.07248453 0.08862277 0.27389976 -0.10820814 -0.23622178 -0.15119328 0.04388567

embedding.0.bias f4 [64]
00000000: 16c0 98bc 8028 f7bd d703 0ebe 68b2 a6be
00000010: 73d3 913c a93c 9fbe 474e 77bd 6ca7 163d
00000020: 50b1 a63e 68ec febb 6276 1a3e 22b5 babe
00000030: a02d c8bd b9cc 7ebd 3d0b 5e3e a9e4 c13e
00000040: 1412 603e 14f5 97be efef 1abe b4cb bc3d
00000050: 1392 733e 322c d63d a061 a3bd 375c 25be
00000060: 3171 d2bb 6c08 f33d 7b16 35be 9a14 7cbe
00000070: 6515 b23e 1150 8bbe ba7c b63d 1717 343e
00000080: 14ef 073e 556e b6be 0632 70be 1da2 693e
00000090: ef67 7e3e e7cb b3bc 5d98 1ebe ed5c a7be
000000a0: 686d 0bbc 9de7 7abe 1c27 04be 905c 87be
000000b0: b67b 3abe 6c1b 9bbd 3de2 583d 7193 80be
000000c0: d05f e4bd f1d2 bdbe c7b0 97be ca68 e03d
000000d0: 63a5 abbe 3d2f 23be bafc 82bd 831d a93d
000000e0: 6746 993e 08ac 893e f2df 9cbe 5f36 9f3e
000000f0: 3d65 bb3e de00 38be d267 133d 787d 8e3e
-0.018646281 -0.12068272 -0.13868652 -0.32557988 0.017801022 -0.31100968 -0.060377385 0.03678076
0.32557154 -0.0077796467 0.15084222 -0.36466318 -0.09774327 -0.062206957 0.21683975 0.37869766
0.21881896 -0.29679167 -0.1513059 0.09218541 0.23786192 0.10457648 -0.07977605 -0.16148458
-0.006422185 0.11866841 -0.17684357 -0.24617234 0.34781948 -0.27209523 0.089105085 0.17586933
0.13274795 -0.35631052 -0.23456582 0.22815748 0.24844335 -0.021947814 -0.1548781 -0.32688084
-0.008509971 -0.24502416 -0.12905544 -0.26437807 -0.18211254 -0.0757359 0.052950133 -0.2511249
-0.11151087 -0.37074998 -0.29627058 0.10957487 -0.33524618 -0.15935989 -0.0639586 0.08257582
0.29936525 0.26889062 -0.30639607 0.3109617 0.36600676 -0.17969081 0.035987683 0.278301

layernorm.weight f4 [259, 64]
00000000: 0300 803f f5ff 7f3f 4718 803f 2bf4 7f3f
00000010: 98b1 7f3f 0000 803f 0000 803f a3e2 7f3f
00000020: 0000 803f 6e10 803f b1f5 7f3f 0000 803f
00000030: 521c 803f 3607 803f a5f5 7f3f 0000 803f
00000040: 0000 803f 57dc 7f3f 0c00 803f fcff 7f3f
00000050: 0000 803f 5714 803f 0000 803f 0000 803f
00000060: 950e 803f 0800 803f 7511 803f 0000 803f
00000070: 0000 803f b0e1 7f3f 0000 803f 100d 803f
00000080: ffff 7f3f 0000 803f 0000 803f 0000 803f
00000090: 0000 803f 0000 803f 0000 803f 8fea 7f3f
000000a0: af07 803f 0000 803f 2f12 803f d0ff 7f3f
000000b0: 0000 803f 0000 803f a6c5 7f3f 0000 803f
000000c0: 62e2 7f3f 6ef2 7f3f 0000 803f cc01 803f
000000d0: 0400 803f 0000 803f 0000 803f b0ea 7f3f
000000e0: 33f4 7f3f 0000 803f 7c01 803f 0000 803f
000000f0: 1b01 803f 0000 803f 0000 803f 130f 803f
00000100: e9ff 7f3f fcff 7f3f 2210 803f f8fd 7f3f
00000110: 8dd2 7f3f 0000 803f 0000 803f 5cef 7f3f
00000120: 0000 803f b50b 803f 51fd 7f3f 0000 803f
00000130: 2912 803f 0a00 803f 0500 803f f8ff 7f3f
00000140: 0000 803f d0f7 7f3f dcff 7f3f 0000 803f
00000150: 0000 803f 4b05 803f 0000 803f 0000 803f
00000160: 3d0b 803f f6ff 7f3f 5506 803f 0000 803f
00000170: 0000 803f 4bea 7f3f 0000 803f 5c03 803f
00000180: ffff 7f3f 0000 803f 0000 803f 0000 803f
00000190: 0000 803f 0000 803f 0000 803f 02f4 7f3f
000001a0: 2906 803f 0000 803f d308 803f b2ff 7f3f
000001b0: 0000 803f 0000 803f 32df 7f3f 0000 803f
000001c0: 21f1 7f3f 0100 803f 0000 803f 0200 803f
000001d0: ebff 7f3f 0000 803f 0000 803f b7f6 7f3f
000001e0: 1200 803f 0000 803f 0200 803f 0000 803f
000001f0: 0900 803f ffff 7f3f 0000 803f 0a03 803f
00000200: 0300 803f f6ff 7f3f 230c 803f 6af6 7f3f
00000210: c6d1 7f3f 0000 803f 0000 803f f4f0 7f3f
00000220: 0000 803f 4a07 803f 0af8 7f3f 0000 803f
00000230: f814 803f bd04 803f e3f6 7f3f 0000 803f
00000240: 0000 803f 6ae6 7f3f 0200 803f feff 7f3f
00000250: 0000 803f 620e 803f ffff 7f3f 0000 803f
00000260: d508 803f 0500 803f ef09 803f 0000 803f
00000270: 0000 803f b8ed 7f3f ffff 7f3f 1c0a 803f
00000280: ffff 7f3f 0000 803f 0000 803f 0000 803f
00000290: 0000 803f 0000 803f 0000 803f bfee 7f3f
000002a0: 3802 803f 0000 803f bb0b 803f 11ff 7f3f
000002b0: 0000 803f 0000 803f f1e3 7f3f 0000 803f
000002c0: 6af4 7f3f 30f5 7f3f 0000 803f d200 803f
000002d0: 0400 803f 0000 803f 0000 803f baf1 7f3f
000002e0: 5df8 7f3f 0000 803f d900 803f 0000 803f
000002f0: 6e00 803f b4ff 7f3f 0000 803f 5509 803f
00000300: d5ff 7f3f f9ff 7f3f 5c0b 803f cefe 7f3f
00000310: 18e5 7f3f 0000 803f 0000 803f 91f3 7f3f
00000320: 0000 803f 170a 803f 88fe 7f3f 0000 803f
00000330: 170c 803f 0c00 803f fcff 7f3f 0000 803f
00000340: 0000 803f a5fc 7f3f ecff 7f3f 0000 803f
00000350: 0000 803f ac03 803f ffff 7f3f 0000 803f
00000360: 6009 803f fdff 7f3f 8b04 803f 0000 803f
00000370: 0000 803f 41f2 7f3f feff 7f3f 0002 803f
00000380: 0000 803f 0000 803f 0000 803f 0000 803f
00000390: 0000 803f 0000 803f 0000 803f 63f9 7f3f
000003a0: ce05 803f 0000 803f ee05 803f c6ff 7f3f
000003b0: 0000 803f 0000 803f afed 7f3f 0000 803f
000003c0: 88f5 7f3f 0fff 7f3f 0000 803f 0200 803f
000003d0: f7ff 7f3f 0000 803f 0000 803f 79fb 7f3f
000003e0: 0600 803f 0000 803f 0200 803f 0000 803f
000003f0: 0600 803f a9ff 7f3f 0000 803f 0002 803f
1.0000004 0.99999934 1.0007409 0.99981946 0.9988036 1.0 1.0 0.99955195
1.0 1.0005014 0.9998427 1.0 1.0008643 1.0002201 0.999842 1.0
1.0 0.99945587 1.0000014 0.99999976 1.0 1.0006207 1.0 1.0
1.000445 1.000001 1.0005327 1.0 1.0 0.99953747 1.0 1.0003986
0.99999994 1.0 1.0 1.0 1.0 1.0 1.0 0.99967283
1.0002345 1.0 1.0005549 0.99999714 1.0 1.0 0.9991096 1.0
0.9995481 0.99979293 1.0 1.0000548 1.0000005 1.0 1.0 0.9996748
0.99981993 1.0 1.0000453 1.0 1.0000337 1.0 1.0 1.00046
0.9999986 0.99999976 1.0004923 0.999969 0.9993065 1.0 1.0 0.9997461
1.0 1.0003573 0.99995905 1.0 1.0005542 1.0000012 1.0000006 0.9999995
1.0 0.99987507 0.99999785 1.0 1.0 1.0001615 1.0 1.0
1.000343 0.9999994 1.0001932 1.0 1.0 0.9996688 1.0 1.0001025
0.99999994 1.0 1.0 1.0 1.0 1.0 1.0 0.999817
1.000188 1.0 1.0002693 0.99999535 1.0 1.0 0.99949944 1.0
0.9997731 1.0000001 1.0 1.0000002 0.99999875 1.0 1.0 0.9998583
1.0000021 1.0 1.0000002 1.0 1.0000011 0.99999994 1.0 1.0000927
1.0000004 0.9999994 1.0003704 0.99985373 0.99929464 1.0 1.0 0.9997704
1.0 1.0002224 0.9998785 1.0 1.0006399 1.0001446 0.99986094 1.0
1.0 0.9996096 1.0000002 0.9999999 1.0 1.0004389 0.99999994 1.0
1.0002695 1.0000006 1.0003031 1.0 1.0 0.99972105 0.99999994 1.0003085
0.99999994 1.0 1.0 1.0 1.0 1.0 1.0 0.9997367
1.0000677 1.0 1.000358 0.99998575 1.0 1.0 0.99957186 1.0
0.9998232 0.999835 1.0 1.000025 1.0000005 1.0 1.0 0.9997822
0.9998835 1.0 1.0000259 1.0 1.0000131 0.99999547 1.0 1.0002848
0.99999744 0.9999996 1.0003467 0.99998176 0.99958944 1.0 1.0 0.9998103
1.0 1.0003079 0.9999776 1.0 1.000369 1.0000014 0.99999976 1.0
1.0 0.9999488 0.9999988 1.0 1.0 1.000112 0.99999994 1.0
1.0002861 0.9999998 1.0001386 1.0 1.0 0.99979025 0.9999999 1.000061
1.0 1.0 1.0 1.0 1.0 1.0 1.0 0.9998991
1.0001771 1.0 1.000181 0.99999654 1.0 1.0 0.9997205 1.0
0.99984026 0.99998564 1.0 1.0000002 0.99999946 1.0 1.0 0.9999309
1.0000007 1.0 1.0000002 1.0 1.0000007 0.9999948 1.0 1.000061

layernorm.bias f4 [259, 64]
00000000: 75d1 1237 87e3 abb6 9ea3 5c37 fe5b 96b6
00000010: 051f 93b7 de05 4937 e1cd 6436 d6bf 4bb7
00000020: 1fd7 ffb6 758f 1437 d32b 5736 2a25 4f37
00000030: 497d 8537 19bc 4137 81c6 9736 5a3e 8937
00000040: fdc3 c933 1b32 72b7 9321 3eb7 490c 81b7
00000050: 55b7 c7b6 af80 aa37 7b52 95b7 f80f e536
00000060: 1586 f736 db0d 5f37 40d3 2337 dd78 7db6
00000070: 6212 1ab6 a956 b7b7 9c90 64b7 b564 8636
00000080: 2a9a 8b37 3ccc 8eb7 70f4 c7b6 fe0f 7db6
00000090: 2592 04b7 5fc2 08b7 70e5 dbb4 73fd 0235
000000a0: d868 1237 9fc0 fcb6 c871 7937 9d2a 9f36
000000b0: 8b68 2436 6e22 b036 d301 efb6 70d7 a335
000000c0: 25fe 4cb7 28f2 b7b6 da28 1937 3f8d f836
000000d0: dff5 0136 8b12 28b6 d94c 0bb7 26b7 53b7
000000e0: 6a0a d436 d284 4b36 a789 9a36 6ce0 87b7
000000f0: 3090 8d36 ee76 58b6 219a 0cb6 75c7 7c37
00000100: ead3 2337 5b4e a6b6 c28a 5b37 130e 08b7
00000110: e9d2 a9b7 8089 6137 2b34 1fb5 8401 64b7
00000120: 86a0 a5b6 4bdd 5737 6423 4e36 2f69 5236
00000130: 5b09 4a37 f411 5737 e1fc 9e35 6417 8237
00000140: e095 9db5 e03d 53b7 a43d 08b7 f9d4 73b7
00000150: edf9 2cb7 6992 8c37 6017 64b7 8184 4937
00000160: 030d ea36 8bbd 8737 2fa6 2737 7a1b 16b5
00000170: 22b1 2eb6 584b c8b7 ce3f 5eb7 dad2 7236
00000180: 1e69 ad37 bf8d 60b7 2c38 56b6 12b2 cb35
00000190: ab4d d5b6 4c38 75b6 1740 1f35 7993 bcb6
000001a0: fff8 4037 de59 cdb6 98ef 5d37 e9ae 4e36
000001b0: 4a64 17b6 ba80 fd36 fe75 10b7 39a8 8736
000001c0: 7bd1 5bb7 b34e 20b7 27d4 2437 1262 f436
000001d0: 4b1d d835 469b cfb6 0af7 37b7 eef7 88b7
000001e0: 9156 5036 0e4e 7636 9b5b 1a37 0fa4 8eb7
000001f0: 6b2e 4435 9411 d9b6 4a86 7ab3 5c4f 8037
00000200: 1054 ca36 c960 a6b6 289e 4937 8458 c0b6
00000210: d75b 98b7 b415 6137 793f 9336 3eed 62b7
00000220: c2a5 dab6 976c 0437 3f6d 3db4 d8e0 3e37
00000230: 3d20 8937 e6db 5937 a149 bb36 bd86 8937
00000240: 9169 e535 fe52 92b7 81ed 4eb7 4b74 70b7
00000250: a2a5 0fb7 8379 b137 7fb0 a7b7 6f7c 0737
00000260: 3ac4 c336 bcef 7e37 a8d3 c836 21c7 aeb6
00000270: 3c31 00b6 2a09 b5b7 fd83 80b7 aa22 0037
00000280: bb53 9937 d035 64b7 7b38 ebb4 a02b 6eb5
00000290: dba4 32b7 13e4 2fb7 e6ab 8035 8c75 26b5
000002a0: 3038 3e37 c779 0bb7 ec03 6b37 f277 c736
000002b0: f722 a435 cecd ee36 b7eb 3ab7 1b63 d634
000002c0: 40fb 57b7 5a1f a8b6 9d79 1337 f5a5 c636
000002d0: ed12 0437 c313 7db6 d573 f0b6 e08c 62b7
000002e0: fd39 d236 c1c3 4236 b0a2 0737 7407 77b7
000002f0: 922c a935 af94 b8b6 4cb8 1f35 17a0 8d37
00000300: 15b0 3537 735e a8b6 84b5 8037 f09a 29b7
00000310: bebb cfb7 a414 8137 0335 ae36 b2a7 0fb7
00000320: 9d39 cbb6 029c 0537 547b fdb5 848e 3936
00000330: 511a 8e37 b62d 4637 d932 45b6 e4d7 1d37
00000340: 0e9b 9136 9c43 6cb7 3618 56b7 6335 29b7
00000350: 7552 bdb6 587d a337 70b2 2eb7 0755 4437
00000360: 0ebb a136 bf22 9537 b805 0a37 0d4f 2832
00000370: b544 23b6 b3de b7b7 ff57 9bb7 5060 b136
00000380: f92b 8c37 d64c 41b7 46e2 9bb6 2bc8 c136
00000390: 97a6 d5b6 7d70 c5b6 ee64 5d36 be63 adb6
000003a0: 18b7 2637 b1d2 a5b6 a789 ff36 073b 3ab6
000003b0: 8fc0 8db5 1add 2337 63b4 3ab7 7594 5236
000003c0: 534d 03b7 9c8a 24b7 166f 3337 7c8e 9136
000003d0: e258 0e35 3a61 e4b6 c771 14b7 93f3 a6b7
000003e0: 00bc 6136 edc2 5236 fdab 8536 519f 5db7
000003f0: 1ff2 a336 7862 f9b6 5663 1c36 2c19 9137
8.751046e-06 -5.122685e-06 1.3151117e-05 -4.4810577e-06 -1.753821e-05 1.19819e-05 3.4094485e-06 -1.2144408e-05
-7.6246356e-06 8.854889e-06 3.2063006e-06 1.2346814e-05 1.5913176e-05 1.1547491e-05 4.5232596e-06 1.6360707e-05
9.395442e-08 -1.443599e-05 -1.13327e-05 -1.5383719e-05 -5.952005e-06 2.0325502e-05 -1.7800592e-05 6.826591e-06
7.376783e-06 1.3295062e-05 9.764743e-06 -3.777029e-06 -2.2958488e-06 -2.1855654e-05 -1.36235285e-05 4.005235e-06
1.664188e-05 -1.7022823e-05 -5.9591184e-06 -3.7709246e-06 -7.90184e-06 -8.151487e-06 -4.0958867e-07 4.879759e-07
8.726689e-06 -7.5326093e-06 1.4868048e-05 4.74353e-06 2.4498756e-06 5.249217e-06 -7.1229674e-06 1.2207147e-06
-1.221852e-05 -5.4820157e-06 9.129022e-06 7.407419e-06 1.9365614e-06 -2.5044744e-06 -8.302938e-06 -1.2619223e-05
6.3193047e-06 3.0326669e-06 4.6055825e-06 -1.6197759e-05 4.218913e-06 -3.2255734e-06 -2.095134e-06 1.506681e-05
9.764897e-06 -4.9563073e-06 1.3085724e-05 -8.109509e-06 -2.0244583e-05 1.3443059e-05 -5.930803e-07 -1.3590212e-05
-4.9360706e-06 1.2866522e-05 3.0716992e-06 3.1353663e-06 1.20423165e-05 1.2819179e-05 1.1845515e-06 1.55081e-05
-1.1741031e-06 -1.2590986e-05 -8.1205835e-06 -1.4533515e-05 -1.0310189e-05 1.6757478e-05 -1.3595301e-05 1.2011385e-05
6.975258e-06 1.6181517e-05 9.992668e-06 -5.591934e-07 -2.6031125e-06 -2.3876943e-05 -1.3247087e-05 3.6183542e-06
2.0672156e-05 -1.3384443e-05 -3.1921181e-06 1.5176504e-06 -6.3569364e-06 -3.6540614e-06 5.932538e-07 -5.6200047e-06
1.1502066e-05 -6.119938e-06 1.3228411e-05 3.0798203e-06 -2.255913e-06 7.5549733e-06 -8.610541e-06 4.042897e-06
-1.3102191e-05 -9.555067e-06 9.824557e-06 7.2831835e-06 1.610178e-06 -6.187157e-06 -1.0965168e-05 -1.6327915e-05
3.1044804e-06 3.670229e-06 9.200444e-06 -1.7004115e-05 7.3083237e-07 -6.4691503e-06 -5.8329796e-08 1.5295744e-05
6.0298553e-06 -4.958453e-06 1.2017357e-05 -5.7323505e-06 -1.8162578e-05 1.3416098e-05 4.3883306e-06 -1.3525887e-05
-6.516203e-06 7.893096e-06 -1.764174e-07 1.1377233e-05 1.6346685e-05 1.2985407e-05 5.581606e-06 1.6394415e-05
1.7092553e-06 -1.7443203e-05 -1.2333855e-05 -1.4332191e-05 -8.562029e-06 2.1156628e-05 -1.9990139e-05 8.075599e-06
5.8342966e-06 1.5195397e-05 5.9851045e-06 -5.2087858e-06 -1.9102145e-06 -2.1581149e-05 -1.532025e-05 7.637465e-06
1.8278011e-05 -1.3602388e-05 -4.3813256e-07 -8.872539e-07 -1.064801e-05 -1.04839155e-05 9.586772e-07 -6.201087e-07
1.1337965e-05 -8.313399e-06 1.4008005e-05 5.9446256e-06 1.2229128e-06 7.1169115e-06 -1.1141346e-05 3.9932715e-07
-1.2873497e-05 -5.01044e-06 8.790198e-06 5.92018e-06 7.87222e-06 -3.771144e-06 -7.166042e-06 -1.350345e-05
6.2652384e-06 2.9022196e-06 8.084506e-06 -1.4724083e-05 1.2604453e-06 -5.5009364e-06 5.9500303e-07 1.6883057e-05
1.0829438e-05 -5.0177855e-06 1.5343314e-05 -1.0109259e-05 -2.4763747e-05 1.538761e-05 5.1917755e-06 -8.562509e-06
-6.0565785e-06 7.963741e-06 -1.8885862e-06 2.7650103e-06 1.6939974e-05 1.1812363e-05 -2.9384885e-06 9.408195e-06
4.3393875e-06 -1.4082438e-05 -1.2761031e-05 -1.0085615e-05 -5.642238e-06 1.9489482e-05 -1.0412754e-05 1.1702307e-05
4.81995e-06 1.7778364e-05 8.2267725e-06 9.796861e-09 -2.4328886e-06 -2.1919002e-05 -1.8518416e-05 5.2862233e-06
1.6709777e-05 -1.1521586e-05 -4.6457017e-06 5.775151e-06 -6.3672883e-06 -5.884153e-06 3.2990315e-06 -5.1674133e-06
9.937001e-06 -4.941911e-06 7.615617e-06 -2.7750518e-06 -1.056136e-06 9.767036e-06 -1.11284635e-05 3.1378852e-06
-7.826212e-06 -9.807434e-06 1.0695096e-05 4.337924e-06 5.3028464e-07 -6.806248e-06 -8.847978e-06 -1.9902165e-05
3.3637043e-06 3.14059e-06 3.983731e-06 -1.320972e-05 4.885965e-06 -7.4322415e-06 2.3303633e-06 1.7297069e-05

fc.0.weight f4 [64, 64]
00000000: e110 8b3d f2ca d93a 48df bb3d 4b2a 77bd
00000010: 11c1 83bd fbac bd3d 0297 c9bb 892e 913c
00000020: 85e1 57bd 7ea2 893d 5cfb 2c3d bf46 d8bd
00000030: 2708 a1bd 4b35 1f3d f424 bc3c 5f41 3cbd
00000040: ad9d bfbd 5261 84ba afc1 d43d c379 403d
00000050: ce5d f6bd 8868 d7bc 4177 1a3d 3dce ba3d
00000060: bc14 babd 6a30 b9bc 3e39 203d 7fd3 c33d
00000070: 13b4 52bd 80cd a6bc 7d42 9ebd 8c74 c2bd
00000080: ac8d d23d 044f 5cbd c4b3 ccbd f153 a73d
00000090: 79b2 083d ba6c e63d bbdd 923d dc42 08bd
000000a0: 3b22 803d ef31 51bd 7b49 81bc d3e6 83bd
000000b0: 8a27 f1bd 2bdc 3c3d 40e4 b83d 5912 a63d
000000c0: e67e a6bc 799d e6bd 93b6 9f3d 0700 9d3d
000000d0: 6290 ce3c e063 cabd 3bc3 febd 8cc7 0abd
000000e0: cff2 a5bd 1f2f ba3d 7829 8c3d 0698 a3bd
000000f0: 36e4 f0bd 5e7d b73c 568a afbd df90 133d
00000100: 5e94 923c ac90 83bd 0507 e2bd 2c16 543c
00000110: 714f babd 3f9b 99bb d8ec eb3a 491e ebbc
00000120: d6e9 c83d 745d 433d 099d e43d cea1 21bd
00000130: bda1 f43d b1f6 a83d ec25 a1bd 1ec0 3e3b
00000140: c2df 20bc 6ed8 a0bd 420f c7bd a9b2 e03d
00000150: ffdb 2c3c 0715 bbbd b553 f03d b037 82bd
00000160: 7267 f0bd 1dcc 483c d993 34bd b449 cdbd
00000170: 4bfb 843c fdf1 413d 96f0 cc3c 5885 b03a
00000180: 03ff 413c 01c3 5ebd 58f7 f43c e483 4a3d
00000190: 5f56 383d 70f2 d3bc f4d8 0abc e783 0abd
000001a0: 5fde 643d 24db 7dbc 0b8c b9bd f21e 013c
000001b0: efe8 5bbd d5b1 08bd 418b 79bd e051 303d
000001c0: 40f5 63bc 086a b33d 34e0 e6bd a8b2 453d
000001d0: 7bdb d7bd 91d4 a2bd 1bee 033c c3e3 02bd
000001e0: 6dfb dd3c 5815 a5bd b088 82bd 639c 08bd
000001f0: 2924 e2bd dfa8 ff3d f2a6 f93d 9b9a bebd
00000200: a3c7 713d ac25 d2bd 6b9a bfbd 2184 bb3d
00000210: 973e cdbd 57aa febd aea5 c2bd 25f3 a03d
00000220: ec62 983c 55cb 393d fb17 57bd 16a1 a0bd
00000230: ca04 9c3d d835 7fbd 668c 95bb 8970 cc3b
00000240: 10bc fcbd 2805 81bd f78c 06bd 6c24 babd
00000250: 0700 3f3d 28d6 983d 360e 433d 1064 59bd
00000260: 3000 adbd edbb bcbd 4e8b b8bc 5901 3fbd
00000270: 7550 eebd cad4 ecbd a31e 993c 8808 4f3d
00000280: 7520 59bd d1c1 ef3d ad1e afbd e79b 6fbc
00000290: 41e4 423d 4ebf 393d e5ec f63d 7e94 d3bd
000002a0: ad74 c9bd 1dc0 683d 5526 e6bc c878 83bd
000002b0: 222a edbc af92 703d c5ce 613c 662f f6bd
000002c0: 441d 3d3d 38ed 573c 6497 1abd 46fb 833d
000002d0: 25a9 3e3d c676 0e3d 31bc 1dbd 4a51 793c
000002e0: 839a babd a75d dc3c 3308 02b7 1e27 e43d
000002f0: c601 963d f251 cd3d 6a67 b03c 7ded 1a3d
00000300: 813a aabc b600 80bd e8ae eabb 7c14 ebbc
00000310: df93 563c 22b4 73bd a931 e9bd 8788 523d
00000320: a0d8 7bbd 75dc e6bd c039 b63d a94a ea3c
00000330: d58b 9b3d 5c2d 18bd a504 93bd 6c93 00bd
00000340: 1f65 afbd 3391 e7bd 5d74 c53c 791f c23c
00000350: 3201 44bc 261f b43d 4d78 913d 2f92 65bd
00000360: ca72 ff3d a54a b9bd 205f 00bc ad8c d6bd
00000370: 01eb ecbd e92b ee3b b993 d33d 43fb ef3c
00000380: 145f 803d 2612 b4bd d402 64bc 5be1 363c
00000390: 9551 89bd e9c0 a93d a9ef f4bc 76e4 143d
000003a0: cb26 f23c 1d40 e7bd 5308 453d dece d43d
000003b0: 0574 8b3d 776a 89bd 91a3 cb3d c7a2 873c
000003c0: 0941 493d 2833 d6bd 2302 2ebd acf5 c13d
000003d0: a442 8d3d 1f95 d9bd 35ec 103d c486 9bbd
000003e0: c294 76bd dbce a9bd 2b7d 7b3c c253 c83d
000003f0: 5464 9b3d 3488 0c3d d75b bcbd 27c7 863d
0.06790329 0.0016616269 0.09173447 -0.060343068 -0.06433309 0.09261509 -0.0061520347 0.017722385
-0.052705307 0.06720446 0.042231902 -0.10560369 -0.07862883 0.038869184 0.02296684 -0.04596078
-0.09356246 -0.0010099804 0.10388505 0.04699112 -0.120296106 -0.026294962 0.037711386 0.09121368
-0.09085986 -0.022606093 0.03911709 0.09561824 -0.051441263 -0.020361662 -0.077275254 -0.09494886
0.10280928 -0.053786293 -0.09995225 0.081703074 0.03337333 0.11251207 0.07171198 -0.033266887
0.06256529 -0.05107301 -0.015782109 -0.064405106 -0.117751196 0.046108406 0.0902791 0.08108968
-0.020324182 -0.11260504 0.07798495 0.07666021 0.025215331 -0.09882331 -0.12439581 -0.03388171
-0.08102953 0.09091019 0.06843847 -0.079879805 -0.11762278 0.022398647 -0.08571307 0.03602683
0.017893013 -0.06424078 -0.11036495 0.012944739 -0.090971835 -0.004687696 0.0017999662 -0.028700965
0.09810226 0.047696546 0.111627646 -0.03946095 0.11944912 0.08250178 -0.07868561 0.002910621
-0.009818973 -0.07853781 -0.09719707 0.10971577 0.010550498 -0.0913487 0.11734716 -0.06358278
-0.11738481 0.012255696 -0.04408631 -0.100238234 0.016233107 0.04734992 0.025017064 0.0013467474
0.011840585 -0.05438519 0.029903099 0.049442187 0.045004245 -0.02587244 -0.008474577 -0.033817198
0.055876132 -0.015494142 -0.09059914 0.007880913 -0.05368894 -0.03337272 -0.06092382 0.043046832
-0.013913453 0.08760458 -0.11273232 0.048266083 -0.105399095 -0.079507 0.008052374 -0.03195549
0.027097428 -0.080607116 -0.06373727 -0.033352267 -0.11042053 0.124833815 0.121900454 -0.093068324
0.05902828 -0.102610916 -0.09355625 0.09156061 -0.10021704 -0.124348335 -0.09504257 0.07858876
0.018601857 0.04535993 -0.052513104 -0.07843225 0.07618101 -0.06230721 -0.004563856 0.006239001
-0.123405576 -0.062998116 -0.03284928 -0.09088978 0.046630885 0.07462722 0.047620974 -0.053073943
-0.084473014 -0.092155315 -0.022527363 -0.046632145 -0.1163644 -0.11564024 0.018691367 0.050545245
-0.05300947 0.117068894 -0.08550773 -0.014624572 0.04758096 0.045348458 0.12056903 -0.10331057
-0.09836707 0.05682384 -0.02809445 -0.064195216 -0.028950755 0.05873364 0.013782208 -0.12020759
0.046170488 0.013179116 -0.037742034 0.06444411 0.046548028 0.03478124 -0.03850955 0.015217135
-0.09111502 0.026900126 -7.750513e-06 0.111402735 0.07324557 0.100253955 0.021533687 0.037824143
-0.02077985 -0.062501356 -0.0071619637 -0.028696291 0.013096779 -0.05949796 -0.11386425 0.051399734
-0.061485887 -0.112725176 0.08897734 0.028600054 0.0759503 -0.037152633 -0.0717862 -0.031390592
-0.08564209 -0.113069914 0.024103338 0.023696648 -0.011963176 0.087950036 0.07103024 -0.056047615
0.12473066 -0.090474404 -0.00783518 -0.104760505 -0.11568261 0.007268418 0.1033091 0.029294616
0.06268135 -0.08792524 -0.01391669 0.011162127 -0.06705014 0.08288748 -0.029899435 0.03635069
0.029559514 -0.112915255 0.04810364 0.10391019 0.06809238 -0.0670976 0.09943307 0.01655711
0.049134288 -0.10458976 -0.042482506 0.09470686 0.06897476 -0.10624146 0.035381515 -0.07594064
-0.06020046 -0.08291408 0.015349667 0.097816005 0.075874954 0.03430958 -0.091972046 0.06580954

fc.0.bias f4 [64]
00000000: 562e d33c e2bf f5bd 0016 a3bc 610f e93d
00000010: 107b f1bd 785e eb3d a03a 0b3d d422 393c
00000020: 5dc0 ebbd 4ba9 77bd 6e3e a8bc 57b6 b73c
00000030: dc8f 48bd 156f 91bd 9072 493d d14d 9fbc
00000040: 86fc edbd 65dc 91bd 1bf2 d03d 689f bfbc
00000050: 9cb5 29bd e2b7 7fbc 1e46 9e3c 2edb 153c
00000060: 2e94 d3bc 4d0c debd b56f a53d f16e a93c
00000070: 15f9 67bd 4e07 b4bd 2958 80bd 1a94 d7bd
00000080: 7bc4 52bd 4ccc f4bd 483b 6bbd 559f 9dbd
00000090: 6acc 4e3d bc91 293d 6834 2bbd 62d6 a33c
000000a0: 0acd 9cbc 1721 babc 3667 df3d 9106 913d
000000b0: a024 ac3d 6cea c03d 556a c3b9 44bb 803d
000000c0: 32d9 0ebd e70f a83c b615 9bbd fa05 003e
000000d0: 23f6 0d3c d4a5 dd3d fb1a f33c 98f9 ea3d
000000e0: f2a0 db3d d5f8 e33d 9548 8bbc dde5 103d
000000f0: 25eb 06bd 1919 ce3d a740 14bd 4fd0 883d
0.02577893 -0.11999489 -0.019907951 0.113798864 -0.117910504 0.11492628 0.033991456 0.011299808
-0.115113 -0.060464185 -0.020537581 0.022425814 -0.04896532 -0.07101265 0.04918152 -0.019446285
-0.11620431 -0.07122115 0.10202428 -0.02339144 -0.04143296 -0.015607806 0.019320544 0.009146495
-0.025827494 -0.1084219 0.08077947 0.020682784 -0.056634028 -0.08790456 -0.06266815 -0.10526295
-0.05145691 -0.11953029 -0.057429582 -0.07696406 0.050487913 0.04139875 -0.041798025 0.019999687
-0.019140739 -0.022720857 0.10908358 0.070813306 0.08405423 0.094197124 -0.00037272522 0.06285718
-0.034875102 0.020515395 -0.075725004 0.1250228 0.008664641 0.10822645 0.029675951 0.114733875
0.10724057 0.11131445 -0.017002383 0.035375465 -0.032939095 0.10063381 -0.03619447 0.06680357

output_layer.0.weight f4 [1, 64]
00000000: aba1 c03d 8017 02bd 2469 a83d fc92 47bd
00000010: e71d e0bd 28a3 883d e54d b03c c00e a4bd
00000020: 75d7 ba3b ecb9 d93d 35d9 debb f74b 683d
00000030: 4b9c b33d 33e6 f53c 39ac 6abc e5c5 f83d
00000040: 1bf8 9ebb 7630 aabd 9020 aebd b32a 9fbd
00000050: b21f 893b 404c ef3d 0668 a4bd c991 a93d
00000060: 51f7 ad3d 2e10 bb3d 5452 0e3d 11c5 eb3b
00000070: 4466 863b 36cc cfbd 87eb 96bd dba5 643d
00000080: d014 9b3d 846e 09bd 7669 443c d387 cb3a
00000090: 8867 dcbc 9ec4 7cbd c9ac e03c dd23 93bd
000000a0: fed6 d63d 38c1 64bd e796 7f3d c3a1 02bd
000000b0: 2fb3 cd3c ced2 68ba 7bb8 babd 67da 853c
000000c0: 81a4 b1bd 5bd3 d8bd f939 113c c71c cf3c
000000d0: d855 503b 7fc4 3dbd 1b0d babc 50bd c4bd
000000e0: f4c1 f9bc 0665 87bc 7bc8 043d 89ce c0bd
000000f0: 1f5f 3b3d 6a01 87bd 9e47 503d f5b1 b93d
0.09405836 -0.031760693 0.08223179 -0.04872416 -0.109432034 0.066717446 0.021521518 -0.08010626
0.005701954 0.10631165 -0.0068007954 0.05671307 0.08770045 0.030016994 -0.014323288 0.121471204
-0.004851354 -0.083100244 -0.085023046 -0.07771816 0.0041846866 0.116844654 -0.080276534 0.082797594
0.084944375 0.091339454 0.034746483 0.007195123 0.0041015465 -0.10146372 -0.07369142 0.055822235
0.07572329 -0.03355266 0.0119880345 0.001552815 -0.026904836 -0.061710946 0.02742614 -0.07184575
0.10490225 -0.05584833 0.06239977 -0.03189255 0.025109855 -0.000888151 -0.09117218 0.016339494
-0.08673955 -0.10587188 0.008863919 0.025282277 0.0031789448 -0.04632997 -0.022711327 -0.09606421
-0.030487992 -0.016527664 0.032417756 -0.094143935 0.04574501 -0.065920666 0.05084955 0.09067146
