Mask-test/model_epoch_1_140.pth (torch, 154675 bytes, 7 tensors)

embedding.0.weight f4 [64, 7]
00000000: 2007 d1bd 5a21 83be 7eca 2a3e 92b1 873e
00000010: b975 8e3e a136 bb3e b9fd 00bb 5836 b53d
00000020: 5ffa 843e 5988 a4be 7258 f63d 1845 3ebe
00000030: 0762 73bb 98c6 643c ef2d 9e3e bbd7 f03d
00000040: a4c5 f6bd 4630 8d3e 768b b2be 75e1 863e
00000050: a9da 963e cb9f 70bd ee06 f53d da4a b13e
00000060: 518a a4be 03ce 8cbe 6b0c 613e 9314 1a3e
00000070: 3e2c 10be fb13 c03d a79e efbd 7cfc bf3e
00000080: 4adc 923e 1099 adbe d63f b23e 09fa 3c3d
00000090: 336e 87be bc8a 37bd f3b3 c83d 9607 8abe
000000a0: 9c5d 68be 273f a539 1221 493e ba53 5d3e
000000b0: bbb0 a83e 645f b93e 6e9f afbe 8586 943d
000000c0: 5e40 b6bd 7d30 d9bd aedb 96bb ba57 843d
000000d0: 9f91 54bd ddcc 98be 6593 de3c 9af0 573e
000000e0: b2da 80be d0d5 adbe 0ec9 92be eda4 1d3e
000000f0: 92e6 3d3e edaa afbe 78c1 a1bd 588e 77be
00000100: 221e 813e 4386 ff3c c5fb b8bc cce2 6d3d
00000110: 37f0 053e 1216 493e 90c7 7bbe 9749 2ebd
00000120: 902f 593e 5660 9a3e adc1 ccbc 46db 9d3e
00000130: 748c 293e 1657 ea3c 075e 2ebe ef00 82be
00000140: 9135 a3be b64c 9d3b afd1 1abe 650e a93d
00000150: f304 98be 5829 72be bbf7 bc3e 4fa9 a83e
00000160: 58a9 3bbd a50a 2fbd c10d 9c3e f63c 3bbe
00000170: 4b16 70be ff5c 2fbe 8f90 433e 225c 8abe
00000180: bd1c 55be 00a9 5f3e 42ad 123e 8d7a 85be
00000190: d37d 7abe bfa7 81be 6978 8abe deb7 693e
000001a0: 4aa4 a13e b90a 0f3e 93f9 383d 763f 4c3e
000001b0: f59a 63be 14c6 443e 5ddd 843e 2581 19be
000001c0: 06ce 333c 0abd 663e 0acb 3abe cbe2 8d3e
000001d0: c97e 80be cb8a 89be 88a2 c0be a5e5 ba3e
000001e0: 7008 8bbe f164 42be 3a73 98be 6355 a33e
000001f0: b73c f63c 2b25 8a3e 37f5 943b 31f4 62be
00000200: 701d a5be 0455 b3be dead 88be 17a0 103e
00000210: e601 973d 6080 b13e 7813 58bd f41a a6be
00000220: a85c 06be 0e01 52be 7fbe a9bd fc54 5c3d
00000230: 48d7 91be 387e b43e 4b9f 643e 3612 2f3e
00000240: 1bc7 40be 254d 923e eaac d6bd 318b d23d
00000250: 0534 81bd c7fc f9bc 1c14 a1be 4437 383e
00000260: 7b17 973e 35b9 6c3e 2917 93bd c6b5 2cbe
00000270: 0bb8 4b3e 44f0 873e 1ae8 993e 2e82 c1be
00000280: 48e9 babd eb83 aabd 39fe c23d 3d81 aa3d
00000290: 1944 f73d d38c 2e3e ebe1 6d3d 9052 b1be
000002a0: 3c1a 5e3e 093f c03e 1401 89be 9b11 b33e
000002b0: 6796 b63e 8352 893e 1239 bc3d ad5c 6cbe
000002c0: 3c5f 16be bf4a 9b3e 801b a33d c8b6 53bd
000002d0: c69d b1be 2e45 b6be 9800 3dbc 280c 9f3e
000002e0: c92c a73d e2a5 aa3d 0e44 f7bd 8d5f 813e
000002f0: 3d49 b33e 0bfc d0bd 5115 99be 0852 d03d
00000300: 4e65 2cbe 99d8 bebe de59 023d 80a9 03bd
00000310: 200b 953e ee5b 0e3e c4c2 99be 9cce 993e
00000320: af3e 523e 606a 8d3d 3e86 a6bd acba 383d
00000330: bb22 6f3d 8881 a2bd e5fe b13e 3cb0 b03e
00000340: 69c1 a5be 4db5 b73d 7a00 833e 9d93 0c3e
00000350: e90a 6a3e 9e96 103d 2fbe 383e 64ec b3bd
00000360: d1d7 49bc d55f 62be c906 76bd 5c19 9e3e
00000370: 2300 a53e 8a21 1d3d 6d80 3ebe e466 4e3e
00000380: d1b4 0e3d bb9b 8cbd aab0 43be fd64 89be
00000390: ecbb b2be 7039 95bd 485c 3cbd 6e14 87be
000003a0: 74c9 9b3e 6c83 2f3e 8ec6 80bd 1617 113d
000003b0: 84d5 93be 9a18 9dbe 0326 7abe b381 50bd
000003c0: c104 b23e 9d57 a2be 6297 0c3d 597e dc3c
000003d0: 166d 26be b8f7 c1bd c7e0 f4bd d8ab 853c
000003e0: a156 803d c572 94bd db7f b53d aa3e 8c3e
000003f0: 3b9c ddbd 19e4 71be a6d1 1abe 29c0 333d
-0.10206437 -0.25611383 0.16678807 0.26502663 0.2782419 0.36565116 -0.001968248 0.08848256
0.25972268 -0.32135275 0.12028588 -0.18581045 -0.0037137286 0.013963364 0.3089442 0.11759897
-0.12049416 0.27575892 -0.34872025 0.26343885 0.294637 -0.05874614 0.11964212 0.3462742
-0.32136777 -0.27500924 0.21977393 0.15046911 -0.14079377 0.09378811 -0.117001824 0.37497318
0.28683692 -0.3390584 0.34814328 0.04613689 -0.26451263 -0.04481004 0.097999476 -0.26958913
-0.22691959 0.00031518305 0.19641522 0.2161397 0.32947335 0.3620559 -0.34301323 0.0725222
-0.08898996 -0.106049515 -0.0046038246 0.06462045 -0.051896688 -0.29843798 0.027169893 0.21087876
-0.2516685 -0.33952188 -0.28669018 0.15394945 0.18544987 -0.34310094 -0.07898229 -0.24175394
0.25218302 0.03119195 -0.02258099 0.05807762 0.13079916 0.19637325 -0.24587846 -0.04255065
0.2120955 0.30151623 -0.024994696 0.30831355 0.16557485 0.028605979 -0.17028056 -0.25391337
-0.31876805 0.0048004044 -0.1511905 0.08254699 -0.29691276 -0.23648584 0.36907753 0.32941672
-0.045815796 -0.04273476 0.30479243 -0.18284974 -0.23446004 -0.17125319 0.19098113 -0.27023417
-0.20811744 0.21841812 0.14323905 -0.2607006 -0.2446206 -0.25323293 -0.2704499 0.22824046
0.31570655 0.13968934 0.045159888 0.19946083 -0.2222708 0.19216186 0.25950137 -0.14990671
0.010974413 0.2253305 -0.18241516 0.27712092 -0.2509673 -0.26863703 -0.37624002 0.3650333
-0.27154875 -0.18983819 -0.2977541 0.31901082 0.030058248 0.26981482 0.0045458334 -0.22163464
-0.32249022 -0.350258 -0.2669515 0.1412357 0.07373409 0.34668255 -0.05275294 -0.3244244
-0.13121283 -0.20508215 -0.08288287 0.053791985 -0.2848456 0.35252547 0.2232639 0.1709679
-0.18825953 0.28574482 -0.104821995 0.10280455 -0.0630875 -0.030516041 -0.31460655 0.17989832
0.29510102 0.23117526 -0.07182152 -0.16866216 0.19894426 0.26550496 0.30059892 -0.37794632
-0.09126526 -0.083259426 0.095211454 0.083254315 0.120735355 0.17045908 0.05807678 -0.34633303
0.21689695 0.37548092 -0.26758635 0.3497437 0.35661623 0.26820764 0.09190573 -0.23082228
-0.14684767 0.30330464 0.079642296 -0.051687986 -0.34690684 -0.35599655 -0.011535786 0.31063962
0.08162839 0.08332421 -0.12073527 0.25268212 0.35016814 -0.102043234 -0.29899076 0.10171896
-0.1683552 -0.37274626 0.031823985 -0.03214407 0.2911005 0.13902256 -0.30031407 0.30040443
0.20531724 0.06905055 -0.081310734 0.0450999 0.05838273 -0.079348624 0.34764782 0.34509456
-0.32374123 0.08970127 0.255863 0.13728185 0.22855724 0.03529989 0.180413 -0.08785322
-0.012319521 -0.2210687 -0.060065065 0.30878723 0.32226667 0.038362063 -0.18603678 0.20156437
0.03484041 -0.06865641 -0.1911036 -0.2683486 -0.34908998 -0.07286346 -0.045986444 -0.26382774
0.30427134 0.17139977 -0.06287871 0.035422407 -0.28873837 -0.30682832 -0.24428563 -0.05090494
0.34769252 -0.3170747 0.034324057 0.026915716 -0.1625255 -0.09471077 -0.119569354 0.016317293
0.06266523 -0.07248453 0.08862277 0.2739156 -0.10820814 -0.23622169 -0.15119037 0.04388443

embedding.0.bias f4 [64]
00000000: efb9 98bc 0622 f7bd b107 0ebe 5cb2 a6be
00000010: 188e 923c db3c 9fbe ea4b 77bd e9ce 163d
00000020: 81af a63e ed61 ffbb 1a84 1a3e 22b5 babe
00000030: b22d c8bd b8c9 7ebd 1316 5e3e a3db c13e
00000040: 4714 603e 13f5 97be efef 1abe 15e8 bc3d
00000050: 408d 733e 5b00 d63d af63 a3bd ca5f 25be
00000060: 73c5 d2bb 4ff3 f23d 5518 35be 9a14 7cbe
00000070: 0719 b23e 5c4d 8bbe 41a7 b63d 1a0a 343e
00000080: bfe0 073e 376d b6be 0632 70be 3da3 693e
00000090: af6b 7e3e 38c6 b3bc 5d98 1ebe 3a5d a7be
000000a0: e0af 0bbc 9de7 7abe 6c2b 04be 0d5b 87be
000000b0: b67b 3abe 351d 9bbd 9934 593d 7193 80be
000000c0: 7759 e4bd f1d2 bdbe c5b0 97be 4962 e03d
000000d0: 63a5 abbe 8a2f 23be 27ff 82bd be48 a93d
000000e0: 154b 993e 64aa 893e f2e0 9cbe bb3e 9f3e
000000f0: d063 bb3e 36fd 37be da3b 133d 4572 8e3e
-0.018643348 -0.12067036 -0.13870122 -0.32557952 0.017890021 -0.31101117 -0.06037513 0.03681842
0.32555774 -0.007793656 0.15089455 -0.36466318 -0.09774341 -0.062204093 0.21688108 0.37862882
0.21882735 -0.29679164 -0.1513059 0.09223954 0.23784351 0.104492866 -0.079779975 -0.16149822
-0.006432229 0.11862814 -0.17685063 -0.24617234 0.3478472 -0.27207458 0.0891862 0.17581978
0.13269328 -0.356302 -0.23456582 0.22816177 0.24845766 -0.021945104 -0.1548781 -0.32688314
-0.008525819 -0.24502416 -0.12907189 -0.26436654 -0.18211254 -0.0757393 0.053028677 -0.2511249
-0.111498766 -0.37074998 -0.29627052 0.109562464 -0.33524618 -0.15936103 -0.06396323 0.082658276
0.29940096 0.2688781 -0.3064037 0.31102547 0.36599588 -0.17967686 0.03594575 0.27821556

layernorm.weight f4 [259, 64]
00000000: 0200 803f f9ff 7f3f c116 803f 73f5 7f3f
00000010: 65b6 7f3f 0000 803f 0000 803f 56e4 7f3f
00000020: 0000 803f 140f 803f cbf6 7f3f 0000 803f
00000030: a41a 803f a306 803f dcf6 7f3f 0000 803f
00000040: 0000 803f 27de 7f3f 1000 803f fcff 7f3f
00000050: 0000 803f bc12 803f 0000 803f 0000 803f
00000060: 250d 803f 0600 803f 0c10 803f 0000 803f
00000070: 0000 803f 6ce3 7f3f 0000 803f d50b 803f
00000080: ffff 7f3f 0000 803f 0000 803f 0000 803f
00000090: 0000 803f 0000 803f 0000 803f 04ec 7f3f
000000a0: 9406 803f 0000 803f 8e10 803f fcff 7f3f
000000b0: 0000 803f 0000 803f e6c9 7f3f 0000 803f
000000c0: 64e4 7f3f c9f3 7f3f 0000 803f 9501 803f
000000d0: 0400 803f 0000 803f 0000 803f 2bec 7f3f
000000e0: aff5 7f3f 0000 803f 5801 803f 0000 803f
000000f0: f000 803f 0000 803f 0000 803f 930d 803f
00000100: e6ff 7f3f fcff 7f3f ca0e 803f 40fe 7f3f
00000110: 2ed5 7f3f 0000 803f 0000 803f b8f0 7f3f
00000120: 0000 803f 980a 803f 95fd 7f3f 0000 803f
00000130: eb10 803f 0700 803f 0500 803f f3ff 7f3f
00000140: 0000 803f 1ef9 7f3f e1ff 7f3f 0000 803f
00000150: 0000 803f b304 803f 0000 803f 0000 803f
00000160: 180a 803f f6ff 7f3f cd05 803f 0000 803f
00000170: 0000 803f d9eb 7f3f 0000 803f 0103 803f
00000180: ffff 7f3f 0000 803f 0000 803f 0000 803f
00000190: 0000 803f 0000 803f 0000 803f 5af5 7f3f
000001a0: 2d05 803f 0000 803f df07 803f bbff 7f3f
000001b0: 0000 803f 0000 803f 07e2 7f3f 0000 803f
000001c0: acf2 7f3f 0100 803f 0000 803f 0100 803f
000001d0: ebff 7f3f 0000 803f 0000 803f 06f8 7f3f
000001e0: 1200 803f 0000 803f 0200 803f 0000 803f
000001f0: 0500 803f ffff 7f3f 0000 803f c102 803f
00000200: 0300 803f f7ff 7f3f f20a 803f c4f7 7f3f
00000210: 17d6 7f3f 0000 803f 0000 803f 63f2 7f3f
00000220: 0000 803f fe05 803f 2df9 7f3f 0000 803f
00000230: 2a13 803f 4404 803f 11f8 7f3f 0000 803f
00000240: 0000 803f 69e8 7f3f 0500 803f feff 7f3f
00000250: 0000 803f a60c 803f ffff 7f3f 0000 803f
00000260: 8507 803f 0400 803f b908 803f 0000 803f
00000270: 0000 803f 32ef 7f3f ffff 7f3f e508 803f
00000280: ffff 7f3f 0000 803f 0000 803f 0000 803f
00000290: 0000 803f 0000 803f 0000 803f b4f0 7f3f
000002a0: 3901 803f 0000 803f 330a 803f 25ff 7f3f
000002b0: 0000 803f 0000 803f 94e7 7f3f 0000 803f
000002c0: d8f5 7f3f 83f6 7f3f 0000 803f b200 803f
000002d0: 0400 803f 0000 803f 0000 803f 75f3 7f3f
000002e0: c8f9 7f3f 0000 803f c700 803f 0000 803f
000002f0: 5a00 803f b6ff 7f3f 0000 803f e507 803f
00000300: d1ff 7f3f faff 7f3f 370a 803f 07ff 7f3f
00000310: 7be6 7f3f 0000 803f 0000 803f b5f4 7f3f
00000320: 0000 803f e708 803f b2fe 7f3f 0000 803f
00000330: 030b 803f 0700 803f 0100 803f 0000 803f
00000340: 0000 803f b4fd 7f3f f0ff 7f3f 0000 803f
00000350: 0000 803f 3f03 803f ffff 7f3f 0000 803f
00000360: 6808 803f fcff 7f3f 1704 803f 0000 803f
00000370: 0000 803f 79f3 7f3f feff 7f3f c001 803f
00000380: 0000 803f 0000 803f 0000 803f 0000 803f
00000390: 0000 803f 0000 803f 0000 803f 61fa 7f3f
000003a0: f004 803f 0000 803f 3c05 803f ceff 7f3f
000003b0: 0000 803f 0000 803f 71ef 7f3f 0000 803f
000003c0: c9f6 7f3f 34ff 7f3f 0000 803f 0100 803f
000003d0: f7ff 7f3f 0000 803f 0000 803f 6ffc 7f3f
000003e0: 0800 803f 0000 803f 0100 803f 0000 803f
000003f0: 0300 803f aaff 7f3f 0000 803f ca01 803f
1.0000002 0.9999996 1.0006944 0.999839 0.99887687 1.0 1.0 0.9995779
1.0 1.0004601 0.9998595 1.0 1.000813 1.0002025 0.9998605 1.0
1.0 0.9994835 1.0000019 0.99999976 1.0 1.0005717 1.0 1.0
1.0004011 1.0000007 1.0004897 1.0 1.0 0.99956393 1.0 1.0003611
0.99999994 1.0 1.0 1.0 1.0 1.0 1.0 0.99969506
1.0002007 1.0 1.0005052 0.99999976 1.0 1.0 0.9991745 1.0
0.9995787 0.9998136 1.0 1.0000483 1.0000005 1.0 1.0 0.9996974
0.9998426 1.0 1.000041 1.0 1.0000286 1.0 1.0 1.0004143
0.99999845 0.99999976 1.0004513 0.9999733 0.9993466 1.0 1.0 0.9997668
1.0 1.0003233 0.9999631 1.0 1.0005163 1.0000008 1.0000006 0.9999992
1.0 0.999895 0.99999815 1.0 1.0 1.0001434 1.0 1.0
1.000308 0.9999994 1.000177 1.0 1.0 0.9996925 1.0 1.0000917
0.99999994 1.0 1.0 1.0 1.0 1.0 1.0 0.9998375
1.000158 1.0 1.0002402 0.9999959 1.0 1.0 0.99954265 1.0
0.9997966 1.0000001 1.0 1.0000001 0.99999875 1.0 1.0 0.9998783
1.0000021 1.0 1.0000002 1.0 1.0000006 0.99999994 1.0 1.000084
1.0000004 0.99999946 1.000334 0.99987435 0.9993605 1.0 1.0 0.9997923
1.0 1.0001829 0.9998959 1.0 1.0005848 1.0001302 0.99987894 1.0
1.0 0.99964005 1.0000006 0.9999999 1.0 1.000386 0.99999994 1.0
1.0002295 1.0000005 1.0002662 1.0 1.0 0.9997436 0.99999994 1.0002714
0.99999994 1.0 1.0 1.0 1.0 1.0 1.0 0.9997666
1.0000373 1.0 1.0003113 0.99998695 1.0 1.0 0.99962735 1.0
0.999845 0.9998552 1.0 1.0000212 1.0000005 1.0 1.0 0.9998086
0.9999051 1.0 1.0000237 1.0 1.0000107 0.9999956 1.0 1.0002409
0.9999972 0.99999964 1.0003117 0.99998516 0.9996106 1.0 1.0 0.9998277
1.0 1.0002717 0.9999801 1.0 1.000336 1.0000008 1.0000001 1.0
1.0 0.99996495 0.99999905 1.0 1.0 1.0000991 0.99999994 1.0
1.0002565 0.99999976 1.0001248 1.0 1.0 0.99980885 0.9999999 1.0000534
1.0 1.0 1.0 1.0 1.0 1.0 1.0 0.9999142
1.0001507 1.0 1.0001597 0.999997 1.0 1.0 0.99974734 1.0
0.9998594 0.99998784 1.0 1.0000001 0.99999946 1.0 1.0 0.9999456
1.000001 1.0 1.0000001 1.0 1.0000004 0.9999949 1.0 1.0000546

layernorm.bias f4 [259, 64]
00000000: ac3b 0837 636d a3b6 657b 5437 4ba0 8db6
00000010: 335e 8db7 ed20 4337 976a 5f36 8a6b 43b7
00000020: 8aa5 00b7 49dc 0c37 b76b 5f36 0b24 4837
00000030: e596 8137 0401 3e37 22bc 9d36 489c 8337
00000040: 6a1e 2033 075b 69b7 dbb5 34b7 d851 79b7
00000050: d817 c8b6 937f a337 06f2 90b7 22d9 d736
00000060: 4e27 eb36 9aba 5537 722f 1f37 e7ec 82b6
00000070: fad3 19b6 7736 b1b7 3d4c 5bb7 0544 7836
00000080: 584b 8637 f70d 8cb7 a684 c6b6 6080 76b6
00000090: edc4 00b7 c825 04b7 198b 26b5 945c 4e35
000000a0: 52be 0737 1079 efb6 7d89 6f37 3a3d a536
000000b0: dc31 1436 5887 b036 9a8d dcb6 708f 9535
000000c0: 8d4d 44b7 8547 a8b6 1d44 1937 f3ac f136
000000d0: 7abf 0036 63fb 1ab6 917a 08b7 a95e 48b7
000000e0: f95d d636 6ed4 4936 b41d 9336 d793 82b7
000000f0: 0af3 8636 a9da 3eb6 78a7 1ab6 cf58 7237
00000100: 01de 1a37 64c1 9eb6 a4eb 5337 ec9c 03b7
00000110: c83b a5b7 8115 5b37 b1f1 2eb5 8f04 59b7
00000120: 2f9f a7b6 2ead 4c37 79a2 5736 7001 4136
00000130: a5a5 4337 3212 5437 433d bb35 cfbd 7837
00000140: 3fd5 9fb5 61ed 4bb7 01c4 00b7 5065 6ab7
00000150: 396c 2db7 f82f 8737 0ab8 5ab7 f0c8 4137
00000160: 115b d936 d6a4 8137 b7b8 2237 64a6 31b5
00000170: 2bb1 36b6 14b0 c2b7 f3ce 57b7 a4e4 5b36
00000180: de8c a837 ea7f 5db7 5f5f 5ab6 853b d235
00000190: 9b3c ceb6 f3f4 5bb6 2e96 f934 c9a7 b0b6
000001a0: 4ecc 3637 b751 bfb6 6662 5537 39f0 5f36
000001b0: 5874 25b6 d21e ff36 41d6 05b7 696b 8436
000001c0: 5f61 52b7 df45 18b7 6366 2337 74da f036
000001d0: fada d735 7326 c9b6 446e 35b7 952f 83b7
000001e0: 5264 5536 920d 7b36 3da7 1637 6df0 89b7
000001f0: 46d8 0435 3d58 ccb6 56ab 8ab4 9b17 7737
00000200: 08d4 b936 23a3 a5b6 238f 4137 ed1d b1b6
00000210: a927 92b7 9909 5837 54c2 8c36 764d 5bb7
00000220: 12fc d7b6 f91a fe36 ed95 1e34 a03b 3737
00000230: 5519 8537 bf06 4e37 374e af36 0f0f 8237
00000240: a462 e535 0cfa 8ab7 07c2 45b7 cbe7 67b7
00000250: 96b0 05b7 cb75 a637 1f85 a0b7 1eda fd36
00000260: f468 bf36 b427 7537 5c11 c836 5c86 b4b6
00000270: 800d f3b5 15d7 acb7 bda6 74b7 fe71 f236
00000280: fe8c 8d37 7110 5fb7 3a90 28b5 d8dd 3db5
00000290: 3e77 28b7 0599 26b7 340b 2f35 b513 e0b4
000002a0: 0b02 2c37 9f41 03b7 8454 5b37 5b6e c736
000002b0: c65f 9635 ad7a ed36 ea5b 2ab7 6be6 1334
000002c0: e3c0 4eb7 1232 99b6 31a3 1337 9139 c036
000002d0: 7aea f336 ed21 6cb6 8cfc ddb6 c037 58b7
000002e0: ebc1 cf36 54e2 4036 2339 fa36 fed0 68b7
000002f0: caec bc35 863d aab6 d713 e234 d782 8737
00000300: 59bc 2b37 f77b a3b6 b592 7737 59e4 20b7
00000310: c3b9 c6b7 43a7 7737 de57 9c36 088f 0db7
00000320: fc3f c2b6 b83d 0537 03b2 c3b5 17f9 2336
00000330: 888f 8637 2d46 3c37 3f63 40b6 c43b 1737
00000340: ae67 8436 c744 60b7 5330 48b7 1710 23b7
00000350: 6717 bbb6 0f02 9937 624c 27b7 9767 3c37
00000360: da74 9c36 a38f 8f37 a77b 0837 fca2 9cb3
00000370: fa9b 21b6 3b02 b0b7 c981 93b7 e9a7 a736
00000380: afe9 8437 9456 3cb7 4b3f 98b6 8da8 be36
00000390: b83e c5b6 4edb b0b6 6143 4936 8822 a8b6
000003a0: ba1f 1c37 5412 9ab6 62d2 f136 77dc 1eb6
000003b0: a0d5 acb5 3e2a 1f37 635d 2ab7 d618 4c36
000003c0: cfda 00b7 7fd8 1cb7 0951 2f37 b066 9436
000003d0: d809 f034 3a81 dbb6 4f2a 0eb7 9ffd 9eb7
000003e0: e043 5c36 90b0 5736 7094 8636 689d 55b7
000003f0: 1c37 9836 8224 ebb6 58bb 0736 f02c 8b37
8.120125e-06 -4.870513e-06 1.2664915e-05 -4.220788e-06 -1.6852375e-05 1.1630572e-05 3.3291633e-06 -1.1647944e-05
-7.667937e-06 8.395939e-06 3.3292288e-06 1.1929321e-05 1.5448264e-05 1.1325119e-05 4.700866e-06 1.5689191e-05
3.7280564e-08 -1.3909076e-05 -1.0771178e-05 -1.4860612e-05 -5.9632403e-06 1.949052e-05 -1.7278839e-05 6.432777e-06
7.0081214e-06 1.2739236e-05 9.488185e-06 -3.901881e-06 -2.2922163e-06 -2.1125406e-05 -1.3071168e-05 3.6994472e-06
1.600913e-05 -1.6695803e-05 -5.916302e-06 -3.673158e-06 -7.675245e-06 -7.87661e-06 -6.204223e-07 7.68757e-07
8.090939e-06 -7.1368486e-06 1.4277522e-05 4.924511e-06 2.208274e-06 5.260965e-06 -6.5729955e-06 1.1143111e-06
-1.1700567e-05 -5.015116e-06 9.1353695e-06 7.2024936e-06 1.918494e-06 -2.3094115e-06 -8.134769e-06 -1.1942969e-05
6.388637e-06 3.0074984e-06 4.3843993e-06 -1.5566051e-05 4.0218047e-06 -2.8439483e-06 -2.3045268e-06 1.4445001e-05
9.230805e-06 -4.7312806e-06 1.2631444e-05 -7.844745e-06 -1.969737e-05 1.3058424e-05 -6.517176e-07 -1.2935269e-05
-4.9955192e-06 1.2199669e-05 3.2132068e-06 2.8760078e-06 1.1661473e-05 1.2640421e-05 1.3950415e-06 1.4826145e-05
-1.1908486e-06 -1.2155012e-05 -7.67503e-06 -1.39710755e-05 -1.0336801e-05 1.6115591e-05 -1.30366625e-05 1.1550481e-05
6.4777055e-06 1.5454756e-05 9.69896e-06 -6.617977e-07 -2.7223239e-06 -2.3208595e-05 -1.2863183e-05 3.276663e-06
2.0092757e-05 -1.3202409e-05 -3.2540045e-06 1.5663542e-06 -6.146334e-06 -3.2776122e-06 4.6489134e-07 -5.2647415e-06
1.0895614e-05 -5.7017564e-06 1.27186995e-05 3.3369417e-06 -2.4654637e-06 7.60318e-06 -7.977303e-06 3.9464107e-06
-1.2539646e-05 -9.076174e-06 9.739396e-06 7.1779887e-06 1.6082479e-06 -5.994743e-06 -1.0814114e-05 -1.5638574e-05
3.1797867e-06 3.7409814e-06 8.979635e-06 -1.644363e-05 4.948855e-07 -6.089946e-06 -2.5829166e-07 1.4727843e-05
5.5381133e-06 -4.936375e-06 1.1537023e-05 -5.278495e-06 -1.7423024e-05 1.2876838e-05 4.194948e-06 -1.30714525e-05
-6.436844e-06 7.57293e-06 1.476944e-07 1.09215325e-05 1.5866632e-05 1.22801275e-05 5.224512e-06 1.550422e-05
1.7090538e-06 -1.656732e-05 -1.17872905e-05 -1.3822641e-05 -7.968532e-06 1.9843594e-05 -1.9135476e-05 7.5653797e-06
5.7044617e-06 1.4612382e-05 5.9624854e-06 -5.3800595e-06 -1.810884e-06 -2.0604153e-05 -1.4582355e-05 7.2254325e-06
1.6874164e-05 -1.3295664e-05 -6.2794754e-07 -7.073081e-07 -1.0041344e-05 -9.929999e-06 6.5208883e-07 -4.173759e-07
1.0252475e-05 -7.823487e-06 1.3073095e-05 5.943509e-06 1.1203745e-06 7.0774317e-06 -1.015419e-05 1.3774267e-07
-1.2323467e-05 -4.5655843e-06 8.799879e-06 5.7287475e-06 7.269261e-06 -3.5186488e-06 -6.6157136e-06 -1.2887584e-05
6.1916558e-06 2.874197e-06 7.457232e-06 -1.3876937e-05 1.4076006e-06 -5.073557e-06 4.2110216e-07 1.6154181e-05
1.0236247e-05 -4.87221e-06 1.4756505e-05 -9.5899095e-06 -2.3689941e-05 1.4761291e-05 4.6593914e-06 -8.437557e-06
-5.7890993e-06 7.941788e-06 -1.458044e-06 2.4433882e-06 1.6040882e-05 1.1222012e-05 -2.8667998e-06 9.014217e-06
3.9459765e-06 -1.3367454e-05 -1.193218e-05 -9.719303e-06 -5.5757587e-06 1.823998e-05 -9.97176e-06 1.1229792e-05
4.6627656e-06 1.7113814e-05 8.135022e-06 -7.293963e-08 -2.408166e-06 -2.0981874e-05 -1.7584201e-05 4.996535e-06
1.5844444e-05 -1.1225831e-05 -4.5373213e-06 5.682063e-06 -5.878359e-06 -5.270739e-06 2.9990554e-06 -5.01081e-06
9.3057115e-06 -4.5916913e-06 7.2068515e-06 -2.3672162e-06 -1.2877172e-06 9.486974e-06 -1.0154533e-05 3.0412825e-06
-7.68034e-06 -9.3487315e-06 1.044968e-05 4.422698e-06 4.4710646e-07 -6.5417526e-06 -8.47371e-06 -1.895317e-05
3.2822063e-06 3.214027e-06 4.0107916e-06 -1.2732438e-05 4.5363686e-06 -7.007796e-06 2.0225616e-06 1.6591017e-05

fc.0.weight f4 [64, 64]
00000000: bb1e 8b3d 1426 dc3a f4ee bb3d fa2d 77bd
00000010: 17ab 83bd 5db0 bd3d 328b c7bb 1b12 913c
00000020: 5ae8 57bd 1fa2 893d 7419 2d3d a148 d8bd
00000030: 93f7 a0bd 823d 1f3d 20e0 bb3c 335a 3cbd
00000040: dd92 bfbd 4eeb 86ba c5bf d43d 826e 403d
00000050: ff51 f6bd a78d d7bc 7e9c 1a3d 8bd3 ba3d
00000060: 4df8 b9bd 9c30 b9bc a046 203d 9bd1 c33d
00000070: ae9b 52bd 6574 a6bc 033f 9ebd b164 c2bd
00000080: 1588 d23d 9254 5cbd a7b5 ccbd 454b a73d
00000090: 9da0 083d 157f e63d d8db 923d 721c 08bd
000000a0: 7f3e 803d ad35 51bd 6e32 81bc 38db 83bd
000000b0: 6c29 f1bd 44f2 3c3d c5fb b83d 8210 a63d
000000c0: ab8a a6bc 98a3 e6bd 4ec4 9f3d 7609 9d3d
000000d0: 5ab1 ce3c b465 cabd 70c3 febd 5bb7 0abd
000000e0: f2fb a5bd 492d ba3d 0f26 8c3d 48a2 a3bd
000000f0: 0ee8 f0bd 5e7d b73c fc8c afbd d97d 133d
00000100: 3464 923c 729e 83bd 9b11 e2bd e892 533c
00000110: d057 babd a495 9abb bdf2 e93a 675d ebbc
00000120: 10e0 c83d 373e 433d 4e95 e43d d3c2 21bd
00000130: c597 f43d cfe8 a83d c632 a1bd ab7c 3d3b
00000140: c017 21bc e3e8 a0bd b61f c7bd 11a4 e03d
00000150: 1da3 2c3c 6d23 bbbd 2848 f03d 8445 82bd
00000160: f96f f0bd 4d64 483c 42ae 34bd 255a cdbd
00000170: fae7 843c 5bde 413d bfbb cc3c 81d8 ae3a
00000180: 3f8d 413c 19e3 5ebd a0b5 f43c d96c 4a3d
00000190: ea3d 383d d61e d4bc 695c 0bbc 2498 0abd
000001a0: d2cc 643d 985e 7ebc d699 b9bd 34b6 003c
000001b0: f209 5cbd d4ca 08bd 779a 79bd e130 303d
000001c0: 2177 64bc 9359 b33d 0bed e6bd 809e 453d
000001d0: b3e7 d7bd 06e5 a2bd 3f74 033c d8fc 02bd
000001e0: 48d3 dd3c eb1f a5bd fa98 82bd abb2 08bd
000001f0: 752b e2bd 269a ff3d 8a97 f93d 95a6 bebd
00000200: 6cc5 713d 9326 d2bd 669b bfbd fb82 bb3d
00000210: 0240 cdbd a0ab febd 7aa6 c2bd faf0 a03d
00000220: 2c3e 983c e6c9 393d a221 57bd 5ea2 a0bd
00000230: 8403 9c3d 1b38 7fbd b4f4 95bb 2cc9 cb3b
00000240: 50c2 fcbd 6c06 81bd 3c8f 06bd c227 babd
00000250: d5f2 3e3d 8cd2 983d f80b 433d ff65 59bd
00000260: d100 adbd 00c0 bcbd 278e b8bc 9e03 3fbd
00000270: d259 eebd d8d5 ecbd 1812 993c affd 4e3d
00000280: 8a29 59bd f5c0 ef3d f41f afbd 7dd2 6fbc
00000290: acd5 423d 1abd 393d 9eeb f63d c395 d3bd
000002a0: 6175 c9bd dabd 683d a02a e6bc c279 83bd
000002b0: a82e edbc cb90 703d 89be 613c ac30 f6bd
000002c0: 971b 3d3d 1ce4 573c b998 1abd abf7 833d
000002d0: e8a6 3e3d 9274 0e3d 29be 1dbd c437 793c
000002e0: d6a2 babd 893e dc3c 3e67 25b7 8e1e e43d
000002f0: ccf7 953d 1751 cd3d c25f b03c c3dd 1a3d
00000300: 995d aabc e706 80bd faa8 eabb ac48 ebbc
00000310: 31ae 563c e8bd 73bd 9c32 e9bd 9696 523d
00000320: 37da 7bbd 8de2 e6bd 5d40 b63d 9d43 ea3c
00000330: 3684 9b3d 5d2b 18bd 44f7 92bd 8789 00bd
00000340: 2356 afbd 5389 e7bd 406d c53c 5021 c23c
00000350: 40ff 43bc 3926 b43d 216b 913d 6b7d 65bd
00000360: 636f ff3d 9b4a b9bd 3b8f 00bc 978e d6bd
00000370: c2e4 ecbd 5b40 ee3b fd91 d33d 4e18 f03c
00000380: 695f 803d ba12 b4bd 3511 64bc 8528 373c
00000390: 844f 89bd d3ca a93d b4f6 f4bc aaca 143d
000003a0: 4b20 f23c 0442 e7bd fa06 453d 14cb d43d
000003b0: 0d72 8b3d 9e64 89bd 09a4 cb3d c29b 873c
000003c0: 1e30 493d 0330 d6bd 7d12 2ebd 75f8 c13d
000003d0: 5a43 8d3d 199c d9bd 4afd 103d 988a 9bbd
000003e0: 6b8c 76bd 10cf a9bd 6961 7b3c 5159 c83d
000003f0: 596a 9b3d bd8d 0c3d 2354 bcbd bfbc 863d
0.06792971 0.0016796016 0.09176436 -0.06034658 -0.06429117 0.09262154 -0.0060895914 0.017708829
-0.052711822 0.06720375 0.042260602 -0.10560728 -0.07859721 0.038877018 0.02293402 -0.04598446
-0.09354184 -0.0010293515 0.1038814 0.04698039 -0.12027358 -0.026312662 0.0377469 0.0912238
-0.09080563 -0.022606187 0.039129853 0.095614634 -0.051418 -0.020319173 -0.07726862 -0.094918616
0.10279862 -0.05379159 -0.09995585 0.081686534 0.033356298 0.11254708 0.07170838 -0.033230253
0.0626192 -0.05107658 -0.015771117 -0.06438297 -0.11775479 0.04612948 0.09032396 0.08108617
-0.020329794 -0.11261672 0.07801114 0.0766782 0.025231052 -0.098826796 -0.124396205 -0.033866268
-0.081046954 0.09090669 0.068431966 -0.07989937 -0.11763011 0.022398647 -0.085718125 0.03600869
0.017870046 -0.064267054 -0.11038514 0.012913443 -0.0909878 -0.0047175456 0.0017848831 -0.028731061
0.098083615 0.047666755 0.1116129 -0.03949244 0.1194301 0.0824753 -0.078710124 0.002891342
-0.009832323 -0.078569196 -0.09722845 0.10968793 0.010536936 -0.09137616 0.11732513 -0.06360915
-0.11740107 0.012230945 -0.044111498 -0.10026959 0.016223896 0.047331195 0.024991868 0.001333967
0.011813461 -0.054415796 0.029871762 0.04942021 0.04498092 -0.02589361 -0.008505919 -0.0338365
0.055859394 -0.015525483 -0.09062545 0.007855941 -0.053720422 -0.033396557 -0.060938325 0.043015365
-0.013944418 0.08757319 -0.11275681 0.04824686 -0.1054224 -0.07953839 0.008023321 -0.03197941
0.027078286 -0.080627285 -0.06376834 -0.033373516 -0.11043445 0.12480573 0.12187107 -0.09309117
0.059026167 -0.10261264 -0.09355812 0.09155842 -0.10021974 -0.124350786 -0.09504409 0.07858463
0.018584333 0.04535856 -0.05252231 -0.07843469 0.07617858 -0.062309366 -0.00457629 0.00621905
-0.1234175 -0.06300053 -0.032851443 -0.090896145 0.0466183 0.07462034 0.047618836 -0.053075787
-0.08447421 -0.092163086 -0.022528721 -0.04663431 -0.116382256 -0.11564225 0.018685386 0.0505349
-0.05301813 0.117067255 -0.085510164 -0.014637587 0.047567055 0.045346357 0.12056659 -0.10331299
-0.098368414 0.05682168 -0.028096497 -0.06419708 -0.028952911 0.058731835 0.013778337 -0.12021002
0.04616889 0.013176944 -0.037743304 0.06443723 0.046545893 0.03477914 -0.03851143 0.0152110495
-0.0911309 0.026885288 -9.858804e-06 0.1113864 0.07322654 0.10025232 0.021530036 0.037809145
-0.020796584 -0.062513165 -0.007161257 -0.028721176 0.013103054 -0.05950728 -0.11386606 0.05141314
-0.061487403 -0.1127368 0.08898995 0.028596694 0.075935766 -0.03715073 -0.071760684 -0.031381156
-0.08561351 -0.113054894 0.024099946 0.023697525 -0.011962712 0.08796353 0.07100511 -0.05602781
0.12472417 -0.09047433 -0.007846649 -0.104764156 -0.115670696 0.0072708554 0.103305794 0.029308464
0.06268198 -0.08792634 -0.013920118 0.011179094 -0.067046195 0.08290639 -0.029902793 0.036326088
0.029556414 -0.11291888 0.048102356 0.103902966 0.06808863 -0.06708644 0.099433966 0.016553763
0.049118154 -0.10458376 -0.0424981 0.094712175 0.06897612 -0.106254764 0.035397805 -0.07594794
-0.060192507 -0.08291447 0.015343049 0.09782661 0.075886436 0.03431486 -0.09195735 0.06578969

fc.0.bias f4 [64]
00000000: 395c d33c 5478 f5bd ff32 a3bc f321 e93d
00000010: 1476 f1bd 262e eb3d 8a12 0b3d 4a81 3a3c
00000020: a4af ebbd 6217 77bd 4943 a8bc cd60 b73c
00000030: b975 48bd 7c74 91bd d40f 493d 9cd1 9fbc
00000040: aafb edbd 5fc6 91bd 0037 d13d 3f5f bfbc
00000050: dab7 29bd 454b 80bc 3e20 9e3c b22a 153c
00000060: a9a8 d2bc 7046 debd 5f4e a53d 506e a93c
00000070: 59ff 67bd d721 b4bd 9a56 80bd 45a6 d7bd
00000080: 8294 52bd f4c9 f4bd 483b 6bbd a4a0 9dbd
00000090: bee0 4e3d 3aed 293d c492 2bbd baf3 a33c
000000a0: 48e7 9cbc a1a9 b9bc 2750 df3d a212 913d
000000b0: 251c ac3d 3fea c03d 5e44 d7b9 f2ad 803d
000000c0: 3b3b 0fbd c4b6 a83c 2e1b 9bbd 93f8 ff3d
000000d0: 36f4 0d3c 3fa8 dd3d 0933 f33c b91d eb3d
000000e0: c4a2 db3d a5ff e33d cf30 8bbc 441b 113d
000000f0: 16eb 06bd 2a45 ce3d 295a 14bd 27c7 883d
0.025800811 -0.119858414 -0.019921778 0.113834284 -0.117901 0.114834115 0.033953227 0.011383364
-0.1150811 -0.060325034 -0.020539897 0.022385025 -0.048940394 -0.07102296 0.04908736 -0.01950913
-0.11620267 -0.071179144 0.102155685 -0.023360847 -0.0414351 -0.015660891 0.019302484 0.009104418
-0.025715189 -0.10853279 0.08071589 0.020682484 -0.056640003 -0.08795517 -0.06266518 -0.1052976
-0.05141116 -0.11952582 -0.057429582 -0.076966554 0.0505073 0.041486003 -0.041888013 0.020013679
-0.019153252 -0.022663893 0.1090396 0.07083632 0.08403806 0.09419679 -0.00041058933 0.062831774
-0.034968596 0.020594962 -0.075735435 0.12498584 0.008664181 0.10823106 0.029687421 0.114802785
0.107244045 0.11132745 -0.016991047 0.035426393 -0.03293904 0.10071786 -0.036218796 0.0667861

output_layer.0.weight f4 [1, 64]
00000000: 1e8c c13d 4eed 00bd 5094 a83d 0518 45bd
00000010: 7861 e0bd f9bf 883d 6cf2 af3c 0764 a4bd
00000020: 99ab be3b 56de d93d 5cde e2bb 2bd2 673d
00000030: 901a b43d d71d f53c e75c 71bc 9296 f83d
00000040: 724d b7bb 7ab0 aabd 09f0 adbd a6ec 9ebd
00000050: f856 873b efd2 ee3d 4c19 a3bd 8ee2 a73d
00000060: 22a0 ad3d 8caf bb3d a1a8 0f3d da72 ef3b
00000070: 01ff 6c3b 7ec1 cfbd 1bad 96bd a26c 643d
00000080: 915d 9b3d b443 09bd 7f53 463c a077 903a
00000090: fe7d dabc 3d75 7fbd a221 e23c 3de0 91bd
000000a0: 2949 d73d 9752 64bd 17e4 7f3d 26c0 02bd
000000b0: 6b6c cd3c 318a 91ba 51e7 babd 2440 843c
000000c0: 0bd5 b0bd 0093 d8bd c76f 1a3c 2b6d cd3c
000000d0: 3977 563b 0633 3cbd 7bee bcbc 9bb4 c4bd
000000e0: ba07 fcbc 077d 86bc 079c 053d 8dae c1bd
000000f0: fd9a 3a3d bedb 87bd db72 4f3d acaa ba3d
0.09450553 -0.03147631 0.08231413 -0.04811861 -0.10956091 0.06677241 0.0214779 -0.08026891
0.005818796 0.1063811 -0.00692348 0.056596916 0.08794129 0.029921455 -0.014731622 0.12138094
-0.005593949 -0.083344415 -0.08493049 -0.07759981 0.0041302405 0.11661326 -0.07963809 0.08197509
0.084778085 0.09164342 0.035072926 0.0073073925 0.0036162736 -0.101443276 -0.07357236 0.055767663
0.07586206 -0.033511832 0.012104868 0.0011021979 -0.026671406 -0.062367667 0.027603928 -0.07122848
0.10512001 -0.055742826 0.062473383 -0.03192153 0.025076112 -0.0011103806 -0.09126151 0.016143866
-0.08634385 -0.10574913 0.009426064 0.02507647 0.003272487 -0.045947097 -0.023062935 -0.0960476
-0.030765403 -0.01641704 0.032619502 -0.09457121 0.045557965 -0.06633709 0.050646644 0.09114584
