Mask-test/model_epoch_2_60.pth (torch, 154665 bytes, 7 tensors)

embedding.0.weight f4 [64, 7]
0	0xbdd10546	-0.10206084
1	0xbe8311a1	-0.25599387
2	0x3e2ac6e5	0.16677435
3	0x3e8798c6	0.26483744
4	0x3e8e77a8	0.27825665
5	0x3ebb3890	0.3656659
6	0xbadbbb2c	-0.0016764156
7	0x3db533a4	0.0884774
8	0x3e84d3c6	0.2594282
9	0xbea48a88	-0.3213694
10	0x3df609ba	0.12013574
11	0xbe3e45c3	-0.185813
12	0xbb738194	-0.0037156092
13	0x3c65ba10	0.014021412
14	0x3e9e2e60	0.30894756
15	0x3df01a79	0.11723799
16	0xbdf6c35c	-0.120489806
17	0x3e8d3414	0.27578795
18	0xbeb28b05	-0.34871688
19	0x3e86e1e6	0.26344222
20	0x3e96cca0	0.2945299
21	0xbd70a298	-0.05874881
22	0x3df913a6	0.12161951
23	0x3eb15112	0.34632164
24	0xbea4416a	-0.32081157
25	0xbe8cce04	-0.27500927
26	0x3e610be9	0.219772
27	0x3e19dac0	0.15024853
28	0xbe102f05	-0.14080437
29	0x3dbf9987	0.09355455
30	0xbdefae73	-0.117031954
31	0x3ebfd7a1	0.374692
32	0x3e92db85	0.28683105
33	0xbead99d5	-0.33906427
34	0x3eb2312c	0.3480314
35	0x3d3cfca0	0.04613936
36	0xbe87698d	-0.26447716
37	0xbd3790e1	-0.0448159
38	0x3dc8728d	0.09787474
39	0xbe8a0796	-0.26958913
40	0xbe685d99	-0.22691955
41	0x38f0051d	0.00011445044
42	0x3e492112	0.19641522
43	0x3e5d1772	0.21590975
44	0x3ea8ad1d	0.32944575
45	0x3eb944eb	0.36185393
46	0xbeaf9f6e	-0.34301323
47	0x3d948685	0.0725222
48	0xbdb61068	-0.08889848
49	0xbdd932b5	-0.10605375
50	0xbb715570	-0.0036824606
51	0x3d845c40	0.06462908
52	0xbd542155	-0.0517896
53	0xbe98ce05	-0.2984468
54	0x3cde89d8	0.027165338
55	0x3e57799a	0.21042481
56	0xbe80dab2	-0.2516685
57	0xbeadcbb3	-0.33944473
58	0xbe92c5ab	-0.28666434
59	0x3e1dd318	0.15412557
60	0x3e3de692	0.18544987
61	0xbeafaaed	-0.34310094
62	0xbda1cf02	-0.07900812
63	0xbe778c12	-0.24174526
64	0x3e813e44	0.25242817
65	0x3cff8326	0.031190466
66	0xbcb8f083	-0.022575622
67	0x3d6de4a5	0.05807938
68	0x3e05f27d	0.13080783
69	0x3e48ea5c	0.19620651
70	0xbe7bc8ea	-0.24588361
71	0xbd2ca55c	-0.042149886
72	0x3e593b31	0.21213986
73	0x3e9a94f7	0.30191776
74	0xbcccc72c	-0.024997316
75	0x3e9ddb43	0.30831346
76	0x3e2973b5	0.16548045
77	0x3cea5716	0.028605979
78	0xbe2e5e07	-0.17028056
79	0xbe8200ef	-0.25391337
80	0xbea33591	-0.31876805
81	0x3b9d4cb6	0.0048004044
82	0xbe1ad1af	-0.1511905
83	0x3da90e65	0.08254699
84	0xbe9804f2	-0.29691273
85	0xbe725455	-0.23664983
86	0x3ebcf4b5	0.36905447
87	0x3ea894b4	0.3292595
88	0xbd3ba68a	-0.04581312
89	0xbd2f07d7	-0.042732086
90	0x3e9c289b	0.3049973
91	0xbe3b3b7a	-0.18284407
92	0xbe702bde	-0.23454234
93	0xbe2f6384	-0.17127806
94	0x3e43481e	0.1907048
95	0xbe8a5c1c	-0.270234
96	0xbe551b41	-0.20811178
97	0x3e5fea6b	0.21866767
98	0x3e12ac88	0.14323628
99	0xbe857c79	-0.26071528
100	0xbe7a7f8f	-0.24462722
101	0xbe81adef	-0.25328013
102	0xbe8a786b	-0.27044997
103	0x3e69b724	0.22823769
104	0x3ea18826	0.31549186
105	0x3e0f0ab9	0.13968934
106	0x3d3d0452	0.0461467
107	0x3e4c43e8	0.19947779
108	0xbe635de2	-0.22203782
109	0x3e44c614	0.19216186
110	0x3e84dd5d	0.25950137
111	0xbe1992fd	-0.14997478
112	0x3c33ce06	0.010974413
113	0x3e667557	0.22505699
114	0xbe3ad5c8	-0.18245614
115	0x3e8db383	0.2767602
116	0xbe807ec9	-0.2509673
117	0xbe898acb	-0.26863703
118	0xbec0b702	-0.37639624
119	0x3ebae514	0.36502898
120	0xbe8b1006	-0.27160662
121	0xbe426878	-0.18985164
122	0xbe98813d	-0.297861
123	0x3ea354d2	0.3190065
124	0x3cf634c7	0.030054463
125	0x3e89e44f	0.26931998
126	0x3b94f537	0.0045458334
127	0xbe62f431	-0.22163464
128	0xbea51d70	-0.32249022
129	0xbeb35504	-0.350258
130	0xbe88adde	-0.2669515
131	0x3e10a017	0.1412357
132	0x3d9701e6	0.07373409
133	0x3eb17fed	0.34667912
134	0xbd584050	-0.05279571
135	0xbea61ced	-0.32443944
136	0xbe067325	-0.13129862
137	0xbe52039f	-0.20509194
138	0xbda9c039	-0.08288617
139	0x3d5ab6f3	0.05339713
140	0xbe91d748	-0.2848456
141	0x3eb4aca4	0.35287964
142	0x3e649cfd	0.22325511
143	0x3e2f0524	0.17091805
144	0xbe40c71b	-0.18825953
145	0x3e924d25	0.28574482
146	0xbdd7070c	-0.10499391
147	0x3dd28e2d	0.10281024
148	0xbd810b23	-0.06300952
149	0xbcf9d19a	-0.030495454
150	0xbea0fe81	-0.3144417
151	0x3e38396d	0.17990656
152	0x3e971a04	0.29512036
153	0x3e6d8023	0.23193412
154	0xbd931729	-0.07182152
155	0xbe2c1f4c	-0.16808814
156	0x3e4bcc69	0.19902195
157	0x3e884b04	0.26619732
158	0x3e99e81a	0.30059892
159	0xbec1822e	-0.37794632
160	0xbdba6537	-0.091013364
161	0xbdaa83eb	-0.083259426
162	0x3dc2b529	0.0950721
163	0x3daa7fb1	0.083251365
164	0x3df73162	0.12069966
165	0x3e2e8cd3	0.17045908
166	0x3d6de1eb	0.05807678
167	0xbeb18725	-0.3467342
168	0x3e5e1a4e	0.21689722
169	0x3ec04047	0.3754904
170	0xbe88fd00	-0.26755524
171	0x3eb33735	0.35003057
172	0x3eb69667	0.35661623
173	0x3e895283	0.26820764
174	0x3dbbfee6	0.091794774
175	0xbe6c5cad	-0.23082228
176	0xbe163c1a	-0.14671364
177	0x3e9b4d48	0.30332398
178	0x3da32656	0.079662964
179	0xbd53b6c8	-0.051687986
180	0xbeb19dc6	-0.34690684
181	0xbeb651da	-0.35609323
182	0xbc3cfe07	-0.011535174
183	0x3e9eeb3d	0.31038848
184	0x3da726cc	0.08161697
185	0x3daa6624	0.08320263
186	0xbdf741e8	-0.120731175
187	0x3e815f90	0.2526822
188	0x3eb32ebe	0.349966
189	0xbdd0fc0b	-0.102043234
190	0xbe991551	-0.29899076
191	0x3dd05208	0.10171896
192	0xbe2c654e	-0.1683552
193	0xbebed899	-0.37274626
194	0x3d0259de	0.031823985
195	0xbd03a980	-0.03214407
196	0x3e950b20	0.2911005
197	0x3e0dcb4c	0.13847083
198	0xbe99c658	-0.30034137
199	0x3e99a868	0.30011296
200	0x3e523eaf	0.20531724
201	0x3d8d6a69	0.06905062
202	0xbda71335	-0.0815796
203	0x3d38b51b	0.04509459
204	0x3d6f4113	0.05841167
205	0xbda29723	-0.07938983
206	0x3eb1d144	0.3472997
207	0x3eb0ae35	0.3450791
208	0xbea5c370	-0.3237567
209	0x3db76397	0.08954542
210	0x3e82ff5e	0.25585455
211	0x3e0c65ab	0.13710658
212	0x3e6a0993	0.22855215
213	0x3d105bcf	0.035243805
214	0x3e38bbb4	0.18040353
215	0xbdb3ee91	-0.08785737
216	0xbc4bce6d	-0.012439352
217	0xbe625f1d	-0.22106595
218	0xbd769ca9	-0.060207997
219	0x3e9e1c3f	0.30880925
220	0x3ea5187d	0.32245246
221	0x3d1d2464	0.038364783
222	0xbe3e7fb5	-0.18603404
223	0x3e4e6bd2	0.20158318
224	0x3d0eb4d1	0.03484041
225	0xbd8c9bbb	-0.06865641
226	0xbe43b0aa	-0.1911036
227	0xbe8964fd	-0.2683486
228	0xbeb2bbec	-0.34908998
229	0xbd953970	-0.07286346
230	0xbd3c5c48	-0.045986444
231	0xbe87146e	-0.26382774
232	0x3e9b9508	0.3038714
233	0x3e2f7766	0.1713539
234	0xbd81b2c2	-0.063329235
235	0x3d111716	0.035422407
236	0xbe93d584	-0.28873837
237	0xbe9d1421	-0.3067942
238	0xbe7a2603	-0.24428563
239	0xbd5081b3	-0.05090494
240	0x3eb204c1	0.34769252
241	0xbea2579d	-0.3170747
242	0x3d0c9762	0.034324057
243	0x3cdc7e59	0.026915716
244	0xbe266d16	-0.1625255
245	0xbdc1f7b8	-0.09471077
246	0xbdf5167e	-0.11967181
247	0x3c857a1b	0.016293576
248	0x3d7fa856	0.062416397
249	0xbd9472c5	-0.07248453
250	0x3db57fdb	0.08862277
251	0x3e8c3a4f	0.27388236
252	0xbddd9c3b	-0.10820814
253	0xbe71e429	-0.23622192
254	0xbe1ad45b	-0.1512007
255	0x3d33b94e	0.043877892

embedding.0.bias f4 [64]
0	0xbc98ca03	-0.018651014
1	0xbdf733f6	-0.12070458
2	0xbe0dfd28	-0.13866103
3	0xbea6b2aa	-0.32558185
4	0x3c90898b	0.01764371
5	0xbe9f3c2c	-0.31100595
6	0xbd775348	-0.060382158
7	0x3d1662f6	0.03671547
8	0x3ea6b575	0.32560316
9	0xbbfe218e	-0.007755465
10	0x3e1a5e53	0.15075044
11	0xbebab522	-0.36466318
12	0xbdc82e68	-0.09774476
13	0xbd7ed18d	-0.062211562
14	0x3e5df85a	0.2167677
15	0x3ec1f584	0.37882626
16	0x3e600d1b	0.2188
17	0xbe97f514	-0.29679167
18	0xbe1aefef	-0.1513059
19	0x3dbc9794	0.09208599
20	0x3e7399b0	0.23789096
21	0x3dd67b32	0.104727164
22	0xbda35d0f	-0.07976734
23	0xbe2555e3	-0.16146044
24	0xbbd1da7b	-0.0064042187
25	0x3df32f60	0.118742704
26	0xbe351307	-0.1768304
27	0xbe7c149a	-0.24617234
28	0x3eb20efd	0.3477706
29	0xbe8b550c	-0.27213323
30	0x3db6307f	0.08895969
31	0x3e342e4d	0.17595787
32	0x3e08098a	0.13284889
33	0xbeb6708a	-0.35632735
34	0xbe703206	-0.23456582
35	0x3e69a10f	0.22815345
36	0x3e7e60bf	0.24841593
37	0xbcb3d2a1	-0.021951022
38	0xbe1e985d	-0.1548781
39	0xbea75c90	-0.32687807
40	0xbc0afa27	-0.0084824925
41	0xbe7ae79d	-0.24502416
42	0xbe041f9a	-0.1290268
43	0xbe875e9e	-0.26439375
44	0xbe3a7bb6	-0.18211254
45	0xbd9b17da	-0.07572909
46	0x3d584f55	0.052810032
47	0xbe809371	-0.2511249
48	0xbde4680d	-0.111526586
49	0xbebdd2f1	-0.37074998
50	0xbe97b0cc	-0.29627073
51	0x3de0749a	0.1095974
52	0xbeaba563	-0.33524618
53	0xbe232eb3	-0.15935783
54	0xbd82f850	-0.06395018
55	0x3da8ce98	0.0824253
56	0x3e993ca0	0.29929066
57	0x3e89afa1	0.26891807
58	0xbe9cde44	-0.30638325
59	0x3e9f280f	0.3108525
60	0x3ebb6821	0.36602882
61	0xbe3806c7	-0.17971335
62	0x3d13b8ed	0.03606503
63	0x3e8e9127	0.27845117

layernorm.weight f4 [259, 64]
0	0x3f800003	1.0000004
1	0x3f7fffef	0.999999
2	0x3f801b9d	1.0008427
3	0x3f7ff17e	0.9997786
4	0x3f7fa925	0.9986747
5	0x3f800000	1.0
6	0x3f800000	1.0
7	0x3f7fdf3d	0.9995001
8	0x3f800000	1.0
9	0x3f80134b	1.0005888
10	0x3f7ff354	0.99980664
11	0x3f800000	1.0
12	0x3f801f17	1.0009488
13	0x3f800874	1.000258
14	0x3f7ff375	0.9998086
15	0x3f800003	1.0000004
16	0x3f800000	1.0
17	0x3f7fd9c0	0.99941635
18	0x3f800005	1.0000006
19	0x3f7ffffa	0.99999964
20	0x3f800000	1.0
21	0x3f8016d9	1.0006973
22	0x3f800000	1.0
23	0x3f800000	1.0
24	0x3f80113d	1.0005261
25	0x3f80000e	1.0000017
26	0x3f801453	1.0006202
27	0x3f800000	1.0
28	0x3f800000	1.0
29	0x3f7fde0d	0.999482
30	0x3f7ffffe	0.9999999
31	0x3f800fa0	1.0004768
32	0x3f7fffff	0.99999994
33	0x3f800000	1.0
34	0x3f800000	1.0
35	0x3f800000	1.0
36	0x3f800000	1.0
37	0x3f800000	1.0
38	0x3f800000	1.0
39	0x3f7fe812	0.99963486
40	0x3f800a33	1.0003113
41	0x3f800000	1.0
42	0x3f8014a5	1.00063
43	0x3f7fff8c	0.9999931
44	0x3f800000	1.0
45	0x3f800000	1.0
46	0x3f7fbc8c	0.99897075
47	0x3f800000	1.0
48	0x3f7fddf1	0.9994803
49	0x3f7fefd8	0.9997535
50	0x3f800000	1.0
51	0x3f800236	1.0000675
52	0x3f800004	1.0000005
53	0x3f800000	1.0
54	0x3f800000	1.0
55	0x3f7fe7c9	0.9996305
56	0x3f7ff181	0.9997788
57	0x3f800000	1.0
58	0x3f8001bb	1.0000528
59	0x3f800000	1.0
60	0x3f800159	1.0000411
61	0x3f800000	1.0
62	0x3f800000	1.0
63	0x3f8011cf	1.0005435
64	0x3f7fffe9	0.9999986
65	0x3f7ffff7	0.99999946
66	0x3f8012b9	1.0005714
67	0x3f7ffd44	0.9999583
68	0x3f7fce1e	0.99923885
69	0x3f800000	1.0
70	0x3f800000	1.0
71	0x3f7fec89	0.999703
72	0x3f800000	1.0
73	0x3f800e60	1.0004387
74	0x3f7ffcd0	0.99995136
75	0x3f800000	1.0
76	0x3f80148a	1.0006268
77	0x3f80000d	1.0000015
78	0x3f800005	1.0000006
79	0x3f800000	1.0
80	0x3f800000	1.0
81	0x3f7ff590	0.99984074
82	0x3f7fffd0	0.99999714
83	0x3f7fffff	0.99999994
84	0x3f800000	1.0
85	0x3f80066b	1.0001959
86	0x3f800000	1.0
87	0x3f800000	1.0
88	0x3f800dfc	1.0004268
89	0x3f7ffff8	0.9999995
90	0x3f80075a	1.0002244
91	0x3f800000	1.0
92	0x3f800000	1.0
93	0x3f7fe74c	0.99962306
94	0x3f7ffffd	0.9999998
95	0x3f800426	1.0001266
96	0x3f7fffff	0.99999994
97	0x3f800000	1.0
98	0x3f800000	1.0
99	0x3f800000	1.0
100	0x3f800000	1.0
101	0x3f800000	1.0
102	0x3f800000	1.0
103	0x3f7ff1a4	0.9997809
104	0x3f800832	1.0002501
105	0x3f800000	1.0
106	0x3f800aa1	1.0003244
107	0x3f7fff9c	0.99999404
108	0x3f800000	1.0
109	0x3f800000	1.0
110	0x3f7fd8f6	0.9994043
111	0x3f800000	1.0
112	0x3f7fee20	0.99972725
113	0x3f7fff93	0.9999935
114	0x3f800000	1.0
115	0x3f800004	1.0000005
116	0x3f7fffeb	0.99999875
117	0x3f800000	1.0
118	0x3f800000	1.0
119	0x3f7ff434	0.99982
120	0x3f80000f	1.0000018
121	0x3f800000	1.0
122	0x3f800002	1.0000002
123	0x3f800000	1.0
124	0x3f80000f	1.0000018
125	0x3f7ffffe	0.9999999
126	0x3f800000	1.0
127	0x3f800399	1.0001098
128	0x3f800004	1.0000005
129	0x3f7ffff2	0.99999917
130	0x3f800f54	1.0004678
131	0x3f7ff3b5	0.9998124
132	0x3f7fc889	0.9991537
133	0x3f800000	1.0
134	0x3f800000	1.0
135	0x3f7fed17	0.99971145
136	0x3f800000	1.0
137	0x3f8009ec	1.0003028
138	0x3f7ff5d5	0.99984485
139	0x3f800000	1.0
140	0x3f801803	1.0007328
141	0x3f8005b0	1.0001736
142	0x3f7ff4b8	0.99982786
143	0x3f800000	1.0
144	0x3f800000	1.0
145	0x3f7fe37e	0.999565
146	0x3f7fff54	0.99998975
147	0x3f7ffffe	0.9999999
148	0x3f800000	1.0
149	0x3f80111d	1.0005223
150	0x3f7fffff	0.99999994
151	0x3f800000	1.0
152	0x3f800b1f	1.0003394
153	0x3f800006	1.0000007
154	0x3f800c71	1.0003797
155	0x3f800000	1.0
156	0x3f800000	1.0
157	0x3f7fea2d	0.999667
158	0x3f7fffff	0.99999994
159	0x3f800c8a	1.0003827
160	0x3f7fffff	0.99999994
161	0x3f800000	1.0
162	0x3f800000	1.0
163	0x3f800000	1.0
164	0x3f800000	1.0
165	0x3f800000	1.0
166	0x3f800000	1.0
167	0x3f7feb67	0.9996857
168	0x3f80045a	1.0001328
169	0x3f800000	1.0
170	0x3f800e62	1.0004389
171	0x3f7ffee4	0.9999831
172	0x3f800000	1.0
173	0x3f800000	1.0
174	0x3f7fdb04	0.99943566
175	0x3f800000	1.0
176	0x3f7fefcc	0.99975276
177	0x3f7ff2a2	0.99979603
178	0x3f800000	1.0
179	0x3f800109	1.0000316
180	0x3f800006	1.0000007
181	0x3f800000	1.0
182	0x3f800000	1.0
183	0x3f7feeb9	0.99973637
184	0x3f7ff5b6	0.999843
185	0x3f800000	1.0
186	0x3f800101	1.0000306
187	0x3f800000	1.0
188	0x3f800094	1.0000176
189	0x3f7fffb4	0.99999547
190	0x3f800000	1.0
191	0x3f800c15	1.0003687
192	0x3f7fffd5	0.99999744
193	0x3f7ffff6	0.9999994
194	0x3f800de9	1.0004245
195	0x3f7ffe5c	0.99997497
196	0x3f7fe03a	0.9995152
197	0x3f800000	1.0
198	0x3f800000	1.0
199	0x3f7ff08f	0.9997644
200	0x3f800000	1.0
201	0x3f800cc5	1.0003897
202	0x3f7ffe2c	0.9999721
203	0x3f800000	1.0
204	0x3f800e2a	1.0004323
205	0x3f800010	1.0000019
206	0x3f7ffff4	0.9999993
207	0x3f800000	1.0
208	0x3f800000	1.0
209	0x3f7ffa81	0.99991614
210	0x3f7fffe7	0.9999985
211	0x3f800000	1.0
212	0x3f800000	1.0
213	0x3f800482	1.0001376
214	0x3f7fffff	0.99999994
215	0x3f800000	1.0
216	0x3f800c1d	1.0003697
217	0x3f7ffffd	0.9999998
218	0x3f80054b	1.0001615
219	0x3f800000	1.0
220	0x3f800000	1.0
221	0x3f7fefac	0.99975085
222	0x3f7ffffd	0.9999998
223	0x3f800279	1.0000755
224	0x3f800000	1.0
225	0x3f800000	1.0
226	0x3f800000	1.0
227	0x3f800000	1.0
228	0x3f800000	1.0
229	0x3f800000	1.0
230	0x3f800000	1.0
231	0x3f7ff794	0.9998715
232	0x3f8007c0	1.0002365
233	0x3f800000	1.0
234	0x3f800778	1.0002279
235	0x3f7fffbb	0.9999959
236	0x3f800000	1.0
237	0x3f800000	1.0
238	0x3f7fe782	0.9996263
239	0x3f800000	1.0
240	0x3f7ff279	0.9997936
241	0x3f7ffec9	0.99998146
242	0x3f800000	1.0
243	0x3f800002	1.0000002
244	0x3f7ffff7	0.99999946
245	0x3f800000	1.0
246	0x3f800000	1.0
247	0x3f7ff97d	0.99990064
248	0x3f800005	1.0000006
249	0x3f800000	1.0
250	0x3f800002	1.0000002
251	0x3f800000	1.0
252	0x3f800008	1.000001
253	0x3f7fffa6	0.99999464
254	0x3f800000	1.0
255	0x3f800266	1.0000732

layernorm.bias f4 [259, 64]
0	0x372aa8f6	1.0172129e-05
1	0xb6bc990d	-5.620654e-06
2	0x376fa431	1.4283739e-05
3	0xb6ae5c8b	-5.1963775e-06
4	0xb79ef819	-1.8950597e-05
5	0x375819cd	1.28806105e-05
6	0x36737820	3.6279744e-06
7	0xb761abf6	-1.3451083e-05
8	0xb6fa2399	-7.4547247e-06
9	0x372a13e3	1.013742e-05
10	0x363873a8	2.7485457e-06
11	0x3758d9b0	1.2925288e-05
12	0x378d7cf5	1.6866697e-05
13	0x374d532e	1.2238319e-05
14	0x368c84ae	4.187771e-06
15	0x37963ae2	1.7908813e-05
16	0x342f8cfd	1.6349436e-07
17	0xb78272a1	-1.5550586e-05
18	0xb74e7020	-1.2304663e-05
19	0xb789f2d8	-1.6444756e-05
20	0xb6ccc833	-6.10298e-06
21	0x37b8cb1e	2.2029093e-05
22	0xb79e9245	-1.890318e-05
23	0x3706f6a2	8.044446e-06
24	0x370802a6	8.106848e-06
25	0x37778476	1.4753188e-05
26	0x372ba184	1.023e-05
27	0xb66b7db3	-3.5090895e-06
28	0xb60aa0d9	-2.0657228e-06
29	0xb7c40450	-2.3367029e-05
30	0xb778a5da	-1.4820567e-05
31	0x369d2f9d	4.6845075e-06
32	0x37995269	1.8277397e-05
33	0xb7915d3d	-1.7328764e-05
34	0xb6bb20f8	-5.5768724e-06
35	0xb66cb193	-3.5270102e-06
36	0xb70e19f1	-8.4698995e-06
37	0xb716673f	-8.964736e-06
38	0x31d01dc6	6.0569816e-09
39	0xb507edd5	-5.063751e-07
40	0x372d5067	1.0330324e-05
41	0xb70f159a	-8.528494e-06
42	0x3787e00e	1.6197588e-05
43	0x368ad1a1	4.1371245e-06
44	0x3638a056	2.7511464e-06
45	0x36b40a72	5.365634e-06
46	0xb712a16e	-8.739864e-06
47	0x35beefb8	1.422587e-06
48	0xb75fcfb8	-1.3340199e-05
49	0xb6e1b596	-6.726662e-06
50	0x371986a7	9.150862e-06
51	0x3701174f	7.694426e-06
52	0x36122ab6	2.1780556e-06
53	0xb657a297	-3.2132136e-06
54	0xb7126c62	-8.727513e-06
55	0xb76da4eb	-1.4164699e-05
56	0x36c5d038	5.8952974e-06
57	0x36495e77	3.000632e-06
58	0x36b59b83	5.4123243e-06
59	0xb792629d	-1.7450477e-05
60	0x369660a5	4.4815993e-06
61	0xb6907f49	-4.3063524e-06
62	0xb5c14935	-1.4400927e-06
63	0x378b2f12	1.659201e-05
64	0x37395430	1.1046461e-05
65	0xb6b57461	-5.4077686e-06
66	0x37680137	1.382856e-05
67	0xb70ca966	-8.384091e-06
68	0xb7ae4d54	-2.0778425e-05
69	0x37670177	1.3769014e-05
70	0xb471b099	-2.250912e-07
71	0xb77d2327	-1.508816e-05
72	0xb69086b8	-4.3072178e-06
73	0x377107b8	1.4366517e-05
74	0x3617fbce	2.2647323e-06
75	0x368bfd3b	4.1720027e-06
76	0x37591fd2	1.2941617e-05
77	0x3753a4a3	1.26149125e-05
78	0x34b38092	3.3434895e-07
79	0x378ff181	1.7159387e-05
80	0xb562ea06	-8.453211e-07
81	0xb761caac	-1.3458233e-05
82	0xb71e8d04	-9.450367e-06
83	0xb7839676	-1.568648e-05
84	0xb71b8d7b	-9.271661e-06
85	0x37993372	1.8262977e-05
86	0xb778c97e	-1.48288655e-05
87	0x3755c569	1.27417525e-05
88	0x370fce7f	8.571543e-06
89	0x37957334	1.781583e-05
90	0x372de6dd	1.0365356e-05
91	0xb4bb646a	-3.4904525e-07
92	0xb5fd23ce	-1.886039e-06
93	0xb7cf50de	-2.471398e-05
94	0xb766343e	-1.3721232e-05
95	0x36a4b6c0	4.9088558e-06
96	0x37b2bcb5	2.1307127e-05
97	0xb75af269	-1.3050253e-05
98	0xb6270cae	-2.489232e-06
99	0x359a6262	1.1502527e-06
100	0xb6e3a335	-6.784127e-06
101	0xb6ac085a	-5.1269717e-06
102	0x3581d149	9.672159e-07
103	0xb6daa72b	-6.516367e-06
104	0x375a06d5	1.2995403e-05
105	0xb6f26f21	-7.225099e-06
106	0x37711a48	1.43708385e-05
107	0x360c5318	2.0909993e-06
108	0xb599832d	-1.1437565e-06
109	0x36e1b49a	6.7265473e-06
110	0xb730d058	-1.0538926e-05
111	0x36861d70	3.996938e-06
112	0xb76e1835	-1.4191542e-05
113	0xb730468a	-1.0506841e-05
114	0x371c2ad8	9.3083e-06
115	0x36ef7daa	7.1373843e-06
116	0x35cd8e8b	1.5315176e-06
117	0xb6d665c8	-6.389546e-06
118	0xb731e9f2	-1.0604492e-05
119	0xb7944ebc	-1.7679638e-05
120	0x363847e9	2.7459994e-06
121	0x364b3603	3.0280796e-06
122	0x371cd35c	9.3475355e-06
123	0xb7957c4b	-1.7820063e-05
124	0x35f7e7c4	1.8470387e-06
125	0xb6fc0a01	-7.51135e-06
126	0x3576696b	9.1795545e-07
127	0x3789fa28	1.644816e-05
128	0x36f594a9	7.3188753e-06
129	0xb6a695b2	-4.9646123e-06
130	0x375b2133	1.3061147e-05
131	0xb6dece62	-6.6401417e-06
132	0xb7a424dd	-1.956749e-05
133	0x3773b5f7	1.4526296e-05
134	0x36aa6522	5.078168e-06
135	0xb778167f	-1.478719e-05
136	0xb6e1acbf	-6.725633e-06
137	0x37138967	8.793874e-06
138	0xb59ab673	-1.1526994e-06
139	0x374ed5ab	1.2328305e-05
140	0x3791875c	1.7348379e-05
141	0x377a557e	1.4921066e-05
142	0x36e7e7e0	6.9113303e-06
143	0x379bbf5a	1.8566545e-05
144	0x35dd7c60	1.6501981e-06
145	0xb7a39b9b	-1.9503574e-05
146	0xb75ddcc7	-1.322403e-05
147	0xb7820939	-1.5501502e-05
148	0xb72b690e	-1.0216854e-05
149	0x37cba987	2.4278428e-05
150	0xb7b93c2a	-2.2081735e-05
151	0x371c87f9	9.329983e-06
152	0x36c39a2e	5.8294017e-06
153	0x378a5d82	1.6494425e-05
154	0x36c4634b	5.8528144e-06
155	0xb6a3faaf	-4.886962e-06
156	0xb5dad000	-1.6302802e-06
157	0xb7c6a3a5	-2.3679642e-05
158	0xb78ef773	-1.7042947e-05
159	0x370dd7d5	8.454507e-06
160	0x37b88c16	2.1999742e-05
161	0xb76c2858	-1.4076089e-05
162	0x34874189	2.5193393e-07
163	0xb58335b5	-9.775891e-07
164	0xb74bc12c	-1.2144719e-05
165	0xb74bd447	-1.2149168e-05
166	0x35d41792	1.5802091e-06
167	0xb58c06ad	-1.0432756e-06
168	0x37696d80	1.3913377e-05
169	0xb7226c07	-9.6811045e-06
170	0x378a3ea2	1.6480048e-05
171	0x36c5a84d	5.8906503e-06
172	0x359e9264	1.1814523e-06
173	0x36ee2f00	7.0984242e-06
174	0xb7679c14	-1.3805013e-05
175	0x35928ee8	1.0919439e-06
176	0xb77028f6	-1.4314652e-05
177	0xb6d0103e	-6.200774e-06
178	0x3712834a	8.732846e-06
179	0x36dc6fb9	6.569517e-06
180	0x371fffa0	9.536656e-06
181	0xb6978c93	-4.5165157e-06
182	0xb7159dcb	-8.917831e-06
183	0xb77512a0	-1.4607474e-05
184	0x36d1cd6c	6.2525996e-06
185	0x3641ae13	2.8860566e-06
186	0x3724d326	9.824324e-06
187	0xb78afb54	-1.6567916e-05
188	0x351e3a38	5.8944306e-07
189	0xb6ddac63	-6.6063817e-06
190	0x355e4489	8.2801176e-07
191	0x379e1775	1.884599e-05
192	0x3750fbca	1.245639e-05
193	0xb6ae4f20	-5.1948155e-06
194	0x378a3d58	1.6479447e-05
195	0xb73b2155	-1.1153829e-05
196	0xb7e113df	-2.6831343e-05
197	0x37898e53	1.6397948e-05
198	0x36e493d3	6.8121385e-06
199	0xb71041eb	-8.598417e-06
200	0xb6da91ce	-6.51388e-06
201	0x3707c2a4	8.091945e-06
202	0xb658eeee	-3.2325584e-06
203	0x367d6daf	3.7763782e-06
204	0x379f4973	1.898848e-05
205	0x3759bbc8	1.2977929e-05
206	0xb657ba5c	-3.2145972e-06
207	0x372e2bb0	1.038138e-05
208	0x36b25110	5.3142503e-06
209	0xb781691a	-1.542694e-05
210	0xb77954d7	-1.486131e-05
211	0xb731e40b	-1.06031175e-05
212	0xb6ab4576	-5.1042834e-06
213	0x37be33bc	2.2673856e-05
214	0xb73afafc	-1.1144901e-05
215	0x3752ae47	1.25575525e-05
216	0x36b3f5f5	5.363249e-06
217	0x37a09ddd	1.9146997e-05
218	0x3709a6f6	8.20471e-06
219	0x34f4bf32	4.5587655e-07
220	0xb618c95c	-2.2766972e-06
221	0xb7c6f67a	-2.3718214e-05
222	0xb7ac5ff5	-2.0548681e-05
223	0x36c94f42	5.9994936e-06
224	0x379c9ea8	1.867053e-05
225	0xb745f8fa	-1.1800084e-05
226	0xb6a4cd05	-4.9114483e-06
227	0x36bceb22	5.6302097e-06
228	0xb6fd36d0	-7.5463686e-06
229	0xb7065225	-8.006148e-06
230	0x368dca14	4.2256524e-06
231	0xb6b83043	-5.4892457e-06
232	0x3745125e	1.17463915e-05
233	0xb6c9131c	-5.9924914e-06
234	0x3715e037	8.933296e-06
235	0xb68f8ece	-4.2783568e-06
236	0xb4863141	-2.4995282e-07
237	0x3723fe91	9.774828e-06
238	0xb7682576	-1.3837e-05
239	0x366fa9d6	3.5712633e-06
240	0xb700dc6a	-7.680714e-06
241	0xb7394fe8	-1.1045464e-05
242	0x37342392	1.0737118e-05
243	0x36811bf9	3.847756e-06
244	0x35054926	4.9652806e-07
245	0xb6f2b5ef	-7.233342e-06
246	0xb7222dc3	-9.666607e-06
247	0xb7b7702a	-2.186753e-05
248	0x3664b41c	3.4079485e-06
249	0x362c2d1b	2.5656252e-06
250	0x36652dda	3.4150348e-06
251	0xb76f20ea	-1.42531735e-05
252	0x36cc5692	6.089752e-06
253	0xb70c0939	-8.346798e-06
254	0x36572f86	3.2065159e-06
255	0x379dab0e	1.8795512e-05

fc.0.weight f4 [64, 64]
0	0x3d8af264	0.067845136
1	0x3ad62b99	0.0016339897
2	0x3dbbb11c	0.0916464
3	0xbd773296	-0.060350977
4	0xbd83fce4	-0.064447194
5	0x3dbda4a7	0.092599206
6	0xbbcc6f91	-0.0062388857
7	0x3c911b5c	0.017713241
8	0xbd57d6b3	-0.052694988
9	0x3d89975f	0.06718325
10	0x3d2cae2a	0.042158283
11	0xbdd846b8	-0.105603635
12	0xbda13ebf	-0.07873296
13	0x3d1efc7c	0.038815007
14	0x3cbc36aa	0.022975285
15	0xbd3c1b7c	-0.04592465
16	0xbdbfac12	-0.09358992
17	0xba85a45a	-0.0010196075
18	0x3dd4c1b9	0.10388512
19	0x3d4081db	0.04699884
20	0xbdf66cb2	-0.12032451
21	0xbcd767c4	-0.026294596
22	0x3d1a3d1b	0.03765593
23	0x3dbac525	0.091196336
24	0xbdba4502	-0.090951934
25	0xbcb9329a	-0.022607137
26	0x3d1ff9f0	0.03905672
27	0x3dc3d385	0.095618285
28	0xbd52d314	-0.05147083
29	0xbca77dc6	-0.020445716
30	0xbd9e46a9	-0.07728321
31	0xbdc29f18	-0.09503001
32	0x3dd2941c	0.10282156
33	0xbd5c4c02	-0.053783424
34	0xbdccb3bf	-0.09995221
35	0x3da74bad	0.08168731
36	0x3d08cc09	0.033397708
37	0x3de650a4	0.1124585
38	0x3d92ddc4	0.07171205
39	0xbd08a0e1	-0.03335655
40	0x3d7feb71	0.062480394
41	0xbd5132be	-0.051073782
42	0xbc81a7ad	-0.015827024
43	0xbd83f9f2	-0.06444158
44	0xbdf12780	-0.11775112
45	0x3d3cb86f	0.046074327
46	0x3db8aadb	0.09016963
47	0x3da6125d	0.08108971
48	0xbca6a271	-0.02034113
49	0xbde6a013	-0.112610005
50	0x3d9fa5ba	0.07795282
51	0x3d9ce040	0.0765996
52	0x3ccdddce	0.025130179
53	0xbdca653d	-0.09882591
54	0xbdfec540	-0.12439966
55	0xbd0ae214	-0.03390701
56	0xbda5fb0e	-0.081045255
57	0x3dba3217	0.09091585
58	0x3d8c218d	0.06842337
59	0xbda388f4	-0.07985106
60	0xbdf0eeb7	-0.11764281
61	0x3cb77583	0.022394901
62	0xbdaf891f	-0.08571076
63	0x3d13a00e	0.036041312
64	0x3c930112	0.017944846
65	0xbd8372e5	-0.06418399
66	0xbde1edde	-0.11031698
67	0x3c5527ae	0.013009949
68	0xbdba3a01	-0.090930946
69	0xbb978b88	-0.0046247877
70	0x3af12802	0.0018398764
71	0xbcea9aa4	-0.028638192
72	0x3dc8ff13	0.098142765
73	0x3d439f57	0.04775938
74	0x3de4b032	0.11166419
75	0xbd215d4e	-0.039395623
76	0x3df4b9db	0.119495116
77	0x3da9149f	0.08255886
78	0xbda10b8a	-0.07863529
79	0x3b41649c	0.002950943
80	0xbc2052a4	-0.009785328
81	0xbda0b68c	-0.07847318
82	0xbdc6ed5f	-0.09713244
83	0x3de0d15d	0.10977433
84	0x3c2d69df	0.010584324
85	0xbdbaf68b	-0.091290556
86	0x3df06e1b	0.11739751
87	0xbd8219d0	-0.063525796
88	0xbdf051c6	-0.11734347
89	0x3c49a9d9	0.012308561
90	0xbd34595a	-0.044030525
91	0xbdcd27d0	-0.10017359
92	0x3c853045	0.016258368
93	0x3d422170	0.04739517
94	0x3ccd61fd	0.025071139
95	0x3ab4e79a	0.0013801933
96	0x3c42ec64	0.01189718
97	0xbd5e7fcf	-0.054321107
98	0x3cf5803e	0.029968377
99	0x3d4ab591	0.04948956
100	0x3d3889df	0.04505336
101	0xbcd38b07	-0.02582313
102	0xbc09c722	-0.008409293
103	0xbd0a5388	-0.033771068
104	0x3d650a90	0.055918276
105	0xbc7cc95e	-0.015428869
106	0xbdb96e2f	-0.09054219
107	0x3c020718	0.007936262
108	0xbd5ba472	-0.053623624
109	0xbd087959	-0.03331885
110	0xbd7962e8	-0.06088534
111	0x3d30964d	0.043112088
112	0xbc62e59d	-0.013848689
113	0x3db38beb	0.087669216
114	0xbde6c3c5	-0.11267809
115	0x3d45e11b	0.04831038
116	0xbdd7bfee	-0.105346546
117	0xbda2b2b1	-0.07944239
118	0x3c04f0c7	0.008114046
119	0xbd02ada1	-0.031903867
120	0x3cde51f3	0.027138686
121	0xbda4fe7b	-0.08056351
122	0xbd826705	-0.06367306
123	0xbd086dd5	-0.03330787
124	0xbde21340	-0.11038828
125	0x3dffc839	0.12489361
126	0x3df9c72f	0.121961944
127	0xbdbe81b9	-0.093020864
128	0x3d71cad2	0.059031315
129	0xbdd2248f	-0.10260879
130	0xbdbf9904	-0.09355357
131	0x3dbb85e5	0.09156398
132	0xbdcd3c43	-0.1002126
133	0xbdfea879	-0.12434477
134	0xbdc2a4b1	-0.09504069
135	0x3da0f691	0.07859529
136	0x3c98a46a	0.018633086
137	0x3d39cd19	0.045361612
138	0xbd57074a	-0.052497186
139	0xbda09f39	-0.07842869
140	0x3d9c06a6	0.076184556
141	0xbd7f32a2	-0.062304147
142	0xbb94d424	-0.0045418907
143	0x3bcd9b65	0.006274628
144	0xbdfcb166	-0.123385236
145	0xbd81034b	-0.06299456
146	0xbd0689a1	-0.032846097
147	0xbdba1ebc	-0.09087893
148	0x3d3f1662	0.046652205
149	0x3d98dd00	0.074640274
150	0x3d43116f	0.047624048
151	0xbd596189	-0.053071532
152	0xbdacff99	-0.08447189
153	0xbdbcb476	-0.09214108
154	0xbcb887bf	-0.022525666
155	0xbd3efe08	-0.04662898
156	0xbdee3ff8	-0.11633295
157	0xbdecd334	-0.11563721
158	0x3c99345a	0.018701721
159	0x3d4f1bb8	0.050563544
160	0xbd59111e	-0.05299484
161	0x3defc2fc	0.11707112
162	0xbdaf1ccf	-0.08550417
163	0xbc6f3c18	-0.01460173
164	0x3d42fe3d	0.04760574
165	0x3d39c26f	0.045351442
166	0x3df6eec3	0.12057259
167	0xbdd39292	-0.103306904
168	0xbdc973c3	-0.09836533
169	0x3d68c370	0.05682701
170	0xbce61fa9	-0.028091269
171	0xbd837762	-0.06419255
172	0xbced22ee	-0.02894732
173	0x3d7094f8	0.058735818
174	0x3c61e896	0.013788363
175	0xbdf62d8d	-0.12020407
176	0x3d3d1f58	0.04617247
177	0x3c57fb7f	0.01318252
178	0xbd1a95f7	-0.037740674
179	0x3d8401be	0.06445645
180	0x3d3eac7a	0.046551205
181	0x3d0e79de	0.03478419
182	0xbd1db98a	-0.038507022
183	0x3c797d4d	0.015227628
184	0xbdba8b8e	-0.09108649
185	0x3cdc9508	0.026926532
186	0xb69759a4	-4.510586e-06
187	0x3de436d5	0.11143271
188	0x3d9613a4	0.07327965
189	0x3dcd5301	0.10025597
190	0x3cb074aa	0.021540005
191	0x3d1b0933	0.03785057
192	0xbcaa087f	-0.020756004
193	0xbd7fef83	-0.062484276
194	0xbbeaa207	-0.0071604284
195	0xbceacef8	-0.028663144
196	0x3c567973	0.013090479
197	0xbd73a0fe	-0.059479706
198	0xbde92fcb	-0.11386069
199	0x3d526f28	0.051375538
200	0xbd7bd7a8	-0.061484963
201	0xbde6d493	-0.11271014
202	0x3db631ec	0.088962406
203	0x3cea5f04	0.02860976
204	0x3d9b946c	0.075966686
205	0xbd1834c3	-0.037159692
206	0xbd931794	-0.071822315
207	0xbd00a572	-0.03140778
208	0xbdaf7f10	-0.08569157
209	0xbde7999a	-0.11308594
210	0x3cc588cf	0.024113087
211	0x3cc227bf	0.023700593
212	0xbc43feda	-0.011962617
213	0x3db41379	0.087927766
214	0x3d918aad	0.071065284
215	0xbd65b8b1	-0.05608434
216	0x3dff7727	0.124738984
217	0xbdb94da8	-0.09048015
218	0xbc002508	-0.007821329
219	0xbdd687ae	-0.104750976
220	0xbdecf337	-0.11569827
221	0x3bee38a3	0.007269935
222	0x3dd3965f	0.103314154
223	0x3cefd7e2	0.029277746
224	0x3d80609f	0.06268429
225	0xbdb413c1	-0.0879283
226	0xbc63d9ec	-0.013906937
227	0x3c3659db	0.011129822
228	0xbd895386	-0.06705384
229	0x3da9acdd	0.08284924
230	0xbcf4db4f	-0.02988973
231	0x3d150cc5	0.03638913
232	0x3cf230fe	0.029564377
233	0xbde73b1a	-0.112905696
234	0x3d450f38	0.048110217
235	0x3dd4d623	0.10392406
236	0x3d8b7927	0.06810217
237	0xbd8973ba	-0.06711526
238	0x3dcba228	0.09943038
239	0x3c87b6fd	0.016566748
240	0x3d495365	0.049151797
241	0xbdd63545	-0.10459379
242	0xbd2dec00	-0.042461395
243	0x3dc1f322	0.09470202
244	0x3d8d3c4c	0.06896266
245	0xbdd989f1	-0.10622013
246	0x3d10cbf1	0.035350744
247	0xbd9b85ae	-0.07593857
248	0xbd76a175	-0.06021257
249	0xbda9d104	-0.0829182
250	0x3c7bb31a	0.015362525
251	0x3dc8489e	0.09779476
252	0x3d9b5a84	0.07585624
253	0x3d0c7fb2	0.034301467
254	0xbdbc6a6a	-0.09199984
255	0x3d86ce4f	0.06582319

fc.0.bias f4 [64]
0	0x3cd3123f	0.025765536
1	0xbdf65d61	-0.12029529
2	0xbca2d484	-0.019876726
3	0x3de8e5db	0.113719665
4	0xbdf18ad1	-0.11794055
5	0x3debafe3	0.11508157
6	0x3d0b8967	0.034066584
7	0x3c36b2cf	0.01115103
8	0xbdebde8f	-0.11517059
9	0xbd78af78	-0.060714215
10	0xbca83afc	-0.020535938
11	0x3cb87652	0.022517357
12	0xbd48a3cc	-0.048984334
13	0xbd916239	-0.070988126
14	0x3d4a353a	0.049367167
15	0xbc9e265e	-0.019305404
16	0xbdedfebe	-0.11620854
17	0xbd9204ec	-0.07129845
18	0x3dd0b5ec	0.10190949
19	0xbcc040d5	-0.023468414
20	0xbd29b167	-0.04142895
21	0xbc7ddbc3	-0.01549429
22	0x3c9e13e3	0.019296592
23	0x3c171b07	0.009222752
24	0xbcd52841	-0.026020171
25	0xbdddb3ba	-0.10825296
26	0x3da5b3d2	0.08090939
27	0x3ca96fc2	0.020683173
28	0xbd67ed55	-0.05662282
29	0xbdb3e469	-0.087838
30	0xbd805a41	-0.062672146
31	0xbdd76d73	-0.10518923
32	0xbd534730	-0.05158156
33	0xbdf4cc39	-0.11953015
34	0xbd6b3b48	-0.057429582
35	0xbd9d9b5f	-0.0769565
36	0x3d4e9e9a	0.050444223
37	0x3d28d5ff	0.041219708
38	0xbd2a814f	-0.041627225
39	0x3ca394a8	0.019968346
40	0xbc9c9094	-0.019111909
41	0xbcbb15cd	-0.022837544
42	0x3ddf99fc	0.10918042
43	0x3d90eb63	0.070761465
44	0x3dac3900	0.084093094
45	0x3dc0ea9f	0.094197504
46	0xb9b932cf	-0.00035323805
47	0x3d80c425	0.062874116
48	0xbd0e26e2	-0.03470505
49	0x3ca69a3e	0.02033722
50	0xbd9b0d40	-0.075708866
51	0x3e0018d9	0.12509479
52	0x3c0dfb63	0.008665892
53	0x3ddd9915	0.10820214
54	0x3cf2eab6	0.029652935
55	0x3dea8c68	0.114525616
56	0x3ddb9fe8	0.10723859
57	0x3de3e8e3	0.11128404
58	0xbc8b39d1	-0.016995342
59	0x3d108f8e	0.035293154
60	0xbd06eea0	-0.032942414
61	0x3dcdd464	0.10050276
62	0xbd141095	-0.036148626
63	0x3d88e5bb	0.066844426

output_layer.0.weight f4 [1, 64]
0	0x3dbf4224	0.09338787
1	0xbd041a95	-0.032251913
2	0x3da7e28f	0.081975095
3	0xbd4ac4a8	-0.049503952
4	0xbde02e4f	-0.10946333
5	0x3d88a539	0.06672139
6	0x3cb08eae	0.02155241
7	0xbda35779	-0.079756685
8	0x3bb58ed3	0.0055407076
9	0x3dd9b632	0.10630454
10	0xbbd80673	-0.0065925657
11	0x3d68c3b8	0.056827277
12	0x3db310e3	0.08743455
13	0x3cf69d44	0.030104287
14	0xbc62b562	-0.01383719
15	0x3df91e67	0.12164002
16	0xbb643738	-0.0034822952
17	0xbda9f928	-0.08299476
18	0xbdae953c	-0.08524558
19	0xbd9fcdc1	-0.07802916
20	0x3b87d671	0.0041454365
21	0x3defa61d	0.117016055
22	0xbda633de	-0.08115362
23	0x3dac96a8	0.08427173
24	0x3daeecac	0.08541235
25	0x3dba74be	0.09104298
26	0x3d0cad75	0.03434511
27	0x3be22127	0.0069009247
28	0x3ba31b4e	0.00497762
29	0xbdd038c9	-0.10167081
30	0xbd9759ac	-0.073901504
31	0x3d6436b8	0.055716246
32	0x3d9a6630	0.07539022
33	0xbd099602	-0.033590324
34	0x3c3f7736	0.011686137
35	0x3b1a73d5	0.0023567576
36	0xbce0b601	-0.027430536
37	0xbd771f49	-0.06033257
38	0x3cdd3617	0.027003331
39	0xbd952f27	-0.07284384
40	0x3dd60091	0.10449327
41	0xbd65b245	-0.056078214
42	0x3d7eac1d	0.06217586
43	0xbd02c7d3	-0.03192885
44	0x3ccd8e16	0.025092166
45	0xba0bcb8b	-0.00053327595
46	0xbdba4beb	-0.090965115
47	0x3c889999	0.016674804
48	0xbdb29d70	-0.08721435
49	0xbdd9a331	-0.106268294
50	0x3c01f952	0.007932978
51	0x3cd17591	0.025568755
52	0x3b4f68d5	0.0031648178
53	0xbd403281	-0.046923164
54	0xbcb503bd	-0.02209651
55	0xbdc483b4	-0.09595433
56	0xbcf67353	-0.030084288
57	0xbc880687	-0.016604675
58	0x3d031871	0.03200573
59	0xbdbf23e8	-0.093330204
60	0x3d3c2f4a	0.045943536
61	0xbd856bdd	-0.06514714
62	0x3d51baeb	0.05120365
63	0x3db8b61c	0.090191096
