Mask-test/model_epoch_3_80.pth (torch, 154665 bytes, 7 tensors)

embedding.0.weight f4 [64, 7]
0	0xbdd10145	-0.1020532
1	0xbe82c42b	-0.2554029
2	0x3e2ad054	0.16681033
3	0x3e87a57b	0.2649344
4	0x3e8e7ad5	0.27828088
5	0x3ebb3bbd	0.36569014
6	0xba9486eb	-0.0011331713
7	0x3db52ea5	0.08846787
8	0x3e849657	0.2589595
9	0xbea48f46	-0.3214056
10	0x3df59a8f	0.1199237
11	0xbe3e4747	-0.18581878
12	0xbb73b3a7	-0.0037185939
13	0x3c67a296	0.014137885
14	0x3e9e2f42	0.3089543
15	0x3def0bed	0.116721965
16	0xbdf6bdce	-0.12047921
17	0x3e8d2975	0.27570692
18	0xbeb28a23	-0.34871015
19	0x3e86e2c8	0.26344895
20	0x3e96ae27	0.29429743
21	0xbd70a5d5	-0.0587519
22	0x3dffc67c	0.1248903
23	0x3eb15d31	0.34641412
24	0xbea3ba25	-0.31977955
25	0xbe8cce05	-0.2750093
26	0x3e610a8f	0.21976684
27	0x3e1986e9	0.1499287
28	0xbe1033e8	-0.140823
29	0x3dbee7e1	0.09321571
30	0xbdefbed1	-0.11706317
31	0x3ebfc604	0.3745576
32	0x3e92d9b3	0.28681716
33	0xbead9ba7	-0.33907816
34	0x3eb22dc0	0.3480053
35	0x3d3d004b	0.046142858
36	0xbe875f12	-0.2643972
37	0xbd3793c5	-0.04481866
38	0x3dc81c51	0.09771026
39	0xbe8a0796	-0.26958913
40	0xbe685d99	-0.22691955
41	0xba07be8b	-0.00051782344
42	0x3e492112	0.19641522
43	0x3e5cd493	0.21565466
44	0x3ea8a747	0.32940122
45	0x3eb914ca	0.36148673
46	0xbeaf9f6e	-0.34301323
47	0x3d94868a	0.07252224
48	0xbdb5a6e2	-0.08869721
49	0xbdd93664	-0.10606077
50	0xbaebc887	-0.0017988839
51	0x3d846a51	0.06465591
52	0xbd52f34f	-0.05150157
53	0xbe98d01b	-0.29846272
54	0x3cde7ac8	0.027158156
55	0x3e56b717	0.2096828
56	0xbe80dab2	-0.2516685
57	0xbeadb799	-0.33929136
58	0xbe92beb4	-0.2866112
59	0x3e1e3486	0.15449724
60	0x3e3de692	0.18544987
61	0xbeafaaed	-0.34310094
62	0xbda1e59d	-0.079051234
63	0xbe778777	-0.2417277
64	0x3e817e5e	0.25291723
65	0x3cff9f8a	0.031204004
66	0xbcb8f9c7	-0.02258004
67	0x3d6de8d5	0.058083374
68	0x3e05f718	0.1308254
69	0x3e48b1fb	0.19599144
70	0xbe7bcb38	-0.2458924
71	0xbd2a57a9	-0.041587505
72	0x3e594d65	0.2122093
73	0x3e9aedc5	0.3025953
74	0xbcccd1c7	-0.025002373
75	0x3e9ddb3b	0.30831322
76	0x3e2933f8	0.16523731
77	0x3cea5716	0.028605979
78	0xbe2e5e07	-0.17028056
79	0xbe8200ef	-0.25391337
80	0xbea33591	-0.31876805
81	0x3b9d4cb6	0.0048004044
82	0xbe1ad1af	-0.1511905
83	0x3da90e65	0.08254699
84	0xbe9804ea	-0.2969125
85	0xbe727365	-0.23676832
86	0x3ebcf1bf	0.36903188
87	0x3ea879fc	0.32905567
88	0xbd3ba2e5	-0.045809645
89	0xbd2f0432	-0.04272861
90	0x3e9c49f1	0.30525163
91	0xbe3b38ba	-0.18283358
92	0xbe7026c1	-0.23452283
93	0xbe2f6943	-0.17129998
94	0x3e42eead	0.1903636
95	0xbe8a5c10	-0.27023363
96	0xbe551881	-0.20810129
97	0x3e6042be	0.2190046
98	0x3e12ab60	0.14323187
99	0xbe858e70	-0.26085234
100	0xbe7a8225	-0.24463709
101	0xbe81b8cd	-0.25336304
102	0xbe8a786c	-0.27045
103	0x3e69b5fc	0.22823328
104	0x3ea15599	0.31510618
105	0x3e0f0ab9	0.13968934
106	0x3d491a3a	0.049097277
107	0x3e4c5313	0.19953565
108	0xbe62ac2a	-0.22135988
109	0x3e44c614	0.19216186
110	0x3e84dd5d	0.25950137
111	0xbe19b591	-0.15010668
112	0x3c33ce06	0.010974413
113	0x3e65f00b	0.2245485
114	0xbe3ae61b	-0.18251841
115	0x3e8d65c2	0.27616698
116	0xbe807ec9	-0.2509673
117	0xbe898acb	-0.26863703
118	0xbec0dc50	-0.37668085
119	0x3ebae3c9	0.3650191
120	0xbe8b341b	-0.2718819
121	0xbe426d9d	-0.18987127
122	0xbe989747	-0.29802915
123	0x3ea35387	0.31899664
124	0x3cf6282b	0.03004845
125	0x3e89813e	0.26856416
126	0x3b94f537	0.0045458334
127	0xbe62f431	-0.22163464
128	0xbea51d70	-0.32249022
129	0xbeb35504	-0.350258
130	0xbe88adde	-0.2669515
131	0x3e10a017	0.1412357
132	0x3d9701e6	0.07373409
133	0x3eb17ee0	0.3466711
134	0xbd59583a	-0.053062655
135	0xbea61eef	-0.32445475
136	0xbe06959d	-0.1314301
137	0xbe5208e1	-0.205112
138	0xbda9c27b	-0.08289047
139	0x3d583a3b	0.052789908
140	0xbe91d748	-0.2848456
141	0x3eb4ca07	0.35310385
142	0x3e64955b	0.223226
143	0x3e2ebeec	0.17065018
144	0xbe40c71b	-0.18825953
145	0x3e924d25	0.28574482
146	0xbdd79396	-0.10526197
147	0x3dd2937c	0.10282037
148	0xbd8023a4	-0.06256798
149	0xbcf98fa7	-0.030464007
150	0xbea0dd4c	-0.31418836
151	0x3e383c2f	0.17991708
152	0x3e971eef	0.29515788
153	0x3e6eabef	0.23307775
154	0xbd931729	-0.07182152
155	0xbe2b2773	-0.16714267
156	0x3e4be4a3	0.19911437
157	0x3e88bd61	0.26706985
158	0x3e99e81a	0.30059892
159	0xbec1822e	-0.37794632
160	0xbdb98f86	-0.09060578
161	0xbdaa83eb	-0.083259426
162	0x3dc21237	0.094761305
163	0x3daa82c1	0.083257206
164	0x3df6fed2	0.12060322
165	0x3e2e8cd3	0.17045908
166	0x3d6de1eb	0.05807678
167	0xbeb1e3ab	-0.3474401
168	0x3e5e1a69	0.21689762
169	0x3ec05d02	0.3757096
170	0xbe88f458	-0.2674892
171	0x3eb3783f	0.35052678
172	0x3eb69667	0.35661623
173	0x3e895283	0.26820764
174	0x3dbb9399	0.091590114
175	0xbe6c5cad	-0.23082228
176	0xbe15f65b	-0.14644758
177	0x3e9b5753	0.3034006
178	0x3da3c51d	0.07996581
179	0xbd53b6c8	-0.051687986
180	0xbeb19dc6	-0.34690684
181	0xbeb665ce	-0.35624546
182	0xbc3cfc5a	-0.011534775
183	0x3e9ebee4	0.31005013
184	0x3da720a7	0.08160525
185	0x3da9f068	0.08297807
186	0xbdf73d1d	-0.12072203
187	0x3e815f91	0.25268224
188	0x3eb2fb90	0.34957552
189	0xbdd0fc0b	-0.102043234
190	0xbe991551	-0.29899076
191	0x3dd05208	0.10171896
192	0xbe2c654e	-0.1683552
193	0xbebed899	-0.37274626
194	0x3d0259de	0.031823985
195	0xbd03a980	-0.03214407
196	0x3e950b20	0.2911005
197	0x3e0d0a84	0.13773543
198	0xbe99c923	-0.30036268
199	0x3e9982ae	0.29982513
200	0x3e523eaf	0.20531724
201	0x3d8d6a70	0.06905067
202	0xbda74485	-0.08167366
203	0x3d38ada8	0.045087487
204	0x3d6ec7ab	0.058295887
205	0xbda2bfc3	-0.07946732
206	0x3eb194c4	0.34683812
207	0x3eb0aa8e	0.34505123
208	0xbea5c717	-0.32378456
209	0x3db7389a	0.08946343
210	0x3e82fd3e	0.25583833
211	0x3e0c1744	0.1368075
212	0x3e6a09e4	0.22855335
213	0x3d10eb5f	0.035380717
214	0x3e38b767	0.18038712
215	0xbdb3f1b1	-0.08786333
216	0xbc4d8208	-0.012543209
217	0xbe625d93	-0.22106008
218	0xbd770254	-0.060304955
219	0x3e9e22af	0.30885836
220	0x3ea5402b	0.3227552
221	0x3d1d27f7	0.03836819
222	0xbe3e7e2b	-0.18602817
223	0x3e4e7387	0.20161258
224	0x3d0eb4d1	0.03484041
225	0xbd8c9bbb	-0.06865641
226	0xbe43b0aa	-0.1911036
227	0xbe8964fd	-0.2683486
228	0xbeb2bbec	-0.34908998
229	0xbd953970	-0.07286346
230	0xbd3c5c48	-0.045986444
231	0xbe87146e	-0.26382774
232	0x3e9b50fc	0.30335224
233	0x3e2f6554	0.17128497
234	0xbd82fe3b	-0.06396147
235	0x3d111716	0.035422407
236	0xbe93d584	-0.28873837
237	0xbe9d0f24	-0.30675614
238	0xbe7a2603	-0.24428563
239	0xbd5081b3	-0.05090494
240	0x3eb204c1	0.34769252
241	0xbea2579d	-0.3170747
242	0x3d0c9762	0.034324057
243	0x3cdc7e59	0.026915716
244	0xbe266d16	-0.1625255
245	0xbdc1f7b8	-0.09471077
246	0xbdf54d90	-0.119776845
247	0x3c8549ee	0.016270604
248	0x3d7e7d45	0.062131185
249	0xbd9472c5	-0.07248453
250	0x3db57fdb	0.08862277
251	0x3e8c3d78	0.27390647
252	0xbddd9c3b	-0.10820814
253	0xbe71e442	-0.2362223
254	0xbe1ad90f	-0.15121864
255	0x3d33bef0	0.043883264

embedding.0.bias f4 [64]
0	0xbc98d7e3	-0.01865763
1	0xbdf74d00	-0.120752335
2	0xbe0debd5	-0.13859494
3	0xbea6b3b6	-0.32558984
4	0x3c8dc4c7	0.017305745
5	0xbe9f3acf	-0.31099555
6	0xbd7760e3	-0.060395133
7	0x3d15dbcb	0.036586564
8	0x3ea6be1e	0.32566923
9	0xbbfc411f	-0.0076981927
10	0x3e1a299c	0.15054935
11	0xbebab522	-0.36466318
12	0xbdc82ffd	-0.09774778
13	0xbd7eddae	-0.06222313
14	0x3e5dd1b4	0.21662027
15	0x3ec21b4a	0.37911445
16	0x3e600601	0.2187729
17	0xbe97f516	-0.29679173
18	0xbe1aefef	-0.1513059
19	0x3dbc2738	0.09187168
20	0x3e73ab68	0.23795855
21	0x3dd72223	0.10504558
22	0xbda353a3	-0.07974937
23	0xbe254437	-0.16139303
24	0xbbd061a7	-0.0063592973
25	0x3df381e3	0.11890008
26	0xbe350bc8	-0.17680275
27	0xbe7c149a	-0.24617234
28	0x3eb20253	0.34767398
29	0xbe8b5faa	-0.27221423
30	0x3db58be1	0.088645704
31	0x3e345e9c	0.17614216
32	0x3e083fe0	0.13305616
33	0xbeb67468	-0.35635686
34	0xbe703206	-0.23456582
35	0x3e69a0d9	0.22815265
36	0x3e7e5113	0.24835615
37	0xbcb3dbeb	-0.021955451
38	0xbe1e985d	-0.1548781
39	0xbea75a50	-0.3268609
40	0xbc09dcd3	-0.008414465
41	0xbe7ae79d	-0.24502416
42	0xbe040cbc	-0.12895483
43	0xbe8763f4	-0.26443446
44	0xbe3a7bb6	-0.18211254
45	0xbd9b11d8	-0.07571763
46	0x3d570b4d	0.05250101
47	0xbe809371	-0.2511249
48	0xbde47e24	-0.11156872
49	0xbebdd2f1	-0.37074998
50	0xbe97b128	-0.29627347
51	0x3de08c24	0.1096423
52	0xbeaba563	-0.33524618
53	0xbe232d37	-0.15935217
54	0xbd82ed6f	-0.06392943
55	0x3da82d9e	0.08211826
56	0x3e99285d	0.29913607
57	0x3e89b6a0	0.26897144
58	0xbe9cd988	-0.30634713
59	0x3e9f09b2	0.31062084
60	0x3ebb6f49	0.3660834
61	0xbe38173e	-0.17977616
62	0x3d14702e	0.036239795
63	0x3e8ebb2f	0.27877185

layernorm.weight f4 [259, 64]
0	0x3f800006	1.0000007
1	0x3f7fffe2	0.9999982
2	0x3f802263	1.0010494
3	0x3f7fea5c	0.9996698
4	0x3f7f95f7	0.99838203
5	0x3f800000	1.0
6	0x3f800000	1.0
7	0x3f7fd7e6	0.9993881
8	0x3f800000	1.0
9	0x3f80197e	1.000778
10	0x3f7fed4c	0.9997146
11	0x3f800000	1.0
12	0x3f8023b4	1.0010896
13	0x3f800bad	1.0003563
14	0x3f7fee91	0.999734
15	0x3f800004	1.0000005
16	0x3f800000	1.0
17	0x3f7fd62e	0.9993619
18	0x3f7ffd2c	0.99995685
19	0x3f7ffff7	0.99999946
20	0x3f800000	1.0
21	0x3f801c9a	1.0008729
22	0x3f800000	1.0
23	0x3f800000	1.0
24	0x3f8017d8	1.0007277
25	0x3f800010	1.0000019
26	0x3f801b76	1.000838
27	0x3f800000	1.0
28	0x3f800000	1.0
29	0x3f7fd5f8	0.99935865
30	0x3f7ffffa	0.99999964
31	0x3f8015de	1.0006673
32	0x3f7fffff	0.99999994
33	0x3f800000	1.0
34	0x3f800000	1.0
35	0x3f800000	1.0
36	0x3f7fffff	0.99999994
37	0x3f800000	1.0
38	0x3f800000	1.0
39	0x3f7fe359	0.9995628
40	0x3f801179	1.0005332
41	0x3f800000	1.0
42	0x3f801a8b	1.00081
43	0x3f7fff0e	0.9999856
44	0x3f800000	1.0
45	0x3f800000	1.0
46	0x3f7fa6ec	0.9986408
47	0x3f800000	1.0
48	0x3f7fd244	0.99930215
49	0x3f7fe968	0.99965525
50	0x3f800000	1.0
51	0x3f800334	1.0000978
52	0x3f800005	1.0000006
53	0x3f800000	1.0
54	0x3f800000	1.0
55	0x3f7fe1db	0.99954003
56	0x3f7feae7	0.9996781
57	0x3f800000	1.0
58	0x3f80026c	1.0000739
59	0x3f800000	1.0
60	0x3f800212	1.0000632
61	0x3f800000	1.0
62	0x3f800000	1.0
63	0x3f8018c9	1.0007564
64	0x3f7ffff2	0.99999917
65	0x3f7ffff2	0.99999917
66	0x3f8019b8	1.0007849
67	0x3f7ffb12	0.9999248
68	0x3f7fc47b	0.9990918
69	0x3f800000	1.0
70	0x3f800000	1.0
71	0x3f7fe585	0.99959594
72	0x3f800000	1.0
73	0x3f8015fd	1.000671
74	0x3f7ffb74	0.9999306
75	0x3f800000	1.0
76	0x3f801a44	1.0008016
77	0x3f800014	1.0000024
78	0x3f800005	1.0000006
79	0x3f800000	1.0
80	0x3f800000	1.0
81	0x3f7ff025	0.99975806
82	0x3f7fffb6	0.9999956
83	0x3f7ffffe	0.9999999
84	0x3f800000	1.0
85	0x3f8009a5	1.0002943
86	0x3f800000	1.0
87	0x3f800000	1.0
88	0x3f8015df	1.0006675
89	0x3f7ffffc	0.99999976
90	0x3f8009d2	1.0002997
91	0x3f800000	1.0
92	0x3f800000	1.0
93	0x3f7fe1a8	0.999537
94	0x3f7ffffb	0.9999997
95	0x3f800658	1.0001936
96	0x3f7fffff	0.99999994
97	0x3f800000	1.0
98	0x3f800000	1.0
99	0x3f800000	1.0
100	0x3f800000	1.0
101	0x3f800000	1.0
102	0x3f800000	1.0
103	0x3f7febea	0.9996935
104	0x3f800e4d	1.0004364
105	0x3f800000	1.0
106	0x3f800f3c	1.0004649
107	0x3f7fff6c	0.9999912
108	0x3f800000	1.0
109	0x3f800000	1.0
110	0x3f7fc910	0.9991617
111	0x3f800000	1.0
112	0x3f7fe717	0.9996199
113	0x3f7ffe6b	0.99997586
114	0x3f800000	1.0
115	0x3f800006	1.0000007
116	0x3f7fffeb	0.99999875
117	0x3f800000	1.0
118	0x3f800000	1.0
119	0x3f7fed99	0.9997192
120	0x3f80000d	1.0000015
121	0x3f800000	1.0
122	0x3f800002	1.0000002
123	0x3f800000	1.0
124	0x3f800014	1.0000024
125	0x3f7ffffe	0.9999999
126	0x3f800000	1.0
127	0x3f80051e	1.0001562
128	0x3f800005	1.0000006
129	0x3f7fffe1	0.99999815
130	0x3f8016a5	1.000691
131	0x3f7febf9	0.9996944
132	0x3f7fb250	0.9988146
133	0x3f800000	1.0
134	0x3f800000	1.0
135	0x3f7fe417	0.9995741
136	0x3f800000	1.0
137	0x3f8010ff	1.0005187
138	0x3f7ff045	0.99976
139	0x3f800000	1.0
140	0x3f801f9b	1.0009645
141	0x3f800848	1.0002527
142	0x3f7ff006	0.9997562
143	0x3f800001	1.0000001
144	0x3f800000	1.0
145	0x3f7fdca4	0.99946046
146	0x3f7ffc0b	0.9999396
147	0x3f7ffffc	0.99999976
148	0x3f800000	1.0
149	0x3f8018a6	1.0007522
150	0x3f7fffff	0.99999994
151	0x3f800000	1.0
152	0x3f80117f	1.0005339
153	0x3f80000a	1.0000012
154	0x3f80137c	1.0005946
155	0x3f800000	1.0
156	0x3f800000	1.0
157	0x3f7fe1a0	0.9995365
158	0x3f7ffffb	0.9999997
159	0x3f8012f9	1.000579
160	0x3f7fffff	0.99999994
161	0x3f800000	1.0
162	0x3f800000	1.0
163	0x3f800000	1.0
164	0x3f800000	1.0
165	0x3f800000	1.0
166	0x3f800000	1.0
167	0x3f7fe39c	0.9995668
168	0x3f8009f0	1.0003033
169	0x3f800000	1.0
170	0x3f8015b9	1.0006629
171	0x3f7ffe8a	0.9999777
172	0x3f800000	1.0
173	0x3f800000	1.0
174	0x3f7fc4f5	0.9990991
175	0x3f800000	1.0
176	0x3f7fe458	0.999578
177	0x3f7fec1f	0.9996967
178	0x3f800000	1.0
179	0x3f8001a8	1.0000505
180	0x3f800007	1.0000008
181	0x3f800000	1.0
182	0x3f800000	1.0
183	0x3f7fe6e0	0.9996166
184	0x3f7fee97	0.99973434
185	0x3f800000	1.0
186	0x3f800167	1.0000428
187	0x3f800000	1.0
188	0x3f800101	1.0000306
189	0x3f7fffa8	0.99999475
190	0x3f800000	1.0
191	0x3f8013eb	1.0006078
192	0x3f7fffd8	0.9999976
193	0x3f7ffff1	0.9999991
194	0x3f8014d5	1.0006357
195	0x3f7ffcc1	0.99995047
196	0x3f7fd4db	0.99934167
197	0x3f800000	1.0
198	0x3f800000	1.0
199	0x3f7fe82c	0.9996364
200	0x3f800000	1.0
201	0x3f8013df	1.0006064
202	0x3f7ffd39	0.9999576
203	0x3f800000	1.0
204	0x3f8013b0	1.0006008
205	0x3f800015	1.0000025
206	0x3f7fffdd	0.9999979
207	0x3f800000	1.0
208	0x3f800000	1.0
209	0x3f7ff522	0.9998342
210	0x3f7fffd8	0.9999976
211	0x3f7fffff	0.99999994
212	0x3f800000	1.0
213	0x3f800700	1.0002136
214	0x3f7ffffe	0.9999999
215	0x3f800000	1.0
216	0x3f801320	1.0005836
217	0x3f800000	1.0
218	0x3f80071d	1.0002171
219	0x3f800000	1.0
220	0x3f800000	1.0
221	0x3f7fe9c2	0.9996606
222	0x3f7ffffa	0.99999964
223	0x3f800401	1.0001222
224	0x3f800000	1.0
225	0x3f800000	1.0
226	0x3f800000	1.0
227	0x3f800000	1.0
228	0x3f800000	1.0
229	0x3f800000	1.0
230	0x3f800000	1.0
231	0x3f7ff321	0.9998036
232	0x3f800ca4	1.0003858
233	0x3f800000	1.0
234	0x3f800b2d	1.000341
235	0x3f7fff9a	0.9999939
236	0x3f800000	1.0
237	0x3f800000	1.0
238	0x3f7fd79b	0.9993836
239	0x3f800000	1.0
240	0x3f7fe9d0	0.99966145
241	0x3f7ffe04	0.9999697
242	0x3f800000	1.0
243	0x3f800003	1.0000004
244	0x3f7ffff8	0.9999995
245	0x3f800000	1.0
246	0x3f800000	1.0
247	0x3f7ff424	0.99981904
248	0x3f800005	1.0000006
249	0x3f800000	1.0
250	0x3f800002	1.0000002
251	0x3f800000	1.0
252	0x3f80000c	1.0000014
253	0x3f7fff95	0.9999936
254	0x3f800000	1.0
255	0x3f80038e	1.0001085

layernorm.bias f4 [259, 64]
0	0x3749eea2	1.2036095e-05
1	0xb6ce3060	-6.14491e-06
2	0x3784cad4	1.5830075e-05
3	0xb6d711b0	-6.4095584e-06
4	0xb7b00355	-2.0982387e-05
5	0x3773c892	1.4530628e-05
6	0x3695144f	4.4429103e-06
7	0xb786842e	-1.6035596e-05
8	0xb6fe2910	-7.57457e-06
9	0x374b35c9	1.2112266e-05
10	0x35db62cf	1.6345529e-06
11	0x37613ef4	1.34257025e-05
12	0x37982f0a	1.8141716e-05
13	0x37635099	1.354902e-05
14	0x3690e066	4.317658e-06
15	0x37a9288c	2.0165251e-05
16	0x345e1bab	2.0685427e-07
17	0xb78f3775	-1.7072753e-05
18	0xb75c5fd7	-1.3135336e-05
19	0xb7956c31	-1.7812565e-05
20	0xb6e55894	-6.8350437e-06
21	0x37c8d4fd	2.3941038e-05
22	0xb7ae8a64	-2.080686e-05
23	0x372cd7e2	1.0302263e-05
24	0x370e1b37	8.470196e-06
25	0x378faadd	1.7126493e-05
26	0x37326aa1	1.0634453e-05
27	0xb671ffb8	-3.6060646e-06
28	0xb5979a84	-1.1295347e-06
29	0xb7d457a9	-2.531319e-05
30	0xb78ae215	-1.655616e-05
31	0x36ad28e9	5.1605643e-06
32	0x37b0c326	2.1071708e-05
33	0xb7906272	-1.721198e-05
34	0xb6931f4d	-4.3845853e-06
35	0xb62b38ee	-2.5514123e-06
36	0xb71dbf6e	-9.4025e-06
37	0xb7333df3	-1.0683655e-05
38	0x33bd24d8	8.8077e-08
39	0xb6106d3c	-2.1521255e-06
40	0x3751a525	1.24958215e-05
41	0xb72cf84e	-1.0309812e-05
42	0x37989a12	1.8191557e-05
43	0x364814f0	2.981451e-06
44	0x3635ed43	2.7109206e-06
45	0x36c50191	5.87124e-06
46	0xb744eb0c	-1.17372365e-05
47	0x35cb8c7b	1.5165564e-06
48	0xb77aa0cb	-1.4938599e-05
49	0xb711b68c	-8.685176e-06
50	0x37238fba	9.749021e-06
51	0x37015a76	7.710061e-06
52	0x364b0f26	3.0258175e-06
53	0xb69f103c	-4.740459e-06
54	0xb720a10e	-9.574242e-06
55	0xb788f1a0	-1.6324979e-05
56	0x36a369cc	4.870095e-06
57	0x36427105	2.8974039e-06
58	0x36efc4ca	7.1456643e-06
59	0xb79e22a3	-1.8851197e-05
60	0x368ec694	4.2550473e-06
61	0xb6d2bc2d	-6.2803942e-06
62	0xb50ef233	-5.325157e-07
63	0x37a19d6a	1.9265997e-05
64	0x37663104	1.3720481e-05
65	0xb6c81016	-5.962337e-06
66	0x37756817	1.4627373e-05
67	0xb706cee4	-8.035193e-06
68	0xb7a40071	-1.9550529e-05
69	0x3758fddd	1.293371e-05
70	0x35166329	5.602365e-07
71	0xb7916cbb	-1.7335979e-05
72	0xb6064086	-2.0005114e-06
73	0x3792cd30	1.7500104e-05
74	0x3168c6ba	3.3873406e-09
75	0x36c663a0	5.9124577e-06
76	0x375ff5c3	1.3349057e-05
77	0x372fad49	1.0471159e-05
78	0xb619de1a	-2.2928057e-06
79	0x37a31c93	1.944442e-05
80	0xb489ea05	-2.568851e-07
81	0xb76bb89f	-1.4050077e-05
82	0xb741c670	-1.1549899e-05
83	0xb78f4ea4	-1.7083548e-05
84	0xb6b3ab29	-5.3545414e-06
85	0x37a78ac0	1.9972562e-05
86	0xb787f4c7	-1.6207237e-05
87	0x376135f6	1.3423609e-05
88	0x374b1bf5	1.2106252e-05
89	0x37a929fc	2.016592e-05
90	0x373370f8	1.0695534e-05
91	0x354bb855	7.589163e-07
92	0x34fcac38	4.7063963e-07
93	0xb7c91618	-2.3971355e-05
94	0xb75d8fc4	-1.32060995e-05
95	0x36ff8639	7.615218e-06
96	0x37ad5d09	2.066653e-05
97	0xb731ace3	-1.0590275e-05
98	0xb4f3c925	-4.540863e-07
99	0x348adcf1	2.586526e-07
100	0xb6e0ec7d	-6.703251e-06
101	0xb70a5072	-8.244171e-06
102	0x3610958f	2.1544727e-06
103	0xb710fff2	-8.642661e-06
104	0x3784467b	1.5768446e-05
105	0xb71fe925	-9.531422e-06
106	0x3784607c	1.5780555e-05
107	0xb5ac11b2	-1.2820149e-06
108	0x35f4bd3d	1.8234492e-06
109	0x365f7f0d	3.3303543e-06
110	0xb76eb7cd	-1.42287e-05
111	0x3677e157	3.6937033e-06
112	0xb7834875	-1.5650157e-05
113	0xb74fe5a6	-1.2391631e-05
114	0x36ea739d	6.9872026e-06
115	0x36d45a0d	6.3285756e-06
116	0x354c817c	7.6184347e-07
117	0xb6dc11e8	-6.5585955e-06
118	0xb712da3e	-8.753092e-06
119	0xb7a1a34d	-1.9268738e-05
120	0x35810935	9.613929e-07
121	0x3566aa49	8.5929474e-07
122	0x37115831	8.663207e-06
123	0xb79680b4	-1.7941325e-05
124	0x369b7a35	4.6335867e-06
125	0xb71e950c	-9.452237e-06
126	0x365f6c35	3.3292574e-06
127	0x3794dd61	1.7746062e-05
128	0x3724c755	9.821572e-06
129	0xb696de57	-4.496232e-06
130	0x376dcd46	1.4174095e-05
131	0xb6ffcbb9	-7.6233086e-06
132	0xb7b2e300	-2.1324959e-05
133	0x3783f296	1.572938e-05
134	0x36f5faaa	7.33075e-06
135	0xb78c3492	-1.671378e-05
136	0xb7018900	-7.720897e-06
137	0x3729d8a6	1.0123627e-05
138	0xb6532ebe	-3.1468658e-06
139	0x376a7e3a	1.3976876e-05
140	0x37a0f8a4	1.9189269e-05
141	0x37a2984e	1.9382827e-05
142	0x373ffc4b	1.1443229e-05
143	0x37bbc4b7	2.238374e-05
144	0x35c2c253	1.4510682e-06
145	0xb7c1d2b8	-2.3105516e-05
146	0xb76faedd	-1.4286224e-05
147	0xb7921da2	-1.7418355e-05
148	0xb774c6c1	-1.4589809e-05
149	0x37fee3cb	3.0385234e-05
150	0xb7db0155	-2.6107455e-05
151	0x3736f112	1.0904174e-05
152	0x369748ab	4.5086103e-06
153	0x37998e3f	1.830526e-05
154	0x36a4c7d6	4.910845e-06
155	0xb6a0ea3f	-4.7956414e-06
156	0xb4a0919c	-2.9908267e-07
157	0xb7e73c6d	-2.7565484e-05
158	0xb7abc8d1	-2.0478301e-05
159	0x371a6c8d	9.204389e-06
160	0x37fd5ce2	3.0203202e-05
161	0xb77e76ff	-1.5167286e-05
162	0x35bfdae6	1.4294317e-06
163	0xb55c0ddc	-8.1976555e-07
164	0xb78395f6	-1.5686248e-05
165	0xb78885be	-1.6274742e-05
166	0x362fc161	2.6189593e-06
167	0xb58b05ca	-1.0357992e-06
168	0x379b7212	1.8530558e-05
169	0xb75018b8	-1.2403521e-05
170	0x37b3d13e	2.1435899e-05
171	0x36cf2ad8	6.1740684e-06
172	0x349dfe97	2.9428767e-07
173	0x36e452b2	6.8045565e-06
174	0xb7a27782	-1.9367555e-05
175	0x3634b20f	2.6925734e-06
176	0xb7902d85	-1.7187334e-05
177	0xb705d197	-7.976217e-06
178	0x37152db5	8.891734e-06
179	0x3710fd8b	8.642101e-06
180	0x375c55f6	1.3133036e-05
181	0xb6cb6a6a	-6.0622597e-06
182	0xb7694d31	-1.3905855e-05
183	0xb77f3cc0	-1.5213329e-05
184	0x36de0dbc	6.6177145e-06
185	0x3644b18c	2.9309622e-06
186	0x375f4b61	1.3309386e-05
187	0xb7a52063	-1.9684614e-05
188	0xb5ecc48e	-1.7640575e-06
189	0xb70a312b	-8.236889e-06
190	0x351cb1df	5.8373365e-07
191	0x37c0f81b	2.3003717e-05
192	0x377a7113	1.4927488e-05
193	0xb69f4284	-4.7463127e-06
194	0x3796c3ae	1.7972514e-05
195	0xb75f1fcd	-1.329924e-05
196	0xb8006ac2	-3.0617004e-05
197	0x3797094c	1.8004932e-05
198	0x373cbe0e	1.1249924e-05
199	0xb6f19139	-7.199266e-06
200	0xb701dd04	-7.740458e-06
201	0x36e28ed3	6.751952e-06
202	0xb6e3cc31	-6.788898e-06
203	0x36caade2	6.0403117e-06
204	0x37c487ec	2.3428314e-05
205	0x377d3dbd	1.509435e-05
206	0xb67a54c5	-3.7302245e-06
207	0x373df3da	1.1322054e-05
208	0x370257b6	7.769026e-06
209	0xb7915038	-1.7322702e-05
210	0xb7a1b488	-1.9276762e-05
211	0xb72d37a6	-1.032456e-05
212	0xb652392b	-3.1325715e-06
213	0x37f3cdb0	2.9063638e-05
214	0xb740ab06	-1.1483911e-05
215	0x376638a2	1.3722254e-05
216	0x36beb259	5.6832037e-06
217	0x37b087ca	2.1044067e-05
218	0x36ea9c7e	6.9919615e-06
219	0x35cca423	1.5246954e-06
220	0xb61ea43e	-2.3639436e-06
221	0xb7dbd3fb	-2.6205546e-05
222	0xb7d07b79	-2.4853029e-05
223	0x36e74e28	6.893435e-06
224	0x37b6dafb	2.1798061e-05
225	0xb743a6ea	-1.1661768e-05
226	0xb6c1e5ce	-5.778601e-06
227	0x369ffc94	4.767973e-06
228	0xb72d2ca5	-1.0321998e-05
229	0xb75946a9	-1.295066e-05
230	0x36ce4008	6.1467326e-06
231	0xb6b0e467	-5.2717983e-06
232	0x377a6663	1.4925e-05
233	0xb6fd0a4b	-7.541186e-06
234	0x37399d92	1.10635465e-05
235	0xb707fb9c	-8.105209e-06
236	0x35cb0733	1.5126774e-06
237	0x37208ac1	9.569049e-06
238	0xb7a4e898	-1.9658633e-05
239	0x368cd104	4.1966578e-06
240	0xb6ad49ab	-5.164378e-06
241	0xb757831b	-1.2845524e-05
242	0x372d6727	1.0335621e-05
243	0x35c1a127	1.4426522e-06
244	0x3455f911	1.992778e-07
245	0xb70014d4	-7.634244e-06
246	0xb734cad1	-1.0776058e-05
247	0xb7d3487c	-2.5186913e-05
248	0x36853aed	3.9705687e-06
249	0x35a5c79b	1.2351551e-06
250	0x35afcc61	1.3097998e-06
251	0xb78531a4	-1.5877951e-05
252	0x37162641	8.949603e-06
253	0xb72172a3	-9.623039e-06
254	0x36ae24b2	5.189876e-06
255	0x37ae889f	2.0806036e-05

fc.0.weight f4 [64, 64]
0	0x3d8aaa71	0.0677079
1	0x3ad1c756	0.0016004841
2	0x3dbb26f6	0.091382906
3	0xbd7741d0	-0.060365498
4	0xbd84aff9	-0.064788766
5	0x3dbd9aa9	0.09258015
6	0xbbd1775a	-0.0063924016
7	0x3c90a4aa	0.017656643
8	0xbd57af3e	-0.05265736
9	0x3d8975e7	0.06711941
10	0x3d2bd374	0.041949704
11	0xbdd83c4c	-0.10558376
12	0xbda1e92b	-0.079058014
13	0x3d1e3e6f	0.03863376
14	0x3cbbce48	0.022925511
15	0xbd3bb824	-0.045829907
16	0xbdbfc0d4	-0.09362951
17	0xba8f3a6a	-0.0010927443
18	0x3dd4cc0f	0.103904836
19	0x3d40a142	0.047028787
20	0xbdf67ee9	-0.12035925
21	0xbcd7a8ec	-0.026325665
22	0x3d19d48b	0.037556212
23	0x3dbabbc2	0.09117843
24	0xbdbab0cb	-0.09115752
25	0xbcb90e35	-0.022589782
26	0x3d1f2afd	0.038859356
27	0x3dc3ddee	0.09563814
28	0xbd52fd4a	-0.051511087
29	0xbca9275b	-0.020648649
30	0xbd9e42f5	-0.07727615
31	0xbdc31b53	-0.09526696
32	0x3dd2ac42	0.10286762
33	0xbd5c30bc	-0.053757414
34	0xbdcca952	-0.09993233
35	0x3da71463	0.08158185
36	0x3d091713	0.03346927
37	0x3de61eed	0.112363674
38	0x3d92e830	0.071731925
39	0xbd09a0e6	-0.03360071
40	0x3d7f3843	0.062309515
41	0xbd511f1c	-0.05105506
42	0xbc82b911	-0.015957387
43	0xbd841c11	-0.06450666
44	0xbdf11d13	-0.117731236
45	0x3d3c8123	0.046021592
46	0x3db804ab	0.08985265
47	0x3da61c89	0.081109114
48	0xbca72b92	-0.020406518
49	0xbde6af5b	-0.11263915
50	0x3d9f961f	0.07792305
51	0x3d9c7f69	0.07641489
52	0x3ccb7a07	0.02483846
53	0xbdca60f5	-0.09881774
54	0xbdfebe53	-0.12438645
55	0xbd0b06dd	-0.033942092
56	0xbda634d1	-0.08115543
57	0x3dba412e	0.09094463
58	0x3d8c04b8	0.068368375
59	0xbda35f4e	-0.07977162
60	0xbdf1220f	-0.11774074
61	0x3cb78ffc	0.022407524
62	0xbdaf7c37	-0.08568614
63	0x3d13b349	0.03605965
64	0x3c9426fa	0.018084992
65	0xbd832226	-0.06402998
66	0xbde1a818	-0.110183895
67	0x3c57fc5d	0.013182727
68	0xbdb9fd44	-0.0908151
69	0xbb921278	-0.004457768
70	0x3affcc94	0.0019515925
71	0xbce93c99	-0.028471278
72	0x3dc93836	0.098251745
73	0x3d444f22	0.04792703
74	0x3de4e599	0.11176605
75	0xbd20a809	-0.03922275
76	0x3df4fc99	0.11962242
77	0x3da9656a	0.08271296
78	0xbda0c434	-0.07849923
79	0x3b48941c	0.0030605858
80	0xbc1ec3f7	-0.009690276
81	0xbda05b99	-0.07829971
82	0xbdc6926b	-0.09695896
83	0x3de1241a	0.10993214
84	0x3c2efa95	0.010679861
85	0xbdbaa4f3	-0.09113493
86	0x3df0b661	0.11753536
87	0xbd81c94e	-0.06337224
88	0xbdf013df	-0.1172254
89	0x3c4bfbda	0.012450183
90	0xbd33bb1b	-0.04387961
91	0xbdcccce4	-0.10000017
92	0x3c85c933	0.01633129
93	0x3d42a454	0.047519997
94	0x3cce9367	0.025216771
95	0x3ac13c25	0.0014742656
96	0x3c45650b	0.012048016
97	0xbd5dcd10	-0.05415064
98	0x3cf6eb27	0.030141426
99	0x3d4b3b52	0.04961712
100	0x3d391306	0.045184158
101	0xbcd2721c	-0.025689177
102	0xbc06f1d0	-0.0082363635
103	0xbd09cf62	-0.03364504
104	0x3d6585d9	0.05603585
105	0xbc79f428	-0.015255965
106	0xbdb91da0	-0.09038854
107	0x3c0477fa	0.008085245
108	0xbd5aef2a	-0.05345074
109	0xbd07e109	-0.033173595
110	0xbd78f1e3	-0.060777556
111	0x3d314b6b	0.043284815
112	0xbc601470	-0.013676748
113	0x3db3e6dc	0.08784267
114	0xbde67663	-0.11253049
115	0x3d4660d6	0.048432194
116	0xbdd77546	-0.10520415
117	0xbda257c1	-0.07926894
118	0x3c07a1ee	0.008278353
119	0xbd021b75	-0.031764466
120	0x3cdf3f01	0.027251722
121	0xbda4c11a	-0.08044644
122	0xbd820c8c	-0.063500494
123	0xbd07ef1f	-0.033187028
124	0xbde1e405	-0.110298194
125	0x3e000ea4	0.12505585
126	0x3dfa1ddf	0.12212729
127	0xbdbe3f59	-0.09289426
128	0x3d71ee5a	0.0590652
129	0xbdd21528	-0.102579415
130	0xbdbf88dd	-0.093522765
131	0x3dbb96d1	0.09159625
132	0xbdcd2a11	-0.10017789
133	0xbdfe96e7	-0.12431126
134	0xbdc295b2	-0.09501208
135	0x3da10bbb	0.078635655
136	0x3c99650a	0.018724937
137	0x3d39ec33	0.045391273
138	0xbd56c8a8	-0.052437454
139	0xbda08da9	-0.078395195
140	0x3d9c1859	0.076218314
141	0xbd7f0f09	-0.062270198
142	0xbb92748d	-0.0044694603
143	0x3bd0e939	0.0063754586
144	0xbdfc8dca	-0.123317316
145	0xbd80f1b3	-0.062961005
146	0xbd066613	-0.03281219
147	0xbdba04b1	-0.09082926
148	0x3d3f5f22	0.046721585
149	0x3d98f87c	0.0746927
150	0x3d4334f5	0.047657926
151	0xbd593fb6	-0.053039275
152	0xbdacf1a6	-0.08444528
153	0xbdbc9783	-0.09208586
154	0xbcb84be7	-0.02249713
155	0xbd3eda75	-0.046595056
156	0xbdee0ea2	-0.11623885
157	0xbdecc257	-0.11560505
158	0x3c99970b	0.01874878
159	0x3d4f5fa0	0.050628304
160	0xbd58d523	-0.052937638
161	0x3defd241	0.117100246
162	0xbdaf0b3c	-0.08547065
163	0xbc6e03ff	-0.01452732
164	0x3d434fbc	0.047683463
165	0x3d39e5cc	0.045385167
166	0x3df70055	0.1206061
167	0xbdd380eb	-0.103273235
168	0xbdc964f3	-0.09833708
169	0x3d68e707	0.05686095
170	0xbce5dbaa	-0.028058846
171	0xbd836740	-0.06416178
172	0xbcecdcef	-0.028913943
173	0x3d70b66f	0.058767732
174	0x3c6286ab	0.013826053
175	0xbdf61bf7	-0.120170526
176	0x3d3d3f9d	0.046203244
177	0x3c5888b6	0.013216188
178	0xbd1a7889	-0.037712608
179	0x3d841ce3	0.06450822
180	0x3d3ed01a	0.04658518
181	0x3d0e9cf1	0.03481764
182	0xbd1d977a	-0.038474537
183	0x3c7a4817	0.015275977
184	0xbdba5dce	-0.09099923
185	0x3cdd3ff0	0.027008027
186	0x37efcddb	2.858688e-05
187	0x3de4654c	0.11152133
188	0x3d964671	0.073376544
189	0x3dcd6215	0.10028473
190	0x3cb0c7ad	0.021579588
191	0x3d1b5e5e	0.037931792
192	0xbca98569	-0.020693498
193	0xbd7fcb6e	-0.062449865
194	0xbbea999d	-0.0071594254
195	0xbcea3e4c	-0.028594159
196	0x3c5636c1	0.013074578
197	0xbd73727b	-0.05943535
198	0xbde92f54	-0.1138598
199	0x3d522d1d	0.051312555
200	0xbd7bd048	-0.06147793
201	0xbde6c6fb	-0.11268421
202	0x3db6216d	0.08893094
203	0x3cea8c16	0.028631251
204	0x3d9ba353	0.07599511
205	0xbd183de0	-0.037168384
206	0xbd933d5c	-0.07189438
207	0xbd00d31f	-0.03145134
208	0xbdafb83c	-0.08580062
209	0xbde7a6d5	-0.113111176
210	0x3cc5b5b1	0.024134489
211	0x3cc241ac	0.023712955
212	0xbc43da04	-0.011953834
213	0x3db3f724	0.08787373
214	0x3d91ae48	0.0711332
215	0xbd6617bd	-0.056174982
216	0x3dff7c7a	0.12474914
217	0xbdb956de	-0.09049772
218	0xbbff9c25	-0.0078005963
219	0xbdd67c15	-0.104728855
220	0xbded03f3	-0.11573019
221	0x3bee6076	0.0072746826
222	0x3dd399c0	0.1033206
223	0x3cef8c66	0.029241752
224	0x3d8064d5	0.06269232
225	0xbdb41453	-0.08792939
226	0xbc638034	-0.0138855465
227	0x3c3520ad	0.011055154
228	0xbd89574c	-0.06706104
229	0x3da975df	0.08274435
230	0xbcf4ae42	-0.029868249
231	0x3d1561e2	0.0364703
232	0x3cf23e1b	0.02957063
233	0xbde72f86	-0.11288361
234	0x3d451fbc	0.048125967
235	0x3dd4e4e2	0.103952184
236	0x3d8b850d	0.06812487
237	0xbd8988e9	-0.06715567
238	0x3dcb9cb2	0.09941997
239	0x3c87e315	0.016587773
240	0x3d49743d	0.04918312
241	0xbdd6364e	-0.104595765
242	0xbd2dc005	-0.042419452
243	0x3dc1ec66	0.094689175
244	0x3d8d2ebb	0.06893679
245	0xbdd96f63	-0.106169485
246	0x3d107c78	0.035274953
247	0xbd9b83cb	-0.07593497
248	0xbd76bef1	-0.06024069
249	0xbda9d5a0	-0.08292699
250	0x3c7c1e5b	0.015388097
251	0x3dc82eca	0.09774549
252	0x3d9b4385	0.07581238
253	0x3d0c7457	0.034290638
254	0xbdbc917d	-0.09207437
255	0x3d86d3c8	0.06583363

fc.0.bias f4 [64]
0	0x3cd149ac	0.025547825
1	0xbdf7f9e7	-0.12108212
2	0xbca3ae25	-0.0199805
3	0x3de8a7bd	0.113601185
4	0xbdf1d145	-0.11807493
5	0x3dec1c0c	0.11528787
6	0x3d0c467c	0.034246907
7	0x3c319717	0.010839245
8	0xbdec196b	-0.115282856
9	0xbd7a8f4f	-0.061171826
10	0xbca8225e	-0.0205242
11	0x3cb98eff	0.022651194
12	0xbd48a699	-0.048987005
13	0xbd9141a0	-0.07092595
14	0x3d4c2129	0.04983631
15	0xbc9ab904	-0.01888705
16	0xbdee0126	-0.11621313
17	0xbd927551	-0.071512826
18	0x3dd03ba2	0.10167624
19	0xbcc237ba	-0.023708213
20	0xbd29a608	-0.041418105
21	0xbc77969c	-0.015111592
22	0x3c9e3477	0.019312127
23	0x3c17da01	0.009268285
24	0xbcd861df	-0.026413856
25	0xbddcf878	-0.10789579
26	0x3da62549	0.0811258
27	0x3ca97168	0.02068396
28	0xbd67d53b	-0.056599837
29	0xbdb31f72	-0.08746232
30	0xbd805ac0	-0.06267309
31	0xbdd70ab5	-0.10500089
32	0xbd551d55	-0.052029926
33	0xbdf4c744	-0.119520694
34	0xbd6b3b48	-0.057429582
35	0xbd9d8e48	-0.076931536
36	0x3d4e5943	0.050378095
37	0x3d2769b2	0.040872283
38	0xbd290c29	-0.041271362
39	0x3ca4486b	0.020054063
40	0xbc9e14f7	-0.019297106
41	0xbcbcf65f	-0.023066698
42	0x3ddfdf97	0.10931318
43	0x3d90c29d	0.070683695
44	0x3dac521b	0.08414098
45	0x3dc0e91a	0.094194606
46	0xb911138e	-0.00013835562
47	0x3d80cc39	0.062889524
48	0xbd0d148b	-0.03444342
49	0x3ca465d4	0.020068087
50	0xbd9afc68	-0.07567674
51	0x3e003b33	0.12522583
52	0x3c0dee38	0.008662753
53	0x3ddda1bd	0.10821865
54	0x3cf2d983	0.029644733
55	0x3de9541b	0.11392995
56	0x3ddbb46a	0.107277706
57	0x3de3bcd5	0.11120001
58	0xbc8b3981	-0.016995193
59	0x3d109309	0.035296474
60	0xbd06fb71	-0.032954637
61	0x3dcd6fd7	0.100310974
62	0xbd141281	-0.03615046
63	0x3d88b471	0.066750415

output_layer.0.weight f4 [1, 64]
0	0x3dbbde98	0.09173316
1	0xbd07cf06	-0.033156417
2	0x3da675fd	0.08127973
3	0xbd511790	-0.05104786
4	0xbde0e51b	-0.109811984
5	0x3d88e1c0	0.066836834
6	0x3cb0541e	0.021524485
7	0xbda13e54	-0.07873216
8	0x3baa9441	0.0052056615
9	0x3dda2cbe	0.10653065
10	0xbbc2d131	-0.0059453477
11	0x3d69cab8	0.057078093
12	0x3db21cda	0.08696909
13	0x3cf53884	0.029934175
14	0xbc54d906	-0.012991196
15	0x3dfa39dd	0.12218068
16	0xb9a3a14f	-0.00031209967
17	0xbdaa4617	-0.0831415
18	0xbdafb8f7	-0.08580201
19	0xbda1eaa9	-0.07906086
20	0x3b754503	0.0037425167
21	0x3df020ed	0.1172503
22	0xbda9adb3	-0.082850836
23	0x3db3eb33	0.08785095
24	0x3db18c3c	0.08669326
25	0x3db9578e	0.09049903
26	0x3d0a8b9e	0.033824556
27	0x3bd0a9aa	0.006367882
28	0x3be73593	0.007055947
29	0xbdd147b7	-0.10218757
30	0xbd97e412	-0.07416548
31	0x3d63241a	0.05545435
32	0x3d99044c	0.07471523
33	0xbd09fb82	-0.033687122
34	0x3c367644	0.011136595
35	0x3b886b7e	0.0041632047
36	0xbceaba06	-0.028653156
37	0xbd691eeb	-0.05691425
38	0x3cd6b2c8	0.026208296
39	0xbd997c70	-0.07494438
40	0x3dd43ef4	0.1036357
41	0xbd6789ae	-0.056527786
42	0x3d7b964b	0.061422627
43	0xbd03446d	-0.032047678
44	0x3ccac2ab	0.024751028
45	0x3703909e	7.84188e-06
46	0xbdb91429	-0.09037048
47	0x3c8e1f13	0.017348802
48	0xbdb4fa43	-0.08836796
49	0xbddbb50f	-0.107278936
50	0x3bbf320b	0.005834823
51	0x3cd58643	0.026064998
52	0x3b426134	0.0029659988
53	0xbd460556	-0.048344932
54	0xbcaa00ff	-0.020752428
55	0xbdc4264b	-0.09577616
56	0xbcf1330a	-0.029443283
57	0xbc8a769a	-0.016902257
58	0x3cffb44a	0.031213898
59	0xbdbb496d	-0.09144864
60	0x3d3dc143	0.046326887
61	0xbd823f49	-0.06359727
62	0x3d555c99	0.05209026
63	0x3db7057f	0.08936595
