Mask-test/model_epoch_1_200.pth (torch, 154675 bytes, 7 tensors)

embedding.0.weight f4 [64, 7]
000000 17 06 d1 bd 95 1a 83 be 44 c6 2a 3e 1a 9e 87 3e
       -0.1020624 -0.25606218 0.16677195 0.2648781
000010 be 76 8e 3e a6 37 bb 3e 08 b3 ed ba 07 35 b5 3d
       0.27824968 0.36565894 -0.001813502 0.08848005
000020 d0 e8 84 3e 15 89 a4 be d1 31 f6 3d 6f 45 3e be
       0.25958872 -0.32135835 0.120212205 -0.18581174
000030 1c 72 73 bb 38 29 65 3c 2c 2e 9e 3e bc 6b f0 3d
       -0.0037146872 0.013986878 0.308946 0.11739299
000040 1d c4 f6 bd 3d 36 8d 3e 39 8b b2 be b2 e1 86 3e
       -0.120491244 0.27580443 -0.34871843 0.26344067
000050 7f d5 96 3e 02 a1 70 bd d3 37 f7 3d 0c 4e b1 3e
       0.2945976 -0.0587473 0.120711945 0.34629858
000060 49 65 a4 be 04 ce 8c be 2d 0c 61 3e 98 f8 19 3e
       -0.32108524 -0.27500927 0.21977301 0.15036237
000070 94 2d 10 be b6 f4 bf 3d 2c a7 ef bd 24 e5 bf 3e
       -0.14079887 0.09372847 -0.117018074 0.37479508
000080 e1 db 92 3e 79 99 ad be 75 37 b2 3e 63 fb 3c 3d
       0.2868338 -0.33906153 0.34807935 0.04613818
000090 11 6d 87 be 18 94 37 bd e3 78 c8 3d 96 07 8a be
       -0.264504 -0.044818968 0.09788682 -0.26958913
0000a0 9a 5d 68 be 57 d4 7a 39 12 21 49 3e f1 2f 5d 3e
       -0.22691956 0.0002392096 0.19641522 0.2160032
0000b0 45 af a8 3e 0a 54 b9 3e 6e 9f af be 86 86 94 3d
       0.3294622 0.3619693 -0.34301323 0.07252221
0000c0 b7 2f b6 bd 70 31 d9 bd 04 9e 88 bb d5 58 84 3d
       -0.0889582 -0.106051326 -0.0041692276 0.06462256
0000d0 36 6d 54 bd 73 cd 98 be cd 8e de 3c eb b5 57 3e
       -0.051861964 -0.29844245 0.027167702 0.2106549
0000e0 b2 da 80 be bc d1 ad be e4 c7 92 be 5f b2 1d 3e
       -0.2516685 -0.33949077 -0.2866813 0.15400074
0000f0 92 e6 3d 3e ed aa af be b8 c8 a1 bd 59 8d 77 be
       0.18544987 -0.34310094 -0.07899612 -0.24175014
000100 c4 29 81 3e 4d 82 ff 3c b5 db b8 bc dc e3 6d 3d
       0.25227177 0.031190062 -0.022565702 0.05807863
000110 36 f1 05 3e 23 03 49 3e 3e c8 7b be f7 7b 2d bd
       0.13080296 0.19630103 -0.24588105 -0.04235455
000120 cd 34 59 3e 04 77 9a 3e 35 c4 cc bc 42 db 9d 3e
       0.21211548 0.30168927 -0.024995903 0.30831343
000130 e4 82 29 3e 16 57 ea 3c 07 5e 2e be ef 00 82 be
       0.16553837 0.028605979 -0.17028056 -0.25391337
000140 91 35 a3 be b6 4c 9d 3b af d1 1a be 65 0e a9 3d
       -0.31876805 0.0048004044 -0.1511905 0.08254699
000150 f1 04 98 be df 3c 72 be 40 f6 bc 3e 13 a1 a8 3e
       -0.2969127 -0.23656033 0.36906624 0.3293539
000160 0f a8 3b bd 5c 09 2f bd fc 19 9c 3e 46 3c 3b be
       -0.04581457 -0.042733535 0.30488575 -0.18284711
000170 ba 26 70 be 3f 61 2f be 52 66 43 3e 1d 5c 8a be
       -0.23452273 -0.1712694 0.19082001 -0.27023402
000180 0d 1c 55 be a9 c8 5f 3e d8 ac 12 3e 66 79 85 be
       -0.20811482 0.2185389 0.14323747 -0.26069182
000190 8b 7e 7a be 10 ab 81 be 6b 78 8a be 74 b7 69 3e
       -0.24462335 -0.25325823 -0.27044997 0.22823888
0001a0 fc 94 a1 3e b9 0a 0f 3e a9 3d 3a 3d ff 40 4c 3e
       0.3155898 0.13968934 0.04546896 0.19946669
0001b0 9d 84 63 be 14 c6 44 3e 5d dd 84 3e 00 8a 19 be
       -0.22218557 0.19216186 0.25950137 -0.14994049
0001c0 06 ce 33 3c 39 a1 66 3e d0 cf 3a be fd cd 8d 3e
       0.010974413 0.22522439 -0.18243337 0.2769622
0001d0 c9 7e 80 be cb 8a 89 be 3c ac c0 be 5b e5 ba 3e
       -0.2509673 -0.26863703 -0.37631404 0.3650311
0001e0 a5 07 8b be d4 66 42 be 21 7a 98 be 19 55 a3 3e
       -0.2715427 -0.18984538 -0.29780677 0.31900862
0001f0 9b 38 f6 3c 21 05 8a 3e 37 f5 94 3b 31 f4 62 be
       0.030056288 0.26957038 0.0045458334 -0.22163464
000200 70 1d a5 be 04 55 b3 be de ad 88 be 17 a0 10 3e
       -0.32249022 -0.350258 -0.2669515 0.1412357
000210 e6 01 97 3d 23 80 b1 3e cc 08 58 bd e6 1b a6 be
       0.07373409 0.34668073 -0.052742764 -0.3244316
000220 21 68 06 be 5f 02 52 be 50 bf a9 bd 2d 7d 5b 3d
       -0.1312566 -0.20508717 -0.08288443 0.053586174
000230 48 d7 91 be 1b 9a b4 3e fa 9e 64 3e 31 14 2f 3e
       -0.2848456 0.35273823 0.2232627 0.17097546
000240 1b c7 40 be 25 4d 92 3e d0 d0 d6 bd ca 8c d2 3d
       -0.18825953 0.28574482 -0.104890466 0.1028076
000250 d7 3c 81 bd 8c e7 f9 bc 25 09 a1 be 47 38 38 3e
       -0.063104324 -0.030505918 -0.3145229 0.17990218
000260 99 18 97 3e 03 1c 6d 3e 29 17 93 bd 4d 78 2c be
       0.29510954 0.23155217 -0.07182152 -0.16842766
000270 aa c3 4b 3e 6c 21 88 3e 1a e8 99 3e 2e 82 c1 be
       0.19898859 0.26588 0.30059892 -0.37794632
000280 85 a8 ba bd eb 83 aa bd 04 db c2 3d 22 80 aa 3d
       -0.09114174 -0.083259426 0.0951443 0.08325221
000290 6e 45 f7 3d d3 8c 2e 3e eb e1 6d 3d dd 6b b1 be
       0.120737895 0.17045908 0.05807678 -0.34652606
0002a0 47 1a 5e 3e 27 3c c0 3e 33 ff 88 be 4f 25 b3 3e
       0.21689712 0.37545893 -0.26757202 0.34989402
0002b0 67 96 b6 3e 83 52 89 3e df 20 bc 3d ad 5c 6c be
       0.35661623 0.26820764 0.09185957 -0.23082228
0002c0 19 4d 16 be 96 4a 9b 3e 96 ef a2 3d c8 b6 53 bd
       -0.14677848 0.30330342 0.07955854 -0.051687986
0002d0 c6 9d b1 be 8f 4b b6 be ba fe 3c bc c1 f9 9e 3e
       -0.34690684 -0.35604522 -0.011535341 0.31049922
0002e0 2e 29 a7 3d a9 88 aa 3d fc 42 f7 bd 90 5f 81 3e
       0.08162151 0.08326847 -0.12073323 0.2526822
0002f0 69 3e b3 3e 0b fc d0 bd 51 15 99 be 08 52 d0 3d
       0.35008553 -0.102043234 -0.29899076 0.10171896
000300 4e 65 2c be 99 d8 be be de 59 02 3d 80 a9 03 bd
       -0.1683552 -0.37274626 0.031823985 -0.03214407
000310 20 0b 95 3e e3 19 0e 3e fe c4 99 be ed bb 99 3e
       0.2911005 0.13877062 -0.30033106 0.30026188
000320 af 3e 52 3e 65 6a 8d 3d 05 e2 a6 bd f8 b7 38 3d
       0.20531724 0.06905059 -0.081485786 0.04509732
000330 6d 56 6f 3d 2c 8c a2 bd f8 e3 b1 3e 3a af b0 3e
       0.05843203 -0.07936892 0.3474424 0.34508687
000340 6b c2 a5 be 5b 86 b7 3d eb ff 82 3e 3d 8b 0c 3e
       -0.32374892 0.08961173 0.25585875 0.1372499
000350 1a 0a 6a 3e cd 58 10 3d fd bc 38 3e 67 ed b3 bd
       0.22855416 0.035240937 0.18040843 -0.08785515
000360 75 d1 4a bc 75 5f 62 be 0e 4b 76 bd bb 1a 9e 3e
       -0.01237904 -0.22106726 -0.06013017 0.3087977
000370 15 0c a5 3e c4 22 1d 3d 0d 80 3e be c0 68 4e 3e
       0.3223578 0.038363233 -0.18603535 0.20157146
000380 d1 b4 0e 3d bb 9b 8c bd aa b0 43 be fd 64 89 be
       0.03484041 -0.06865641 -0.1911036 -0.2683486
000390 ec bb b2 be 70 39 95 bd 48 5c 3c bd 6e 14 87 be
       -0.34908998 -0.07286346 -0.045986444 -0.26382774
0003a0 ba af 9b 3e 24 7d 2f 3e c3 44 81 bd 16 17 11 3d
       0.30407506 0.17137581 -0.063119434 0.035422407
0003b0 84 d5 93 be 30 16 9d be 03 26 7a be b3 81 50 bd
       -0.28873837 -0.3068099 -0.24428563 -0.05090494
0003c0 c1 04 b2 3e 9d 57 a2 be 62 97 0c 3d 59 7e dc 3c
       0.34769252 -0.3170747 0.034324057 0.026915716
0003d0 16 6d 26 be b8 f7 c1 bd 11 ff f4 bd f8 8c 85 3c
       -0.1625255 -0.09471077 -0.119627126 0.01630257
0003e0 32 09 80 3d c5 72 94 bd db 7f b5 3d 98 3b 8c 3e
       0.06251754 -0.07248453 0.08862277 0.27389216
0003f0 3b 9c dd bd 20 e4 71 be b3 d2 1a be 15 c2 33 3d
       -0.10820814 -0.23622179 -0.15119438 0.043886263

embedding.0.bias f4 [64]
000000 dc c2 98 bc 95 2b f7 bd c4 01 0e be 69 b2 a6 be
       -0.018647604 -0.120688595 -0.13867861 -0.3255799
000010 7d 79 91 3c 89 3c 9f be 67 4f 77 bd 11 94 16 3d
       0.017758125 -0.31100872 -0.06037846 0.0367623
000020 63 b2 a6 3e ab b3 fe bb cb 6f 1a 3e 22 b5 ba be
       0.32557973 -0.007772883 0.15081708 -0.36466318
000030 89 2d c8 bd fa cd 7e bd 53 06 5e 3e 3e e9 c1 3e
       -0.0977431 -0.062208153 0.216821 0.37873262
000040 f3 10 60 3e 14 f5 97 be ef ef 1a be b5 bd bc 3d
       0.21881466 -0.29679167 -0.1513059 0.09215871
000050 58 94 73 3e 7c 41 d6 3d a9 60 a3 bd 7d 5a 25 be
       0.23787057 0.10461709 -0.07977421 -0.161478
000060 84 48 d2 bb 9a 12 f3 3d 88 15 35 be 9a 14 7c be
       -0.006417336 0.11868782 -0.17683995 -0.24617234
000070 a3 13 b2 3e 78 51 8b be f3 67 b6 3d 6d 1d 34 3e
       0.34780607 -0.27210593 0.089065455 0.1758935
000080 3c f6 07 3e ea 6e b6 be 06 32 70 be bd a1 69 3e
       0.13277525 -0.35631496 -0.23456582 0.22815605
000090 39 66 7e 3e 7e ce b3 bc 5d 98 1e be c3 5c a7 be
       0.24843682 -0.02194905 -0.1548781 -0.3268796
0000a0 87 4d 0b bc 9d e7 7a be dd 24 04 be 26 5d 87 be
       -0.008502371 -0.24502416 -0.12904687 -0.26438254
0000b0 b6 7b 3a be 7e 1a 9b bd 32 ba 58 3d 71 93 80 be
       -0.18211254 -0.07573412 0.052911945 -0.2511249
0000c0 c3 62 e4 bd f1 d2 bd be c6 b0 97 be 16 6c e0 3d
       -0.1115165 -0.37074998 -0.29627055 0.10958116
0000d0 63 a5 ab be f3 2e 23 be a5 fb 82 bd 59 08 a9 3d
       -0.33524618 -0.15935878 -0.06395654 0.08253545
0000e0 d6 43 99 3e f6 ac 89 3e 77 df 9c be 43 32 9f 3e
       0.29934567 0.2688977 -0.3063924 0.31093034
0000f0 e5 65 bb 3e 9d 02 38 be af 7d 13 3d fb 82 8e 3e
       0.36601177 -0.17969747 0.036008533 0.27834305

layernorm.weight f4 [259, 64]
000000 03 00 80 3f f1 ff 7f 3f 1c 19 80 3f 7a f3 7f 3f
       1.0000004 0.9999991 1.0007663 0.9998089
000010 4b af 7f 3f 00 00 80 3f 00 00 80 3f d5 e1 7f 3f
       0.9987685 1.0 1.0 0.9995397
000020 00 00 80 3f 0f 11 80 3f 18 f5 7f 3f 00 00 80 3f
       1.0 1.0005206 0.9998336 1.0
000030 06 1d 80 3f 8c 07 80 3f 06 f5 7f 3f 01 00 80 3f
       1.0008857 1.0002303 0.9998325 1.0000001
000040 00 00 80 3f ad db 7f 3f 09 00 80 3f fb ff 7f 3f
       1.0 0.99944574 1.0000011 0.9999997
000050 00 00 80 3f 00 15 80 3f 00 00 80 3f 00 00 80 3f
       1.0 1.0006409 1.0 1.0
000060 23 0f 80 3f 0a 00 80 3f 24 12 80 3f 00 00 80 3f
       1.0004619 1.0000012 1.0005536 1.0
000070 00 00 80 3f e8 e0 7f 3f ff ff 7f 3f a7 0d 80 3f
       1.0 0.99952555 0.99999994 1.0004166
000080 ff ff 7f 3f 00 00 80 3f 00 00 80 3f 00 00 80 3f
       0.99999994 1.0 1.0 1.0
000090 00 00 80 3f 00 00 80 3f 00 00 80 3f fd e9 7f 3f
       1.0 1.0 1.0 0.9996641
0000a0 2f 08 80 3f 00 00 80 3f c7 12 80 3f be ff 7f 3f
       1.0002497 1.0 1.000573 0.99999607
0000b0 00 00 80 3f 00 00 80 3f 6f c3 7f 3f 00 00 80 3f
       1.0 1.0 0.99907583 1.0
0000c0 79 e1 7f 3f c7 f1 7f 3f 00 00 80 3f ec 01 80 3f
       0.9995342 0.999783 1.0 1.0000587
0000d0 04 00 80 3f 00 00 80 3f 00 00 80 3f 0e ea 7f 3f
       1.0000005 1.0 1.0 0.99966514
0000e0 83 f3 7f 3f 00 00 80 3f 8f 01 80 3f 00 00 80 3f
       0.99980944 1.0 1.0000476 1.0
0000f0 2f 01 80 3f 00 00 80 3f 00 00 80 3f b5 0f 80 3f
       1.0000361 1.0 1.0 1.0004793
000100 e9 ff 7f 3f fa ff 7f 3f cb 10 80 3f cd fd 7f 3f
       0.9999986 0.99999964 1.0005125 0.99996644
000110 3c d1 7f 3f 00 00 80 3f 00 00 80 3f a3 ee 7f 3f
       0.9992864 1.0 1.0 0.99973506
000120 00 00 80 3f 4a 0c 80 3f 30 fd 7f 3f 00 00 80 3f
       1.0 1.000375 0.9999571 1.0
000130 e2 12 80 3f 0c 00 80 3f 05 00 80 3f fd ff 7f 3f
       1.0005763 1.0000014 1.0000006 0.9999998
000140 00 00 80 3f 3c f7 7f 3f d8 ff 7f 3f 00 00 80 3f
       1.0 0.99986625 0.9999976 1.0
000150 00 00 80 3f 98 05 80 3f 00 00 80 3f 00 00 80 3f
       1.0 1.0001707 1.0 1.0
000160 d5 0b 80 3f f7 ff 7f 3f 96 06 80 3f 00 00 80 3f
       1.0003611 0.99999946 1.000201 1.0
000170 00 00 80 3f 96 e9 7f 3f fe ff 7f 3f 8b 03 80 3f
       1.0 0.999658 0.9999999 1.0001081
000180 ff ff 7f 3f 00 00 80 3f 00 00 80 3f 00 00 80 3f
       0.99999994 1.0 1.0 1.0
000190 00 00 80 3f 00 00 80 3f 00 00 80 3f 4a f3 7f 3f
       1.0 1.0 1.0 0.99980605
0001a0 97 06 80 3f 00 00 80 3f 45 09 80 3f ab ff 7f 3f
       1.0002011 1.0 1.0002829 0.99999493
0001b0 00 00 80 3f 00 00 80 3f b7 dd 7f 3f 00 00 80 3f
       1.0 1.0 0.99947685 1.0
0001c0 75 f0 7f 3f e5 ff 7f 3f 00 00 80 3f 03 00 80 3f
       0.99976283 0.9999984 1.0 1.0000004
0001d0 eb ff 7f 3f 00 00 80 3f 00 00 80 3f 18 f6 7f 3f
       0.99999875 1.0 1.0 0.99984884
0001e0 11 00 80 3f 00 00 80 3f 02 00 80 3f 00 00 80 3f
       1.000002 1.0 1.0000002 1.0
0001f0 0b 00 80 3f ff ff 7f 3f 00 00 80 3f 2c 03 80 3f
       1.0000013 0.99999994 1.0 1.0000968
000200 04 00 80 3f f5 ff 7f 3f b2 0c 80 3f d1 f5 7f 3f
       1.0000005 0.99999934 1.0003874 0.9998446
000210 bb cf 7f 3f 00 00 80 3f 00 00 80 3f 48 f0 7f 3f
       0.99926347 1.0 1.0 0.99976015
000220 00 00 80 3f 9a 07 80 3f 7e f7 7f 3f 00 00 80 3f
       1.0 1.000232 0.9998702 1.0
000230 9f 15 80 3f f9 04 80 3f 68 f6 7f 3f 00 00 80 3f
       1.0006598 1.0001518 0.9998536 1.0
000240 00 00 80 3f b0 e5 7f 3f 01 00 80 3f fe ff 7f 3f
       1.0 0.9995985 1.0000001 0.9999999
000250 00 00 80 3f fd 0e 80 3f ff ff 7f 3f 00 00 80 3f
       1.0 1.0004574 0.99999994 1.0
000260 5d 09 80 3f 05 00 80 3f 76 0a 80 3f 00 00 80 3f
       1.0002857 1.0000006 1.0003192 1.0
000270 00 00 80 3f 0e ed 7f 3f ff ff 7f 3f a0 0a 80 3f
       1.0 0.9997109 0.99999994 1.0003242
000280 ff ff 7f 3f 00 00 80 3f 00 00 80 3f 00 00 80 3f
       0.99999994 1.0 1.0 1.0
000290 00 00 80 3f 00 00 80 3f 00 00 80 3f 0f ee 7f 3f
       1.0 1.0 1.0 0.99972624
0002a0 bc 02 80 3f 00 00 80 3f 31 0c 80 3f 05 ff 7f 3f
       1.0000834 1.0 1.000372 0.99998504
0002b0 00 00 80 3f 00 00 80 3f 22 e2 7f 3f 00 00 80 3f
       1.0 1.0 0.99954426 1.0
0002c0 87 f3 7f 3f 9b f4 7f 3f 00 00 80 3f e2 00 80 3f
       0.9998097 0.99982613 1.0 1.000027
0002d0 04 00 80 3f 00 00 80 3f 00 00 80 3f 3e f1 7f 3f
       1.0000005 1.0 1.0 0.9997748
0002e0 c7 f7 7f 3f 00 00 80 3f e1 00 80 3f 00 00 80 3f
       0.99987453 1.0 1.0000268 1.0
0002f0 7a 00 80 3f b4 ff 7f 3f 00 00 80 3f e2 09 80 3f
       1.0000145 0.99999547 1.0 1.0003016
000300 d6 ff 7f 3f f9 ff 7f 3f e9 0b 80 3f b3 fe 7f 3f
       0.9999975 0.9999996 1.0003635 0.99998015
000310 27 e4 7f 3f 00 00 80 3f 00 00 80 3f e2 f2 7f 3f
       0.9995751 1.0 1.0 0.99979985
000320 00 00 80 3f 9c 0a 80 3f 70 fe 7f 3f 00 00 80 3f
       1.0 1.0003238 0.99997616 1.0
000330 87 0c 80 3f 0e 00 80 3f fa ff 7f 3f 00 00 80 3f
       1.0003823 1.0000017 0.99999964 1.0
000340 00 00 80 3f 33 fc 7f 3f ea ff 7f 3f 00 00 80 3f
       1.0 0.999942 0.9999987 1.0
000350 00 00 80 3f d4 03 80 3f ff ff 7f 3f 00 00 80 3f
       1.0 1.0001168 0.99999994 1.0
000360 ec 09 80 3f fd ff 7f 3f b3 04 80 3f 00 00 80 3f
       1.0003028 0.9999998 1.0001434 1.0
000370 00 00 80 3f cf f1 7f 3f fe ff 7f 3f 1e 02 80 3f
       1.0 0.99978346 0.9999999 1.0000646
000380 00 00 80 3f 00 00 80 3f 00 00 80 3f 00 00 80 3f
       1.0 1.0 1.0 1.0
000390 00 00 80 3f 00 00 80 3f 00 00 80 3f fa f8 7f 3f
       1.0 1.0 1.0 0.99989283
0003a0 44 06 80 3f 00 00 80 3f 4d 06 80 3f c2 ff 7f 3f
       1.0001912 1.0 1.0001923 0.9999963
0003b0 00 00 80 3f 00 00 80 3f a4 ec 7f 3f 00 00 80 3f
       1.0 1.0 0.9997046 1.0
0003c0 3a f5 7f 3f ff fe 7f 3f 00 00 80 3f 02 00 80 3f
       0.9998356 0.9999847 1.0 1.0000002
0003d0 f7 ff 7f 3f 00 00 80 3f 00 00 80 3f 0a fb 7f 3f
       0.99999946 1.0 1.0 0.9999243
0003e0 06 00 80 3f 00 00 80 3f 02 00 80 3f 00 00 80 3f
       1.0000007 1.0 1.0000002 1.0
0003f0 06 00 80 3f a9 ff 7f 3f 00 00 80 3f 1c 02 80 3f
       1.0000007 0.9999948 1.0 1.0000644

layernorm.bias f4 [259, 64]
000000 86 c4 18 37 4d f5 af b6 2a 05 61 37 7d 8c 9a b6
       9.105663e-06 -5.243963e-06 1.3412247e-05 -4.6059126e-06
000010 5f af 95 b7 a4 a2 4b 37 fc 1a 67 36 f3 44 50 b7
       -1.7843848e-05 1.2137611e-05 3.443739e-06 -1.241382e-05
000020 f4 39 fe b6 f3 66 19 37 15 e2 51 36 39 d3 51 37
       -7.5765365e-06 9.14348e-06 3.1275024e-06 1.250655e-05
000030 e4 1b 87 37 d4 7b 43 37 dd 12 94 36 1b 0a 8c 37
       1.6106242e-05 1.1651737e-05 4.4129397e-06 1.6694006e-05
000040 5c b8 ea 33 08 49 76 b7 13 4f 42 b7 8e 4e 83 b7
       1.0930009e-07 -1.46797465e-05 -1.1581712e-05 -1.5652997e-05
000050 30 e4 c6 b6 73 c2 ad 37 8a 65 97 b7 0a b1 ec 36
       -5.9274244e-06 2.0713755e-05 -1.8047886e-05 7.053958e-06
000060 04 14 fe 36 81 f0 63 37 72 73 26 37 6b 03 78 b6
       7.57212e-06 1.3586251e-05 9.92125e-06 -3.695687e-06
000070 1c 67 16 b6 4d 22 ba b7 6b b4 68 b7 e0 45 8b 36
       -2.241176e-06 -2.21889e-05 -1.3870284e-05 4.1506573e-06
000080 f2 55 8e 37 3d be 8f b7 f9 0d c7 b6 1b 79 7d b6
       1.696774e-05 -1.7135515e-05 -5.932289e-06 -3.777043e-06
000090 85 04 06 b7 e5 4f 0b b7 5a 99 a2 b4 58 78 97 34
       -7.988075e-06 -8.3036475e-06 -3.028643e-07 2.8213503e-07
0000a0 4f 18 18 37 2b 00 02 b7 d6 88 7e 37 4d 61 9a 36
       9.065566e-06 -7.748643e-06 1.5171439e-05 4.600885e-06
0000b0 3b 67 2c 36 b2 17 af 36 3b 66 f9 b6 ce fc aa 35
       2.5690085e-06 5.218165e-06 -7.4326795e-06 1.2739563e-06
0000c0 9d 98 51 b7 84 65 c1 b6 01 0c 19 37 f2 2a fc 36
       -1.2492904e-05 -5.763666e-06 9.1223055e-06 7.5151847e-06
0000d0 1b 48 01 36 c8 4c 31 b6 31 d3 0c b7 8c 54 59 b7
       1.9264469e-06 -2.6419748e-06 -8.393822e-06 -1.2953893e-05
0000e0 0c e1 d0 36 05 14 4a 36 4a a1 9e 36 2b 38 8a b7
       6.225082e-06 3.0111999e-06 4.7275435e-06 -1.6477037e-05
0000f0 5c ce 90 36 93 9a 67 b6 6b d6 03 b6 f5 21 81 37
       4.315558e-06 -3.4511656e-06 -1.9645329e-06 1.539381e-05
000100 d1 b1 27 37 32 1e aa b6 17 dc 5e 37 cc 57 0a b7
       9.995377e-06 -5.06991e-06 1.3283475e-05 -8.245883e-06
000110 41 31 ac b7 9b ee 64 37 29 50 0f b5 b1 dc 69 b7
       -2.0526933e-05 1.3645414e-05 -5.33883e-07 -1.3939266e-05
000120 51 b4 a4 b6 26 e9 5c 37 60 77 47 36 e7 fe 5e 36
       -4.9085725e-06 1.3167306e-05 2.9722796e-06 3.322895e-06
000130 b0 0e 4e 37 55 6d 58 37 1f 76 92 35 bb 32 85 37
       1.22819765e-05 1.2900059e-05 1.0912225e-06 1.5878459e-05
000140 e5 50 98 b5 f9 2c 57 b7 10 a8 0c b7 dc 7a 78 b7
       -1.1348426e-06 -1.282547e-05 -8.38378e-06 -1.4810557e-05
000150 97 77 2c b7 3b 7c 8f 37 47 55 69 b7 e0 28 4d 37
       -1.0279843e-05 1.7104778e-05 -1.3907737e-05 1.2228469e-05
000160 8f e7 f2 36 93 fa 8a 37 f4 75 29 37 72 0c 12 b5
       7.239119e-06 1.6567565e-05 1.0100648e-05 -5.440735e-07
000170 a6 38 2b b6 12 25 cb b7 5d a7 61 b7 68 70 80 36
       -2.551396e-06 -2.4216748e-05 -1.3450012e-05 3.827783e-06
000180 95 ad af 37 54 d5 61 b7 8b ed 52 b6 3d 94 c4 35
       2.0942456e-05 -1.3460714e-05 -3.1430707e-06 1.4646281e-06
000190 a9 15 da b6 bf 8e 82 b6 eb 80 2c 35 14 53 c1 b6
       -6.499428e-06 -3.8909197e-06 6.4262593e-07 -5.76152e-06
0001a0 26 03 46 37 84 97 d4 b6 9d 40 62 37 30 39 47 36
       1.1802453e-05 -6.335731e-06 1.3485694e-05 2.9686598e-06
0001b0 3f c0 0e b6 c9 b5 fc 36 2a 66 16 b7 18 a2 88 36
       -2.127155e-06 7.531348e-06 -8.964484e-06 4.071986e-06
0001c0 55 55 60 b7 a1 aa 23 b7 72 40 25 37 09 bb f4 36
       -1.3371308e-05 -9.755285e-06 9.849771e-06 7.2935404e-06
0001d0 c6 c4 dc 35 d7 c0 d1 b6 da 97 38 b7 ad f3 8b b7
       1.6448546e-06 -6.251135e-06 -1.100261e-05 -1.6683562e-05
0001e0 5d 74 50 36 85 dd 73 36 e8 2c 1c 37 18 12 91 b7
       3.1062148e-06 3.6338763e-06 9.30878e-06 -1.7293773e-05
0001f0 f8 2b 6a 35 88 7c df b6 01 9a 6f 33 39 b3 82 37
       8.7235776e-07 -6.6604152e-06 5.578659e-08 1.5580665e-05
000200 86 13 d3 36 3a d0 a6 b6 54 d8 4d 37 66 21 c8 b6
       6.290563e-06 -4.9714263e-06 1.226932e-05 -5.9643526e-06
000210 cb 86 9b b7 55 8e 65 37 57 95 96 36 b8 d7 66 b7
       -1.8540208e-05 1.3682603e-05 4.487734e-06 -1.3759294e-05
000220 48 75 db b6 a1 8b 07 37 1b 0e bd b4 72 55 42 37
       -6.540362e-06 8.079137e-06 -3.5214256e-07 1.1583195e-05
000230 c9 11 8b 37 84 cf 5f 37 a7 c1 c0 36 42 43 8d 37
       1.6578373e-05 1.3340152e-05 5.74459e-06 1.683983e-05
000240 86 4f e5 35 d9 f3 95 b7 9c 73 53 b7 d8 ae 74 b7
       1.7084974e-06 -1.7875735e-05 -1.2603497e-05 -1.4584242e-05
000250 48 7c 14 b7 e2 08 b7 37 b1 28 ab b7 55 15 0c 37
       -8.850424e-06 2.1819436e-05 -2.0403737e-05 8.349617e-06
000260 5f d1 c5 36 a4 0f 82 37 d5 ee c8 36 d6 60 ab b6
       5.8954315e-06 1.550449e-05 5.988268e-06 -5.1074703e-06
000270 a8 ab 02 b6 5f 19 b9 b7 d9 ba 83 b7 03 d0 03 37
       -1.9471427e-06 -2.2065533e-05 -1.5703425e-05 7.85664e-06
000280 00 4e 9f 37 22 8a 66 b7 51 42 b1 b4 16 a7 80 b5
       1.8990599e-05 -1.374123e-05 -3.301707e-07 -9.585372e-07
000290 27 aa 37 b7 2a ad 34 b7 19 93 96 35 9e ef 47 b5
       -1.0947267e-05 -1.0769154e-05 1.1218682e-06 -7.4481966e-07
0002a0 73 93 47 37 c9 93 0f b7 74 f9 72 37 da 8d c6 36
       1.1895655e-05 -8.557873e-06 1.4482404e-05 5.9173735e-06
0002b0 65 5e a9 35 b9 4e ef 36 01 7c 43 b7 2b 9e 0f 35
       1.2618954e-06 7.1319196e-06 -1.1651778e-05 5.3501816e-07
0002c0 b1 86 5c b7 b9 ab b0 b6 3d 1d 13 37 96 df c9 36
       -1.3144382e-05 -5.2652e-06 8.76869e-06 6.0162956e-06
0002d0 c8 07 09 37 71 3d 83 b6 0e d7 f9 b6 15 d1 67 b7
       8.167648e-06 -3.911257e-06 -7.445814e-06 -1.3817354e-05
0002e0 31 00 d3 36 cb 75 43 36 28 f4 0c 37 58 14 7e b7
       6.2883123e-06 2.9125829e-06 8.401497e-06 -1.5144316e-05
0002f0 a9 30 a0 35 f5 75 c0 b6 f7 57 3b 35 4f c3 90 37
       1.1935091e-06 -5.735778e-06 6.9790934e-07 1.7257085e-05
000300 14 68 3a 37 b1 dc aa b6 5e 2e 83 37 8b 45 2e b7
       1.11106965e-05 -5.0920867e-06 1.5638008e-05 -1.03874e-05
000310 a2 66 d4 b7 c4 f5 83 37 c5 29 b7 36 b5 e2 10 b7
       -2.5320162e-05 1.573086e-05 5.4586876e-06 -8.635853e-06
000320 80 f5 cf b6 2a ba 05 37 d9 8c 0d b6 18 cb 45 36
       -6.1976607e-06 7.970762e-06 -2.1092621e-06 2.9473504e-06
000330 f3 db 91 37 e4 ec 4a 37 16 db 47 b6 e3 62 21 37
       1.7387769e-05 1.2095294e-05 -2.9780836e-06 9.619372e-06
000340 7f fc 97 36 9f 57 72 b7 70 2e 5d b7 80 19 2c b7
       4.529545e-06 -1.4444725e-05 -1.3183439e-05 -1.0257936e-05
000350 a2 2a be b6 45 b4 a8 37 73 89 32 b7 97 96 48 37
       -5.6674044e-06 2.0111105e-05 -1.0641629e-05 1.1955991e-05
000360 ea 77 a4 36 c3 fb 97 37 5b 93 0a 37 9e 0d 6e 33
       4.9015407e-06 1.8117838e-05 8.25975e-06 5.5426078e-08
000370 82 d6 25 b6 ac dd bb b7 87 45 9f b7 e4 50 b6 36
       -2.4711776e-06 -2.2395361e-05 -1.8986653e-05 5.4334396e-06
000380 72 c6 8f 37 cd 96 43 b7 30 d7 9d b6 aa 9e c2 36
       1.7139337e-05 -1.1658017e-05 -4.7040157e-06 5.8001215e-06
000390 e3 3a de b6 ce da cf b6 b5 5d 67 36 f2 b5 af b6
       -6.622971e-06 -6.194553e-06 3.4476227e-06 -5.2365876e-06
0003a0 f8 60 2c 37 df a1 ac b6 e5 42 03 37 26 e4 48 b6
       1.0274576e-05 -5.1448437e-06 7.823784e-06 -2.9935122e-06
0003b0 85 ee 7b b5 a9 4b 26 37 5b e7 42 b7 75 6b 55 36
       -9.385188e-07 9.911987e-06 -1.1617168e-05 3.1802022e-06
0003c0 3f 3e 04 b7 06 a3 28 b7 4d 5f 35 37 4b be 8e 36
       -7.882306e-06 -1.0051537e-05 1.081063e-05 4.254083e-06
0003d0 82 d7 1e 35 13 b4 e8 b6 00 2e 17 b7 ea 16 ab b7
       5.917319e-07 -6.935102e-06 -9.011012e-06 -2.0395459e-05
0003e0 fc 17 64 36 72 04 51 36 a5 2c 85 36 3f f1 61 b7
       3.3988608e-06 3.1146014e-06 3.968906e-06 -1.3467215e-05
0003f0 b1 08 aa 36 cc 5e 00 b7 d1 0d 27 36 06 01 94 37
       5.0674066e-06 -7.651466e-06 2.4892981e-06 1.7643451e-05

fc.0.weight f4 [64, 64]
000000 fe 09 8b 3d ae cb d8 3a 40 d7 bb 3d f0 29 77 bd
       0.06789015 0.0016540193 0.09171915 -0.06034273
000010 2e cc 83 bd 04 ab bd 3d 04 72 ca bb 38 36 91 3c
       -0.064354286 0.09261134 -0.0061781425 0.017726049
000020 40 de 57 bd ed a1 89 3d 92 ec 2c 3d 3d 46 d8 bd
       -0.05270219 0.06720338 0.0422178 -0.10560272
000030 63 11 a1 bd 69 2e 1f 3d 4e 3d bc 3c 36 36 3c bd
       -0.078646444 0.03886262 0.022978451 -0.045950137
000040 fa a1 bf bd 3e a9 83 ba 32 c2 d4 3d e1 7d 40 3d
       -0.093570665 -0.0010044945 0.10388602 0.046995047
000050 4f 62 f6 bd 61 5c d7 bc 93 66 1a 3d b8 cb ba 3d
       -0.120304696 -0.026289167 0.03769548 0.091208875
000060 e3 20 ba bd 00 31 b9 bc 3b 31 20 3d 02 d4 c3 3d
       -0.09088304 -0.022606373 0.03910945 0.09561922
000070 88 bd 52 bd 69 f6 a6 bc ab 43 9e bd a0 7c c2 bd
       -0.051450282 -0.02038117 -0.077277504 -0.094964266
000080 fb 8f d2 3d 12 4d 5c bd 42 b3 cc bd 64 56 a7 3d
       0.10281368 -0.053784437 -0.09995128 0.081707746
000090 38 ba 08 3d a3 64 e6 3d 3e de 92 3d 0e 56 08 bd
       0.033380717 0.11249664 0.071712956 -0.033285193
0000a0 22 16 80 3d 21 31 51 bd 9c 57 81 bc a9 eb 83 bd
       0.062542215 -0.051072244 -0.015788846 -0.06441433
0000b0 07 27 f1 bd 78 d2 3c 3d 22 d9 b8 3d b3 12 a6 3d
       -0.11775022 0.046099156 0.0902579 0.08109035
0000c0 ae 7d a6 bc 97 9b e6 bd fa b0 9f 3d e8 fa 9c 3d
       -0.0203236 -0.11260145 0.077974275 0.07665044
0000d0 d5 78 ce 3c 5e 63 ca bd 9e c3 fe bd 4c cf 0a bd
       0.025204102 -0.09882234 -0.12439655 -0.0338891
0000e0 04 f0 a5 bd cf 2f ba 3d d7 29 8c 3d 90 93 a3 bd
       -0.0810242 0.0909115 0.06843918 -0.0798713
0000f0 8f e3 f0 bd fa 7c b7 3c 92 89 af bd 67 98 13 3d
       -0.11762153 0.02239846 -0.08571161 0.036034014
000100 39 ab 92 3c 0c 8a 83 bd 01 02 e2 bd a1 55 54 3c
       0.017903911 -0.06422815 -0.110355385 0.012959869
000110 8d 4b ba bd 86 22 99 bb e7 d8 ec 3a a7 ff ea bc
       -0.090964414 -0.004673305 0.0018070013 -0.028686358
000120 7c ee c8 3d a6 6c 43 3d b0 a0 e4 3d b0 91 21 bd
       0.09811112 0.047711037 0.11163461 -0.03944558
000130 81 a6 f4 3d 66 fd a8 3d db 1f a1 bd 77 5d 3f 3b
       0.119458206 0.08251457 -0.07867404 0.0029199996
000140 54 c5 20 bc 6f d0 a0 bd 42 07 c7 bd cb b9 e0 3d
       -0.009812672 -0.078522556 -0.09718181 0.10972937
000150 0b f7 2c 3c f9 0d bb bd 41 59 f0 3d 06 31 82 bd
       0.0105569465 -0.091335244 0.11735774 -0.06357007
000160 8f 63 f0 bd 07 fe 48 3c 19 87 34 bd b4 41 cd bd
       -0.11737739 0.012267596 -0.04407415 -0.100222975
000170 6b 04 85 3c 58 fb 41 3d ed 09 cd 3c f1 4e b1 3a
       0.016237458 0.04735884 0.025029147 0.0013527555
000180 44 36 42 3c 64 b3 5e bd 1a 17 f5 3c 30 8f 4a 3d
       0.011853758 -0.0543703 0.029918242 0.04945296
000190 27 62 38 3d 3c dd d3 bc 57 99 0a bc 3d 7a 0a bd
       0.04501548 -0.025862329 -0.008459411 -0.03380798
0001a0 a2 e6 64 3d 8d 9b 7d bc 68 85 b9 bd 12 51 01 3c
       0.05588401 -0.015478981 -0.09058648 0.007892864
0001b0 d3 d8 5b bd b7 a5 08 bd 21 84 79 bd f4 61 30 3d
       -0.053673577 -0.033361163 -0.060917024 0.043062165
0001c0 89 b6 63 bc 08 72 b3 3d 11 da e6 bd 39 bc 45 3d
       -0.0138985 0.08761984 -0.112720616 0.048275206
0001d0 a3 d5 d7 bd 92 cc a2 bd ce 28 04 3c fc d7 02 bd
       -0.10538795 -0.07949175 0.008066369 -0.03194426
0001e0 b6 0e de 3c 45 10 a5 bd c6 80 82 bd 7f 91 08 bd
       0.027106624 -0.08059744 -0.06372218 -0.03334188
0001f0 ac 20 e2 bd 09 b0 ff 3d 74 ae f9 3d d8 94 be bd
       -0.11041388 0.12484748 0.121914774 -0.093057334
000200 31 c9 71 3d f3 24 d2 bd a2 99 bf bd f1 84 bb 3d
       0.05902976 -0.10260954 -0.09355475 0.09156216
000210 a5 3d cd bd 83 a9 fe bd fc a4 c2 bd 65 f4 a0 3d
       -0.100215234 -0.124346755 -0.095041245 0.078591146
000220 d4 75 98 3c 7d cc 39 3d f0 12 57 bd 41 a0 a0 bd
       0.018610872 0.04536103 -0.052508295 -0.07843066
000230 aa 05 9c 3d 55 34 7f bd c1 55 95 bb cd c5 cc 3b
       0.07618268 -0.062305767 -0.004557342 0.0062491656
000240 f3 b8 fc bd 58 04 81 bd 6a 8b 06 bd b6 22 ba bd
       -0.12339964 -0.06299657 -0.0328478 -0.09088652
000250 91 06 3f 3d 4e d8 98 3d c8 0f 43 3d af 62 59 bd
       0.04663712 0.07463132 0.047622472 -0.053072628
000260 91 ff ac bd 8f b9 bc bd e9 88 b8 bc cd ff 3e bd
       -0.08447183 -0.0921508 -0.022526221 -0.04663067
000270 b5 4b ee bd 05 d4 ec bd cf 25 99 3c 4a 0e 4f 3d
       -0.11635534 -0.11563877 0.018694786 0.050550736
000280 8d 1b 59 bd 8e c2 ef 3d d9 1d af bd a9 7f 6f bc
       -0.05300479 0.1170703 -0.08550615 -0.014617839
000290 de eb 42 3d dc c0 39 3d b9 ed f6 3d a3 93 d3 bd
       0.04758822 0.04534994 0.12057061 -0.10330894
0002a0 03 74 c9 bd a9 c1 68 3d 3c 23 e6 bc 04 78 83 bd
       -0.098365806 0.056825314 -0.028092973 -0.064193755
0002b0 e8 26 ed bc 03 94 70 3d 99 d8 61 3c 95 2e f6 bd
       -0.028949216 0.058734905 0.013784551 -0.120206036
0002c0 77 1e 3d 3d 8e f3 57 3c 45 96 1a bd 67 fd 83 3d
       0.04617163 0.013180627 -0.037740964 0.06444817
0002d0 b2 aa 3e 3d 3b 78 0e 3d c6 ba 1d bd 97 5f 79 3c
       0.046549506 0.03478263 -0.0385082 0.015220544
0002e0 41 96 ba bd c2 6d dc 3c 87 66 d2 b6 7a 2b e4 3d
       -0.0911069 0.026907805 -6.2704235e-06 0.11141105
0002f0 eb 06 96 3d ab 52 cd 3d 48 6c b0 3c 82 f5 1a 3d
       0.07325538 0.10025533 0.021536008 0.03783179
000300 03 2b aa bc 74 fb 7f bd 6f b1 ea bb d7 fc ea bc
       -0.020772463 -0.062495664 -0.007162265 -0.028685017
000310 a0 87 56 3c 25 af 73 bd 32 31 e9 bd a6 81 52 3d
       0.013093859 -0.059493203 -0.113863364 0.051393174
000320 e6 d7 7b bd ba d9 e6 bd 97 36 b6 3d 40 4e ea 3c
       -0.061485194 -0.11271997 0.08897131 0.028601766
000330 de 8e 9b 3d d5 2e 18 bd ba 0a 93 bd 46 98 00 bd
       0.07595609 -0.037154038 -0.0717978 -0.03139522
000340 12 6c af bd 74 94 e7 bd fb 77 c5 3c 17 1f c2 3c
       -0.08565535 -0.11307612 0.024105063 0.023696465
000350 b1 ff 43 bc bf 1b b4 3d 0d 7e 91 3d 13 9c 65 bd
       -0.011962817 0.08794355 0.071041204 -0.056057047
000360 9a 74 ff 3d b2 4a b9 bd 3a 49 00 bc d0 8b d6 bd
       0.12473412 -0.0904745 -0.007829959 -0.10475886
000370 c4 ed ec bd 7a 24 ee 3b 93 94 d3 3d af ed ef 3c
       -0.11568788 0.007267532 0.10331073 0.029288141
000380 e9 5e 80 3d cb 11 b4 bd 80 fb 63 bc d0 bd 36 3c
       0.06268103 -0.08792456 -0.013914943 0.011153653
000390 68 52 89 bd 2c bc a9 3d 13 ec f4 bc 08 f0 14 3d
       -0.06705171 0.08287844 -0.029897725 0.036361724
0003a0 4f 2a f2 3c 3d 3f e7 bd 38 09 45 3d d8 d0 d4 3d
       0.02956119 -0.112913586 0.048104495 0.10391396
0003b0 ec 74 8b 3d 08 6d 89 bd 70 a3 cb 3d 7b a6 87 3c
       0.068094105 -0.06710249 0.099432826 0.016558876
0003c0 60 48 49 3d 7d 34 d6 bd 74 fa 2d bd 69 f4 c1 3d
       0.049141288 -0.1045923 -0.04247518 0.09470446
0003d0 aa 41 8d 3d de 91 d9 bd 1e e4 10 3d 75 85 9b bd
       0.0689729 -0.10623525 0.0353738 -0.07593814
0003e0 07 99 76 bd f9 ce a9 bd 72 8a 7b 3c cd 50 c8 3d
       -0.060204532 -0.0829143 0.015352832 0.097810365
0003f0 6a 61 9b 3d 73 86 0c 3d 7e 5f bc bd 55 cb 86 3d
       0.0758694 0.03430791 -0.09197901 0.06581751

fc.0.bias f4 [64]
000000 a6 1e d3 3c a2 e2 f5 bd e1 06 a3 bc 0b 06 e9 3d
       0.02577145 -0.120061174 -0.019900741 0.11378106
000010 34 7d f1 bd bc 73 eb 3d 3f 4f 0b 3d 53 7d 38 3c
       -0.11791459 0.11496684 0.03401112 0.011260348
000020 b4 c8 eb bd be ee 77 bd 9b 3c a8 bc 2a e2 b7 3c
       -0.115128905 -0.060530417 -0.020536711 0.02244671
000030 28 99 48 bd 7d 6c 91 bd cb a1 49 3d f7 0a 9f bc
       -0.048974186 -0.071007706 0.049226563 -0.019414408
000040 ed fc ed bd 81 e6 91 bd 0a d2 d0 3d f1 bf bf bc
       -0.116205074 -0.07124043 0.10196312 -0.023406954
000050 cd b4 29 bd 26 4c 7f bc f6 4d 9e 3c f1 2b 16 3c
       -0.04143219 -0.01558212 0.019324284 0.00916575
000060 38 fe d3 bc 41 f1 dd bd 6e 80 a5 3d 3b 6f a9 3c
       -0.025878057 -0.10837031 0.08081137 0.020682922
000070 38 f6 67 bd 41 f9 b3 bd ed 58 80 bd 36 8a d7 bd
       -0.056631297 -0.08787776 -0.06266961 -0.105244085
000080 ab e0 52 bd 88 cd f4 bd 48 3b 6b bd 69 9e 9d bd
       -0.05148379 -0.119532645 -0.057429582 -0.0769623
000090 e6 c1 4e 3d 3c 65 29 3d 5c 07 2b bd f2 c6 a3 3c
       0.050477885 0.04135631 -0.041755065 0.019992325
0000a0 56 cd 9c bc 8e 5c ba bc 15 73 df 3d 52 00 91 3d
       -0.01914088 -0.022749212 0.10910622 0.07080139
0000b0 41 29 ac 3d 96 ea c0 3d fa 8a bb b9 38 c1 80 3d
       0.08406306 0.09419744 -0.00035770965 0.062868536
0000c0 92 a9 0e bd a8 ba a7 3c 34 13 9b bd b5 0a 00 3e
       -0.034829684 0.020474747 -0.07572022 0.12504084
0000d0 6d f7 0d 3c 83 a4 dd 3d ee 0d f3 3c 00 e5 ea 3d
       0.008664948 0.10822394 0.029669728 0.114694595
0000e0 96 a0 db 3d ce f4 e3 3d 40 53 8b bc a2 cc 10 3d
       0.10723989 0.11130677 -0.01700747 0.035351403
0000f0 7f eb 06 bd 0b 07 ce 3d 61 33 14 bd 26 d5 88 3d
       -0.03293943 0.10059937 -0.03618181 0.0668128

output_layer.0.weight f4 [1, 64]
000000 17 3a c0 3d f8 a9 02 bd 94 50 a8 3d 19 a8 48 bd
       0.0938608 -0.031900376 0.08218494 -0.048988435
000010 b4 04 e0 bd 18 9b 88 3d 55 63 b0 3c bd e2 a3 bd
       -0.10938397 0.06670207 0.02153174 -0.08002231
000020 b3 47 b9 3b d3 ab d9 3d 2f 9e dc bb ff 80 68 3d
       0.005654299 0.10628476 -0.006732724 0.056763645
000030 7e 6b b3 3d b4 42 f6 3c cd b8 67 bc 4c dc f8 3d
       0.08760737 0.030061103 -0.014143181 0.12151393
000040 f5 a2 93 bb 8d 01 aa bd ff 36 ae bd 6e 50 9f bd
       -0.00450551 -0.08301077 -0.085065834 -0.077790126
000050 09 45 89 3b fd 7b ef 3d 4b f9 a4 bd b1 57 aa 3d
       0.004189138 0.11693571 -0.08055361 0.08317507
000060 05 24 ae 3d e7 cd ba 3d 82 bc 0d 3d f8 f1 e9 3b
       0.08502964 0.09121304 0.034603603 0.0071394406
000070 7c d5 8d 3b 78 d5 cf bd fe 08 97 bd dd bb 64 3d
       0.004328428 -0.10148138 -0.07374762 0.055843223
000080 f9 ef 9a 3d 55 8e 09 bd b3 76 43 3c 36 55 e8 3a
       0.075653024 -0.033583004 0.011930156 0.001772559
000090 0c 56 dd bc 7e 70 7b bd 39 f4 df 3c 5d b5 93 bd
       -0.02701857 -0.061386578 0.027338134 -0.07212327
0000a0 0d 9c d6 3d fe f6 64 bd d3 6a 7f 3d 82 9f 02 bd
       0.10478983 -0.055899613 0.062357735 -0.0318904
0000b0 a6 d0 cd 3c e6 25 4f ba 45 a0 ba bd 20 98 86 3c
       0.025123905 -0.00079020706 -0.091126 0.01642996
0000c0 f3 ff b1 bd a3 f8 d8 bd 07 c3 0c 3c 44 ea cf 3c
       -0.086913966 -0.10594299 0.00859142 0.025380261
0000d0 30 81 4e 3b c7 7c 3e bd ef bb b8 bc 74 bb c4 bd
       0.0031510107 -0.046505716 -0.022550551 -0.09606066
0000e0 4e af f8 bc 7e c5 87 bc 4d 64 04 3d bd 62 c0 bd
       -0.03035703 -0.016573664 0.032322217 -0.09393833
0000f0 df b8 3b 3d 20 9f 86 bd f6 a7 50 3d e0 48 b9 3d
       0.045830604 -0.065733194 0.05094143 0.09047103
