Mask-test/model_epoch_1_80.pth (torch, 154665 bytes, 7 tensors)

embedding.0.weight f4 [64, 7]
000000 0d 08 d1 bd 5c 26 83 be df d1 2a 3e 5c cf 87 3e
       -0.10206614 -0.25615203 0.16681622 0.2652539
000010 c1 74 8e 3e a9 35 bb 3e 56 ec 09 bb 19 38 b5 3d
       0.2782345 0.36564377 -0.0021045408 0.088485904
000020 ca 0c 85 3e 9f 87 a4 be 5a 83 f6 3d b6 44 3e be
       0.2598632 -0.3213472 0.12036772 -0.18580899
000030 7e 50 73 bb 7c 50 64 3c a6 2d 9e 3e c0 60 f1 3d
       -0.0037126835 0.013935205 0.30894202 0.11786032
000040 97 c6 f6 bd d4 26 8d 3e bf 8b b2 be 2c e1 86 3e
       -0.12049597 0.27568686 -0.34872243 0.26343668
000050 e3 df 96 3e b2 9e 70 bd e7 84 f2 3d 49 47 b1 3e
       0.29467687 -0.058745094 0.11841755 0.346247
000060 8c b2 a4 be 01 ce 8c be ad 0c 61 3e 83 34 1a 3e
       -0.3216747 -0.27500919 0.21977492 0.15059094
000070 49 2a 10 be f6 16 c0 3d ca 94 ef bd fc 1a c0 3e
       -0.1407863 0.093793795 -0.11698301 0.37520587
000080 c2 dc 92 3e 98 98 ad be 5c 4d b2 3e 79 f8 3c 3d
       0.2868405 -0.33905482 0.34824646 0.0461354
000090 b4 6d 87 be 78 7b 37 bd 68 07 c9 3d 96 07 8a be
       -0.26450884 -0.044795483 0.09815866 -0.26958913
0000a0 9c 5d 68 be 2a d3 a2 39 12 21 49 3e 00 84 5d 3e
       -0.22691959 0.00031056377 0.19641522 0.21632385
0000b0 0e b2 a8 3e 06 6a b9 3e 6e 9f af be 83 86 94 3d
       0.32948345 0.36213702 -0.34301323 0.072522186
0000c0 80 57 b6 bd 81 2f d9 bd d9 39 a5 bb 3d 56 84 3d
       -0.08903408 -0.10604764 -0.0050422964 0.06461761
0000d0 db b1 54 bd 2c cc 98 be 61 98 de 3c b8 32 58 3e
       -0.05192743 -0.2984327 0.02717227 0.21113098
0000e0 b2 da 80 be c1 d8 ad be 3d c9 92 be 77 a4 1d 3e
       -0.2516685 -0.33954433 -0.28669158 0.1539477
0000f0 92 e6 3d 3e ed aa af be 77 b8 a1 bd cc 8f 77 be
       0.18544987 -0.34310094 -0.07896512 -0.24175948
000100 90 15 81 3e 02 93 ff 3c a5 06 b9 bc d7 e1 6d 3d
       0.25211763 0.031198028 -0.022586176 0.058076706
000110 c3 ee 05 3e ad 30 49 3e e8 c6 7b be 86 5b 2f bd
       0.13079362 0.19647475 -0.24587595 -0.042811893
000120 ae 29 59 3e 82 4a 9a 3e 84 bf cc bc 47 db 9d 3e
       0.21207306 0.3013497 -0.024993666 0.30831358
000130 20 91 29 3e 16 57 ea 3c 07 5e 2e be ef 00 82 be
       0.16559267 0.028605979 -0.17028056 -0.25391337
000140 91 35 a3 be b6 4c 9d 3b af d1 1a be 65 0e a9 3d
       -0.31876805 0.0048004044 -0.1511905 0.08254699
000150 f4 04 98 be 49 19 72 be 39 f9 bc 3e 66 b0 a8 3e
       -0.2969128 -0.23642458 0.36908892 0.3294708
000160 af aa 3b bd fc 0b 2f bd e2 fd 9b 3e ba 3d 3b be
       -0.045817073 -0.04273604 0.30467135 -0.18285266
000170 14 fe 6f be dd 57 2f be ad c4 43 3e 24 5c 8a be
       -0.23436767 -0.17123361 0.19117995 -0.27023423
000180 81 1d 55 be d7 80 5f 3e d1 ad 12 3e e2 7f 85 be
       -0.20812036 0.21826492 0.14324118 -0.2607413
000190 44 7d 7a be d6 a4 81 be 68 78 8a be 6d b8 69 3e
       -0.24461848 -0.25321072 -0.27044988 0.22824259
0001a0 c4 b0 a1 3e b9 0a 0f 3e 52 03 38 3d a9 3d 4c 3e
       0.31580174 0.13968934 0.04492504 0.19945396
0001b0 81 ae 63 be 14 c6 44 3e 5d dd 84 3e 09 78 19 be
       -0.22234537 0.19216186 0.25950137 -0.14987196
0001c0 06 ce 33 3c d9 d0 66 3e 4c c6 3a be e9 f4 8d 3e
       0.010974413 0.22540607 -0.18239707 0.27725914
0001d0 c9 7e 80 be cb 8a 89 be a5 98 c0 be f7 e5 ba 3e
       -0.2509673 -0.26863703 -0.3761646 0.36503574
0001e0 d7 0e 8b be 08 63 42 be 5f 6b 98 be b5 55 a3 3e
       -0.2715976 -0.1898309 -0.29769418 0.31901327
0001f0 7b 41 f6 3c 1b 4a 8a 3e 37 f5 94 3b 31 f4 62 be
       0.03006052 0.27009663 0.0045458334 -0.22163464
000200 70 1d a5 be 04 55 b3 be de ad 88 be 17 a0 10 3e
       -0.32249022 -0.350258 -0.2669515 0.1412357
000210 e6 01 97 3d a3 80 b1 3e bc 4d 58 bd 44 1a a6 be
       0.07373409 0.34668455 -0.05280851 -0.32441914
000220 3e 4f 06 be 6e ff 51 be c5 bd a9 bd a0 46 5d 3d
       -0.13116166 -0.20507595 -0.08288149 0.05402243
000230 48 d7 91 be 4b 5a b4 3e e1 9e 64 3e 13 06 2f 3e
       -0.2848456 0.35225138 0.22326232 0.17092161
000240 1b c7 40 be 25 4d 92 3e 02 7b d6 bd 7d 89 d2 3d
       -0.18825953 0.28574482 -0.10472681 0.1028013
000250 0f 06 81 bd 84 14 fa bc de 1f a1 be 35 36 38 3e
       -0.06299984 -0.03052736 -0.31469625 0.17989428
000260 14 16 97 3e 56 4b 6c 3e 29 17 93 bd aa 12 2d be
       0.29509032 0.23075613 -0.07182152 -0.16901651
000270 cc a7 4b 3e 89 ab 87 3e 1a e8 99 3e 2e 82 c1 be
       0.19888228 0.26498058 0.30059892 -0.37794632
000280 e8 2f bb bd eb 83 aa bd 90 29 c3 3d b9 83 aa 3d
       -0.09139997 -0.083259426 0.09529412 0.08325905
000290 26 43 f7 3d d3 8c 2e 3e eb e1 6d 3d e5 37 b1 be
       0.120733544 0.17045908 0.05807678 -0.34612957
0002a0 36 1a 5e 3e c0 49 c0 3e aa 02 89 be ae fc b2 3e
       0.21689686 0.37556267 -0.26759845 0.34958404
0002b0 67 96 b6 3e 83 52 89 3e 2b 5c bc 3d ad 5c 6c be
       0.35661623 0.26820764 0.09197267 -0.23082228
0002c0 35 6f 16 be 54 4d 9b 3e 10 8e a3 3d c8 b6 53 bd
       -0.1469086 0.30332434 0.07986081 -0.051687986
0002d0 c6 9d b1 be 19 3d b6 be 47 02 3d bc c0 22 9f 3e
       -0.34690684 -0.3559349 -0.0115361875 0.310812
0002e0 2a 31 a7 3d 64 be aa 3d a4 45 f7 bd 8c 5f 81 3e
       0.08163674 0.083370954 -0.1207383 0.2526821
0002f0 0c 54 b3 3e 0b fc d0 bd 51 15 99 be 08 52 d0 3d
       0.3502506 -0.102043234 -0.29899076 0.10171896
000300 4e 65 2c be 99 d8 be be de 59 02 3d 80 a9 03 bd
       -0.1683552 -0.37274626 0.031823985 -0.03214407
000310 20 0b 95 3e 4d a0 0e 3e 86 c0 99 be b7 e2 99 3e
       0.2911005 0.13928337 -0.30029696 0.30055782
000320 af 3e 52 3e 5d 6a 8d 3d 60 f6 a5 bd 19 be 38 3d
       0.20531724 0.06905053 -0.08103633 0.045103166
000330 32 d1 6e 3d 14 76 a2 bd 1b 20 b2 3e 2e b1 b0 3e
       0.058304973 -0.07932678 0.3479012 0.34510177
000340 77 c0 a5 be 17 f9 b7 3d 02 01 83 3e 9e 8e 0c 3e
       -0.32373402 0.08983057 0.25586706 0.13726279
000350 4d 0c 6a 3e b5 fe 10 3d f3 bf 38 3e 41 eb b3 bd
       0.22856255 0.035399158 0.18041973 -0.087851055
000360 19 74 48 bc 34 60 62 be 1c 78 75 bd c7 18 9e 3e
       -0.012234711 -0.22107011 -0.059929 0.3087828
000370 22 f6 a4 3e ab 20 1d 3d cc 80 3e be c0 69 4e 3e
       0.32219034 0.038361233 -0.1860382 0.20157528
000380 d1 b4 0e 3d bb 9b 8c bd aa b0 43 be fd 64 89 be
       0.03484041 -0.06865641 -0.1911036 -0.2683486
000390 ec bb b2 be 70 39 95 bd 48 5c 3c bd 6e 14 87 be
       -0.34908998 -0.07286346 -0.045986444 -0.26382774
0003a0 07 e6 9b 3e a4 8a 2f 3e dc 35 80 bd 16 17 11 3d
       0.30448934 0.17142731 -0.06260273 0.035422407
0003b0 84 d5 93 be a3 1b 9d be 03 26 7a be b3 81 50 bd
       -0.28873837 -0.30685148 -0.24428563 -0.05090494
0003c0 c1 04 b2 3e 9d 57 a2 be 62 97 0c 3d 59 7e dc 3c
       0.34769252 -0.3170747 0.034324057 0.026915716
0003d0 16 6d 26 be b8 f7 c1 bd 5d bc f4 bd ef d2 85 3c
       -0.1625255 -0.09471077 -0.1194999 0.016335933
0003e0 0f b7 80 3d c5 72 94 bd db 7f b5 3d b1 43 8c 3e
       0.06284916 -0.07248453 0.08862277 0.27395394
0003f0 3b 9c dd bd 18 e4 71 be 30 d0 1a be 1f bc 33 3d
       -0.10820814 -0.23622167 -0.1511848 0.043880578

embedding.0.bias f4 [64]
000000 7b af 98 bc 5b 18 f7 bd d8 0d 0e be 26 b2 a6 be
       -0.018638363 -0.12065192 -0.13872468 -0.3255779
000010 c1 d0 93 3c 26 3d 9f be d3 48 77 bd f5 14 17 3d
       0.018043878 -0.3110134 -0.060372185 0.03688522
000020 95 ac a6 3e 98 0e 00 bc 66 9b 1a 3e 22 b5 ba be
       0.32553545 -0.007815979 0.15098342 -0.36466318
000030 7c 2e c8 bd 8f c4 7e bd 60 29 5e 3e 28 cc c1 3e
       -0.09774491 -0.06219917 0.21695471 0.3785107
000040 62 19 60 3e 12 f5 97 be ef ef 1a be 31 19 bd 3d
       0.21884683 -0.2967916 -0.1513059 0.092333205
000050 27 85 73 3e 2f b5 d5 3d ed 68 a3 bd 6d 65 25 be
       0.23781262 0.10434949 -0.079789974 -0.16151972
000060 e9 4d d3 bb 57 cf f2 3d 7c 1b 35 be 9a 14 7c be
       -0.0064484966 0.11855953 -0.17686266 -0.24617234
000070 19 1f b2 3e d0 48 8b be 36 f0 b6 3d df f3 33 3e
       0.3478935 -0.2720399 0.08932535 0.17573498
000080 07 c7 07 3e 2c 6b b6 be 06 32 70 be bf a5 69 3e
       0.13259517 -0.3562864 -0.23456582 0.22817133
000090 cf 71 7e 3e cd ba b3 bc 5d 98 1e be 83 5d a7 be
       0.24848102 -0.02193966 -0.1548781 -0.3268853
0000a0 1a 1b 0c bc 9d e7 7a be 88 32 04 be e0 58 87 be
       -0.008551383 -0.24502416 -0.12909901 -0.26434994
0000b0 b6 7b 3a be 7a 20 9b bd bf c1 59 3d 71 93 80 be
       -0.18211254 -0.07574554 0.053163286 -0.2511249
0000c0 e3 4d e4 bd f0 d2 bd be c4 b0 97 be 28 57 e0 3d
       -0.11147668 -0.37074995 -0.2962705 0.10954124
0000d0 63 a5 ab be 91 2f 23 be 6b 03 83 bd 72 93 a9 3d
       -0.33524618 -0.15936114 -0.06397136 0.08280076
0000e0 cf 54 99 3e 9e a7 89 3e 26 e2 9c be 66 4d 9f 3e
       0.29947516 0.26885694 -0.30641288 0.31113738
0000f0 68 61 bb 3e 26 f7 37 be 8e f2 12 3d 34 5f 8e 3e
       0.36597753 -0.17965373 0.03587585 0.2780701

layernorm.weight f4 [259, 64]
000000 02 00 80 3f fa ff 7f 3f 33 14 80 3f ac f7 7f 3f
       1.0000002 0.99999964 1.0006164 0.9998729
000010 85 be 7f 3f 00 00 80 3f 00 00 80 3f 66 e7 7f 3f
       0.99900085 1.0 1.0 0.9996246
000020 00 00 80 3f 13 0d 80 3f b9 f8 7f 3f 00 00 80 3f
       1.0 1.000399 0.99988896 1.0
000030 bc 17 80 3f 84 05 80 3f f1 f8 7f 3f 00 00 80 3f
       1.0007243 1.0001683 0.9998923 1.0
000040 00 00 80 3f 84 e1 7f 3f 14 00 80 3f fc ff 7f 3f
       1.0 0.99953485 1.0000024 0.99999976
000050 00 00 80 3f 44 10 80 3f 00 00 80 3f 00 00 80 3f
       1.0 1.0004964 1.0 1.0
000060 2c 0b 80 3f 04 00 80 3f ec 0d 80 3f 00 00 80 3f
       1.0003409 1.0000005 1.0004249 1.0
000070 00 00 80 3f aa e6 7f 3f 00 00 80 3f a3 09 80 3f
       1.0 0.9996134 1.0 1.0002941
000080 00 00 80 3f 00 00 80 3f 00 00 80 3f ff ff 7f 3f
       1.0 1.0 1.0 0.99999994
000090 00 00 80 3f 00 00 80 3f 00 00 80 3f 65 ee 7f 3f
       1.0 1.0 1.0 0.99973136
0000a0 b6 04 80 3f 00 00 80 3f 67 0e 80 3f 01 00 80 3f
       1.0001438 1.0 1.0004395 1.0000001
0000b0 00 00 80 3f 00 00 80 3f 6c d0 7f 3f 00 00 80 3f
       1.0 1.0 0.999274 1.0
0000c0 c2 e7 7f 3f 24 f6 7f 3f 00 00 80 3f 32 01 80 3f
       0.9996301 0.99984956 1.0 1.0000365
0000d0 02 00 80 3f 00 00 80 3f 00 00 80 3f b0 ee 7f 3f
       1.0000002 1.0 1.0 0.99973583
0000e0 7d f7 7f 3f 00 00 80 3f 1c 01 80 3f 00 00 80 3f
       0.9998701 1.0 1.0000339 1.0
0000f0 ae 00 80 3f 00 00 80 3f 00 00 80 3f 94 0b 80 3f
       1.0000207 1.0 1.0 1.0003533
000100 dd ff 7f 3f fe ff 7f 3f 85 0c 80 3f c4 fe 7f 3f
       0.9999979 0.9999999 1.0003821 0.99998116
000110 b4 d9 7f 3f 00 00 80 3f 00 00 80 3f 3a f3 7f 3f
       0.99941564 1.0 1.0 0.9998051
000120 00 00 80 3f 82 08 80 3f 04 fe 7f 3f 00 00 80 3f
       1.0 1.0002596 0.9999697 1.0
000130 9b 0e 80 3f 05 00 80 3f 05 00 80 3f ef ff 7f 3f
       1.0004457 1.0000006 1.0000006 0.999999
000140 00 00 80 3f 5c fb 7f 3f e8 ff 7f 3f 00 00 80 3f
       1.0 0.9999292 0.99999857 1.0
000150 00 00 80 3f c4 03 80 3f 00 00 80 3f 00 00 80 3f
       1.0 1.0001149 1.0 1.0
000160 03 08 80 3f f5 ff 7f 3f e3 04 80 3f 00 00 80 3f
       1.0002445 0.99999934 1.0001491 1.0
000170 00 00 80 3f 3e ee 7f 3f 00 00 80 3f 5e 02 80 3f
       1.0 0.99972904 1.0 1.0000722
000180 00 00 80 3f 00 00 80 3f 00 00 80 3f 00 00 80 3f
       1.0 1.0 1.0 1.0
000190 00 00 80 3f 00 00 80 3f 00 00 80 3f 97 f7 7f 3f
       1.0 1.0 1.0 0.9998717
0001a0 ae 03 80 3f 00 00 80 3f 6e 06 80 3f c3 ff 7f 3f
       1.0001123 1.0 1.0001962 0.99999636
0001b0 00 00 80 3f 00 00 80 3f 09 e6 7f 3f 00 00 80 3f
       1.0 1.0 0.9996038 1.0
0001c0 b8 f4 7f 3f 02 00 80 3f 00 00 80 3f 00 00 80 3f
       0.99982786 1.0000002 1.0 1.0
0001d0 e9 ff 7f 3f 00 00 80 3f 00 00 80 3f 4b fa 7f 3f
       0.9999986 1.0 1.0 0.9999129
0001e0 14 00 80 3f 00 00 80 3f 01 00 80 3f 00 00 80 3f
       1.0000024 1.0 1.0000001 1.0
0001f0 03 00 80 3f ff ff 7f 3f 00 00 80 3f 3f 02 80 3f
       1.0000004 0.99999994 1.0 1.0000685
000200 03 00 80 3f f9 ff 7f 3f fe 08 80 3f e0 f9 7f 3f
       1.0000004 0.9999996 1.0002744 0.99990654
000210 ba dc 7f 3f 00 00 80 3f 00 00 80 3f 97 f4 7f 3f
       0.99946177 1.0 1.0 0.9998259
000220 00 00 80 3f 9c 04 80 3f df fa 7f 3f 00 00 80 3f
       1.0 1.0001407 0.99992174 1.0
000230 26 10 80 3f 76 03 80 3f d2 f9 7f 3f ff ff 7f 3f
       1.0004928 1.0001056 0.9999057 0.99999994
000240 00 00 80 3f 94 eb 7f 3f 07 00 80 3f fe ff 7f 3f
       1.0 0.9996884 1.0000008 0.9999999
000250 00 00 80 3f 25 0a 80 3f ff ff 7f 3f 00 00 80 3f
       1.0 1.0003096 0.99999994 1.0
000260 ce 05 80 3f 03 00 80 3f d5 06 80 3f 00 00 80 3f
       1.0001771 1.0000004 1.0002085 1.0
000270 00 00 80 3f b8 f1 7f 3f ff ff 7f 3f ed 06 80 3f
       1.0 0.9997821 0.99999994 1.0002114
000280 00 00 80 3f 00 00 80 3f 00 00 80 3f 00 00 80 3f
       1.0 1.0 1.0 1.0
000290 00 00 80 3f 00 00 80 3f 00 00 80 3f 6a f3 7f 3f
       1.0 1.0 1.0 0.99980795
0002a0 d5 ff 7f 3f 00 00 80 3f 07 08 80 3f 49 ff 7f 3f
       0.99999744 1.0 1.000245 0.9999891
0002b0 00 00 80 3f 00 00 80 3f 04 ed 7f 3f 00 00 80 3f
       1.0 1.0 0.9997103 1.0
0002c0 51 f8 7f 3f a5 f8 7f 3f 00 00 80 3f 82 00 80 3f
       0.99988276 0.99988776 1.0 1.0000155
0002d0 03 00 80 3f 00 00 80 3f 00 00 80 3f cb f5 7f 3f
       1.0000004 1.0 1.0 0.99984425
0002e0 99 fb 7f 3f 00 00 80 3f a9 00 80 3f 00 00 80 3f
       0.9999328 1.0 1.0000201 1.0
0002f0 39 00 80 3f bc ff 7f 3f 00 00 80 3f d8 05 80 3f
       1.0000068 0.99999595 1.0 1.0001783
000300 d0 ff 7f 3f fc ff 7f 3f 7a 08 80 3f 50 ff 7f 3f
       0.99999714 0.99999976 1.0002587 0.9999895
000310 24 e9 7f 3f 00 00 80 3f 00 00 80 3f da f6 7f 3f
       0.9996512 1.0 1.0 0.9998604
000320 00 00 80 3f 18 07 80 3f ef fe 7f 3f 00 00 80 3f
       1.0 1.0002165 0.9999837 1.0
000330 24 09 80 3f 05 00 80 3f 01 00 80 3f ff ff 7f 3f
       1.000279 1.0000006 1.0000001 0.99999994
000340 00 00 80 3f 83 ff 7f 3f f2 ff 7f 3f 00 00 80 3f
       1.0 0.99999255 0.99999917 1.0
000350 00 00 80 3f 88 02 80 3f ff ff 7f 3f 00 00 80 3f
       1.0 1.0000772 0.99999994 1.0
000360 b3 06 80 3f fc ff 7f 3f 69 03 80 3f 00 00 80 3f
       1.0002044 0.99999976 1.0001041 1.0
000370 00 00 80 3f 23 f5 7f 3f fe ff 7f 3f 57 01 80 3f
       1.0 0.99983424 0.9999999 1.0000409
000380 00 00 80 3f 00 00 80 3f 00 00 80 3f 00 00 80 3f
       1.0 1.0 1.0 1.0
000390 00 00 80 3f 00 00 80 3f 00 00 80 3f 21 fc 7f 3f
       1.0 1.0 1.0 0.99994093
0003a0 8a 03 80 3f 00 00 80 3f 1d 04 80 3f d6 ff 7f 3f
       1.000108 1.0 1.0001255 0.9999975
0003b0 00 00 80 3f 00 00 80 3f 5d f2 7f 3f 00 00 80 3f
       1.0 1.0 0.9997919 1.0
0003c0 5d f8 7f 3f 70 ff 7f 3f 00 00 80 3f 01 00 80 3f
       0.9998835 0.9999914 1.0 1.0000001
0003d0 f6 ff 7f 3f 00 00 80 3f 00 00 80 3f 20 fe 7f 3f
       0.9999994 1.0 1.0 0.9999714
0003e0 0b 00 80 3f 00 00 80 3f 01 00 80 3f 00 00 80 3f
       1.0000013 1.0 1.0000001 1.0
0003f0 01 00 80 3f b2 ff 7f 3f 00 00 80 3f 7f 01 80 3f
       1.0000001 0.99999535 1.0 1.0000457

layernorm.bias f4 [259, 64]
000000 fd c9 f8 36 fb 34 94 b6 c6 18 48 37 38 e9 72 b6
       7.4144905e-06 -4.4169115e-06 1.1926697e-05 -3.6196561e-06
000010 83 0c 80 b7 4e 75 33 37 c8 3b 50 36 82 af 34 b7
       -1.5264615e-05 1.06965435e-05 3.1029213e-06 -1.07697e-05
000020 8e 31 f9 b6 6a e1 05 37 86 49 64 36 2c 55 36 37
       -7.426547e-06 7.979901e-06 3.4017444e-06 1.0867876e-05
000030 76 a8 6e 37 bf 84 33 37 9e a1 9d 36 76 5a 71 37
       1.4225128e-05 1.0700139e-05 4.6977793e-06 1.43857815e-05
000040 c4 c7 19 b4 1d a2 56 b7 66 d9 20 b7 3c 0b 6a b7
       -1.432191e-07 -1.2793139e-05 -9.58736e-06 -1.3950103e-05
000050 4b 22 bd b6 9b 4c 95 37 73 4b 87 b7 41 b9 c4 36
       -5.636631e-06 1.7797856e-05 -1.6128388e-05 5.8628216e-06
000060 6e 17 d9 36 ea 01 44 37 f8 b8 19 37 ae 18 81 b6
       6.4698315e-06 1.1682956e-05 9.162577e-06 -3.8473727e-06
000070 f0 95 f9 b5 a6 24 a3 b7 77 2b 46 b7 bb 3a 52 36
       -1.8595583e-06 -1.944818e-05 -1.181184e-05 3.1326624e-06
000080 c9 30 78 37 66 af 83 b7 1b ac b9 b6 ec 96 5a b6
       1.4793311e-05 -1.5698093e-05 -5.5334654e-06 -3.257238e-06
000090 22 b2 e9 b6 50 ac f8 b6 c1 73 66 b5 08 62 4f 35
       -6.9646785e-06 -7.4110358e-06 -8.585012e-07 7.7256163e-07
0000a0 14 b1 ef 36 65 48 dc b6 10 93 5e 37 a8 04 9f 36
       7.1433697e-06 -6.5649388e-06 1.3266472e-05 4.7391113e-06
0000b0 a9 89 ff 35 e9 5d a5 36 c0 16 c1 b6 0f 8d 7d 35
       1.9039045e-06 4.928316e-06 -5.7544967e-06 9.445511e-07
0000c0 3b 76 36 b7 4e f1 99 b6 1d 30 16 37 2d c6 e8 36
       -1.0875573e-05 -4.587847e-06 8.951899e-06 6.9372095e-06
0000d0 4d 14 db 35 17 eb 14 b6 03 00 03 b7 0d bf 32 b7
       1.632268e-06 -2.219056e-06 -7.808211e-06 -1.0654109e-05
0000e0 0f 93 c8 36 2a 96 32 36 25 74 84 36 74 00 6d b7
       5.9775844e-06 2.6611474e-06 3.9474276e-06 -1.4126406e-05
0000f0 10 1d 7a 36 30 ef 21 b6 69 30 24 b6 d0 bd 60 37
       3.726982e-06 -2.4130095e-06 -2.4466083e-06 1.3395635e-05
000100 ea 89 0b 37 3d cc 91 b6 59 09 45 37 0e ac f4 b6
       8.317156e-06 -4.345113e-06 1.1744291e-05 -7.2917965e-06
000110 a2 00 9b b7 43 b7 4c 37 4e 9c 33 b5 59 02 46 b7
       -1.8477735e-05 1.22020165e-05 -6.691015e-07 -1.1802266e-05
000120 58 28 a4 b6 a8 59 39 37 cc dc 57 36 77 4b 2f 36
       -4.8922775e-06 1.1047734e-05 3.2166017e-06 2.6120958e-06
000130 2f 72 38 37 e0 36 4b 37 77 10 da 35 8b 62 65 37
       1.099384e-05 1.21125195e-05 1.6247058e-06 1.36724075e-05
000140 c0 fa 9b b5 5f a6 3d b7 1d e1 eb b6 c7 21 59 b7
       -1.1621378e-06 -1.1304014e-05 -7.0297524e-06 -1.2942072e-05
000150 00 6c 28 b7 f7 cc 7b 37 98 9e 4a b7 c0 5b 32 37
       -1.0038726e-05 1.5008488e-05 -1.2077064e-05 1.0630989e-05
000160 c1 3b c2 36 c8 58 6e 37 16 28 18 37 de 8f 57 b5
       5.788607e-06 1.4206576e-05 9.069239e-06 -8.0303096e-07
000170 3e 56 3d b6 e3 e2 b6 b7 5a 22 4b b7 ab 25 3e 36
       -2.8213394e-06 -2.1801743e-05 -1.2107741e-05 2.8334132e-06
000180 02 39 9e 37 b1 9d 53 b7 8e c2 57 b6 e1 08 cd 35
       1.8861614e-05 -1.2613295e-05 -3.2150742e-06 1.5276274e-06
000190 10 1e c3 b6 33 38 40 b6 15 c3 9a 34 04 39 9b b6
       -5.8149526e-06 -2.8642942e-06 2.8826676e-07 -4.6259975e-06
0001a0 e3 5f 26 37 5d ea a9 b6 4a 5f 46 37 f3 72 6f 36
       9.916696e-06 -5.063876e-06 1.1823906e-05 3.5680685e-06
0001b0 e7 5d 2c b6 ec 2d fa 36 f7 ca ed b6 db 96 75 36
       -2.5684656e-06 7.4559266e-06 -7.0867786e-06 3.6595654e-06
0001c0 0d b4 40 b7 6f 2e 09 b7 ff c7 1c 37 9b 8c e4 36
       -1.1486013e-05 -8.1766475e-06 9.34489e-06 6.811298e-06
0001d0 a2 38 d9 35 f4 1b b9 b6 c0 1c 2c b7 e4 f2 71 b7
       1.6184242e-06 -5.516684e-06 -1.0258693e-05 -1.4421272e-05
0001e0 50 83 59 36 4b 14 79 36 c1 67 0e 37 92 c5 80 b7
       3.2411954e-06 3.7115703e-06 8.488017e-06 -1.535079e-05
0001f0 f4 19 81 34 1a 24 b7 b6 92 b9 02 b5 cc 61 65 37
       2.4047006e-07 -5.4580278e-06 -4.8698814e-07 1.3672234e-05
000200 01 7b a8 36 97 83 a1 b6 bd f5 34 37 3e 1a 96 b6
       5.0211097e-06 -4.813493e-06 1.07860515e-05 -4.4734034e-06
000210 fd 33 85 b7 3e e7 43 37 b9 79 77 36 0b 61 4b b7
       -1.5879044e-05 1.1676746e-05 3.687672e-06 -1.21223375e-05
000220 8b dd c7 b6 4f da f4 36 c6 12 1c 35 64 1d 25 37
       -5.956453e-06 7.297181e-06 5.814185e-07 9.841609e-06
000230 91 20 76 37 84 83 38 37 56 23 93 36 a7 e3 69 37
       1.4670325e-05 1.09978755e-05 4.385055e-06 1.3940887e-05
000240 a1 f8 da 35 99 f1 7a b7 3e e8 33 b7 d4 06 5a b7
       1.6314626e-06 -1.49574125e-05 -1.07233045e-05 -1.2995402e-05
000250 73 48 e3 b6 a6 30 94 37 d0 3a 92 b7 cc 06 e4 36
       -6.7735614e-06 1.7665629e-05 -1.7431943e-05 6.7957208e-06
000260 b9 9b bc 36 53 2a 63 37 00 36 c9 36 a1 42 b0 b6
       5.620965e-06 1.3540109e-05 5.996553e-06 -5.2529654e-06
000270 fd 4e c0 b5 63 22 9d b7 6f 29 5c b7 5d eb dc 36
       -1.4328103e-06 -1.8731871e-05 -1.3122669e-05 6.583911e-06
000280 cd e1 74 37 e7 4a 51 b7 4c 4f 51 b5 7a ce bc b4
       1.4596107e-05 -1.247481e-05 -7.797396e-07 -3.516796e-07
000290 db ec 13 b7 8d 88 15 b7 51 21 ac 34 b3 dc ef b4
       -8.81703e-06 -8.912885e-06 3.2061737e-07 -4.46778e-07
0002a0 ee 04 11 37 ab e2 e8 b6 9b 43 42 37 24 b0 bb 36
       8.643821e-06 -6.9405264e-06 1.1579042e-05 5.5935398e-06
0002b0 e2 41 89 35 c7 43 df 36 f4 3e 11 b7 3e 4e 2d b4
       1.022647e-06 6.653808e-06 -8.657331e-06 -1.6140345e-07
0002c0 88 84 3f b7 83 62 8a b6 d6 e3 0d 37 ff 00 b9 36
       -1.14153445e-05 -4.1241888e-06 8.457302e-06 5.5135456e-06
0002d0 d9 92 ca 36 af ae 56 b6 79 15 c2 b6 e0 39 45 b7
       6.0371644e-06 -3.1990164e-06 -5.7841503e-06 -1.175559e-05
0002e0 7d d2 c1 36 ad 1f 2d 36 21 19 d6 36 a2 ec 4e b7
       5.7763523e-06 2.5797447e-06 6.3806224e-06 -1.2333652e-05
0002f0 75 29 e9 35 b7 a0 96 b6 d0 76 a0 34 1c 29 78 37
       1.7371918e-06 -4.489058e-06 2.988877e-07 1.4791523e-05
000300 f9 31 19 37 8d a2 98 b6 ba 46 65 37 67 2a 12 b7
       9.131146e-06 -4.5488764e-06 1.3665931e-05 -8.712151e-06
000310 d9 cc b6 b7 d2 f4 64 37 86 06 84 36 5e 4a 08 b7
       -2.179148e-05 1.3646861e-05 3.934666e-06 -8.123547e-06
000320 b5 59 b2 b6 62 29 01 37 6a 66 7d b5 9b e3 0b 36
       -5.3152567e-06 7.698634e-06 -9.4398877e-07 2.0845098e-06
000330 01 58 75 37 51 50 2b 37 a7 7c 34 b6 97 80 0c 37
       1.4623628e-05 1.0211094e-05 -2.6894647e-06 8.37459e-06
000340 e7 64 5f 36 f6 86 4b b7 ba 2e 33 b7 d2 84 17 b7
       3.3288322e-06 -1.2131166e-05 -1.0680111e-05 -9.031226e-06
000350 50 7b b2 b6 a2 ac 88 37 39 a0 1a b7 b4 c7 2d 37
       -5.319169e-06 1.6292852e-05 -9.21642e-06 1.0358101e-05
000360 ca 03 92 36 b7 6a 85 37 ec f9 01 37 ee 06 57 b4
       4.35158e-06 1.5904528e-05 7.747189e-06 -2.0025956e-07
000370 a8 c9 22 b6 d9 d7 a1 b7 0c 0c 87 b7 69 06 99 36
       -2.425726e-06 -1.9293208e-05 -1.6098864e-05 4.5605016e-06
000380 b3 1d 71 37 ae b9 31 b7 bb 6b 90 b6 a9 c0 b2 36
       1.4371634e-05 -1.0593254e-05 -4.304076e-06 5.327242e-06
000390 8a 9a af b6 05 18 95 b6 b8 bf 29 36 62 4e 99 b6
       -5.233397e-06 -4.4433423e-06 2.5294557e-06 -4.5688803e-06
0003a0 66 e3 0b 37 c7 9f 88 b6 c9 4d dc 36 d2 de ef b5
       8.337991e-06 -4.0717164e-06 6.5655663e-06 -1.7871737e-06
0003b0 c9 84 ce b5 47 11 16 37 4d 1f 12 b7 3e f2 38 36
       -1.5386842e-06 8.944719e-06 -8.709566e-06 2.755914e-06
0003c0 9b 6d f2 b6 fd 8f 0e b7 b5 a3 25 37 7c 52 90 36
       -7.224922e-06 -8.497384e-06 9.872882e-06 4.301137e-06
0003d0 9c cf e9 34 1c cd c9 b6 00 0c 01 b7 1e 69 91 b7
       4.3550688e-07 -6.0141447e-06 -7.691793e-06 -1.7334296e-05
0003e0 72 ca 54 36 bc 74 5e 36 d1 b1 86 36 f9 bc 47 b7
       3.17083e-06 3.3148526e-06 4.0142118e-06 -1.1905323e-05
0003f0 14 8b 85 36 bf 20 d2 b6 f1 b5 d5 35 ad 5b 80 37
       3.9798997e-06 -6.2623e-06 1.5922689e-06 1.5301479e-05

fc.0.weight f4 [64, 64]
000000 d0 33 8b 3d 50 9b e0 3a 9f 01 bc 3d 92 3d 77 bd
       0.06796992 0.001713613 0.09179997 -0.060361452
000010 de 8e 83 bd de b2 bd 3d 28 88 c3 bb 5a ba 90 3c
       -0.06423734 0.09262632 -0.005967159 0.017666984
000020 af f8 57 bd 16 9b 89 3d b0 41 2d 3d 4a 4e d8 bd
       -0.052727398 0.067190334 0.042298973 -0.105618075
000030 75 e7 a0 bd 16 34 1f 3d 1c 30 bb 3c 9a 8a 3c bd
       -0.07856647 0.038868032 0.022850089 -0.04603062
000040 fd 7d bf bd 60 5f 8e ba 1f ba d4 3d cd 53 40 3d
       -0.09350202 -0.0010862164 0.10387062 0.04695492
000050 37 39 f6 bd 3c f2 d7 bc ef df 1a 3d 6c dc ba 3d
       -0.120226316 -0.026360624 0.037811216 0.091240734
000060 0e c5 b9 bd 68 37 b9 bc 98 4b 20 3d f0 cb c3 3d
       -0.09070788 -0.022609428 0.03913459 0.09560382
000070 3f 6a 52 bd 5f e0 a5 bc 22 39 9e bd 1f 50 c2 bd
       -0.051370855 -0.02024859 -0.07725741 -0.09487938
000080 cf 7b d2 3d 58 62 5c bd 54 bb cc bd c1 2e a7 3d
       0.10277521 -0.053804725 -0.099966675 0.081632145
000090 e3 7b 08 3d b1 a0 e6 3d 2c d6 92 3d 38 e7 07 bd
       0.033321273 0.11261118 0.07169756 -0.03317949
0000a0 eb 73 80 3d 55 41 51 bd 86 24 81 bc ff c6 83 bd
       0.062721096 -0.051087696 -0.015764486 -0.0643444
0000b0 19 2f f1 bd 10 1a 3d 3d 69 1d b9 3d c8 0a a6 3d
       -0.11776561 0.046167433 0.09038813 0.08107525
0000c0 db bd a6 bc 0d b6 e6 bd 98 e0 9f 3d 5c 12 9d 3d
       -0.020354202 -0.11265192 0.0780651 0.076695174
0000d0 5e ac ce 3c 1c 6c ca bd 4a c5 fe bd 96 9d 0a bd
       0.025228675 -0.098839015 -0.12439974 -0.033841692
0000e0 07 19 a6 bd 3a 28 ba 3d bd 18 8c 3d d6 b6 a3 bd
       -0.08110242 0.09089704 0.06840656 -0.079938576
0000f0 de f6 f0 bd 4e 7a b7 3c b2 93 af bd af 50 13 3d
       -0.11765836 0.022397187 -0.085730925 0.035965618
000100 52 20 92 3c cd b1 83 bd 8f 20 e2 bd 1a d8 52 3c
       0.017837677 -0.06430397 -0.11041366 0.012868905
000110 a9 63 ba bd e7 f9 9b bb 74 35 e7 3a 25 b7 eb bc
       -0.0910104 -0.0047600153 0.0017639832 -0.028773854
000120 df d2 c8 3d f8 11 43 3d 00 8b e4 3d a5 f1 21 bd
       0.098058455 0.04762456 0.11159325 -0.03953709
000130 ca 89 f4 3d 38 d5 a8 3d 83 44 a1 bd de c5 3b 3b
       0.11940344 0.08243793 -0.07874396 0.0028651874
000140 a7 62 21 bc 32 00 a1 bd 06 37 c7 bd 0d 8f e0 3d
       -0.009850181 -0.078613654 -0.09727292 0.10964785
000150 1b 57 2c 3c 2a 38 bb bd cf 37 f0 3d f6 58 82 bd
       0.010518814 -0.09141572 0.11729395 -0.06364624
000160 b4 7b f0 bd c7 d2 47 3c d4 d3 34 bd 73 71 cd bd
       -0.117423445 0.012196249 -0.044147328 -0.10031404
000170 93 d0 84 3c f5 c2 41 3d cc 71 cc 3c 12 98 ac 3a
       0.016212737 0.047305066 0.024956606 0.0013167879
000180 4c ed 40 3c 92 10 5f bd 1f 58 f4 3c d1 4c 4a 3d
       0.011775326 -0.054459162 0.029827176 0.049389664
000190 0e 1c 38 3d 55 5d d4 bc 70 17 0c bc 7c b4 0a bd
       0.04494863 -0.02592341 -0.00855051 -0.03386353
0001a0 62 b4 64 3d a1 19 7f bc 4f ad b9 bd 40 22 00 3c
       0.05583609 -0.015570075 -0.09066259 0.007820666
0001b0 c3 38 5c bd 89 ee 08 bd 7d af 79 bd 1e 02 30 3d
       -0.05376507 -0.03343061 -0.060958374 0.04297077
0001c0 fd 2f 65 bc 44 42 b3 3d 12 ff e6 bd c5 82 45 3d
       -0.013988492 0.087528735 -0.112791196 0.048220415
0001d0 db f8 d7 bd 56 fc a2 bd 01 c7 02 3c fc 1f 03 bd
       -0.10545512 -0.079582855 0.007982017 -0.032012925
0001e0 cb 9c dd 3c 46 2e a5 bd 0b b0 82 bd 5c d1 08 bd
       0.027052304 -0.080654666 -0.06381234 -0.033402786
0001f0 0b 35 e2 bd 4d 85 ff 3d 78 81 f9 3d d1 b6 be bd
       -0.110452734 0.12476597 0.12182897 -0.09312213
000200 63 c4 71 3d 6e 26 d2 bd 65 9b bf bd a6 82 bb 3d
       0.05902518 -0.10261236 -0.09355811 0.091557786
000210 de 40 cd bd 0b ac fe bd 35 a6 c2 bd 02 ef a0 3d
       -0.10022138 -0.12435158 -0.09504358 0.07858087
000220 16 04 98 3c 17 ca 39 3d 21 2f 57 bd ca a2 a0 bd
       0.018556636 0.045358744 -0.05253518 -0.078435495
000230 0a 03 9c 3d 26 39 7f bd b4 92 96 bb ab bc ca 3b
       0.07617767 -0.06231036 -0.004595125 0.0061870418
000240 a5 cb fc bd d1 06 81 bd 45 90 06 bd 40 2c ba bd
       -0.123435296 -0.06300128 -0.03285243 -0.09090471
000250 38 df 3e 3d 6d cd 98 3d fb 0a 43 3d 88 66 59 bd
       0.046599597 0.07461057 0.047617894 -0.053076297
000260 54 00 ad bd 6e c5 bc bd b0 8c b8 bc aa 04 3f bd
       -0.08447328 -0.09217344 -0.022528023 -0.046635307
000270 df 68 ee bd 0e d6 ec bd 1f 02 99 3c ec ed 4e 3d
       -0.11641096 -0.11564265 0.01867777 0.05051987
000280 b6 35 59 bd 15 c1 ef 3d 61 20 af bd cc 24 70 bc
       -0.05302974 0.11706749 -0.08551098 -0.014657211
000290 49 bf 42 3d 1c bc 39 3d 33 eb f6 3d 2f 96 d3 bd
       0.047545705 0.04534541 0.120565794 -0.103313796
0002a0 1b 75 c9 bd d0 bc 68 3d f2 2b e6 bc c7 79 83 bd
       -0.09836789 0.05682069 -0.028097127 -0.064197116
0002b0 72 30 ed bc 71 90 70 3d 53 ae 61 3c 14 31 f6 bd
       -0.028953765 0.0587315 0.013774472 -0.1202108
0002c0 8d 1b 3d 3d 42 e0 57 3c 24 98 1a bd c5 f2 83 3d
       0.046168853 0.013176026 -0.03774275 0.06442789
0002d0 d5 a5 3e 3d a9 73 0e 3d d6 be 1d bd 49 17 79 3c
       0.04654487 0.03477827 -0.038512073 0.0152033055
0002e0 e9 af ba bd ae 0e dc 3c a5 b1 32 b7 ea 10 e4 3d
       -0.091155834 0.026862469 -1.0650988e-05 0.111360386
0002f0 bb e7 95 3d 4c 51 cd 3d 10 58 b0 3c 7d c5 1a 3d
       0.0731959 0.10025272 0.021526366 0.037785996
000300 1c 9c aa bc ec 12 80 bd 69 a6 ea bb c5 a4 eb bc
       -0.020826392 -0.06253609 -0.007160951 -0.028765092
000310 93 d8 56 3c fe cc 73 bd 46 35 e9 bd cd ae 52 3d
       0.013113159 -0.059521668 -0.11387114 0.051436234
000320 ec dc 7b bd 5f ef e6 bd ee 4c b6 3d d6 3b ea 3c
       -0.061489984 -0.11276125 0.08901392 0.028592985
000330 e5 75 9b 3d 46 29 18 bd 1d de 92 bd d3 77 00 bd
       0.07590846 -0.037148736 -0.07171271 -0.031364273
000340 32 3d af bd 50 79 e7 bd 77 65 c5 3c 47 2a c2 3c
       -0.08556594 -0.113024354 0.024096234 0.0237018
000350 ed 01 44 bc ff 32 b4 3d c0 53 91 3d 9c 5a 65 bd
       -0.01196335 0.08798789 0.07096052 -0.055994615
000360 48 66 ff 3d 69 4b b9 bd 77 f6 00 bc 16 91 d6 bd
       0.124706805 -0.090475865 -0.007871262 -0.10476892
000370 c9 d9 ec bd 27 6b ee 3b 38 8e d3 3d 9d 4f f0 3c
       -0.11564977 0.007275957 0.103298604 0.029334838
000380 c2 60 80 3d 73 13 b4 bd 01 21 64 bc ea 9d 37 3c
       0.06268455 -0.08792772 -0.013923884 0.011207083
000390 75 4b 89 bd 56 da a9 3d 78 fe f4 bc 73 9e 14 3d
       -0.067038454 0.082935974 -0.029906496 0.03628392
0003a0 54 0e f2 3c 80 44 e7 bd 74 05 45 3d e9 c3 d4 3d
       0.029547848 -0.11292362 0.048100904 0.103889294
0003b0 6f 6f 8b 3d 0d 5a 89 bd d3 a2 cb 3d 2c 94 87 3c
       0.06808364 -0.06706629 0.09943166 0.016550146
0003c0 a6 0e 49 3d c3 28 d6 bd 3d 32 2e bd 0f fd c1 3d
       0.049086235 -0.104569934 -0.04252838 0.09472095
0003d0 97 42 8d 3d 56 a7 d9 bd f3 19 11 3d 4d 93 9b bd
       0.06897467 -0.1062762 0.035425138 -0.07596455
0003e0 57 7c 76 bd 3a d0 a9 bd 86 35 7b 3c f8 62 c8 3d
       -0.060177173 -0.08291669 0.015332585 0.09784502
0003f0 3e 74 9b 3d 65 97 0c 3d 3d 47 bc bd 02 a7 86 3d
       0.07590531 0.03432407 -0.09193275 0.06574823

fc.0.bias f4 [64]
000000 66 95 d3 3c 5f 12 f5 bd fd 87 a3 bc 67 41 e9 3d
       0.025828075 -0.11966395 -0.019962305 0.11389428
000010 c1 6f f1 bd 06 cf ea 3d 81 d5 0a 3d 24 b3 3c 3c
       -0.117888935 0.11465268 0.03389502 0.01151732
000020 4c 96 eb bd 84 2c 76 bd 46 4a a8 bc a1 cb b6 3c
       -0.11503276 -0.060101047 -0.020543229 0.022313895
000030 2f 37 48 bd 37 7c 91 bd 86 68 48 3d 12 87 a0 bc
       -0.048880752 -0.0710377 0.048927806 -0.019595657
000040 5e fb ed bd 0e a3 91 bd f9 97 d1 3d 4f 08 bf bc
       -0.1162021 -0.07111178 0.102340646 -0.023319392
000050 2f bb 29 bd a8 cd 80 bc 44 d3 9d 3c fb a6 13 3c
       -0.041438278 -0.015723065 0.019265778 0.009011979
000060 95 03 d1 bc 59 aa de bd 40 18 a5 3d 37 6d a9 3c
       -0.025514403 -0.10872335 0.08061266 0.02068196
000070 86 08 68 bd b3 45 b4 bd cb 53 80 bd ba be d7 bd
       -0.056648754 -0.088023566 -0.06265982 -0.10534425
000080 60 61 52 bd 68 c6 f4 bd 48 3b 6b bd c8 a1 9d bd
       -0.051362395 -0.119519055 -0.057429582 -0.07696873
000090 ee 03 4f 3d 3e 8a 2a 3d c0 fc 2b bd e3 44 a4 3c
       0.050540857 0.041635744 -0.041989088 0.020052379
0000a0 f1 52 9d bc 5a d3 b8 bc 2b 27 df 3d 90 27 91 3d
       -0.019204589 -0.022561718 0.108961426 0.07087624
0000b0 8d 0d ac 3d 30 ea c0 3d 6b fd f3 b9 a1 92 80 3d
       0.08401022 0.09419668 -0.00046537383 0.06277967
0000c0 d2 d2 0f bd 5f d5 a9 3c 3b 25 9b bd e1 d6 ff 3d
       -0.035113163 0.020731626 -0.075754605 0.12492157
0000d0 cf ed 0d 3c 1f b0 dd 3d a3 5f f3 3c d1 52 eb 3d
       0.008662655 0.10824608 0.02970869 0.11490405
0000e0 60 a9 db 3d 1b 09 e4 3d 40 f1 8a bc 42 89 11 3d
       0.10725665 0.11134549 -0.01696074 0.03553129
0000f0 c2 ec 06 bd b7 a3 ce 3d 61 8b 14 bd 71 ae 88 3d
       -0.032940634 0.1008982 -0.036265735 0.06673897

output_layer.0.weight f4 [1, 64]
000000 1e 2a c3 3d 42 70 fd bc ed cb a8 3d 6f 90 40 bd
       0.095295176 -0.030937318 0.08242021 -0.047012743
000010 e1 fd e0 bd d6 fb 88 3d 59 b3 af 3c af e8 a4 bd
       -0.109859236 0.06688659 0.021447824 -0.080521934
000020 48 91 c4 3b bd 45 da 3d ea 26 e9 bb 34 eb 66 3d
       0.005998764 0.10657833 -0.0071152346 0.05637665
000030 37 05 b5 3d 62 49 f3 3c 64 0d 7f bc 1e 44 f8 3d
       0.08838885 0.029698078 -0.015567157 0.12122367
000040 71 5f df bb 7a e1 ab bd 1a af ad bd 46 a9 9e bd
       -0.0068167974 -0.083926156 -0.084806636 -0.0774713
000050 09 3e 83 3b 7a d0 ed 3d a8 b2 a0 bd d5 0e a5 3d
       0.004005198 0.116120294 -0.07846576 0.080594696
000060 ea 5b ad 3d dc e5 bc 3d cc 62 12 3d 2a 20 f4 3b
       0.08464797 0.0922353 0.03573875 0.0074501233
000070 b9 3c 3a 3b ec b5 cf bd 93 3b 96 bd 1c bf 63 3d
       0.0028417541 -0.10142121 -0.07335582 0.055602178
000080 1a bc 9b 3d cc ec 08 bd 6c c9 48 3c f2 85 be 39
       0.07604237 -0.033428952 0.012255054 0.0003633942
000090 f3 90 d7 bc b3 e0 81 bd 0d 2f e4 3c 92 bb 8f bd
       -0.026314234 -0.06341686 0.027854467 -0.07018198
0000a0 b6 1f d8 3d 7c b0 63 bd ba 19 80 3d 8b f5 02 bd
       0.105529234 -0.05558823 0.06254907 -0.03197245
0000b0 9e 8a cc 3c d3 c9 c9 ba f1 0f bb bd be 7b 81 3c
       0.024968442 -0.0015395231 -0.091339 0.015806075
0000c0 77 39 af bd 74 47 d8 bd e7 1e 2b 3c c5 49 ca 3c
       -0.085558824 -0.105605036 0.010444379 0.02469338
0000d0 2c 97 63 3b e1 a4 39 bd 09 f3 c1 bc c5 8f c4 bd
       0.0034727557 -0.045323256 -0.023675459 -0.09597734
0000e0 11 46 00 bd cd cc 84 bc 28 e4 06 3d 6f 21 c3 bd
       -0.03131682 -0.016210938 0.03293243 -0.09527861
0000f0 8e 1b 39 3d d0 3d 89 bd 6e fc 4d 3d 21 8a bc 3d
       0.045192294 -0.06701243 0.050289564 0.092060335
