Mask-test/model_epoch_0_180.pth (torch, 154675 bytes, 7 tensors)

embedding.0.weight f4 [64, 7]
00000000: 190a d1bd 1631 83be aae7 2a3e 081f 883e
00000010: 0573 8e3e ed33 bb3e a83e 13bb b73a b53d
00000020: 2b1f 853e 9b87 a4be d5d4 f63d 1b44 3ebe
00000030: 4331 73bb ed33 633c 202d 9e3e 3857 f23d
00000040: 01ce f6bd 4dfe 8c3e 458c b2be a6e0 863e
00000050: 27e7 963e 709c 70bd ad7e ed3d 0841 b13e
00000060: 82fc a4be 01ce 8cbe f90c 613e 0174 1a3e
00000070: 5327 10be b505 c03d 3d7b efbd d96f c03e
00000080: 92dd 923e c897 adbe 9d72 b23e e9f3 3c3d
00000090: 8d67 87be af4b 37bd c7f3 c93d 9607 8abe
000000a0: 9d5d 68be b3c7 aa37 1221 493e 1df9 5d3e
000000b0: a0b3 a83e f575 b93e 6e9f afbe 8386 943d
000000c0: 4994 b6bd 722d d9bd 1833 c1bb 4854 843d
000000d0: c3e5 54bd 26cb 98be 12a2 de3c 33b7 583e
000000e0: b2da 80be 0ed7 adbe d6c5 92be 7edc 1d3e
000000f0: 92e6 3d3e edaa afbe 00a2 a1bd 0592 77be
00000100: dd0f 813e e7c1 ff3c 7601 b9bc f9df 6d3d
00000110: 8aec 053e 8572 493e f0c5 7bbe ca5a 31bd
00000120: 2321 593e 7434 9a3e 80bc ccbc 48db 9d3e
00000130: ee86 293e 1657 ea3c 075e 2ebe ef00 82be
00000140: 9135 a3be b64c 9d3b afd1 1abe 650e a93d
00000150: f504 98be 4719 72be fffa bc3e f4b3 a83e
00000160: 3aae 3bbd 870f 2fbd 84d5 9b3e ee3e 3bbe
00000170: 95bb 6fbe 134c 2fbe 0438 443e 255c 8abe
00000180: b51e 55be e11f 5f3e b9ae 123e b996 85be
00000190: 327d 7abe ada2 81be 6778 8abe 55b9 693e
000001a0: 23b9 a13e b90a 0f3e f17b 383d 233d 4c3e
000001b0: 89b6 63be 14c6 443e 5ddd 843e db65 19be
000001c0: 06ce 333c b0fa 663e 10c0 3abe 3208 8e3e
000001d0: c97e 80be cb8a 89be cf87 c0be 8fe6 ba3e
000001e0: b82c 8bbe 865e 42be 565a 98be 4d56 a33e
000001f0: f24a f63c 7496 8a3e 37f5 943b 31f4 62be
00000200: 701d a5be 0455 b3be dead 88be 17a0 103e
00000210: e601 973d 1f81 b13e fb48 59bd 9a18 a6be
00000220: 9234 06be d3fc 51be 2abc a9bd 252f 5f3d
00000230: 48d7 91be f1fa b33e 829a 643e 50c2 2e3e
00000240: 1bc7 40be 254d 923e 5e16 d6bd 1586 d23d
00000250: 2f41 80bd 0843 fabc 3b37 a1be 8334 383e
00000260: a213 973e 0e74 6b3e 2917 93bd a76f 2dbe
00000270: 6b87 4b3e 542b 873e 1ae8 993e 2e82 c1be
00000280: 22bb bbbd eb83 aabd 8a39 c33d 2788 aa3d
00000290: 131c f73d d38c 2e3e ebe1 6d3d 4307 b1be
000002a0: 2b1a 5e3e 4b71 c03e 7d05 89be 6fd6 b23e
000002b0: 6796 b63e 8352 893e 98b6 bc3d ad5c 6cbe
000002c0: 3482 16be 4959 9b3e fe51 a53d c8b6 53bd
000002d0: c69d b1be 7128 b6be 5d07 3dbc 6e4c 9f3e
000002e0: 1938 a73d 79ba aa3d cf47 f7bd 8b5f 813e
000002f0: 1d65 b33e 0bfc d0bd 5115 99be 0852 d03d
00000300: 4e65 2cbe 99d8 bebe de59 023d 80a9 03bd
00000310: 200b 953e 693f 0f3e 73ba 99be 450d 9a3e
00000320: af3e 523e 576a 8d3d 4097 a4bd a8c5 383d
00000330: 13be 6c3d d562 a2bd f164 b23e edb2 b03e
00000340: b8be a5be 57ab b83d e301 833e c161 0c3e
00000350: 8e10 6a3e 135e 123d a8c2 383e bbe8 b3bd
00000360: d0f0 44bc c660 62be 1bcb 73bd 5e19 9e3e
00000370: 51e7 a43e 451f 1d3d 5e81 3ebe 5f7e 4e3e
00000380: d1b4 0e3d bb9b 8cbd aab0 43be fd64 89be
00000390: ecbb b2be 7039 95bd 485c 3cbd 6e14 87be
000003a0: f70d 9c3e 9998 2f3e 5f20 7ebd 1617 113d
000003b0: 84d5 93be 6222 9dbe 0326 7abe b381 50bd
000003c0: c104 b23e 9d57 a2be 6297 0c3d 597e dc3c
000003d0: 166d 26be b8f7 c1bd d76d f4bd 742f 863c
000003e0: ca92 813d c572 94bd db7f b53d a251 8c3e
000003f0: 3b9c ddbd 11e4 71be 65ce 1abe cdb1 333d
-0.10207004 -0.25623387 0.16689935 0.26586175 0.27822128 0.36563054 -0.0022467766 0.088490896
0.26000342 -0.3213471 0.12052313 -0.18580668 -0.003710822 0.013867361 0.30893803 0.11833042
-0.12051011 0.27537766 -0.34872642 0.26343268 0.2947323 -0.05874294 0.11596427 0.34619927
-0.32223898 -0.27500919 0.21977605 0.15083314 -0.14077501 0.093760885 -0.11693428 0.37585333
0.2868467 -0.33904862 0.34853068 0.04613105 -0.2644619 -0.044749912 0.0986095 -0.26958913
-0.2269196 2.0358571e-05 0.19641522 0.2167706 0.32949543 0.36222807 -0.34301323 0.072522186
-0.08915002 -0.10604371 -0.0058959834 0.06461388 -0.05197693 -0.2984249 0.02717689 0.21163635
-0.2516685 -0.33953136 -0.28666562 0.15416142 0.18544987 -0.34310094 -0.07892227 -0.24176796
0.25207415 0.03122039 -0.022583704 0.058074925 0.13078514 0.19672592 -0.24587226 -0.043299474
0.21204047 0.30118144 -0.024992228 0.3083136 0.16555378 0.028605979 -0.17028056 -0.25391337
-0.31876805 0.0048004044 -0.1511905 0.08254699 -0.29691282 -0.23642455 0.36910245 0.32949793
-0.045820452 -0.042739417 0.30436337 -0.18285725 -0.234114 -0.17118864 0.19161993 -0.27023426
-0.20812495 0.21789505 0.14324464 -0.26091555 -0.2446182 -0.25319424 -0.27044985 0.22824605
0.3158656 0.13968934 0.045040075 0.19945197 -0.222376 0.19216186 0.25950137 -0.14980261
0.010974413 0.22556567 -0.18237329 0.27740628 -0.2509673 -0.26863703 -0.37603614 0.36504027
-0.27182555 -0.1898137 -0.2975642 0.3190178 0.030065034 0.27067912 0.0045458334 -0.22163464
-0.32249022 -0.350258 -0.2669515 0.1412357 0.07373409 0.34668824 -0.053048115 -0.32440645
-0.13105991 -0.20506601 -0.082878426 0.05448832 -0.2848456 0.3515239 0.22324565 0.17066312
-0.18825953 0.28574482 -0.10453485 0.1027948 -0.06262433 -0.030549541 -0.3148745 0.17988782
0.29507166 0.2299349 -0.07182152 -0.16937123 0.19875877 0.26400244 0.30059892 -0.37794632
-0.09166552 -0.083259426 0.09532459 0.0832675 0.120659016 0.17045908 0.05807678 -0.34575853
0.2168967 0.37586436 -0.26762 0.34929225 0.35661623 0.26820764 0.092145145 -0.23082228
-0.14698106 0.30341557 0.080722794 -0.051687986 -0.34690684 -0.3557773 -0.0115374 0.31113
0.08164997 0.08336348 -0.12074243 0.25268206 0.3503808 -0.102043234 -0.29899076 0.10171896
-0.1683552 -0.37274626 0.031823985 -0.03214407 0.2911005 0.13989033 -0.30025062 0.3008825
0.20531724 0.06905048 -0.08036661 0.045110375 0.057798456 -0.07929007 0.34842637 0.3451151
-0.3237207 0.090170555 0.25587377 0.13709165 0.22857878 0.035734247 0.18043005 -0.08784624
-0.012020305 -0.22107229 -0.05951987 0.3087873 0.3220773 0.0383599 -0.18604037 0.20165394
0.03484041 -0.06865641 -0.1911036 -0.2683486 -0.34908998 -0.07286346 -0.045986444 -0.26382774
0.30479404 0.17148055 -0.06204259 0.035422407 -0.28873837 -0.30690295 -0.24428563 -0.05090494
0.34769252 -0.3170747 0.034324057 0.026915716 -0.1625255 -0.09471077 -0.11935013 0.01638005
0.06326826 -0.07248453 0.08862277 0.2740603 -0.10820814 -0.23622157 -0.15117796 0.043870736

embedding.0.bias f4 [64]
00000000: 399a 98bc 7e05 f7bd fc1b 0ebe e7b1 a6be
00000010: 29e0 963c 8c3d 9fbe 5743 77bd 96cc 173d
00000020: e5a6 a63e 53c2 00bc bcd3 1a3e 22b5 babe
00000030: db30 c8bd 2db9 7ebd d65b 5e3e 1ea6 c13e
00000040: 482a 603e 11f5 97be efef 1abe 8d93 bd3d
00000050: 6472 733e 67fc d43d 2671 a3bd 0770 25be
00000060: 725b d4bb 7a76 f23d da22 35be 9a14 7cbe
00000070: 0e30 b23e fc3f 8bbe f09d b73d 1dbe 333e
00000080: 0c87 073e cf66 b6be 0632 70be 10ac 693e
00000090: e980 7e3e ab9a b3bc 5d98 1ebe 915e a7be
000000a0: 76ec 0cbc 9de7 7abe d840 04be 6754 87be
000000b0: b67b 3abe d526 9bbd df15 5b3d 7193 80be
000000c0: 2133 e4bd f0d2 bdbe c3b0 97be 373d e03d
000000d0: 63a5 abbe 7e2f 23be 5c0c 83bd 0a4e aa3d
000000e0: f66c 993e 4ea0 893e eee3 9cbe 7372 9f3e
000000f0: a65c bb3e 69eb 37be a74c 123d 2032 8e3e
-0.018628227 -0.120615944 -0.13877863 -0.32557604 0.018417435 -0.31101644 -0.060366955 0.037060343
0.32549205 -0.0078588305 0.15119833 -0.36466318 -0.097749434 -0.062188316 0.2171472 0.3782205
0.21891129 -0.29679158 -0.1513059 0.09256659 0.23774105 0.103997044 -0.07980566 -0.16156016
-0.0064806277 0.11839004 -0.17689076 -0.24617234 0.34802288 -0.27197254 0.08965671 0.17552991
0.1323511 -0.35625312 -0.23456582 0.22819543 0.24853863 -0.021924337 -0.1548781 -0.32689336
-0.008601299 -0.24502416 -0.12915361 -0.2643158 -0.18211254 -0.07575766 0.053487655 -0.2511249
-0.111425646 -0.37074995 -0.29627046 0.10949176 -0.33524618 -0.15936086 -0.06398842 0.08315666
0.29965943 0.26880115 -0.30642647 0.31142005 0.36594123 -0.17960896 0.035717633 0.27772617

layernorm.weight f4 [259, 64]
00000000: 0100 803f feff 7f3f 8a0e 803f 23fc 7f3f
00000010: 2ed2 7f3f 0000 803f 0000 803f 4fee 7f3f
00000020: 0000 803f 0d09 803f 45fc 7f3f 0000 803f
00000030: 2f11 803f b503 803f 5dfd 7f3f 0000 803f
00000040: 0000 803f 63e9 7f3f 1900 803f fdff 7f3f
00000050: 0000 803f 9b0a 803f 0000 803f 0000 803f
00000060: 0207 803f 0200 803f 5b09 803f 0000 803f
00000070: 0000 803f b1ed 7f3f 0000 803f 7505 803f
00000080: 0000 803f 0000 803f 0000 803f 0000 803f
00000090: 0000 803f 0000 803f 0000 803f f1f3 7f3f
000000a0: c201 803f 0000 803f 8f09 803f 0100 803f
000000b0: 0000 803f 0000 803f 3de0 7f3f 0000 803f
000000c0: 14ef 7f3f 28fb 7f3f 0000 803f a900 803f
000000d0: 0200 803f 0000 803f 0000 803f e5f3 7f3f
000000e0: 2ffb 7f3f 0000 803f af00 803f 0000 803f
000000f0: 5400 803f 0000 803f 0000 803f 3f07 803f
00000100: cfff 7f3f 0000 803f d407 803f 5bff 7f3f
00000110: e8e4 7f3f 0000 803f 0000 803f b9f8 7f3f
00000120: 0000 803f b604 803f b5fe 7f3f 0000 803f
00000130: a809 803f 0100 803f 0500 803f e6ff 7f3f
00000140: 0000 803f 0300 803f f0ff 7f3f 0000 803f
00000150: 0000 803f 4402 803f 0000 803f 0000 803f
00000160: 5004 803f f3ff 7f3f 0803 803f 0000 803f
00000170: 0000 803f 8bf3 7f3f 0000 803f 5b01 803f
00000180: 0000 803f 0000 803f 0000 803f 0000 803f
00000190: 0000 803f 0000 803f 0000 803f 24fc 7f3f
000001a0: 4801 803f 0000 803f bc03 803f dcff 7f3f
000001b0: 0000 803f 0000 803f e5ee 7f3f 0000 803f
000001c0: 9cf8 7f3f 0200 803f 0000 803f 0000 803f
000001d0: e9ff 7f3f 0000 803f 0000 803f dcfe 7f3f
000001e0: 1400 803f 0000 803f 0100 803f 0000 803f
000001f0: 0200 803f ffff 7f3f 0000 803f 6c01 803f
00000200: 0000 803f fbff 7f3f 0206 803f 78fd 7f3f
00000210: f5e9 7f3f 0000 803f 0000 803f b5f8 7f3f
00000220: 0000 803f 5b02 803f dcfd 7f3f 0000 803f
00000230: e20a 803f 3302 803f 51fd 7f3f 0000 803f
00000240: 0000 803f d7f1 7f3f 0900 803f ffff 7f3f
00000250: 0000 803f c905 803f ffff 7f3f 0000 803f
00000260: e702 803f 0100 803f cd03 803f 0000 803f
00000270: 0000 803f 18f6 7f3f ffff 7f3f 6a03 803f
00000280: 0000 803f 0000 803f 0000 803f 0000 803f
00000290: 0000 803f 0000 803f 0000 803f 30f8 7f3f
000002a0: 28ff 7f3f 0000 803f 8104 803f 88ff 7f3f
000002b0: 0000 803f 0000 803f 3cf6 7f3f 0000 803f
000002c0: 12fc 7f3f 94fc 7f3f 0000 803f 3f00 803f
000002d0: 0100 803f 0000 803f 0000 803f baf9 7f3f
000002e0: 71fe 7f3f 0000 803f 6f00 803f 0000 803f
000002f0: 1a00 803f c9ff 7f3f 0000 803f 9102 803f
00000300: c4ff 7f3f feff 7f3f d304 803f aeff 7f3f
00000310: 07f0 7f3f 0000 803f 0000 803f edfa 7f3f
00000320: 0000 803f de03 803f 56ff 7f3f 0000 803f
00000330: 8305 803f 0100 803f 0200 803f fbff 7f3f
00000340: 0000 803f 0d00 803f f8ff 7f3f 0000 803f
00000350: 0000 803f 7001 803f 0000 803f 0000 803f
00000360: 8e03 803f fbff 7f3f 2a02 803f 0000 803f
00000370: 0000 803f cef8 7f3f ffff 7f3f ae00 803f
00000380: 0000 803f 0000 803f 0000 803f 0000 803f
00000390: 0000 803f 0000 803f 0000 803f 1fff 7f3f
000003a0: 4d01 803f 0000 803f 4e02 803f e7ff 7f3f
000003b0: 0000 803f 0000 803f 7cf7 7f3f 0000 803f
000003c0: 97fb 7f3f dfff 7f3f 0000 803f 0100 803f
000003d0: f6ff 7f3f 0000 803f 0000 803f 0600 803f
000003e0: 0c00 803f 0000 803f 0100 803f 0000 803f
000003f0: 0000 803f c0ff 7f3f 0000 803f eb00 803f
1.0000001 0.9999999 1.0004437 0.99994105 0.99930084 1.0 1.0 0.99973005
1.0 1.0002762 0.9999431 1.0 1.0005244 1.0001131 0.99995977 1.0
1.0 0.99965495 1.000003 0.9999998 1.0 1.0003237 1.0 1.0
1.0002139 1.0000002 1.0002855 1.0 1.0 0.99972063 1.0 1.0001665
1.0 1.0 1.0 1.0 1.0 1.0 1.0 0.999816
1.0000536 1.0 1.0002917 1.0000001 1.0 1.0 0.99951535 1.0
0.9997418 0.9999261 1.0 1.0000201 1.0000002 1.0 1.0 0.9998153
0.9999265 1.0 1.0000209 1.0 1.00001 1.0 1.0 1.0002211
0.9999971 1.0 1.0002389 0.99999017 0.9995866 1.0 1.0 0.99988896
1.0 1.0001438 0.9999803 1.0 1.0002947 1.0000001 1.0000006 0.99999845
1.0 1.0000004 0.99999905 1.0 1.0 1.0000691 1.0 1.0
1.0001316 0.9999992 1.0000925 1.0 1.0 0.9998099 1.0 1.0000414
1.0 1.0 1.0 1.0 1.0 1.0 1.0 0.9999411
1.0000391 1.0 1.000114 0.99999785 1.0 1.0 0.999739 1.0
0.9998872 1.0000002 1.0 1.0 0.9999986 1.0 1.0 0.9999826
1.0000024 1.0 1.0000001 1.0 1.0000002 0.99999994 1.0 1.0000434
1.0 0.9999997 1.0001833 0.9999614 0.99966365 1.0 1.0 0.9998887
1.0 1.0000719 0.99996734 1.0 1.0003321 1.0000671 0.99995905 1.0
1.0 0.99978393 1.0000011 0.99999994 1.0 1.0001765 0.99999994 1.0
1.0000886 1.0000001 1.000116 1.0 1.0 0.99984884 0.99999994 1.0001042
1.0 1.0 1.0 1.0 1.0 1.0 1.0 0.9998808
0.9999871 1.0 1.0001374 0.99999285 1.0 1.0 0.999851 1.0
0.99994004 0.9999478 1.0 1.0000075 1.0000001 1.0 1.0 0.9999043
0.9999762 1.0 1.0000132 1.0 1.0000031 0.9999967 1.0 1.0000783
0.9999964 0.9999999 1.0001472 0.9999951 0.9997563 1.0 1.0 0.9999226
1.0 1.000118 0.99998987 1.0 1.0001682 1.0000001 1.0000002 0.9999997
1.0 1.0000015 0.9999995 1.0 1.0 1.0000439 1.0 1.0
1.0001085 0.9999997 1.000066 1.0 1.0 0.9998902 0.99999994 1.0000207
1.0 1.0 1.0 1.0 1.0 1.0 1.0 0.9999866
1.0000397 1.0 1.0000703 0.9999985 1.0 1.0 0.99987006 1.0
0.9999327 0.99999803 1.0 1.0000001 0.9999994 1.0 1.0 1.0000007
1.0000014 1.0 1.0000001 1.0 1.0 0.9999962 1.0 1.000028

layernorm.bias f4 [259, 64]
00000000: e63c a836 371b 4db6 85db 1a37 fe8e 02b6
00000010: 1c71 30b7 33f3 ff36 0cab 1336 9393 00b7
00000020: f49e d5b6 5975 ce36 9f93 6936 b7e6 fd36
00000030: a534 2e37 332b 1037 850a 9736 72a7 2a37
00000040: 117c 02b5 1350 19b7 63b9 cdb6 8f10 35b7
00000050: 84d3 9bb6 7cf2 5237 49b2 4cb7 e15b 8636
00000060: df9c 9b36 bed6 0837 7f0e 0237 3608 6cb6
00000070: 484a 78b5 adfa 6eb7 ddd2 06b7 e57d cd35
00000080: 2edd 3537 e43a 50b7 222b 93b6 1655 09b6
00000090: 4a60 a1b6 5d25 b9b6 1da9 beb5 9bf3 6d35
000000a0: 81cd 8b36 e043 97b6 63c8 2537 d53a 8f36
000000b0: 4d9d 8335 b0a8 8436 9b96 51b6 07ea 0c35
000000c0: a320 07b7 4788 4bb6 2b11 0437 e970 c736
000000d0: 63cc 6035 63c1 eab5 fc65 dab6 6fae e3b6
000000e0: 9664 a336 3e85 ee35 f7b8 3136 c6f0 22b7
000000f0: b555 3736 fcb2 90b5 6731 35b6 d0d9 2437
00000100: 7108 bd36 aa94 4fb6 ae65 1237 d50a afb6
00000110: 5d98 64b7 ade6 1537 fcf8 30b5 9d5d 0ab7
00000120: ae46 85b6 25e8 0437 f3e9 3b36 e582 cc35
00000130: a1b1 0837 f981 1d37 20c7 e235 0a08 2337
00000140: 1eec 89b5 b109 08b7 e154 9fb6 f765 1eb7
00000150: 0403 07b7 a554 3637 91c0 12b7 f05d 0137
00000160: 99e0 8736 4fe7 2937 a114 eb36 df5f 5ab5
00000170: 1f61 25b6 6d46 88b7 0adf 15b7 24dc ec35
00000180: 2c5d 6b37 85c9 22b7 56be 35b6 2e5d bc35
00000190: c15f 8fb6 cb3e ebb5 49e7 1d31 115a 48b6
000001a0: 4be1 e736 d367 61b6 1480 1037 f776 5a36
000001b0: 9512 22b6 9a4a c936 20af 92b6 fe98 3b36
000001c0: 43e4 08b7 78dd bdb6 5e70 fc36 eca6 b536
000001d0: 668e b435 07a4 86b6 8428 06b7 7746 2db7
000001e0: b34f 3f36 2122 4e36 e10c da36 e5b5 3db7
000001f0: 06fa 1db4 311f 6fb6 16a2 79b5 e183 2737
00000200: 4ad0 5736 5ced 75b6 f1a3 0a37 da90 2cb6
00000210: 3e11 3bb7 0869 0a37 b7bd 1d36 15b5 0fb7
00000220: 66dd 9fb6 c4ef bd36 9f28 b835 b594 dd36
00000230: c50d 3537 ec97 0937 2787 5e36 ba95 2037
00000240: 5666 9935 1293 32b7 7696 f4b6 b863 29b7
00000250: 367e 9fb6 e1ba 4e37 97a9 54b7 2384 9b36
00000260: 8aae 9536 0276 2337 4020 b236 8791 94b6
00000270: 6f09 49b5 02ed 61b7 476f 17b7 4ce0 9a36
00000280: eab5 2237 d4ae 24b7 bf12 72b5 a1e5 9134
00000290: 2fd7 c8b6 cc96 d0b6 8e35 ceb4 4bfa 97b4
000002a0: c798 a436 9454 91b6 bd97 0537 7ea3 a136
000002b0: 0ec5 e034 7f51 b136 9df4 aab6 afe0 f5b4
000002c0: 83d7 0cb7 8503 33b6 9cf0 e936 3372 9f36
000002d0: 95ed 7436 75cd 16b6 fd10 93b6 7406 04b7
000002e0: 39d9 a236 7569 e635 68f1 8736 b387 0ab7
000002f0: eb35 f135 4a85 2eb6 e0b6 91b4 f28f 3037
00000300: 114e d136 1d20 59b6 e3b4 2b37 b3b0 cdb6
00000310: a77a 83b7 d211 2537 fba7 2d36 2902 c3b6
00000320: 2273 85b6 6fda cd36 4cde 66b4 9d4a 6835
00000330: 6d99 2e37 dfc7 f436 19c1 0db6 ce5b bd36
00000340: b26a 0936 8758 0ab7 e706 f5b6 b224 d9b6
00000350: 7ea5 83b6 1f05 3b37 3ed1 d5b6 3c39 fc36
00000360: 3382 5a36 2893 4337 1a9c ce36 a7de dfb3
00000370: ff99 09b6 6c03 68b7 68c7 42b7 78ee 5336
00000380: b9f0 2737 54b4 05b7 885d 71b6 dee0 8b36
00000390: a877 67b6 2fdf 37b6 7bff e235 870e 56b6
000003a0: 1b7b bd36 230b 2fb6 a2f8 9136 bc9f a1b5
000003b0: 12cf d8b5 36eb e236 c904 b0b6 13bd 0736
000003c0: 53ca a7b6 3c47 cbb6 5111 0337 7856 6736
000003d0: b806 3233 ddbe 93b6 dff7 bab6 dfa7 50b7
000003e0: 7ed0 2836 058a 3b36 fe08 4936 8e39 10b7
000003f0: 4cec 4036 fc28 88b6 66d4 3435 dbc3 3837
5.0138797e-06 -3.0563222e-06 9.230226e-06 -1.9454742e-06 -1.0516753e-05 7.6279043e-06 2.200427e-06 -7.663754e-06
-6.3663992e-06 6.1529395e-06 3.4805632e-06 7.5668463e-06 1.0383465e-05 8.593127e-06 4.5013753e-06 1.0171776e-05
-4.8609314e-07 -9.138154e-06 -6.131058e-06 -1.0792296e-05 -4.6439836e-06 1.2573433e-05 -1.2200858e-05 4.0042073e-06
4.637622e-06 8.15623e-06 7.751979e-06 -3.517152e-06 -9.2495293e-07 -1.42442705e-05 -8.036118e-06 1.531033e-06
1.0839938e-05 -1.2411478e-05 -4.3859627e-06 -2.0464117e-06 -4.8093834e-06 -5.5177793e-06 -1.4205322e-06 8.864387e-07
4.1664466e-06 -4.5080524e-06 9.881423e-06 4.268581e-06 9.806041e-07 3.9535444e-06 -3.123109e-06 5.249462e-07
-8.054226e-06 -3.032868e-06 7.87181e-06 5.9438066e-06 8.3743925e-07 -1.7490642e-06 -6.508779e-06 -6.785434e-06
4.8694883e-06 1.777116e-06 2.648272e-06 -9.712012e-06 2.7319013e-06 -1.0780927e-06 -2.6999858e-06 9.825875e-06
5.6336216e-06 -3.0931938e-06 8.725952e-06 -5.2166674e-06 -1.3625334e-05 8.9348005e-06 -6.592743e-07 -8.247237e-06
-3.971937e-06 7.9218635e-06 2.8001348e-06 1.523728e-06 8.147589e-06 9.388191e-06 1.6896265e-06 9.717429e-06
-1.0276015e-06 -8.108488e-06 -4.7484505e-06 -9.441274e-06 -8.047329e-06 1.0867753e-05 -8.7471135e-06 7.710871e-06
4.04946e-06 1.0127041e-05 7.0059473e-06 -8.135084e-07 -2.4643448e-06 -1.6245258e-05 -8.933022e-06 1.764744e-06
1.4028785e-05 -9.702872e-06 -2.7081892e-06 1.403421e-06 -4.2728793e-06 -1.752714e-06 2.2977977e-09 -2.9854748e-06
6.910564e-06 -3.3588046e-06 8.612889e-06 3.2553778e-06 -2.4150697e-06 5.9989516e-06 -4.3715263e-06 2.7954225e-06
-8.159378e-06 -5.6584213e-06 7.5232665e-06 5.4136526e-06 1.3452488e-06 -4.0126065e-06 -7.996456e-06 -1.032801e-05
2.850761e-06 3.0716258e-06 6.4984056e-06 -1.13076285e-05 -1.4712722e-07 -3.563193e-06 -9.2995595e-07 9.984681e-06
3.2158737e-06 -3.6646006e-06 8.263612e-06 -2.5714312e-06 -1.1150083e-05 8.2498955e-06 2.3505252e-06 -8.565626e-06
-4.7643434e-06 5.6605513e-06 1.3720891e-06 6.603625e-06 1.0791647e-05 8.201208e-06 3.3159247e-06 9.571604e-06
1.1429172e-06 -1.0643869e-05 -7.2892826e-06 -1.0096403e-05 -4.753262e-06 1.2322068e-05 -1.267567e-05 4.6347427e-06
4.460865e-06 9.743033e-06 5.308568e-06 -4.4276853e-06 -7.489206e-07 -1.3466228e-05 -9.02621e-06 4.6156692e-06
9.698308e-06 -9.815867e-06 -9.0179304e-07 2.7175432e-07 -5.985515e-06 -6.216438e-06 -3.8409456e-07 -2.8308054e-07
4.9053665e-06 -4.331183e-06 7.962747e-06 4.817207e-06 4.1866627e-07 5.2844985e-06 -5.0948715e-06 -4.5798285e-07
-8.394828e-06 -2.6675127e-06 6.9719517e-06 4.751864e-06 3.6497124e-06 -2.2471334e-06 -4.382919e-06 -7.869316e-06
4.8532643e-06 1.7167027e-06 4.051417e-06 -8.257036e-06 1.7971591e-06 -2.6005605e-06 -2.7141414e-07 1.0523932e-05
6.2377735e-06 -3.2354212e-06 1.023451e-05 -6.1300466e-06 -1.5673531e-05 9.8389155e-06 2.5876786e-06 -5.8117043e-06
-3.977112e-06 6.134905e-06 -2.150129e-07 8.653531e-07 1.040693e-05 7.2950347e-06 -2.1123035e-06 5.6433264e-06
2.0476696e-06 -8.246053e-06 -7.3023725e-06 -6.471376e-06 -3.92337e-06 1.1147261e-05 -6.3722537e-06 7.516848e-06
3.2560317e-06 1.1657168e-05 6.157451e-06 -1.0424747e-07 -2.0504228e-06 -1.3829074e-05 -1.1609729e-05 3.1580257e-06
1.0010023e-05 -7.969404e-06 -3.596624e-06 4.168701e-06 -3.4491331e-06 -2.7399035e-06 1.6912667e-06 -3.189694e-06
5.6469703e-06 -2.6083515e-06 4.3502814e-06 -1.2041924e-06 -1.615352e-06 6.762707e-06 -5.245766e-06 2.0226623e-06
-5.0005415e-06 -6.058164e-06 7.81224e-06 3.4472014e-06 4.1449965e-08 -4.403161e-06 -5.572088e-06 -1.2436852e-05
2.515531e-06 2.794551e-06 2.9956568e-06 -8.596469e-06 2.8747772e-06 -4.057887e-06 6.7364306e-07 1.1012856e-05

fc.0.weight f4 [64, 64]
00000000: 405a 8b3d 215d ed3a 6c1e bc3d 2870 77bd
00000010: c95e 83bd deb4 bd3d 37cd b8bb 139e 8f3c
00000020: 062c 58bd 7285 893d 0b86 2d3d fa5e d8bd
00000030: 0be0 a0bd 0ae8 1e3d 050d b93c 0e0b 3dbd
00000040: 7a46 bfbd 03d5 a6ba 67a9 d43d e805 403d
00000050: 6df5 f5bd 312b d9bc 0785 1b3d 34f3 ba3d
00000060: 1840 b9bd 3f53 b9bc 0a3c 203d 41bb c33d
00000070: d4e6 51bd c289 a4bc fa26 9ebd 7a2f c2bd
00000080: b359 d23d 4684 5cbd 04cc ccbd aace a63d
00000090: 7d1b 083d 2ff5 e63d 80c5 923d 178a 07bd
000000a0: e300 813d 3363 51bd 5a33 81bc ef91 83bd
000000b0: c53f f1bd cf7f 3d3d 7161 b93d 41fa a53d
000000c0: 2768 a7bc 7df0 e6bd 3e32 a03d 0118 9d3d
000000d0: f80a ce3c 4d7f cabd c9ca febd 9966 0abd
000000e0: 2e7b a6bd 3c17 ba3d 7deb 8b3d 32ed a3bd
000000f0: 9e2c f1bd b379 b73c 51a7 afbd cbcf 123d
00000100: 52ce 913c 73ca 83bd ec31 e2bd 3ee0 513c
00000110: f96f babd 23ce 9dbb 798c e43a 952c ecbc
00000120: c2c5 c83d 06d8 423d 2582 e43d 8f2f 22bd
00000130: d479 f43d 18bc a83d 2659 a1bd 7d15 3a3b
00000140: 839a 21bc 2d1f a1bd 0056 c7bd 3874 e03d
00000150: ad1d 2c3c 3652 bbbd 0e24 f03d c671 82bd
00000160: f887 f0bd d322 473c 5a02 35bd 6d90 cdbd
00000170: 74cc 843c 04a5 413d bb17 cc3c b0e7 aa3a
00000180: 3e26 403c 8e4c 5fbd 2cdc f33c 8c28 4a3d
00000190: 1ef5 373d e2a6 d4bc 9b0f 0dbc 2fd4 0abd
000001a0: 359b 643d c008 80bc 3cc6 b9bd ead4 fe3b
000001b0: af76 5cbd 051a 09bd 33c3 79bd 45c4 2f3d
000001c0: b624 66bc 4a23 b33d 7e15 e7bd 9664 453d
000001d0: e40d d8bd 501b a3bd bae5 013c 4a4a 03bd
000001e0: 4965 dd3c 433d a5bd a9ce 82bd aaf1 08bd
000001f0: 343c e2bd 926a ff3d d164 f93d d3c8 bebd
00000200: facf 713d 891f d2bd bd94 bfbd b188 bb3d
00000210: 7e3c cdbd 3fa6 febd fc9e c2bd 6bf0 a03d
00000220: b68e 973c c2d7 393d 4543 57bd 019d a0bd
00000230: e108 9c3d 812d 7fbd 9ead 97bb 548c c83b
00000240: f4db fcbd 0c01 81bd 9f84 06bd cb30 babd
00000250: 37bb 3e3d e0c7 983d 9a16 433d 525a 59bd
00000260: 80f8 acbd d7cc bcbd f16e b8bc 0cf9 3ebd
00000270: e187 eebd a0cf ecbd a9f5 983c 76d4 4e3d
00000280: cc46 59bd 01c8 ef3d 9b1a afbd 52bb 70bc
00000290: 6595 423d c9c7 393d faf0 f63d 6590 d3bd
000002a0: d16d c9bd 75c8 683d 3913 e6bc 2473 83bd
000002b0: 4919 edbc 069d 703d 6bbb 613c 4e2b f6bd
000002c0: 8128 3d3d 8d0e 583c 0a8a 1abd 5fed 833d
000002d0: 64b1 3e3d 577f 0e3d b0b2 1dbd 62fe 783c
000002e0: 87ca babd b9b1 db3c e824 3f35 47f5 e33d
000002f0: 5ec6 953d 4a58 cd3d 0860 b03c 3c96 1a3d
00000300: 9236 abbc 7a2e 80bd 38ac eabb 2d7a ecbc
00000310: 3435 573c a9ea 73bd f53a e9bd 10dc 523d
00000320: 49e0 7bbd c00f e7bd b06c b63d 5931 ea3c
00000330: 0250 9b3d 3031 18bd b6a4 92bd de4c 00bd
00000340: f804 afbd f251 e7bd f95a c53c e14b c23c
00000350: 88ea 43bc ff4d b43d a81e 913d 0015 65bd
00000360: 6e4e ff3d 8550 b9bd 3e0d 02bc 0694 d6bd
00000370: 3abd ecbd 2bf8 ee3b f784 d33d 57dc f03c
00000380: d465 803d 3616 b4bd 6736 64bc 6f73 383c
00000390: 113f 89bd fbf7 a93d f608 f5bc 913d 143d
000003a0: 8ce4 f13c 7347 e7bd ae03 453d 7ab4 d43d
000003b0: 4f6c 8b3d d141 89bd 749d cb3d cf89 873c
000003c0: 5fb6 483d d715 d6bd 7f7c 2ebd 1508 c23d
000003d0: 4434 8d3d a7be d9bd 7552 113d 4dad 9bbd
000003e0: 6c56 76bd 2ed5 a9bd e3d1 7a3c dc76 c83d
000003f0: e189 9b3d 15ad 0c3d 8530 bcbd 146c 863d
0.06804323 0.001810942 0.0918549 -0.060409695 -0.06414563 0.09263013 -0.005639698 0.01753143
-0.05277636 0.06714906 0.04236416 -0.1056499 -0.07855233 0.03879551 0.022589216 -0.04615312
-0.09339614 -0.0012728277 0.103838734 0.046880633 -0.12009702 -0.026509853 0.03796866 0.091284186
-0.09045428 -0.022622703 0.039119758 0.095572 -0.051245525 -0.02008522 -0.07722278 -0.09481712
0.10271015 -0.053837083 -0.099998504 0.08144887 0.03322934 0.11277234 0.071665764 -0.033090677
0.06298997 -0.051119994 -0.015771557 -0.06424319 -0.11779741 0.046264466 0.090517886 0.08104373
-0.020435406 -0.11276338 0.07822083 0.07670594 0.025151715 -0.09887562 -0.12441022 -0.03378925
-0.081289634 0.09086463 0.06832025 -0.08004226 -0.11776088 0.022396898 -0.08576835 0.035842698
0.017798577 -0.064350985 -0.11044678 0.012809811 -0.09103388 -0.004815833 0.0017436884 -0.028829852
0.09803344 0.047569297 0.111576356 -0.039596137 0.11937299 0.08239001 -0.07878332 0.0028394156
-0.009863499 -0.078672744 -0.097332 0.10959667 0.010505122 -0.0914654 0.11725627 -0.06369357
-0.11744684 0.012154299 -0.044191696 -0.10037313 0.016210772 0.04727651 0.02491366 0.0013039019
0.011727868 -0.054516368 0.029768072 0.049355075 0.044911496 -0.025958482 -0.008609678 -0.03389376
0.05581208 -0.015629172 -0.09071013 0.007776846 -0.053824123 -0.03347208 -0.060977172 0.042911787
-0.0140468385 0.08746965 -0.11283396 0.04819163 -0.105495244 -0.07964194 0.007928306 -0.03205327
0.027025836 -0.08068325 -0.063870735 -0.033433594 -0.11046639 0.124714985 0.12177432 -0.09315648
0.059036233 -0.10259921 -0.093545415 0.09156931 -0.100213036 -0.12434053 -0.0950298 0.07858356
0.018500667 0.04537178 -0.052554388 -0.07842446 0.07618881 -0.062299255 -0.004628851 0.006120244
-0.1234664 -0.06299028 -0.03284132 -0.09091338 0.04656526 0.07459998 0.047628976 -0.05306465
-0.08445835 -0.092187576 -0.022513838 -0.04662423 -0.116470106 -0.11563039 0.018671827 0.050495587
-0.053046033 0.117080696 -0.085499965 -0.014693098 0.047505755 0.045356546 0.120576814 -0.103302754
-0.09835399 0.056831796 -0.028085338 -0.06418446 -0.028942721 0.0587435 0.013777594 -0.120199785
0.046181206 0.013187063 -0.0377293 0.06441759 0.04655589 0.03478941 -0.038500488 0.015197368
-0.0912066 0.026818143 7.120675e-07 0.11130767 0.07313226 0.100266054 0.021530166 0.03774093
-0.020900045 -0.06258865 -0.0071616434 -0.028866852 0.013135243 -0.05954996 -0.11388198 0.0514794
-0.061493192 -0.11282301 0.08907449 0.028587984 0.0758362 -0.037156284 -0.07160322 -0.031323306
-0.085458696 -0.11294927 0.02409123 0.023717823 -0.011957772 0.08803939 0.07085925 -0.05592823
0.12466131 -0.09048561 -0.0079377275 -0.10477452 -0.115595296 0.0072927675 0.103280954 0.029401941
0.06269422 -0.08793299 -0.013928986 0.01125799 -0.06701482 0.08299252 -0.0299115 0.036191527
0.029527925 -0.11292925 0.048099212 0.10385986 0.068077676 -0.067020066 0.09942141 0.016545204
0.049002048 -0.10453384 -0.042599197 0.09474198 0.068947345 -0.10632067 0.035479028 -0.07601414
-0.060141012 -0.08292614 0.01530883 0.097882956 0.07594658 0.03434475 -0.09188942 0.06563583

fc.0.bias f4 [64]
00000000: 85a3 d23c f978 f4bd 95b1 a5bc b6a3 e93d
00000010: cb82 f1bd 7fd2 e93d 3d5a 0a3d 7099 403c
00000020: ab6d ebbd dad5 73bd 943b a8bc 24e8 b43c
00000030: 905f 47bd 8987 91bd e654 473d 2855 a1bc
00000040: 45fe edbd 9462 91bd b471 d23d 4cb3 bebc
00000050: 69c1 29bd dcf8 80bc cbf0 9d3c ca82 0d3c
00000060: cb51 cdbc 3e7c dfbd 5c98 a43d 4e6b a93c
00000070: 7619 68bd 9411 b4bd 284f 80bd 2edc d7bd
00000080: e7f0 52bd 26c1 f4bd 483b 6bbd 59a0 9dbd
00000090: 4174 4f3d 512b 2c3d 0756 2cbd bb27 a63c
000000a0: 0d1a a0bc c37c b6bc b09e de3d c76c 913d
000000b0: 78d5 ab3d f4ea c03d f215 dfb9 2d42 803d
000000c0: 893d 10bd 3965 ad3c e13f 9bbd f47a ff3d
000000d0: efbd 0d3c 9af5 dd3d f71f f43c 107f eb3d
000000e0: 0fde db3d 7f11 e43d eee8 89bc a73c 133d
000000f0: 78f5 06bd b6c0 cf3d ef58 15bd c814 883d
0.025712738 -0.11937136 -0.02022628 0.114081785 -0.11792525 0.11417102 0.033777464 0.011755332
-0.11495527 -0.059530117 -0.020536222 0.02208335 -0.04867512 -0.071059294 0.04866495 -0.019693926
-0.11620764 -0.070988804 0.102755934 -0.023278855 -0.041444216 -0.015743665 0.019279858 0.00863714
-0.025063416 -0.10912369 0.08036873 0.02068105 -0.056664906 -0.08792415 -0.06265098 -0.10540043
-0.051499274 -0.11950903 -0.057429582 -0.076965995 0.050647978 0.042033497 -0.04207423 0.020282617
-0.019543672 -0.022276288 0.10870111 0.07100826 0.08390325 0.09419814 -0.00042550225 0.06262622
-0.035214934 0.02116643 -0.07580543 0.12474623 0.008651241 0.108378604 0.029800398 0.114988446
0.10735714 0.111361496 -0.016834702 0.035946514 -0.03294894 0.101441786 -0.036461767 0.06644589

output_layer.0.weight f4 [1, 64]
00000000: d42e c73d c863 f1bc 6700 a93d 9628 36bd
00000010: 8a15 e3bd 7fa1 893d fd1a af3c 7580 a5bd
00000020: 6ee7 cf3b 09c9 db3d 46c0 f4bb 74be 643d
00000030: 3894 b73d 9d93 ef3c a61e 91bc 0e4d f73d
00000040: 1322 1abc eb5c afbd a56f adbd c3aa 9ebd
00000050: 64af 5c3b 4c1e eb3d c7dc 9abd 463d 9f3d
00000060: 218c ad3d 282d c03d 2e0e 193d 7e39 fd3b
00000070: 687f aa3a a39e cfbd 4e29 95bd 7ad2 603d
00000080: cb8c 9c3d 7be4 07bd 5291 4d3c dfa5 73ba
00000090: 52b3 d3bc 312b 86bd 06ce e83c db02 8bbd
000000a0: 9901 da3d 4f7d 62bd 387e 7f3d 8a2d 04bd
000000b0: 318b c83c 5b05 39bb 8538 bbbd b295 773c
000000c0: 4cbb aabd 5634 d8bd c7e2 4f3c 15ae c03c
000000d0: f820 8c3b 33f4 34bd 3bfd ccbc c1b9 c3bd
000000e0: e2b9 06bd 0a7d 80bc 7ebf 093d 8c3d c6bd
000000f0: 830c 353d d431 8cbd fa67 4b3d 6f5c c13d
0.09725729 -0.029466525 0.0825203 -0.0444723 -0.110880926 0.06720256 0.021375174 -0.08081142
0.0063447272 0.10731704 -0.00746921 0.055845693 0.08963817 0.029245192 -0.01771481 0.12075244
-0.009407538 -0.085626446 -0.0846856 -0.07747414 0.0033673877 0.11480388 -0.07561641 0.07775359
0.08473993 0.09383613 0.03736704 0.007727801 0.0013007941 -0.101376794 -0.07283269 0.054888226
0.07644042 -0.03317688 0.012546854 -0.0009294431 -0.025842343 -0.06551207 0.028418552 -0.06787654
0.10644836 -0.055295285 0.06237623 -0.032269992 0.024480434 -0.0028231952 -0.091416396 0.015111374
-0.08336505 -0.10556857 0.012688345 0.023520509 0.004276391 -0.0441782 -0.025023093 -0.09556914
-0.032892115 -0.015684623 0.033629887 -0.09679708 0.044201385 -0.068454415 0.049659707 0.094414584
